Lab4/models/gan_models/fm_1000e_dis.pth (torch, 403159 bytes, 22 tensors)

model.0.weight f4 [16, 3, 3, 3]
00000000: e8f8 00bd 096f 19be 2460 bb3c 14bf fc3c
00000010: 2483 07bd d641 d33d db92 8c3a 6cf7 18be
00000020: 045c a73d 7f81 533d 1a7e 39be a6e5 81bd
00000030: 150b 993d 34b4 a1bd 09b8 013d cb4b ca3d
00000040: b5c5 01be 469a c43c f09e a73d 1cc1 f9bc
00000050: 605a 6cba 97c7 bc3d 459e 84bc a2bc d33d
00000060: 2b4b 193d c5c0 fcbd 4acc 72bb dfef 91be
00000070: 0c5e 9dbe c717 cebc ea51 a0be e0f3 84be
00000080: 60dc 25bc 0c8d 06be 273d a0bd 3555 523d
00000090: 07dc f23d 1dc3 313e 183c 0f3d deb6 383e
000000a0: 2ff2 563e 6bd9 f43d 7ca3 d33d bfda 0e3e
000000b0: ab0b 8f3b eaa3 fc3d 0202 693d d3bf 4ebb
000000c0: 4d81 f63d 2b3c 9d3d 985b 1ebd e87d 06bd
000000d0: 0521 39bd b3f4 dbbd e85a 6c3d cb5d 3abc
000000e0: 8e3a 123e 331c 423c fd02 1bbe ecbd 05be
000000f0: 5211 f03d 99fa 8bbd 8968 393d 108f a93d
00000100: 5f92 1fbc 1e2b 133e d31d b93d cd52 153b
00000110: 9cd7 e7bc a460 723c 8186 75bd 7f08 27bd
00000120: 35bd 90bd 7f94 3abc 77e3 063e eda1 5bbe
00000130: 5694 07be 9e83 aebd ed7e 3ebe eec0 cbbd
00000140: 3079 77bd a0be f53d 65b0 053e 41df dc3d
00000150: ba43 253e 803b 7e3e f55f 3d3e 2a5e 0bbe
00000160: 66f5 33bd bcfd 08bd 2e93 0d3e e70c cd3d
00000170: a5a3 c23d fe15 103e 7ee2 5a3e 65a9 193e
00000180: 21d3 a9bd 41de 7dbd 8f76 97bd 84fd 2fbe
00000190: 1568 67be 9837 5fbe 4810 48be 7d97 47be
000001a0: ab64 18be 4cd5 053d d0e2 d83c c5d3 893d
000001b0: e585 34bd 5c37 da3d b015 aa3d 11a1 e63c
000001c0: 469b 733e 90c8 aa3d 7e2f 853d 9f3b 8d3e
000001d0: c6fd c63d bcd6 c1bd ecf2 92be 4d6b 49be
000001e0: 4100 66be a20c c1be 0cb0 8abe 65df 0bbe
000001f0: 9499 a5be 7e86 65be 49bf 343e 8e43 393e
00000200: 016e ad3d 8bf3 603e 757f 103e f9eb 463e
00000210: aa42 dc3d 8de0 3e3d f5f5 043e f156 843e
00000220: 67a3 73bc e72b 88bd cdad e53d b8a5 3bbe
00000230: ec74 09be 0fd4 1c3d 1fc0 a13d f1b1 3a3e
00000240: 0f79 113e 0976 8ebe f983 0cbe eff0 90bd
00000250: 1c6b b6be e49d 09be 8d31 c6bd 1b5f efbd
00000260: dad9 c63c d0ee 9c3e f713 9cbd b236 f73c
00000270: c29a 2c3e 59dc a0bd af13 8e3d 0d98 123e
00000280: 4340 d33d 8c0a 853e 9593 c3bd e0b5 02be
00000290: 4967 00bd 4a51 15bd ff71 afbb e4a9 bf3d
000002a0: 1db5 6a3d f3d8 e83d 9221 283d d2f0 623c
000002b0: 06ab 03bd 7aa1 29be f8c8 f83d fc7e bf3d
000002c0: bf32 043d dafb 803e d6f4 413e 359b 50ba
000002d0: 9460 a4bd e505 33be b0c0 81be 92c9 afbd
000002e0: deb9 ebbc efbd bc3a 2043 fe3d 03af 193e
000002f0: 0a21 083d 8980 97bd f684 903d 34e0 a6bd
00000300: 5bb9 bb3d 18d3 7c3e ecc0 6abe 2d2f 8fbd
00000310: 478c a13d bd0c 33be 1b40 b1bd e862 283e
00000320: 6ad0 02be 0eac 223d 8f7f c33e 29ea 74be
00000330: 4d57 fabd 9d44 1b3e 4a42 21be 61a7 edbd
00000340: 8327 c63d 4c2d febd 5c59 913d b573 b63e
00000350: 6620 32be 5850 16be b6d3 193e d8bd 2bbe
00000360: ac85 63bd 9e37 3ebd da70 79bd a211 793d
00000370: adf8 a63e e8af 223e 0a0c 77bd cec1 023e
00000380: 932c f4bd 2508 b9be 5b2d 63be a146 6bbe
00000390: b511 b0bd 96e8 713e cf4d 1c3e 6d74 d6bd
000003a0: b835 5dbd ca94 5dbe a610 2abe 065c 50bd
000003b0: ee64 4abd 4240 c43c bc72 a93e 0fb3 a33e
000003c0: f8f2 62bd 3b31 ae3d 718c 9fbd 1928 83bc
000003d0: bacc cbbd e063 103e 22a6 dfbd 9227 98bd
000003e0: 40fc 873e c850 50bd 6598 83bd 0e79 cd3d
000003f0: 1e9b 3cbd 2c76 65bd 7127 e83d 17aa 5dbe
-0.031487375 -0.14983763 0.022872992 0.030852832 -0.03308405 0.103152916 0.0010724919 -0.14938134
0.081718475 0.05163717 -0.1811451 -0.0634263 0.07472817 -0.07895699 0.03166965 0.098777376
-0.12673075 0.023999345 0.08184612 -0.03048759 -0.00090161525 0.09217756 -0.01618875 0.10338713
0.0374252 -0.12341455 -0.0037048035 -0.2850332 -0.30735815 -0.025157822 -0.31312495 -0.25967312
-0.010123342 -0.13139743 -0.07824164 0.05135079 0.11858373 0.17359586 0.03496942 0.18038508
0.20990823 0.11955532 0.103339165 0.13950633 0.0043654046 0.123359516 0.05688668 -0.0031547442
0.12036381 0.07677492 -0.03866157 -0.032834917 -0.045197506 -0.10740032 0.057703882 -0.011374901
0.1428015 0.0118475435 -0.15137859 -0.1306073 0.117220536 -0.06834907 0.045265708 0.0827924
-0.009739487 0.14371917 0.09038892 0.0022784949 -0.028301053 0.014793549 -0.059942726 -0.040779587
-0.070673384 -0.011387943 0.13172708 -0.21448489 -0.1324018 -0.08521198 -0.18603106 -0.09948908
-0.060418308 0.119992495 0.1305557 0.1078477 0.16139117 0.24827385 0.18493636 -0.1361014
-0.043935202 -0.033445105 0.13825676 0.100122266 0.09503869 0.1407089 0.21375462 0.15006025
-0.08292223 -0.061979536 -0.0739566 -0.17186552 -0.22598298 -0.21798551 -0.19537461 -0.19491382
-0.14882152 0.03267412 0.02647534 0.06729845 -0.044073004 0.1065509 0.08304918 0.028152974
0.23789701 0.083390355 0.06503199 0.2758455 0.09716372 -0.094647855 -0.2870096 -0.19669838
-0.22461034 -0.3770495 -0.27087438 -0.13659437 -0.32343733 -0.22414586 0.17651094 0.18092176
0.08468247 0.21967904 0.14111121 0.19425954 0.10754903 0.046600867 0.1298445 0.2584758
-0.014870501 -0.06648999 0.112147905 -0.18324935 -0.13423508 0.038288172 0.07897972 0.18231942
0.14206336 -0.2782443 -0.13722219 -0.070772044 -0.35628593 -0.13439137 -0.0967742 -0.11688062
0.024273802 0.3065095 -0.076209955 0.030177448 0.1685591 -0.07854528 0.06937348 0.14315815
0.10314991 0.2598461 -0.095496334 -0.12764692 -0.0313485 -0.036454476 -0.0053541656 0.09358576
0.05730163 0.11369505 0.04104764 0.013851361 -0.032145523 -0.16565505 0.12147707 0.09350392
0.032274958 0.25192147 0.18941054 -0.0007957698 -0.08026233 -0.17482717 -0.2534232 -0.08583368
-0.028775152 0.0014399866 0.12415147 0.15008168 0.033234634 -0.07397563 0.0705661 -0.08148232
0.09166213 0.24689901 -0.22925156 -0.0699142 0.07888084 -0.17485328 -0.08654805 0.1644398
-0.12774816 0.039714865 0.38183257 -0.2391745 -0.122236826 0.15162893 -0.15747944 -0.116041906
0.09675505 -0.124109834 0.07097122 0.35635152 -0.17395172 -0.14679086 0.15022168 -0.16771638
-0.0555474 -0.04643976 -0.06089864 0.06080783 0.326116 0.15887415 -0.060314216 0.12769243
-0.11922564 -0.36139026 -0.2218527 -0.22976162 -0.08597127 0.2362388 0.15264057 -0.10471425
-0.05400631 -0.2163879 -0.16607913 -0.05086901 -0.04941266 0.023956422 0.33095348 0.31972548
-0.055407494 0.08505484 -0.07790459 -0.016010331 -0.09951158 0.141006 -0.10920359 -0.074294224
0.2655964 -0.05085829 -0.06425551 0.10032855 -0.04604637 -0.0560209 0.11335648 -0.21646915

model.0.bias f4 [16]
00000000: f8d6 f13e 9586 e0bd 0760 b9be 568f 20bf
00000010: 5e0a 6abc 3055 81be e958 8bbe 6e38 a1bd
00000020: 5cc6 e6be 2e2d 3fbd dff3 a3be 3835 1cbe
00000030: e18f ffbe a943 e1be b149 20be 5905 c2be
0.4723432 -0.109631695 -0.36206076 -0.62718713 -0.014284698 -0.25260305 -0.2721627 -0.07872091
-0.4507321 -0.046673946 -0.32021996 -0.15254676 -0.49914458 -0.43996933 -0.15653111 -0.37894705

model.2.weight f4 [32, 16, 3, 3]
00000000: f5f5 7dbd c163 75be fcfc 1fbe 42cb 56bc
00000010: b074 a53d c80c b0bc 1385 64bd 1950 093e
00000020: e1b6 923d 7fce eb3c 2779 cabc 45e6 943a
00000030: c7d8 d4bc c8dd dfbd f586 6abe 3a4c dbbd
00000040: e241 16be a145 11be bb09 503e 1701 b43e
00000050: 1bab 843e aeea 79be 1eb1 33be 4b05 bcbd
00000060: 35ed d23b 5e21 66be 3577 3fbe e26c ab3e
00000070: 3ac4 b83e 354f 9b3e 8bd8 babc aaf4 72be
00000080: 44aa 1a3e cd3c 12bd 4055 a6be 903a 8bbe
00000090: d33b 7e3d 8d6c 383e a0f3 de3c d240 28bd
000000a0: 9b62 8a3d e621 a8bc 6056 26be 166c 0dbc
000000b0: a006 d7bd 32f4 3b3e fad0 f03d f7fe 6abe
000000c0: b00f 2d3e fd93 5a3c df95 16bd 5d12 763e
000000d0: 455a 1bbb 02d1 003d 6e99 e6bd e0d4 1dbb
000000e0: 70ff 6dbe 78cd ebbd dfe8 a2bd 8b5e 133e
000000f0: e950 36be 8ced 1dbe f284 2b3e 0fb0 593e
00000100: 6014 0c3d 4304 81bd 762a c8bd 6da9 25bd
00000110: b191 77bd f91f 843d 93c1 8ebc ed48 d5bd
00000120: 1f48 2e3e 5687 ea3d 6922 803d fb3b 7bbe
00000130: 7765 803d 2cfd 03bd 31f0 7fbe f48f 073d
00000140: 9cf7 81be 90f0 b3bd ae07 ebbc ad91 0a3e
00000150: b43e e1bd 1ea5 e1bd 0160 b83b 6133 b43d
00000160: c43e 86bd a28d 133e 898c 58be 8b53 13be
00000170: 5d44 9fbe 4595 933d 1668 0c3d 5453 b13e
00000180: 6afd a63c aac3 fbbd 4d95 113d 29f3 ab3e
00000190: bde7 153e 488f 833e f7fb ccbc 6e44 61be
000001a0: 991b 693d f4fc b03e 37fb 1ebd ba07 5e3e
000001b0: 4c70 a93e 7e1f 803e b6ea ea3d c594 093e
000001c0: ba6e 0d3d 0ae6 87bd ed4c b03d f034 a13c
000001d0: 75bd db3d e1e0 113e a123 333e 9b28 0d3d
000001e0: dcb5 703e 68c9 853e 00e1 0a3e ac1a ae3e
000001f0: dc08 713e 245d 2b3c e01b db3d e9fa fe3d
00000200: 80b6 de3d 12ef d1be 5d2e bcbd e691 f53d
00000210: 652c 4d3c de53 e5bd 1e77 d8bd f518 463e
00000220: 58ad c73e 1543 593d 5929 5d3e 0c3d 5b3e
00000230: 3d2c 79bc 962d 7b3d 21d8 973d 150e 51bd
00000240: ea15 973c 37ad 8d3d 5b87 15be 67c8 8f3d
00000250: 933c 97bc a8fb 68be 6d0a 773e 102b c5bd
00000260: 08dd a6bd ac68 79be 039b 51be b86e 833d
00000270: 62df 7cbe 8219 a3bd 1a6a 003d 9be0 363d
00000280: d9d6 1bbe 3861 233d eadd 753d c4f0 773d
00000290: e436 413e 0e4e babd 0062 f63d f34c ad3b
000002a0: 76fe 13bd 36ff 043e 6f72 a1bd 43de 35be
000002b0: 7ede 75bd d6e8 c93d fc0b 32be 965a 4cbd
000002c0: 3c97 343e 1a76 31be 4c5e 3cbd 3a07 02be
000002d0: 370e 58be 1ad5 cfbd 2ec3 dcbd 2452 65be
000002e0: 52e4 2dbe 6f2b 6fbd b2b8 86bd 2e41 043d
000002f0: e73c bd3c f112 1c3e cffe 48be ccfd edbd
00000300: 185f 7e3e 213c 40be 5f78 76bc a70b 2e3d
00000310: 599a cd3e 2155 b63d d5c2 943d 9632 34be
00000320: 75a1 bd3e 0261 1c3e f011 883e fe89 39be
00000330: 1587 2b3d bae8 de3d 4198 9f3e cfbf 883e
00000340: 6e64 ca3e c83c 3e3d 30a6 7cbd d9b8 4a3e
00000350: 1669 1ebe 5adf 0f3e ebe2 4d3d 2c74 b33a
00000360: 773d 873e 2324 0f3e 8b22 403e 9610 0abe
00000370: b5fa 893e be5a 7fbc cc3f 963c ceb9 c5bd
00000380: 68d2 7d3e 8d23 8cbd cbe5 d33d 25ac 70bb
00000390: a696 f73d 1179 f33d ade3 b13d 3f84 72bd
000003a0: 0e31 3bbd af1e 34bd 51b1 4c3d 0b41 803e
000003b0: 2107 803e a52e 4d3e 3814 4ebd f855 d03d
000003c0: 16e4 c0be 04f6 cb3e 5f7e c43d a74c 49bd
000003d0: cd77 9e3d 2214 7fbe 56e3 1139 5173 123d
000003e0: 7ff5 183e ebd5 263e a58d d63d dd2b 073d
000003f0: 8469 ee3c cc0a 163e 2d96 01be 44ad f9bd
-0.06200214 -0.23963834 -0.1562385 -0.013109984 0.08078897 -0.02149047 -0.055790972 0.13409461
0.07163788 0.028784988 -0.024715973 0.001136013 -0.025982274 -0.10930973 -0.22903045 -0.107078984
-0.1467357 -0.14186718 0.20316212 0.3515708 0.25911793 -0.2440593 -0.17548034 -0.09180697
0.0064369687 -0.22473666 -0.18697818 0.33481508 0.3608721 0.30333868 -0.022808334 -0.23726144
0.15104014 -0.035702515 -0.32486916 -0.27193117 0.06206877 0.18010159 0.027215779 -0.041077442
0.06757089 -0.020523977 -0.16243887 -0.008631727 -0.104993105 0.18354872 0.11758609 -0.22948824
0.16900516 0.013340947 -0.036764022 0.24030443 -0.0023704928 0.031449325 -0.11259733 -0.0024083182
-0.23241973 -0.115137994 -0.07954573 0.14391534 -0.17804302 -0.15422648 0.16749933 0.21258567
0.03419912 -0.06299641 -0.09773724 -0.04044478 -0.060441677 0.06451411 -0.017426288 -0.104143
0.170197 0.114515945 0.06256563 -0.245346 0.06269353 -0.032223865 -0.2499397 0.03309627
-0.25384223 -0.08786118 -0.028690185 0.13532133 -0.10998288 -0.11017822 0.005626679 0.08798862
-0.0655494 0.14409497 -0.2114736 -0.14387338 -0.31106845 0.07206205 0.03427895 0.34633887
0.02038451 -0.12293179 0.035542775 0.33583954 0.14639182 0.25695252 -0.02502249 -0.2199876
0.056911085 0.34567988 -0.038813796 0.21682635 0.33093488 0.25024027 0.11470549 0.13435657
0.034529425 -0.06635673 0.086084224 0.019678563 0.107294954 0.1424594 0.1749406 0.034462553
0.23506874 0.26130223 0.13562393 0.34004724 0.23538536 0.010459218 0.10698676 0.12450201
0.10874653 -0.4100271 -0.091885306 0.119907185 0.0125227915 -0.11197637 -0.10569595 0.19345458
0.38999438 0.05304249 0.21597804 0.21410006 -0.015208301 0.06132277 0.0741427 -0.05103882
0.018443067 0.06917804 -0.14602415 0.070206456 -0.018461501 -0.22752249 0.24125071 -0.09627354
-0.08147627 -0.24356335 -0.20469289 0.06417602 -0.24694589 -0.079638496 0.031351186 0.044647794
-0.15218677 0.039887637 0.060026087 0.060532346 0.18868595 -0.09096919 0.12030411 0.005288714
-0.036131345 0.1298798 -0.078831546 -0.17760567 -0.06002664 0.09858863 -0.17387384 -0.049891077
0.17635816 -0.17330208 -0.045988366 -0.12698069 -0.21099173 -0.10148068 -0.10779415 -0.22394615
-0.16981629 -0.05839103 -0.065781966 0.032288723 0.02310033 0.152416 -0.19628452 -0.116206735
0.24840963 -0.18772937 -0.015043347 0.04249158 0.4015682 0.08902956 0.07263724 -0.17597422
0.37037244 0.1527138 0.26576185 -0.18119046 0.04187687 0.10884233 0.31170848 0.26708838
0.39529747 0.046444684 -0.061681926 0.19797076 -0.15469775 0.14050046 0.050265234 0.0013691238
0.2641408 0.13978629 0.18763177 -0.1348289 0.26949087 -0.0155855995 0.018340968 -0.0965458
0.24787295 -0.06842718 0.10346564 -0.00367237 0.12089281 0.11888326 0.08686004 -0.05920815
-0.04570108 -0.043974575 0.04997379 0.25049624 0.2500544 0.20037325 -0.05031225 0.10172647
-0.37674016 0.39836133 0.09594416 -0.049145367 0.07737694 -0.24910024 0.00013912967 0.035754506
0.149374 0.1629254 0.10476235 0.033000816 0.029103048 0.14652556 -0.12654944 -0.12191251

model.2.bias f4 [32]
00000000: 6eeb 7ebe 9a3d 8ebe 9345 0e3f dd90 b9be
00000010: e159 f6be 8fc7 d2be 1170 17bf a46a 4d3f
00000020: 7be4 c33e 1928 013e 8fd9 73be 0799 fbbe
00000030: 7fe2 21be be2c 8ebe b939 abbe 2fd9 f2be
00000040: 8bac c8bd 2460 ab3e 7aee 523e fca2 e6be
00000050: dcd8 a03d 2d3a a8be 4aa9 fcbe 24b9 b2be
00000060: 447a 0dbf 3624 9bbd 924a c1be ec14 ddbe
00000070: b180 9dbd aeab d93e 6e49 863d 6cca 0e3f
-0.24894497 -0.27781373 0.5557491 -0.36243334 -0.48115447 -0.41167876 -0.59155375 0.80240846
0.38260254 0.12612952 -0.23813461 -0.49140188 -0.15809058 -0.2776851 -0.33442476 -0.47431323
-0.09798535 0.33471787 0.20598784 -0.45046222 0.07853863 -0.32856885 -0.49347907 -0.34906876
-0.5526469 -0.07575266 -0.37752205 -0.43180025 -0.076905616 0.42513794 0.06556974 0.5577762

model.4.weight f4 [32]
00000000: 177a 353f eaab 383f 30a7 513f cb0a 443f
00000010: 80d1 583f 3840 443f da1c 653f b09d 763f
00000020: c039 773f 3c88 5c3f c3d6 513f 1d8b 6f3f
00000030: f338 3e3f 98cf 793f 1461 743f 84c1 703f
00000040: dc14 413f f67e 543f 747d 473f 50ca 383f
00000050: 830d 293f 4671 4d3f 145e 633f e913 7d3f
00000060: 8290 763f 4a88 473f 5bcb 703f ee8f 473f
00000070: e3b8 503f 1a41 2b3f 8eef 4c3f 5602 2a3f
0.7088942 0.7213732 0.8189573 0.7657897 0.8469467 0.7666049 0.8949715 0.9633436
0.96572495 0.8614538 0.81968325 0.93571645 0.7430565 0.9758239 0.9546063 0.9404528
0.75422454 0.83006227 0.779258 0.72183704 0.6603624 0.80250967 0.88815427 0.98858505
0.9631425 0.77942336 0.94060296 0.77953994 0.81532115 0.6689621 0.8005303 0.66409814

model.4.bias f4 [32]
00000000: e2a3 7dbf d9fe 7fbf 6c58 183d 4b96 a5bc
00000010: 0821 40bf e49d 8bbe 336f 5fbf fec6 d23e
00000020: e9ef 44be baa1 2bbf 6fbb 79bf 38b8 34bf
00000030: 1ba8 7ebf 0403 a63d 13e8 49bf 4f1f 7fbf
00000040: 40fd 813d b96e 35bf b41f 0cbf 707b 7fbf
00000050: f1a2 adbe 645e 98be d345 64bf 50c0 54bf
00000060: f347 e7be b62c 54bf 5181 943c e879 30be
00000070: 4fb7 18bd 14ec 7dbf 2f67 5d3f 5877 953e
-0.9907819 -0.9999824 0.0371937 -0.020213267 -0.750504 -0.27268898 -0.8727905 0.41167444
-0.19232143 -0.6704365 -0.97551626 -0.70593596 -0.9947526 0.08106044 -0.7886974 -0.9965715
0.06347132 -0.70872074 -0.54735875 -0.99797726 -0.33913377 -0.29759514 -0.89169043 -0.83105946
-0.4517208 -0.82880723 0.01812807 -0.17234004 -0.03728419 -0.9918835 0.8648557 0.29192615

model.4.running_mean f4 [32]
00000000: 465d 1abe 3260 21be 5935 5e3f b29a 17be
00000010: 5e1b 84be faf8 30be 3291 3ebe b37a ac3f
00000020: bbe9 863f 7fb4 483f 039e f6bd fdcc e0bd
00000030: 3314 b0bc 4dc3 3dbe 9075 e9bd 17b8 14be
00000040: 9b11 35be dbac 533f 02f7 413f dcb2 06be
00000050: 4d3a 873e 9625 11be 63f0 36be 25fe 57be
00000060: 4b87 21be 671e 603d e331 3fbe 0b77 2ebe
00000070: b41d d53d fbad 783f 75cd 1fbd 9d87 673f
-0.15074643 -0.15759352 0.8680015 -0.14805105 -0.2580213 -0.17282477 -0.18610075 1.3474945
1.0540079 0.78400415 -0.12041857 -0.109765984 -0.021494007 -0.18531533 -0.113993764 -0.1452335
-0.17682497 0.8268563 0.7576753 -0.13154167 0.26411667 -0.14174494 -0.17865138 -0.21093042
-0.15774266 0.054716494 -0.18671374 -0.17037599 0.10406056 0.97140473 -0.0390143 0.90441304

model.4.running_var f4 [32]
00000000: 28a4 823c d359 f93b 1603 5e3d 180d af3c
00000010: b661 133c dce9 003c 07a8 e93b e7d5 3b3e
00000020: 408c bd3d f336 ad3d fa61 0a3c d992 963c
00000030: 4ae7 b13c 7e17 8b3c b310 af3c bbcc 273c
00000040: 3315 d13c 68a7 e53d cef5 053e f8e8 c73b
00000050: 5b8e 473d d548 273c cf19 a43b f370 6e3c
00000060: d182 5a3c 01a6 9b3c b6e2 f13b f119 533c
00000070: 3448 0f3d 4ba8 803d cd9c c53d 6b85 773d
0.015947416 0.007609585 0.05420216 0.021368548 0.008995464 0.007868256 0.007130626 0.18343316
0.09255266 0.08457746 0.008446211 0.01838057 0.021716733 0.016978975 0.021370267 0.010241683
0.025522804 0.11213571 0.13082048 0.00610077 0.048719745 0.010210236 0.0050079594 0.014553296
0.013336853 0.019000055 0.0073817624 0.012884603 0.034980968 0.06282099 0.09649048 0.06042997

model.5.weight f4 [64, 32, 3, 3]
00000000: a9c8 be3d 6fa1 663c c687 a63d e65d 49be
00000010: 4775 2f3e 0eb8 e5bd e36d 4fbe 1741 083e
00000020: 3d05 693e aeef 753e 83a5 883e d39f 69bd
00000030: 72c4 623e 19dd bb3d c609 f2bd 5f46 d03d
00000040: 313e 433d dbe7 473e 7f29 853d bedc 85bc
00000050: 7703 173d 6844 c33c fcce 4fbc 7cd9 df3b
00000060: b224 e73d 9fa6 cdbd d514 a7bc 03a7 bebd
00000070: 5546 323e 5ae4 533d 56c0 34be a6f3 15bd
00000080: 9483 d4bb 9fd3 3a3e 7456 103e df58 37be
00000090: dce9 9b3d b42c 413e e09b 833d 3b67 c83d
000000a0: 9c8c cb3d ba7a 003d 3238 733e 868b 81bc
000000b0: 0bfc 673d 547a 8c3c b929 f1b9 a8ba 11be
000000c0: 3707 f8be 7af7 c63c 74a4 19be 5c89 763b
000000d0: af06 a4bd 7a9a 2ebd bdc1 a93d 3aea cb3d
000000e0: 9025 95be 840c bdbd 6b5b 14be 3936 c7bd
000000f0: 6978 653c 8a03 24bc 99ab 463e 678d 85be
00000100: 92e1 1cbe 38e1 f0bd b6fc 00be fde3 223c
00000110: 75c0 9abd d436 2a3e a233 973d 6800 16be
00000120: dd38 57bb bbdf ea3d 320b a8bd 2296 7b3e
00000130: beca e7bd 02b3 50be f0da 6b3e 5b3a 073e
00000140: 1a09 b0be 768a e73d d5c8 363e 36e7 58bd
00000150: 6335 4a3d fca8 6dbe 9538 4f3d ac89 3c3c
00000160: a6d0 e83d 8e5b f03d ac67 273d 0867 453d
00000170: 7155 18bd a8d0 8ebd 89e6 b63e 50f6 8b3e
00000180: e2e5 023e 1b80 2e3e 9f35 673e 4175 593e
00000190: 75b1 a63c c1ef fd3d e682 6ebe ce09 8ebd
000001a0: e7ee b03d 0ee5 ffbb 3175 4abe c5c7 adbd
000001b0: 6f7d 993d eced c43e 3152 a73c c6fe e4bd
000001c0: 3dce 9fbe c49a 2f3d f39f a23d 26f1 703d
000001d0: 0aa5 febd 3ac4 403e 7552 8a3d 55bb 15be
000001e0: 4db0 953c 772c 9d3d 2434 c1bd e87d 053e
000001f0: 88ed 8a3e 227f 2abd 7205 c33c 6f64 893d
00000200: ec1d d23d f3e8 e4bd d630 8ebc 3517 523b
00000210: 36f3 583e d10e 60bd 7d57 f43d 7272 20bd
00000220: ded7 1d3c d536 4d3d 4dc2 d0bd 47ef 683e
00000230: d855 25be 68c8 da3e 8f3f c33d 2cde 5d3e
00000240: cc0c 8abc e4be b6bd 9f39 403d 7d8a 983d
00000250: ecbc dc3d aade a23d d069 3abe 36c7 f8bd
00000260: 5032 afbd 3dbf 293b 53b4 a2bd 676e a43e
00000270: fa5b 6bbd 0e8c 27bd 5391 683d 0e35 a03d
00000280: e307 8cbd dada 4f3e 8863 83be eba1 053d
00000290: 439c 47bd 3f5d b03c d61d c33d d7a8 b73d
000002a0: 7608 803d dd43 293e 15e1 91bd 74e4 4f3d
000002b0: 3fd2 eebd c080 973e 224f 473e b1b9 d73e
000002c0: 70b4 423e 206d 23be 6af6 50be 87a4 e9bd
000002d0: 18f7 7f3c a4da ae3d ff3a 403a 2df5 f6bd
000002e0: c13e f2bd 3055 093e 9474 f33c 5fbc a63d
000002f0: dbba 1bbd 4404 c13d 2c99 423d 0152 46be
00000300: b64b 5c3c a84f 81be ee20 a3bd 27a3 00be
00000310: 4025 9ebe 6dbe 95be aa39 323e a524 00bd
00000320: 5cc0 f03d 1c60 6fbd 9fd9 7abe e365 753e
00000330: ca6b d33b 772c 563d dea1 ec3d 625b 5f3e
00000340: 91fb 8f3d 62df 213e 6078 3c3e 6e3f aa3d
00000350: bcd0 aebd 9948 29bc 560e 9d3e f321 1f3e
00000360: e86a e5bc aeeb 05be 91d3 85be a05d 133d
00000370: ea24 f2bc fc4a d93d c792 0d3e f8fb 5b3e
00000380: 2506 b53e 9f3d 993e 571f 193e 5666 ff3d
00000390: 5f0b 5ebd f529 383e b68b cebd 307f 183e
000003a0: a220 513e 4df3 863d 5fe9 00be 349a 7e3d
000003b0: a887 1bbb c856 fc3d 2d40 183e ecb6 9fbd
000003c0: c226 a63e 5f53 de3b 6ec9 13bd 64c1 bc3c
000003d0: 44c2 293e 47f0 fdbc 50a0 e0bc 3c44 9d3d
000003e0: adad ddbd 7873 283e a61f eebd a131 febd
000003f0: 1550 7abe b67d d53d c56a 673e ef03 a23d
0.09315617 0.014076575 0.081313655 -0.19664726 0.17134582 -0.11216746 -0.20256762 0.1330608
0.22755904 0.24017212 0.26688775 -0.057037186 0.2214525 0.091730304 -0.118182704 0.10169672
0.047666732 0.1952204 0.065020554 -0.01634061 0.03686854 0.02383633 -0.012683626 0.006831346
0.11286296 -0.10041546 -0.020395676 -0.09309199 0.17409642 0.051731445 -0.17651495 -0.036609314
-0.006485412 0.1824479 0.14095479 -0.17904995 0.076129645 0.18864709 0.06426215 0.09785315
0.099389285 0.03136704 0.23751906 -0.0158136 0.05663685 0.017148174 -0.00045998188 -0.1423136
-0.48443004 0.024287928 -0.1500414 0.0037618494 -0.08009087 -0.04262779 0.08288906 0.099567845
-0.2913022 -0.09230903 -0.14487998 -0.09727139 0.014005759 -0.010010609 0.19401397 -0.26084444
-0.15320423 -0.11761707 -0.12596402 0.009942052 -0.075562395 0.16622478 0.07382895 -0.14648592
-0.003284029 0.114684545 -0.0820526 0.2456899 -0.11317967 -0.20380786 0.23032737 0.13205855
-0.34381944 0.11305706 0.17850049 -0.052954875 0.04936732 -0.23208994 0.05059107 0.011507433
0.113679215 0.11736213 0.040870354 0.04819396 -0.03719086 -0.06973392 0.3572276 0.2733636
0.12783006 0.17041056 0.22579049 0.21236135 0.02034829 0.12399245 -0.23292121 -0.06935464
0.08639317 -0.007809288 -0.19771267 -0.08485369 0.07494628 0.3846277 0.020424934 -0.11181407
-0.31212035 0.042872205 0.07940664 0.058823727 -0.124338225 0.18824854 0.06754009 -0.14622243
0.018272543 0.076744966 -0.09433773 0.1303631 0.27134347 -0.04162515 0.023806307 0.06708609
0.102596134 -0.11177244 -0.017357271 0.003205729 0.21186528 -0.05470163 0.119307496 -0.039171644
0.009633986 0.05010112 -0.1019331 0.22747527 -0.16146028 0.42731023 0.09533607 0.21666783
-0.016851805 -0.08923128 0.04692995 0.074482895 0.107782215 0.07952626 -0.18204427 -0.121473715
-0.08554518 0.002590134 -0.0794455 0.3211548 -0.057460763 -0.04090505 0.056779217 0.078226194
-0.06837442 0.20298329 -0.25661874 0.03262512 -0.048733007 0.021528838 0.09527175 0.089677505
0.06251614 0.16529794 -0.07123009 0.05075498 -0.11661195 0.29590416 0.1946378 0.4213386
0.19014144 -0.15959597 -0.204065 -0.11408334 0.015622877 0.08537796 0.000733301 -0.12058482
-0.118283756 0.13411403 0.029718675 0.08141398 -0.038019996 0.09424642 0.047509357 -0.1936722
0.013445785 -0.25256085 -0.07965265 -0.12562238 -0.30887794 -0.29246846 0.1740481 -0.031284947
0.1175544 -0.058441266 -0.24497078 0.23964648 0.0064520584 0.0522885 0.11554311 0.21812204
0.07030404 0.1580787 0.18405294 0.083128795 -0.08535907 -0.01033225 0.30675 0.15540294
-0.028005078 -0.13078186 -0.26137975 0.03597796 -0.029558618 0.10610005 0.13825522 0.21482837
0.3535625 0.29929826 0.14953361 0.12470691 -0.054210063 0.17984755 -0.100852415 0.14892268
0.20422605 0.06589375 -0.12589024 0.06215878 -0.002373198 0.1232124 0.14868231 -0.077985615
0.32451445 0.006784841 -0.03608077 0.023041435 0.16578013 -0.030998362 -0.027420193 0.0767903
-0.10824142 0.16450298 -0.1162713 -0.1241181 -0.24444611 0.10424368 0.22599323 0.079109065

model.5.bias f4 [64]
00000000: 2791 16bf a81d 09bf e287 bebe 3234 6bbf
00000010: 7915 67bf 5b88 26bf 4e76 7cbf 4624 9cbe
00000020: 4da9 73bf 632b aabe b69b 49bf 67aa 7fbf
00000030: eeff 24bf f417 23bf bb4d 7bbf 5a1a 0b3c
00000040: ba5e 0cbf 3434 4fbf 2551 36bf 006b 7dbf
00000050: a400 68bf 8468 3fbf 507c 15bf 69f8 7ebf
00000060: 2496 2bbf 0e41 3dbf 2e8d 20bf 1a7d 2dbd
00000070: 3215 60bf 48f4 7bbf e924 77bf 8041 ce3e
00000080: 3991 24bf 0dc9 a6be 4f48 7fbf 58de 79bf
00000090: 786d 2abe 7790 7abf 1011 5dbf 926b 59bf
000000a0: 2647 41bd caab d93d ff7e 41bf aef0 1bbf
000000b0: 94b9 41bf 388c 3bbe af09 6cbf c203 7cbf
000000c0: 5c79 7fbf 0da7 37bf cdb0 76bd beef 7fbf
000000d0: 08af 38bf d3d7 76bf 0ce2 24bf 7ca6 62bf
000000e0: fd9d 6fbf 1314 b2be 322d 7fbf 98cb 4bbf
000000f0: 8a9b 1fbf 1bb4 5d3d 2d4a 5cbf 146d 57bf
-0.58815235 -0.53560877 -0.37213045 -0.9187652 -0.9026714 -0.6505181 -0.9861802 -0.30496424
-0.9518021 -0.33236226 -0.7875322 -0.9986939 -0.6445302 -0.63708425 -0.9816548 0.008490169
-0.5483204 -0.8093903 -0.71217567 -0.98991394 -0.9062598 -0.74768853 -0.5839281 -0.99597794
-0.6702597 -0.7392739 -0.62715423 -0.042355634 -0.8753234 -0.9841962 -0.96540695 0.40284348
-0.6428409 -0.32575265 -0.9971971 -0.97604895 -0.16643322 -0.97876686 -0.8635416 -0.84929764
-0.047186993 0.10628469 -0.75584406 -0.60914123 -0.75673795 -0.18315208 -0.92202276 -0.98443234
-0.99794555 -0.71739274 -0.060227204 -0.9997519 -0.72142076 -0.9642307 -0.6440742 -0.88535285
-0.93600446 -0.3478094 -0.9967834 -0.79607534 -0.6234671 0.05412684 -0.86050683 -0.84150815

model.7.weight f4 [64]
00000000: de6d 783f 22ac 4a3f fd38 243f fd3a 4d3f
00000010: 1f45 643f d809 643f 4aa5 4b3f f216 7e3f
00000020: 0f0f 123f 16a4 5d3f 1b51 363f 8aca 1e3f
00000030: 0f87 4a3f d09d 323f cc9c 583f 124d 7d3f
00000040: 87b1 2e3f 0282 f13e f197 1f3f 6134 3a3f
00000050: 87c2 573f 11f3 4a3f ca63 223f b232 3b3f
00000060: d32f 5a3f ddb8 4f3f e391 523f c735 483f
00000070: caa0 4a3f 4a74 393f 65c6 3d3f 090e 583f
00000080: 229d 673f f257 533f f755 3d3f 3ad0 683f
00000090: c7ae 6e3f 0f72 563f 2583 413f 44d0 313f
000000a0: 3e61 7e3f d847 593f f1a2 563f 7c78 5b3f
000000b0: 86f3 4e3f 7df0 7a3f e7ea 323f 7863 613f
000000c0: 0784 0a3f b4bc 5c3f 3212 4f3f 4751 563f
000000d0: 2123 333f 0bc3 4b3f 985d 413f 2ad4 3c3f
000000e0: 60be 313f 3022 773f 39d5 3b3f ad26 373f
000000f0: a1f8 2f3f 70ad 783f 99cc 253f 045c 453f
0.97042644 0.79168904 0.6414946 0.80168134 0.8916797 0.8907752 0.79549086 0.9925376
0.5705423 0.865785 0.7121751 0.620278 0.79112333 0.6977205 0.84614253 0.98945725
0.68239635 0.471695 0.6234122 0.72736174 0.842812 0.7927714 0.63433516 0.7312423
0.85229224 0.81141454 0.82253855 0.7820706 0.79151595 0.7244307 0.7413085 0.84396416
0.9047414 0.8255607 0.73959297 0.9094273 0.9323544 0.8376779 0.75590736 0.69458413
0.9936713 0.8487525 0.8384238 0.8573072 0.8084034 0.98023206 0.6988968 0.880424
0.5410771 0.8622544 0.8088714 0.8371777 0.6997548 0.79594487 0.7553344 0.73761237
0.69431114 0.9653654 0.73372227 0.7154339 0.6873875 0.97139645 0.64765316 0.7709353

model.7.bias f4 [64]
00000000: 9f45 da3e 1f87 3f3e 99c0 7dbf 80b5 513d
00000010: ad40 033e 91ed ce3e 70cb 7ebf d1c2 f4be
00000020: a0d4 7ebf 9ab0 c03c a3f1 1f3d 15f5 64be
00000030: a438 91be 1c3f 0a3e 5ffe 2fbd a0a1 dfbd
00000040: 2dfa a83d 28db 7ebf ca90 50bf 1ae3 7cbf
00000050: 49c3 0a3e d445 523d f383 a6bd 575f 87be
00000060: 6a4d b1be 572d 853d eb6e bd3e ac91 c43d
00000070: bd39 8cbe 8b45 88be 6eb0 7bbf 1b90 7e3f
00000080: d3ab 703d c767 f83e 8e1d 7fbf 99f6 47bf
00000090: a11b 7e3f fdba 3fbf a561 03bf 946a 11bf
000000a0: 44e7 28bf 55c8 7e3f 00af 35be 97ea 063e
000000b0: 1242 a63d 7da2 c5be a865 9ebe 7320 7ebf
000000c0: 3fe7 7ebf 534f 35be 2ccb 7e3f 2ec6 48bf
000000d0: c604 36be 0af0 e6be 510a 26ba 3ef6 4dbe
000000e0: dcf3 9ebd 1162 20bf b4fc 02bf 21b1 90be
000000f0: 7b65 56bc a660 7c3f 2d52 a8be c269 acbd
0.42631242 0.18703888 -0.99122006 0.051198483 0.1281764 0.40415624 -0.9952917 -0.47804883
-0.9954319 0.02352171 0.039048802 -0.22359116 -0.28363526 0.13500637 -0.042967197 -0.109194994
0.08250842 -0.99553156 -0.8147093 -0.9878403 0.13551058 0.051336125 -0.08130636 -0.26439926
-0.34629375 0.065027885 0.36998686 0.09598097 -0.273878 -0.26615557 -0.98316085 0.9943864
0.058757614 0.48516676 -0.9965447 -0.78110653 0.9926091 -0.74894696 -0.5132087 -0.5680325
-0.65977883 0.9952443 -0.17742538 0.13175426 0.08118071 -0.3860053 -0.30936933 -0.99268264
-0.99571604 -0.17706041 0.99528766 -0.784274 -0.17775258 -0.4510501 -0.0006333935 -0.20113465
-0.07761356 -0.6264964 -0.51166844 -0.2826014 -0.013085718 0.98584974 -0.32875195 -0.08418609

model.7.running_mean f4 [64]
00000000: e94b c0bf 4c08 acbf 63fc 8e3f f2b9 a7bf
00000010: 5ba4 b0bf e70b bbbf 569b 9abf 7eab d540
00000020: a2e5 8abf 2c2c 03bf 39e7 50bf a0b2 a2bf
00000030: f195 72bf 522b 92bf dccc a5bf fd74 6740
00000040: c3eb babf 4634 24bf ce93 01bf 7d53 9abf
00000050: 05ea c5bf 6c30 9fbf 91d0 85bf 46c9 8cbf
00000060: 4ae7 95bf 7992 95bf 64f8 65bf 90cd 66bf
00000070: 9de7 cfbf bc5b 90bf 00b0 55be d3cf 94bf
00000080: 4245 89bf 8e89 a4bf 6fce 83bf ce06 adbf
00000090: 1f8f a2bf 69aa bbbf 4814 97bf aa9c 98bf
000000a0: 98df 8441 ba97 cdbf cba9 b2bf 3dc3 c2bf
000000b0: 6f8b 9dbf 6b6d 9e3e b48a 74bf eca8 aabf
000000c0: 3462 64bf dfc3 90bf e8ad 45bf 8b37 9fbf
000000d0: fc47 9cbf 2107 a6bf f69a 85bf 623a 75bf
000000e0: 3802 8cbf d000 2cbf bb90 92bf 37e3 9abf
000000f0: a9df 97bf 430f c7bf f51e 98bf fd75 8cbf
-1.5023166 -1.3440032 1.1170772 -1.3103621 -1.3800157 -1.4613007 -1.2078655 6.677184
-1.0851328 -0.51239276 -0.8160282 -1.2710762 -0.9476004 -1.141947 -1.2953143 3.6165154
-1.4603199 -0.6414226 -0.5061616 -1.2056729 -1.5462042 -1.2436652 -1.0454274 -1.0998924
-1.1711209 -1.1685325 -0.8983214 -0.90157413 -1.6242558 -1.1277995 -0.2086792 -1.1625923
-1.0724261 -1.2854478 -1.0297374 -1.3517702 -1.2699927 -1.466138 -1.1803064 -1.192281
16.609177 -1.6061928 -1.3958067 -1.5215832 -1.2308177 0.30942854 -0.95524144 -1.3332801
-0.89212346 -1.1309775 -0.77218485 -1.2438825 -1.2209468 -1.2970926 -1.0437915 -0.9579221
-1.0938177 -0.6718874 -1.1450418 -1.210059 -1.1865131 -1.5551533 -1.1884447 -1.0973507

model.7.running_var f4 [64]
00000000: 14b7 d63e 66ca a23e 8a3d 4040 355f 133f
00000010: 78ab cb3e 46a9 023f 21c9 f43e b62d 9241
00000020: 5a5a cd3e 3bd1 de3e 9edc f03e 18f0 c53e
00000030: d821 fd3e 3dc3 b53e 2774 703e 84f9 3241
00000040: 239e 2e3f e0f4 2f40 1339 a13f 5104 c73e
00000050: b3f4 e73e fa53 d03e 717b 713e 0ec9 d53e
00000060: ab20 003f b931 a13e 59bc b43e 1d3b ab3e
00000070: 6b2c 823e a16d 953e 79f3 4040 20d8 a63f
00000080: 22c1 893e b0fb 143f 13e0 b53e 0bce ef3e
00000090: 6047 d03e 1fec b63e 1378 0e3f 06b2 d33e
000000a0: cac0 8241 d591 613f a57b 043f 3397 073f
000000b0: ddf9 093f 287c 9d40 2a22 be3e 00a9 823e
000000c0: 0dbc 843e 8755 093f 7861 c43f 8ae3 f23e
000000d0: f2ac b33e b0d3 0c3f 9c9d c43e b81e e73e
000000e0: 2968 923e 8d81 fe3f b194 7a3e b464 b43e
000000f0: f6fc 0b3f b357 ff3e 39e8 f03e e0c8 c83e
0.41936553 0.31795043 3.003756 0.5756715 0.39779258 0.5103954 0.478097 18.27232
0.40107995 0.43519005 0.47043318 0.3865974 0.49439883 0.35500517 0.23481809 11.185917
0.6821005 2.749321 1.2595543 0.3887048 0.45303878 0.4068907 0.23582245 0.41754955
0.5004985 0.31483248 0.35299948 0.33443537 0.25424513 0.29185203 3.0148604 1.3034706
0.2690516 0.58196545 0.35522518 0.46836886 0.40679455 0.3572702 0.5565197 0.4134676
16.344135 0.8811315 0.51751167 0.52965087 0.53896886 4.921406 0.3713544 0.25519562
0.2592472 0.5364613 1.5342245 0.47439224 0.35092884 0.5501051 0.38401496 0.45140624
0.28595093 1.9883286 0.24470784 0.3523308 0.5468286 0.49871597 0.47052172 0.39215755

model.8.weight f4 [128, 64, 3, 3]
00000000: e6fa 92be 9924 27bd 0d89 09be ebf1 c53d
00000010: 23b1 493d 8c2d 0dbe 341a 253e a6cc 17bd
00000020: f7d1 733d df77 563d 9141 77be 11fc 303c
00000030: 9602 053e cd67 0ebd 3741 90bd 7005 933d
00000040: 6df5 ef3d d5a6 b6bd e590 073e ea50 2abe
00000050: ad66 0d3e 883f 5f3e f0d9 853d 33af 783e
00000060: c837 59bc 6b8e 15bd f951 0f3e d5de a23e
00000070: a6ed 95bb 72ce ee3c 4e9d 94bd 5004 95be
00000080: 7976 17bd b514 a2bd 91b2 afbd c1c3 e4bc
00000090: a63f 3d3e 05fe 74bd 3cff a3bd ec6e 86be
000000a0: f699 90bd 79ce 32be bcbd df3b d7e3 b03c
000000b0: 76d8 1bbe d2c0 5a3e a97c 8b3d db12 a33e
000000c0: b0c6 393c 05eb 9a3e 68b2 bbbc 0e18 9e3e
000000d0: 464e 953e 999f f33d 0041 6a3d 206a 0b3e
000000e0: 84a8 da3d 6e51 24be 6f30 f2bd d057 b63d
000000f0: 17e8 7abe 41bb 1e3e 1890 a2bd b693 b9be
00000100: 6440 50be ac24 46be a636 6bbe bd03 793d
00000110: abb8 fc3d c3a4 73be 31ff 663c 537d d1bd
00000120: c548 cb3e 99de 8ebe d2bb 29bd 29de c73d
00000130: ca70 123d 247a 993e 333f 16be 27b5 5dbd
00000140: 5419 793e 161a 723e 97ed a83e d8b6 4c3d
00000150: 7b9a 9b3d 05d7 50be 9983 06bd d8d1 c43b
00000160: d634 8cbd 6708 513d 2427 873d 0c43 9cbd
00000170: 1f41 96bd 698a 973b 6895 05be df1a cdbd
00000180: cc0b 3b3e c1a9 b4bd 498e 3fbe 4c3c 463c
00000190: ffbb f7bd 29c7 77b9 039f 8a3e 4ae3 b83d
000001a0: 612f 2bbe e18c 44be d077 20be 65a3 053e
000001b0: 7a5c bfbd 826f c5be 34fd 17be 4acf 23be
000001c0: 44ad 093e 0496 7d3d a607 863d 747c 363d
000001d0: 1be7 243d 029a 1cbe d0ef a93e 25d3 e6bd
000001e0: ff5f 223d e14e 3cbe c1e6 04bd 57f8 483d
000001f0: 5b3c bb3c 1bcb 273d 23f2 5bbe 78c5 103d
00000200: b7bc 71bd e71a 943e de2f 64be cc1e 09bd
00000210: ca11 cdbd 0351 89bd c38a 99bd cf1a d6be
00000220: 7c25 1abe 26a8 d23d d0f5 6dbd 9b10 fe3d
00000230: ac2f 503e 7581 6b3e 44be 8dbe a617 22be
00000240: 339f 523e 0310 043e ae96 f63d bf44 60bd
00000250: 7934 d4bc ed01 56be a58a e03d 189a eabb
00000260: 11dc e33d 6177 ae3d 341c 833c 29f9 a5be
00000270: c95d 2d3e aa77 0d3e b31e 9cbc 5984 7abe
00000280: af82 1f3e 6b82 573e 43e7 d4bd cb77 e73d
00000290: 9b22 07bd b845 2abb 02b8 d73c 4f5b 1c3e
000002a0: 6ad1 eebc 4a0e d5bd 7eb5 14bd 5535 55be
000002b0: da0a 61bd 3d3f 413e a586 bc3d 4114 12bd
000002c0: be4f 533e db41 21be d58f 953e 0b8d 1b3d
000002d0: dd1e 7f3e 5757 afbb f7c7 b6bc ee49 b83d
000002e0: 2b79 85be 8541 a6bd 6023 c9bd 04dc 1bbe
000002f0: 8382 d3bd 5d9a 85be c2df 6ebe b84a c63d
00000300: 25ae 9c3c d69d c23c 5afa 8fbe b578 37be
00000310: ef82 3e3e a2b2 bbbd 8bb9 c5bc 51ba 34be
00000320: c566 86be 2898 2abd b7cb a53d a2ed 81bd
00000330: 38d0 0fbe a694 9cbd b348 2bbe ca81 03be
00000340: b899 e8bd 23a5 22be 9131 88be d14e 733d
00000350: 0f92 f03b 30c9 893d 8539 1ebe b31a e4bd
00000360: f150 7e3d 98b2 72be f4d6 3abd 41e5 b9bd
00000370: d926 36bd c229 5dbc 49cb 08be e6f9 c43c
00000380: a9fb 443d 9302 b4ba 2e0b afbd a6cc 10be
00000390: 3249 993d 72af bc3d c131 f0bc ad05 12be
000003a0: 9ee8 f0bd 8a77 7abd edbe 95be 22ef 4dbd
000003b0: 5955 cdbd c880 a13d 1c45 7d3e dba0 4fbe
000003c0: 9d16 e23a fa72 693c 7809 9a3d ec85 0f3e
000003d0: eac5 8b3d 8c01 aebe 233f 3cbe ced3 2ebe
000003e0: a976 f93d ba47 703e d55f f8bd 16f6 d23c
000003f0: 51cf 15be ca24 9bbe 34c5 39be ba1a 31bc
-0.28707045 -0.040806387 -0.13431187 0.09665283 0.049241196 -0.13786906 0.16123277 -0.037060402
0.05952641 0.05236041 -0.24146105 0.010802285 0.12989268 -0.03476696 -0.07043689 0.071787715
0.11716733 -0.089185394 0.13238867 -0.16632429 0.13808699 0.21801579 0.06535709 0.24285583
-0.013257928 -0.036512773 0.13996114 0.31810632 -0.004575449 0.029151175 -0.07256566 -0.29104853
-0.03697822 -0.07914106 -0.08578981 -0.027925374 0.18481311 -0.059812564 -0.080076665 -0.26256502
-0.07060616 -0.17461576 0.006828038 0.021593018 -0.15219292 0.21362618 0.068108864 0.31850323
0.011338875 0.3025743 -0.02291222 0.30877727 0.2916128 0.11895675 0.057190895 0.13614702
0.10676673 -0.16046688 -0.11825644 0.08903468 -0.24502598 0.15501119 -0.0793764 -0.36245507
-0.20337063 -0.19349927 -0.22970065 0.06079458 0.1233991 -0.2379332 0.014098928 -0.10228982
0.39703956 -0.27904204 -0.041438885 0.097591706 0.035752095 0.29975998 -0.14672546 -0.05412784
0.24326068 0.23642763 0.32993767 0.04997906 0.07597824 -0.20394523 -0.032840345 0.0060064606
-0.06846015 0.051033404 0.06599262 -0.07629976 -0.073366396 0.004624654 -0.13045275 -0.10014891
0.18266219 -0.088214405 -0.18706621 0.012099337 -0.12096404 -0.00023629949 0.2707444 0.09027727
-0.16717292 -0.19194366 -0.15670705 0.13050611 -0.093438104 -0.38561636 -0.14842683 -0.15997043
0.13445002 0.061910644 0.065444276 0.04455228 0.04025946 -0.15293124 0.33190775 -0.112707414
0.03964233 -0.18389465 -0.032446627 0.04906496 0.022855928 0.04096518 -0.21479087 0.03534457
-0.059017863 0.28926775 -0.22283885 -0.033476636 -0.100131586 -0.06704905 -0.0749717 -0.41817328
-0.15053362 0.10285978 -0.058095753 0.12405511 0.20330685 0.22998603 -0.27684224 -0.15829334
0.20568542 0.12896733 0.120404586 -0.05475306 -0.025903927 -0.20899172 0.10963944 -0.0071594827
0.11125959 0.085188635 0.01600466 -0.32416657 0.16930307 0.1381518 -0.019057607 -0.24464549
0.15577196 0.21045844 -0.10395672 0.113021456 -0.032991987 -0.0025981497 0.026332859 0.15269206
-0.02915259 -0.10403116 -0.036305897 -0.20821126 -0.05494199 0.1887178 0.09205369 -0.035663847
0.20635888 -0.15747778 0.29211298 0.037976306 0.24914117 -0.005350988 -0.022312148 0.08998476
-0.26069006 -0.081179656 -0.098212 -0.15220648 -0.103276275 -0.26094332 -0.23327544 0.0968222
0.019126007 0.023756903 -0.2812069 -0.1791714 0.18604635 -0.09164931 -0.024136325 -0.17649199
-0.26250282 -0.041649014 0.08095496 -0.06344153 -0.14044273 -0.0764554 -0.16726951 -0.1284248
-0.113574445 -0.15883307 -0.26600316 0.059401337 0.0073416303 0.067278266 -0.1545163 -0.11137905
0.06208891 -0.2370094 -0.04561515 -0.0907693 -0.04447064 -0.013498725 -0.13358797 0.024044942
0.048091564 -0.0013733677 -0.08547054 -0.14140567 0.07484664 0.09213151 -0.0293206 -0.14259978
-0.11763118 -0.061149158 -0.29247227 -0.050276883 -0.100260444 0.07885891 0.24733394 -0.20276205
0.0017249171 0.014248604 0.07521337 0.14015931 0.068248585 -0.33985555 -0.1838346 -0.17072985
0.12180836 0.23464862 -0.121276535 0.025752109 -0.14629866 -0.30301505 -0.18141633 -0.010809595

model.8.bias f4 [128]
00000000: 0a1d 643a fd66 7ebf 8abb 7dbf cb29 02bf
00000010: a312 a5be d61c 7fbf 50f9 103e 1f07 7fbf
00000020: 320b 21bd 6413 8ebe ebd3 7cbf aa7a 3abe
00000030: 80f8 73bf f0d5 7dbf 074d cabe 3edb 7dbf
00000040: e969 76bf ac60 7fbf d367 7fbf 991e 89be
00000050: 33e0 73bf d3c6 48bf 6125 2dbf f4d8 a2bd
00000060: e2b9 353d 711d df3c 250b 98bd c692 67bf
00000070: d3f8 40bf cc20 5bbe 2c9b 72bf 769c 16bf
00000080: 5853 7cbe d1d6 5bbe ac70 80bd f944 a3bd
00000090: dbd0 61bc 3df4 94be a968 64bd dde7 41be
000000a0: 871f 54bf 444d 763d 6cab 4ebe d9df 23be
000000b0: b95e 43be 63ef 09bd 67df c7bd 0d42 bcbe
000000c0: f885 8fbe c356 4dbd f2ec f1be f144 44bd
000000d0: 0b33 7fbf 3a2f d5be d177 92bd 4a0b 0b3e
000000e0: e4ad 75bf 09c7 71be ccfd 14be f34c 83bd
000000f0: 0814 7fbf f0f7 6ebe dd51 46be a387 7cbf
00000100: beec 88be e7db 25bf 1980 67bf c06c 04bd
00000110: f021 93be 26ff 8ebe 2efb b7bc 4d39 74be
00000120: a571 dcbe 294e e3bd ea8a 7ebf 7cc0 7ebf
00000130: ecab 563b 809f 29be ef76 bdbe d790 ccbe
00000140: bf40 a1bd 4ea2 15bd 2467 4dbd 7082 09be
00000150: d2b9 61bb 5a51 7fbf 347c 46bd 7825 7fbf
00000160: ed46 17bf 07dd 6dbb cb22 c9be f05c 75bf
00000170: 2cb2 5bbf 3249 f7bd 1730 babe 2fe0 2f3d
00000180: 161e 6ebe bc64 5cbe 04bf 73bf 6bee ca3d
00000190: 9566 02be fdfd 7dbf 7884 a73d 9a38 4cbd
000001a0: 0c99 6ebf af9f 2dbd 4912 7fbf e8d8 9abe
000001b0: 0235 68bf d286 1b3d 16fe 5bbf 07df 7ebf
000001c0: 4aa3 89be 4b76 93be 20c6 c2be 2009 d6bd
000001d0: 4adc 7ebf da4d 5fbf 1eb8 34bf 47ca 03bf
000001e0: 9fb7 5ebe 4f37 d1bd f0f1 e0bd 9ca8 05be
000001f0: 017b 423e eab2 92be 9e9f 96be 75c1 3e3e
0.0008701837 -0.993759 -0.99114287 -0.5084502 -0.3224078 -0.99653375 0.14157605 -0.9962024
-0.039317317 -0.2774917 -0.9876086 -0.18210855 -0.95301056 -0.9915457 -0.39511892 -0.9916266
-0.96255356 -0.99756885 -0.997678 -0.26781157 -0.95263976 -0.7842838 -0.6763516 -0.07951537
0.044366725 0.027235718 -0.07424001 -0.90458333 -0.75379676 -0.2139923 -0.94768023 -0.5883249
-0.24641168 -0.21468665 -0.062714905 -0.0797214 -0.013782705 -0.2909259 -0.055763874 -0.18936105
-0.82860607 0.06013228 -0.2018258 -0.1600336 -0.19079103 -0.033675563 -0.097594075 -0.36769143
-0.28031898 -0.05013157 -0.47251087 -0.04791731 -0.9968726 -0.41637594 -0.071517594 0.13578525
-0.9596846 -0.23611082 -0.14549941 -0.06411161 -0.9963994 -0.23336768 -0.19367166 -0.98644465
-0.2674312 -0.6478867 -0.90429837 -0.032330275 -0.2873683 -0.27929038 -0.022458639 -0.23849984
-0.43055454 -0.11098892 -0.99430716 -0.9951246 0.0032756282 -0.1656475 -0.37004802 -0.39954254
-0.078736775 -0.03653174 -0.05014719 -0.13428664 -0.0034443033 -0.9973351 -0.048458293 -0.9966655
-0.590926 -0.0036295073 -0.39284357 -0.95844936 -0.85818744 -0.12074508 -0.36364815 0.042938408
-0.23253664 -0.21522802 -0.9521334 0.09908756 -0.12734444 -0.9921568 0.08179563 -0.049858667
-0.9320228 -0.042388614 -0.99637276 -0.3024361 -0.90705884 0.03797037 -0.8593458 -0.9955906
-0.26882392 -0.28801188 -0.38041782 -0.10450959 -0.99554884 -0.8722817 -0.7059344 -0.51480526
-0.21749733 -0.102156274 -0.10983646 -0.130526 0.18992235 -0.28652126 -0.29418653 0.18628486

model.10.weight f4 [128]
00000000: 4558 7e3f 2fab 7e3f 8dd6 7e3f ceca 743f
00000010: eede 7d3f 0a21 7f3f 8180 7d3f 15d3 7e3f
00000020: f96e 7b3f 46a3 7c3f e0fc 7e3f c513 603f
00000030: a9ae 7d3f d6cc 7e3f 3cfa 4b3f 4b45 7c3f
00000040: 4312 7f3f eb09 7f3f ec25 7f3f 4383 453f
00000050: 8658 7e3f cfe0 7e3f 4a9c 7e3f 24f2 543f
00000060: 9b71 7e3f 44ee 7d3f 31fb 7e3f c6ff 7d3f
00000070: e15e 7f3f 7ad2 583f 0124 7f3f 0987 7e3f
00000080: 1f3a 7b3f 7c81 7a3f 1b37 7d3f 6c2d 6c3f
00000090: 8daa 7e3f 28c6 673f b8f7 7d3f e7d8 7c3f
000000a0: cdfa 7e3f 8333 7e3f 9d5a 7e3f 06f2 7b3f
000000b0: 6d4d 7d3f 5031 7b3f f53e 773f ef6e 633f
000000c0: 71c8 533f a320 7e3f d971 5d3f 1d9b 7f3f
000000d0: 8e08 7f3f f69d 7d3f 61bb 7e3f 202a 7d3f
000000e0: 2cce 7e3f db4a 7a3f a2f7 7d3f a399 7a3f
000000f0: 95d3 7e3f 404f 7e3f b958 7e3f bf5b 7d3f
00000100: 4319 763f c2c4 6b3f 252c 7d3f 0432 653f
00000110: eb7f 323f 9577 443f f116 593f 0b7d 6a3f
00000120: f268 7c3f f486 7b3f f5a7 7e3f 84b0 7e3f
00000130: 1797 7c3f 274f 5a3f 7529 7e3f 54ed 7a3f
00000140: 7ed2 7c3f 9cb8 7d3f b623 793f 7f3e 7d3f
00000150: 32f8 7d3f 847d 7e3f d03e 5b3f ffd8 7e3f
00000160: ad2d 363f cb87 7d3f ee86 7d3f 5f0f 7f3f
00000170: 2595 7e3f 430c 7f3f 6763 7a3f d48c 7d3f
00000180: 4485 7b3f 3a27 7f3f 8207 783f ac6e 433f
00000190: a831 7b3f 4c6d 7e3f bb1f 7f3f d16c 7f3f
000001a0: 1ab2 7e3f 6a3d 7e3f bcc7 7c3f f4b9 7b3f
000001b0: e634 7d3f 5658 503f c1f9 793f 2d25 7d3f
000001c0: c7ea 7d3f d4db 7e3f 6f83 423f d5f0 7c3f
000001d0: ca55 7d3f 06f9 7e3f 6264 7e3f d4d6 7e3f
000001e0: 2185 763f 5833 7d3f 3b54 653f a1df 7d3f
000001f0: 5197 7d3f dc92 7c3f b7d9 7c3f a652 7f3f
0.9935344 0.99479955 0.9954613 0.95621955 0.9916829 0.9965979 0.99024206 0.99540836
0.98216206 0.98686635 0.99604607 0.87530166 0.99094635 0.99531305 0.796787 0.9854323
0.9963724 0.9962451 0.9966724 0.77153414 0.99353826 0.9956178 0.9945723 0.8318198
0.993921 0.9919169 0.9960204 0.99218404 0.9975415 0.8469616 0.9966431 0.994248
0.9813556 0.9785383 0.9891221 0.9225681 0.9947899 0.9053674 0.99206114 0.98768467
0.9960144 0.9929735 0.99357015 0.98416173 0.9894627 0.9812212 0.9658044 0.88841146
0.82727724 0.9926855 0.8650184 0.9984606 0.9962243 0.99069154 0.9950467 0.988924
0.99533343 0.9777047 0.9920598 0.9789068 0.995416 0.99339676 0.9935413 0.9896812
0.96132296 0.92097104 0.98895484 0.8952944 0.6972644 0.7674497 0.8480063 0.9159705
0.98597634 0.982528 0.9947503 0.9948809 0.98668045 0.85277027 0.9928201 0.98018384
0.98758686 0.99109817 0.97320116 0.98923486 0.9920684 0.9941027 0.8564272 0.9954986
0.71163446 0.9903533 0.9903401 0.9963283 0.99446326 0.99628085 0.97807926 0.9904301
0.9825022 0.9966923 0.96886456 0.76340747 0.98122644 0.99385524 0.9965779 0.99775416
0.9949051 0.9931246 0.9874227 0.98330617 0.9890884 0.8138479 0.9764672 0.9888485
0.99186367 0.9955418 0.759818 0.9880498 0.9895903 0.9959873 0.9937192 0.9954655
0.9629689 0.9890647 0.8958165 0.99169356 0.99059016 0.9866159 0.98769706 0.99735487

model.10.bias f4 [128]
00000000: 7d79 4fbe dc6c 7bbb 6529 a43c ef04 573e
00000010: 6380 85bb 9ba4 dcbb 99a5 68bb b641 c73c
00000020: 1911 94bd 04d7 5a3c 9473 0ebd c990 133d
00000030: 758d 0dbe f960 eabb 11b4 9f3c 698b c53d
00000040: 5ea5 c93d 6a32 cebc 7ace 53bd 33fe 423d
00000050: d7bd ce3d 632d 373c bfd7 d8ba d5ae 96bc
00000060: cdc1 f9bd 7aff b93d 12ed 92bd f227 c2bd
00000070: b09d bfbb 4aaa 17be 826d ac3c d3f5 1c3e
00000080: 7c2d c73b ae88 4f3b 2b3f aa3b 654e 62bc
00000090: c269 ed3c 899a 033d 5f40 36bd 3d0d 183c
000000a0: 4dc5 08ba 3a9a 073b 8fbe 483e 9080 07be
000000b0: 0d97 7cbe 9cfe 8cbd b936 233e 68c4 f03c
000000c0: a7cd cf3d 5863 adbd 7140 a53c 3dbf af3d
000000d0: b8f9 eebc 8c83 ab3c 082c 2e39 905f 3d3c
000000e0: fcf8 c1bb e4ca a23d c748 bbbd 909d 513c
000000f0: eace ffba 11d4 86be 454a 85bc 1efd 2e3c
00000100: 2dca d03e 3929 e83d 66be 263d 953b 273d
00000110: 35f5 013d b01d 03bd f261 1dbe 3211 0dbc
00000120: daf2 d83c 12b1 233d 2225 e8bb a422 c9bb
00000130: f7ca 483b f052 60bc c69e 3c3c cbac aa3c
00000140: f2ef 88be 89b2 a63b 24e5 29bd d83c 20bd
00000150: 1b9d 40bd ce17 fdbd 668b 9fbc a0d3 c9ba
00000160: fcfe be3d 7741 7dbd 36d2 bfba 16c6 093e
00000170: 3291 a33d d19b 493c 7028 af3e 767d a43c
00000180: 381b 5e3c 9beb fbbc d3eb 9bbc 26f4 b73d
00000190: b2aa 253c 5f51 c43c 217c 233c 8b60 fa3b
000001a0: 55b4 4d3c ba96 60bd 896e 6b3c d43a 6dbe
000001b0: b7dd 0b3c 9d77 f3bb 3758 333c d931 113d
000001c0: 1c33 7bbe d0b2 5abe 5cb0 bd3c 4fd8 90bd
000001d0: a245 cabc ea3a 153a b1e7 f2bb dd68 04bd
000001e0: b9ac 553c 860d c8bc 521a 393e e993 12be
000001f0: 56a0 ce3c 0b27 313c 215b df3b fb92 f53a
-0.20261188 -0.0038364446 0.02003927 0.20997976 -0.004074143 -0.0067334897 -0.0035499095 0.024323326
-0.072298236 0.013356928 -0.034778193 0.03602675 -0.13823493 -0.0071526733 0.019495042 0.09645731
0.098459944 -0.025170524 -0.051710583 0.047605705 0.10094803 0.011180255 -0.001654379 -0.018393913
-0.12195168 0.090819314 -0.07174124 -0.09480275 -0.0058476552 -0.14811054 0.021048311 0.1532815
0.00607842 0.003166716 0.0051955185 -0.013812636 0.028981093 0.032129798 -0.044494983 0.0092805
-0.00052173884 0.0020691291 0.19603942 -0.13232636 -0.24666996 -0.068845004 0.15938844 0.029390529
0.10146647 -0.08466214 0.02017233 0.08581398 -0.02917181 0.02093675 0.00016610336 0.011558428
-0.005919574 0.079488546 -0.091447406 0.0127939135 -0.0019516621 -0.2633367 -0.016270766 0.010680465
0.40779248 0.113359876 0.04070892 0.040828306 0.03172799 -0.032010734 -0.15369394 -0.008610057
0.026482988 0.03996379 -0.0070845047 -0.0061381627 0.0030638555 -0.013691649 0.011512464 0.020834347
-0.26745564 0.005087201 -0.04147829 -0.039120525 -0.047024827 -0.12358056 -0.01947565 -0.0015398152
0.09325978 -0.06183001 -0.0014634791 0.1345447 0.07986678 0.012305216 0.3421054 0.020079356
0.013556294 -0.030751994 -0.019033348 0.089821145 0.010111498 0.023964582 0.009978325 0.0076409033
0.012555202 -0.054831244 0.014369615 -0.23166972 0.008536748 -0.0074300305 0.010946325 0.03544793
-0.24531215 -0.21357274 0.023155384 -0.070725076 -0.024691407 0.0005692678 -0.0074128737 -0.032326568
0.013041669 -0.024420511 0.18076447 -0.14314236 0.025222939 0.010812531 0.0068162833 0.001873582

model.10.running_mean f4 [128]
00000000: 21f6 96bf bb51 6ac0 ef67 22c0 b74e 0e40
00000010: f9ad 7e41 7e6a 7ec0 b195 dbbf 1f64 20c0
00000020: 2f28 eabf 72dc b6bf d1e7 41c0 3d50 ebbf
00000030: ca2d 30c0 b82b 65c0 1fd8 b1bf c7e9 4fc0
00000040: 5768 4dc0 4b96 51c0 6b11 46c0 5c79 48bf
00000050: 0a0e 22c0 8549 69c0 23fd 41c0 be7c 9bbf
00000060: 41ab 36c0 46bd d2bf c394 7f41 9a5d 4ac0
00000070: ad48 6dc0 c855 aebf 8c63 3cc0 c87c 58c0
00000080: a906 a7bf 0873 c8bf bcc9 8bbf bcc5 bcba
00000090: f5d4 c5bf f1ca 053d 68ab babf ae76 d8bf
000000a0: 8a80 4bc0 d18b d5bf 3754 93bf 6416 dbbf
000000b0: 9893 7bbf 248a 98bf dafa 99bf 0e34 16c0
000000c0: d083 5f3f 2a4f 88bf bfa9 7d40 2d02 ecbf
000000d0: 95db 34c0 5ea0 c8bf 940c c2bf b305 00c0
000000e0: 26f9 56c0 d317 b9bf a75d c5bf 950e c6bf
000000f0: 3296 3bc0 e773 b3bf 6e43 9dbf be56 45c0
00000100: e84e c13f e14d 96bf 8a1b 42c0 0ca8 21bf
00000110: 0f1f 0fbf cbe4 81be db1d cbbf c6d6 3e3f
00000120: c317 c33f c1bf 00c0 b9ce 3bc0 7b03 49c0
00000130: 54c8 a9bf 4674 0540 1eba 0741 2ec0 c5bf
00000140: 1fb6 a9bf f2fd c3bf cb46 9840 c35b f6bf
00000150: 3f68 babf 06ec 48c0 c0bd 1740 b4b6 44c0
00000160: 5b4f 443e 2626 c9bf 9f0e c9bf 6b2d 23c0
00000170: 4bb5 44c0 6b15 8441 7955 8d3f 49bd 1dc0
00000180: eb6c 82bf e1d2 9241 242f 53c0 628e ecbe
00000190: bd69 c4bf 036e 58c0 f689 9641 0b28 dcbf
000001a0: 996a 55c0 ad0f b0bf 2df4 4fc0 a985 bfbf
000001b0: a0d0 48c0 dbef 32be 2f9c 2ec0 5da4 25c0
000001c0: 01ce 98bf 3512 abbf afd5 a23f 8772 9ebf
000001d0: a83a 5bc0 8b45 30c0 1f67 51c0 32d9 ebbf
000001e0: 29c4 adbf ccbd b9bf 0126 1940 a6c6 0dc0
000001f0: c320 9abf 8683 92bf 233d adbf ea96 9741
-1.1793863 -3.6612384 -2.5375936 2.2235544 15.917474 -3.9752498 -1.7155057 -2.506111
-1.8293513 -1.4286025 -3.029774 -1.8383862 -2.7527947 -3.5807934 -1.389408 -3.2486436
-3.2094934 -3.2747982 -3.094813 -0.7831018 -2.5321069 -3.6451123 -3.0310752 -1.2147443
-2.8542025 -1.6464012 15.973819 -3.161963 -3.7075608 -1.3619928 -2.9435759 -3.382616
-1.3048908 -1.5660105 -1.092094 -0.0014402191 -1.5455614 0.032664243 -1.4583559 -1.6911218
-3.1797204 -1.6683294 -1.1510075 -1.7116208 -0.98272085 -1.1917157 -1.2029679 -2.3469272
0.87310505 -1.0649159 3.9634855 -1.8438164 -2.8259022 -1.567394 -1.5160089 -2.0003479
-3.3589568 -1.4460396 -1.5419205 -1.54732 -2.9310422 -1.4019746 -1.2286203 -3.0834193
1.5102205 -1.1742517 -3.0329309 -0.63147044 -0.55906767 -0.25369868 -1.5868486 0.7454647
1.5241627 -2.0117037 -2.9344923 -3.1408374 -1.326426 2.0852218 8.482939 -1.5449274
-1.3258704 -1.5311873 4.7586417 -1.9246753 -1.4563063 -3.1394057 2.3709564 -3.0736513
0.19170897 -1.5714767 -1.5707587 -2.549647 -3.0735652 16.510458 1.1041709 -2.464678
-1.0189489 18.352968 -3.2997522 -0.4620238 -1.5344769 -3.3817146 18.817364 -1.719972
-3.3346312 -1.3754784 -3.2492783 -1.4962665 -3.1377335 -0.1747431 -2.7282827 -2.588157
-1.1937867 -1.3364931 1.2721461 -1.2378701 -3.425455 -2.7542446 -3.271919 -1.8425658
-1.3575488 -1.4511046 2.3929446 -2.2152495 -1.2041248 -1.1446388 -1.3534282 18.948689
