Lab4/models/gan_models/ls_1000e_500b_dis.pth (torch, 403159 bytes, 22 tensors)

model.0.weight f4 [16, 3, 3, 3]
0	0x3d7a627d	0.061129082
1	0x3d321b82	0.043483265
2	0x3daf0076	0.0854501
3	0xbd1c8060	-0.038208365
4	0x3d86b600	0.065776825
5	0x3c534719	0.012895369
6	0xbdeed44a	-0.11661585
7	0xbcac23a7	-0.021013094
8	0xbe21f8cf	-0.15817569
9	0x3d8f7301	0.07004357
10	0xbdf8361f	-0.12119698
11	0x3bc5031d	0.006012334
12	0x3ced49a8	0.028965786
13	0x3e222164	0.1583305
14	0x3da06dc0	0.07833433
15	0xbe4bf635	-0.1991814
16	0x3dc5610c	0.09637651
17	0xbb8791e7	-0.004137266
18	0xbd280180	-0.041017056
19	0xbda9772a	-0.08274682
20	0x3d6c1407	0.057636287
21	0xbcd51e15	-0.02601532
22	0x3da0ed9e	0.07857822
23	0x3e00763d	0.12545104
24	0xbdb14341	-0.08655406
25	0x3d558be9	0.05213538
26	0x3b2d031f	0.0026399565
27	0x3c66efda	0.014095271
28	0x3d63f33a	0.05565188
29	0x3d158a43	0.03650881
30	0x3ab37b71	0.0013693405
31	0x3cc2157a	0.023691881
32	0x3b81df6f	0.003963403
33	0x3cc3761d	0.023860032
34	0x3cbecc7b	0.023290863
35	0x3c6a7981	0.014311195
36	0xbddfa650	-0.109203935
37	0xbdc67e7d	-0.096920945
38	0x3b8eca3d	0.004357605
39	0xbdca1085	-0.09866432
40	0xbe1b316d	-0.15155573
41	0xbd0364d8	-0.032078594
42	0xbde37161	-0.1110561
43	0xbdbdc7fd	-0.0926666
44	0xbbf1a278	-0.007374104
45	0x3b1ce72e	0.0023941505
46	0xbd194a64	-0.03742446
47	0xbcad6999	-0.021168517
48	0xbd5891a7	-0.05287328
49	0xbda282c2	-0.07935096
50	0x3c68f88b	0.0142194135
51	0xbd90c69d	-0.070691325
52	0xbd8ac9cf	-0.06776773
53	0x3d00ed20	0.03147614
54	0x3d0bf418	0.034168333
55	0xbda77e6c	-0.0817841
56	0xbe115433	-0.14192276
57	0x3de88138	0.113527715
58	0x3e50346b	0.20332496
59	0xbdcf504f	-0.101227395
60	0xbd0bcbdd	-0.034129966
61	0x3df81a55	0.121143974
62	0xbc538442	-0.012909951
63	0xbda47025	-0.08029202
64	0xbd7bf3dc	-0.06151186
65	0xbd8260de	-0.06366132
66	0x3de8c0d0	0.11364901
67	0x3ea0112d	0.31263104
68	0xbd6216c2	-0.055197485
69	0xbe4f18fd	-0.20224376
70	0xba866137	-0.0010252361
71	0xbe46f73e	-0.19430253
72	0x3d49e944	0.049294725
73	0x3cc997ee	0.024608579
74	0xbd27e8a6	-0.040993355
75	0x3e0854f3	0.13313656
76	0x3ea23ef7	0.31688663
77	0x39a8b80a	0.00032180577
78	0xbe05dc1d	-0.13072248
79	0xbc774002	-0.015090944
80	0xbe186506	-0.14882287
81	0x3d188e1c	0.0372449
82	0x3ddd479a	0.108046725
83	0x3d72e406	0.05929949
84	0x3e03fa4a	0.12888446
85	0x3e305f93	0.17223959
86	0x3da2aa6b	0.07942661
87	0xb9fa80ce	-0.00047779683
88	0x3db8aaed	0.090169765
89	0xbd3be57f	-0.04587316
90	0xbe88cf6e	-0.26720756
91	0xbe92d987	-0.28681585
92	0xbe35bc44	-0.17747599
93	0xbe7b6f3f	-0.24554156
94	0xbe6a6084	-0.2288838
95	0xbe365bbb	-0.1780843
96	0xbe5fd2b8	-0.21857727
97	0xbe691507	-0.22761928
98	0xbe1a21d3	-0.15051965
99	0x3e63b669	0.22237553
100	0x3e3d4e47	0.18486892
101	0x3e075abf	0.1321821
102	0x3e5aa7eb	0.21353118
103	0x3e625f39	0.22106637
104	0x3e103c5c	0.14085525
105	0x3e3d5587	0.18489657
106	0x3e2fc894	0.17166358
107	0x3e4322a5	0.19056185
108	0xbe5a29f1	-0.21305062
109	0xbe492609	-0.19643416
110	0xbe3a138e	-0.18171522
111	0xbe0b75a6	-0.13619098
112	0xbe112ed2	-0.14178017
113	0xbe0280df	-0.12744473
114	0xbe1accde	-0.15117213
115	0xbd8f359c	-0.06992647
116	0xbe099c5d	-0.13438554
117	0x3e66421c	0.22486156
118	0x3e43db13	0.19126539
119	0x3dfd185c	0.12358162
120	0x3e92d4cf	0.28677985
121	0x3e9e8b45	0.3096563
122	0x3e505e20	0.20348406
123	0x3e33a6a3	0.17544036
124	0x3e5431bb	0.20722096
125	0x3dce714f	0.10080206
126	0xbcf1ee19	-0.02953248
127	0x3a9b4f7c	0.001184925
128	0xbce2e1f4	-0.027695633
129	0x3bae2745	0.00531474
130	0x3c656214	0.014000434
131	0xbd305c5f	-0.043056842
132	0xbd9fb377	-0.07797902
133	0xbda2f321	-0.079565294
134	0xbd052717	-0.032507982
135	0xbdd0b48a	-0.10190685
136	0x3d68d15a	0.05684028
137	0x3d9a25ae	0.07526718
138	0xbe0af5bf	-0.13570307
139	0x3d93d6c8	0.07218701
140	0x3d2370a5	0.039902348
141	0x3d096c5c	0.033550605
142	0x3dabcf50	0.08389151
143	0x3d9a6bef	0.07540118
144	0xbe1aadcf	-0.15105365
145	0xbea429e6	-0.32063216
146	0xbd0fc9b2	-0.03510446
147	0xbe29e1b0	-0.16589999
148	0xbdbac4ab	-0.09119543
149	0x3c06c48c	0.008225571
150	0x3e03712b	0.12836139
151	0x3dca2756	0.09870784
152	0x3daeb84c	0.085312456
153	0x3d5ccfb2	0.05390901
154	0xbc5b8dac	-0.013400476
155	0x3da731bb	0.08163782
156	0xbd8605c3	-0.06544068
157	0xbc566c59	-0.0130873555
158	0xb9f998f3	-0.00047606937
159	0x3db7c604	0.08973315
160	0x3db73b06	0.08946805
161	0x3bb6b7a8	0.0055760927
162	0xbe434c30	-0.19072032
163	0x3d5b9569	0.053609286
164	0x3e31300f	0.17303489
165	0xbdbd3814	-0.09239212
166	0x3caab948	0.020840302
167	0x3b6e4333	0.0036355972
168	0xbb2ff7e0	-0.0026850626
169	0xbd6544e2	-0.055973895
170	0xbd91ee52	-0.07125534
171	0xbe076449	-0.1322185
172	0xbd40a06d	-0.047027994
173	0x3cb350f7	0.021889193
174	0x3dc0b81a	0.094101146
175	0xbc2af26c	-0.010433774
176	0xbde122fc	-0.10993001
177	0x3e7ffca4	0.24998719
178	0x3ceb31f3	0.028710341
179	0xbe304303	-0.17213063
180	0xbe01d7bd	-0.12679954
181	0x3ca4eef1	0.020133467
182	0x3dae1315	0.08499733
183	0x3d33f1e6	0.043931864
184	0xbc21b950	-0.009870842
185	0xbcfe0f45	-0.03101314
186	0x3df61d02	0.120172516
187	0xbb583585	-0.0032990885
188	0xbe0111d0	-0.12604451
189	0x3e0548f5	0.13016112
190	0x3e51075e	0.20412967
191	0x3e09aa8c	0.13443965
192	0x3e14139f	0.1446061
193	0x3e367b36	0.17820439
194	0x3da6a5e8	0.08137113
195	0x3d8d0165	0.068850316
196	0x3da61026	0.08108549
197	0x3bf6bf1a	0.0075301053
198	0xbd38566a	-0.045004286
199	0xbd183024	-0.037155285
200	0xbda87256	-0.08224933
201	0xbd621401	-0.05519486
202	0xbd6cbd3f	-0.057797667
203	0xbd6bbeb9	-0.057554934
204	0xbdb08805	-0.08619694
205	0xbdcf8812	-0.10133375
206	0xbdf5c43d	-0.1200032
207	0x3cba9161	0.0227744
208	0x3cb2c1db	0.021820953
209	0xbc8f33fe	-0.017480846
210	0x3d6588e7	0.056038763
211	0x3d0710a9	0.032974873
212	0x3c0056ee	0.007833226
213	0x3ae96d5f	0.0017809084
214	0x3cc794b9	0.024362909
215	0xbd25693e	-0.04038357
216	0xbd46ce30	-0.04853648
217	0xbd40884c	-0.047004983
218	0x3d9aa6e0	0.0755136
219	0xbe26ea5f	-0.16300343
220	0xbc1586cb	-0.009126375
221	0xbccfa930	-0.02534923
222	0xbdf360e4	-0.11883715
223	0x3da53dc8	0.080684245
224	0x3ddebd86	0.108759925
225	0x3e9e53c4	0.30923283
226	0x3d2024f0	0.039097726
227	0xbc9ba118	-0.018997714
228	0x3e43d4bb	0.19124119
229	0x3dc7cde0	0.097560644
230	0xbdc9f932	-0.09861983
231	0x3e119702	0.14217761
232	0x3df4537a	0.119299844
233	0xbd4ce37c	-0.050021634
234	0xbd9bfedb	-0.07616969
235	0xbdb80b32	-0.0898651
236	0xbda46797	-0.08027571
237	0xbdfd3793	-0.123641156
238	0xbd372b19	-0.044718836
239	0xbdc53034	-0.09628335
240	0xbd23fece	-0.040037923
241	0x3d24e143	0.04025389
242	0x3cb4ac06	0.022054683
243	0xbe2cb786	-0.16866884
244	0xbe31017a	-0.1728572
245	0xbcece27f	-0.028916596
246	0xbdc6ce06	-0.097072646
247	0xbe07b13f	-0.13251208
248	0x3b6ae2f6	0.0035840846
249	0xbd64551d	-0.055745233
250	0xbc053d0f	-0.008132233
251	0x3d0ac6d3	0.03388102
252	0x3e671fa3	0.22570662
253	0x3da77089	0.08175761
254	0x3db88f03	0.09011652
255	0x3e4d0044	0.20019633

model.0.bias f4 [16]
0	0xbcb15295	-0.021645823
1	0xbee81436	-0.4532792
2	0xbdfff456	-0.12497775
3	0xbe35805c	-0.17724746
4	0xbe3b7622	-0.18306783
5	0xbe363446	-0.17793378
6	0xbd54286e	-0.05179637
7	0xbee7a5c0	-0.45243645
8	0xbc9b965e	-0.0189926
9	0x3d593693	0.05303056
10	0xbeaeb1de	-0.34120077
11	0xbdd2ca94	-0.10292545
12	0x3bc3926c	0.0059683826
13	0xbcc5f2bc	-0.024163596
14	0xbeb9e43f	-0.3630695
15	0xbe53d716	-0.20687518

model.2.weight f4 [32, 16, 3, 3]
0	0x3db8e798	0.09028548
1	0x3d450228	0.04809776
2	0xbdbdab5f	-0.09261202
3	0xbddcfab2	-0.10790004
4	0x3dd7e058	0.10540837
5	0xbc87ec6a	-0.016592223
6	0xbdfab80b	-0.12242135
7	0x3dd33750	0.103132844
8	0xbdd4725a	-0.10373373
9	0x3c1a672f	0.009424015
10	0xbcf96926	-0.030445646
11	0x3a51a5af	0.0007997406
12	0x3d4467f0	0.047950685
13	0xbe30f3f3	-0.17280559
14	0x3e260947	0.16214477
15	0x3d6b6050	0.057464898
16	0xbd852361	-0.065008886
17	0x3e4688b6	0.19388089
18	0xbdd1d06c	-0.102448314
19	0x3bb600d1	0.0055542965
20	0x3dfefa32	0.12450065
21	0xbe884d9a	-0.26621705
22	0x3e0f9cdc	0.14024681
23	0x3e27bcec	0.16380662
24	0xbe49dd40	-0.19713306
25	0x3d7cb88e	0.061699443
26	0x3e1126de	0.14174983
27	0x3db00082	0.08593847
28	0xbe0483de	-0.12940928
29	0x3de4160a	0.11137016
30	0xbdac9e49	-0.08428628
31	0xbe6293fb	-0.22126763
32	0x3da7fad2	0.08202137
33	0x3d37df3a	0.04489062
34	0x3d71d60f	0.059042033
35	0x3e4967c7	0.19668494
36	0x3d36b959	0.044610355
37	0x3d37a932	0.04483909
38	0xbd7d188a	-0.06179098
39	0x3e258c42	0.16166785
40	0x3e5607db	0.20901434
41	0x3cd0b500	0.025476933
42	0xbc0ba1d2	-0.008522468
43	0x3da15ee6	0.078794286
44	0x3cc4e093	0.024032867
45	0x3dcbb572	0.09946717
46	0xbdb22352	-0.08698143
47	0xbe07aa95	-0.13248666
48	0x3c66a55d	0.014077512
49	0x3d9587ff	0.0730133
50	0x3e32c067	0.17456208
51	0xbbd9f398	-0.006651353
52	0xbe5afd7a	-0.21385756
53	0x3d5dcef8	0.05415246
54	0xbe47c138	-0.19507301
55	0xbe180428	-0.14845335
56	0x3dd80654	0.10548082
57	0xbe89836e	-0.26858085
58	0x3e80de90	0.25169802
59	0x3e2ff9cd	0.17185135
60	0xbde7ad2c	-0.11312327
61	0xbe88daed	-0.26729527
62	0x3d56e88b	0.052467864
63	0x3ce3da2c	0.027813993
64	0xbd2f9087	-0.04286244
65	0x3dd2504a	0.1026922
66	0xbd6888b2	-0.056770988
67	0x3bff4b0a	0.007790928
68	0x3ea209ca	0.31648093
69	0x3d3c86a6	0.04602685
70	0x3e295425	0.16536005
71	0x3e9fa56f	0.31180903
72	0x3c0d9a85	0.008642797
73	0xba0af777	-0.00053011574
74	0x3d5d7f69	0.054076586
75	0xbd009715	-0.031394083
76	0x3da01913	0.078172825
77	0x3d5a3828	0.05327621
78	0xbd802e0f	-0.06258785
79	0x3d801e0e	0.062557325
80	0x3db66916	0.08906762
81	0xbd835499	-0.0641262
82	0x3d3f09a8	0.04664007
83	0xbdd68622	-0.104748026
84	0x3ce3c9d3	0.027806198
85	0x3e39d40b	0.18147294
86	0x3d9fd2d6	0.07803886
87	0xbd750914	-0.05982311
88	0x3d9533c2	0.07285263
89	0x3d286788	0.04111436
90	0x3c98cfae	0.018653717
91	0xbd93e2ac	-0.072209686
92	0x3da1b02b	0.078949295
93	0xbd030e7a	-0.031996228
94	0xbd86e815	-0.06587235
95	0x3e5e35a2	0.21700147
96	0x3d95f7d4	0.0732266
97	0x3e7d3efd	0.2473106
98	0x3e99ceaf	0.300405
99	0x3e176883	0.14785962
100	0xbe31baf1	-0.17356469
101	0xbc450489	-0.012025007
102	0xbd211aaa	-0.03933207
103	0xbe5e969e	-0.21737143
104	0x3cc569d6	0.024098318
105	0x3d58ff89	0.052978072
106	0xbd28f294	-0.041246966
107	0xbcec6cae	-0.028860416
108	0x3d991415	0.074745335
109	0xbbb322ac	-0.0054667797
110	0x38fe1905	0.00012116324
111	0x3d5d6e38	0.05406019
112	0xbdc1bbc2	-0.0945964
113	0xbe187e37	-0.14891897
114	0x3da620c8	0.08111721
115	0x39ae9d6c	0.00033305155
116	0x3e155fad	0.14587279
117	0x3ea23229	0.31678894
118	0x3dd5b5ce	0.10435067
119	0xbebd1d90	-0.36936617
120	0x3e214ef1	0.1575277
121	0x3eb033b6	0.34414452
122	0xbd4ff92e	-0.050774746
123	0xbdf150d9	-0.117829986
124	0xbc259369	-0.010105946
125	0xbb61323b	-0.0034362215
126	0x3c16fcb4	0.009215523
127	0xbcfdd5f1	-0.030985804
128	0x3de2bc9d	0.110711314
129	0xbc388530	-0.011262223
130	0xbd17f61b	-0.03709994
131	0x3e858632	0.26078945
132	0x3d349412	0.044086523
133	0x3e59cf25	0.21270426
134	0x3e8f20ff	0.27954862
135	0x3d12126d	0.035662103
136	0xbe0e64c5	-0.13905628
137	0xbe826a93	-0.25471935
138	0xbd842283	-0.06451895
139	0x3ddaec75	0.10689632
140	0xbe723127	-0.23651563
141	0x3c54dd0f	0.012992158
142	0x3dbbfd66	0.09179191
143	0x3d85b8d0	0.06529391
144	0xbe440c2e	-0.19145271
145	0x3d75d6b7	0.06001922
146	0xbde5a7f9	-0.11213679
147	0xbdcc4b57	-0.099753074
148	0xbc1a6cf5	-0.009425391
149	0x3bfcf31e	0.0077194115
150	0xbe23f5bf	-0.16011713
151	0xbc92507d	-0.017860645
152	0xbd95d7f0	-0.073165774
153	0x3e10dd31	0.14146878
154	0x3d711008	0.05885318
155	0x3da68e26	0.081325814
156	0x3d0e972c	0.034812137
157	0xbdbeeae0	-0.093221426
158	0x3df518a1	0.11967588
159	0x3cb1ec92	0.02171925
160	0xbc2dad48	-0.0106003955
161	0x3e684f78	0.22686565
162	0xbe03aa58	-0.1285795
163	0xbe6805ea	-0.22658506
164	0x3d50d241	0.050981764
165	0x3d54a704	0.05191709
166	0x3b65969e	0.0035032402
167	0xbcaffd8a	-0.021483202
168	0xbd92bf58	-0.07165402
169	0xbdb5b009	-0.08871467
170	0xbec0005b	-0.3750027
171	0x3cf9c877	0.030491097
172	0xbd1ffc33	-0.039058875
173	0xbd80c20b	-0.06287011
174	0x3e2fa874	0.17154104
175	0x3d8055df	0.062663786
176	0xbcd4992a	-0.02595194
177	0x3df40817	0.119156055
178	0x3de62638	0.112377584
179	0xbc8339bc	-0.01601874
180	0xbdb4f644	-0.08836034
181	0xbdcfa07f	-0.10138034
182	0xbc78375d	-0.015149918
183	0xbcd47cdb	-0.025938442
184	0xbe1cf963	-0.15329508
185	0xbca1c491	-0.01974705
186	0xbd62319d	-0.055223096
187	0xbe0eb519	-0.13936271
188	0xbdd85100	-0.105623245
189	0xbd996bf6	-0.07491295
190	0x3d1fbcdd	0.038998473
191	0xbe4792c0	-0.19489574
192	0x3dab3165	0.08359031
193	0xbe83efc1	-0.25768855
194	0xbe4df9f2	-0.20114878
195	0x3be19e2a	0.0068853097
196	0xbda57453	-0.08078828
197	0x3e03f955	0.12888081
198	0xbe7d36d9	-0.24727954
199	0xbe68ae79	-0.22722806
200	0xbd90b790	-0.07066262
201	0xbde957f1	-0.113937266
202	0xbe229c62	-0.15879968
203	0xbe1c841c	-0.1528477
204	0xbd447677	-0.04796454
205	0xbdc5828e	-0.09644042
206	0x3dc25eaf	0.09490716
207	0x3e095880	0.13412666
208	0xbd553b63	-0.05205859
209	0xbce2aea1	-0.02767116
210	0x3db57a9d	0.08861277
211	0xbd9e83f3	-0.07740011
212	0xbe0054ce	-0.1253235
213	0x3d5096d6	0.0509251
214	0xbe2d4708	-0.16921628
215	0xbe45337b	-0.1925792
216	0xbd8e8cd8	-0.069604576
217	0xbe815d21	-0.25266364
218	0xbd067778	-0.032828778
219	0xbd90ba19	-0.07066745
220	0xbe8ca6f8	-0.27471137
221	0xbe480dc4	-0.19536501
222	0xbc838f53	-0.016059553
223	0xbe4a01b2	-0.19727209
224	0xbded4631	-0.115856536
225	0xbe2a6bc5	-0.16642673
226	0x3d910939	0.07081837
227	0x3c2a0c59	0.0103789205
228	0xbe6d5a0a	-0.23178878
229	0x3d32ba60	0.043634772
230	0xbd74590a	-0.059655227
231	0xbe39e73f	-0.1815462
232	0xbd55ac67	-0.05216637
233	0xbd37ab09	-0.044840846
234	0x3e946a26	0.28987235
235	0x3dc3bbcd	0.095573045
236	0xbe0e17f9	-0.13876332
237	0x3ea77b9d	0.32711497
238	0x3d8711a1	0.06595159
239	0xbe29f5d5	-0.16597684
240	0x3e90ae21	0.2825785
241	0x3e81447e	0.25247568
242	0xbd3c44d9	-0.045964096
243	0x3d53775e	0.05162751
244	0xbd1b6430	-0.037937343
245	0x3c230e04	0.009952072
246	0x3d121af2	0.03567023
247	0x3c771cbc	0.015082534
248	0x3d9bddd6	0.07610671
249	0x3c8a4e49	0.016883032
250	0x3c8bd5c7	0.01706971
251	0x3d09051f	0.03345215
252	0xbd919a19	-0.0710947
253	0xbc80c2fe	-0.01571798
254	0xbdc34cc1	-0.09536124
255	0x3d8dc644	0.06922582

model.2.bias f4 [32]
0	0xbe58854d	-0.211446
1	0xbe0f5038	-0.13995445
2	0x3e1cd4ab	0.15315501
3	0x3ddb0879	0.106949754
4	0xbdcf78bb	-0.101304494
5	0xbdc3b5c6	-0.09556155
6	0x3e924c7b	0.28573975
7	0x3e9b7396	0.30361623
8	0x3e7de512	0.24794415
9	0xbe883dd0	-0.2660966
10	0xbe09a92b	-0.13443439
11	0xbdd71e35	-0.105038084
12	0xbee13da3	-0.43992338
13	0x3f00e44c	0.50348353
14	0xbe6d41fa	-0.231697
15	0xbebea6b1	-0.3723655
16	0x3ec73e75	0.38914838
17	0x3ecd72b3	0.4012657
18	0xbea6d256	-0.3258235
19	0x3f301194	0.6877682
20	0x3ed9fef1	0.42577317
21	0xbed9350d	-0.42423287
22	0xbe87c5c5	-0.26518074
23	0xbe968cf1	-0.29404405
24	0xbdc67246	-0.09689765
25	0xbed80ff6	-0.42199677
26	0xbe9180db	-0.2841862
27	0x3e375eaf	0.17907213
28	0xbd9ab3e0	-0.0755384
29	0xbe7c47c1	-0.24636747
30	0xbe8f3b42	-0.27974898
31	0xbd9f6ea0	-0.07784772

model.4.weight f4 [32]
0	0x3f64210b	0.8911292
1	0x3f18dc3a	0.5971104
2	0x3f58a6bb	0.8462941
3	0x3f7dc892	0.9913417
4	0x3f4db912	0.8036052
5	0x3f3d7fdc	0.7402322
6	0x3f34548f	0.70441526
7	0x3f5583e6	0.83404386
8	0x3f484357	0.7822775
9	0x3f4a4f7b	0.7902753
10	0x3f7f2fee	0.9968251
11	0x3f5b0a88	0.85562944
12	0x3f771e50	0.9653063
13	0x3f6d868f	0.92783445
14	0x3f7bcc17	0.9835829
15	0x3f5289bc	0.82241416
16	0x3f3bf0c2	0.7341424
17	0x3f15fc62	0.5858823
18	0x3f793653	0.9734852
19	0x3f4c1d5a	0.79732287
20	0x3f550566	0.8321136
21	0x3f6bcf48	0.9211316
22	0x3f7dce1d	0.9914263
23	0x3f49fd3f	0.7890205
24	0x3f218dd6	0.6310705
25	0x3f433aa6	0.76261365
26	0x3f34fbaf	0.7069654
27	0x3f55a862	0.83460057
28	0x3f7e6ed9	0.9938789
29	0x3f68e904	0.90980554
30	0x3f251229	0.64480835
31	0x3f5354f8	0.8255153

model.4.bias f4 [32]
0	0x3e2f7b7e	0.17136952
1	0xbe9c48ce	-0.30524296
2	0xbbf3aab3	-0.0074361204
3	0xbf7ee5ca	-0.9956938
4	0xbe7a5253	-0.24445467
5	0xbe57cb5d	-0.2107367
6	0x3d800ff6	0.06253044
7	0x3f472c80	0.77802277
8	0xbe6f144d	-0.23347588
9	0xbed14244	-0.4087087
10	0x3e90a836	0.28253335
11	0x3eaf52fc	0.34243
12	0xbd33e687	-0.04392102
13	0xbe561f04	-0.20910269
14	0x3e8d4c66	0.2759735
15	0xbed54419	-0.41653517
16	0xbe37fa75	-0.17966636
17	0x3e360568	0.177755
18	0xbf1a84bc	-0.60358787
19	0xbe73bf9b	-0.2380356
20	0x3e6cedd1	0.23137595
21	0xbee1e496	-0.4411971
22	0xbebdc149	-0.37061527
23	0xbde1f554	-0.11033121
24	0xbe263041	-0.16229345
25	0xbe67861d	-0.22609754
26	0xbdfa0d06	-0.12209515
27	0xbeeeb801	-0.4662476
28	0x3e88e974	0.2674061
29	0x3ddeb982	0.108752266
30	0xbe198497	-0.14991985
31	0xbbde8abf	-0.006791442

model.4.running_mean f4 [32]
0	0xbde88399	-0.11353225
1	0xbd824bd0	-0.06362116
2	0x3e9bcab5	0.3042809
3	0x3e972d13	0.29526576
4	0x3d9c75fe	0.07639693
5	0x3bd36a54	0.0064518843
6	0x3f03880e	0.5137948
7	0x3e9e62cf	0.3093476
8	0x3ecdc548	0.40189576
9	0xbe0aee58	-0.13567483
10	0xbda1e79c	-0.07905504
11	0xbda2c7b4	-0.079482466
12	0xbe3c66f6	-0.18398651
13	0x3f185fc3	0.5952112
14	0xbd9c1aea	-0.07622321
15	0xbe603859	-0.21896495
16	0x3ed306db	0.41216168
17	0x3ec02d1c	0.37534416
18	0xbe0ea13d	-0.13928695
19	0x3f4bc67f	0.79599756
20	0x3efba62a	0.4915021
21	0xbe423c47	-0.18968306
22	0xbd90a909	-0.07063491
23	0xbe2e43f6	-0.17018113
24	0xbc9cbbea	-0.019132573
25	0xbe312b54	-0.17301685
26	0xbe1a9b84	-0.15098387
27	0x3ea64534	0.32474673
28	0xbd1a30b7	-0.037644114
29	0xbd752490	-0.05984932
30	0xbe2fab5f	-0.17155217
31	0x3e4856bb	0.19564335

model.4.running_var f4 [32]
0	0x3b92610b	0.004467135
1	0x3d036bc0	0.03208518
2	0x3d17fae8	0.037104517
3	0x3c6205b1	0.013795302
4	0x3d625348	0.055255204
5	0x3d2fa865	0.042885203
6	0x3e25cbea	0.16191068
7	0x3c5c16da	0.013433183
8	0x3da80224	0.08203533
9	0x3c001a02	0.007818701
10	0x3b8b8411	0.004257687
11	0x3c73e1fe	0.014885424
12	0x3ba4d77e	0.0050305715
13	0x3d070f3e	0.03297352
14	0x3adb0165	0.001670879
15	0x3c5710fd	0.013126609
16	0x3ca212f2	0.019784424
17	0x3d09a55b	0.03360496
18	0x3b097b81	0.0020978155
19	0x3c98db34	0.018659212
20	0x3d418da2	0.047254212
21	0x3c3b0327	0.011414326
22	0x3b6e60cf	0.003637362
23	0x3ce99927	0.028515412
24	0x3c436c83	0.011927727
25	0x3bb7230f	0.005588896
26	0x3ca568bf	0.020191548
27	0x3ca7327f	0.02040982
28	0x3bdd03f7	0.0067448574
29	0x3d2815b5	0.041036326
30	0x3c1c9d88	0.009559043
31	0x3cfa35d4	0.030543245

model.5.weight f4 [64, 32, 3, 3]
0	0x3e487ba5	0.19578417
1	0x3d8b5896	0.06804006
2	0xbcba6a7b	-0.022755852
3	0xbde1630f	-0.11005222
4	0xbd2c6242	-0.042085893
5	0xbdd3d9a4	-0.10344246
6	0x3c037bce	0.008025123
7	0xbdc72313	-0.09723487
8	0xbcff5934	-0.031170465
9	0xbdd20f6c	-0.10256848
10	0x3d86302e	0.06552158
11	0x3e2d49c0	0.16922665
12	0xbe5db4b9	-0.21650971
13	0x3d9593b1	0.073035605
14	0x3e318d51	0.17339064
15	0xbdba9bf5	-0.09111778
16	0xbd460654	-0.04834588
17	0xbd27a70e	-0.0409308
18	0x3d7113f6	0.058856927
19	0x3c392b77	0.011301867
20	0xbd19d7a7	-0.037559178
21	0x3d036f77	0.032088723
22	0x3d821c01	0.063529976
23	0xbd85e75a	-0.065382674
24	0x3d96ee58	0.07369679
25	0xbc301dc0	-0.01074928
26	0xbccb9537	-0.024851425
27	0xbca76a11	-0.020436319
28	0xbde2a3ef	-0.11066424
29	0xbd159e1f	-0.03652775
30	0x3b94bb59	0.004538935
31	0x3d0c7ae9	0.034296904
32	0x3df75c2e	0.12078129
33	0xbde41e08	-0.111385405
34	0xbca11279	-0.019662129
35	0x3d31954a	0.043355264
36	0x3e2399b4	0.15976602
37	0xbdb0e5d2	-0.08637585
38	0x3c17da83	0.009268406
39	0x3dda0edd	0.10647366
40	0xbdd520f3	-0.10406675
41	0xbd78aa35	-0.060709197
42	0x3d768a03	0.060190212
43	0xbe012add	-0.12614007
44	0xbe8fcadd	-0.2808446
45	0xbdc44c15	-0.09584824
46	0xbd9f970a	-0.0779248
47	0x3daf2c7c	0.085534066
48	0xbcfd1d75	-0.030897835
49	0xbe0d3c53	-0.13792543
50	0x3d6ab7f0	0.057304323
51	0xbcf9494b	-0.030430457
52	0xbdd021aa	-0.10162671
53	0x3da3f791	0.08006204
54	0x3e5cc1ed	0.21558352
55	0xbe0ae5ff	-0.13564299
56	0xbd611e3e	-0.05496048
57	0x3e42469e	0.18972251
58	0xbda64582	-0.08118726
59	0xbcb9ab02	-0.02266455
60	0x3e3a74df	0.18208645
61	0xbdf7d266	-0.12100677
62	0xbdecf610	-0.1157037
63	0x3c8bb99b	0.017056277
64	0xbc64015e	-0.013916342
65	0xbd93fcf0	-0.072259784
66	0x3dd6bb15	0.10484902
67	0x3d66b25f	0.05632245
68	0x3d7a24cf	0.06107026
69	0x3d4896c1	0.048971895
70	0xbe017ac7	-0.12644492
71	0x3d957126	0.07296972
72	0xbd0eafa5	-0.034835476
73	0xbeb30958	-0.34968066
74	0xbcc768ff	-0.024342058
75	0xbc4ce221	-0.012505085
76	0xbebbce70	-0.36680937
77	0xbd8839fd	-0.066516854
78	0xbd8b821c	-0.06811926
79	0xbe52e43f	-0.20594881
80	0xbdc1c48c	-0.094613165
81	0xbe01e105	-0.12683494
82	0xbdf602ef	-0.12012278
83	0x3c9e6316	0.019334357
84	0x3dc5f710	0.09666264
85	0xbd74d897	-0.05977687
86	0x3dfd80cf	0.12378084
87	0x3c5a1164	0.01330981
88	0x3ba6358a	0.0050723003
89	0xbc252624	-0.010079894
90	0x3d831dfc	0.064022034
91	0x3d90305e	0.07040475
92	0xbd0039a6	-0.031304978
93	0x3e6a93a6	0.22907886
94	0x3d70c041	0.058777098
95	0x3d89475c	0.06703064
96	0x3e1cf23e	0.15326783
97	0x3d39ec46	0.045391344
98	0x3d44de2f	0.048063453
99	0xbe023126	-0.12714061
100	0xbdf2cd21	-0.118555315
101	0xbd218b04	-0.039439216
102	0xbca43b7c	-0.020047896
103	0xbd8ecca1	-0.069726236
104	0xbd2cc49c	-0.04217969
105	0xbc6a979d	-0.014318374
106	0xbdc16519	-0.09443111
107	0xbcab4a22	-0.020909373
108	0xbe810a7a	-0.25203305
109	0x3deea41d	0.11652396
110	0xbe0115b9	-0.12605943
111	0xbeadbcdf	-0.3393316
112	0x3d08fcaf	0.033444103
113	0xbc257442	-0.010098519
114	0xbe7ba6d1	-0.24575354
115	0xbc7812fe	-0.015141247
116	0xbdf861aa	-0.12128003
117	0x3de04b48	0.10951859
118	0x3ca32073	0.019912934
119	0xbdf84176	-0.12121861
120	0x3da27be2	0.07933785
121	0xbd868775	-0.06568805
122	0x3b665059	0.0035143106
123	0x3e1f241b	0.15541117
124	0x3dba84c5	0.09107355
125	0x3df68808	0.12037665
126	0x3dfb7e79	0.12279982
127	0xbdd07c00	-0.10179901
128	0xbc8ca651	-0.01716915
129	0x3e1dcbbb	0.15409748
130	0xbe0b44b4	-0.13600427
131	0x3d9d9ff5	0.07696525
132	0x3d10f246	0.0353873
133	0xbd8810fa	-0.06643863
134	0x3de301ee	0.110843524
135	0xb9962ca1	-0.0002864348
136	0x3bce92a7	0.0063041034
137	0x3e23f0e3	0.1600986
138	0xbe9657f5	-0.2936398
139	0xbdf2cc92	-0.11855425
140	0x3d6a391a	0.057183363
141	0xbe868f9c	-0.2628144
142	0xbd987413	-0.074440144
143	0x3d62aa01	0.05533791
144	0x3d2bbd0d	0.04192834
145	0xbded117a	-0.11575599
146	0xbe7d9535	-0.24763949
147	0xbd47a3e7	-0.048740294
148	0xbcdc5569	-0.026896195
149	0xbe336214	-0.17517883
150	0x3de80598	0.11329192
151	0x3e254206	0.16138467
152	0xbdae591a	-0.085130885
153	0x3e4fcf41	0.20293905
154	0xbc04e235	-0.008110573
155	0x3d5f7531	0.05455512
156	0x3e801763	0.25017843
157	0xbda03151	-0.07821906
158	0xbd5a592b	-0.053307693
159	0x3ed21f41	0.4103947
160	0x3c18e2e3	0.009331438
161	0xbc7a2953	-0.0152686415
162	0x3cf0d9b3	0.029400682
163	0x3dc038c7	0.093858294
164	0xbd08846e	-0.03332942
165	0xbe78e0cf	-0.24304508
166	0xbe1d5c7b	-0.1536731
167	0xbd8a63c7	-0.06757312
168	0xbda563a7	-0.08075648
169	0xbdde4372	-0.10852708
170	0x3d86e455	0.0658652
171	0x3c5a2d2c	0.013316434
172	0xbd18c112	-0.0372935
173	0x3d3ef6ab	0.04662196
174	0x3da330fb	0.07968327
175	0x3da28b82	0.07936765
176	0x3e19d66f	0.15023206
177	0xbd252350	-0.04031688
178	0xbe171335	-0.1475342
179	0xbda7cf3a	-0.08193822
180	0xbcc12cc6	-0.02358092
181	0x3d1c1521	0.038106088
182	0x3c08f35e	0.0083588045
183	0xbcab345a	-0.020898987
184	0x3d06a483	0.032871734
185	0x3ca2e297	0.019883437
186	0xbd49b454	-0.04924424
187	0xbd89d124	-0.067293435
188	0xbd283743	-0.041068327
189	0xb99bed54	-0.00029740727
190	0x3d12f491	0.035877768
191	0x3dfe009b	0.12402459
192	0xbda93395	-0.082617916
193	0xbd3d565f	-0.046224948
194	0x3d5d577a	0.054038502
195	0xbd7ed747	-0.062217023
196	0xbcec1331	-0.028817745
197	0xbdc1cbed	-0.09462724
198	0x3c98502b	0.018592915
199	0xbe1c487d	-0.15262027
200	0xbd396591	-0.045262877
201	0x3e3fc961	0.18729164
202	0x3e3a4cca	0.18193355
203	0x3e03c2c6	0.12867269
204	0xbd317da2	-0.043332703
205	0x3e5b4a7c	0.21415132
206	0x3d52b4de	0.05144202
207	0xbd65f4d8	-0.056141704
208	0x3df58cce	0.11989747
209	0x3dc49165	0.09598044
210	0xbe511c73	-0.20421009
211	0x3e21a2e9	0.15784802
212	0x3cd16ae5	0.025563667
213	0xbe6f39ee	-0.23361942
214	0x3c4f8786	0.012666589
215	0xbe10fc0f	-0.14158653
216	0xbe0ed7b2	-0.13949469
217	0xbb2ec855	-0.00266697
218	0x3d01c845	0.031685133
219	0xbe938a50	-0.28816462
220	0x3d7150b1	0.058914844
221	0x3cc3609a	0.023849774
222	0xbe2a8842	-0.1665354
223	0x3c711aab	0.014715831
224	0x3c7f229f	0.015572219
225	0x3dae0ea7	0.084988885
226	0xbdc8088e	-0.09767257
227	0x3b941bcc	0.004519915
228	0x3dc536db	0.096296035
229	0xbe18e712	-0.14931896
230	0xbdad1882	-0.0845194
231	0x3e3e4779	0.18581952
232	0xbd32d607	-0.043661144
233	0x3d55640a	0.052097358
234	0xbd97d83b	-0.074142896
235	0x3e35c402	0.17750552
236	0x3e1a8659	0.15090312
237	0xbdfe828e	-0.12427245
238	0x3e42054e	0.18947336
239	0x3d42c8de	0.047554843
240	0xbe6e00d3	-0.23242502
241	0x3cedf9a1	0.029049696
242	0xbbf5f3e5	-0.007505881
243	0x3c399871	0.011327849
244	0x3c5e8c30	0.013583228
245	0xbd2c02ab	-0.041994732
246	0xbce534eb	-0.027979335
247	0x3d977ff6	0.073974535
248	0xbe053e1c	-0.13011974
249	0x3d346899	0.044045065
250	0xbd74dd3f	-0.05978131
251	0xbdd1dd85	-0.102473296
252	0xbedf6567	-0.4363205
253	0xbd3126b0	-0.043249786
254	0xbde95cdc	-0.11394665
255	0xbeec4992	-0.4614988

model.5.bias f4 [64]
0	0xbe2f2280	-0.17103004
1	0xbe9d5e13	-0.30735835
2	0xbf73f6a8	-0.9529824
3	0xbce52b2b	-0.027974686
4	0xbf5eb159	-0.8698936
5	0xbe2296c8	-0.15877831
6	0xbec3b964	-0.3822738
7	0xbf7ad40b	-0.979798
8	0xbe5882c0	-0.21143627
9	0xbd2040c8	-0.03912428
10	0xbf59d56c	-0.8509128
11	0xbf3cf43c	-0.7381017
12	0xbf7ff910	-0.99989414
13	0xbede0527	-0.43363306
14	0xbf281a3c	-0.6566503
15	0xbf7ffd87	-0.9999623
16	0xbee8127e	-0.45326608
17	0xbf7ddbb6	-0.9916338
18	0x3e1ae825	0.15127619
19	0xbf4739b0	-0.778224
20	0xbe19ccd1	-0.15019538
21	0xbf7f5e76	-0.9975351
22	0xbf79ed68	-0.9762788
23	0xbe03e58a	-0.12880531
24	0xbf5861c2	-0.84524167
25	0xbeed5884	-0.46356595
26	0xbecb0698	-0.39653468
27	0xbe7781f0	-0.24170661
28	0xbd8ab3c3	-0.06772568
29	0xbf7d6ccb	-0.9899413
30	0xbe5d2adf	-0.21598385
31	0xbf7fa7d8	-0.99865484
32	0xbf2408a7	-0.640757
33	0xbeafffe9	-0.3437493
34	0xbd413ce7	-0.04717722
35	0xbe030400	-0.12794495
36	0xbe880dbd	-0.2657298
37	0xbf261ca2	-0.6488744
38	0xbf7e90fe	-0.9943999
39	0xbe3dd99d	-0.18540044
40	0xbf1b6a17	-0.60708755
41	0xbf0d5d8e	-0.5522088
42	0xbf0491ce	-0.5178498
43	0xbf7b9392	-0.9827205
44	0xbf244dd6	-0.6418127
45	0xbe89f9d7	-0.26948425
46	0xbef432fd	-0.4769515
47	0xbf5afb5a	-0.8553978
48	0xbd66bf7e	-0.056334965
49	0xbe4b45a3	-0.19850783
50	0xbf3aad1a	-0.7292038
51	0xbebd2539	-0.3694246
52	0xbf10e449	-0.56598336
53	0xbf01a94b	-0.50648946
54	0xbf5b5e98	-0.85691214
55	0xbe7b2b4d	-0.24528237
56	0xbedc4788	-0.43023324
57	0xbf7ecb33	-0.9952881
58	0xbe7a00e2	-0.244144
59	0xbed1ac42	-0.40951735
60	0xbeea86a1	-0.4580584
61	0xbeb7edb3	-0.35923538
62	0xbf5267cd	-0.8218964
63	0xbf197b65	-0.5995391

model.7.weight f4 [64]
0	0x3f52f71c	0.8240831
1	0x3f5ad193	0.85476035
2	0x3f2c4ee6	0.6730789
3	0x3f69e61c	0.91366744
4	0x3f5789ad	0.8419445
5	0x3f24585e	0.6419734
6	0x3f051d7d	0.5199812
7	0x3f2137ce	0.62975776
8	0x3f7e7c01	0.99407965
9	0x3f30f208	0.6911931
10	0x3f405fce	0.75146186
11	0x3f48ef0c	0.78489757
12	0x3f7c45b5	0.98543864
13	0x3f2af62b	0.6678187
14	0x3f38b072	0.72144234
15	0x3f69e15d	0.913595
16	0x3f7fee12	0.9997264
17	0x3f371756	0.7151998
18	0x3f287c05	0.6581424
19	0x3f44cffd	0.76879865
20	0x3f27c8b7	0.6554064
21	0x3f69616e	0.9116429
22	0x3f515516	0.81770456
23	0x3f16c5ae	0.58895385
24	0x3f47e5bd	0.7808493
25	0x3f7d5fa0	0.9897404
26	0x3f56c345	0.8389171
27	0x3f402281	0.7505265
28	0x3f50ec52	0.81610596
29	0x3f43e1d8	0.76516485
30	0x3f7d883b	0.99035996
31	0x3f5e932f	0.86943334
32	0x3f3e91f7	0.74441475
33	0x3f4ac821	0.7921162
34	0x3f64e18a	0.89406645
35	0x3f7be834	0.9840119
36	0x3f414505	0.7549594
37	0x3f3e8093	0.7441494
38	0x3f6b9901	0.9203034
39	0x3f5ea55e	0.8697108
40	0x3f485cbd	0.7826651
41	0x3f318e5e	0.6935786
42	0x3f5f1043	0.8713419
43	0x3f5f1fd7	0.8715796
44	0x3f7feae8	0.99967813
45	0x3f6e010c	0.9297035
46	0x3f428bff	0.7599487
47	0x3f611a1b	0.8793046
48	0x3f7f25d0	0.9966707
49	0x3f25d00c	0.6477058
50	0x3f6cf1ca	0.9255644
51	0x3f7fcf92	0.999261
52	0x3f417363	0.7556669
53	0x3f2fdd5a	0.6869713
54	0x3f4451a5	0.7668708
55	0x3f789cd9	0.9711433
56	0x3f29789e	0.6619967
57	0x3f6348e8	0.8878312
58	0x3f64ad55	0.89326984
59	0x3f7d1036	0.9885286
60	0x3f22c820	0.63586617
61	0x3f6fe86b	0.93714017
62	0x3f61fe4e	0.88278663
63	0x3f5b2439	0.85602146

model.7.bias f4 [64]
0	0xbe0b8269	-0.13623966
1	0x3f08d689	0.53452355
2	0xbef16907	-0.47150442
3	0x3d4c7530	0.049916446
4	0x3f2004d0	0.62507343
5	0x3f4d15a2	0.80111134
6	0x3eea5d3e	0.45774263
7	0xbf4a613a	-0.79054606
8	0x3bbb963e	0.0057246974
9	0x3ed4d15c	0.4156598
10	0xbea2b816	-0.3178107
11	0xbf17fd55	-0.5937093
12	0x3de68728	0.11256248
13	0xbf45b718	-0.77232504
14	0xbeb19a8c	-0.34688222
15	0x3e08ae93	0.13347845
16	0x3f1b07a9	0.60558563
17	0x3f5de150	0.86671925
18	0x3f7fd6b8	0.9993701
19	0xbe146533	-0.1449173
20	0xbed0cd76	-0.40781754
21	0xbccfeea3	-0.025382346
22	0x3c8d0cf9	0.0172181
23	0xbf7f56f7	-0.9974207
24	0xbf5ddc8f	-0.8666467
25	0x3eab52a0	0.33461475
26	0xbed7320a	-0.42030364
27	0x3e22f1c3	0.15912537
28	0x3e082104	0.13293844
29	0xbe7d8ab6	-0.24759945
30	0x3e8fdd10	0.28098345
31	0x3eaa1516	0.33219212
32	0x3f7fb324	0.9988272
33	0x3da668b1	0.08125437
34	0x3f732227	0.9497399
35	0x3d5df22a	0.054186024
36	0x3f7f1f71	0.9965735
37	0xbebe1351	-0.37124112
38	0x3de168f2	0.11006345
39	0x3f55e00f	0.8354501
40	0x3a94e247	0.001135894
41	0xbdb1378b	-0.08653172
42	0xbe2783ed	-0.1635892
43	0xbdcf633d	-0.1012635
44	0x3f15ef9d	0.58568746
45	0x3e51a43f	0.20472811
46	0xbe10969a	-0.1411995
47	0x3e045243	0.12922005
48	0xbdba3a70	-0.09093177
49	0xbece663e	-0.4031238
50	0x3d9f75a4	0.0778611
51	0xbe082624	-0.132958
52	0xbe68f25e	-0.22748706
53	0x3f051117	0.519792
54	0xbea8fdb0	-0.33006048
55	0x3e60f41d	0.21968122
56	0xbe16d2b4	-0.14728814
57	0x3ec54511	0.38529256
58	0x3e5b7b90	0.21433854
59	0x3e9c7ede	0.30565542
60	0xbe2ce102	-0.16882709
61	0xbcca3578	-0.024683699
62	0x3d8e09aa	0.06935437
63	0x3e5575cb	0.20845716

model.7.running_mean f4 [64]
0	0x3f64fe43	0.8945047
1	0xbf3dcdb9	-0.7414203
2	0xbf1db868	-0.61609507
3	0x3edbe724	0.42949784
4	0xbf424931	-0.7589293
5	0x3f2b2373	0.66850966
6	0xbf27e8a2	-0.65589345
7	0xbf44a4ed	-0.76814157
8	0x3da38b2f	0.079855315
9	0xbd5ace3d	-0.05341934
10	0xbf463823	-0.7742941
11	0xbd0f5380	-0.03499174
12	0xbf4bc85a	-0.7960259
13	0xbd7ca5fc	-0.061681733
14	0xbf4e4637	-0.8057589
15	0xbf39b309	-0.7253881
16	0x3e4f527c	0.20246309
17	0xbe8a7da0	-0.2704897
18	0x3fb647cb	1.424066
19	0xbf5f662d	-0.8726528
20	0xbeb5e279	-0.35524347
21	0xbf40ed91	-0.753625
22	0xbf2c8304	-0.67387414
23	0x3ea2ff74	0.3183552
24	0xbf2babf7	-0.6705927
25	0xbef10525	-0.47074237
26	0xbeb81308	-0.3595202
27	0xbedf6cf5	-0.43637815
28	0xbec67345	-0.3875982
29	0xbee9fc93	-0.4570051
30	0xbddcbb0c	-0.10777864
31	0xbf62b321	-0.8855458
32	0xbf1fd02f	-0.6242704
33	0xbe6d8a26	-0.2319723
34	0xbeaf1240	-0.3419361
35	0x3d6967ff	0.056983944
36	0xbdc500cf	-0.09619295
37	0xbe90e97e	-0.2830314
38	0xbf7959a3	-0.974024
39	0xbec9879d	-0.39361277
40	0xbf2336fd	-0.6375578
41	0x3f6dc477	0.92877907
42	0xbf34035f	-0.70317644
43	0xbf2db86c	-0.6785953
44	0xbf3d7e29	-0.7402063
45	0xbf0b146a	-0.54328024
46	0xbeba5994	-0.36396468
47	0xbf3abba0	-0.72942543
48	0x3e840492	0.25784737
49	0x3d3ef0bd	0.046616305
50	0xbf031b08	-0.5121312
51	0xbeac6a99	-0.33675078
52	0xbed03b23	-0.40670118
53	0xbe4b997a	-0.19882765
54	0xbf26cda4	-0.6515753
55	0xbf0fe52c	-0.56209064
56	0x3ee189b4	0.44050372
57	0xbf279694	-0.6546414
58	0xbe9bf007	-0.30456564
59	0xbec12c95	-0.37729326
60	0x3eabd10d	0.3355793
61	0xbe930e1a	-0.28721696
62	0xbf1c1670	-0.60971737
63	0xbf37ff9d	-0.7187441

model.7.running_var f4 [64]
0	0x4001a14a	2.0254693
1	0x3e6b0228	0.22950041
2	0x3eac8a29	0.33699158
3	0x3f90785f	1.1286734
4	0x3ec29ad5	0.38008752
5	0x41811175	16.133524
6	0x3eceef5a	0.40416986
7	0x3ea871bb	0.3289927
8	0x3f15e52c	0.58552814
9	0x3f32b79b	0.6981141
10	0x3ecea06d	0.4035677
11	0x3f966fa4	1.175282
12	0x3ef49ed8	0.47777438
13	0x3f935386	1.1509864
14	0x3eda57a3	0.42644987
15	0x3f29ed05	0.6637729
16	0x4025a04d	2.587909
17	0x3fce6219	1.6123687
18	0x408ba03b	4.3633094
19	0x3e74c5be	0.23903558
20	0x3eebcad5	0.46053186
21	0x3f2712de	0.65263164
22	0x3e98205a	0.29712182
23	0x40049c37	2.0720346
24	0x3ee11ccd	0.43967286
25	0x3f1ebcf8	0.62007093
26	0x3ed48375	0.41506544
27	0x3e8c84e6	0.27445143
28	0x3ee6edb0	0.45103216
29	0x3ebdc21b	0.37062153
30	0x3ff28ead	1.8949791
31	0x3ea38bb6	0.31942528
32	0x3ed6a393	0.41921672
33	0x3f45d2cc	0.77274776
34	0x3f75ada4	0.9596808
35	0x3f255bac	0.64593005
36	0x4040fa9d	3.0152962
37	0x3ee67ed2	0.4501863
38	0x3e8ffe00	0.28123474
39	0x3f6e949b	0.93195504
40	0x3e7abf88	0.24487126
41	0x400d6bdc	2.2097082
42	0x3ebbb29b	0.36659703
43	0x3efa20ac	0.48853052
44	0x3e9fc059	0.31201437
45	0x3f11531a	0.5676743
46	0x3f58faba	0.8475758
47	0x3e932723	0.28740796
48	0x404a73d3	3.1633193
49	0x3f7a18b1	0.97693926
50	0x3eea38de	0.4574651
51	0x3f13e2bd	0.5776785
52	0x40034020	2.0507889
53	0x4089141f	4.283706
54	0x3f0c542a	0.54815924
55	0x3f039575	0.5139993
56	0x3fbff42a	1.4996388
57	0x3e816278	0.25270438
58	0x3fb2e23f	1.3975295
59	0x3f310117	0.6914229
60	0x3fa09f67	1.2548646
61	0x3f3d5e86	0.73972356
62	0x3f06961d	0.52572805
63	0x3ef024b7	0.4690301

model.8.weight f4 [128, 64, 3, 3]
0	0x3df5e2c5	0.120061435
1	0x3e1bc325	0.1521116
2	0x3d709667	0.058737185
3	0x3d7787ea	0.060432352
4	0x3e572355	0.21009572
5	0x3e4b7f5b	0.19872801
6	0x3e5eea50	0.2176907
7	0x3ef96e2a	0.4871686
8	0x3dec7ea8	0.11547595
9	0x3cd456db	0.025920322
10	0xbc9fac48	-0.01949133
11	0xbe03a01a	-0.12854043
12	0xbc4b48ba	-0.012407476
13	0x3d879903	0.066209815
14	0x3e2e7a52	0.17038849
15	0x3d519b19	0.051173303
16	0x3d9b9ec4	0.075986415
17	0xbc9d7bf0	-0.019224137
18	0x3cb8811f	0.022522507
19	0x3e0d9197	0.1382507
20	0xbd236e68	-0.039900213
21	0xbdef53e8	-0.11685926
22	0xbc1235e3	-0.00892398
23	0x3ca974a5	0.020685503
24	0xbc4eec90	-0.012629643
25	0x3b9e2413	0.0048260777
26	0x3d25ecd4	0.04050906
27	0x3ad4a4ae	0.0016223395
28	0x3f13c6bb	0.57725114
29	0x3d603791	0.054740492
30	0x3e212282	0.1573582
31	0x3ed904e2	0.42386538
32	0x3dd934db	0.106057845
33	0x3e5d79e7	0.21628533
34	0x3ef9b65d	0.48771945
35	0x3e84aafc	0.259117
36	0xbd0551bb	-0.032548647
37	0xbdc6b0fe	-0.09701727
38	0x3d8f0795	0.06983868
39	0xbdaad097	-0.083405666
40	0x3caa4ed3	0.02078954
41	0x3ddf2b6e	0.108969554
42	0x3d4bdc48	0.049770623
43	0xbc175e9a	-0.009238863
44	0xbd4b8421	-0.049686555
45	0xbd991b1e	-0.07475875
46	0xbdba46f4	-0.090955645
47	0xbe135820	-0.14389086
48	0x3db66300	0.089056015
49	0x3e327523	0.17427497
50	0x3d8243b7	0.06360572
51	0x3da6ff79	0.08154196
52	0x3e142b76	0.14469704
53	0x3dac3e06	0.084102675
54	0xbc8eb737	-0.017421348
55	0xbd906cad	-0.07051978
56	0x3ac508e6	0.0015032559
57	0xbdc757a6	-0.097335145
58	0x3c1d25a7	0.009591497
59	0xbe60a2e2	-0.21937135
60	0x3d0c16b9	0.034201358
61	0xbd18b263	-0.037279498
62	0xbd9de48b	-0.07709607
63	0x3d875b6c	0.06609234
64	0xbe0074fb	-0.12544625
65	0x3be5d761	0.0070142006
66	0x3d660afe	0.056162827
67	0x3dbbe1ec	0.091739506
68	0x3dbb6a56	0.09151141
69	0xbd5b5695	-0.053549368
70	0x3cc89f9c	0.02449017
71	0x3cdaf09e	0.026726063
72	0x3dde12f8	0.10843462
73	0x3d799aed	0.060938764
74	0x3d05daf6	0.03267952
75	0xbe7a5928	-0.24448073
76	0xbeb14c69	-0.3462861
77	0xbe38ccb5	-0.1804684
78	0xbcc47fd0	-0.023986727
79	0xbe6b0458	-0.22950876
80	0xbe2d2d03	-0.16911702
81	0xbceb923f	-0.028756259
82	0xbe11ae52	-0.14226654
83	0x3c14862e	0.009065194
84	0xbc3c47bd	-0.011491713
85	0x3c5507e9	0.013002374
86	0x3da7f6f5	0.082014
87	0x3d272c37	0.04081365
88	0x3e1e29f0	0.15445685
89	0x3c2364b2	0.009972738
90	0x3dc75034	0.097320944
91	0xbbc9becd	-0.0061567784
92	0x3e23f72d	0.16012259
93	0x3dc5f2db	0.09665462
94	0x3bf04096	0.007331918
95	0x3e8c1483	0.273594
96	0x3d18fdc6	0.037351392
97	0xbd29fd07	-0.04150107
98	0xbc9143b4	-0.017732479
99	0x3e357f86	0.17724428
100	0x3dc1bc61	0.094597585
101	0x3d5a5ad4	0.053309277
102	0x3e4a300a	0.19744888
103	0x3d95f8a7	0.07322817
104	0xbf120156	-0.5703329
105	0x3dcce8a4	0.1000531
106	0x3e4227e7	0.18960534
107	0x3ded919e	0.1160004
108	0xbd9b544a	-0.07584436
109	0xbe93c8df	-0.2886419
110	0xbe403433	-0.18769912
111	0x3daabcf6	0.08336823
112	0x3d82505e	0.06362985
113	0x3d4b1bb3	0.049586963
114	0x3e4d35bc	0.2004003
115	0xbd355e42	-0.044279344
116	0x3e5bc445	0.2146159
117	0x3b63c0ca	0.0034752362
118	0x3e17a112	0.14807537
119	0x3df277ed	0.1183928
120	0xbd5175e2	-0.051137812
121	0xbe44c0b2	-0.19214132
122	0xbe9e2cbf	-0.30893514
123	0x3d2eaed4	0.042647198
124	0x3dc029f6	0.093830034
125	0x3d5e29a1	0.05423892
126	0xbc9e5c15	-0.019331018
127	0x3d240b97	0.040050115
128	0xbdc076cf	-0.09397661
129	0xbd87fc30	-0.06639898
130	0x3dd25b6d	0.10271344
131	0xbd849c41	-0.064751156
132	0xbe1249d9	-0.14285983
133	0xbd865d9b	-0.065608226
134	0x3d256aa5	0.040384907
135	0x3e0fc213	0.14038877
136	0x3c4b1809	0.012395867
137	0x3cbd126d	0.023080075
138	0x3e1ff42a	0.15620485
139	0x3cd84526	0.02640016
140	0x3e29bad8	0.16575181
141	0x3d77fc5a	0.060543396
142	0xbd784015	-0.06060799
143	0xbdce8803	-0.10084536
144	0xbdeff056	-0.11715762
145	0x3cea28aa	0.028583843
146	0xbd8b046d	-0.067879535
147	0x3e80aec7	0.25133345
148	0x3dff3b90	0.124625325
149	0x3d62a8af	0.05533665
150	0xbe311243	-0.17292123
151	0xbd60654b	-0.0547841
152	0xbcb49626	-0.022044253
153	0xbe00de82	-0.1258488
154	0xbd0fdfbf	-0.03512549
155	0xbdc6b937	-0.09703296
156	0x3d83bc23	0.064323686
157	0xbd340a96	-0.043955408
158	0xbe1122d5	-0.14173444
159	0xbe10152a	-0.14070573
160	0xbd82ec64	-0.06392744
161	0xba16d8dc	-0.00057543605
162	0xbcb79195	-0.022408286
163	0xbcffd3b7	-0.031228883
164	0xbe039d14	-0.1285289
165	0xbd12514a	-0.035722055
166	0x3cf6db99	0.03013401
167	0xbcdaf2a1	-0.026727023
168	0x3d8fe47a	0.07026
169	0x3d029ed4	0.03188975
170	0xbd7952b5	-0.06086989
171	0x3c8d2250	0.017228276
172	0x3d009157	0.031388607
173	0x3dc9559d	0.098307826
174	0xbe3181ac	-0.17334622
175	0x3e194c22	0.14970449
176	0x3e8a1e55	0.26976267
177	0x3bbd2e62	0.0057733515
178	0x3c9bdf9d	0.019027526
179	0x3d10d34a	0.03535775
180	0x3d2aacd9	0.041668747
181	0x3e54dd32	0.20787504
182	0x3d89156f	0.06693541
183	0x3d7d018e	0.06176906
184	0x3e282b5d	0.16422792
185	0x3db52117	0.08844202
186	0x3e253e7f	0.16137122
187	0x3e93d3d5	0.28872553
188	0x3e289f39	0.16466989
189	0xbe2135c1	-0.15743162
190	0xbe2d8853	-0.16946535
191	0xbd0aaed5	-0.03385814
192	0xbe19978c	-0.14999217
193	0xbe450b2b	-0.19242541
194	0x3c3e3afa	0.011610741
195	0x3d2d1d83	0.042264473
196	0xbcd0cf77	-0.025489552
197	0x3da702da	0.08154841
198	0x3e28d9eb	0.16489379
199	0xbcbb8958	-0.022892639
200	0x3d7b9ccd	0.061428834
201	0x3d6d257d	0.05789708
202	0x3c10d915	0.008840819
203	0xbe060c96	-0.13090739
204	0x3d93ae3c	0.07210967
205	0x3e183c8d	0.14866848
206	0x3d0d9f20	0.03457558
207	0x3cc33529	0.02382906
208	0xbd6041e9	-0.054750357
209	0x3de4d19a	0.11172791
210	0xb9a13e97	-0.00030754946
211	0xbc3dfaae	-0.011595411
212	0x3d8311e5	0.063998975
213	0xbd7ebe9f	-0.06219351
214	0xbe6761c2	-0.22595885
215	0xbb91b6b6	-0.0044468297
216	0x3d767233	0.060167503
217	0xbde27a32	-0.11058463
218	0x3d2d3985	0.042291183
219	0xbdea9a94	-0.11455265
220	0xbdce285a	-0.1006629
221	0xbe052ec4	-0.13006121
222	0x3d4ee116	0.050507627
223	0xbd1ebb59	-0.038752887
224	0xbd9b5ee9	-0.07586462
225	0x3e194b5e	0.14970157
226	0xbe1d1935	-0.15341647
227	0xbe1520cf	-0.14563297
228	0x3e36ca44	0.17850596
229	0x3e69cb5e	0.22831485
230	0x3e0b2ea5	0.13592012
231	0xbe0cc3ce	-0.13746569
232	0xbd88ef36	-0.06686251
233	0xbd73a346	-0.05948188
234	0x3e0263fd	0.12733455
235	0x3d35dc11	0.044399325
236	0x3d2a5d2b	0.04159276
237	0x3e34fda0	0.17674875
238	0x3e354608	0.17702496
239	0x3e33cb17	0.17557941
240	0x3dfadc47	0.12249046
241	0x3da94f32	0.082670584
242	0x3cbd6011	0.023117097
243	0x3b5c6aee	0.003363307
244	0x3ca79940	0.020458817
245	0xbd93ffd9	-0.072265334
246	0x3dd99f40	0.10626078
247	0x3e30bffd	0.17260738
248	0x3de4f9e1	0.11180473
249	0x3d5298d6	0.051415287
250	0x3e561719	0.20907249
251	0x3dcfa28a	0.10138424
252	0x3de74b3f	0.11293649
253	0x3ec683ea	0.38772517
254	0xbd6ad652	-0.057333298
255	0xbd8af7c9	-0.067855425

model.8.bias f4 [128]
0	0xbdb895a3	-0.09012916
1	0xbe555d41	-0.20836355
2	0xbe53573b	-0.20638745
3	0xbea9c49b	-0.3315781
4	0xbf3524d9	-0.7075935
5	0xbf203652	-0.62582886
6	0xbf2ca803	-0.67443866
7	0xbeed58ad	-0.46356717
8	0xbf60fa69	-0.87882096
9	0xbe6e712e	-0.23285362
10	0xbf25d7dc	-0.647825
11	0xbf2bd056	-0.6711477
12	0xbe6d2196	-0.23157343
13	0xbef4fac3	-0.47847566
14	0xbeb0256f	-0.3440356
15	0xbf3792f9	-0.7170864
16	0xbecab77d	-0.39593115
17	0x3e215a7a	0.1575717
18	0xbeb58652	-0.3545404
19	0xbedc662f	-0.4304671
20	0xbf4a2f01	-0.7897797
21	0xbe8172dd	-0.25282946
22	0xbf115fcf	-0.5678682
23	0xbe742abd	-0.23844428
24	0xbb836de7	-0.004010904
25	0xbf0dcadb	-0.5538766
26	0xbe7a8c35	-0.24467547
27	0xbf54256e	-0.82869613
28	0xbf06b417	-0.52618545
29	0xbec93aa9	-0.39302567
30	0xbf3933fa	-0.72344935
31	0xbecef895	-0.40424028
32	0xbf0c14f6	-0.54719484
33	0xbeec9b5e	-0.46212286
34	0xbe0b1471	-0.13582017
35	0xbf37f8ac	-0.7186382
36	0xbeabe849	-0.33575657
37	0xbf0a9989	-0.54140526
38	0xbf245d32	-0.64204705
39	0xbf08aa2b	-0.53384656
40	0xbf3e9751	-0.7444964
41	0xbe374c6b	-0.17900245
42	0xbea644b7	-0.324743
43	0xbf135736	-0.5755495
44	0xbdaafaf1	-0.083486445
45	0xbee62f37	-0.44957897
46	0xbf1aaaa4	-0.60416627
47	0xbe6965ab	-0.2279269
48	0xbf13388b	-0.5750815
49	0xbe2b59cc	-0.16733474
50	0xbf241f7c	-0.6411054
51	0xbdb7d931	-0.08976973
52	0xbeab27d5	-0.33428827
53	0xbf2026e0	-0.6255932
54	0xbf583647	-0.8445782
55	0xbe1f2e6a	-0.1554505
56	0xbdcc62c2	-0.09979774
57	0xbf4e3cbc	-0.80561423
58	0xbe8a1966	-0.26972502
59	0xbeede36d	-0.46462575
60	0xbe56ef46	-0.20989713
61	0xbec1199a	-0.37714845
62	0xbf54e9cd	-0.8316925
63	0xbed82f0c	-0.42223394
64	0xbdce1100	-0.10061836
65	0xbea328d3	-0.31867084
66	0xbda5573d	-0.0807328
67	0xbeee7e91	-0.46580938
68	0xbf2beb64	-0.6715605
69	0xbf3f9a16	-0.7484449
70	0xbf4e6894	-0.80628324
71	0x3dd249e0	0.10267997
72	0xbed310ef	-0.41223857
73	0xbe961a9c	-0.29317176
74	0xbec6bec2	-0.38817412
75	0xbf1a6991	-0.6031733
76	0xbf7f6189	-0.997582
77	0xbedbdd11	-0.42942098
78	0xbf11c5af	-0.56942266
79	0xbe17a273	-0.14808063
80	0xbf668312	-0.9004375
81	0xbeec87f1	-0.46197465
82	0xbd61ee6f	-0.05515903
83	0xbeb58028	-0.35449338
84	0xbe2477d7	-0.1606134
85	0xbdecf648	-0.11570412
86	0xbf37cc0b	-0.7179572
87	0xbe891a18	-0.2677772
88	0xbe0fc796	-0.1404098
89	0xbe371555	-0.17879231
90	0xbea04478	-0.31302238
91	0xbe7ea87a	-0.24868956
92	0xbeec2824	-0.46124375
93	0x3d6295f5	0.05531879
94	0xbea5aa13	-0.3235632
95	0xbe8e3bd4	-0.2778002
96	0xbecb8064	-0.39746392
97	0xbed5df34	-0.41771853
98	0xbe3c9d98	-0.18419492
99	0xbf0b3afd	-0.54386884
100	0xbeee2114	-0.46509612
101	0xbe8bccd3	-0.27304706
102	0xbf14d6e1	-0.5814038
103	0xbf726742	-0.9468881
104	0xbe35d13f	-0.17755602
105	0xbec586cb	-0.385794
106	0xbf7e7da9	-0.9941049
107	0xbeb0019f	-0.34376237
108	0xbf0b60cf	-0.54444593
109	0xbf5468bd	-0.8297232
110	0xbf1d6e53	-0.61496466
111	0xbf77299b	-0.9654786
112	0xbeecd57e	-0.46256632
113	0xbec155fa	-0.37760907
114	0xbef575f5	-0.47941557
115	0xbeeb52be	-0.45961565
116	0xbe8ba119	-0.27271345
117	0xbddc2a4b	-0.10750254
118	0xbe8f826c	-0.28029191
119	0xbe41b8c4	-0.18918139
120	0xbeafde2a	-0.34349185
121	0xbf7f153d	-0.9964178
122	0xbf06bb15	-0.52629215
123	0xbf549069	-0.8303285
124	0xbf0d8877	-0.55286354
125	0xbeb67b7a	-0.3564108
126	0xbe3127c1	-0.17300321
127	0xbefb39e8	-0.49067616

model.10.weight f4 [128]
0	0x3f5e4e1a	0.86837924
1	0x3f74a327	0.9556145
2	0x3f188df7	0.5959162
3	0x3f72d0ac	0.9484966
4	0x3f7ee1ed	0.99563485
5	0x3f7e7d77	0.99410194
6	0x3f7d784f	0.990117
7	0x3f7de681	0.99179846
8	0x3f7f0b04	0.99626184
9	0x3f7ec824	0.9952414
10	0x3f7f2e54	0.99680066
11	0x3f7cff5f	0.98827165
12	0x3f732e42	0.9499246
13	0x3f7e7382	0.99395
14	0x3f7d6d60	0.9899502
15	0x3f7fb59a	0.99886477
16	0x3f7c5768	0.9857087
17	0x3f520038	0.82031584
18	0x3f7ec844	0.9952433
19	0x3f7ed6c5	0.9954646
20	0x3f7ef3ef	0.99590963
21	0x3f7c3a42	0.98526394
22	0x3f7ef042	0.99585354
23	0x3f7b8f3a	0.9826542
24	0x3f6cc99d	0.9249514
25	0x3f7f1ad4	0.9965031
26	0x3f7ef221	0.9958821
27	0x3f7ee14d	0.9956253
28	0x3f7d05e8	0.9883714
29	0x3f7da1a4	0.9907477
30	0x3f7e9fdc	0.99462676
31	0x3f681326	0.9065422
32	0x3f7ee293	0.99564475
33	0x3f7d9650	0.99057484
34	0x3f7d651b	0.989824
35	0x3f7f24a5	0.9966529
36	0x3f3a552a	0.727862
37	0x3f7eaa9b	0.99479073
38	0x3f7da7f8	0.99084425
39	0x3f7d9373	0.99053115
40	0x3f7e36e5	0.9930251
41	0x3f7644a5	0.96198493
42	0x3f5a111f	0.85182375
43	0x3f7ee0fe	0.9956206
44	0x3f76ccb6	0.96406114
45	0x3f5daa9e	0.86588466
46	0x3f7f24ce	0.99665534
47	0x3f7e05a2	0.99227345
48	0x3f7e203f	0.99267954
49	0x3f7d5cd1	0.9896975
50	0x3f7d02e2	0.98832524
51	0x3f752368	0.9575715
52	0x3f7ba5b9	0.9829975
53	0x3f7e6176	0.99367464
54	0x3f7eb364	0.9949248
55	0x3f7e6039	0.99365574
56	0x3f646466	0.89215696
57	0x3f7eb429	0.9949365
58	0x3f7ba46a	0.9829775
59	0x3f7ecce3	0.9953138
60	0x3f74a9bd	0.955715
61	0x3f7fa899	0.99866635
62	0x3f7cf856	0.9881643
63	0x3f7d1c05	0.9887088
64	0x3f7a626d	0.97806436
65	0x3f473c9e	0.7782687
66	0x3f699ad5	0.9125188
67	0x3f7e1d01	0.99263006
68	0x3f7edfd6	0.99560297
69	0x3f7ebad9	0.99503857
70	0x3f7f3add	0.99699193
71	0x3f69cfed	0.91332895
72	0x3f7da106	0.9907383
73	0x3f7c4f95	0.9855893
74	0x3f7e5cba	0.9936024
75	0x3f7deb90	0.99187565
76	0x3f7f2cb1	0.9967757
77	0x3f7e7d4c	0.9940994
78	0x3f7ee224	0.99563813
79	0x3f4146d4	0.754987
80	0x3f7ea6f5	0.99473506
81	0x3f7e9af3	0.99455184
82	0x3f657971	0.8963843
83	0x3f7d63af	0.9898023
84	0x3f7ebe7f	0.99509424
85	0x3f7abaf7	0.97941536
86	0x3f7f7b75	0.99797755
87	0x3f5bb14b	0.858174
88	0x3f6d00c4	0.92579293
89	0x3f6a367c	0.91489387
90	0x3f7c8a7f	0.9864883
91	0x3f7edd81	0.9955674
92	0x3f7e9127	0.99440235
93	0x3f57b0fa	0.8425442
94	0x3f784356	0.96977746
95	0x3f7ebfec	0.995116
96	0x3f22f263	0.636511
97	0x3f7e513a	0.9934269
98	0x3f51da26	0.81973493
99	0x3f672cae	0.9030255
100	0x3f7e6a8e	0.9938134
101	0x3f1e1d74	0.6176369
102	0x3f7eb253	0.9949085
103	0x3f7ec298	0.99515676
104	0x3f7a60ef	0.9780416
105	0x3f7f3389	0.9968801
106	0x3f7e270e	0.9927834
107	0x3f7e7b7b	0.99407166
108	0x3f7dc827	0.99133533
109	0x3f7e44e9	0.993239
110	0x3f7c6eea	0.9860674
111	0x3f7e9803	0.994507
112	0x3f7c38c6	0.9852413
113	0x3f7d5264	0.98953843
114	0x3f793be5	0.97357017
115	0x3f7b90b8	0.982677
116	0x3f16b928	0.58876276
117	0x3f762187	0.9614491
118	0x3f7b2a24	0.98111176
119	0x3f7bb59a	0.98323977
120	0x3f7e73de	0.9939555
121	0x3f7f0f47	0.99632686
122	0x3f7d0255	0.98831683
123	0x3f7ecc0f	0.9953012
124	0x3f7fba8f	0.9989404
125	0x3f7ef909	0.9959875
126	0x3f6ee800	0.93322754
127	0x3f7d61f3	0.98977584

model.10.bias f4 [128]
0	0x3d242d61	0.04008234
1	0x3b254be7	0.0025222243
2	0x3b387dba	0.002815111
3	0xbc9b3722	-0.018947188
4	0xbc43a8d2	-0.011942105
5	0xbd95fb86	-0.07323365
6	0xbc357ff8	-0.011077873
7	0xbacf13e2	-0.0015798772
8	0xbc3cdb02	-0.011526825
9	0xbccf23e0	-0.025285661
10	0x3c2f7051	0.010707931
11	0x3caeffda	0.021362234
12	0x3cdb6d3f	0.026785491
13	0x3bbfbbb5	0.005851234
14	0x3bdc5682	0.0067241797
15	0xbd83e983	-0.06441023
16	0x3cdb219c	0.026749425
17	0x3c8995a5	0.016794989
18	0xbcf2ae35	-0.029624084
19	0x3d80b04a	0.062836245
20	0xba31c53b	-0.0006781404
21	0x3c9f4e3d	0.019446487
22	0xbd99d3f8	-0.07511133
23	0x3ca6d710	0.020366222
24	0x3cd91322	0.026498381
25	0x3d612cd1	0.05497438
26	0x3da8a6eb	0.08234962
27	0x3d24ead0	0.040262997
28	0xbdc397e3	-0.095504545
29	0x3cf79adc	0.03022521
30	0xbc86a050	-0.016433865
31	0x3d7c94b6	0.06166526
32	0x3d86579e	0.065596804
33	0xbe464dce	-0.19365618
34	0x3c28f726	0.010312831
35	0x3c3884cb	0.011262129
36	0x3ca87a5a	0.020566154
37	0x3c8f2153	0.017471945
38	0xbc9d63d1	-0.019212635
39	0x3ce32ed1	0.027732285
40	0x3cef242f	0.029192058
41	0x3d6899de	0.056787364
42	0x3d5853f5	0.052814443
43	0xbc87633b	-0.016526809
44	0x3d475de8	0.04867354
45	0x3d8354a2	0.06412627
46	0x3bcac98e	0.006188578
47	0xbe3917dc	-0.18075508
48	0x3c36ecc4	0.011164848
49	0x3cfe499d	0.03104096
50	0x3c9282a5	0.017884562
51	0x3cee4cfa	0.02908944
52	0x3d559ed2	0.052153416
53	0xbc152859	-0.009103858
54	0xbb9e92ab	-0.0048392615
55	0xbe1a06a3	-0.15041594
56	0x3d3d987b	0.046287995
57	0xbc5a02d1	-0.013306336
58	0xbcf9c8f3	-0.030491328
59	0xbb48b80d	-0.003062728
60	0x3bb34ace	0.005471564
61	0xba91256f	-0.0011073778
62	0x3ccc8b86	0.024968874
63	0x3c6c2a79	0.014414423
64	0x3ca7b1d2	0.020470534
65	0x3cdb2785	0.026752243
66	0x3d123eda	0.03570447
67	0x3d83d131	0.064363845
68	0xbc2bf709	-0.0104959095
69	0xbc8ea251	-0.017411383
70	0x3d966bee	0.07344805
71	0x3ce922b8	0.028458938
72	0x3ce8b9af	0.028408853
73	0x3cffa1f4	0.031205155
74	0x3d03454f	0.03204852
75	0xbdc57a18	-0.09642428
76	0xbdd163ca	-0.102241114
77	0xbcc330c1	-0.023826959
78	0xbb5b5f60	-0.0033473596
79	0x3d33d4c3	0.043904077
80	0xbaecca70	-0.0018065702
81	0xbcc39ed0	-0.023879439
82	0xbbf79f1e	-0.00755681
83	0x3c22aee5	0.009929393
84	0xba84aa4b	-0.0010121552
85	0xbc8b749f	-0.017023383
86	0x3c0ec02d	0.00871281
87	0x3d04a9a2	0.032388337
88	0x3cfb9e54	0.030715145
89	0x3cd9b7b5	0.026576856
90	0xbb599bb0	-0.003320437
91	0x3c4d5b46	0.012533968
92	0xbd8d79a5	-0.069079675
93	0x3cdf3d5c	0.027250938
94	0x3ccc9124	0.024971552
95	0xbc0b8936	-0.0085166
96	0x3cf71feb	0.030166587
97	0x3cfc47c1	0.030795934
98	0x3d04d8de	0.032433383
99	0xbddf13e7	-0.10892468
100	0x3d3cd15e	0.046098106
101	0x3c0f7546	0.0087559875
102	0xbb3a25de	-0.0028403918
103	0xbd345558	-0.044026703
104	0xbc5ffdd4	-0.013671357
105	0xbc226e86	-0.009914046
106	0x3d9135e8	0.0709036
107	0x3cdfef8d	0.027335906
108	0xbbb3eef9	-0.0054911342
109	0xbc57641f	-0.013146429
110	0xbcb595c1	-0.022166135
111	0x3c617197	0.013759992
112	0xbc23569d	-0.009969381
113	0xbc8bb363	-0.017053312
114	0xbd961b70	-0.07329452
115	0xbd96684d	-0.073441125
116	0x3d55a579	0.05215976
117	0x3cd09576	0.025461894
118	0x3c987ed9	0.018615173
119	0xbcc3f089	-0.023918407
120	0x3cf7641f	0.030199109
121	0xbcb436ed	-0.021998847
122	0x3cfade5d	0.03062361
123	0x3ca869d3	0.020558273
124	0xbba967d4	-0.005169848
125	0x3cbbeab1	0.022939058
126	0x3cb648f3	0.022251582
127	0x3d83e796	0.06440656
