Lab4/models/gan_models/ls_100e_250b_dis.pth (torch, 402522 bytes, 21 tensors)

model.0.weight f4 [16, 3, 3, 3]
000000 d6 ff d0 bc 09 29 29 bc 08 ee 76 3a 5e 51 9c bc
       -0.025512617 -0.010324725 0.00094196247 -0.019081768
000010 fd e8 46 bd 3c b3 e1 bc 44 3b b5 bc 0e 4a 23 bd
       -0.04856204 -0.027551286 -0.022122987 -0.039865546
000020 79 8c 71 3c a9 18 2d bd 50 74 c6 bc 00 5c c9 3c
       0.014742964 -0.042259846 -0.024225384 0.024580002
000030 d9 bd 5f bd 73 f3 da bc ec c7 cb ba b3 75 d2 bc
       -0.054624412 -0.026727414 -0.0015547252 -0.025690889
000040 e2 c2 38 bd 86 0f 96 bc 10 36 bb 3d a5 26 ac 3d
       -0.04510773 -0.018317949 0.09141171 0.08405808
000050 4c 6b 57 bc d9 c5 a8 3d 3b 33 c7 3c 54 dc dd 3c
       -0.01314814 0.082408614 0.02431642 0.0270826
000060 de 49 b7 3c a6 8c 88 3d 8a 4a 24 3d 34 5c 98 3c
       0.02237409 0.066674516 0.04011015 0.018598653
000070 63 1b 6b 3d ec 21 d4 bd f5 85 2a 3d 20 b6 36 3d
       0.057399165 -0.103580326 0.041631658 0.04460728
000080 72 0f 1b 3d 46 b7 4a 3c 3b 80 89 bd 2c 43 88 3c
       0.037856527 0.012372797 -0.06713911 0.016633593
000090 91 06 1c bd 41 9e 4f 3d 1c 7d d6 bd d3 f2 0f bb
       -0.0380922 0.050688032 -0.104730815 -0.0021964803
0000a0 df a1 51 3d 00 ce 98 3d 11 41 0c bd 97 54 bd bd
       0.051179763 0.074611664 -0.03424174 -0.0924465
0000b0 eb 1b 59 3d 79 df db bc 06 85 05 3d c8 0b ad bd
       0.05300514 -0.026839959 0.032597564 -0.08449513
0000c0 dc fa 0b 3d dc 1d 1f 3d 0d 55 0f 3d c3 0c 7d bc
       0.034174785 0.038846835 0.03499322 -0.015444937
0000d0 fc 09 86 bd ec 84 11 3d 65 9b 0c 3c 09 b5 e7 bc
       -0.06544873 0.035527155 0.008581971 -0.028284566
0000e0 d1 61 a0 bd fc f4 4b bd bd 27 43 3c 35 0d af bc
       -0.07831157 -0.049794182 0.01191133 -0.021368602
0000f0 1f 8b 18 bd 8f ad 2b bc 96 80 ef 39 05 b1 24 3d
       -0.03724205 -0.010478391 0.00045681436 0.04020788
000100 59 b3 bb bc 6d f0 35 bc c7 2d 2e 3d f4 53 54 3d
       -0.022912668 -0.011104685 0.042524125 0.051837876
000110 91 5b 45 bc 5f 0c a9 bb 62 85 28 3d f1 4e a6 3c
       -0.012045757 -0.0051589455 0.04114283 0.020301314
000120 ee 4e fd 3c c8 9a a3 3c df b1 de ba 62 42 52 bc
       0.030921426 0.019971266 -0.0016990266 -0.01283321
000130 e3 00 6f 3c f0 b4 63 bc 22 67 d2 bc d5 c0 b7 3c
       0.014587614 -0.013898119 -0.025683943 0.022430817
000140 5d 79 4d 3b 91 86 50 3d 42 09 b0 3d 19 2e 5f 3d
       0.0031352856 0.050909583 0.08595516 0.05448732
000150 87 5a ab 3d 25 54 ba 3d 20 6e 7a 3d dd 3e 03 3d
       0.08366876 0.090980805 0.06114018 0.032042373
000160 c4 ac 16 3d da ac a1 3d 8b 21 c7 bd a7 cc 6c bd
       0.036785856 0.07894297 -0.09723195 -0.05781236
000170 59 18 82 bd 7f 2a 62 bd e8 65 cd bd 83 7e 86 bd
       -0.063523 -0.05521631 -0.10029203 -0.06567099
000180 e9 19 ad bd 5c ea b8 bd 34 19 9b bd 2d b1 19 3d
       -0.084522076 -0.090290755 -0.075731665 0.037522484
000190 1c a7 c3 3c 2c 7d 2c 3d 5f db 4b 3c 24 07 23 bc
       0.023883395 0.04211156 0.012442439 -0.009950433
0001a0 05 30 8f 3b e8 a2 5f 3c 3a 5f 75 bc 61 da d4 bc
       0.004369738 0.01364968 -0.014976317 -0.025983037
0001b0 3f 07 99 bd c3 90 d5 bc 83 ea a5 bc 46 a1 65 bd
       -0.07472085 -0.026070004 -0.020253425 -0.056062005
0001c0 97 cd 3a bd 30 5a 99 38 6d 20 89 bd b9 10 3a bd
       -0.045606222 7.312407e-05 -0.06695638 -0.045426104
0001d0 3b b0 50 bc 18 8d be 3d e6 af 04 3d 9b 75 4b 3d
       -0.012737329 0.09304255 0.032394312 0.049672704
0001e0 4b e4 a5 3d 16 85 bb 3c d9 2e 04 3d 42 13 80 3d
       0.08100184 0.022890609 0.03227124 0.06253673
0001f0 71 d2 3c 3d ca e0 e8 ba f6 53 86 bb e3 cf c0 bc
       0.04609913 -0.0017767188 -0.0040993644 -0.023536628
000200 f4 b3 29 3d 70 ee 55 bc 3a fb 7e bb 4d 84 84 3c
       0.041431382 -0.013057336 -0.0038907067 0.016176367
000210 e1 f9 b2 bd 2d 1d 24 bd de 82 da bc e5 c5 da bc
       -0.08739067 -0.040066887 -0.02667373 -0.026705692
000220 29 47 52 bc 16 b4 bd bc 9c 29 b6 3b 45 6d 20 3c
       -0.012834349 -0.02315716 0.0055591594 0.009791677
000230 2a a9 92 bc 26 40 d5 3c 5a 04 68 3d 4f f5 ff 3c
       -0.01790293 0.026031565 0.056644775 0.031244902
000240 00 f9 a7 3b 57 08 a2 bc 38 74 96 bc b2 ef f5 3b
       0.0051261187 -0.019779367 -0.018365964 0.0075053805
000250 10 d1 ce 3c fa f0 a0 bc 50 ec bd 3c 5d 31 3c 3d
       0.025246173 -0.019646157 0.023183972 0.045945514
000260 54 73 f3 3c 26 db 65 bd 64 03 8b 3c 2e 5a 34 bc
       0.029718079 -0.0561172 0.01696939 -0.011007829
000270 c1 90 2e 3c bc 6e 6a 3d b4 b5 8a 3b e3 65 45 3d
       0.010654629 0.05723451 0.0042330865 0.04819287
000280 9d 87 4f 3d 61 95 4e 3d 44 cc 7b bc 43 e1 24 3d
       0.05066644 0.050435428 -0.015368525 0.04025389
000290 f7 14 81 3c ff 6f 5b bc fb 49 74 3c 9d 0b 75 bc
       0.015757067 -0.013393401 0.014910216 -0.014956382
0002a0 d7 7e 4f bd 6d 63 83 bd 1b 80 0c bd 9f 14 77 3d
       -0.050658073 -0.06415448 -0.03430186 0.0603224
0002b0 94 6a 58 3d 87 61 dd 3c 21 93 55 3d 29 ef 37 3d
       0.052836016 0.027024044 0.052142266 0.044905815
0002c0 58 f4 0c 3d fa ed d1 3c 63 d0 86 bc 8a 9d f9 3c
       0.03441271 0.025626171 -0.016456788 0.030470628
0002d0 76 96 06 bd cd 95 13 bc ee 28 fb bb 3a 87 cf bc
       -0.032858334 -0.009007883 -0.0076647913 -0.025333036
0002e0 df 1b 9a bc 4a 3e d4 bc 2c 3e 1c bd e3 c3 b6 bc
       -0.018812118 -0.025908608 -0.03814523 -0.022310203
0002f0 7d 39 56 bd be c7 06 bd dc d9 80 bd 4b 72 9e bd
       -0.05230092 -0.032905333 -0.062915534 -0.077366434
000300 9b 55 34 bd 52 c4 a0 bd 8b 15 87 bd d4 60 e1 3a
       -0.044026952 -0.07849945 -0.06595906 0.0017194995
000310 c8 e8 13 bd 42 22 8b bc 84 ac b4 3d 27 79 be 3b
       -0.03611067 -0.016984109 0.08821967 0.0058127823
000320 5b f9 4f bc f6 4c 5d 3d 89 f8 f3 3d 62 00 58 3d
       -0.012693728 0.054028474 0.11912639 0.05273474
000330 e5 a6 97 3d 9e 5b 8e 3d 21 be 8a 3d 5d 48 05 bd
       0.074048795 0.06951068 0.067745455 -0.032539714
000340 b0 cd 1b bd f5 bb d1 3c 6c 1b f3 bb e1 ba 8e 3b
       -0.038037956 0.02560232 -0.0074190404 0.004355774
000350 ce 62 54 bc dd 5e a4 3a 81 37 91 3c 92 b6 1b 3c
       -0.01296301 0.0012540478 0.017726662 0.009503977
000360 fe 72 9e 3c 6f 73 9a bc ba ed d1 bb 6f 0c fd 3b
       0.019341942 -0.018853871 -0.006406513 0.0077224295
000370 18 66 a3 3b 7a 3e 21 bc 87 03 b3 3d 7a 62 69 3d
       0.0049865358 -0.009841556 0.08740907 0.05697868
000380 1e 05 d4 3c 3d 66 75 bd a8 58 0b bd b3 36 81 bc
       0.025881346 -0.059911955 -0.034020096 -0.015773153
000390 b4 06 a8 bd 14 97 c2 bd 27 22 81 bd 46 17 05 bd
       -0.082044035 -0.09501472 -0.06305342 -0.0324929
0003a0 9a 49 07 bd 5b e3 2c 3c 26 74 9e 3c 1d 2a b8 3c
       -0.033029176 0.010552253 0.019342493 0.022481019
0003b0 5f 01 2e 3d 46 15 8e bb e6 12 21 bc 91 6d ab bc
       0.042481776 -0.004336032 -0.009831166 -0.020926269
0003c0 9c 47 95 3d eb 0a 70 3d a2 2b 21 3d 6a 06 4a bd
       0.07289049 0.058604162 0.039348252 -0.049322523
0003d0 d4 3f 9f 3c ce 3d 7c 3c 2b 14 3f 3c 6a 7d c2 3d
       0.019439615 0.015395595 0.011662523 0.09496577
0003e0 4c 20 aa 3d f4 c8 c3 bc 82 85 a5 bc 62 59 92 bd
       0.083069414 -0.023899533 -0.020205263 -0.07145955
0003f0 1d 87 1a bd 6c ae 09 bd e4 31 09 bd 4f f9 07 bd
       -0.03772651 -0.033613607 -0.033494845 -0.033196744

model.0.bias f4 [16]
000000 15 04 07 bd b6 be 45 bd 58 53 da 3d 2f e4 27 be
       -0.032962877 -0.04827758 0.10660428 -0.16395639
000010 65 e4 07 be f3 cc 67 be ad cc 1d be 7e 6b 21 be
       -0.1327072 -0.22636776 -0.15410109 -0.15763661
000020 9e 5a da bb 1e b0 e4 bd d1 73 b6 bb bf 71 ef bd
       -0.0066636344 -0.11166404 -0.0055680056 -0.11691617
000030 76 46 16 bc 37 b6 88 bd f4 0d 00 be a6 df 45 bc
       -0.009172073 -0.0667538 -0.12505323 -0.012077248

model.2.weight f4 [32, 16, 3, 3]
000000 8c de 5d 3d 92 18 c6 3c fe 5c 86 bc 17 5a d4 3b
       0.054167315 0.024181638 -0.016401764 0.006480466
000010 78 a0 84 3b d7 78 f1 bc 46 3d c5 3c 0a af 8f bb
       0.0040474497 -0.029476566 0.024077069 -0.00438488
000020 4c 80 83 bd be 20 47 3d 75 ee 91 3d 39 56 ef bc
       -0.06420955 0.04861521 0.0712556 -0.029215919
000030 93 5e f0 3c 05 12 2f 3d f3 2b 09 3b 9a c5 9f 3c
       0.029341972 0.042741794 0.0020930737 0.019503403
000040 8d 26 51 bc 20 4c ad bd d4 7d d6 3c c4 bf 23 3c
       -0.012765539 -0.08461785 0.026183046 0.009994451
000050 72 55 10 3d 93 3b 63 3c fe a8 83 3c 25 03 54 3d
       0.035237737 0.013869184 0.016071793 0.05176081
000060 cc 32 9c 3c 03 9a 86 3d e8 62 43 3c 31 6d 9b 3d
       0.01906719 0.06572344 0.011925437 0.07589186
000070 16 61 30 3d f2 e7 72 3d df a3 5b 3d 13 e8 92 3d
       0.04306134 0.05930323 0.053623077 0.07173171
000080 a6 35 c2 ba 3c 9f 8a 3c 81 b7 79 3c 66 89 2e bd
       -0.0014817014 0.016921632 0.015241505 -0.042611502
000090 67 09 86 bd 4f 71 9c bd 89 c8 a3 bb c0 ae 33 bd
       -0.06544762 -0.076387994 -0.004998271 -0.043867826
0000a0 ef b9 9e bd f4 e3 b2 bc c9 0f 4e bc ce d1 9f b9
       -0.07750308 -0.021837212 -0.012577006 -0.0003048316
0000b0 53 8a 24 3d 90 cf b8 3d f7 0c 1d 3c 06 75 30 bd
       0.04017098 0.090239644 0.009585611 -0.043080352
0000c0 09 cf 5e 3d 9c 51 36 3d fe 7a a8 3c ab b4 98 3c
       0.054396663 0.044511423 0.02056646 0.018640837
0000d0 26 f3 19 3d d0 51 f4 bb 45 68 a0 bd 3d bf c9 bd
       0.0375854 -0.007456042 -0.07832388 -0.09850929
0000e0 a1 2d c6 bb d9 d8 4b bd de 18 17 bd 6f ec 54 3d
       -0.00604792 -0.04976735 -0.03688895 0.051983293
0000f0 80 4d 97 3b 7a 70 49 3d 27 73 5e 3d 52 83 c2 bd
       0.004617393 0.04917953 0.054309037 -0.094977036
000100 85 60 5c bd 52 f8 d8 3b d8 69 83 bd 23 59 b1 bd
       -0.053802986 0.006621399 -0.064166725 -0.086595796
000110 56 8b 4f 3d 8d 69 cd bc 17 76 05 3d 24 ba e0 3d
       0.05066999 -0.025074745 0.032583322 0.109730035
000120 f3 ad c4 3d d1 ff ff 3d 38 7b f6 bc 4b f1 03 3d
       0.09603491 0.12499965 -0.030088052 0.032212537
000130 1d 35 51 3d e4 c6 50 bd bc df f0 3c 95 32 6b bd
       0.051076043 -0.050970927 0.02940356 -0.057421286
000140 a7 d8 a7 bd 50 25 e1 3c 32 de 2a 3d 00 28 c3 3b
       -0.0819562 0.027483612 0.04171581 0.005955696
000150 03 04 bc 3d d2 17 84 3d 54 da 2e 3c dc 90 39 3d
       0.09180453 0.06449856 0.010672171 0.045304164
000160 e5 3d 80 3c 5b 41 7d bd 88 9e c8 bb 3a 12 9c 3c
       0.015654514 -0.061829906 -0.006122414 0.01905166
000170 53 36 49 3b 77 d4 c9 3c 1e 90 0a bd fe 8b 59 bc
       0.0030702546 0.024637444 -0.033828847 -0.013278006
000180 75 5f 8a bc da 47 4a bc 42 86 a7 bd 28 79 d6 bc
       -0.01689122 -0.012346232 -0.081799045 -0.026180819
000190 3e 75 33 bd f8 99 43 3c 47 f8 02 3d 16 42 af ba
       -0.043812983 0.0119385645 0.031975057 -0.0013371136
0001a0 e2 1c 47 3c fa c5 c6 bc 2d c2 17 bd c6 9d 20 bc
       0.012152882 -0.024264324 -0.037050415 -0.009803241
0001b0 d3 12 47 3d 5c 5f 9c 3d 14 51 e4 bc fc 91 be 3d
       0.048601937 0.07635376 -0.027870692 0.09305188
0001c0 4a 0b c5 bb f2 ec 49 bd ec 08 6d bc f4 6c ac bd
       -0.0060133087 -0.049298234 -0.014467459 -0.08419219
0001d0 c8 81 5e bd 17 57 41 3d 46 d3 1b bd 6f 3e d0 bb
       -0.054322988 0.047202196 -0.038043283 -0.006355099
0001e0 3a 7a 9d 3d 0b d9 88 3c 26 0b 41 bd 27 0d dd bc
       0.076893285 0.016705057 -0.047129773 -0.02698381
0001f0 e4 f6 a6 bb 26 4a 2e bd a9 14 90 bd cf 57 5e bc
       -0.0050953496 -0.042551182 -0.070351906 -0.01357074
000200 9f 2e fd 3c 17 3b f7 bc e4 27 43 bd ec d3 87 3c
       0.03090602 -0.030179543 -0.047645465 0.016580544
000210 4c b0 22 bd 40 83 d8 3a 9b 59 4a 3d 50 af 82 bc
       -0.03971891 0.0016518608 0.04940186 -0.015952736
000220 8a bf 0a 3c 2c 8f e4 ba fb 3e 28 3d 19 d0 0c 3c
       0.008468518 -0.0017437688 0.041075688 0.008594536
000230 b6 7a 73 bc 6b 47 c9 3c f4 77 39 3d cc ad 6b 3d
       -0.0148608 0.024570188 0.04528041 0.057538792
000240 27 b9 9e 3c 8e e2 b2 3b 46 fa 43 bc 19 f9 8a bc
       0.019375397 0.0054591363 -0.011961525 -0.016964482
000250 4a 91 4f 3c 90 9f 32 3b 65 8b c3 3b 3c 78 4b 3d
       0.012668917 0.0027255751 0.005967545 0.04967521
000260 4d df 68 3d 78 0e 6f bd d6 f3 7c bd 85 90 8a 3c
       0.05685358 -0.058363408 -0.061755978 0.016914615
000270 d0 c9 c9 bc 0a 2e 1c bd 0f 1c 60 bc e1 f4 0f bd
       -0.024632365 -0.038129844 -0.013678565 -0.035145644
000280 ea b0 31 3d 83 72 3a 3d 65 4e 63 3c 18 84 77 3d
       0.04338161 0.045519363 0.013873671 0.06042871
000290 11 96 b9 3d ca 76 48 bc 56 0a 02 3c ae 19 de 3c
       0.09061826 -0.012235353 0.007937035 0.027111854
0002a0 5f 76 c3 3b 38 6e c3 3a 57 e1 f1 3c 54 c9 38 bd
       0.0059650387 0.0014910167 0.029526396 -0.045113876
0002b0 b4 74 bd 3c 6d 7f 45 3d f3 a0 14 3d ec 39 13 3e
       0.023126937 0.048217226 0.036286306 0.14377564
0002c0 c2 36 d9 3d fd 97 b3 3d cd 8c be 3d 43 30 30 3d
       0.10606147 0.08769224 0.09304199 0.043014776
0002d0 1e b0 01 3d 0a 81 a3 3c bc 37 77 3d 42 67 b7 bb
       0.0316621 0.019958992 0.060355887 -0.005597026
0002e0 34 97 a8 bd ec 05 0f bd aa 00 24 bd 4a c8 86 bd
       -0.08231965 -0.034917757 -0.040039696 -0.06581171
0002f0 c7 1a 43 bd 94 22 fc 3b 1f 20 02 bd d4 1a 69 3b
       -0.04763296 0.0076945517 -0.031768914 0.003556897
000300 b5 53 40 3d 91 99 8a bb 34 85 38 3d 69 10 41 3d
       0.04695483 -0.0042297323 0.045048907 0.04713479
000310 5b a9 e0 3c 8b 1e cb 3d 57 54 3a bd dd 12 73 bd
       0.027424505 0.09917935 -0.04549059 -0.05934416
000320 74 a5 13 bc 4c f9 14 bc f0 ee 89 bd 25 1d 07 bd
       -0.009011615 -0.00909264 -0.06735027 -0.03298678
000330 49 25 3a bd 5c 72 91 bd e4 3d 7b 3a 85 7e 55 3d
       -0.045445714 -0.071018904 0.00095841126 0.05212261
000340 dd dc 0d 3d e6 4c 92 3d ed f2 00 bd be 14 1f bd
       0.03463446 0.071435735 -0.031481672 -0.03883814
000350 40 85 49 3c 4c 04 03 bd 99 72 89 bd 5f e8 89 bc
       0.012299836 -0.03198652 -0.06711311 -0.016834436
000360 5c 04 b4 bd 2d e1 53 bd 39 d4 64 bc d6 01 01 bd
       -0.08789894 -0.051728416 -0.013966613 -0.03149589
000370 9e a9 80 bc 47 e3 43 3c e1 25 20 3c 8a 98 83 3c
       -0.01570588 0.011956043 0.009774656 0.016063947
000380 dd 9d 1f bc b5 47 b5 bc c8 62 bd bd 45 fb 53 3d
       -0.009742227 -0.02212892 -0.09247357 0.0517533
000390 01 08 95 3c 2d 96 c3 3c 2e ba 35 3d 3a f3 6a 3d
       0.018192293 0.02387532 0.044367008 0.057360865
0003a0 e9 e1 a6 3d 52 a9 b1 3d 66 a8 07 bd 88 fc 1e bc
       0.08148558 0.086748734 -0.03311958 -0.009703763
0003b0 30 71 a4 bb 24 6f 92 3c 0c 9f 89 38 fe 21 2c 3c
       -0.005018376 0.017875262 6.562294e-05 0.010506151
0003c0 38 1d b0 3c ba ef 16 3d 22 a6 d6 3c 0a 14 b1 bc
       0.021498308 0.036849715 0.026202265 -0.021616
0003d0 a9 7e 25 bc cf 75 e2 3c 68 04 8e bd cd 80 43 bd
       -0.010100999 0.027644066 -0.06934434 -0.047730256
0003e0 06 73 af 39 09 e2 e1 3c 2a 55 f0 ba 37 d7 d9 3c
       0.000334643 0.027573602 -0.0018335928 0.02659188
0003f0 d9 da 03 bd e3 73 ed bc b4 c2 05 bd 98 79 04 bd
       -0.03219113 -0.028985923 -0.032656386 -0.032342523

model.2.bias f4 [32]
000000 33 aa a0 bd c1 b8 78 bd 31 58 7c bd 22 ae 05 bd
       -0.07844963 -0.06072307 -0.061607543 -0.03263677
000010 24 5f 5a bd 1f 33 46 bd f8 42 c2 bd ff 7f 5c 3d
       -0.05331339 -0.048388597 -0.094854295 0.053833004
000020 38 4b c8 bd cc a8 53 bd 92 ee 94 3d 81 76 92 bd
       -0.09779972 -0.05167465 0.07272066 -0.07151509
000030 f6 e7 35 3d 7a 8d 17 bd fe 19 5f 3c 5f 7b 30 bd
       0.04441067 -0.037000157 0.013617037 -0.043086406
000040 5f d5 97 3d 35 cc be bd 57 f5 41 3e 80 20 c1 3d
       0.07413744 -0.09316293 0.18941246 0.09430027
000050 6d 71 4b bd ae 12 48 bd fb ae 02 bd 6c f2 8c bd
       -0.049668718 -0.04884594 -0.031905156 -0.06882176
000060 a0 98 a0 bd ab 40 d5 ba 6a 41 dd 3d c5 34 b2 bc
       -0.07841611 -0.0016269883 0.10803492 -0.021753678
000070 7c 29 48 bd 99 3b 07 3e fc 2e 94 3c 77 ec af bd
       -0.048867688 0.13206328 0.01808881 -0.08590024

model.4.weight f4 [32]
000000 10 f7 75 3f 69 a2 7a 3f d7 f9 64 3f d9 9f 79 3f
       0.9608011 0.9790407 0.89443725 0.97509533
000010 22 be 70 3f 27 c4 76 3f f4 10 75 3f 0b f8 76 3f
       0.9404012 0.96393055 0.95728993 0.96472234
000020 0b a7 7b 3f af 0e 6e 3f 52 75 7e 3f 65 8f 70 3f
       0.9830176 0.92991155 0.99397767 0.939688
000030 69 77 7c 3f 4f 1f 7e 3f 45 30 7c 3f 19 3d 61 3f
       0.98619705 0.99266523 0.98511153 0.8798385
000040 65 3f 6f 3f 08 c9 64 3f c2 50 66 3f 19 41 66 3f
       0.9345611 0.8936925 0.89966977 0.8994308
000050 6c 34 73 3f 00 3f 71 3f 36 d2 76 3f 29 15 75 3f
       0.95001864 0.94236755 0.96414506 0.9573541
000060 41 6d 7d 3f 41 e4 75 3f d3 e1 72 3f 95 d8 6f 3f
       0.98994833 0.9605141 0.9487583 0.9368985
000070 68 cf 7c 3f 2b 78 7f 3f 87 17 73 3f 44 55 7f 3f
       0.98753977 0.99792737 0.94957775 0.9973948

model.4.bias f4 [32]
000000 aa c5 4c be 92 e6 44 be 6b 0f cb 3d d6 d3 28 be
       -0.19997278 -0.1922858 0.0991505 -0.16487059
000010 6a 3f 29 be 7c 61 56 3d 6a 92 0b be f4 d3 5d bd
       -0.16528097 0.052339062 -0.13630071 -0.054157212
000020 aa e9 cb 3d 56 53 c0 bd 52 9f 88 3c fc 23 5a be
       0.09956677 -0.09390895 0.016677532 -0.2130279
000030 fc 13 2b be 86 d4 c5 bd f7 9e 7c be 2a e2 04 bd
       -0.16706842 -0.09659676 -0.24670015 -0.03244225
000040 13 86 f7 bd 82 8b 92 be a6 45 49 3c 51 c5 28 be
       -0.120861195 -0.2862206 0.012284672 -0.1648152
000050 51 62 80 bd d4 6d 2c be 59 c5 d2 bd 7a c8 db bd
       -0.06268752 -0.16838771 -0.10291547 -0.10731597
000060 af ab 83 3d 51 cf 54 bc ac e1 37 be d6 20 92 be
       0.064292304 -0.012988881 -0.1795718 -0.28540677
000070 93 9b 77 be ba a7 13 3e 1c 38 24 be d0 9a e6 bd
       -0.2418044 0.14419451 -0.16037029 -0.11259997

model.4.running_mean f4 [32]
000000 bf 0f a7 bc 9f 7d 9b bc 59 fd b9 bc bd 1f 97 bc
       -0.02039325 -0.0189808 -0.022703813 -0.018447751
000010 4d a2 7c bc 01 c9 79 bc 82 16 0c bd d6 cc e0 3d
       -0.015419555 -0.015245677 -0.034201153 0.10976569
000020 7e 6b 01 bd f3 2f 04 bd 46 9a da 3d 5a 67 de bc
       -0.031596653 -0.03227229 0.106739566 -0.027148891
000030 bc 90 5f 3d 91 90 48 bc a1 e3 4c 3d 1d 74 87 bc
       0.05458139 -0.012241499 0.05002177 -0.01653486
000040 ab de ec 3d 2c 2e b6 bc a6 b7 4b 3e 95 97 f9 3d
       0.11565908 -0.022238813 0.19894275 0.12187115
000050 9a d6 03 bd 39 11 f7 bc ce 7d 3a bc 81 03 87 bc
       -0.032187082 -0.03015958 -0.011382533 -0.016481163
000060 a7 17 1b bd dc e6 51 bc d1 10 15 3e f2 58 58 bc
       -0.037864354 -0.012811389 0.14557196 -0.0132048
000070 8c de 41 bc b7 d3 e1 3d 34 7c 80 3d b6 c5 16 bd
       -0.0118328445 0.110267095 0.0627369 -0.036809646

model.4.running_var f4 [32]
000000 69 fe 88 38 c7 6f a6 38 a7 5c b5 38 a1 52 5b 38
       6.532373e-05 7.936317e-05 8.6480104e-05 5.2290623e-05
000010 99 59 6c 39 fe 33 54 39 58 10 0c 38 04 ce 01 3a
       0.00022540092 0.00020237264 3.3393822e-05 0.0004951658
000020 51 04 9a 37 28 6a 79 38 56 f6 30 3a 43 32 2a 39
       1.836024e-05 5.9465092e-05 0.0006750574 0.00016231187
000030 0c 3f 3a 3a eb cc 0c 38 fb 3d 05 3a 85 f7 10 39
       0.00071047316 3.3569446e-05 0.0005082783 0.00013825118
000040 a2 3a 2c 3a cc 8a 89 38 1a 3e c1 39 9b dc 42 3a
       0.0006570016 6.558522e-05 0.00036858098 0.00074333855
000050 e2 ec 3b 39 be 2c 83 38 c0 0b d9 38 14 5d 5c 38
       0.00017921955 6.254901e-05 0.00010349555 5.2538773e-05
000060 c1 4a cf 37 4e 6a e2 38 06 6a 59 3a 37 d7 7c 38
       2.4711133e-05 0.000107963206 0.0008293692 6.0281916e-05
000070 14 9d 6a 38 32 29 b7 39 db e2 93 39 80 64 a4 38
       5.5936238e-05 0.00034935173 0.00028207045 7.838849e-05

model.5.weight f4 [64, 32, 3, 3]
000000 ab 34 1b bc 2c 1b 76 b9 36 94 e3 3c e4 9c bb 3c
       -0.009473006 -0.0002347051 0.027780633 0.02290196
000010 a8 8b 65 bc 1d 0c ef 3c e2 47 b6 bb bf 0b c0 bc
       -0.014010347 0.02918058 -0.0055627683 -0.023443101
000020 91 30 e0 3c 7b 6a 2c 3d dc 84 db 3c 21 b2 a3 3d
       0.027366908 0.042093735 0.02679675 0.0799296
000030 03 3f 2d 3d 2e fe eb 3c 73 69 97 3d 85 d4 6f bd
       0.04229642 0.028807726 0.0739316 -0.058552284
000040 ef 1a b5 3b f6 99 29 3d 3d b3 35 3c 2e 4c d9 3b
       0.0055268924 0.041406594 0.011090097 0.006631396
000050 73 6d 2c bc e1 c7 cc bc 63 e5 a6 bc 8d 4b 7f bc
       -0.010524142 -0.024997653 -0.020373052 -0.015581978
000060 a6 32 f3 bb 8e 7a f4 3a 1b a3 01 bc 16 11 2f bd
       -0.0074218092 0.0018652247 -0.0079124225 -0.042740904
000070 95 83 ed 3d f4 d1 60 3d c9 8f 82 bc 75 6e 61 3d
       0.11597363 0.054887727 -0.015937703 0.05503698
000080 a6 8f 65 3d 1e 3b 67 ba 29 99 e9 3c 6b 98 82 3d
       0.056045197 -0.000882076 0.028515415 0.06376728
000090 fd a0 8d bc 09 4e 93 3c a3 99 d0 3d d7 d5 57 3d
       -0.01728868 0.017981546 0.10185554 0.052694168
0000a0 5f bb 14 3d 6a 38 46 3d c6 d8 cf 3c fe 37 f4 3c
       0.036311503 0.048393644 0.02537192 0.029811855
0000b0 0c 35 23 3d b8 d3 f8 3c b8 de 35 3d 03 ea 7e 3c
       0.03984551 0.030374393 0.044401854 0.015558722
0000c0 11 54 16 bd ce 29 bf 3d 9b 40 04 bd 86 d4 85 ba
       -0.036701266 0.093341455 -0.032288175 -0.0010210432
0000d0 2e 8b 36 3c bc 2f 3d 3d 31 15 3d bc 53 71 13 bd
       0.011141581 0.0461881 -0.011540697 -0.035996746
0000e0 2a 29 c0 3c 06 05 17 bc f4 c4 23 3c 0c d8 a2 3d
       0.023457129 -0.009217506 0.009995688 0.07951364
0000f0 ed 1c 9c 3c bc 41 7d bd 0b 18 bc 3c f1 72 0c bb
       0.019056762 -0.061830267 0.022960683 -0.0021430815
000100 0e f3 9b 3d b7 76 4d bd 40 4c fa 3c cb 24 a3 3d
       0.076147184 -0.050162043 0.030553937 0.07966002
000110 61 28 ba 3b de 09 52 bb db 99 03 3d 94 20 2d bd
       0.005681083 -0.0032049338 0.03212915 -0.042267397
000120 86 ef 43 3b f7 2b 02 bd 20 99 bb bd 68 83 26 bc
       0.0029897406 -0.03178021 -0.09160066 -0.010163166
000130 d2 01 4e bd bf 36 15 bd 50 90 1c bc c2 fd 2f 3d
       -0.050294705 -0.036429163 -0.009555891 0.04296661
000140 29 65 be bc 57 99 c5 bc d8 6c 06 bd 17 89 0b bd
       -0.023241596 -0.02412097 -0.032818645 -0.034066286
000150 1a 05 33 bc 49 0c 51 bd fb 38 2e 3b 68 7d 00 3d
       -0.010926509 -0.051037107 0.0026584256 0.031369597
000160 8b 49 8d 3c 1c 6d 72 bd 07 e9 b1 bc b8 9d 2f 3d
       0.017246982 -0.059186086 -0.021717561 0.04287502
000170 a9 37 82 3c c9 e2 9b bc 0d a5 01 bd 8f 26 c1 3b
       0.015895681 -0.019029038 -0.031651545 0.005894489
000180 07 bd a3 3b 78 c7 5c 3c 74 bc 13 bc 20 1a 1a 3d
       0.004996899 0.013475291 -0.009017099 0.03762257
000190 8b 08 ea ba 3d f2 9c 3d 92 77 2e 3d b0 4f 7b bd
       -0.0017855329 0.07663391 0.0425945 -0.061355293
0001a0 6d 89 83 3c 05 7e 24 bc d9 ac 34 bd 01 ca fc 3c
       0.01605674 -0.010039811 -0.044110153 0.030858042
0001b0 5d b2 3e bc 99 4f 0b 3d 44 dc 53 bd aa de 1b bd
       -0.011639205 0.034011457 -0.051723734 -0.038054146
0001c0 3b 4d 99 bc d4 62 2c 3d d7 6a 01 3d 0b 80 ce 39
       -0.018713584 0.042086437 0.03159603 0.0003938678
0001d0 8a ae 95 bc b1 c2 af bc a5 6a c6 bc f4 fc b8 bd
       -0.018271703 -0.02145514 -0.024220774 -0.09032622
0001e0 59 bd aa 3d 7e 3a f4 3c be 18 ad bc 0a c1 40 3c
       0.083368964 0.029813047 -0.021129962 0.011764774
0001f0 41 18 14 3b f7 eb f8 3c 5f 59 d3 3b d4 84 e5 3c
       0.0022597464 0.030385954 0.006449863 0.028017439
000200 46 cd dc 3a 22 cd 89 3c f8 e7 9c 3d 46 7d ce 3c
       0.0016845844 0.016821448 0.07661432 0.02520622
000210 c6 8b ee 3c 7d 14 19 3d 60 8f 59 3c 7f ee 9c 3c
       0.029119384 0.037373055 0.013278812 0.019156693
000220 ec cf 85 3d 7d c0 81 3d 93 f8 35 bd 8f 88 1e 3d
       0.065337986 0.06335542 -0.044426512 0.03870445
000230 60 20 21 3d 0e 0d ed 3b a9 6d 89 3c f8 f0 1e 3d
       0.039337516 0.0072342223 0.016775923 0.038804024
000240 5a 16 3f bd 86 86 c0 bc 32 5e 16 bc 10 df 95 3b
       -0.046652175 -0.023501646 -0.009177731 0.0045737103
000250 ce b4 93 3d 3f a6 07 3b b8 2d c8 bc f0 ac 10 3d
       0.0721222 0.0020698456 -0.024435863 0.035321176
000260 35 d4 e4 bc df 09 80 3d 86 89 3c bb 73 51 a6 3d
       -0.02793322 0.06251883 -0.0028768494 0.08121004
000270 93 84 a7 3c 0a d7 3b 3d 3d fd c8 3d ab 26 76 bc
       0.020448959 0.045859374 0.09813926 -0.015023868
000280 c1 c8 78 3c 0b a2 6e bc 02 c4 f1 bb a0 79 e1 bc
       0.015184582 -0.014565001 -0.0073781023 -0.027523816
000290 a1 ac 16 bd 89 fe ff bc 07 94 1c bd 7a 09 5e 3d
       -0.036785726 -0.031249302 -0.038227107 0.054208256
0002a0 6a 9f 81 3d 07 12 9b bb 59 3f c2 bc 26 c1 65 3d
       0.06329234 -0.0047323736 -0.023711847 0.056092404
0002b0 6f c5 b1 3c 41 3e d1 bc f7 26 a6 bb 65 f5 23 3d
       0.021700589 -0.02554238 -0.005070563 0.04002895
0002c0 70 4e 72 bb 5b 13 c2 bc 6d ac bf bc f6 e9 96 ba
       -0.0036973022 -0.02369087 -0.023397649 -0.0011513818
0002d0 4b 93 2b 3d 30 d9 ad bc 40 86 23 bb dc 67 95 3b
       0.041888516 -0.021221727 -0.0024951845 0.0045595
0002e0 59 75 26 3d ed ed 37 bc 5f c6 32 3d 41 a5 5b ba
       0.040639255 -0.0112261595 0.043646213 -0.0008378812
0002f0 34 f0 0f bb 92 72 e3 3c 28 9e 2d 39 5c 51 d5 3d
       -0.002196324 0.027764592 0.00016557483 0.10415909
000300 00 7a e5 3c 59 f5 61 3d 4d 06 43 3d 34 23 05 3d
       0.028012276 0.055165622 0.04761343 0.032504275
000310 c3 4d ef bc 30 e1 32 3d 4b 17 34 3d 3d 49 7b 3c
       -0.029211884 0.043671787 0.043967526 0.015337286
000320 bc 7a c5 3d f9 c5 87 bb e2 ec a9 3c 3c 24 75 3d
       0.0964255 -0.004143473 0.020742837 0.05984901
000330 57 d0 70 3c c4 81 1b bc 9c 0c 18 3d 96 ee 9c 3c
       0.01469811 -0.009491388 0.0371214 0.019156735
000340 5b 89 7b bd 23 c6 5a bc 3a 8b 04 bd 3e 8c 6e bd
       -0.06141029 -0.013352904 -0.03235934 -0.058239214
000350 08 79 b5 3c 53 31 a2 3b 4a e3 f3 3c 2f 90 48 bd
       0.022152439 0.0049497276 0.029771466 -0.04896563
000360 60 7b 69 3d 5c f4 4c 3d 24 f9 83 bd 81 f5 6a bd
       0.057002425 0.050037727 -0.06444004 -0.057363037
000370 64 77 d9 bb 74 25 e7 bc 6f 66 bf bb d1 35 83 bc
       -0.006636547 -0.028216101 -0.0058410685 -0.016016873
000380 64 84 1a bb 57 9b 9c bd 61 4c 96 bd b1 11 3d bd
       -0.0023577446 -0.07646816 -0.07338787 -0.04615945
000390 46 a7 f1 3a f5 f1 9f bd 77 a7 93 bd 3b 44 fc 3a
       0.0018436692 -0.078098215 -0.07209676 0.0019246408
0003a0 81 ab ba bd 77 d3 6a bd 95 e9 9c bd 7a 6e c9 bc
       -0.09114743 -0.057330575 -0.0766174 -0.024588812
0003b0 fb d1 a8 bb f0 8a f6 bc 2f 3c 09 bd d1 f3 5b 3d
       -0.0051519847 -0.030095547 -0.03350466 0.05369932
0003c0 c2 c0 03 3c 8b 47 e0 3c b3 73 9f bc 62 ef d6 bc
       0.0080415625 0.027377864 -0.01946435 -0.026237193
0003d0 eb 4c 0e bd c1 ff 1c 3c 1b 86 39 3d 4c 59 59 bd
       -0.034741323 0.009582461 0.04529391 -0.053063676
0003e0 b8 3b e6 3b f7 55 d8 bc d1 20 e8 bc b9 8b e6 bc
       0.007026162 -0.026408179 -0.02833596 -0.028142797
0003f0 00 4a d2 3d 10 3d 63 3d b3 8f f5 3d 6b 31 b4 bd
       0.10268021 0.055478156 0.11990299 -0.08798488

model.5.bias f4 [64]
000000 4e 34 95 bd 39 17 34 be f2 ce b3 bd 84 87 09 be
       -0.07285367 -0.17586984 -0.08779706 -0.13430601
000010 5e 61 86 be 5b 29 bd bd 19 ea 8f be 49 85 94 be
       -0.2624616 -0.092364036 -0.2810829 -0.29007939
000020 51 e8 bb be f3 b5 7b bd 3a b5 34 be 71 b6 b3 3d
       -0.3670068 -0.061452817 -0.17647257 0.08775032
000030 7c 63 e4 bd 37 37 a2 bd 38 1a 8a bd 46 fb 20 be
       -0.11151788 -0.07920688 -0.06743282 -0.15720853
000040 a4 58 09 be 36 fc 88 be 46 57 ef bc de 3f 80 be
       -0.1341272 -0.26754922 -0.02921642 -0.25048727
000050 03 2a a6 bc 69 cd f7 3d d5 dc bb be e0 c8 f6 bd
       -0.020283705 0.12099726 -0.3669192 -0.120500326
000060 45 d2 f6 bd 0e 6e 0e be d2 05 a7 be fc de 9f be
       -0.120518245 -0.1390917 -0.32621628 -0.3122481
000070 4a 09 8f be a6 f2 0b be 86 f5 28 be 9a cd 52 be
       -0.27936774 -0.13666782 -0.1649991 -0.20586243
000080 e2 51 a1 bd 52 20 33 be 87 44 3c be ba f8 c4 3b
       -0.07876946 -0.17492798 -0.18385516 0.006011096
000090 2f 5e 4f be f2 49 6a be 75 41 79 be 8b 8e 96 3c
       -0.20250772 -0.2287977 -0.24341376 0.018378517
0000a0 99 a2 97 be f1 ec 92 3c e1 79 82 be 07 e9 79 be
       -0.2961624 0.017935248 -0.2548361 -0.24405299
0000b0 a3 f1 62 ba e6 6b 1d be b0 47 84 be 37 7f bc bd
       -0.00086572225 -0.15373191 -0.25835943 -0.09203952
0000c0 d1 fb 2e bd b2 ea 6f be 5b 57 14 bd ff 42 79 be
       -0.04272062 -0.23429373 -0.03621612 -0.24341963
0000d0 d6 fb 23 be eb 91 de bd a2 96 3c bd d9 de 13 be
       -0.16014037 -0.108676754 -0.046042092 -0.14440478
0000e0 b2 32 87 be 85 4c 36 be 2b b8 e1 bd 39 58 8a 3d
       -0.26405865 -0.17802627 -0.110214554 0.067551084
0000f0 5b 49 80 be d3 56 f5 bb 33 e8 2f bd a3 dc 29 3d
       -0.25055966 -0.007487157 -0.04294605 0.04147018

model.7.weight f4 [64]
000000 fb 30 65 3f 10 6b 75 3f 8d d3 6f 3f 58 ed 78 3f
       0.89527863 0.9586649 0.93682176 0.9723716
000010 22 c8 7c 3f f7 1e 66 3f 8a 15 7d 3f f2 1b 7b 3f
       0.9874288 0.89891 0.9886099 0.98089516
000020 49 fd 7a 3f 26 fb 75 3f d7 11 70 3f f6 30 79 3f
       0.9804273 0.9608635 0.9377722 0.97340333
000030 2b e7 61 3f 8e 45 7d 3f d1 46 6d 3f 0f 95 69 3f
       0.8824336 0.9893426 0.9268618 0.9124307
000040 9e 87 7c 3f 01 5f 77 3f f3 8a 6a 3f 6f 08 77 3f
       0.98644435 0.9662934 0.9161827 0.96497244
000050 e7 56 7c 3f 56 b4 7a 3f ee 38 7c 3f cd 45 73 3f
       0.985701 0.9793142 0.9852437 0.9502838
000060 be 13 75 3f e4 30 77 3f 70 5f 77 3f 5d f5 7f 3f
       0.9573325 0.96558976 0.9663 0.9998377
000070 fc 77 7b 3f 14 c2 75 3f 11 7b 75 3f 3c 65 71 3f
       0.98229957 0.95999265 0.9589091 0.94295096
000080 ad c2 74 3f 91 9b 6c 3f d1 e5 71 3f c2 b1 74 3f
       0.9560955 0.92424875 0.94491297 0.95583737
000090 68 7c 77 3f 6c 5a 7e 3f 88 f5 78 3f 17 a4 75 3f
       0.96674204 0.9935672 0.9724965 0.95953506
0000a0 01 bd 7e 3f 16 27 76 3f 02 03 73 3f 62 36 64 3f
       0.9950715 0.9615339 0.94926465 0.8914548
0000b0 5f fc 76 3f c0 a6 73 3f ea f3 72 3f 3d 93 7c 3f
       0.9647884 0.95176315 0.94903433 0.9866217
0000c0 92 9c 7d 3f 06 77 74 3f d0 14 7f 3f e0 35 7a 3f
       0.9906703 0.95494115 0.9964113 0.97738457
0000d0 35 bf 75 3f 2c 94 6d 3f 3d 63 7a 3f 78 bd 6f 3f
       0.95994884 0.9280422 0.97807676 0.9364848
0000e0 0b 7a 7b 3f 5f a1 7c 3f 30 ee 76 3f 1d 9f 79 3f
       0.982331 0.9868373 0.96457195 0.9750841
0000f0 8a ba 7d 3f 9c 64 77 3f 04 69 76 3f dc ad 7f 3f
       0.9911276 0.9663789 0.9625399 0.99874663

model.7.bias f4 [64]
000000 7a 21 fe bd 6c 9f bb be 24 bd 4d 3b 0e 56 1e 3c
       -0.12408729 -0.36645067 0.0031393254 0.009664072
000010 cc 15 4c be df 05 0c be 97 7e 2a 3d 82 a1 c6 bd
       -0.1993019 -0.13674115 0.04162463 -0.09698774
000020 07 ea d3 bd de e7 21 be 05 22 92 3e 40 b6 8b be
       -0.103473715 -0.15811107 0.2854158 -0.27287483
000030 7a 7f a7 be 13 d9 8b bd a6 22 c5 3d dd b0 16 3e
       -0.32714444 -0.06828513 0.09625749 0.14715905
000040 02 71 30 bd 43 70 ad bb 98 b1 0c bb 70 92 b8 bc
       -0.043076523 -0.0052929237 -0.0021468159 -0.022530764
000050 c9 dc 4e bd b5 9c 68 3e 81 43 57 3c 0a 32 a6 bd
       -0.050503526 0.22716029 0.013138653 -0.08115013
000060 6f 1e ae bd df 98 1c 3e 59 9f a2 3c f3 41 32 3c
       -0.085018985 0.1529269 0.019851374 0.010879981
000070 07 34 fd bd da 69 cf 3d d1 9a c9 3c c6 0a 52 3e
       -0.12363439 0.101276115 0.024609955 0.20511922
000080 26 f3 59 3d bc 6d 30 3e 89 19 89 bc 72 4d 89 be
       0.0532104 0.1722936 -0.016735809 -0.268169
000090 8c 10 6e 3d ee 66 36 3e 20 fa 8b 3b 2c 1f 46 bd
       0.05812125 0.17812702 0.0042717606 -0.04836957
0000a0 1d c1 96 bd 03 65 6b 3c dd a1 3b bd 02 75 02 be
       -0.07361052 0.014367345 -0.04580866 -0.12739947
0000b0 da e5 10 be 86 f0 f9 3d d6 5a 87 3b ca ad f7 bc
       -0.14150181 0.12204079 0.0041307015 -0.030234236
0000c0 68 6a 9f bd f4 42 9c bc cd 64 22 3b 63 d2 e2 bc
       -0.07783967 -0.019074894 0.002477932 -0.02768821
0000d0 7a 16 8e 3d 5c cf 4c be 59 80 b1 bd 8f 23 dc 3d
       0.06937881 -0.20000976 -0.086670585 0.1074897
0000e0 16 b3 97 3d d1 a1 cb be b8 d0 bd bd 71 39 aa 3e
       0.07407205 -0.39771894 -0.092683256 0.3324695
0000f0 01 ad 20 3e 95 a3 b7 bd b6 e7 aa 3d 21 c0 87 bd
       0.15690996 -0.08966748 0.083449766 -0.066284426

model.7.running_mean f4 [64]
000000 d1 8c 42 bd 92 81 2a be 53 7e d7 3d 7e 15 26 be
       -0.047497574 -0.1665099 0.10522141 -0.16219136
000010 1f df 10 be e8 5f c3 3c 17 ea 14 be 1d 65 86 bd
       -0.14147614 0.023849443 -0.14542423 -0.065622546
000020 42 be 73 be 91 99 03 3f 28 ef 46 bd 32 2c f9 3e
       -0.23803046 0.514062 -0.04856792 0.4866653
000030 d4 ac 81 bd 23 a0 07 3f 73 92 2d 3d f2 64 4b bd
       -0.063317925 0.52978724 0.042375993 -0.049656816
000040 d1 60 1f 3e c7 3d f1 bd 8f 71 ac 3d 5c 27 2b be
       0.15564276 -0.11779361 0.08420097 -0.16714233
000050 df d0 93 3e 71 08 c2 3e 9b 73 7d be 16 11 91 3d
       0.28870293 0.37897065 -0.24751131 0.07083337
000060 ae a3 87 3d 02 72 b9 3e f0 62 1b be 24 34 17 be
       0.06623016 0.36219794 -0.1517446 -0.14765984
000070 34 ba c6 bd e4 fa 5b bd 18 01 9a bd 08 d5 8d bc
       -0.09703484 -0.053706065 -0.0751974 -0.017313495
000080 69 c8 86 3d 3b a5 98 3c 60 a7 cf bd fe 9b f4 3e
       0.06581194 0.018633476 -0.10139346 0.47775263
000090 52 a0 01 be 51 94 13 be 4d b2 29 be c2 cc 44 3f
       -0.12658814 -0.14412047 -0.16571923 0.76874936
0000a0 db ca 4e be 3a a9 f3 3e 1b f5 20 be 8f d3 e0 bd
       -0.2019457 0.47590047 -0.157185 -0.109778516
0000b0 23 02 e6 3d cb 33 92 ba 23 a5 14 be 94 1f 2f 3e
       0.11230876 -0.0011154352 -0.1451612 0.1710189
0000c0 1a 36 9f 3d 0e 6d 76 3d 66 63 82 3e 0c 1f b2 bd
       0.07773991 0.060162596 0.2546646 -0.08697328
0000d0 ac 47 93 bd 27 98 ad 3d bd 7d b1 3e 9b ff 1a 3d
       -0.07191405 0.084762864 0.34666243 0.03784142
0000e0 a7 91 2e be a5 39 39 bd b2 e9 84 bd 52 d6 bd 3e
       -0.1704775 -0.04522099 -0.06489886 0.37077576
0000f0 73 00 41 3e 98 52 2a 3d d0 98 35 3d a7 3d 59 3f
       0.18847828 0.041582674 0.044335186 0.848597

model.7.running_var f4 [64]
000000 fb 92 7c 3e 42 1b 0f 3e 8e 9a 44 3e 18 51 d1 3d
       0.24665444 0.13975242 0.19199583 0.102205455
000010 26 bc 42 3d 22 b0 5e 3e 30 f9 35 3d 2b be c9 3d
       0.047542714 0.21746877 0.044427097 0.09850725
000020 b8 e7 29 3d e5 dd 1c 3f 9f 03 5b 3e f6 ea 93 3e
       0.04148075 0.61276084 0.213881 0.28890198
000030 8b 49 88 3e 23 fa a7 3e cb f6 06 3e e4 c4 ee 3d
       0.2661861 0.32808027 0.13180082 0.11658648
000040 03 10 0e 3e b4 b4 65 3d c0 95 17 3f 56 1c 6f 3d
       0.13873295 0.056080535 0.59212875 0.058376633
000050 70 40 9e 3e 5d d7 97 3e 76 86 8c 3d 69 b9 07 3f
       0.30908537 0.29656497 0.06861584 0.5301729
000060 81 8d 90 3e 29 32 aa 3f be 75 9d 3d ff e9 2b 3d
       0.2823296 1.3296558 0.07688473 0.041971203
000070 98 33 89 3d d4 cc dc 3d f7 04 2f 3e 37 3a cd 3e
       0.06699294 0.10781255 0.17091738 0.40083477
000080 a0 6a 75 3e b6 d5 22 3e 98 e7 b3 3d a6 82 e4 3e
       0.23966455 0.15901837 0.087844074 0.44630927
000090 55 9b 47 3d 87 b8 19 3e 2b c3 92 3d c8 90 51 3f
       0.04873212 0.15011798 0.071661316 0.81861544
0000a0 e1 5d 45 3d 40 82 2e 3f 67 80 57 3d 82 f9 a9 3d
       0.048185233 0.68167496 0.05261269 0.08299543
0000b0 56 3c 39 3f d6 02 8a 3e 69 9e aa 3d 16 9c 52 3e
       0.7235769 0.2695529 0.083309956 0.20567355
0000c0 92 e9 de 3d 08 97 2e 3e 5f 00 5b 3e 8b c7 98 3d
       0.10884394 0.17049801 0.2138686 0.07459935
0000d0 ed c0 14 3e 89 75 16 3e 9b c1 9c 3e eb 9a 09 3e
       0.1452672 0.14693274 0.3061646 0.13438003
0000e0 fd f7 39 3d 64 19 d9 3e e7 98 39 3d 95 13 2b 3f
       0.045402516 0.42402184 0.045311835 0.66826755
0000f0 62 37 65 3f b2 34 44 3e 7a d5 d7 3e 0c 0d 22 3f
       0.8953763 0.19160727 0.42155057 0.6330116

model.8.weight f4 [128, 64, 3, 3]
000000 2d b1 71 bd a7 6e 32 3c bd 7f 47 bd 75 05 a5 bc
       -0.05900686 0.010890639 -0.048705805 -0.020144204
000010 37 80 ed 3b 7e dc 25 3c 7c eb eb 3b dd f6 e3 3c
       0.0072479504 0.01012337 0.007199703 0.027827675
000020 72 07 15 bd 44 82 ea bc 98 4e fd bc cc 59 a4 bb
       -0.036384054 -0.028626569 -0.030921265 -0.0050155874
000030 cd a8 a8 bc 4a b1 25 bd dc bb 4f 3d b2 d3 3b 3c
       -0.020588303 -0.04045228 0.050716266 0.011464046
000040 de 47 ba bb 44 ea 92 3c 5c 09 ca 3b 38 15 4c bc
       -0.005684837 0.017933972 0.0061656665 -0.012456231
000050 44 84 78 3d b1 ca 08 bd a3 da 1c be c9 c9 04 bc
       0.060673013 -0.033396427 -0.15317778 -0.00810475
000060 e1 f8 81 bd a3 d8 d0 3b d4 a6 3c bd 18 ea 06 3e
       -0.06346298 0.0063734814 -0.046057537 0.13175237
000070 5f dd 95 3d 6d af 2a bc f4 9b 10 bd e9 56 fd 3b
       0.07317614 -0.010417801 -0.03530498 0.0077313078
000080 b9 d8 6c 3d 69 2d 70 bc 89 12 1a bd 6d 80 27 bc
       0.05782387 -0.014659264 -0.037615333 -0.01022349
000090 ea bd c8 bd 53 52 c0 bb f6 67 00 3d 2c 98 d9 3d
       -0.09801848 -0.005869189 0.031349145 0.106247276
0000a0 ee 20 8e bc f2 66 ee 3c 92 7f ab 3c 0a 65 2d bd
       -0.017349686 0.029101823 0.020934854 -0.042332686
0000b0 45 d5 93 3d 4c a3 23 bc a4 4e dd 3b 72 2f 02 bd
       0.07218412 -0.0099876635 0.0067537595 -0.03178353
0000c0 9d a8 fb bc 2e fe 47 3d 7a 97 2c bd ff b6 c8 3c
       -0.03072005 0.04882639 -0.042136647 0.024501322
0000d0 90 0f ba bc ae 14 1e bc 82 b5 41 3d b8 7a 43 bd
       -0.022712499 -0.009648485 0.04729224 -0.047724456
0000e0 76 72 a2 bd 91 23 c8 3d 50 9a 2a 3d 01 5b 3c bd
       -0.07931988 0.09772409 0.04165107 -0.045985226
0000f0 79 7d 6f 3d d9 85 7a 3c 29 3b 81 3d f8 67 3e 3d
       0.05846927 0.015290701 0.06310112 0.04648587
000100 89 55 11 bb 22 83 66 bd fd 7c 14 bb 1b 30 60 bc
       -0.0022176227 -0.0562774 -0.0022657507 -0.013683344
000110 da d6 6e bd 1f cd 29 3d ac d7 f2 3c 20 03 5b bb
       -0.058310367 0.041455384 0.029643856 -0.003341861
000120 97 03 45 bb e5 2e 87 bd 3c 0f 01 3d 4d 75 ab bd
       -0.0030061954 -0.06600741 0.03150867 -0.08371983
000130 0a 73 d7 3d 1e 82 a7 3d 68 23 c3 bd 40 8c a5 bd
       0.10519989 0.08179115 -0.095282376 -0.08083391
000140 25 a8 0e 3d 3f 1d 30 3d 2b 2d 6d bc ea 64 a1 ba
       0.034828324 0.04299664 -0.014476101 -0.00123134
000150 b0 19 fe bc 7c c1 8a 3c af b4 48 3d 8e fe a8 3c
       -0.031018108 0.016937964 0.04900044 0.020629194
000160 02 1c 5a 3d cd a5 32 3c cb 38 13 3d 75 d1 ae bb
       0.053249367 0.010903788 0.035942834 -0.005335028
000170 6e 3b a7 bc f1 32 d0 bd 2d 46 5c bd c6 46 81 bd
       -0.02041408 -0.10165966 -0.053777862 -0.06312327
000180 98 12 6f bd 1a 66 32 3d 78 c0 c7 3c 00 26 9e 3d
       -0.05836734 0.043554403 0.024383768 0.07722092
000190 ce 19 37 b9 5a 31 27 bc 74 b4 3e bd bd fd 2e 3d
       -0.00017461853 -0.010204637 -0.046558812 0.042722452
0001a0 70 51 b6 3d 92 85 71 bd 2e 71 86 bd 5d d4 38 bc
       0.08902252 -0.058965273 -0.06564556 -0.0112811
0001b0 11 8a 72 bc 18 cb bc 3c 67 8e 1a 3d d6 39 00 bd
       -0.014803425 0.023046061 0.03773346 -0.031305157
0001c0 41 8f 3b bb 8c f6 95 3d dd 87 b3 bd 25 46 f7 bc
       -0.0028619322 0.07322416 -0.08766148 -0.030184815
0001d0 69 33 89 3d ac 59 7a 3d 1b f4 4f 3d 25 ba 83 3d
       0.06699259 0.061120674 0.050769906 0.064319886
0001e0 ea d2 68 3d b2 69 8f 3b 85 5a 36 bd 99 d1 24 3d
       0.05684177 0.0043766135 -0.04451992 0.04023895
0001f0 94 c9 87 3d db d8 27 bb 55 8b 84 bd 19 09 25 3d
       0.06630245 -0.0025611434 -0.06471888 0.04029188
000200 a5 43 61 bc e5 90 0c 3d ab c5 1f bd 74 a3 ad 3b
       -0.013749038 0.03431787 -0.03900687 0.005299026
000210 84 b7 ad 3c 87 c9 0f bc 95 af c4 3c 7a fd 98 3d
       0.021205671 -0.008776075 0.024009505 0.07470222
000220 4c 46 2a 3c 32 50 61 3c 95 9a ec 3b 57 ef e6 3b
       0.010392737 0.01375203 0.007220576 0.0070475745
000230 f0 34 ab bd a0 91 24 bd ea 5b ab bc f0 a7 40 3d
       -0.083597064 -0.04017794 -0.020917851 0.047035158
000240 7e 36 fa 3c 0c 98 28 3d 95 fe 91 3c 84 40 2b 3d
       0.030543562 0.04116063 0.01782159 0.041809574
000250 cb 92 69 3c f1 95 86 bb 28 20 fa 3c 8f 45 00 bd
       0.01425619 -0.00410723 0.030532911 -0.031316336
000260 ed 56 97 ba 9d 37 ed 3b 08 67 8e 3c aa 41 9c bd
       -0.0011546292 0.0072392956 0.017383114 -0.07629712
000270 40 99 30 3d 5c b4 eb 3d da 41 76 3d a1 19 0a bc
       0.0431149 0.1150901 0.060121395 -0.008428962
000280 cd ba 2d 3c e1 8f c3 3b de 8e 3f bd 1a eb 80 3c
       0.010603619 0.0059680794 -0.04676711 0.015737105
000290 e9 a0 dd bc f9 e9 49 bd e1 26 9d bc 07 1e 92 3c
       -0.027054267 -0.0492954 -0.019183578 0.017836584
0002a0 c6 1b 3a 3c 10 de 7a 3d f4 81 12 bc f2 aa f5 bc
       0.011359161 0.06124693 -0.008942116 -0.02998874
0002b0 b2 e1 94 3c ad 38 ec 3c c0 27 82 bb 60 29 83 bd
       0.018174026 0.028835619 -0.0039720237 -0.06404376
0002c0 1a 1c 3e bd 65 f5 52 bc 96 a2 20 bc 81 23 ae 3c
       -0.04641352 -0.012875889 -0.0098043885 0.021257164
0002d0 a7 91 38 3d 04 a0 b7 3d 9e 7a ae 3b c7 d7 0c bd
       0.04506078 0.089660674 0.0053246757 -0.03438547
0002e0 c8 24 66 bd c2 5b 99 bd e7 24 fc bb fb f5 dd 3c
       -0.05618742 -0.074882045 -0.007694829 0.027094832
0002f0 78 c8 1d 3c cf 9a cf bd b2 3f bc 3a a7 d3 bf bc
       0.009630315 -0.10136949 0.0014362244 -0.023416353
000300 ef c4 f1 bd 4e 37 8c 3d 18 fe 0b 3d 91 df 94 3c
       -0.1180514 0.06846486 0.03417787 0.018173011
000310 ee 6e ad 3a c5 af 4a bd 8c e8 60 bc 0a c7 06 3c
       0.0013231912 -0.049484033 -0.0137273185 0.008226166
000320 c8 85 eb bc 0e 83 01 bd ea 95 e4 bd 9a dd 0c 3b
       -0.028750315 -0.031619124 -0.11161406 0.002149439
000330 aa 64 57 3d 17 f5 98 3d 87 64 62 3b 04 59 32 3d
       0.052586235 0.07468622 0.0034544782 0.043541923
000340 3e 62 0b bd 8d 47 76 bc 8c 96 10 ba a6 98 2f bc
       -0.034029238 -0.0150317075 -0.00055155973 -0.010717547
000350 6c aa 06 bd af 2c 25 3c 9a 54 57 bd c0 8e 08 3d
       -0.03287737 0.010081454 -0.052570917 0.033339262
000360 17 c5 a2 bc 13 fd 31 3d 21 08 90 bd 11 35 bd 3c
       -0.01986937 0.04345424 -0.070328005 0.023096593
000370 18 08 91 3d fe 89 58 3d aa 13 03 3d 2b df 5a bc
       0.07081622 0.052865975 0.032001175 -0.013358871
000380 f4 8c 8c bd db 4c b3 bc 10 c5 7a bc fe 70 7e 3b
       -0.06862822 -0.021887233 -0.015305772 0.0038824673
000390 cc 3c 85 3a dc 7a 66 3c dc b1 a0 bc 5b 7c 8f bc
       0.0010165214 0.014067378 -0.01961606 -0.017515352
0003a0 51 bd 03 bd 4c 25 69 bd d0 0c 48 3d fa 0b f1 3c
       -0.032162968 -0.056920335 0.048840344 0.029424656
0003b0 6f c5 d9 bc 82 f1 bc 3d 77 85 46 3c 41 ae ba bc
       -0.026583401 0.092257515 0.012116781 -0.022788169
0003c0 0f 4c c5 3d 6f fb 39 bd 3a 04 b7 bc 2c 56 33 bd
       0.09633648 -0.0454058 -0.022340883 -0.04378335
0003d0 f2 2a c7 3c bf b2 09 bd 50 a5 bc bc 15 cc 9e 3d
       0.02431247 -0.03361773 -0.023028046 0.07753769
0003e0 c0 28 8c bd c7 4a 6f 3d 51 e0 c4 3d 82 86 77 bd
       -0.0684371 0.058420923 0.096130975 -0.06043101
0003f0 11 e0 00 3e d1 57 03 bd a2 8e e7 bd 36 fc 17 bd
       0.12585475 -0.03206617 -0.11306502 -0.03710576

model.8.bias f4 [128]
000000 d4 34 0c be 1b 9a 06 be ca 98 50 bd 1b be f6 bc
       -0.13692027 -0.13144724 -0.05092696 -0.030119946
000010 ba 7f 7c bd 9d cd ca bd 07 0c 49 bd bc bc 71 be
       -0.061645247 -0.09902499 -0.049083736 -0.23607153
000020 81 c5 43 be ab 16 56 bd 68 8a 9e 3d 7d a5 b0 bd
       -0.1911831 -0.05226771 0.07741243 -0.086253144
000030 fa 59 7e bd 4f c3 a2 bc 78 21 a1 bd 13 08 aa bd
       -0.062097527 -0.019868521 -0.07867712 -0.08302321
000040 56 ce 98 bd 49 2d 2a bd 38 cd e1 bb a0 3d 01 3d
       -0.074612305 -0.041547094 -0.006890919 0.03155291
000050 96 42 b5 bd bc 66 74 be e1 74 9d bd 11 79 9b bd
       -0.08850591 -0.23867315 -0.076883085 -0.07591451
000060 c6 de f1 bc 03 d3 a0 bd 88 b4 93 bd 0f 89 e1 bc
       -0.029525172 -0.07852747 -0.07212168 -0.027531175
000070 a7 22 96 bb 49 19 9c bc 44 bf 04 bd 9c 5e 72 bd
       -0.0045817676 -0.019055026 -0.032408968 -0.059172258
000080 4b 8f 41 be e2 b3 a2 bd 23 3d c7 bc 55 95 02 be
       -0.18902318 -0.07944466 -0.024321144 -0.12752278
000090 34 a0 41 bd 83 8e f6 bd f9 6a f2 bd fd cc cc be
       -0.047271922 -0.12038901 -0.1183681 -0.40000144
0000a0 a9 77 c9 bc 5f 02 8f bd dd 35 51 bd 48 f3 51 bd
       -0.024593191 -0.06982874 -0.05107676 -0.0512574
0000b0 c5 37 41 bc 00 4f b4 bd 6f 34 95 3b a3 d8 ee bd
       -0.011793082 -0.088041306 0.0045533697 -0.11662414
0000c0 33 e1 23 be d2 71 9f be ab 43 08 be 78 cf 96 bc
       -0.16003875 -0.31141526 -0.13307063 -0.018409476
0000d0 35 ec 3d bd 4a 22 4c be 1d f1 1c be bb 17 26 be
       -0.046367843 -0.19934955 -0.15326352 -0.1621999
0000e0 4b 26 6a bd 9f 48 28 bd 59 57 8e bd 3b 57 67 be
       -0.057165425 -0.041084882 -0.06950254 -0.2259187
0000f0 d3 d7 9e be 23 a3 25 bb 89 45 8d 3b 79 76 24 be
       -0.31024036 -0.002527424 0.0043112678 -0.16060819
000100 25 6e 2b be b6 be a2 bd 20 d2 23 3c 0a 7f df bd
       -0.16741236 -0.079465315 0.009998828 -0.10912903
000110 42 d8 13 be 85 2e 0b be 80 8f 82 3d f4 ae 16 bd
       -0.14437965 -0.13591965 0.06375027 -0.036787942
000120 cc d4 e9 bc c4 ba 1c bd 2e aa be bd 84 ed c2 bd
       -0.028543852 -0.03826405 -0.09309803 -0.09517959
000130 43 17 0c be c9 ba 4b 3b 1b be 1c be de c0 c3 bb
       -0.13680749 0.0031086674 -0.15306894 -0.0059739193
000140 a1 5e ed bd 63 3f c6 bd 45 45 96 bd d0 45 a0 bd
       -0.11590315 -0.09680059 -0.07337431 -0.07825816
000150 17 89 8c bd df de c8 bd 5c 15 88 be 6d b0 b2 be
       -0.06862085 -0.09808134 -0.26578796 -0.34900227
000160 5e 6a da be f5 f0 d5 bd bd 67 63 3c 28 12 80 bd
       -0.42659277 -0.104463495 0.013879714 -0.06253463
000170 e3 d4 09 3c f1 17 91 be 7d 6e a4 3d 02 f5 bf bd
       0.008412573 -0.28338578 0.080288865 -0.093729034
000180 eb 3b 90 bd b5 04 35 bd a7 75 45 bd bf 00 cb bc
       -0.070426784 -0.044193942 -0.048207905 -0.02478063
000190 7f c7 5a bd fe 01 4f bd 05 d2 d1 bd 7f ba 55 bc
       -0.05341291 -0.05053901 -0.10245136 -0.013044952
0001a0 d7 a2 d7 bd fd d2 84 be e9 8b bc be 18 dc 8d bd
       -0.10529106 -0.2594222 -0.36825493 -0.06926745
0001b0 9c 7b 31 bd dc d2 4b bd d1 25 aa bd 65 7f 43 bd
       -0.043330774 -0.049761638 -0.08307994 -0.047728915
0001c0 d9 49 f6 bc 52 55 80 b9 36 3a d7 be 02 a9 cf bd
       -0.03006451 -0.0002447763 -0.420366 -0.101396576
0001d0 5c 25 83 bd a6 9e 49 3d b7 af 73 3b 98 ee bd bd
       -0.0640361 0.049223565 0.0037183592 -0.09274024
0001e0 64 8a 05 be 5b 8b c9 bd 45 90 a9 3c 87 1c 4f 3d
       -0.13041073 -0.09841033 0.020698676 0.050564315
0001f0 3c d5 7b bc 28 44 13 be aa 23 52 bd 61 a7 14 be
       -0.015370663 -0.14381468 -0.051303543 -0.14516975

model.10.weight f4 [128]
000000 ac e2 7f 3f 84 80 6c 3f e9 59 7e 3f 74 ae 71 3f
       0.9995525 0.923836 0.9935594 0.9440682
000010 48 21 6d 3f 98 d6 76 3f bf d4 58 3f ce e2 7f 3f
       0.9262891 0.96421194 0.84699625 0.9995545
000020 33 bc 7f 3f ee 3d 6a 3f 31 ec 7a 3f d4 5d 60 3f
       0.99896544 0.9150075 0.9801665 0.8764317
000030 85 ba 7f 3f 30 d6 7f 3f 9f a2 7f 3f 2d 66 64 3f
       0.9989398 0.999362 0.99857515 0.8921841
000040 25 1c 60 3f d8 fe 6c 3f e3 e3 7f 3f ba bd 75 3f
       0.87542945 0.9257636 0.999571 0.95992625
000050 e5 f1 7f 3f 85 e5 7f 3f cd 42 78 3f b9 00 79 3f
       0.99978477 0.99959594 0.9697693 0.9726673
000060 0e ba 7f 3f 2c c6 6d 3f c5 5e 6e 3f 96 0e 76 3f
       0.9989327 0.9288051 0.93113357 0.96116006
000070 c6 5f 69 3f 0e e3 7f 3f 43 3c 7c 3f bd e9 7f 3f
       0.91161764 0.9995583 0.9852945 0.9996603
000080 fc e6 7f 3f 80 7b 6d 3f 41 36 6d 3f 45 15 7e 3f
       0.9996183 0.9276657 0.9266091 0.99251205
000090 33 3f 7b 3f 63 ff 7f 3f 14 c2 70 3f e1 e1 7f 3f
       0.9814331 0.99999064 0.9404614 0.9995404
0000a0 81 5f 76 3f a1 9d 7f 3f 3a ad 71 3f 4b f0 78 3f
       0.9623948 0.998499 0.9440495 0.9724166
0000b0 3f dc 7f 3f 01 c6 6c 3f 21 9f 6b 3f 60 2e 7a 3f
       0.99945444 0.9248963 0.92039686 0.9772701
0000c0 2e ee 66 3f 4a a6 7f 3f 75 5b 74 3f 00 00 80 3f
       0.90207183 0.9986311 0.9545205 1.0
0000d0 75 e5 7d 3f a8 ef 7e 3f 1e ef 7f 3f ce 8f 6a 3f
       0.9917825 0.99584436 0.9997424 0.9162568
0000e0 14 01 6b 3f 33 ef 73 3f 8f c2 7f 3f ba b7 7f 3f
       0.9179852 0.95286864 0.9990625 0.9988972
0000f0 20 c2 7f 3f 4c cc 7a 3f ff 07 72 3f 7a ea 7f 3f
       0.99905586 0.9796798 0.9454345 0.9996716
000100 f9 63 78 3f 34 cd 7f 3f bf c6 6a 3f 9f eb 7f 3f
       0.97027546 0.9992249 0.9170951 0.99968904
000110 0c a4 7f 3f f5 78 7f 3f 77 89 77 3f 88 e3 75 3f
       0.9985969 0.9979394 0.9669413 0.9605031
000120 27 8d 78 3f ed 27 71 3f eb 6f 6f 3f 04 77 7a 3f
       0.9709038 0.94201547 0.9353015 0.97837853
000130 c6 38 75 3f 09 40 75 3f ba ec 7f 3f 89 b6 71 3f
       0.95789754 0.95800835 0.9997059 0.9441915
000140 78 5d 71 3f 62 89 6e 3f 43 f4 7a 3f c7 b6 71 3f
       0.94283247 0.9317838 0.98028964 0.9441952
000150 2e d6 6a 3f bf bc 7d 3f 99 8d 7d 3f a7 a1 7f 3f
       0.9173306 0.9911613 0.99044186 0.99856037
000160 ce e2 7f 3f 26 47 76 3f 19 66 69 3f c6 9b 68 3f
       0.9995545 0.96202314 0.91171414 0.9086269
000170 b3 d2 7f 3f 05 df 7f 3f f4 cc 7a 3f 33 cb 7f 3f
       0.99930876 0.99949676 0.97968984 0.9991943
000180 5d e3 7e 3f 14 bd 7f 3f 4d 6c 75 3f 97 8b 6f 3f
       0.9956568 0.99897885 0.9586838 0.9357237
000190 60 c4 6c 3f 3a 87 71 3f 08 b7 67 3f a7 e1 7f 3f
       0.92487144 0.94346964 0.9051366 0.99953693
0001a0 0f c6 7f 3f 1b c8 7f 3f 3f e0 7f 3f 03 6e 6e 3f
       0.9991159 0.9991471 0.9995155 0.93136615
0001b0 22 aa 7f 3f 9a f0 7f 3f ba 52 67 3f a5 50 6c 3f
       0.9986898 0.99976504 0.90360606 0.92310554
0001c0 50 7d 6d 3f f0 77 7f 3f e8 e1 7f 3f ba ee 7f 3f
       0.92769337 0.99792385 0.9995408 0.9997364
0001d0 b6 4a 66 3f 1e 7f 66 3f ab c8 7e 3f d6 4b 6b 3f
       0.8995775 0.90037715 0.99524945 0.9191259
0001e0 6e 6c 69 3f 9f e9 64 3f 6d f6 70 3f 43 bc 73 3f
       0.91181076 0.8941898 0.94126016 0.9520914
0001f0 e0 b7 6e 3f 6b e1 7f 3f c7 27 6c 3f 76 6a 7a 3f
       0.9324932 0.99953336 0.92248195 0.97818696
