Lab4/models/gan_models/ls_1000e_1250b_dis.pth (torch, 402522 bytes, 21 tensors)

model.0.weight f4 [16, 3, 3, 3]
00000000: 128b 1f3d 02b4 863b 11cc 2e3c d974 313d
00000010: 549b 83bc fdfe e4bb b25a 623d e319 003b
00000020: 54c7 503d 88ba c53a 8ca1 11bd 108d 52bb
00000030: aa00 1ebd ff8c 0fbd 6b7d c9bc e12a 88ba
00000040: c5a8 25bd 48e2 bbbc 4467 163d 176d dd3b
00000050: b8e9 42bd dc9d b63c 5eb7 ddbc c009 cb3b
00000060: 25cd 27bd 8fc4 233c 1fa2 6c3c d80b 063a
00000070: 5c24 613c 57ac c7bb 636d f73c f0a0 fd3a
00000080: 4e56 073b 1a61 c23c 8ee1 cc3a d32e 8ebc
00000090: cd02 e0bc 9922 063d 9486 2fbd 292f a63c
000000a0: 2b92 803c 42bb 513d aed2 08bc 947c 453b
000000b0: bf4e 1a3d d05b 58bd 8333 afbb 7c67 64bd
000000c0: da62 b23c 97d3 053c 5fd2 113c b2b2 5bbc
000000d0: d6a5 37bb 6884 a23c 25eb 04bc 91d6 7a3b
000000e0: 3648 46bd a2dd 95bc e87e 003d 5e37 203c
000000f0: cc7b 9a3b e283 9dbb 3300 50bc 4092 7139
00000100: 4f81 e6bc 9abe 86bc 424e 173d c73a 883c
00000110: a20c 18bc 7664 a33c 4d83 3e3d 144c 17b9
00000120: fcec 0a3d 04b6 debb 1579 b9bb 446d d5ba
00000130: e1ad 34bb 2b32 433c 2d92 29bd 0250 62bc
00000140: 643e e4bc 8855 cebc f6c5 92bc 4e1f 2ebd
00000150: 2fd8 253b 0e63 b3bb c974 04bd 5cbb 2abd
00000160: f1d4 22bd fafa b63c f7ae a33c d8d5 8d3d
00000170: a223 733d 3c81 903d 4720 243d e4be 5a3d
00000180: c727 503d f7dd 6f3d 7fd6 7b3d cd1d c8bc
00000190: 4d17 1ebd 8a19 913b 60e2 d4bc 1759 4abd
000001a0: fb1c e6bc 0725 c2bc 1186 54bd e21f 66bd
000001b0: e375 e4bc bd2e 8dbc abb1 98bc b244 14bc
000001c0: b0ac 83bc 8ece 113a ba32 69bc 9157 b63a
000001d0: 5c38 09bb a94d b23b 4d4b 8abc f6c1 063c
000001e0: e5f6 0d3c d9db bd3b e38a 5fba b6b1 db3b
000001f0: 6799 143d 4085 18bd 64f4 bd3c 6f42 36bc
00000200: bded 5f3d 62a6 ed3c 8c5c 083d 41e1 2b3d
00000210: 6b4f 49bd ad51 943a b6d9 17bb cd2f 92bc
00000220: a2e6 d6bb e666 f9bc fae4 ee3a 7027 f43b
00000230: 2cc9 7bbc 4872 033d f859 4d3d 3808 dd3c
00000240: 3404 b93c 4a90 51bc a4ee 99bc 3343 f53b
00000250: fcca 293b a680 ffbc eb1e 513c a9fe 90bb
00000260: bd14 4fbc 7843 c1bc 0ff8 813d c635 823c
00000270: a241 1e3c 6a46 7a3d b7db 153c 0c94 0d3d
00000280: cbdb b23c 76c7 a53c 6467 40bc 06cc c23c
00000290: d826 bbbb 39f6 99ba f094 903c f04c dfbc
000002a0: 6115 b9bc 574f cfbc 62ed 13bc 1745 4e3c
000002b0: edd9 583b 66fb 11bd 5738 3ebb 8f54 a03b
000002c0: 2485 a3bc ccc4 c0bb 1e82 9cbc 6ece 963c
000002d0: 87cf 10bd f8d5 9cbb 77ae b9bb 44b6 9dbc
000002e0: edcd 313a 2b20 5fbc 0f51 06bd 31f2 31bb
000002f0: cf93 2fbd d778 e23c 358b c73c ca7c 7c3c
00000300: c2d0 87bb 5a16 543b d56a e73b 8966 863c
00000310: 2dd7 a43c 4a2a f83c c900 1a3d 7148 94bc
00000320: 8f16 48bc 645b 01bd a468 7f3d 664e 7a3c
00000330: d562 7cb9 bbbc f23c e018 223d 7fc5 003b
00000340: c552 823b 22d9 6d3d 71ed cd3c ce08 493d
00000350: 2810 b63c 4016 8a3c f3a0 433d fef0 073d
00000360: ecd2 1dbc 57e4 28bd bc25 90bb be4a acbc
00000370: 4282 0c3c 5a06 733c bba7 ad3c 7d8f 6a3c
00000380: 4720 0e3d 659b 32bc 602b c73c af44 003d
00000390: baef d0ba b6a0 633c cd8f 663c 92ba cf3a
000003a0: 2c0a 213b 5ee8 fb3c a25b 763c 6348 923b
000003b0: 1123 7e3c 6933 4fbc 72e8 f8bb a163 cdbc
000003c0: 02e0 b43c ac10 01bc 6cbe 813b 1d1e d9bc
000003d0: bcda 943c 2854 fb3c 2173 44bc b217 c83c
000003e0: dad2 c43c d78e 47bc 2caa 1bbc 632d bbbc
000003f0: a6c9 bf3c 6832 3cba de94 46b9 d5cd 25ba
0.038950987 0.004110814 0.01066877 0.043324325 -0.016065277 -0.006988405 0.055262275 0.001954668
0.050971344 0.0015085498 -0.035554454 -0.0032127537 -0.038574852 -0.035046574 -0.024595937 -0.0010388755
-0.040444154 -0.022935048 0.036719576 0.0067573893 -0.047586173 0.02229207 -0.027064975 0.0061962306
-0.040967125 0.009995594 0.01444295 0.0005113459 0.013741579 -0.0060935426 0.030203527 0.0019350331
0.0020650807 0.023727942 0.0015631185 -0.017356312 -0.027345086 0.03274784 -0.042852953 0.02028616
0.015694698 0.051203974 -0.008351011 0.0030134069 0.037672754 -0.052821934 -0.005346717 -0.055762753
0.021775652 0.008168123 0.008900254 -0.0134093035 -0.002802243 0.019838527 -0.008112703 0.0038274864
-0.04840871 -0.01829416 0.031371027 0.009778826 0.004714465 -0.0048069814 -0.01269536 0.00023038033
-0.028137831 -0.016448308 0.036939867 0.01662959 -0.009280356 0.019945364 0.046511937 -0.00014428823
0.033917412 -0.0067966003 -0.005660186 -0.0016283174 -0.002756946 0.011913816 -0.04139917 -0.013813021
-0.027861781 -0.025187269 -0.01791666 -0.042510323 0.0025305857 -0.0054744547 -0.032337938 -0.041682586
-0.039753858 0.022336472 0.01998089 0.06925553 0.059360154 0.070558995 0.040069845 0.053404704
0.050819185 0.05856129 0.061483856 -0.024428273 -0.03859644 0.0044280933 -0.02598685 -0.04940137
-0.02808999 -0.023699297 -0.05188567 -0.05618275 -0.027888244 -0.0172342 -0.018639406 -0.009049581
-0.016073555 0.000556209 -0.014233286 0.0013911595 -0.0020938134 0.0054413867 -0.01688161 0.008224955
0.008664821 0.00579403 -0.00085274706 0.0067045344 0.03627911 -0.037236452 0.023187824 -0.011124237
0.054670084 0.029010002 0.033291385 0.041962866 -0.049148005 0.0011315845 -0.0023170537 -0.017845059
-0.0065582553 -0.030444574 0.0018226199 0.0074509904 -0.015367787 0.03209141 0.05013463 0.026981458
0.022585012 -0.012790749 -0.01879055 0.0074848174 0.0025908342 -0.031189274 0.012763719 -0.004424889
-0.012639222 -0.023591742 0.063461415 0.015894782 0.009659203 0.06110231 0.009146622 0.034565017
0.021833321 0.020236712 -0.0117434 0.023778927 -0.0057114176 -0.0011746354 0.017649144 -0.027258366
-0.022593202 -0.025306387 -0.009028764 0.0125897145 0.0033088878 -0.035640143 -0.002902528 0.0048928927
-0.019960947 -0.005882835 -0.019105013 0.01840898 -0.035354163 -0.0047862493 -0.00566655 -0.01925195
0.00067826995 -0.013618509 -0.032792147 -0.0027152414 -0.04286557 0.027645512 0.024358371 0.015410611
-0.004144759 0.0032361955 0.007062296 0.016406314 0.020122135 0.030293602 0.037598405 -0.018100949
-0.01221241 -0.031581298 0.062355652 0.015277481 -0.0002406941 0.02963101 0.039574504 0.0019648967
0.003977152 0.058068402 0.025137635 0.049080662 0.0222245 0.016856313 0.047760915 0.033188812
-0.009632807 -0.041233387 -0.0043990295 -0.021031734 0.008575978 0.014833057 0.021198144 0.014316437
0.03469875 -0.010901307 0.024312675 0.0313155 -0.0015940585 0.013893297 0.014072371 0.0015848449
0.0024572713 0.03075045 0.015036495 0.0044641956 0.01551129 -0.0126465345 -0.007596069 -0.02507192
0.022079471 -0.00787751 0.0039594676 -0.026503617 0.018170707 0.030679777 -0.0119903395 0.024425361
0.024026323 -0.012180052 -0.009501021 -0.02284879 0.023411583 -0.0007179142 -0.00018938209 -0.0006324922

model.0.bias f4 [16]
00000000: 0854 b6bd 2f55 453d 88df 0a3e e7d9 14be
00000010: d7e6 fabd e55c 2abe 9a5c 0dbe ba33 26be
00000020: 8fe2 983c 25af 9fbd 58fb 32bc 5fc7 dbbd
00000030: 0145 b43c 0c4f 973c e8f4 01be d65e 0cbc
-0.089027464 0.04817694 0.13561833 -0.14536248 -0.122510605 -0.16636999 -0.13804856 -0.1623067
0.018662719 -0.07797078 -0.010924183 -0.107313864 0.02200556 0.01847031 -0.1269108 -0.0085675325

model.2.weight f4 [32, 16, 3, 3]
00000000: 27e9 3d3b 04d4 243c 50f8 82bb 133f 13bd
00000010: 84dc acbc e542 13bd 0043 67bb 3f79 8ebc
00000020: 286b 6bbc ab83 e53c 9c21 4ebc 8f48 4d3c
00000030: 027b b7bb 056c 863c 286f 593c 25bb 56bd
00000040: da5b 41bb 5603 3fbd 0e86 f93c 4062 cbba
00000050: a101 8d3c ce6b 6b3c a593 c3bb 9a00 463c
00000060: 0494 cb39 fe6f 053c a92f 8abc 9b13 f53c
00000070: 9b2c 623c 6ae3 803d 7fb6 a7bb 2642 163d
00000080: cab5 5b39 94bf 07ba a5d7 113d 0e7b d4bb
00000090: a8a6 0abb 5078 8d3c cfef 993c 13fb 153c
000000a0: 5692 a2bc 8577 37bd 003f 05bc cc56 ceba
000000b0: 424c 22bd 6eac 073d 6c5b 03bd 1d6d d03b
000000c0: 7e73 43bb 1b28 ba3c 407d e23c bd8f 893c
000000d0: a2d1 8b3d b529 d83c 72df 57bc af60 683b
000000e0: 6e0a fc3b 2e18 27bd e1a9 38bd a9f8 9abb
000000f0: 670a 2cbd 8b57 f1bb 3bda 8bbc f0db 81bc
00000100: 29d0 8dbc c933 c7bc 4b86 083d f245 c8bb
00000110: 841d 103c faa1 383d fcdc 073d b709 c53c
00000120: fe6d 053d 9412 023d 88fe 063c 62ab ad3c
00000130: 48cb cd3c df50 00bd f8c6 4a3d c3de 913c
00000140: e62d 6e3c 2055 dbbc 24dc 1bbb 28c4 8c3c
00000150: 5be9 5fbb 973c 04bd 3ce7 463c 279e 093d
00000160: 9e9c 043d 69e9 023d 31a9 47bc 1f03 c0bc
00000170: 0d32 1d3c 9e1f 66bb 8f12 4d3c 0713 0ebc
00000180: 9950 fbbc 032d 153d 2290 83bb b4b5 b4bc
00000190: 70fc 1bbd 0365 203b 60a1 dc38 18fb 833c
000001a0: 9078 643c d655 30bd d409 0ebd 7d03 cbbc
000001b0: 7bb4 1c3c 97fb 083d d4dc 0abd b2b1 263d
000001c0: 0a18 08bd f47b b3bc c4c5 b23c 4679 56bc
000001d0: dc4c f63c 7ec9 df3a f0e2 99bd 3750 8b3b
000001e0: 1a0e a83b 7e79 febc 8b15 4fbd 0ce6 7bbc
000001f0: 09a8 71bc ce4c 00bd aec1 2dbc 7d70 db3c
00000200: 608d 5a3b b869 523c bc0a 1cbc 1b28 09bd
00000210: 31af b3bc e86e 8c3c c266 e3bb 46c1 a7bc
00000220: fd91 16bd fce4 00bd 3962 e23c 151b 99bd
00000230: 82ae c2bc 4bd1 153c 16b6 1abc a3e2 b2bc
00000240: bd45 b53c 59df 243d 340d 463a ba87 6d3b
00000250: 495b 1f3d 9c8f 0f3d 2468 85bc ba0b 133d
00000260: 371f 03bb 81d2 38bc 9c9c 68bc d2b1 aaba
00000270: be14 da3c 9736 a5bc 7017 db3a 0682 9bbd
00000280: c57f ba3b 4cce 8c3c 1753 07bb 0dc2 813c
00000290: 3889 f23c e1f6 c0bb 9430 70bc 802e edbc
000002a0: e25e 563c 1390 cbbc 0e14 77bc a2c5 033d
000002b0: 823a 6c3d d1aa 503d 67b4 073c 51f2 233d
000002c0: c525 253d a6e1 1b3b 9fae 08bc fcce 823b
000002d0: 9106 c53c b1b9 a3bb 4af9 253c 54b4 62bc
000002e0: 847d a9bc 6b67 a0bb bc04 1639 a5da f9bc
000002f0: b5f7 f0bc 6f93 91bc bbaa 41bd 9b47 1cbd
00000300: 8cea 043c 2630 99bd 76d9 17bd a668 2e3c
00000310: 2728 31bd 79cb 753c 9a6c 76bc d856 22bc
00000320: 85da 993c 6183 7d3d 0b76 973c 2040 16bb
00000330: 631c 50bc 563c 413c 120b 5ebc f403 213c
00000340: 1e6b a13c 59f1 f43c dbf8 7cbc 5424 49bc
00000350: 72e8 0a3d dae5 8bbc 2a3b b6bc 0d81 5eba
00000360: 83b5 80bc 46cb 993c 7db2 493c e526 83bc
00000370: f5ae b6bb 538b 183d c6cf 90bc 55d1 39bc
00000380: de6c 4fbc 112c 85bb 0566 d5bc 951a 8ebb
00000390: 8fc8 22bc c7f0 c6bc 45a2 cf3b 9ecf 423c
000003a0: e426 c0bb df97 adbb c737 1f3c 365e bb3c
000003b0: 659f 04bc f6fc 513d c06e 163c 1c98 b4bc
000003c0: e6de 6a3c 8024 9ebc d6fe 65bb 3645 4cbd
000003d0: e8de 62b8 9a38 f2ba b16f 8abd 1227 823b
000003e0: 28ec 183b a8ca c7bb 727a 6ebc a6b7 073a
000003f0: 5b54 533c f636 bebb d4b6 a6bc 864c 21bb
0.002897808 0.010060314 -0.0039968863 -0.035948824 -0.021101244 -0.035952467 -0.0035287738 -0.017391799
-0.01436881 0.028016886 -0.012581255 0.012529506 -0.0055993805 0.01640893 0.013271131 -0.05242457
-0.002950421 -0.04663404 0.03045943 -0.0015516952 0.01721269 0.014368964 -0.0059685283 0.012085104
0.00038829457 0.008144377 -0.01686843 0.029916575 0.01380458 0.06293376 -0.005118191 0.036684178
0.00020953189 -0.00051783887 0.035606045 -0.006484396 -0.0021156464 0.017269284 0.018791107 0.009154099
-0.019845169 -0.044791717 -0.008132696 -0.001574242 -0.039623506 0.033123426 -0.03206961 0.0063606636
-0.0029823477 0.022724202 0.027647614 0.016792173 0.06827094 0.026387075 -0.013175832 0.0035458019
0.007691673 -0.040794544 -0.045083884 -0.0047293496 -0.042002108 -0.0073651723 -0.017071834 -0.015851945
-0.017311173 -0.024316685 0.033331197 -0.0061118538 0.0087961 0.045076348 0.03316973 0.024052484
0.0325756 0.031756 0.008239396 0.021199886 0.025121346 -0.031327125 0.049506158 0.017806416
0.01453731 -0.02677399 -0.0023782337 0.017183378 -0.003416619 -0.032284345 0.0121400915 0.03359809
0.032375924 0.03196088 -0.0121863345 -0.023438988 0.009594453 -0.003511406 0.012516632 -0.008671529
-0.03067808 0.03641988 -0.0040149847 -0.022059299 -0.03808254 0.002447427 0.00010520476 0.016110942
0.01394476 -0.04305061 -0.03467734 -0.024781937 0.009564514 0.03344306 -0.033902004 0.040696807
-0.03322605 -0.021909691 0.021822818 -0.013090437 0.030065946 0.0017073599 -0.07513988 0.0042515057
0.005128634 -0.031063791 -0.050557654 -0.015374672 -0.014749535 -0.031323247 -0.010605259 0.026787037
0.0033348426 0.012842588 -0.009524044 -0.033485513 -0.021934124 0.017142728 -0.00693974 -0.020477902
-0.03676032 -0.031468377 0.027634727 -0.074758686 -0.023764852 0.009144138 -0.009442827 -0.021836584
0.02212798 0.040252063 0.0007555068 0.003624423 0.038905416 0.035049066 -0.01628501 0.035899855
-0.002000762 -0.011280657 -0.014197495 -0.0013022965 0.026621219 -0.020167632 0.0016715359 -0.075931594
0.005691501 0.017188214 -0.002064889 0.015839601 0.029606447 -0.0058888053 -0.014660019 -0.028952837
0.013084145 -0.024848973 -0.015080465 0.0321709 0.057672985 0.050944153 0.008282757 0.040026013
0.040319223 0.002378562 -0.008342414 0.0039919596 0.024050983 -0.0049965014 0.010130236 -0.013836939
-0.020689733 -0.004895141 0.00014306878 -0.030499766 -0.02941499 -0.017770497 -0.047281962 -0.038154226
0.008112561 -0.07479887 -0.03707262 0.010645067 -0.043251183 0.015002125 -0.015040541 -0.0099084005
0.018780956 0.06189287 0.018488904 -0.0022926405 -0.01270208 0.01179417 -0.013552444 0.009827603
0.019704398 0.02990024 -0.015440191 -0.012276728 0.033913083 -0.017077375 -0.022245008 -0.0008487858
-0.015711552 0.018773686 0.012310621 -0.016009757 -0.0055750557 0.037242245 -0.0176772 -0.011341413
-0.012660233 -0.004064091 -0.026049623 -0.004336665 -0.009935512 -0.024284733 0.0063364827 0.01189032
-0.005864011 -0.0052976455 0.009717888 0.022872072 -0.008094643 0.051266633 0.009181678 -0.022045188
0.01433537 -0.019304514 -0.003509452 -0.049870692 -5.4090196e-05 -0.0018480003 -0.06759585 0.0039719427
0.002333412 -0.0060971566 -0.01455556 0.0005177207 0.01289853 -0.0058048917 -0.020350851 -0.0024612262

model.2.bias f4 [32]
00000000: 68ce 3ebd c378 37bd beda 76bd 4258 91bc
00000010: 4570 25bd 4339 f1bc c85b 20bd 30ad d13d
00000020: 7056 1cbd 5e23 e83b d873 983d dd48 0dbd
00000030: 8643 ef3b b81f e4bc 3d1e 7d3d 3dd9 0fbd
00000040: aef5 c13d ede6 6cbd f51b 7b3d ebf0 f13d
00000050: 259d 42bc 41f6 003d 91ad 9dbd 1d0c 21bd
00000060: 018c 31bd 08dd 5c3d 2a1d bf3d 0c80 12bd
00000070: 6373 223b 3069 723c 811b cebb e7e3 6fbd
-0.046583563 -0.0447929 -0.060267203 -0.01774228 -0.04039027 -0.02944625 -0.03915003 0.10238111
-0.03816837 0.007084294 0.074439704 -0.034493316 0.0073017506 -0.027847156 0.061796416 -0.035119284
0.09470688 -0.057837415 0.06130596 0.118135296 -0.0118782865 0.031484846 -0.07699121 -0.039318193
-0.04334641 0.05392173 0.093317345 -0.035766646 0.0024788014 0.0147955865 -0.0062899 -0.058566954

model.4.weight f4 [32]
00000000: 8e52 7c3f 2d0e 7e3f 224a 743f b8ef 773f
00000010: 2191 7e3f 6a77 7f3f d258 7f3f 20b6 7c3f
00000020: 1920 7f3f a5d9 7d3f 544d 7e3f 86e3 7f3f
00000030: 9a32 7d3f 04f4 7b3f 1883 7a3f 68b7 793f
00000040: 3fb6 793f 0483 6f3f 30f0 7b3f c63d 7e3f
00000050: f3ef 7c3f d3ae 7f3f b198 773f a15c 7e3f
00000060: fb69 773f 3d26 7d3f 2b6d 7d3f 147c 7b3f
00000070: 5e8a 7c3f f52a 7a3f 15c8 783f 6f14 7b3f
0.9856347 0.9924038 0.9542562 0.96850157 0.994402 0.99791586 0.99744904 0.987154
0.9965835 0.99160224 0.99336743 0.9995655 0.98905337 0.98419213 0.97856283 0.9754548
0.9754371 0.9355929 0.9841337 0.9931301 0.98803633 0.99876136 0.96717364 0.9936009
0.9664609 0.9888647 0.989947 0.98236203 0.9864863 0.977218 0.971803 0.98078054

model.4.bias f4 [32]
00000000: b089 533b 6df1 b1bc b873 d83b 2af8 3d3c
00000010: 5a68 5f3c 39a5 c53b 7e99 a9bc e29a f63c
00000020: 0b3a 62bc eef0 82bc 60ed 1cbd bdbe 3abd
00000030: 18e4 35ba 4722 e13b 0dd0 343d 806e cebc
00000040: 04f9 8b3c e2f0 d0b9 34fa 583c f06f 21bd
00000050: a3a3 e2bb 8401 2cbc 017a 033d b366 8e3b
00000060: e815 093c f10d dfbb 3b3b b53c a97b a6bc
00000070: b401 ae3c 0fdb fe3c 53f4 f0bb 9c0d 8a3b
0.0032278113 -0.021721566 0.0066055916 0.011594811 0.013635719 0.006031659 -0.020703074 0.03010315
-0.013807784 -0.015984025 -0.038312316 -0.04559206 -0.00069385907 0.0068705413 0.044143725 -0.025199175
0.017086513 -0.00039852323 0.013243247 -0.039413393 -0.0069164797 -0.010498408 0.032098774 0.004345739
0.008367039 -0.006807082 0.02212297 -0.020322638 0.021241046 0.031110315 -0.0073533445 0.004213048

model.4.running_mean f4 [32]
00000000: c76f 4cbc ef0f 6dbc dff3 a8bc 9890 21bb
00000010: 9106 0cbc 44ab 1abc b761 28bc 70f1 053e
00000020: 99d8 1fbc cdb9 01bc cf6e ab3d 3042 02bc
00000030: 656a 53bc 10d7 82bc 5e0f a23d c204 8dbc
00000040: 9f62 c63d 4b78 1ebc f664 b93d 6c73 eb3d
00000050: 3e5d 43bc e7a1 69bb 48c0 9ebc b9b8 4cbc
00000060: 981b 82bc dab1 7e3d bbc2 a73d dff5 b7bc
00000070: b87e 8a3c 39bf fcbb 77b3 d53a e675 e7bc
-0.012477822 -0.014469131 -0.0206241 -0.0024652835 -0.008546487 -0.009440247 -0.010277203 0.13080382
-0.009756231 -0.0079178335 0.083707444 -0.007950351 -0.012903784 -0.01597169 0.07913087 -0.017214183
0.09686779 -0.009672235 0.0905246 0.11496624 -0.011924086 -0.003564948 -0.019378796 -0.012495213
-0.015882298 0.06218133 0.08191439 -0.022456108 0.016906127 -0.007713225 0.0016304095 -0.02825446

model.4.running_var f4 [32]
00000000: 3fd3 e738 30f2 f137 49c5 e537 5fb4 f138
00000010: 7b18 9e38 ddc8 5738 7e7e 8a38 c9b5 d139
00000020: 4243 d738 4474 b238 aaa8 f338 8322 4438
00000030: ff35 8a39 712f 8639 f0c8 a939 a0d0 9c38
00000040: 13fa db38 04cd 9438 a705 a139 e1d5 9239
00000050: fafb 0939 dc84 6538 32eb 4138 bb15 6938
00000060: 550c 2739 2e6b b438 d1fb cc39 8660 e438
00000070: 0577 b838 4461 0838 e940 ad38 af2c a637
0.00011054286 2.8842216e-05 2.7390795e-05 0.00011525372 7.538587e-05 5.1447063e-05 6.603914e-05 0.00039999027
0.00010264527 8.5093576e-05 0.00011618559 4.6762183e-05 0.0002636164 0.00025593818 0.00032383902 7.477519e-05
0.00010489314 7.095377e-05 0.00030712524 0.00028006642 0.00013159207 5.472159e-05 4.623383e-05 5.5571767e-05
0.00015930955 8.6030326e-05 0.0003909753 0.00010889866 8.795973e-05 3.2515512e-05 8.261373e-05 1.980955e-05

model.5.weight f4 [64, 32, 3, 3]
00000000: a2bb 93bb abc0 7abc b17e c7bb 838c f4bc
00000010: 02c3 f4bc 3618 cfbc 429d 2fbd 016e 15bc
00000020: 6590 7d3c 1d49 363d ac35 493b 46f9 d33c
00000030: 263e 5f3d 54e4 b53a 316c 383d 1585 963b
00000040: d199 e0bc 3451 85b9 f139 65bb d78d 51bc
00000050: 893f a3bb 3181 2b3b 5afe e6bc 65b7 843c
00000060: 2164 aabc 96c7 1e3b 35e5 2d3d 7b1e 0abd
00000070: f9bf 773b d4da 59bc 6ea3 11bc 790d e53c
00000080: 2e76 233c 1264 393c fca2 fbbc 4c48 a03c
00000090: 33de 313d ffee 04bc 0039 163d eef7 453d
000000a0: 41be c9bc 807a 283b 9b41 933d 9ee1 12bc
000000b0: 10b1 833b f6cb 0a3c 02d0 4f3c b1e7 69bc
000000c0: 6c90 26bc f67e 8d3c fa09 0ebd 1dee 0d3c
000000d0: 78ef 8abb 25dd 693c b808 f33c d24e b3bb
000000e0: 7dad 5b3d 46e7 70bd 6272 1d3d 5c49 a73c
000000f0: 0007 803c ea9d 32bb dac8 153a a4eb 103d
00000100: f24a 423d b2e1 693c 2754 be3c 09f8 643d
00000110: c8cf e03c cd6a ef3c e24b 3e3d a1b5 8fbc
00000120: f546 b3bb 7f20 44bd be76 20bc 970b 9abb
00000130: de51 6fbc 6802 f6bc 1adf 9e3c be83 c2bc
00000140: 3ffe 3ebc 5cac 47bc 0d55 243b b19d c1bb
00000150: 770d 50bc 82ad b3bc 5b15 babc bc7e ecba
00000160: 4af7 2d3c 72ba bcbc 1e80 a5bc 5e0d 883b
00000170: a0b8 b53b f5be a0bc ed5d 15bd 5052 81bc
00000180: 4009 8dbb f8ad eabc d5f6 ffbc a740 303d
00000190: 520d 50bc 8c1f 6a3d 25d2 c03c 41f6 90bd
000001a0: b442 c63c 97cd babc 843f 0abd 7e04 a93c
000001b0: 9fae 8d3c ea3f bdbc ed97 24bc 06b1 3bbc
000001c0: c87a 3fbc ee02 91bb e78b 603b af3f 73bb
000001d0: 90ca f1bc 6da3 c13c 0129 023d 2bd0 cdbc
000001e0: 423c 053c 5295 963c 9857 02bd 110d 023d
000001f0: ddbf a0bb e940 00bd b4aa fb3c b6f6 883b
00000200: 0079 e7bc b4df 8b3b 8202 033d 1cac 393d
00000210: 7c0b be3c e88f af3c fd0e e2ba 55e3 a33c
00000220: e5f8 ed3a b0a4 0ebd 83dc 1cbd 1095 7f3b
00000230: 3d2d 383c 792e 3b3d aa3d 6ebc 1d03 0cbd
00000240: c837 803c 59d0 b33a b1f7 9fbc 2421 433d
00000250: eaa3 1a3c 227d a23b 5a4d 0cbd e903 c1bc
00000260: 5098 443c 0cd0 ed3c 3dab 08bd fed3 abb9
00000270: bf30 f23b 20e7 813c d672 8a3c bc3b 2bbd
00000280: 3afc b9bc b692 2bbd 22c4 2d3d bdf1 3fbc
00000290: b201 abbc 3897 acb7 3057 9abc 4a4f 733d
000002a0: d2f3 d53b de8e 443c f48c 103d 6cd9 02b9
000002b0: 536c dfbc 130d b1bb 63d5 94bc 3dd4 703b
000002c0: 78f7 a6bc 02d5 eebc 07de bcbc 8934 083d
000002d0: d7cf 86bc 2d6a b93b b86f a2ba 6dd9 c23c
000002e0: 7fd7 3f3d ee15 92bc 0c38 ad3b 92e1 89bb
000002f0: 37fd e73b 5e6b b73d 508a c9bc 7bc6 3f3d
00000300: 8d9c 863c f8f5 623b df38 023a 4984 913c
00000310: 9bc8 83bc ef71 d6bc a207 8f3c cdb6 593d
00000320: a90a 5d3d c013 1d3c cb11 c5bb 6b08 733c
00000330: 35ff 683c 7c96 e3bb 02e0 7cb9 0da9 943c
00000340: 7632 b9b9 c341 2abc 3725 8bbc 3143 13bd
00000350: 25bb 09bd b9fc b33c b971 093c 4b73 d0bd
00000360: a771 3d3d f35e f13c 0c1c 4cbd 4cff 80bc
00000370: dcd0 973b 47f4 3abc 4fcc 45bc 231b 56bc
00000380: ea53 c8bc cec0 2dbb eb50 123d c6ba ab3c
00000390: c30c a4bb c053 653c 59c0 26bc d0a2 6c3b
000003a0: f78a adbb 167d 28bc d4b3 2dbd 73b5 73bc
000003b0: 20f3 1f39 79af 99bc c000 ee3c 05aa aebc
000003c0: dfd9 923c 7cc3 ee3c 81f9 65bd 020a a2bc
000003d0: 8eb2 053c 337f 7cbc 3b08 f33b 9b12 93bc
000003e0: 426c 72bc 08f0 5dbc ab65 973c e541 71bd
000003f0: 1bc4 b83c b7cf 223d 69a3 d23c b533 d8bc
-0.0045084516 -0.015304725 -0.006088101 -0.029852157 -0.029878143 -0.0252801 -0.042874582 -0.009120465
0.015476321 0.04450332 0.0030702157 0.025875699 0.05450263 0.0013877251 0.045025054 0.0045935013
-0.027417095 -0.00025428238 -0.0034977163 -0.012790165 -0.004981939 0.0026169533 -0.028197456 0.01620073
-0.020799698 0.002422785 0.042454917 -0.033720475 0.0037803634 -0.013296802 -0.008889062 0.027960526
0.009976907 0.0113153625 -0.030717365 0.019565724 0.043424796 -0.008113622 0.036675453 0.048332147
-0.024626853 0.0025707781 0.071902476 -0.008964924 0.00401891 0.00847148 0.01268387 -0.014276431
-0.010166269 0.017272454 -0.034677483 0.008662728 -0.0042399727 0.014273916 0.029667243 -0.0054720426
0.05363225 -0.05881431 0.038439162 0.020420723 0.015628338 -0.0027254769 0.0005713828 0.035380974
0.047434755 0.014275001 0.023233486 0.055900607 0.027442828 0.029225731 0.046459086 -0.017542662
-0.005471105 -0.047882553 -0.009793935 -0.0047010886 -0.014606921 -0.030030444 0.019393492 -0.02374446
-0.011657297 -0.01218709 0.0025075108 -0.005908691 -0.012698523 -0.02193332 -0.022715261 -0.0018043141
0.01061804 -0.023038123 -0.020202693 0.004151984 0.0055456907 -0.019622305 -0.036466528 -0.01578632
-0.004304081 -0.028647408 -0.031245628 0.043030407 -0.012698488 0.05715899 0.023537705 -0.07078219
0.024201728 -0.022803111 -0.03375198 0.020632025 0.01729518 -0.023101766 -0.010045988 -0.01145578
-0.011686988 -0.004425398 0.0034263076 -0.0037116816 -0.029515535 0.023637498 0.031777386 -0.025123676
0.008132042 0.018381748 -0.031821817 0.031750742 -0.0049056844 -0.031311903 0.030721046 0.004179801
-0.02825594 0.004268611 0.031984814 0.045330152 0.023198836 0.021430925 -0.0017246898 0.020005861
0.0018155841 -0.034825027 -0.038296234 0.003899876 0.011241254 0.045698617 -0.014541069 -0.034182657
0.015651599 0.0013718709 -0.019527288 0.047639027 0.009438494 0.0049587646 -0.034253456 -0.023561435
0.011999205 0.029029869 -0.03336643 -0.00032773608 0.007391065 0.01585728 0.016900461 -0.041805014
-0.022703279 -0.04188796 0.042423375 -0.01171535 -0.020874832 -2.0574415e-05 -0.018840402 0.059401788
0.00652931 0.011996953 0.035290673 -0.00012478762 -0.027273333 -0.00540317 -0.018168157 0.0036747598
-0.020381674 -0.029154304 -0.02305509 0.033253226 -0.016456528 0.005658409 -0.0012392914 0.023785317
0.046836372 -0.017832723 0.0052862223 -0.0042077983 0.007079746 0.089560255 -0.024602085 0.046820145
0.016432071 0.0034631472 0.0004967581 0.017763274 -0.016086867 -0.026177375 0.017459694 0.053152848
0.053965244 0.009587228 -0.006014084 0.01483355 0.014221002 -0.0069454294 -0.00024116042 0.018147016
-0.00035323546 -0.010391655 -0.016985519 -0.03595275 -0.03362574 0.021971093 0.00838893 -0.101782404
0.046250965 0.02946422 -0.049831435 -0.015746735 0.0046330523 -0.011410779 -0.012072637 -0.013067993
-0.024454076 -0.0026512626 0.0357217 0.020963084 -0.005006404 0.013997018 -0.010177695 0.0036107786
-0.005296107 -0.010283729 -0.042407826 -0.014874804 0.00015253993 -0.01876043 0.029053092 -0.021321306
0.017926155 0.029145949 -0.05614615 -0.019780163 0.008160247 -0.015411186 0.0074167526 -0.017953208
-0.0147963185 -0.013545997 0.018481096 -0.058900733 0.022554448 0.039748874 0.025712686 -0.026391843

model.5.bias f4 [64]
00000000: 1659 063d dd07 3bbd 0375 ebbc 10f6 483d
00000010: 4d53 d2bc ebbd 0d3d 63e6 22bd fad6 f0bd
00000020: ffb4 26bd bed0 9fbd cbae e4bb 11fc 72bc
00000030: ea77 74bc f70f 023c 7228 043d b699 0f3d
00000040: b8b1 9bbd af13 13bd 11af e23c 8f8a 803c
00000050: ecb8 913a f557 c33b c15a b9bd f0cb 153c
00000060: 3d63 89bd aa6c e1bc d44a 84bd f503 8c3c
00000070: e77a 90ba 4804 f539 af43 4cbd 519a 39bd
00000080: 88c6 473d f74e 3cbd 3feb f5bc 90c1 4a3c
00000090: b602 4fbd 37e7 d3bd 4d29 17bd 47a8 8e3d
000000a0: 6829 92bd e3fa 683d 6972 a5bd 923c 2bbd
000000b0: 2f40 c63c 7ebf 6bbd 7dc5 d5bd 1656 7fbd
000000c0: c9d3 283d fe49 90bd c97d 083c 7899 76bd
000000d0: 9161 4f3d 5057 02bd 1975 86bd 700b febc
000000e0: b846 e23c b18c 73bd 8afc 963d 87b6 57bd
000000f0: 83fb 20bd 5987 c1bc 736d 82bc 4bbf 8c3d
0.032799803 -0.045661796 -0.028742319 0.04906279 -0.025674487 0.034604948 -0.039770495 -0.117597535
-0.040699955 -0.07803486 -0.0069788448 -0.014830605 -0.014921168 0.007938377 0.032265134 0.0350587
-0.076022565 -0.035907444 0.027671369 0.01569107 0.0011117733 0.005961413 -0.09050513 0.009142861
-0.06708381 -0.027517635 -0.06459585 0.01709173 -0.0011022956 0.0004673323 -0.049869236 -0.045313183
0.04877332 -0.045973744 -0.0300194 0.01237525 -0.050539695 -0.10346835 -0.036904622 0.0696569
-0.07136804 0.05687989 -0.08078463 -0.04180581 0.024200527 -0.057555668 -0.104380585 -0.062337957
0.0412176 -0.07045363 0.008330771 -0.060204953 0.050630156 -0.03182155 -0.06565303 -0.031011313
0.027621612 -0.059460346 0.07372387 -0.052664306 -0.03930236 -0.02362411 -0.01592133 0.06872424

model.7.weight f4 [64]
00000000: 554c 793f c1a5 7c3f eeaa 7b3f d350 7d3f
00000010: 0000 803f 4dfd 7c3f cd94 7e3f 3930 7e3f
00000020: d27d 7f3f 1130 7e3f 2b28 7e3f 8206 7b3f
00000030: 6386 7f3f d69f 773f 5563 773f cee1 763f
00000040: fa3b 7d3f 5700 7a3f a4c3 7c3f cfa5 7b3f
00000050: e3e0 7e3f 43b7 763f 60d1 7f3f dc7e 7a3f
00000060: 4dc2 763f 75fc 7d3f a630 7a3f 768d 773f
00000070: 1a84 7a3f 2c2b 7a3f a9ed 7d3f 0098 7b3f
00000080: bf83 7e3f 6c86 7f3f d852 7d3f f4a3 7c3f
00000090: cc76 7f3f 2856 7a3f d656 7f3f 8bd3 763f
000000a0: 210b 7c3f 0b17 793f 6275 783f d558 7b3f
000000b0: b686 7e3f c200 7f3f 53ae 7e3f a8c2 7d3f
000000c0: 64e0 7c3f 71e4 7a3f a53d 7c3f c302 7f3f
000000d0: bd76 7f3f 74ed 7c3f 0000 803f fe3e 783f
000000e0: 428f 7e3f 693c 7d3f 2433 7f3f a1f4 7d3f
000000f0: 2159 7c3f e269 7c3f 9450 7c3f 2aa0 7b3f
0.973821 0.9869042 0.98307693 0.9895145 1.0 0.98824006 0.994458 0.9929233
0.9980136 0.99292094 0.9928004 0.98056805 0.9981443 0.96728265 0.96635944 0.964383
0.9891964 0.9765677 0.98736024 0.9829988 0.995619 0.96373385 0.99928856 0.9784982
0.9639023 0.99213344 0.9773048 0.9670023 0.9785782 0.97722125 0.99190766 0.9827881
0.9941978 0.99814487 0.98954535 0.9868767 0.99790645 0.97787714 0.99741876 0.9641654
0.9845448 0.97300786 0.9705411 0.9818242 0.994243 0.9961053 0.9948475 0.99125147
0.9877989 0.98004824 0.9853156 0.9961359 0.99790555 0.98799825 1.0 0.9697112
0.99437344 0.98920304 0.9968741 0.992014 0.985735 0.98599064 0.9856045 0.98291266

model.7.bias f4 [64]
00000000: d816 3f3c 2877 f5bc 3642 7c3b 3c7b 8ebc
00000010: b3d2 45bd 468c 2fbb c079 b63c fbdc a9bc
00000020: fa7f 39bc 71f0 8f3c 16eb 87bc caa0 68bd
00000030: 75f3 8fbc 5aba e4bc 3331 edbc 117f a03c
00000040: 85e8 d6bc 6c79 d6bc f7ae f03c 141b 903b
00000050: 9551 e0bc b7d3 f53c 4c5e 463b 7808 8b3c
00000060: d328 4cbc 4270 493b c2d2 2f3b cbe2 9a3b
00000070: 1ac1 febb 77fc 6cbc b62a 153c 58ef b2bc
00000080: eaf4 44bc aa02 d5bc 4222 4ebd c08b e8bc
00000090: 0c0f b9bb bd11 9bbb 2082 653c f5b4 fd3c
000000a0: 5b8f 313c 598d 3f3d 4e97 5bbc c021 833c
000000b0: c3a6 60bd daa2 e33b 0d7f 0c3c 5013 07bc
000000c0: 1fd9 0dbb 21cc a2bc 9a79 b9bb 63b1 07bd
000000d0: 66cc 293c f19f 31bc b8b7 4bbd 20aa ca3c
000000e0: b454 ec3c b921 2abd 3f19 b53c 2f88 493b
000000f0: 8484 3d3c 2cde afbb 649c 663c e9c2 2c3d
0.011663161 -0.029964045 0.0038491613 -0.017392747 -0.04829664 -0.002678649 0.022274852 -0.020735255
-0.011322016 0.017570706 -0.01659159 -0.056793965 -0.017572144 -0.02792089 -0.028954124 0.01959184
-0.02623392 -0.026180945 0.029380305 0.004397759 -0.027382651 0.03000818 0.0030268608 0.016971812
-0.012460905 0.0030737077 0.0026828502 0.004726743 -0.0077744843 -0.014464489 0.009104421 -0.021842644
-0.012021283 -0.026002247 -0.05032564 -0.02838695 -0.0056475457 -0.004732339 0.014008075 0.030970076
0.010837401 0.04676566 -0.013402773 0.016007304 -0.054846536 0.0069469037 0.008575213 -0.008244351
-0.0021644307 -0.019872727 -0.005660248 -0.033128154 0.010363674 -0.010841356 -0.049735755 0.024739325
0.028848983 -0.041536067 0.022106765 0.0030751338 0.011567239 -0.005367061 0.014075372 0.04217807

model.7.running_mean f4 [64]
00000000: fae3 543e 5e28 1d3d b575 163e c7b9 6a3e
00000010: 1cfe 163e c17b 5f3e 87fc ce3d bb12 e93c
00000020: 3e9e df3d 4302 c93d 0e58 053e 98cf 5b3e
00000030: 2270 233e c1b4 543e 0cd1 0e3e 8bd2 173e
00000040: 97cb 433e 85ad 283e 8a02 143e 4cc2 f53d
00000050: 2cbd 393e 7959 ea3d e6f8 a23d 8ebe 0e3e
00000060: 664d 113e bf61 f23d c071 233d 8586 923e
00000070: fb89 5a3e e802 103e 492a e43d 5c26 373e
00000080: 6fcb 843e 09c9 883d 9ef8 a83d 218c 2a3e
00000090: 2ba4 273e 87b1 b13d d4d1 b33d e4a9 583e
000000a0: d23a 9c3d 4669 963e 9e03 563d 5221 883e
000000b0: cf9c 313e 8721 7c3d 6ed3 c23d 16ea 3d3e
000000c0: 8eee d23d 67db 8a3e cfd0 333e 0ce8 8f3d
000000d0: 0e1a 8b3e d21e 9f3d 856b 593d d4e7 523e
000000e0: eaec 383e d8f6 5d3e 60d1 5a3e 13b4 553d
000000f0: 6ab6 3a3e 9337 d23d b355 2c3e 8cf2 923e
0.20790091 0.038368575 0.14693339 0.22922431 0.14745373 0.21824552 0.101067595 0.028451314
0.10918854 0.098148845 0.13021871 0.2146591 0.15960744 0.20772077 0.13946933 0.1482641
0.19120632 0.16472442 0.14454094 0.1199995 0.1813857 0.11442847 0.0795763 0.13939878
0.14189681 0.1183505 0.039903402 0.28618255 0.21341698 0.14063609 0.11140878 0.17885727
0.25936458 0.066789694 0.08250545 0.16655017 0.16371219 0.08676439 0.08780256 0.21158558
0.076284066 0.29377192 0.052249543 0.2658792 0.17344974 0.06155541 0.09512983 0.18546328
0.10299407 0.27120516 0.17560123 0.07026681 0.27168316 0.077695504 0.053081054 0.20596248
0.18059126 0.21676195 0.21368933 0.052173685 0.18233648 0.10264506 0.16829567 0.28700674

model.7.running_var f4 [64]
00000000: 941e 023e 352a ed3d 1d82 3b3e 9486 2b3e
00000010: 1433 1f3f 07e4 003e be88 dd3d f7d3 383e
00000020: 2be5 c03e da96 353e 59de 623d ed6a 863e
00000030: aa08 d13e 45f2 e83d ca85 8e3e 9ea4 253e
00000040: 1176 953e ca02 6e3e 77c0 073e 11b8 393e
00000050: 35b1 253f fb20 913d f5f2 fd3d 5005 ed3d
00000060: 516d 263e 7516 7c3e 2236 0e3e 5bfd 1d3e
00000070: 3c9c d33d bdf5 3e3e 88b3 193e d046 1b3f
00000080: bc69 3e3e bc9a ae3e a11f 4e3e e2f9 293e
00000090: 6421 b63e 0ca6 853e 2547 953e 586c 103e
000000a0: f146 633e 2d95 ff3d 1d1d 063e 4717 5b3e
000000b0: 9bd9 0c3f fb20 b43e 8f32 cb3e 5ff2 813e
000000c0: 38a6 213e c1c4 343f 0d87 a83e 1c08 713e
000000d0: 716b e13e e760 3c3e 1171 353e b456 e73e
000000e0: ff31 fd3d 8080 ea3e 6b59 053e 6bd6 0a3e
000000f0: d0ec f03d 5f02 9d3d c1b6 8b3e eeaf 933d
0.12706977 0.11580316 0.18311353 0.16750556 0.62187314 0.12586986 0.10817097 0.18049608
0.3767484 0.17733327 0.05538783 0.26253453 0.40826923 0.11374334 0.27836448 0.16176078
0.2919164 0.23243251 0.13257013 0.18136622 0.6472352 0.07086369 0.12399856 0.11573279
0.16252638 0.24617942 0.13887838 0.15428679 0.10332534 0.18648429 0.15009892 0.60654926
0.18595022 0.34102428 0.20129253 0.16599229 0.3557235 0.26103246 0.2915584 0.1410383
0.22195031 0.12479625 0.13097043 0.21395598 0.5501954 0.35181412 0.3968701 0.25380227
0.15786064 0.7061272 0.32915536 0.2353825 0.44027284 0.1839634 0.17718913 0.45183337
0.123630516 0.45801163 0.13022391 0.13558356 0.117639184 0.07666468 0.27287868 0.0721129

model.8.weight f4 [128, 64, 3, 3]
00000000: 1849 02bc 7e46 df3c d816 0ebd 7757 593c
00000010: 2cfa b2bb 66c8 68bc a126 c7bc a831 e0bc
00000020: cb28 bbbc 4fd9 403b 9083 e13a 49d0 09bd
00000030: 2cdc eebc faed 5abd f882 05bc 728d c0bc
00000040: 3adf 18bd 0568 8aba 0f83 1f3d d37a 3a3d
00000050: 3fd2 403d 5abd bdba acb7 b43b b83c 21bd
00000060: 3a32 89bd e0c6 f1bc 7903 633c d270 403d
00000070: f12c 803d bfb0 88bc a11c 85bd ebd7 5cbc
00000080: 1820 803b 563a 66bd 080b e0bc 526a 0b3d
00000090: 3b1a 56bc f1b2 993c ebff 63bc 7dfb 5cbc
000000a0: 8992 adbc 1c72 0ebd d85c b13b b462 6eba
000000b0: c590 723c 5144 aa3c 7615 133c 8ce4 ff3b
000000c0: cf34 473c cc64 b43c 4772 17bd 82c9 9cbb
000000d0: 7c27 d43c a510 0bbd 188b e13c c95e cebc
000000e0: 4e2a 80bc 32c3 9dbb e56c 113d d63b 7bbc
000000f0: da48 ca3c dc0e 233d d081 6ebc a5fe f2bb
00000100: f3ad 5c3d 7a12 04bd 12dd 16bd 0389 443c
00000110: cff6 03bd c459 b03b 2cb0 d4bc e597 a6bc
00000120: 0aac 223d 43ef 36bc 73e8 3abc 478a 56bd
00000130: ec90 463d a851 473c 3e1b 8f3a dcfc 1fbc
00000140: b387 ccbc 3dff 4d3d 802c 0ebd ae07 f2bc
00000150: 49c6 3e3a efd4 d9bc ad3a a3bb da3d 67bd
00000160: 1a6b e03c 5cd6 5c3d 8fae 803d 3e12 8b3c
00000170: 8d44 81bb 2381 8bbc 4477 30bd 9380 d4bc
00000180: 3e1f 48bd c265 a33c 4cbb 043c a302 ff3a
00000190: 2458 e4bc cc2d 3fbd 2abf 333c f046 013c
000001a0: 4d59 6c3b 3154 98bd e13f ccbb 5be8 06bc
000001b0: 0578 a03c 1e98 c6bb 6ae1 013d dd94 cdbb
000001c0: 776d 40bd 74c9 abbb 32fc 3f3c db93 c6bc
000001d0: a9aa 723d 7721 1b3d 42ea 13bc c0ca 1cbb
000001e0: c32c 0b3d 53df 1d3d bac5 e5bc 2ca9 4bbd
000001f0: 81cc b23c d846 b3bc 64d3 68bd 3f37 5f3c
00000200: 69ea cabb 8e75 ea3c 7040 e5bc 7bde 07bc
00000210: 1438 c9bc 25fe 07bd 491e 55bd 0ca2 29bb
00000220: 884e 8f3b 6fca 2fbb d896 fb3c d5f4 c0bb
00000230: 2728 84bc 0e9a 9c3b 762a d83c b7a4 f03c
00000240: 47ff 7dbc a2dc 0abd b23b c7bc 815f e83c
00000250: dfd8 38bd 9f24 07bc 22fa 31bc 6904 003d
00000260: 4e58 ebbc 803b afbc 1dbf 673b 0f9f d7bc
00000270: 506e 833b 8517 883d 8fd3 be3c 1869 54bd
00000280: 41ff a23c 758c bebc 7255 c63c f085 0eba
00000290: d84d 10bc b314 2cbd 8e66 c13a 887e 3c3d
000002a0: 6d21 f73c e53e 4e3b 8b48 6c3c ad64 1cbd
000002b0: ef56 983c aa17 94bc 4a31 7a3c 18db 923b
000002c0: 3410 49bc bd16 b4bd 2102 a5bc 2864 0c3c
000002d0: c84d c5bc b17a f73c 07b2 983c be58 34bd
000002e0: e7a2 07bd 15e0 3fbd 8252 113d 5f9a 953c
000002f0: 08d6 4cbd 9274 aabc dada a83b c851 54bc
00000300: de90 b23b 362a ebbc 3b1a 693c aeb4 843c
00000310: e5fa b9bd 7846 ee3c 9cab 543d 2a31 51bc
00000320: edb2 15bd 858e a23c 6224 02bd 1fdf 1bbd
00000330: a162 363d 1231 753c e42a 223c 22ee 4dbc
00000340: 7745 ea3b 965f 863c 0c93 993c 61eb 9dbb
00000350: 1fba 2c3c 283d ab3b 0b1b afbd 4fa7 193d
00000360: 0e15 f4bb 5960 203c 1e52 e9bc 6b6a 863c
00000370: 17ce 03bc d228 173d 12e5 ef3c 35cb 15bc
00000380: b7ac d5bc c18f 01bd ff51 063d 9e6c 1ebc
00000390: 99a8 0bbd 69c2 17bc 5318 b139 5271 3e3d
000003a0: 069f 2abc 2f7e 823c a2b5 8a3c 64cf 1b3c
000003b0: a25a c2bc c9ad 13bd fee7 503b 1dae 103b
000003c0: 5cf3 853c 0444 48bd f62d 81bb 1915 0ebd
000003d0: d2c2 193c b334 83bc b62a 803c db13 efbb
000003e0: dd52 e1bc 46c9 333d 2142 7ebc ff63 9bba
000003f0: e27c 7abb 9919 6ebc bcee 24bc 473d e83b
-0.007951997 0.027255293 -0.034689754 0.013265482 -0.0054619517 -0.014207935 -0.024310412 -0.027367428
-0.0228466 0.00294264 0.0017205346 -0.0336459 -0.02915772 -0.05344961 -0.008148901 -0.023504946
-0.03732226 -0.0010559565 0.038943347 0.04552729 0.047075506 -0.0014475987 0.0055150595 -0.039364547
-0.06699033 -0.029513776 0.013855808 0.046982594 0.06258572 -0.016685842 -0.06499601 -0.013479213
0.003910076 -0.056207977 -0.02734901 0.03403694 -0.013067777 0.018762084 -0.013915996 -0.013487694
-0.021188037 -0.034776792 0.005412679 -0.00090936874 0.014805024 0.020784529 0.008977285 0.0078092273
0.012158587 0.02202072 -0.036974218 -0.004784764 0.025897734 -0.03395142 0.027532145 -0.025191681
-0.015645172 -0.004814529 0.03550424 -0.01533409 0.024692941 0.039809093 -0.014557317 -0.00741561
0.05387683 -0.032244183 -0.036831923 0.011995557 -0.032217797 0.0053817946 -0.025962912 -0.0203361
0.03971485 -0.011165443 -0.011407959 -0.052377965 0.048478052 0.012165464 0.0010918153 -0.009764876
-0.02496705 0.050292242 -0.034710407 -0.029544678 0.00072774716 -0.026590792 -0.00498136 -0.05645547
0.02739482 0.053915367 0.062832944 0.016976472 -0.0039449395 -0.01702935 -0.04308249 -0.025940215
-0.04885792 0.019945983 0.008101296 0.0019455742 -0.02787406 -0.046674535 0.01097087 0.007890448
0.003606397 -0.07437933 -0.006233201 -0.008234109 0.01958848 -0.0060606143 0.031709112 -0.0062738494
-0.046979394 -0.005242521 0.011717843 -0.024240425 0.059244785 0.03787371 -0.009028019 -0.002392456
0.033978235 0.038543057 -0.028048385 -0.04972188 0.02182603 -0.021884367 -0.056842223 0.013624012
-0.0061924946 0.028620508 -0.027984828 -0.00829279 -0.024562873 -0.033201355 -0.052030835 -0.002588394
0.0043733753 -0.002682354 0.030711576 -0.0058885613 -0.016132427 0.004779107 0.026387434 0.029375417
-0.015502757 -0.033901818 -0.024320457 0.028365852 -0.0451287 -0.008248477 -0.010862859 0.031254206
-0.02872863 -0.021390676 0.0035361715 -0.026320962 0.004010953 0.06645111 0.023294238 -0.051858038
0.019897105 -0.023260335 0.024210665 -0.00054368284 -0.008807622 -0.042011928 0.0014755295 0.046019107
0.030167306 0.0031470594 0.0144215925 -0.03818195 0.01859614 -0.01807769 0.0152705405 0.0044816844
-0.0122719295 -0.087933995 -0.020142617 0.008568801 -0.02408494 0.030209871 0.018639578 -0.044029944
-0.03311434 -0.04684456 0.035479076 0.018262086 -0.050008804 -0.020807538 0.0051530423 -0.012958951
0.0054493984 -0.028706651 0.014227445 0.016199436 -0.090810575 0.029086336 0.051921472 -0.012768069
-0.03654759 0.01984335 -0.03177298 -0.03805458 0.044527654 0.014965313 0.009897921 -0.012568982
0.007149394 0.016403 0.018746875 -0.004819319 0.010542422 0.0052257963 -0.0855008 0.037513074
-0.007448799 0.009788596 -0.02848154 0.016408166 -0.008044741 0.036904164 0.029284034 -0.009142687
-0.026083333 -0.031631235 0.03279304 -0.009669451 -0.034096334 -0.00926266 0.00033778194 0.04649479
-0.010413891 0.01592931 0.016932312 0.009509895 -0.023724858 -0.036054406 0.003187656 0.0022076436
0.016351394 -0.04889299 -0.0039422465 -0.03468809 0.009384828 -0.01601634 0.015645366 -0.007296068
-0.027505333 0.04389312 -0.015518696 -0.0011855363 -0.0038221409 -0.01453247 -0.010066684 0.007087383

model.8.bias f4 [128]
00000000: c717 d9bc 2780 91bd 8f0a 633b d129 bbba
00000010: e656 f73b 19f9 76bd 7049 dbbc 8dc8 eabc
00000020: 5d4f 2fbd a5ac eebc 7564 093d 904c bdbc
00000030: 32ed ea3c c896 943c 19a0 a83c 882c 80bc
00000040: 188d f9bb 2337 053d ec5c 27bd b8a6 15bd
00000050: 92be 84bd 52c1 01bd 7e68 9abc 3dc3 51bd
00000060: 9a06 cabc 5ac3 17bd 2960 d7bc fc0c e23b
00000070: 0e6a 243d 9a07 af3a 81ba 21bd 876a 613c
00000080: e13d 55bd 6bac 2ebd ecb7 b33c cd77 1abd
00000090: 3bbc 46bd 1d5e 5fbc 0994 f0bc deff b33a
000000a0: bf59 21bc b41a 23bd 3195 46bd ebe5 b5bd
000000b0: 304c d4bc 8e0e 22bd 72b9 1ebc 206a 88bd
000000c0: bb8b c7bc 0a3e 01bd ebe5 c5bc 7bc4 893b
000000d0: 23b4 7dbc f480 c13c 00ca a0bd 4e7c 59bd
000000e0: 54e5 52bd d0e5 36bd 0254 6f3d 2bfd 80bd
000000f0: a47a 8ebc e35c 3dbd 84fa 0dbc ab34 83bb
00000100: 20a8 27bd c977 95bb 937f 20bd d728 51bd
00000110: a562 82bc c93b 37bc 20ce 423c 122a cf3c
00000120: ebda 953c 9e47 ffbb 8a32 83bd aa7d 9ebc
00000130: 290b 77bd b06e 123b dc92 bbbc d6ae c83c
00000140: e76f 41bd 0b10 70bd 54ce ba3c 4815 91bc
00000150: 6919 54bd c1c6 cebc bdd9 92bd c120 edbc
00000160: d223 ddbc 6065 3abd 98af 07bd 4675 a5bb
00000170: 45ab a63c e446 7cbc cd45 393d 769d 12bd
00000180: b150 a73c 14ae 74bd 7ca5 f1bc 14bf fe3b
00000190: 0c0e 52bd 8bfd 1abd 7b6a 30bd 021f 0b3c
000001a0: 46b0 83bd 603b 83bd 3837 80bc 7410 a0bd
000001b0: 5ca6 b1bb 2e86 47bd 5b7d d23c 8e88 84bc
000001c0: af81 083d 6e58 213a 6d13 2dbd 63cb 49bc
000001d0: 7f7f 263c 80f4 61bd e582 aabb e971 dbbc
000001e0: 95e3 6dbc a07c 8138 264f 413c e97d f3bc
000001f0: e7ee c4bc 833b 86bc 5c17 13bd d7d6 76bd
-0.026500596 -0.07104521 0.0034643745 -0.001427943 0.007548201 -0.06029615 -0.026768416 -0.028660083
-0.042800296 -0.029135058 0.03354307 -0.023107797 0.028677557 0.018138304 0.020584153 -0.015646234
-0.0076156966 0.032523286 -0.0408601 -0.03653595 -0.06481661 -0.031678505 -0.018848654 -0.051211584
-0.024661351 -0.037051536 -0.02629097 0.0068985205 0.040140204 0.0013353706 -0.039484505 0.013758308
-0.052060965 -0.0426449 0.021938287 -0.037711907 -0.048519354 -0.013633278 -0.029367464 0.001373287
-0.009848057 -0.039820388 -0.048482124 -0.08881744 -0.025915235 -0.03956466 -0.009687768 -0.06660867
-0.02435862 -0.031553306 -0.024157485 0.0042043305 -0.0154848425 0.02362106 -0.078510284 -0.05309706
-0.051488236 -0.04465276 0.058429725 -0.06298288 -0.017392464 -0.04623116 -0.008665685 -0.0040040812
-0.04093182 -0.0045613986 -0.039184164 -0.05106434 -0.015916178 -0.0111836875 0.011889964 0.025288615
0.018292865 -0.00779052 -0.06406124 -0.01934703 -0.060313378 0.0022343807 -0.022897176 0.02449743
-0.04722586 -0.05860905 0.022803463 -0.017710343 -0.051782046 -0.025241258 -0.071704365 -0.028946282
-0.02699462 -0.045506835 -0.033126444 -0.0050493805 0.02034534 -0.015397761 0.045232583 -0.035794698
0.020424219 -0.059736326 -0.029497854 0.007774243 -0.051282927 -0.037839454 -0.043070298 0.00849128
-0.06430106 -0.06407809 -0.01565133 -0.07815638 -0.005421443 -0.048711948 0.02569454 -0.016178396
0.0333268 0.00061548396 -0.042254854 -0.012316558 0.010162233 -0.055164814 -0.005203592 -0.026787715
-0.014519592 6.1744126e-05 0.011798656 -0.029723125 -0.024039699 -0.0163858 -0.03591095 -0.06026348

model.10.weight f4 [128]
00000000: a6a8 763f da01 773f 6cae 783f 1bcc 703f
00000010: 763b 713f 08f4 7f3f 45e2 753f dafe 793f
00000020: f7ac 793f 9452 6d3f c6f0 753f 9fa9 743f
00000030: 0c68 7d3f e734 753f 9a66 713f 9dce 753f
00000040: bac1 6f3f b2a7 763f 2a77 723f a82b 793f
00000050: 5f0d 733f 0422 7b3f d7ae 7d3f 9974 743f
00000060: 67b5 7b3f 2168 783f e0bf 723f ecf4 753f
00000070: baa4 733f d1da 793f 8dc7 783f 213a 753f
00000080: 0f44 7a3f 2108 6e3f 6209 763f 9b0a 6f3f
00000090: 0102 743f a716 733f 260c 7e3f 5172 763f
000000a0: 11b7 713f 136b 7a3f 6164 763f 21ee 703f
000000b0: a1b1 723f 9041 753f 4fc2 6e3f a67b 773f
000000c0: 0085 693f ad19 763f 28c0 773f 468f 743f
000000d0: ed1d 7a3f bb43 743f 37be 783f 931b 6f3f
000000e0: 9867 783f 8e31 783f 604a 773f 1a56 7a3f
000000f0: f88b 763f e05a 763f 543a 733f 6975 793f
00000100: edd7 6a3f 25c8 763f a97b 743f 0996 7b3f
00000110: 8524 7c3f fcbb 783f 609a 773f c956 6e3f
00000120: 4089 713f 419b 753f a5b3 743f f4d0 7e3f
00000130: 80ec 733f e477 753f c3cc 773f 9084 783f
00000140: ab60 7b3f 4ba0 693f 6eed 743f a35d 6f3f
00000150: 25e5 723f 118a 773f dce8 773f c7fa 7b3f
00000160: fb9a 7a3f 84b2 713f 5500 753f f943 693f
00000170: 9444 763f e5bd 7e3f 05bd 773f 82d9 783f
00000180: 3bd2 743f 255a 723f f3c3 713f dc05 743f
00000190: 8947 7a3f 9630 703f b73a 703f 45f8 6d3f
000001a0: 91b7 783f 7e2e 7b3f b391 703f 19dc 773f
000001b0: 8964 773f f323 7a3f 271e 773f 6901 7a3f
000001c0: bb4d 723f d3d8 763f 8e38 7e3f daee 733f
000001d0: 08e4 683f 4352 753f 9e5e 773f a49a 6e3f
000001e0: 576d 703f 9a0f 733f b069 7b3f 322c 743f
000001f0: d2a4 763f 9c64 763f a5b7 703f 9365 7c3f
0.9635109 0.964872 0.97141147 0.9406144 0.94231355 0.9998174 0.96048385 0.976545
0.9752955 0.9270413 0.96070516 0.9557132 0.9898689 0.9578385 0.9429718 0.9601839
0.9365498 0.9634963 0.9471308 0.9733224 0.9494228 0.9809878 0.9909491 0.95490414
0.98323673 0.9703389 0.9482403 0.96076846 0.9517323 0.9759951 0.9717949 0.9579182
0.977601 0.92981154 0.9610807 0.9337556 0.9531556 0.9495644 0.9923729 0.96268183
0.9441996 0.9781963 0.96246916 0.94113356 0.9480229 0.95803165 0.9326524 0.9667305
0.91218567 0.9613293 0.9677758 0.9553112 0.97701913 0.9541585 0.97165245 0.9340145
0.9703307 0.96950614 0.9659786 0.9778763 0.96307325 0.96232414 0.95010877 0.9744478
0.91735727 0.96399146 0.9550119 0.9827581 0.98493224 0.9716184 0.9671993 0.93101174
0.9435005 0.95940024 0.95586616 0.9953759 0.95282745 0.95886064 0.96796817 0.97077274
0.9819438 0.9126021 0.9567479 0.93502253 0.94880897 0.9669505 0.9683969 0.9842953
0.9789273 0.9441302 0.9570363 0.91119343 0.9619839 0.99508506 0.96772796 0.9720689
0.95633286 0.946688 0.9443962 0.9532144 0.97765404 0.93824136 0.9383959 0.92956954
0.971551 0.98117816 0.9397232 0.9682022 0.9663778 0.97711104 0.96530384 0.976584
0.9464986 0.964246 0.99305046 0.95286334 0.9097295 0.95828646 0.9662875 0.9320471
0.9391684 0.9494568 0.9820814 0.95379937 0.96345246 0.9624727 0.9403022 0.9859249

model.10.bias f4 [128]
00000000: 4c19 ebbb cd31 893c c024 a2bb 258d 653c
00000010: 0e81 88bb ce95 59bb ae6a 9f3b c9a6 adbb
00000020: 88c3 a4bb 6228 ccbb f219 7c3c ab0f 443c
00000030: 23d3 8cbb e592 bb3b 1f3a 9fbb a3bd e73b
00000040: 5d4a bd3b dae1 9fbb 3e67 2a3b d4fe 9ebb
00000050: f4ba d23b a39e 313c 861c a5bb 1f89 7d3c
00000060: e0b7 d637 31ac 1a3c 3ad1 b2bb 32a6 6e3c
00000070: 1560 8e3b 73e7 a4bb a0f8 ed3b 429b 093c
00000080: b405 9dbb 7cd8 b6bb c5f0 d03b 62dd d63b
00000090: 56dd bf3b d990 78bb dee2 8abb 74d5 7dbb
000000a0: ec18 a9bb 08c8 c23b 1771 3e3c 4ec7 ce3b
000000b0: 3487 0b3c 0f65 a1bb 76ca 35bb 5829 cd3b
000000c0: 32da c4bb d069 023c b710 99bc 9a4f f33b
000000d0: 2e0c 6cbb c03c 643c d033 e33b 1b8b c13b
000000e0: 08f7 043c b893 d13b 5892 b53b e670 1b3c
000000f0: ebf3 253c 8577 8f3c 7dd6 ea3b e881 b6bb
00000100: 87d1 cb3c defe 16bb 6dbd 8bbb 7a95 76bb
00000110: 3241 b7bb e090 e93b 758f ca3b e3c2 5b3b
00000120: f65f efbb c48a 79bb 5ab7 e53b 5af7 abbb
00000130: 6bd5 8dbb 0a6d bb3b ab13 0bbc 5627 a43b
00000140: f976 e93b 6c53 d13b cd73 63bb 183b b13b
00000150: 2e61 71ba 0b7a bfbb d9b4 e43b 5a94 023c
00000160: f890 afba bc3b a9bb 9c80 c03b fd1a ca3b
00000170: 2c96 d13b 9d33 bbbb fafb b03b c736 6bbb
00000180: d422 9a3b ccdb a93b 79be 8dbb 29f8 633b
00000190: 74c5 003c 9c10 513c 53e6 80bb 071a 803b
000001a0: 5fa8 0d3d 7a28 a6bc 44e3 b33b 7eef beb9
000001b0: 3a9b 813b 1ba8 d83b 2466 b73b 15b5 e73b
000001c0: 079e cdbb 9749 afbc 1bb6 a13b 8a5e ea3a
000001d0: ba13 453c de30 bc3b 51ed c43b 1889 2bbc
000001e0: 2434 a339 652a 033c 5a79 53bb 5c6b b73b
000001f0: f6ad e13b 402c fb3b ea49 24bb 5893 013c
-0.0071746465 0.01674738 -0.0049482286 0.014010702 -0.004165775 -0.0033200863 0.004865012 -0.0052994234
-0.005028192 -0.0062304 0.015387045 0.011966626 -0.0042976304 0.0057242983 -0.0048592235 0.007072167
0.005776687 -0.0048792185 0.0026001479 -0.004852155 0.006430978 0.010841045 -0.0050388006 0.015474587
2.5596411e-05 0.009440468 -0.0054570707 0.014565991 0.00434495 -0.0050324737 0.0072623044 0.008398833
-0.0047919396 -0.005580006 0.006376358 0.0065571526 0.0058552427 -0.0037928133 -0.0042384705 -0.0038731964
-0.0051604416 0.0059442557 0.011623642 0.00631038 0.008516122 -0.004925377 -0.0027739084 0.006261032
-0.006007456 0.007959798 -0.018684728 0.0074252607 -0.0036018002 0.0139305 0.0069336668 0.0059064752
0.008115537 0.0063957833 0.005541127 0.009487366 0.010128955 0.017513046 0.0071666823 -0.0055696853
0.024880184 -0.0023040096 -0.0042645247 -0.0037625716 -0.0055924887 0.007127866 0.006181652 0.003353291
-0.0073051406 -0.0038077096 0.0070103826 -0.0052479925 -0.00432842 0.0057197856 -0.008488576 0.005009572
0.0071247783 0.0063881185 -0.0034706474 0.005408656 -0.00092079013 -0.005843406 0.0069795665 0.00796994
-0.0013394644 -0.0051645916 0.0058747064 0.006167768 0.0063960757 -0.00571294 0.0054011317 -0.0035890804
0.004703859 0.0051836725 -0.0043256846 0.0034785366 0.0078595765 0.012760308 -0.003933707 0.0039093527
0.0345844 -0.020282973 0.0054897387 -0.0003641806 0.003955272 0.0066118366 0.005596893 0.007071147
-0.006274942 -0.021397395 0.0049350387 0.0017880958 0.012028629 0.00574313 0.0060097356 -0.010469697
0.0003112863 0.008005713 -0.0032268376 0.005597515 0.006887193 0.007665187 -0.002506847 0.007908665

model.10.running_mean f4 [128]
00000000: f47d e33e 350f 763e a66b 803e d9ca 9f3e
00000010: 0fd4 6d3e dc92 8d3e 1131 4d3e b025 513e
00000020: 5264 2c3e 2242 c73e fb00 e73e c6a2 c33e
00000030: bc76 9b3e 7c08 063f 5e12 923e 69df 863e
00000040: 8008 183e bec8 953e 8dc3 b43e c99c c03e
00000050: 8548 4c3e 5f6c cd3d 8356 a23e 0514 573e
00000060: c3bc a53e 925d 163e e71a bf3e 06bb 753e
00000070: f2e4 d53e 70cf 923e 2241 803e 0768 993e
00000080: 4a8a 613e 912a 073f ae4c 093f 563a 923e
00000090: de76 f53e 60ff 593e 1ab0 723e f14e a43e
000000a0: ec4a 9e3e 0b01 5e3e 54b0 903e 7c80 b83e
000000b0: 6eb9 263e a1d7 623e daa4 603e a3ea aa3e
000000c0: 6858 e43e 3f6c aa3e d801 1e3e de91 e13e
000000d0: 6e2a 943e 82cd 8b3e b46e 9b3e dfc5 623e
000000e0: e45a c63e 19ee ab3e 2cf4 293f b464 513e
000000f0: e34e 913e be66 543e 2f52 823e 8379 b93e
00000100: aa88 833e fe2e b73e c147 da3e 5136 943e
00000110: aace 5d3e 4f15 b23e 2af9 3b3e e4a8 2e3f
00000120: b21c 153f 5487 3e3e 271c 6d3e 9548 863e
00000130: e8a1 6d3e 6d92 fd3e da8b ec3d 95dc c53e
00000140: 654d 743e 043d af3e c992 813e 3b14 163f
00000150: 62d1 353e 4c26 453e ec14 943e 5023 833e
00000160: 4e3d 383e f5c9 623e d4e4 c43e 40cb 513e
00000170: 7a13 e73e 3979 5a3e 2491 3d3f 3da9 933e
00000180: 10cb 0f3f 0196 b13e 80a7 a13e f4c5 d43e
00000190: 0d3e 183e e4fe 6b3e e881 6e3e 6451 563e
000001a0: 9391 c03e b681 793e a403 923e 4d1c 7a3e
000001b0: 74cf 133e d19d 2c3e 4261 053f 48aa 503e
000001c0: 3d5c 003f c031 483e 713d 323e 234e 603e
000001d0: 84e5 823e 2e23 183e 29ad 083f dc79 6f3e
000001e0: ba90 383e 23b3 b33e 6898 943e f497 9f3e
000001f0: d9da 833e d8aa e43e 4794 743e 91c5 3d3e
0.44432032 0.24029239 0.2508213 0.31209448 0.23225425 0.27651107 0.20038249 0.20424533
0.16835144 0.38917643 0.45117936 0.38210124 0.30364025 0.52356696 0.28529638 0.26342323
0.14846992 0.29254717 0.35305443 0.37619618 0.19949539 0.10030436 0.31706628 0.2100373
0.32370576 0.14684132 0.37325212 0.23997125 0.41776234 0.28673887 0.25049692 0.2996218
0.2202541 0.52799326 0.5363263 0.28560132 0.4794225 0.21288824 0.2369999 0.32091478
0.30916536 0.21680085 0.28259528 0.36035526 0.16281673 0.22152568 0.21937886 0.3338214
0.445987 0.3328571 0.15430391 0.440566 0.2893862 0.27305228 0.30357897 0.22145794
0.3874122 0.33580092 0.663882 0.20448571 0.28380498 0.20742318 0.25453326 0.3622552
0.25690204 0.3577804 0.4263287 0.2894769 0.21660867 0.34781882 0.18356767 0.68226457
0.5824691 0.18606311 0.2315527 0.2622725 0.23206294 0.49525777 0.11550112 0.38644853
0.23857649 0.3422624 0.253073 0.5862462 0.17755654 0.1925289 0.28922212 0.2561288
0.17992136 0.22147353 0.38455832 0.2048769 0.45132047 0.21335305 0.7404959 0.28840056
0.56169224 0.34684756 0.31573105 0.41557276 0.1486742 0.23046452 0.23291743 0.20929486
0.37611064 0.24365887 0.28518403 0.24424858 0.14434606 0.16857077 0.5210153 0.20377457
0.50140744 0.19550228 0.1740625 0.21904807 0.25565732 0.1485717 0.5338922 0.2338633
0.18023959 0.35097608 0.29022527 0.3117062 0.25752905 0.44661593 0.23884688 0.18532397
