Lab4/models/gan_models/ls_1000e_1250b_dis.pth (torch, 398261 bytes, 15 tensors)

model.0.weight f4 [16, 3, 3, 3]
0	0x3cf3eec8	0.029776946
1	0xbd5d7ecc	-0.054076
2	0xb9488800	-0.0001912415
3	0xbddd887e	-0.108170494
4	0xbd72a37c	-0.059237942
5	0x3e3e7c4f	0.18602107
6	0x3e0d5937	0.13803564
7	0x3cf8dcb8	0.030378684
8	0x3d408108	0.046998054
9	0x3da4e2ea	0.08051093
10	0xbc27dfd0	-0.010246232
11	0xbdfc64cc	-0.12323913
12	0x3c9a5c68	0.01884289
13	0xbe0137d0	-0.12618947
14	0xbdc401ec	-0.09570679
15	0x3dd103b6	0.10205786
16	0xbd1377bc	-0.03600286
17	0xbe3cebf4	-0.18449384
18	0x3e1b95ff	0.15193938
19	0xbe30ff1b	-0.17284815
20	0xbe13d041	-0.14434911
21	0xbe1425bc	-0.1446752
22	0xbe283179	-0.16425122
23	0xbe0c48f6	-0.13699707
24	0x3e1ed1df	0.15509747
25	0x3cfd9180	0.030953169
26	0x3e11c7b1	0.14236332
27	0x3df3eca6	0.119103715
28	0xbe27936f	-0.16364835
29	0x3e1a3e45	0.15062816
30	0x3d1c8ecc	0.03822212
31	0x3e050bad	0.12992735
32	0x3e387adf	0.18015622
33	0x3e1cb55b	0.15303557
34	0xbe33a8ab	-0.1754481
35	0x3e2a5385	0.16633423
36	0x3e2dc405	0.16969307
37	0xbe261ea4	-0.16222626
38	0xbcde4d80	-0.027136564
39	0xbe3e1531	-0.18562771
40	0x3cfa8a68	0.030583575
41	0x3ba25600	0.0049540997
42	0x3df4c8c2	0.11952354
43	0xbd9b6e86	-0.0758944
44	0x3d9d0312	0.07666601
45	0x3daaf926	0.083483025
46	0xbdde30bb	-0.10849138
47	0xbe210af1	-0.1572683
48	0xbde06243	-0.10956242
49	0xbde72d72	-0.11287965
50	0xbe189afa	-0.14902869
51	0xbe2c94c6	-0.16853628
52	0x3dc1f726	0.09470968
53	0xbd0eae5c	-0.03483425
54	0xbd4e8308	-0.05041793
55	0xbdf8156c	-0.12113461
56	0x3e353e65	0.17699583
57	0xbd94938f	-0.07254707
58	0xbe17178c	-0.14755076
59	0xbe2b5d48	-0.16734803
60	0xbe427316	-0.18989214
61	0x3ad4a200	0.0016222596
62	0x3d970822	0.07374598
63	0xbba72080	-0.00510031
64	0x3d90d4fe	0.07071875
65	0xbe35fa8e	-0.1777136
66	0x3e3f3a2b	0.18674533
67	0xbd9789d9	-0.07399339
68	0x3e049307	0.12946711
69	0x3e3ae647	0.18251906
70	0xbb3bdbc0	-0.0028664917
71	0xbc7f1240	-0.015568316
72	0xbd3472bc	-0.04405473
73	0xbe277820	-0.16354418
74	0x3e226157	0.15857445
75	0x3e032c4b	0.12809865
76	0xbe14fe02	-0.14550021
77	0x3d94a51e	0.07258056
78	0xbdaf2c9a	-0.08553429
79	0xbd27bdec	-0.040952608
80	0xbd5f9910	-0.05458933
81	0x3d93b406	0.07212071
82	0xbe1b6187	-0.15173922
83	0x3e3a6875	0.1820391
84	0x3d39e58c	0.04538493
85	0xbdebb975	-0.115099825
86	0xbd5ac4f8	-0.0534105
87	0x3d382028	0.04495254
88	0x3c076aa0	0.0082651675
89	0xbdc0610d	-0.09393511
90	0x3b9d3be0	0.0047983974
91	0x3e332b3f	0.17496966
92	0x3e40555f	0.18782566
93	0x3de74afe	0.112936005
94	0xbe217191	-0.15765978
95	0xbe2ae23c	-0.16687864
96	0xbe131ed0	-0.14367223
97	0xbdf119ba	-0.11772485
98	0xbdb5173e	-0.08842324
99	0xbe1e5d3b	-0.15465252
100	0xbdeca386	-0.11554627
101	0x3e34a7a3	0.17642073
102	0xbe4078b7	-0.18796049
103	0xbcb0a910	-0.02156499
104	0xbdc6308b	-0.096772276
105	0x3daac88a	0.08339031
106	0xbb7df1c0	-0.003874883
107	0xbd155810	-0.036460936
108	0xbd5a1dc8	-0.053251058
109	0xbc1bdc90	-0.009513035
110	0xbe175c1d	-0.14781232
111	0xbd42ab48	-0.047526628
112	0x3d604680	0.054754734
113	0xbdb54222	-0.088505045
114	0x3dee3a9a	0.11632271
115	0x3dda666a	0.10664065
116	0x3c9f1fc8	0.019424334
117	0x3e02f06b	0.12787025
118	0x3e010d67	0.12602769
119	0xbd719b2c	-0.058985874
120	0x3e103931	0.14084317
121	0xbd4a6ac0	-0.04941821
122	0xbcd3ebb0	-0.02586922
123	0xbde9f2f3	-0.11423292
124	0xbc1644f0	-0.009171709
125	0x3ceb37c0	0.028713107
126	0x3e4343df	0.1906886
127	0x3e32d5d1	0.17464377
128	0xbdb876ec	-0.090070575
129	0xbd98f6bf	-0.07468938
130	0x3d538d68	0.051648527
131	0xbded3c9b	-0.11583825
132	0xbd2239b8	-0.039605826
133	0x3dfd4de6	0.123683736
134	0x3d925b2e	0.071462974
135	0xbe0dede9	-0.13860287
136	0xbe31c83a	-0.17361537
137	0x3b9181e0	0.004440531
138	0xbdd55477	-0.10416501
139	0x3cbf0648	0.023318425
140	0xbd6bd4ec	-0.057576105
141	0xbd40061c	-0.046880826
142	0xbca10a90	-0.019658357
143	0x3d97f496	0.07419698
144	0x3e0c33ab	0.13691585
145	0x3c73d250	0.014881685
146	0x3c48bcd0	0.012252048
147	0x3e269fad	0.16271849
148	0x3e1c3613	0.15255003
149	0xbe2b8f1c	-0.1675381
150	0xbb526000	-0.0032100677
151	0xbd6eb73c	-0.058280215
152	0x3db86e62	0.09005429
153	0xbd343c70	-0.04400295
154	0x3dc84372	0.09778489
155	0xbd307948	-0.043084413
156	0xbd7dab48	-0.061930925
157	0x3d0515a8	0.032491356
158	0xbdff20c9	-0.12457425
159	0x3df6335a	0.12021513
160	0xbd15dc90	-0.036587298
161	0x3e21f3b3	0.1581562
162	0x3d973cb2	0.073846236
163	0xbdd449ae	-0.10365616
164	0xbdd29002	-0.102813736
165	0x3d94e2c6	0.07269816
166	0xbd6e2b70	-0.058146894
167	0x3e0bd4c5	0.13655384
168	0xbd9b9712	-0.07597174
169	0xbd9984d3	-0.07496037
170	0xbd98128c	-0.074254125
171	0x3c9ee538	0.01939641
172	0x3dfcf72e	0.12351833
173	0x3d940eee	0.0722941
174	0x3dbd2986	0.092364356
175	0xbd58cde8	-0.052930743
176	0xbdaa2731	-0.083082564
177	0xbddd375a	-0.10801573
178	0xbc87f990	-0.016598493
179	0xbc79a630	-0.015237376
180	0x3e41f2c3	0.18940262
181	0xbdadbc24	-0.084831506
182	0xbc69edc0	-0.014277875
183	0xbd0b4fc0	-0.034011602
184	0xbd35eec0	-0.044417143
185	0x3dcfaa5e	0.10139917
186	0x3c7711b0	0.015079901
187	0xbd7bdecc	-0.061491773
188	0xbe04cac5	-0.12967975
189	0xbde7327f	-0.11288928
190	0x3dc383d2	0.09546627
191	0x3e427881	0.18991281
192	0x3e197179	0.14984693
193	0xbde88e41	-0.11355258
194	0xbe147a16	-0.14499697
195	0xbc704840	-0.014665663
196	0xbe04abf2	-0.12956217
197	0xbe100c6d	-0.1406724
198	0x3e15bbd7	0.14622436
199	0x3e255439	0.1614541
200	0xbe2ba9cc	-0.16763991
201	0xbcde7190	-0.02715376
202	0x3e166447	0.1468669
203	0x3df4fd1e	0.11962341
204	0x3d9a1926	0.07524328
205	0xbdec8d86	-0.11550431
206	0x3d989b12	0.07451452
207	0xbdf70efa	-0.120634034
208	0x3cfb5d88	0.030684248
209	0x3df13c82	0.11779119
210	0xbd0dcf84	-0.03462173
211	0x3d427af0	0.047480524
212	0x3e2764ef	0.16347097
213	0x3e2c2ee1	0.16814758
214	0x3dbd2f76	0.09237568
215	0x3dadb39a	0.08481522
216	0x3c476da0	0.012172133
217	0x3e4270b5	0.18988307
218	0x3b858000	0.0040740967
219	0x3c3df1d0	0.011593297
220	0xba625f00	-0.0008635372
221	0xbe1c0b24	-0.15238625
222	0x3d270efc	0.040785775
223	0x3e257c49	0.16160692
224	0x3e374131	0.17895962
225	0x3dfe253e	0.12409447
226	0x3d961612	0.07328428
227	0x3d806caa	0.06270726
228	0x3db8713e	0.09005974
229	0x3d0f451c	0.034978017
230	0x3e3f2f4d	0.18670388
231	0x3d3119a8	0.04323736
232	0x3e208955	0.15677388
233	0xbd9a9259	-0.07547445
234	0x3e226207	0.15857707
235	0xbd818820	-0.06324792
236	0x3d86e9ea	0.06587584
237	0x3ce24770	0.027621955
238	0x3d5f7bec	0.05456154
239	0x3dced15e	0.10098527
240	0x3d9a903a	0.0754704
241	0xbdbb28e1	-0.091386564
242	0x3da94a0a	0.08266075
243	0x3e04c1bd	0.1296453
244	0xbdc8f877	-0.09813016
245	0xbd3a6c68	-0.04551354
246	0x3ae13280	0.0017181188
247	0x3dfe4062	0.12414624
248	0xbd8e0839	-0.06935162
249	0x3c7ec080	0.015548825
250	0xbe140731	-0.14455868
251	0x3e1bbdaf	0.15209077
252	0x3e25eccd	0.16203614
253	0xbd1a9418	-0.03773889
254	0xbd428078	-0.0474858
255	0xbdadd112	-0.084871426

model.0.bias f4 [16]
0	0x3c08b4c0	0.008343875
1	0xbcd73788	-0.026271597
2	0x3d70088c	0.0586019
3	0x3e380c6f	0.17973493
4	0x3d902d06	0.070398375
5	0x3e09ba4d	0.13449974
6	0xbe33654e	-0.17519113
7	0xbd4002dc	-0.046877727
8	0xbe39de65	-0.18151243
9	0x3e34f775	0.17672522
10	0x3e21210f	0.15735267
11	0x3bc75ae0	0.006083831
12	0xbcda3000	-0.026634216
13	0x3e025391	0.1272719
14	0x3c71f100	0.0147669315
15	0x3de5f0ba	0.112275556

model.2.weight f4 [32, 16, 3, 3]
0	0xbd4637a0	-0.048392892
1	0xbc7439f8	-0.014906399
2	0x3cdf1770	0.027232856
3	0x3d88995d	0.06669877
4	0xbb2a0d80	-0.0025947988
5	0xbd8ebdac	-0.06969771
6	0x3d0b0e56	0.03394922
7	0xbc6879c8	-0.014189191
8	0xbd5ef22b	-0.054430168
9	0x3b8b3570	0.0042483136
10	0xbd74a086	-0.0597234
11	0x3d86c265	0.065800466
12	0x3da7dd95	0.0819656
13	0x3a9ca800	0.0011951923
14	0x3d6a82fa	0.057253815
15	0xbce32e80	-0.027732134
16	0xbd735c8b	-0.059414428
17	0x3d98f9f9	0.074695535
18	0xbd701133	-0.058610152
19	0x3cc8d1d4	0.024514116
20	0xbd791940	-0.060815096
21	0x3da9393b	0.08262869
22	0x3ba4edf0	0.005033247
23	0x398e9900	0.00027198344
24	0xbda7f496	-0.08200948
25	0xbcad37e6	-0.021144819
26	0x3c8c93a0	0.017160237
27	0x3cfa3aa4	0.03054554
28	0xbd5b64bb	-0.05356286
29	0x3cbeb9b0	0.023281902
30	0xbcc7b84c	-0.024379872
31	0xbd5f969b	-0.054586988
32	0x3d96a9a9	0.07356579
33	0xbdaa9dd3	-0.08330884
34	0xbd3890f6	-0.04506012
35	0xbd8b715f	-0.06808733
36	0x3d76e45e	0.06027638
37	0xbd96e07b	-0.07367035
38	0xbc0aa500	-0.008462191
39	0x3d1037d8	0.035209507
40	0xbcfc6ec0	-0.030814528
41	0xbcfe7d76	-0.031065684
42	0xbd20dab0	-0.039271057
43	0xbd8d4f30	-0.068998694
44	0x3d8d538d	0.06900702
45	0x3cd24084	0.02566553
46	0xbc30f9a8	-0.01080171
47	0x3c944934	0.018101312
48	0x3d2eb0f2	0.042649217
49	0xbc9f6b9c	-0.019460492
50	0x3d839823	0.06425502
51	0xbd7f6e8e	-0.062361293
52	0xbc6bd978	-0.01439511
53	0xbd4051de	-0.046953075
54	0xbc947080	-0.01812005
55	0x3d95095f	0.07277178
56	0x3bde3950	0.0067817345
57	0xbd6f56c6	-0.058432363
58	0xbc71db98	-0.014761828
59	0xbd62e52b	-0.055394333
60	0x3ca06920	0.019581378
61	0x3d0c3da8	0.034238487
62	0x3d3f35b2	0.046682067
63	0x3b046ae0	0.0020205304
64	0x3d8ff7dd	0.07029698
65	0xbd6c1153	-0.05763371
66	0xbd73bd38	-0.059506625
67	0x3be1b8b0	0.0068884715
68	0xbd8c0517	-0.06836908
69	0x3d9018f7	0.07036012
70	0xbd36920b	-0.04457287
71	0x3d1953a0	0.037433267
72	0x3cb2309c	0.021751694
73	0x3d016d2e	0.031598262
74	0x3c823ebc	0.015899055
75	0xbd22a980	-0.03971243
76	0xbc63e4c0	-0.013909519
77	0xbd5691b0	-0.052385032
78	0x3cc1bbd4	0.023649134
79	0xbc8049d0	-0.015660197
80	0x3d414b3a	0.047190882
81	0x3d4dfcb2	0.050289817
82	0xbd93cfaf	-0.07217347
83	0x3d4eac72	0.050457425
84	0x3c831f54	0.01600615
85	0xbcf65210	-0.030068427
86	0xbda15c4b	-0.078789316
87	0x3d40a67a	0.047033764
88	0xb7148000	-8.85129e-06
89	0x3ca541e0	0.020173013
90	0xbc9d1140	-0.019173265
91	0xbcaa866c	-0.02081605
92	0xbc95505c	-0.018226795
93	0xbd3c2536	-0.045933925
94	0xbca810cc	-0.020515822
95	0xbd8e48b2	-0.06947459
96	0xbd211e00	-0.03933525
97	0x3ce39304	0.027780063
98	0x3bbdb610	0.005789526
99	0x3d6274ba	0.0552871
100	0xbca95c7c	-0.020673983
101	0x3d995f29	0.074888535
102	0xbcc8f59c	-0.024531178
103	0x3b85ec40	0.004087001
104	0x3d2f7982	0.04284049
105	0xbc6a66e0	-0.014306754
106	0x3d124106	0.035706542
107	0xbd78ca3e	-0.06073975
108	0x3c112ac0	0.00886029
109	0xbd717ae3	-0.058955085
110	0x3da6c4e5	0.081430234
111	0xbcefaa6c	-0.029256068
112	0x3d452956	0.048135124
113	0x3c1fe220	0.009758502
114	0xbd3df4f6	-0.04637619
115	0x3d003710	0.03130251
116	0xbd113e98	-0.035460085
117	0xbd8fb19a	-0.07016297
118	0x3d727fa2	0.05920375
119	0x3d9fe79d	0.078078486
120	0xbd45a376	-0.04825159
121	0xbbf803c0	-0.0075688064
122	0xbd39fb9e	-0.045405976
123	0x3da475a5	0.080302514
124	0x3a861ac0	0.0010231361
125	0x3da79efd	0.081846215
126	0x3cefff70	0.029296607
127	0xbd8ae0b8	-0.06781143
128	0x3c4cc928	0.012499131
129	0x3d5cb98a	0.05388788
130	0x3d45ba4a	0.048273362
131	0x3d1ef570	0.038808286
132	0x3c9fcaac	0.019505821
133	0xbd5d7cf3	-0.05407424
134	0xbd98c48c	-0.07459363
135	0xbcc80320	-0.024415553
136	0x3da54737	0.08070224
137	0x3da515a9	0.08060772
138	0x3d5321f6	0.05154606
139	0xbd825490	-0.06363785
140	0x3c0ac2c8	0.008469291
141	0xbccd70f6	-0.025078278
142	0xba3c3880	-0.000718005
143	0x3da61351	0.08109153
144	0x3da943f9	0.08264918
145	0x3ccac664	0.024752803
146	0xbb0172a0	-0.001975216
147	0xbd21f143	-0.039536726
148	0xbcdc6eac	-0.026908241
149	0xbd0f1ae3	-0.03493775
150	0xbd608e68	-0.05482331
151	0xbc591820	-0.013250381
152	0x3c6f74d8	0.01461526
153	0x3da461fb	0.08026501
154	0x3d8493bf	0.06473493
155	0x3d398e12	0.045301504
156	0xbca21d34	-0.019789316
157	0x3ced8434	0.028993703
158	0xbda004e2	-0.07813431
159	0x3da0ec59	0.0785758
160	0xbcc3bc16	-0.023893397
161	0x3d04aa5e	0.032389037
162	0xbc2c7f60	-0.010528415
163	0xbd64a65b	-0.05582271
164	0x3d9644db	0.07337352
165	0xbd3511f8	-0.04420659
166	0x3d88436f	0.06653487
167	0xbd59b240	-0.053148508
168	0xbd9c4974	-0.076311976
169	0x3d66ed22	0.05637849
170	0xbd0d4aa6	-0.03449502
171	0xbd75ffb0	-0.060058296
172	0xbc890070	-0.016723841
173	0x3c999120	0.018745959
174	0x3d012320	0.03152764
175	0xbd952913	-0.07283225
176	0xbbb9ffb0	-0.0056762323
177	0x3d99e45b	0.075142585
178	0x3d349272	0.044084974
179	0xbd49bec0	-0.04925418
180	0x3c59f5e0	0.01330325
181	0x3d5e2032	0.054229923
182	0x3d89927d	0.067173935
183	0x3d085a0a	0.033288993
184	0x3c2c1a28	0.010504283
185	0xbd3c8706	-0.046027206
186	0xbd096626	-0.033544682
187	0x3da4ee0f	0.080532186
188	0x3da1758d	0.07883749
189	0x3c198280	0.0093694925
190	0xbd89e1f6	-0.06732552
191	0x3d45f682	0.04833079
192	0xbc971d4c	-0.018446587
193	0xbd79a556	-0.060948692
194	0x3d227aa0	0.039667726
195	0xbcfd6bac	-0.030935131
196	0x3d145116	0.036210142
197	0xbd85bc13	-0.06530013
198	0x3d07c3da	0.033145763
199	0x3d920d5f	0.071314566
200	0x3d85fd95	0.065425076
201	0x3c845460	0.016153514
202	0x3c3159c8	0.010824628
203	0xbd3085b8	-0.043096274
204	0xbd985f1f	-0.07440018
205	0xbd845c0c	-0.06462869
206	0x3d548c3e	0.051891558
207	0xbceaaaec	-0.028645955
208	0x3d051e5e	0.032499664
209	0xbd048d5b	-0.03236137
210	0x3da7bdad	0.08190475
211	0xbb0db880	-0.0021624863
212	0x3acf7940	0.0015828982
213	0x3cd998c0	0.026562095
214	0xbd2a8a26	-0.041635655
215	0xbc873014	-0.016502418
216	0xbb3d1e20	-0.0028857067
217	0xbcb0f590	-0.021601468
218	0xbb4e2f80	-0.0031461418
219	0xbc68e908	-0.014215715
220	0x3d59243e	0.05301308
221	0xbca2857c	-0.019839041
222	0xbd475c86	-0.04867222
223	0x3d364356	0.04449781
224	0xbd799dc6	-0.06094148
225	0xbd1e204b	-0.038605016
226	0x3d95b019	0.073089786
227	0x3d9258a1	0.07145811
228	0xbd6fe653	-0.058569264
229	0xbd6df770	-0.058097303
230	0x3d3731de	0.04472529
231	0x3c63b8a8	0.013899006
232	0xbd4104b6	-0.047123633
233	0x3ce4bdd0	0.02792254
234	0x3d941b29	0.07231743
235	0xbd3c546b	-0.045978945
236	0x3d877efb	0.066160165
237	0xbd5587ae	-0.052131347
238	0x3cc43a7c	0.023953669
239	0x3cf74740	0.030185342
240	0x3d44442a	0.04791657
241	0x3cdc320c	0.026879333
242	0xbd48f0bb	-0.049057703
243	0x3d7505d2	0.059820004
244	0xbd16bafe	-0.036799423
245	0x3c4aaf60	0.012370914
246	0xbd498ddb	-0.04920755
247	0xbd4fdcb3	-0.050747585
248	0xbced5770	-0.028972358
249	0x3cd64e90	0.026160508
250	0x3d154458	0.03644213
251	0xbda62f2c	-0.08114466
252	0x3c574198	0.013138197
253	0x3d959515	0.07303826
254	0x3d3ca462	0.046055205
255	0x3ce02190	0.027359754

model.2.bias f4 [32]
0	0x3b33ad20	0.0027416423
1	0xbceedb1c	-0.029157214
2	0xbd83c700	-0.064344406
3	0x3d5e313a	0.054246165
4	0x3d8b5361	0.06803013
5	0xbd5a1bee	-0.053249292
6	0x3da38415	0.07984177
7	0xbd43d6e0	-0.047812343
8	0x3d3ae3ea	0.045627512
9	0xbc8cfa5c	-0.017209224
10	0xb8944c00	-7.071346e-05
11	0x3c88dc5c	0.016706638
12	0xbd18b98b	-0.037286323
13	0xbda2a143	-0.079409145
14	0xbd9e04d3	-0.07715764
15	0x3d2de1ea	0.042451777
16	0xbcb9561c	-0.022624068
17	0x3c8294a0	0.01594001
18	0xbd9be2ec	-0.07611641
19	0xbb2c4780	-0.0026287735
20	0xbdaa6352	-0.08319725
21	0xbcdbf466	-0.026849937
22	0xbd4a4933	-0.049386214
23	0x3da923bd	0.0825877
24	0x3da960a5	0.082703866
25	0xbca6ebf0	-0.020376176
26	0xbda0dc6a	-0.07854541
27	0xbc596da0	-0.013270766
28	0x3d8bac77	0.068200044
29	0x3d963f79	0.07336325
30	0x3d85ae07	0.06527334
31	0xbd3cd8bb	-0.046105128

model.4.weight f4 [32]
0	0x3f800000	1.0
1	0x3f800000	1.0
2	0x3f800000	1.0
3	0x3f800000	1.0
4	0x3f800000	1.0
5	0x3f800000	1.0
6	0x3f800000	1.0
7	0x3f800000	1.0
8	0x3f800000	1.0
9	0x3f800000	1.0
10	0x3f800000	1.0
11	0x3f800000	1.0
12	0x3f800000	1.0
13	0x3f800000	1.0
14	0x3f800000	1.0
15	0x3f800000	1.0
16	0x3f800000	1.0
17	0x3f800000	1.0
18	0x3f800000	1.0
19	0x3f800000	1.0
20	0x3f800000	1.0
21	0x3f800000	1.0
22	0x3f800000	1.0
23	0x3f800000	1.0
24	0x3f800000	1.0
25	0x3f800000	1.0
26	0x3f800000	1.0
27	0x3f800000	1.0
28	0x3f800000	1.0
29	0x3f800000	1.0
30	0x3f800000	1.0
31	0x3f800000	1.0

model.4.bias f4 [32]
0	0x00000000	0.0
1	0x00000000	0.0
2	0x00000000	0.0
3	0x00000000	0.0
4	0x00000000	0.0
5	0x00000000	0.0
6	0x00000000	0.0
7	0x00000000	0.0
8	0x00000000	0.0
9	0x00000000	0.0
10	0x00000000	0.0
11	0x00000000	0.0
12	0x00000000	0.0
13	0x00000000	0.0
14	0x00000000	0.0
15	0x00000000	0.0
16	0x00000000	0.0
17	0x00000000	0.0
18	0x00000000	0.0
19	0x00000000	0.0
20	0x00000000	0.0
21	0x00000000	0.0
22	0x00000000	0.0
23	0x00000000	0.0
24	0x00000000	0.0
25	0x00000000	0.0
26	0x00000000	0.0
27	0x00000000	0.0
28	0x00000000	0.0
29	0x00000000	0.0
30	0x00000000	0.0
31	0x00000000	0.0

model.5.weight f4 [64, 32, 3, 3]
0	0xbcd9437a	-0.026521433
1	0x3d386cc1	0.04502559
2	0xbd279b41	-0.040919546
3	0x3afc18c0	0.001923345
4	0xbd2f7282	-0.042833813
5	0xbc4fba00	-0.012678623
6	0xbc610ae0	-0.013735503
7	0x3d449c53	0.048000645
8	0xbccd5952	-0.025067005
9	0x3d5e8379	0.0543246
10	0xbc820c18	-0.015874907
11	0xbd03d450	-0.0321849
12	0x3d5a3159	0.053269718
13	0xbd487d24	-0.04894747
14	0xbc8623ec	-0.01637455
15	0x3d68d111	0.056840006
16	0x3d3074c3	0.043080103
17	0x3d42db85	0.04757263
18	0xbccc9750	-0.024974495
19	0xbd3d63c0	-0.046237707
20	0xbbee8370	-0.007278852
21	0x3cfa9886	0.030590307
22	0x3d3b5987	0.045739677
23	0xbbf082b8	-0.0073398016
24	0x3d4032b3	0.04692335
25	0xbcddc230	-0.027070135
26	0x3c581adc	0.0131899975
27	0x3c837866	0.016048621
28	0xba36f180	-0.00069787353
29	0xbb219760	-0.0024656877
30	0xbc976d96	-0.018484872
31	0xbd52b155	-0.05143865
32	0xbd271a5e	-0.04079663
33	0x3d5fa2a1	0.054598454
34	0xbcf2b28e	-0.029626157
35	0x3d52a2a7	0.05142465
36	0xbcd84c0c	-0.02640345
37	0xbd0f57de	-0.034995906
38	0x3ce1e2aa	0.027573902
39	0xbcf6c0ea	-0.030121285
40	0xbc3a3b24	-0.011366639
41	0xbd2da770	-0.04239601
42	0x3cdffbb2	0.027341697
43	0xbd1ed280	-0.038774967
44	0xbd5f85e3	-0.054571044
45	0xbd3daec1	-0.046309236
46	0xbd21f639	-0.039541457
47	0x3d0c382d	0.03423326
48	0xbd4d167d	-0.050070275
49	0xbc1e9cd0	-0.009680942
50	0x3c1d8084	0.00961316
51	0x3d42a409	0.047519717
52	0xbb11d7f0	-0.0022253953
53	0xbb784590	-0.003788326
54	0xbab245a0	-0.0013601072
55	0x3c7c3204	0.015392784
56	0xbcfd5e89	-0.030928867
57	0xbc5a5d3c	-0.013327893
58	0x3d6525e5	0.055944342
59	0xbb9f5218	-0.0048620813
60	0xbd25dc54	-0.040493324
61	0x3d65f8b3	0.05614538
62	0xbd574bb4	-0.05256243
63	0x3c856986	0.016285669
64	0xbd0abc80	-0.033871174
65	0x3c83f986	0.016110193
66	0xbd2ac5c3	-0.041692507
67	0x3b2e7ea0	0.0026625767
68	0x3cb1a63a	0.021685708
69	0xbd03fa05	-0.03222086
70	0x3c6274d4	0.013821799
71	0x3b1ab160	0.002360426
72	0xbd3568e2	-0.044289477
73	0x3c58186c	0.013189416
74	0x3cd2893a	0.0257002
75	0xbd34ae40	-0.04411149
76	0xbd20bf24	-0.039244786
77	0x3cab13d6	0.020883482
78	0x3b710f10	0.003678266
79	0x3cc345be	0.023836967
80	0x3b491630	0.003068339
81	0xbd1bb7a9	-0.03801695
82	0xbd3d6309	-0.046237025
83	0x3d130691	0.035894934
84	0xbca3dee0	-0.020003736
85	0xbc8fda9c	-0.017560296
86	0x3d41f4b1	0.047352497
87	0x3c60982c	0.013708156
88	0x3d5c8501	0.05383778
89	0x3c2991c4	0.010349695
90	0xbd370afb	-0.044688206
91	0xbd2a4ae5	-0.04157533
92	0xbcab78ec	-0.020931683
93	0xbd45e434	-0.048313335
94	0xbd46c290	-0.048525393
95	0xbc9aa596	-0.018877786
96	0x3c7cf0a4	0.015438233
97	0xbd14901a	-0.03627024
98	0x3c56a0dc	0.013099875
99	0xbd424a50	-0.04743415
100	0xbd050baa	-0.032481827
101	0x3c29ac5c	0.010356035
102	0x3c88bb3e	0.016690847
103	0x3cd90b16	0.026494544
104	0xbc9a1ea8	-0.018813446
105	0x3b972df8	0.004613634
106	0xbb484f00	-0.0030564666
107	0xbd536ef6	-0.051619492
108	0xbd2b9d60	-0.04189813
109	0x3c147c84	0.00906289
110	0xbcf7b671	-0.030238362
111	0xbcd83518	-0.026392505
112	0xbd0654da	-0.032795765
113	0xbb8b1c98	-0.004245352
114	0xbc0f3190	-0.008739844
115	0x3d5ac29f	0.05340826
116	0xbd6fe870	-0.05857128
117	0x3d1c4c35	0.038158614
118	0x3d12c7f9	0.03583524
119	0x3b9fb608	0.0048739947
120	0x3c5bc8bc	0.013414558
121	0x3d30cdef	0.043165144
122	0xbd4df8f4	-0.05028625
123	0xbc145ec4	-0.009055797
124	0xbd1bcd6a	-0.038037695
125	0xbcfa3a5d	-0.030545408
126	0xbb95f7b8	-0.0045766495
127	0xbcbc3acc	-0.022977255
128	0x3d0170d3	0.03160174
129	0xbd00ad34	-0.03141518
130	0xbce97755	-0.028499285
131	0x3d3b0cb3	0.045666408
132	0xbc840cce	-0.016119387
133	0xbd1d083c	-0.03833793
134	0xbd1de3a4	-0.038547173
135	0xbd056a42	-0.03257204
136	0x3d1d5e73	0.038420152
137	0x3cfbfeba	0.030761112
138	0x3d23c277	0.039980378
139	0xbd4a81e7	-0.04944029
140	0xbc2e21c8	-0.010628171
141	0x3cc3133e	0.023812886
142	0xbd03599e	-0.032067887
143	0xbc8e9aba	-0.017407764
144	0xbd6c5f61	-0.057708148
145	0xbd0b971f	-0.034079667
146	0x3d37861b	0.044805627
147	0x3c07ae34	0.008281279
148	0xbd4b890c	-0.049691245
149	0xbcc316ec	-0.023814641
150	0x3c9c697a	0.019093264
151	0x3b578d70	0.00328907
152	0x3cbcd39a	0.023050118
153	0xbb0828f0	-0.0020776354
154	0xbc1c69a8	-0.009546675
155	0xbcb46988	-0.022022977
156	0x3d26d3f5	0.04072948
157	0xbd2a4b06	-0.041575454
158	0xbd2e93cf	-0.04262143
159	0x3c2ad09c	0.010425713
160	0x3c318b2c	0.010836404
161	0xbcdf5d2e	-0.027266111
162	0x3c08a6dc	0.008340564
163	0x3d133093	0.035934996
164	0x3d1a8007	0.037719753
165	0xbd3f0172	-0.046632238
166	0xbd533132	-0.05156059
167	0x3d35c6e5	0.044379134
168	0xbb976d68	-0.0046211965
169	0xbd25857c	-0.040410504
170	0x3cf4f6be	0.029902812
171	0x3ba4a0b8	0.005024042
172	0xbbb53118	-0.005529534
173	0xbd4684b0	-0.048466384
174	0x3d40f297	0.04710635
175	0x3cc8dd72	0.024519656
176	0x3d563187	0.052293327
177	0x3c47052c	0.012147229
178	0x390e7400	0.00013585389
179	0x3d64a7e7	0.055824187
180	0xbbc885f0	-0.006119482
181	0x3d5ece75	0.05439611
182	0x3d284037	0.041076865
183	0xb9c4a480	-0.00037506595
184	0xbc9a1eca	-0.01881351
185	0x3d009183	0.03138877
186	0xbbeaf558	-0.0071703605
187	0xbc2ebd0c	-0.0106651895
188	0xbd5daaa3	-0.05411781
189	0xbcb891a0	-0.022530377
190	0x3d2f551f	0.042805787
191	0x3b93fd68	0.0045162924
192	0xbd0f297e	-0.03495168
193	0xbbd6d430	-0.0065560564
194	0xbd3dae50	-0.046308815
195	0xbc1982e0	-0.009369582
196	0xbc9ef282	-0.019402746
197	0xbd238b4e	-0.039927773
198	0x3d5a2d8b	0.05326609
199	0x3d534f77	0.051589455
200	0x3d1e86bb	0.038702708
201	0xbd5fe19f	-0.05465853
202	0x3c14dc04	0.009085659
203	0xba4d7c80	-0.00078386813
204	0x3c84830e	0.016175773
205	0xba74cac0	-0.00093380734
206	0xbd41c010	-0.047302306
207	0x3d20df55	0.039275486
208	0xbc13e388	-0.009026416
209	0x3d66c597	0.05634078
210	0xbc81e156	-0.015854519
211	0x3d43d583	0.047811043
212	0x3bc9e218	0.0061609857
213	0x3d4c4c35	0.049877364
214	0xbd26ea58	-0.04075083
215	0xbd273877	-0.040825333
216	0x3c1ba7d4	0.009500463
217	0xbccbd69c	-0.024882607
218	0x3d188929	0.03724018
219	0xbcd06500	-0.025438786
220	0xbd0ec96a	-0.034860052
221	0xbd31551a	-0.04329405
222	0xbd1d626a	-0.038423933
223	0x3d4b4faf	0.04963654
224	0x3d29b723	0.04143442
225	0x3d300cbd	0.0429809
226	0xbd207c08	-0.039180785
227	0xbd2432b0	-0.040087402
228	0xbcdffeae	-0.02734312
229	0xbc83fcbe	-0.016111728
230	0xbd21732a	-0.03941647
231	0x3bd45a58	0.0064804964
232	0x3a8e19e0	0.0010841452
233	0xbad63540	-0.0016342774
234	0x3d59b463	0.053150546
235	0xbd126d3e	-0.035748713
236	0x3bdbfdd8	0.00671361
237	0x3cffb576	0.031214457
238	0xbb90ccc8	-0.004418943
239	0x3d4c3f01	0.049864773
240	0xbd42f71c	-0.047598943
241	0xbd6549f5	-0.055978734
242	0x3d074737	0.0330269
243	0xbd5ddd34	-0.054166034
244	0x3d444705	0.047919292
245	0x3d02bcb9	0.03191826
246	0xbc3d0458	-0.01153668
247	0x3bf14c68	0.0073638447
248	0x3d657e75	0.056028802
249	0xbd0f9d79	-0.035062287
250	0xbd29aee4	-0.041426554
251	0x3d62d567	0.055379298
252	0xbd58ccd7	-0.052929725
253	0x3d55a6b5	0.052160937
254	0x3cd7de0e	0.026351001
255	0x3cc95246	0.024575364

model.5.bias f4 [64]
0	0x3d4ebe01	0.05047417
1	0xbd4c0085	-0.049805183
2	0xbd16cb7a	-0.036815144
3	0xbce1b09e	-0.027550038
4	0xbc188284	-0.009308461
5	0x3c9823a2	0.018571679
6	0xbd057e4c	-0.03259115
7	0xbc859c36	-0.016309839
8	0x3d00cb1b	0.031443696
9	0x3d24e969	0.04026166
10	0xbce8e51c	-0.02842956
11	0x3d5436a5	0.051809926
12	0x3d6fc903	0.05854131
13	0x3c7753cc	0.015095662
14	0x3c13cb34	0.009020615
15	0xbd04fb30	-0.032466114
16	0xbd208966	-0.039193533
17	0x3d1ffdff	0.03906059
18	0x3bf85678	0.0075786673
19	0xbd49f174	-0.049302533
20	0xbd2b02a4	-0.041750565
21	0xbd4e784e	-0.0504077
22	0xbd0a9224	-0.033830777
23	0xbc82cea6	-0.015967678
24	0x3d7059bd	0.05867933
25	0x3d5cf369	0.05394307
26	0xbbf06558	-0.0073363
27	0x3d053a9f	0.03252661
28	0xbc0d2080	-0.008613706
29	0x3cc6f7da	0.024288107
30	0x3af22aa0	0.0018475838
31	0xbcbf643a	-0.023363221
32	0xbd1cfec2	-0.038328893
33	0xbd6a87ee	-0.05725854
34	0xbb0de4e0	-0.0021651313
35	0x3c68a9cc	0.014200639
36	0xbca2959a	-0.019846726
37	0xbcc7b89c	-0.02438002
38	0x3d5c1a4d	0.05373602
39	0xbcb51c36	-0.022108179
40	0x3ca44c0e	0.020055797
41	0x3bf43c78	0.0074534975
42	0xbcbe5984	-0.023236044
43	0x3d2de423	0.042453896
44	0x3d6b54d9	0.057453964
45	0xbc8b74d6	-0.017023485
46	0x3d25c07f	0.04046678
47	0xbbecfec0	-0.007232517
48	0xbc3ad268	-0.011402704
49	0xbd1577c6	-0.036491178
50	0x3c12eb24	0.008967195
51	0x3d5eeef5	0.054427106
52	0xbc9af3f4	-0.018915154
53	0x3d3e9b43	0.046534788
54	0x3d40c683	0.047064316
55	0xbc8ccf9c	-0.01718884
56	0x3bb6ada8	0.0055749007
57	0x3d4796a9	0.048727665
58	0xbccca7bc	-0.024982326
59	0x3d3e2b2f	0.0464279
60	0xbc29a580	-0.0103544
61	0xbc6dcb3c	-0.014513787
62	0xba423dc0	-0.0007409714
63	0xbcb9e6e8	-0.022693112

model.7.weight f4 [64]
0	0x3f800000	1.0
1	0x3f800000	1.0
2	0x3f800000	1.0
3	0x3f800000	1.0
4	0x3f800000	1.0
5	0x3f800000	1.0
6	0x3f800000	1.0
7	0x3f800000	1.0
8	0x3f800000	1.0
9	0x3f800000	1.0
10	0x3f800000	1.0
11	0x3f800000	1.0
12	0x3f800000	1.0
13	0x3f800000	1.0
14	0x3f800000	1.0
15	0x3f800000	1.0
16	0x3f800000	1.0
17	0x3f800000	1.0
18	0x3f800000	1.0
19	0x3f800000	1.0
20	0x3f800000	1.0
21	0x3f800000	1.0
22	0x3f800000	1.0
23	0x3f800000	1.0
24	0x3f800000	1.0
25	0x3f800000	1.0
26	0x3f800000	1.0
27	0x3f800000	1.0
28	0x3f800000	1.0
29	0x3f800000	1.0
30	0x3f800000	1.0
31	0x3f800000	1.0
32	0x3f800000	1.0
33	0x3f800000	1.0
34	0x3f800000	1.0
35	0x3f800000	1.0
36	0x3f800000	1.0
37	0x3f800000	1.0
38	0x3f800000	1.0
39	0x3f800000	1.0
40	0x3f800000	1.0
41	0x3f800000	1.0
42	0x3f800000	1.0
43	0x3f800000	1.0
44	0x3f800000	1.0
45	0x3f800000	1.0
46	0x3f800000	1.0
47	0x3f800000	1.0
48	0x3f800000	1.0
49	0x3f800000	1.0
50	0x3f800000	1.0
51	0x3f800000	1.0
52	0x3f800000	1.0
53	0x3f800000	1.0
54	0x3f800000	1.0
55	0x3f800000	1.0
56	0x3f800000	1.0
57	0x3f800000	1.0
58	0x3f800000	1.0
59	0x3f800000	1.0
60	0x3f800000	1.0
61	0x3f800000	1.0
62	0x3f800000	1.0
63	0x3f800000	1.0

model.7.bias f4 [64]
0	0x00000000	0.0
1	0x00000000	0.0
2	0x00000000	0.0
3	0x00000000	0.0
4	0x00000000	0.0
5	0x00000000	0.0
6	0x00000000	0.0
7	0x00000000	0.0
8	0x00000000	0.0
9	0x00000000	0.0
10	0x00000000	0.0
11	0x00000000	0.0
12	0x00000000	0.0
13	0x00000000	0.0
14	0x00000000	0.0
15	0x00000000	0.0
16	0x00000000	0.0
17	0x00000000	0.0
18	0x00000000	0.0
19	0x00000000	0.0
20	0x00000000	0.0
21	0x00000000	0.0
22	0x00000000	0.0
23	0x00000000	0.0
24	0x00000000	0.0
25	0x00000000	0.0
26	0x00000000	0.0
27	0x00000000	0.0
28	0x00000000	0.0
29	0x00000000	0.0
30	0x00000000	0.0
31	0x00000000	0.0
32	0x00000000	0.0
33	0x00000000	0.0
34	0x00000000	0.0
35	0x00000000	0.0
36	0x00000000	0.0
37	0x00000000	0.0
38	0x00000000	0.0
39	0x00000000	0.0
40	0x00000000	0.0
41	0x00000000	0.0
42	0x00000000	0.0
43	0x00000000	0.0
44	0x00000000	0.0
45	0x00000000	0.0
46	0x00000000	0.0
47	0x00000000	0.0
48	0x00000000	0.0
49	0x00000000	0.0
50	0x00000000	0.0
51	0x00000000	0.0
52	0x00000000	0.0
53	0x00000000	0.0
54	0x00000000	0.0
55	0x00000000	0.0
56	0x00000000	0.0
57	0x00000000	0.0
58	0x00000000	0.0
59	0x00000000	0.0
60	0x00000000	0.0
61	0x00000000	0.0
62	0x00000000	0.0
63	0x00000000	0.0

model.8.weight f4 [128, 64, 3, 3]
0	0xbcabd1f8	-0.020974144
1	0xbc0ce410	-0.008599296
2	0x3c1cf5a4	0.00958005
3	0xbbbf82f8	-0.00584447
4	0x3ceb612a	0.028732855
5	0x3d20bd2f	0.03924292
6	0xbd14a36e	-0.03628867
7	0x3cfa45fa	0.030550946
8	0xbcb54fc6	-0.022132766
9	0xbd0924f4	-0.033482507
10	0xbcff2a78	-0.03114818
11	0x3cba741e	0.022760447
12	0x3b25ca70	0.0025297664
13	0xbcd4c7e3	-0.02597422
14	0xbcb08ce6	-0.02155156
15	0x3abca220	0.0014391579
16	0xbca2df06	-0.019881736
17	0xbce93448	-0.028467312
18	0x3d25d8e5	0.04049005
19	0xbc5df0fc	-0.013546225
20	0x3cb13622	0.021632258
21	0x3cf2183a	0.029552568
22	0xbc3fffe0	-0.01171872
23	0x3c879a52	0.016553078
24	0x3d19abfb	0.03751753
25	0xbbf53ce0	-0.0074840635
26	0x3cf9c29e	0.030488309
27	0x3ccb068a	0.024783392
28	0x3ce01e42	0.027358178
29	0x3b0a50d0	0.0021105297
30	0x3d22854b	0.0396779
31	0xbd1dcfaf	-0.03852814
32	0xbd22d666	-0.039755248
33	0x3ca06350	0.019578606
34	0xbd1e8762	-0.03870333
35	0x3b285ec0	0.002569124
36	0x3b9296f8	0.0044735633
37	0xbcfe937e	-0.03107619
38	0xbcb969e8	-0.022633508
39	0x3bc853c0	0.0061134994
40	0x3ca2dbf8	0.01988028
41	0x3be25e00	0.0069081783
42	0x3d1b282d	0.03788011
43	0xbd18f2bc	-0.037340865
44	0xbcf5077e	-0.0299108
45	0xbb296d10	-0.002585236
46	0xbc52d566	-0.012868261
47	0x3cbcb63a	0.023036111
48	0x3c0ec61c	0.008714225
49	0xbd1f5a24	-0.038904324
50	0xbbf64478	-0.0075154863
51	0xbd1ea280	-0.03872919
52	0x3b9f9228	0.004869718
53	0xbcf51848	-0.029918805
54	0xbca12c9e	-0.019674595
55	0x3cf87132	0.030327413
56	0x3cf3ce52	0.029761467
57	0x3b6d9040	0.003624931
58	0xbcc45376	-0.023965579
59	0xbc74ed26	-0.014949119
60	0x3b713e10	0.0036810674
61	0xbc4636ac	-0.012097996
62	0xbbb474f8	-0.005507108
63	0x3d0398dd	0.032128204
64	0xbcecc316	-0.028901618
65	0xbbf38e78	-0.007432755
66	0xbc79c46c	-0.0152445845
67	0x3d262f41	0.04057241
68	0x3abdc380	0.0014477819
69	0x3cc723da	0.024309088
70	0x3cff279a	0.031146813
71	0x3bba8a80	0.00569278
72	0x3d26c689	0.04071668
73	0xbcd836f3	-0.02639339
74	0xbc556716	-0.013025066
75	0x3c8ab31a	0.016931105
76	0xbc07d084	-0.00828946
77	0x3d02130f	0.031756457
78	0xbd07de07	-0.033170726
79	0xbc6857ec	-0.014181118
80	0xbd28370e	-0.04106813
81	0xbc055104	-0.008136991
82	0xbb53e2f0	-0.003233131
83	0x3cb32c62	0.02187175
84	0xbcf43fd3	-0.02981559
85	0x3c7dc054	0.015487749
86	0x3cbaa706	0.022784721
87	0xbd11ed1f	-0.035626527
88	0x3d14bed3	0.036314797
89	0x3bbee688	0.0058258213
90	0xbd1d65b8	-0.038427085
91	0xbc748106	-0.01492334
92	0x3c44fbcc	0.012022924
93	0xbc64d386	-0.013966447
94	0xbc146014	-0.00905611
95	0xbce38e48	-0.027777806
96	0xbc973dc6	-0.018462073
97	0x3c1c4b04	0.0095393695
98	0x3c968f7a	0.018378962
99	0x3caffc1e	0.021482524
100	0x3c59a804	0.013284687
101	0xbcc81a6e	-0.024426665
102	0x3d1f9f05	0.038970012
103	0x3d06b8a3	0.032890927
104	0x3d13e155	0.036103565
105	0x3c8412b6	0.016122203
106	0xbd0d5602	-0.03450585
107	0x3d177fb1	0.03698701
108	0x3d201b85	0.039088745
109	0xbd220d7b	-0.039563637
110	0x3c927c6a	0.01788159
111	0x3bfc04a8	0.0076909848
112	0x3d20af91	0.039229933
113	0xbcd02bf6	-0.025411587
114	0x3d139913	0.036034655
115	0xbc7ce1c0	-0.015434682
116	0xbd069dae	-0.03286522
117	0xbd0b6cba	-0.034039237
118	0xbb3202c0	-0.0027162284
119	0xbafb5700	-0.0019175708
120	0xbd061194	-0.032731608
121	0x3cbbc21a	0.022919703
122	0x3d268f59	0.04066405
123	0xbb2590b0	-0.0025263242
124	0xbc89fb9e	-0.016843613
125	0x3ac0ab80	0.0014699548
126	0xbb8e9ce0	-0.004352197
127	0xbc129280	-0.008946061
128	0x3c5619a0	0.013067633
129	0xbc7ebb76	-0.015547624
130	0x3d0620c3	0.032746088
131	0x3d0e081b	0.0346757
132	0x3cd4c81a	0.025974322
133	0xbd277f13	-0.04089267
134	0x3c2e6d54	0.010646183
135	0x3c2f4c70	0.010699376
136	0x3cc8aa82	0.024495367
137	0x3d134703	0.035956394
138	0x3c4e20fc	0.012581106
139	0xbc40a67c	-0.011758443
140	0xbcd13200	-0.025536537
141	0xbc120dc4	-0.008914415
142	0x3d196621	0.037450913
143	0x3b61de70	0.0034464858
144	0xbcde0688	-0.027102724
145	0x3c85f4a6	0.016352009
146	0x3d1d10b7	0.03834602
147	0xbce5adf6	-0.028037053
148	0xbc844848	-0.016147748
149	0x3d27b12f	0.04094046
150	0xbc5d8ecc	-0.013522815
151	0x3cfc8cb2	0.030828808
152	0xbd0e8ac2	-0.0348003
153	0x3d0536d9	0.03252301
154	0x3c1c7200	0.009548664
155	0x3ca1a608	0.01973249
156	0xbcaf0e00	-0.02136898
157	0x3c4279f4	0.011869896
158	0xbcabe4a6	-0.020983052
159	0xbcf792d6	-0.030221384
160	0x3d294cb1	0.041332904
161	0xbb8a0a68	-0.0042126663
162	0x3ca7e002	0.020492557
163	0x3cf75442	0.030191544
164	0xbcc8a313	-0.024491822
165	0xbce87858	-0.028377697
166	0xbbc35688	-0.005961243
167	0xbcf6a6fb	-0.03010892
168	0x3cb53766	0.022121143
169	0x3cba8b56	0.022771519
170	0x3c096294	0.008385319
171	0x3cd448a2	0.02591354
172	0xbc45adc0	-0.012065351
173	0xbcc64823	-0.02420432
174	0x3baacd00	0.005212426
175	0xbd1b9bff	-0.037990566
176	0x3ca19c82	0.019727949
177	0xbcb79a76	-0.02241252
178	0xbcf3ed18	-0.029776141
179	0xbcd19e90	-0.025588304
180	0xbd267bf0	-0.04064554
181	0x3bb366f8	0.0054749213
182	0xbcea9a83	-0.02863813
183	0x3cb1c1c6	0.021698844
184	0xbccf3be6	-0.025297116
185	0x3c8ab1d8	0.016930506
186	0xbd013bdb	-0.031551223
187	0x3ccf628e	0.02531555
188	0xbcd29bee	-0.025709119
189	0x3c862ac8	0.016377822
190	0xbbb03968	-0.005377937
191	0x3d1d9141	0.038468603
192	0x3c8e5882	0.017376188
193	0xbd0cb422	-0.034351476
194	0xbd1c5ffb	-0.03817747
195	0x3cff180e	0.0311394
196	0x3afdbe20	0.001935903
197	0x3cd33a42	0.025784615
198	0xb90e0c00	-0.00013546646
199	0x3cae3c3a	0.021268953
200	0x3d0c020d	0.034181643
201	0xbce19ed3	-0.027541554
202	0xbc274a70	-0.010210618
203	0x3ce719fe	0.028210636
204	0xbc3476fc	-0.011014696
205	0xbd218c02	-0.039440162
206	0xb992cc00	-0.00027999282
207	0xbcd6115e	-0.026131328
208	0x3cbfe2e2	0.023423616
209	0x3cff7e4a	0.031188149
210	0x3ca03282	0.019555334
211	0x3c74d81c	0.014944103
212	0x3ca148ca	0.019688029
213	0x3d1de1c3	0.03854538
214	0x3be2e178	0.0069238506
215	0x3ce9ec56	0.028555077
216	0x3c5dfdb0	0.013549253
217	0x3cda1a92	0.026623998
218	0x3c06058c	0.008180033
219	0xbc7f0b8c	-0.015566718
220	0x3d18c6b5	0.037298877
221	0xbd20d6aa	-0.03926722
222	0xbcf2dba6	-0.029645752
223	0xbd03ad4f	-0.0321477
224	0xbc600830	-0.013673827
225	0xbcf9041b	-0.030397465
226	0xbc8adf76	-0.016952258
227	0xbd21748e	-0.039417796
228	0xbc13f63c	-0.009030875
229	0xbba2da28	-0.004969854
230	0x3bbde5e8	0.005795229
231	0xbd08f0b7	-0.03343269
232	0x3d06d431	0.032917205
233	0x3c0ea8b4	0.008707214
234	0xbbac7e38	-0.00526407
235	0xbc7dcda6	-0.015490925
236	0xbcea15c6	-0.028574836
237	0xbd1436d4	-0.0361851
238	0x3d0bb00f	0.03410345
239	0xbcbc3f96	-0.022979539
240	0xbd1b6a12	-0.037942953
241	0x3cbd881a	0.023136187
242	0xbcfbee6b	-0.030753335
243	0x3c8befb8	0.01708208
244	0x3c8ebbce	0.017423537
245	0xbb875280	-0.004129708
246	0xbcae96e0	-0.021312177
247	0xbc989c3b	-0.018629184
248	0x3ceffd5e	0.02929562
249	0x3caffc12	0.021482501
250	0x3c3162c4	0.01082677
251	0x3c4c3f60	0.012466282
252	0xbc4200cc	-0.01184101
253	0x3d0864dd	0.033299316
254	0x3d04c06f	0.03241008
255	0xbb6533b0	-0.0034973435

model.8.bias f4 [128]
0	0x3ce7d67a	0.028300513
1	0xbd0652de	-0.032793872
2	0x3c2cdb7c	0.010550376
3	0x3ad766e0	0.0016433857
4	0xbcad55d8	-0.021159098
5	0xbc98d21e	-0.01865488
6	0x3c43213c	0.011909779
7	0xbd17582a	-0.036949314
8	0xbb6c2670	-0.0036033653
9	0xbc942603	-0.018084532
10	0x3cbd672e	0.023120489
11	0xbcb4a79b	-0.022052577
12	0xbb812b20	-0.0039419085
13	0x3cc7387e	0.02431893
14	0xbaa99200	-0.0012937188
15	0x3c2565cc	0.010095071
16	0xbbb25f20	-0.0054434687
17	0x3caa73c0	0.020807147
18	0xbd06f16f	-0.032945093
19	0xbd0b9388	-0.034076244
20	0x3d27044d	0.040775586
21	0xbcac68f3	-0.021046137
22	0x3d213811	0.03936011
23	0x3cbe4ea6	0.023230862
24	0xbd13fd83	-0.03613044
25	0xbaa50e20	-0.001259271
26	0xbc1ec8e4	-0.009691451
27	0xbcdd7668	-0.027034
28	0xbb33e480	-0.002744943
29	0xba6ba140	-0.00089885667
30	0xbc91dd4e	-0.017805722
31	0xbd0fc558	-0.03510031
32	0x3c8fd5b2	0.017557953
33	0xbccf2c9b	-0.025289824
34	0xbce3de28	-0.027815893
35	0xbc7c56bc	-0.015401538
36	0xbcba37ee	-0.022731747
37	0x3a57dd40	0.0008234568
38	0xbc0e0ff0	-0.008670792
39	0x3a95aa80	0.0011418611
40	0x3970b800	0.00022956729
41	0x3caf4322	0.021394316
42	0xbbf5d6e8	-0.0075024255
43	0x3c33ecf4	0.010981787
44	0x3c90e31e	0.017686423
45	0xbcdb82c0	-0.026795745
46	0x3ccaacfa	0.024740685
47	0xbc05d274	-0.008167852
48	0xbc87f210	-0.016594917
49	0xbcf73d33	-0.03018055
50	0xbd08d28e	-0.033403926
51	0xbcad4db8	-0.021155223
52	0xbd29b07a	-0.041428067
53	0x3c870568	0.01648207
54	0x3d0f6503	0.03500844
55	0xbc34459c	-0.011002924
56	0xbd0a133e	-0.033709757
57	0xbcc76f7e	-0.024345156
58	0xbb379ec0	-0.0028018206
59	0x3d1a87a1	0.037727002
60	0x3cf8efe2	0.030387823
61	0xbc88f53b	-0.016718497
62	0xbb843408	-0.004034523
63	0xbcd1bdd3	-0.02560321
64	0xbcd893a0	-0.02643758
65	0xbcd6b440	-0.026208997
66	0x3d2386e9	0.039923582
67	0x3b823e20	0.003974691
68	0x3cb46dde	0.022025045
69	0x3d2193c3	0.039447557
70	0x3cf4c23a	0.02987777
71	0xbd15c1c2	-0.036561735
72	0xbc7924c0	-0.015206516
73	0xbcdfada8	-0.027304485
74	0x3d0f4bbb	0.03498433
75	0xbca7c4d0	-0.02047959
76	0x3d11d041	0.035598997
77	0x3d16c1c3	0.03680588
78	0x3c8f1612	0.017466579
79	0x3d0e1ae9	0.034693632
80	0xbc7d565c	-0.015462484
81	0x3c576524	0.013146672
82	0x3cd6d5f2	0.026225064
83	0xbcf5fdf8	-0.030028328
84	0xbc90bbd0	-0.017667681
85	0xbc92d97b	-0.017925968
86	0xbc30d76c	-0.010793548
87	0xbcb596cb	-0.02216663
88	0x3bf85c40	0.0075793564
89	0xbd15e292	-0.036593027
90	0xbb9ca2f8	-0.0047801696
91	0xbc4aa28c	-0.012367856
92	0x3c0dbee0	0.008651465
93	0x3ce3ecca	0.02782287
94	0xbbce5668	-0.0062969215
95	0xbcf8b8c3	-0.030361539
96	0xb9b1f880	-0.00033945218
97	0x3d217045	0.03941371
98	0xbc98e9f3	-0.018666243
99	0x3c970ae2	0.018437807
100	0xbd0915fb	-0.033468228
101	0x3c2332cc	0.009960841
102	0xbb577a90	-0.003287945
103	0xbd1cb47f	-0.038258072
104	0xbaab3680	-0.0013062507
105	0x3ab96d60	0.0014146976
106	0xbc565cf6	-0.013083687
107	0x3d0e2435	0.0347025
108	0x3c971ad2	0.018445406
109	0xbc5e82f6	-0.013581028
110	0x3c57751c	0.01315048
111	0xbc9756d8	-0.018474028
112	0x3d0b6eab	0.034041088
113	0x3d18d559	0.03731284
114	0xba194100	-0.00058461726
115	0x3b316440	0.002706781
116	0x3d12f1d7	0.035875168
117	0xbca4b248	-0.020104542
118	0x3d1076b5	0.035269458
119	0x3c0512f0	0.008122191
120	0x3cc4e972	0.024037097
121	0xbd1df550	-0.038564026
122	0x3d222a99	0.039591406
123	0xbb9204a8	-0.0044561215
124	0x3c0add8c	0.008475672
125	0x3c9fac00	0.019491196
126	0x3bc54608	0.0060203113
127	0xbd1fa976	-0.03897997

model.10.weight f4 [128]
0	0x3f800000	1.0
1	0x3f800000	1.0
2	0x3f800000	1.0
3	0x3f800000	1.0
4	0x3f800000	1.0
5	0x3f800000	1.0
6	0x3f800000	1.0
7	0x3f800000	1.0
8	0x3f800000	1.0
9	0x3f800000	1.0
10	0x3f800000	1.0
11	0x3f800000	1.0
12	0x3f800000	1.0
13	0x3f800000	1.0
14	0x3f800000	1.0
15	0x3f800000	1.0
16	0x3f800000	1.0
17	0x3f800000	1.0
18	0x3f800000	1.0
19	0x3f800000	1.0
20	0x3f800000	1.0
21	0x3f800000	1.0
22	0x3f800000	1.0
23	0x3f800000	1.0
24	0x3f800000	1.0
25	0x3f800000	1.0
26	0x3f800000	1.0
27	0x3f800000	1.0
28	0x3f800000	1.0
29	0x3f800000	1.0
30	0x3f800000	1.0
31	0x3f800000	1.0
32	0x3f800000	1.0
33	0x3f800000	1.0
34	0x3f800000	1.0
35	0x3f800000	1.0
36	0x3f800000	1.0
37	0x3f800000	1.0
38	0x3f800000	1.0
39	0x3f800000	1.0
40	0x3f800000	1.0
41	0x3f800000	1.0
42	0x3f800000	1.0
43	0x3f800000	1.0
44	0x3f800000	1.0
45	0x3f800000	1.0
46	0x3f800000	1.0
47	0x3f800000	1.0
48	0x3f800000	1.0
49	0x3f800000	1.0
50	0x3f800000	1.0
51	0x3f800000	1.0
52	0x3f800000	1.0
53	0x3f800000	1.0
54	0x3f800000	1.0
55	0x3f800000	1.0
56	0x3f800000	1.0
57	0x3f800000	1.0
58	0x3f800000	1.0
59	0x3f800000	1.0
60	0x3f800000	1.0
61	0x3f800000	1.0
62	0x3f800000	1.0
63	0x3f800000	1.0
64	0x3f800000	1.0
65	0x3f800000	1.0
66	0x3f800000	1.0
67	0x3f800000	1.0
68	0x3f800000	1.0
69	0x3f800000	1.0
70	0x3f800000	1.0
71	0x3f800000	1.0
72	0x3f800000	1.0
73	0x3f800000	1.0
74	0x3f800000	1.0
75	0x3f800000	1.0
76	0x3f800000	1.0
77	0x3f800000	1.0
78	0x3f800000	1.0
79	0x3f800000	1.0
80	0x3f800000	1.0
81	0x3f800000	1.0
82	0x3f800000	1.0
83	0x3f800000	1.0
84	0x3f800000	1.0
85	0x3f800000	1.0
86	0x3f800000	1.0
87	0x3f800000	1.0
88	0x3f800000	1.0
89	0x3f800000	1.0
90	0x3f800000	1.0
91	0x3f800000	1.0
92	0x3f800000	1.0
93	0x3f800000	1.0
94	0x3f800000	1.0
95	0x3f800000	1.0
96	0x3f800000	1.0
97	0x3f800000	1.0
98	0x3f800000	1.0
99	0x3f800000	1.0
100	0x3f800000	1.0
101	0x3f800000	1.0
102	0x3f800000	1.0
103	0x3f800000	1.0
104	0x3f800000	1.0
105	0x3f800000	1.0
106	0x3f800000	1.0
107	0x3f800000	1.0
108	0x3f800000	1.0
109	0x3f800000	1.0
110	0x3f800000	1.0
111	0x3f800000	1.0
112	0x3f800000	1.0
113	0x3f800000	1.0
114	0x3f800000	1.0
115	0x3f800000	1.0
116	0x3f800000	1.0
117	0x3f800000	1.0
118	0x3f800000	1.0
119	0x3f800000	1.0
120	0x3f800000	1.0
121	0x3f800000	1.0
122	0x3f800000	1.0
123	0x3f800000	1.0
124	0x3f800000	1.0
125	0x3f800000	1.0
126	0x3f800000	1.0
127	0x3f800000	1.0

model.10.bias f4 [128]
0	0x00000000	0.0
1	0x00000000	0.0
2	0x00000000	0.0
3	0x00000000	0.0
4	0x00000000	0.0
5	0x00000000	0.0
6	0x00000000	0.0
7	0x00000000	0.0
8	0x00000000	0.0
9	0x00000000	0.0
10	0x00000000	0.0
11	0x00000000	0.0
12	0x00000000	0.0
13	0x00000000	0.0
14	0x00000000	0.0
15	0x00000000	0.0
16	0x00000000	0.0
17	0x00000000	0.0
18	0x00000000	0.0
19	0x00000000	0.0
20	0x00000000	0.0
21	0x00000000	0.0
22	0x00000000	0.0
23	0x00000000	0.0
24	0x00000000	0.0
25	0x00000000	0.0
26	0x00000000	0.0
27	0x00000000	0.0
28	0x00000000	0.0
29	0x00000000	0.0
30	0x00000000	0.0
31	0x00000000	0.0
32	0x00000000	0.0
33	0x00000000	0.0
34	0x00000000	0.0
35	0x00000000	0.0
36	0x00000000	0.0
37	0x00000000	0.0
38	0x00000000	0.0
39	0x00000000	0.0
40	0x00000000	0.0
41	0x00000000	0.0
42	0x00000000	0.0
43	0x00000000	0.0
44	0x00000000	0.0
45	0x00000000	0.0
46	0x00000000	0.0
47	0x00000000	0.0
48	0x00000000	0.0
49	0x00000000	0.0
50	0x00000000	0.0
51	0x00000000	0.0
52	0x00000000	0.0
53	0x00000000	0.0
54	0x00000000	0.0
55	0x00000000	0.0
56	0x00000000	0.0
57	0x00000000	0.0
58	0x00000000	0.0
59	0x00000000	0.0
60	0x00000000	0.0
61	0x00000000	0.0
62	0x00000000	0.0
63	0x00000000	0.0
64	0x00000000	0.0
65	0x00000000	0.0
66	0x00000000	0.0
67	0x00000000	0.0
68	0x00000000	0.0
69	0x00000000	0.0
70	0x00000000	0.0
71	0x00000000	0.0
72	0x00000000	0.0
73	0x00000000	0.0
74	0x00000000	0.0
75	0x00000000	0.0
76	0x00000000	0.0
77	0x00000000	0.0
78	0x00000000	0.0
79	0x00000000	0.0
80	0x00000000	0.0
81	0x00000000	0.0
82	0x00000000	0.0
83	0x00000000	0.0
84	0x00000000	0.0
85	0x00000000	0.0
86	0x00000000	0.0
87	0x00000000	0.0
88	0x00000000	0.0
89	0x00000000	0.0
90	0x00000000	0.0
91	0x00000000	0.0
92	0x00000000	0.0
93	0x00000000	0.0
94	0x00000000	0.0
95	0x00000000	0.0
96	0x00000000	0.0
97	0x00000000	0.0
98	0x00000000	0.0
99	0x00000000	0.0
100	0x00000000	0.0
101	0x00000000	0.0
102	0x00000000	0.0
103	0x00000000	0.0
104	0x00000000	0.0
105	0x00000000	0.0
106	0x00000000	0.0
107	0x00000000	0.0
108	0x00000000	0.0
109	0x00000000	0.0
110	0x00000000	0.0
111	0x00000000	0.0
112	0x00000000	0.0
113	0x00000000	0.0
114	0x00000000	0.0
115	0x00000000	0.0
116	0x00000000	0.0
117	0x00000000	0.0
118	0x00000000	0.0
119	0x00000000	0.0
120	0x00000000	0.0
121	0x00000000	0.0
122	0x00000000	0.0
123	0x00000000	0.0
124	0x00000000	0.0
125	0x00000000	0.0
126	0x00000000	0.0
127	0x00000000	0.0

classification_layer.0.weight f4 [1, 512]
0	0xbc2ba65c	-0.010476675
1	0x3c9fc1ae	0.019501533
2	0xbcc11211	-0.023568185
3	0xbd130e04	-0.03590204
4	0x3d041c27	0.03225341
5	0x3cef516a	0.029213626
6	0xbd19f708	-0.037589103
7	0x3cc9d7c6	0.024639022
8	0xbc2de628	-0.010613956
9	0x3ac31b80	0.0014885515
10	0xbb8fcb80	-0.0043882728
11	0xbc116558	-0.00887426
12	0xbd0f3b07	-0.034968402
13	0x3ca87a76	0.020566206
14	0x3cb0b4ee	0.021570649
15	0x3c1a027c	0.009400006
16	0x3cb5ed3a	0.022207845
17	0xbd2621d5	-0.04055961
18	0x3c948b06	0.018132698
19	0x3cb405d2	0.021975432
20	0x3d0b7f2d	0.03405683
21	0x3cab07fe	0.020877834
22	0x3cc74d62	0.024328891
23	0xbbea2600	-0.0071456432
24	0x3d00f1ed	0.03148072
25	0xbc800e44	-0.015631802
26	0x3c80c66e	0.015719619
27	0xba2ae400	-0.000651896
28	0x3c99a216	0.018754046
29	0x3a96dd80	0.0011510104
30	0xbcebf4ce	-0.028803255
31	0xbc935724	-0.017985888
32	0xbc598650	-0.0132766515
33	0x3c692084	0.014228944
34	0xbcf12f54	-0.029441513
35	0xbd1b2563	-0.03787745
36	0xbbed7de0	-0.0072476715
37	0xbc900f33	-0.017585373
38	0x3c47f90c	0.0122053735
39	0xbc6c7b14	-0.014433641
40	0x3d064c7b	0.03278778
41	0x3b676a20	0.0035311058
42	0xbc2b0d24	-0.010440145
43	0xbc28b148	-0.010296173
44	0xbac3b360	-0.0014930777
45	0x3a695200	0.00089004636
46	0xbcb5521d	-0.022133881
47	0x3bbaee78	0.005704697
48	0x3d209f1f	0.03921425
49	0x3d27320d	0.040819217
50	0x3b943b80	0.0045236945
51	0xbd20292f	-0.039101776
52	0x3c43ac04	0.011942867
53	0xbb84a778	-0.004048284
54	0x3c42de34	0.011893798
55	0xbc38d2e0	-0.011280745
56	0x3d11080d	0.03540807
57	0xbccccada	-0.02499907
58	0xbb919850	-0.004443206
59	0xbce99997	-0.02851562
60	0x3cbbe53a	0.022936452
61	0xbd2afe03	-0.04174615
62	0xbd118413	-0.035526346
63	0xbadd7e00	-0.0016898513
64	0x3ca89982	0.02058101
65	0xb95b9700	-0.0002094172
66	0xbb761de0	-0.0037554428
67	0x3bd81698	0.0065944903
68	0x3cf772ce	0.03020611
69	0xbd284b83	-0.04108764
70	0xbce439e7	-0.027859641
71	0x3ba1a368	0.0049328096
72	0x3cfcd1ba	0.030861724
73	0xbc809bc4	-0.015699275
74	0x3cf77bae	0.030210342
75	0xbd029ab7	-0.03188583
76	0x3b2e6260	0.002660893
77	0xbcc71e09	-0.024306314
78	0x3c2c5a40	0.010519564
79	0x3d1d2499	0.03836498
80	0xbcfd7ebf	-0.030944226
81	0xbd04fe24	-0.03246893
82	0x3c3913a0	0.011296183
83	0x3ca14b26	0.019689154
84	0x3c333c0c	0.010939609
85	0x3cb4d6d6	0.022075098
86	0xbd030764	-0.03198947
87	0x3c09380c	0.008375179
88	0x3bc0b300	0.0058807135
89	0x3c0b7134	0.008510876
90	0xbb92c8a8	-0.0044794865
91	0xbbeaab58	-0.007161539
92	0x3cdc9642	0.026927117
93	0xbc2d3c9c	-0.010573532
94	0x3d0a7e5b	0.03381191
95	0xbd2b7edd	-0.041869033
96	0x3c4ce0ec	0.012504797
97	0xbbeb73d8	-0.0071854405
98	0x3c95a2b6	0.018266063
99	0x3d0c1bab	0.034206074
100	0xbccfc750	-0.025363594
101	0x3c0a3010	0.008434311
102	0xbca90509	-0.020632284
103	0xbcc0509e	-0.023475941
104	0x3c247b38	0.010039143
105	0x3d0bc835	0.03412648
106	0xbd1c8304	-0.038210884
107	0x3d159f05	0.036528606
108	0xbc815093	-0.015785491
109	0x3bfd33c8	0.00772712
110	0x3c217fa0	0.009857088
111	0xbd0df1b1	-0.034654323
112	0x3c3b957c	0.011449214
113	0xbd31d38a	-0.04341463
114	0xbc50c030	-0.012741134
115	0x3d057075	0.03257795
116	0x3d28153b	0.041035872
117	0xbcc3b251	-0.023888739
118	0x3c8d1462	0.017221633
119	0xbcf1a1e6	-0.029496145
120	0xbbeac1c0	-0.00716421
121	0x3c506a90	0.012720719
122	0xbd2c5b6c	-0.042079374
123	0xbbfa31c8	-0.007635329
124	0x3b86e4f8	0.0041166507
125	0x3c3b6504	0.011437658
126	0xbcf2a80c	-0.029621147
127	0xbc81f100	-0.015861988
128	0xbcb96a5b	-0.022633722
129	0x3bf7ff18	0.0075682513
130	0x3ccd48de	0.02505916
131	0x3d20f7ed	0.03929894
132	0x3c984fbe	0.018592712
133	0xbd0b1c87	-0.033962753
134	0xbc180694	-0.009278912
135	0xbbdd2fb0	-0.0067500696
136	0xbd0ff346	-0.035144113
137	0xbd2d01ba	-0.042237975
138	0x3bab0460	0.0052190274
139	0x3d0d4cb9	0.034496997
140	0xbd2a9b00	-0.041651726
141	0x3c9a4fc2	0.01883686
142	0x3bec7b08	0.007216815
143	0x3d1b1361	0.037860278
144	0x3c155be0	0.009116143
145	0xbcb94ff3	-0.02262113
146	0xbba00210	-0.0048830584
147	0xbc18f320	-0.009335309
148	0x3d2da889	0.042397056
149	0xbba836a8	-0.0051334687
150	0xbcf46789	-0.029834526
151	0x3d121f2d	0.035674263
152	0xbd27c24e	-0.040956788
153	0xbcc71f46	-0.024306905
154	0xbc074854	-0.00825699
155	0x3d2f15cd	0.0427454
156	0x3cf0b0b6	0.029381137
157	0x3d0a2235	0.03372403
158	0x3d2f4507	0.04279044
159	0x3d302457	0.043003406
160	0xbd28626c	-0.041109487
161	0x3bd2b5d0	0.006430365
162	0xbd2ec3a7	-0.042667057
163	0x3ba57cb8	0.005050268
164	0x3c1b4a34	0.009478141
165	0x3d2faf01	0.042891506
166	0x3cbb1b82	0.022840265
167	0xbd2b7751	-0.041861836
168	0xbb653c00	-0.003497839
169	0x3c800134	0.015625574
170	0xbcf1c9dc	-0.0295152
171	0xbd2a249f	-0.04153883
172	0xbb96d700	-0.0046032667
173	0x3c1addc0	0.009452283
174	0xbcf41024	-0.029792853
175	0xbca80fc7	-0.020515336
176	0x3a295800	0.00064599514
177	0xbd2c3301	-0.04204083
178	0xbd0014ec	-0.031269953
179	0xbc0332f0	-0.00800775
180	0xbd33a2f3	-0.043856572
181	0xbcaf622a	-0.021409113
182	0x3b3b0220	0.0028535202
183	0x3d2ccd1f	0.042187806
184	0x3cfd2682	0.030902151
185	0x3cd64b7e	0.026159044
186	0xbc0bf384	-0.008541945
187	0x3d298871	0.041389886
188	0xbcf6925c	-0.030099086
189	0xbc0434a0	-0.008069187
190	0xbc67081c	-0.0141010545
191	0x3b9071f8	0.0044081174
192	0xbc70b4f4	-0.01469158
193	0x3c4fed08	0.01269079
194	0xbcb061e2	-0.02153105
195	0xbd334868	-0.043770224
196	0xbcaf4b7e	-0.021398302
197	0xbca94633	-0.020663356
198	0x3cbe6206	0.0232401
199	0x3921e500	0.00015439466
200	0x3d32b40f	0.04362875
201	0x3ba138b8	0.0049200915
202	0x3ca713f2	0.020395253
203	0x3c08773c	0.008329209
204	0xbce9e534	-0.028551675
205	0x3c7580f8	0.014984362
206	0xbd0b26da	-0.0339726
207	0xbd0afef4	-0.03393455
208	0x3cd5b0de	0.026085313
209	0xbb316470	-0.0027067922
210	0xbd24d25f	-0.040239688
211	0x3cb2c4c6	0.021822345
212	0xbcf59de4	-0.029982515
213	0x3c8b8f0e	0.017035987
214	0xbc91bf54	-0.017791428
215	0x3c3a0640	0.011354029
216	0x3d2b9799	0.04189262
217	0x3c846486	0.016161215
218	0xbc39b98c	-0.011335742
219	0x3d09c515	0.033635218
220	0xbcfa40c8	-0.030548468
221	0x3c938534	0.018007852
222	0x3c5a6cb4	0.013331581
223	0xbd14d8de	-0.036339633
224	0xbd0c7016	-0.03428658
225	0xbaac7e80	-0.0013160259
226	0xbd0aef77	-0.033919778
227	0x3c88c59e	0.016695794
228	0x3c522138	0.012825303
229	0x3ce3427a	0.02774166
230	0xbc26f3fc	-0.010190006
231	0xbd30ad99	-0.043134306
232	0x3cdb6b9e	0.026784714
233	0x3ba4eb20	0.005032912
234	0x3cb91546	0.022593152
235	0x3d32cc09	0.043651614
236	0xbd323d24	-0.04351534
237	0xbce3d9ab	-0.027813753
238	0xbc9b6bf0	-0.018972367
239	0x3cd45d8e	0.025923517
240	0x3cabd866	0.02097721
241	0xbc53511c	-0.012897756
242	0x3a508f40	0.0007955916
243	0x3ccf403a	0.02529918
244	0xbce4264d	-0.027850294
245	0xbcec5fd8	-0.028854296
246	0xbccfeba9	-0.025380926
247	0xbd27a726	-0.04093089
248	0x3d334315	0.043765146
249	0xbbc4b120	-0.0060025603
250	0x3d2b5a67	0.04183426
251	0xbd2823c4	-0.041049734
252	0x3cfddac6	0.030988108
253	0xbc635568	-0.013875343
254	0x3d1c1989	0.03811029
255	0x3d121c93	0.03567178
