Lab4/models/gan_models/ls_20e_250b_dis.pth (torch, 402522 bytes, 21 tensors)

model.0.weight f4 [16, 3, 3, 3]
0	0x3bfddb8c	0.0077471193
1	0xbbbd2511	-0.005772241
2	0x3a694765	0.0008898883
3	0x38d2ee0e	0.000100579215
4	0xbd48ad1b	-0.04899321
5	0xbcfb2a8a	-0.030659933
6	0x3b2e439e	0.0026590596
7	0xbcf321f0	-0.029679269
8	0x3ce23644	0.027613766
9	0x3c27ab31	0.010233686
10	0xbc676bac	-0.014124792
11	0x3c77c2e3	0.015122148
12	0xbc936044	-0.017990239
13	0xbc824e51	-0.015906485
14	0xbaddc210	-0.0016918797
15	0x3c40b6a7	0.011762298
16	0xbce4a9bc	-0.027912967
17	0xbba12758	-0.00491802
18	0x3d85fa29	0.06541855
19	0x3cc2b773	0.023769116
20	0xbd10f5b5	-0.035390574
21	0x3d53e490	0.051731646
22	0xbce2e9a0	-0.027699292
23	0x3bbf09d5	0.0058300295
24	0xbb8523aa	-0.0040630894
25	0x3cc3b900	0.023891926
26	0x3cda815c	0.026673011
27	0xbc2700b7	-0.0101930415
28	0x3c366eea	0.011134842
29	0xbc3a76b7	-0.011380843
30	0xbb2f8739	-0.002678348
31	0x3aa0dc10	0.0012272615
32	0x3d6c303f	0.0576632
33	0xbccf222d	-0.025284851
34	0xbcd167d1	-0.025562199
35	0x3d19e25f	0.0375694
36	0xbd347391	-0.044055525
37	0x3c663861	0.014051528
38	0xbd8405f3	-0.06446447
39	0xbc7d29e5	-0.015451883
40	0x3b2ff070	0.0026846193
41	0x3da60e4f	0.08108198
42	0xbd26c90d	-0.04071908
43	0xbd092ace	-0.033488087
44	0x3d8ff4f0	0.0702914
45	0xbd787b47	-0.06066444
46	0x3c0a1dc9	0.008429953
47	0xbd3aab0b	-0.045573276
48	0x3b03da99	0.0020119308
49	0x3cc80383	0.024415737
50	0x3d6d8735	0.05799027
51	0xbd4f1214	-0.05055435
52	0xbc4304f4	-0.011903036
53	0x3d793684	0.060843006
54	0x3c9c55be	0.019083854
55	0x3cb7ea8b	0.022450706
56	0xbd328ec3	-0.04359318
57	0xbc07e094	-0.00829329
58	0x3cf12bc7	0.02943982
59	0xbc28018f	-0.010254278
60	0x3ca754a5	0.020426104
61	0xba9981ba	-0.0011711635
62	0xbcd2b24b	-0.025719782
63	0xb99bb265	-0.00029696818
64	0xbba4317f	-0.005010783
65	0x3b94005f	0.004516646
66	0x3ce33719	0.027736234
67	0x3b985064	0.004648255
68	0xbccafef0	-0.024779767
69	0x3c34da96	0.011038443
70	0x3d0028b1	0.031288806
71	0xbc45cacc	-0.012072276
72	0x3d20460a	0.039129294
73	0x3b87a3fa	0.0041394206
74	0xbac657fb	-0.0015132421
75	0xbc3c372e	-0.011487765
76	0xbbe665aa	-0.0070311623
77	0xba341d77	-0.00068708457
78	0xbd1e381f	-0.03862774
79	0xbbb14760	-0.00541012
80	0xbcd783af	-0.026307909
81	0x3c9cdbf3	0.019147849
82	0x3d104381	0.035220627
83	0x3c5651cc	0.013081025
84	0x3d40cb82	0.04706908
85	0x3d14b488	0.03630498
86	0x3c493ee4	0.012283061
87	0x3c93f374	0.018060423
88	0x3c3469e7	0.011011577
89	0x3d711e00	0.0588665
90	0xbd49cf87	-0.04927018
91	0xbc5fd3d1	-0.013661341
92	0xbcde0eb8	-0.027106628
93	0xbc20e6fc	-0.009820696
94	0xbd7dc40f	-0.061954554
95	0xbd23f40e	-0.04002767
96	0xbcf83f5a	-0.030303646
97	0xbd25ed30	-0.040509403
98	0xbd1a3393	-0.03764684
99	0x3c821c94	0.015882768
100	0xbbc3c89b	-0.005974842
101	0x3ca106c0	0.019656539
102	0xbc51d7ad	-0.012807769
103	0xbd395c12	-0.04525382
104	0xbcd5cc3e	-0.026098367
105	0xbc354620	-0.011064082
106	0xbd459706	-0.04823973
107	0xbd62ffd6	-0.055419765
108	0xbd5b9e40	-0.053617716
109	0xbc72515a	-0.014789904
110	0xbc638212	-0.013885992
111	0xbcd1fd64	-0.025633521
112	0xba865a25	-0.0010250254
113	0x3c912f1f	0.017722664
114	0xbcb37d95	-0.021910468
115	0x3ca7024b	0.020386836
116	0x3c5e0b0b	0.013552438
117	0x3d2bd12c	0.04194753
118	0x3ae2b0ac	0.0017295084
119	0x3d0bee19	0.034162614
120	0x3cd050a4	0.025429077
121	0x3ca21a7f	0.019788025
122	0x3cb800c9	0.022461312
123	0x3cbe2d2e	0.023214903
124	0x3d42319f	0.047410604
125	0xbc92721c	-0.017876677
126	0xbb5ab9a0	-0.0033374801
127	0xbd19ccf8	-0.03754899
128	0x3d2bfae9	0.041987333
129	0xbbc2e70e	-0.005947954
130	0xba53d7d9	-0.0008081175
131	0x3cc5eebe	0.024161693
132	0xbd9902ad	-0.074712135
133	0xbcdd85b1	-0.027041288
134	0xbc9f6135	-0.019455532
135	0xbc5d76e7	-0.013517118
136	0x3aa5f6e4	0.001266208
137	0xbc511177	-0.012760512
138	0x3ca2e2a4	0.019883461
139	0x3c9220b8	0.017837867
140	0x3acbc318	0.0015545813
141	0x3d05d03d	0.032669295
142	0x3d3c2c53	0.04594071
143	0x3cee8b7d	0.029119248
144	0x3caf8d3b	0.021429649
145	0xbaef14ff	-0.001824051
146	0xba600cc5	-0.00085468247
147	0x3c53ad2b	0.012919704
148	0x3cca56e3	0.024699634
149	0xbbadd6bb	-0.005305139
150	0x3cb05675	0.0215256
151	0x3cc8bed9	0.024505066
152	0x3ca212e5	0.0197844
153	0xbd2d185d	-0.042259563
154	0x3d176997	0.036965933
155	0x3c1bcb41	0.009508909
156	0x3bc04bca	0.0058684098
157	0x3d5257be	0.05135321
158	0x3c8303b8	0.015992984
159	0x3d147aa4	0.03624977
160	0x3cb8cdb6	0.022559028
161	0x3d162780	0.036658764
162	0xbba9720d	-0.0051710666
163	0x3cc3343a	0.023828615
164	0xbc199f82	-0.0093764085
165	0x3bc652f2	0.0060523683
166	0x3c74e58f	0.014947309
167	0xbd0ef982	-0.034905918
168	0xbc60535d	-0.01369175
169	0xbcdcdc4c	-0.026960514
170	0xbc64ac3e	-0.013957081
171	0x3d0aad41	0.033856634
172	0x3c8f5956	0.017498653
173	0xbcb2f469	-0.02184506
174	0x3c642925	0.013925825
175	0x3c5a329b	0.013317729
176	0xbc456b80	-0.012049556
177	0xbb08ad9e	-0.0020855437
178	0xbcc74b93	-0.024328029
179	0x3c7edbb3	0.01555531
180	0xbcf6f9a0	-0.030148327
181	0xbc1e1899	-0.009649419
182	0xbb9c0dee	-0.0047624027
183	0xbc86d9e0	-0.016461313
184	0xbbfc041e	-0.0076909205
185	0xbc8802d6	-0.016602915
186	0xbcef7572	-0.029230807
187	0xbc342bcf	-0.010996773
188	0xbd30eb68	-0.04319325
189	0x3aca5a44	0.0015438278
190	0xbb9777be	-0.0046224287
191	0xbcd46590	-0.025927335
192	0xbd056e69	-0.032576
193	0xbce5e400	-0.02806282
194	0xbccaf8fa	-0.024776924
195	0xbafa2960	-0.0019085817
196	0xbb571fb2	-0.0032825288
197	0x3c491ced	0.012274963
198	0x3d8aea4a	0.06782968
199	0x3afc5654	0.0019251802
200	0xbbc960d2	-0.006145575
201	0x3a28fd63	0.0006446449
202	0x3db0e597	0.08637541
203	0x3d05dd4f	0.03268176
204	0x3c0c5fde	0.008567778
205	0x3d08031b	0.033206087
206	0x3d2860a4	0.04110779
207	0xbd14f69c	-0.036367998
208	0xbd4d0c97	-0.050060835
209	0x3c354448	0.011063643
210	0xbcda10cc	-0.026619337
211	0xbc8b8dc0	-0.017035365
212	0xbcf61772	-0.030040476
213	0xbcde083f	-0.027103541
214	0xbc4b5d8e	-0.012412442
215	0xbc207eb4	-0.009795833
216	0x3b4895fe	0.003060698
217	0xbd618044	-0.055053964
218	0xbbfcc0a4	-0.0077133942
219	0xbc277dad	-0.010222835
220	0x3c044944	0.0080741085
221	0x3ce549d4	0.027989306
222	0x3d31843d	0.043339003
223	0x3cc4215d	0.02394169
224	0x3d40b476	0.0470471
225	0xbd6752d9	-0.056475494
226	0xbc6c8623	-0.014436278
227	0x3c75aac9	0.014994332
228	0xbd10c5b3	-0.03534479
229	0xbc679830	-0.014135405
230	0x3c135b0c	0.008993875
231	0xbcb39574	-0.02192185
232	0xbc87038f	-0.016481189
233	0x3cd07449	0.025446074
234	0xbcc38b93	-0.023870265
235	0xbc9752bc	-0.018472068
236	0x3c040a6e	0.008059127
237	0xbc9f1ca2	-0.019422833
238	0xbb9d4db0	-0.004800521
239	0xbb8e3377	-0.004339631
240	0x3cf0aa93	0.029378211
241	0x3c15ad74	0.009135593
242	0x3ce4168e	0.027842786
243	0xbc717bf2	-0.0147390235
244	0x3ca4c5c9	0.020113843
245	0x3cc2b6cf	0.02376881
246	0x3c335213	0.010944861
247	0x3d2a59c3	0.04158951
248	0x3cf65268	0.030068591
249	0xbb6e16ed	-0.0036329583
250	0xbc28b949	-0.010298082
251	0xbcf9d9ad	-0.030499304
252	0x3c44ee15	0.012019654
253	0xbc1d0bce	-0.009585334
254	0xbc821075	-0.015876988
255	0x3c05de0a	0.008170614

model.0.bias f4 [16]
0	0xbd9f03f5	-0.077644266
1	0x3ca2549a	0.019815732
2	0x3e1010bf	0.14068888
3	0xbe0b97e1	-0.13632156
4	0xbe01aee7	-0.12664376
5	0xbe533860	-0.20626974
6	0xbe0e6578	-0.13905895
7	0xbe10efb9	-0.14153947
8	0x3d15fe18	0.036619276
9	0xbe04ec7f	-0.12980841
10	0x3cbc01d4	0.02295009
11	0xbde2d32a	-0.110754326
12	0x3d030f23	0.031996857
13	0xbc911232	-0.017708872
14	0xbdfbef32	-0.12301482
15	0x3cbafb79	0.02282499

model.2.weight f4 [32, 16, 3, 3]
0	0x3ca8977d	0.020580048
1	0x3c9d1373	0.019174313
2	0xbbbe445c	-0.005806489
3	0xbb62b7a6	-0.0034594326
4	0xbabce048	-0.0014410103
5	0x3bdc2edb	0.006719453
6	0x3d03efdd	0.032211173
7	0xbab48cb9	-0.0013774849
8	0x3c302b4a	0.010752508
9	0x3db02406	0.08600621
10	0x3d837f68	0.06420785
11	0x3be9fcf0	0.007140748
12	0x3d7a7a16	0.061151586
13	0x3d8fba1c	0.070179194
14	0xbc0eee45	-0.0087238
15	0x3c0c22ce	0.00855322
16	0x3c5a279a	0.013315106
17	0xbd447f46	-0.04797294
18	0x3c9e5c88	0.019331232
19	0xbc3132c7	-0.010815329
20	0x3cb9d027	0.022682263
21	0x3c8e2127	0.017349793
22	0xbb7cfaab	-0.0038601558
23	0x3d5a9ba6	0.053371094
24	0x3c5710ac	0.0131265335
25	0x3d32f849	0.043693814
26	0x3cdadb72	0.026715968
27	0x3c3ac039	0.0113983685
28	0xbc3c2666	-0.011483764
29	0x3d218ade	0.039439075
30	0xbccc3f03	-0.02493239
31	0x3b4a033e	0.0030824686
32	0xbc5d8338	-0.0135200545
33	0xbc43edf8	-0.011958592
34	0x3b8a5246	0.0042212335
35	0xbc9d7250	-0.019219548
36	0xbce1b30d	-0.027551198
37	0xbb8f1d3f	-0.0043675
38	0xbbb18d92	-0.005418488
39	0xbc6bc13c	-0.014389332
40	0xbcff44ef	-0.0311608
41	0xbd639976	-0.055566274
42	0xbcd7a2a8	-0.026322678
43	0xbc99c54a	-0.018770833
44	0xbd39f5a1	-0.045400266
45	0x3da666ee	0.08125101
46	0x3c3c7223	0.011501822
47	0x3ce17d5e	0.0275256
48	0x3d6fa0fc	0.058503136
49	0x3d4fe52e	0.050755672
50	0x3d0845a2	0.033269532
51	0x3d36414e	0.044495873
52	0x3d8e4ec5	0.06948618
53	0x3c851332	0.016244505
54	0xbb749758	-0.0037321653
55	0x39fec810	0.00048595713
56	0x3bf7e01e	0.0075645586
57	0xbc1a7d1f	-0.009429245
58	0xbcb661d1	-0.02226344
59	0x3cac1903	0.02100802
60	0xbbf2ca20	-0.007409349
61	0x3d17f104	0.037095085
62	0x3b83c0a5	0.0040207678
63	0xbd3e1799	-0.046409223
64	0xbcc0a08b	-0.023514053
65	0xbcff54e5	-0.03116841
66	0xbc9b5671	-0.018962117
67	0xbd04daa7	-0.032435086
68	0xbb585154	-0.003300746
69	0xbb53abe3	-0.0032298497
70	0x3c36b1ea	0.011150816
71	0x3c7d891a	0.015474582
72	0x3d2b433f	0.041812178
73	0x3d8cde67	0.068783574
74	0x3c980b2b	0.018560013
75	0x3ce3c500	0.027803898
76	0x3d3fa867	0.04679146
77	0xbd4ca181	-0.04995871
78	0x3d0d6dca	0.03452853
79	0xbd3e8bd1	-0.046520058
80	0xbd1d9278	-0.03846976
81	0x3c805a0f	0.015667943
82	0x3baed1f8	0.005335089
83	0x3d15702f	0.03648394
84	0x3d32b1ab	0.04362647
85	0xbc1cf1ca	-0.009579131
86	0x3c1fb472	0.009747611
87	0x3d3abaf2	0.04558844
88	0x3c7a8793	0.0152911125
89	0x3b9af6d4	0.0047291312
90	0x3c8701af	0.016480295
91	0x3be4bc43	0.0069804504
92	0x3c8ab9e9	0.016934352
93	0x3b281828	0.0025649164
94	0x3c0662d8	0.008202277
95	0xbaf156de	-0.0018412729
96	0xbc21fb2d	-0.009886545
97	0x3cfccf9c	0.030860715
98	0x3c08944a	0.008336136
99	0xbbd444b6	-0.0064779175
100	0xbcf0effd	-0.02941131
101	0x3b8a9ff6	0.0042304946
102	0x3cef9543	0.029245978
103	0x3cd9622e	0.026536074
104	0x3c9e40ea	0.019318063
105	0xbc757926	-0.014982497
106	0xbb8edebc	-0.004360048
107	0x3ca8588f	0.02055004
108	0x3cf812eb	0.030282458
109	0x3d3536fa	0.044241883
110	0xbcd13979	-0.0255401
111	0x3d7e8bbd	0.062144984
112	0xbc9774f4	-0.018488385
113	0xbcb647bd	-0.022251004
114	0x3b73d228	0.003720412
115	0xbd1262f9	-0.03573892
116	0xbbcb4237	-0.006202962
117	0x3ce5ac21	0.028036179
118	0xbd75a653	-0.059973072
119	0x3c506b5d	0.01272091
120	0x3d443b10	0.04790789
121	0x3b96ede1	0.004605994
122	0xbd097260	-0.033556342
123	0x3b1b2d50	0.0023678131
124	0xbbd2b77d	-0.006430565
125	0xbd0265b8	-0.031835288
126	0xbc8bcfa9	-0.017066794
127	0x3c71af87	0.014751322
128	0x3b806102	0.003917814
129	0xba5a2d84	-0.00083228224
130	0xbc970d93	-0.01843909
131	0xbca85613	-0.020548856
132	0xbce7079d	-0.028201872
133	0x3c6ff177	0.014644972
134	0x3c13f6d7	0.009031019
135	0xbc48d68d	-0.012258184
136	0x3c8d07a7	0.017215563
137	0xbc5ba594	-0.013406176
138	0x3d5f02e8	0.05444613
139	0xbc982fdd	-0.01857751
140	0xbc2b6352	-0.0104606915
141	0x3c9b7f13	0.018981492
142	0x3b516bf6	0.003195522
143	0xbc907760	-0.017635047
144	0x3c52a7d5	0.012857397
145	0x3cafa671	0.02144167
146	0xbbdbd8d7	-0.006709199
147	0xbc8ce551	-0.01719919
148	0x3c42ae4a	0.011882374
149	0x3bb5b884	0.0055456776
150	0xbcad2521	-0.021135869
151	0x3ce1742e	0.02752122
152	0x3cf83ab5	0.030301431
153	0xbd2a0e4c	-0.04151754
154	0xbd9efa98	-0.07762641
155	0xbb63b83e	-0.0034747268
156	0x3c233004	0.009960178
157	0xbcf94c64	-0.030431934
158	0x3c479b01	0.012182952
159	0xbd4b46fc	-0.049628243
160	0x3cc5f396	0.024164002
161	0x3d53d193	0.051713537
162	0xbb36b591	-0.0027879218
163	0x3c88556f	0.0166423
164	0x3bc43efa	0.0059889527
165	0x3c1e3592	0.009656327
166	0x3ba70e10	0.005098112
167	0xbd141357	-0.036151256
168	0x3c98adc5	0.018637547
169	0xbc8afc62	-0.016966049
170	0xbd1a4561	-0.03766382
171	0xbc8997d2	-0.016796026
172	0x3c50179c	0.012700941
173	0x3cbc16b1	0.022960039
174	0xbc62f4ac	-0.01385228
175	0x3d1eee14	0.038801268
176	0x3d377eb9	0.044798587
177	0xbc6fbb60	-0.014632076
178	0xbbec6553	-0.007214227
179	0x3b8c1e27	0.0042760554
180	0xbcc280e3	-0.023743099
181	0xbca89ca6	-0.020582508
182	0x3d18f568	0.037343413
183	0xbc8b44a7	-0.01700051
184	0xbd27fa48	-0.04101017
185	0xbbb3a13b	-0.0054818667
186	0xbccef055	-0.025261084
187	0xbcf3e43f	-0.029771922
188	0xbceae2b8	-0.028672561
189	0xbb77dd7d	-0.0037821226
190	0xbce21d44	-0.027601846
191	0xbc1adff9	-0.009452813
192	0x3cde3520	0.027124941
193	0xbcb6f128	-0.02233179
194	0x3cc45b32	0.023969267
195	0x3d03e16b	0.032197397
196	0x3c85efcc	0.016349696
197	0x3d999fd0	0.07501185
198	0xbd4f4cb4	-0.05061026
199	0xbd0a5e20	-0.03378117
200	0x3c8b6105	0.017014036
201	0x3ca4e571	0.020128937
202	0xbcd97122	-0.026543204
203	0xbcf52f93	-0.029929912
204	0xbd0f08f0	-0.034920633
205	0xbca1d236	-0.019753557
206	0xbc90fb45	-0.01769794
207	0xbb31e058	-0.0027141776
208	0x3c496795	0.012292762
209	0x3d0847c8	0.03327158
210	0xbce2b233	-0.027672863
211	0xbc777b74	-0.015105117
212	0x3cd2d9a2	0.025738541
213	0xbc11c518	-0.0088970885
214	0x3b805a53	0.0039170175
215	0x3aa219cd	0.0012367308
216	0xbd133ad7	-0.035944786
217	0xbca67c71	-0.02032301
218	0x3cb07d99	0.021544265
219	0xbc9fc0ce	-0.019501116
220	0xbc8cf3a5	-0.017206023
221	0x3d8c89ba	0.06862207
222	0x3c41e78f	0.011834993
223	0x3c464bae	0.012103004
224	0x3cefa649	0.029254096
225	0xbaa2dd1d	-0.0012425516
226	0xbca27d83	-0.01983524
227	0x3cdd3d00	0.027006626
228	0x3bab9f37	0.0052374857
229	0xbac286df	-0.001484122
230	0x3d3b50da	0.045731403
231	0x3ceff0e1	0.029289665
232	0x3d4492ee	0.047991686
233	0x3d839d9c	0.06426546
234	0x3b76fde9	0.0037687963
235	0x3c6c4348	0.014420338
236	0x3bcaa5e3	0.006184326
237	0x3d7c78c3	0.061638605
238	0x3cada9dc	0.02119916
239	0xbb7ce35d	-0.0038587668
240	0x3d5b5971	0.053552095
241	0x3c8672a7	0.016412092
242	0x3ccfe89a	0.025379468
243	0xbd5ade66	-0.053434752
244	0xbc8be39f	-0.017076312
245	0x3baf9f7f	0.0053595896
246	0xbdb54703	-0.08851435
247	0xbd19b6be	-0.037527792
248	0xbce06ba3	-0.027395075
249	0xba324d3e	-0.0006801671
250	0xbcd3f10f	-0.025871782
251	0xbc7d43fc	-0.015458103
252	0xbb1d8656	-0.002403637
253	0xbccc3e25	-0.024931977
254	0xbd0d5566	-0.03450527
255	0xbc9d9798	-0.019237325

model.2.bias f4 [32]
0	0xbd53e798	-0.051734537
1	0xbd0a60d7	-0.03378376
2	0xbd80bf03	-0.062864326
3	0xbca45c6e	-0.020063605
4	0xbd6f2952	-0.058389015
5	0xbd29e826	-0.04148116
6	0xbd397ddd	-0.04528605
7	0x3d00366d	0.031301904
8	0xbd9810af	-0.07425057
9	0xbcb5b7ef	-0.022182433
10	0x3d3b015f	0.045655604
11	0xbd364d32	-0.044507213
12	0x3d30f073	0.04319806
13	0xbc9c6923	-0.019093102
14	0x3cc021f8	0.023453698
15	0xbd068735	-0.032843787
16	0x3d36192a	0.044457592
17	0xbd9f2c1a	-0.077720836
18	0x3d8b6709	0.06806762
19	0x3d8723e1	0.0659864
20	0xbc7bfecb	-0.015380572
21	0x37dbf660	2.6221562e-05
22	0xbd403ac2	-0.046931036
23	0xbdb1b36a	-0.08676799
24	0xbd3f26de	-0.046667926
25	0x3d655650	0.055990517
26	0x3d9fcad4	0.07802358
27	0xbd27de5d	-0.040983547
28	0xbce2166a	-0.027598578
29	0x3de6f886	0.11277871
30	0xbc825a64	-0.015912242
31	0xbd63c329	-0.05560604

model.4.weight f4 [32]
0	0x3f7b8fbe	0.9826621
1	0x3f7f03fc	0.99615455
2	0x3f751308	0.95732164
3	0x3f7dd5db	0.9915444
4	0x3f7e278e	0.99279106
5	0x3f7b9f32	0.9828979
6	0x3f7b35c6	0.98128927
7	0x3f78e4f0	0.9722433
8	0x3f79c2f3	0.97563094
9	0x3f75f8ee	0.9608296
10	0x3f7d9170	0.99050045
11	0x3f74fc9b	0.95697945
12	0x3f7f5707	0.9974217
13	0x3f765aa6	0.9623207
14	0x3f7fc35f	0.9990749
15	0x3f7aada7	0.9792122
16	0x3f747d5e	0.95503795
17	0x3f6a8f2e	0.91624725
18	0x3f78f892	0.9725429
19	0x3f74c483	0.95612353
20	0x3f7a0d87	0.9767689
21	0x3f7c97e1	0.9866925
22	0x3f7e434c	0.99321437
23	0x3f79e2cf	0.9761171
24	0x3f7e7073	0.99390334
25	0x3f691203	0.9104311
26	0x3f764f8d	0.96215135
27	0x3f79cd42	0.97578824
28	0x3f7c9eeb	0.9867999
29	0x3f7d50f8	0.98951674
30	0x3f6feead	0.93723565
31	0x3f7bac72	0.98310006

model.4.bias f4 [32]
0	0xbc3fcbd6	-0.011706313
1	0xbd6e2420	-0.05813992
2	0x3d1bb147	0.03801086
3	0xbc9aec57	-0.018911524
4	0xbd1bb767	-0.038016703
5	0x3d5b0bb9	0.053477976
6	0xbd3da733	-0.04630203
7	0x3bf631c5	0.007513257
8	0x3d10b332	0.035327144
9	0xbd29bfe6	-0.041442774
10	0x3c5b7b06	0.01339603
11	0xbd3cec3e	-0.046123736
12	0xbce584cb	-0.028017422
13	0xba104b46	-0.00055043807
14	0xbbc0279e	-0.0058640977
15	0xbd2cbd8a	-0.042172946
16	0xbcb263e4	-0.021776147
17	0xbd0c4f9d	-0.034255613
18	0xbc447ba1	-0.011992366
19	0x3b95b8c6	0.004569146
20	0xbbaa1a61	-0.005191133
21	0xbd6fee4a	-0.05857686
22	0xbd236a1f	-0.039896127
23	0xbbb04643	-0.0053794696
24	0x3d789025	0.060684342
25	0xbd480c50	-0.048839867
26	0xbcf458e1	-0.029827537
27	0xbd9259de	-0.07146047
28	0xbbd794ec	-0.006579032
29	0x3d1628d5	0.036660034
30	0x3c7322c2	0.01483983
31	0x3c27dc2c	0.010245364

model.4.running_mean f4 [32]
0	0xbbec2de1	-0.0072076176
1	0xbc1f1bca	-0.009711215
2	0xbcb3c0c1	-0.021942498
3	0xbc290e38	-0.010318331
4	0xbcb07452	-0.02153984
5	0xbc802c26	-0.015646052
6	0xbc8cf388	-0.017205968
7	0x3d828d74	0.06374636
8	0xbcc63602	-0.024195675
9	0xbc78617b	-0.01515996
10	0x3dcc56ea	0.09977515
11	0xbcc990ff	-0.024605272
12	0x3d412946	0.047158502
13	0xbc4b8092	-0.01242079
14	0x3cb3324a	0.021874566
15	0xbc880007	-0.016601576
16	0x3d1053e9	0.035236273
17	0xbc9229b4	-0.017842151
18	0x3d9f2993	0.077716015
19	0x3dc6e9b0	0.09712541
20	0xbb84660a	-0.0040404843
21	0xbc392064	-0.011299226
22	0xbc80e499	-0.015734004
23	0xbce8e7cc	-0.028430842
24	0xbcddbd0a	-0.02706768
25	0x3d338849	0.043831144
26	0x3d64eb1d	0.055888284
27	0xbc883f64	-0.01663179
28	0xbbceba4b	-0.006308829
29	0x3dd53339	0.104101606
30	0xbbd4ee3f	-0.0064981277
31	0xbd0c1911	-0.034203593

model.4.running_var f4 [32]
0	0x3985f327	0.000255489
1	0x38ba14bb	8.8730325e-05
2	0x3867f95e	5.5306933e-05
3	0x39c5dd8b	0.0003773983
4	0x39babffc	0.00035619724
5	0x39596881	0.00020733663
6	0x37fe8849	3.0342622e-05
7	0x3a0a73b6	0.00052815245
8	0x37dda325	2.6421223e-05
9	0x38411264	4.6031913e-05
10	0x3a98d67d	0.0011660602
11	0x387f0de9	6.0809693e-05
12	0x398dbb8d	0.00027033352
13	0x387327f6	5.797293e-05
14	0x398aa6e2	0.00026445749
15	0x3a0f6a02	0.00054708135
16	0x3998a1c7	0.00029112233
17	0x38a2efc2	7.76942e-05
18	0x39f265d3	0.00046233702
19	0x39b55b28	0.00034590927
20	0x3984987d	0.00025290615
21	0x39944a5c	0.00028284162
22	0x38510c6c	4.984105e-05
23	0x38f15994	0.00011508461
24	0x37c201f7	2.3127517e-05
25	0x3a10b08f	0.00055194733
26	0x3a1ce855	0.0005985548
27	0x386324d7	5.4155327e-05
28	0x39ba3912	0.00035519205
29	0x39837225	0.0002507131
30	0x37e87af5	2.7713812e-05
31	0x38c085e0	9.1802096e-05

model.5.weight f4 [64, 32, 3, 3]
0	0x3c1f66de	0.009729115
1	0x3c74d9cf	0.014944508
2	0x3c895a82	0.01676679
3	0xbbd65e9d	-0.0065420405
4	0x3b7b8d22	0.0038383682
5	0xbcb633b3	-0.022241449
6	0x3c2fa27d	0.010719893
7	0x3c93fc0d	0.018064523
8	0x3c5749ce	0.013140155
9	0x3c472238	0.0121541545
10	0x3ccae981	0.024769546
11	0x3d49ab5b	0.049235683
12	0x3d4e299e	0.050332658
13	0x3c1f2a47	0.00971467
14	0x3d8cb0bb	0.06869646
15	0xbcf40d1b	-0.029791405
16	0x3c7fa666	0.015603637
17	0x3cf2dcf0	0.029646367
18	0xbc6b01d5	-0.0143436985
19	0xbc5aae2a	-0.013347188
20	0xbd0f390f	-0.034966525
21	0xbc80a59e	-0.015703972
22	0xbcc6c55a	-0.024264026
23	0xbae4e81e	-0.0017464196
24	0xbc4e5328	-0.012593068
25	0x3c4d71c6	0.012539333
26	0x3cc7cee2	0.024390642
27	0xbd43320b	-0.047655147
28	0x3ca82b14	0.020528354
29	0x3cb06df7	0.02153681
30	0xbc44bb47	-0.012007541
31	0x3cd1ef42	0.025626782
32	0x3c42536b	0.011860709
33	0x3bbdcc97	0.0057922113
34	0xbce02fc0	-0.027366519
35	0x3d43b4a3	0.04777969
36	0xbb8e9752	-0.004351535
37	0x3bc19765	0.00590794
38	0x3da9a37d	0.08283136
39	0x3ca6f3c2	0.020379905
40	0xbc0cacfb	-0.008586164
41	0x3d105321	0.035235528
42	0x3d110fdf	0.035415526
43	0x3bcf0148	0.0063172914
44	0x3c40fecd	0.011779499
45	0x3cec6e5d	0.028861219
46	0x3cd373f7	0.025812132
47	0x3cba023d	0.022706145
48	0xbcc5fb15	-0.024167577
49	0x3c7d09bf	0.015444218
50	0xbcf987ed	-0.030460322
51	0xbbb074c6	-0.005385014
52	0xbca9601f	-0.020675717
53	0x3c9f2c95	0.019430438
54	0x3b16e9f7	0.0023027638
55	0xbca73fd4	-0.020416178
56	0xbb3e28c7	-0.0029016004
57	0xbd1bbad0	-0.038019955
58	0x3c212248	0.009834833
59	0x3b3351f4	0.002736208
60	0x3cf3b859	0.02975099
61	0xbbe2d7f6	-0.006922717
62	0xbc4c0307	-0.012451894
63	0x3d4b5f83	0.049651634
64	0x3d4560e6	0.048188113
65	0xbccf7b2d	-0.02532729
66	0x3cfe31f0	0.031029671
67	0x3d5558ac	0.052086517
68	0xbbd4ce56	-0.0064943237
69	0xbc46051a	-0.012086177
70	0x3d125e01	0.03573418
71	0xbc9ab212	-0.018883739
72	0xbd378305	-0.044802684
73	0xbd065b7b	-0.032802086
74	0xbc17e609	-0.009271153
75	0x3badbf30	0.0053023323
76	0x3c17b3e0	0.009259194
77	0xbd1c0264	-0.038088217
78	0x3c18631d	0.009300974
79	0xbbc23c93	-0.005927631
80	0x3c7ba512	0.01535918
81	0xbcc561bd	-0.024094457
82	0x3bba7048	0.0056896545
83	0x3c473743	0.0121591715
84	0xbc41cce0	-0.011828631
85	0x3c5be63c	0.013421591
86	0x3c6d7b41	0.014494718
87	0xbb817e6e	-0.003951839
88	0x3cff7dcd	0.031187916
89	0xbcb67601	-0.022273066
90	0xbd215b5b	-0.039393764
91	0x3c86e127	0.016464783
92	0x3a4451f2	0.00074890174
93	0xbcb4d561	-0.022074403
94	0xbd3a2961	-0.04544962
95	0x3aca4d4d	0.0015434414
96	0xbd12df6e	-0.03585761
97	0xbc6f4d76	-0.0146058705
98	0xbcedfc1a	-0.029050875
99	0x3d0cb9b1	0.034356777
100	0x3b881ce2	0.0041538337
101	0x3d702cbe	0.05863642
102	0x3bf24e55	0.007394592
103	0xbd771d3f	-0.060330626
104	0xbb969fac	-0.004596671
105	0xbc64a7b3	-0.013955998
106	0xbc826cb8	-0.015920982
107	0x3c186bf0	0.009303078
108	0x3b1ccdd1	0.0023926387
109	0xbcfaf289	-0.030633228
110	0x3bea3013	0.007146844
111	0xbcf6cb99	-0.03012638
112	0xbccdf82f	-0.025142757
113	0x3c8c0674	0.01709292
114	0x3ccae5e4	0.024767824
115	0xbb969b59	-0.0045961556
116	0x3be938f0	0.007117383
117	0xbc47cfd6	-0.012195548
118	0x3d0b9092	0.03407342
119	0xbc852f3d	-0.016257877
120	0x3c087a1f	0.008329897
121	0x3cc48a54	0.023991741
122	0xbb919ef7	-0.004443999
123	0x3c86d8e7	0.016460849
124	0xbba83c43	-0.005134137
125	0x3c3c5f55	0.011497338
126	0x3c96c31f	0.018403588
127	0x3d12a6c7	0.035803583
128	0xbb09d938	-0.0021034013
129	0x3a0d9606	0.00054010784
130	0x3d5efeb3	0.05444212
131	0x3d39f284	0.045397297
132	0x3c0b43e0	0.008500069
133	0x3c93b5df	0.018031059
134	0xbba443a5	-0.0050129467
135	0x3cf2e8a8	0.029651955
136	0x3c25f373	0.010128844
137	0x3c321b21	0.010870726
138	0xbd4486fd	-0.047980297
139	0x3b0881dc	0.0020829355
140	0x3d26b2bd	0.0406978
141	0x3c5aa85e	0.013345806
142	0xbb8e1c87	-0.004336897
143	0xbbc816b7	-0.0061062234
144	0xbc463729	-0.012098112
145	0x3c86cd49	0.01645531
146	0xbd0e8785	-0.03479721
147	0x3cdfccc8	0.027319327
148	0x3ceda977	0.029011471
149	0xbb691529	-0.003556559
150	0xbd6c29ad	-0.057656933
151	0xbcc48ddf	-0.02399343
152	0x3bad0a2f	0.005280755
153	0x3ca63a4c	0.02029147
154	0xbd0926ac	-0.033484146
155	0xbb8e7245	-0.004347118
156	0x3c02ccb0	0.007983372
157	0xb99e4350	-0.0003018626
158	0x3b29c8e6	0.0025907098
159	0xbd445665	-0.047933955
160	0xbcc349df	-0.023838935
161	0xbcfd1dc5	-0.030897984
162	0x3d06de5d	0.032926906
163	0x3bf8c4e6	0.0075918315
164	0xbcba4e78	-0.022742495
165	0xbc04d192	-0.008106606
166	0x3c14639b	0.009056951
167	0x3d7c3ead	0.06158321
168	0x3cb37984	0.02190853
169	0x3ceba59c	0.028765492
170	0x3c6bd037	0.014392904
171	0x3d18b2c5	0.037279863
172	0xbbee1fae	-0.00726696
173	0xbcb42244	-0.021988995
174	0xbc3e0bf6	-0.011599531
175	0x3c80e625	0.015734741
176	0xbcfe906a	-0.031074721
177	0x3b2a1359	0.0025951474
178	0x3b1f6fdd	0.002432815
179	0x3ccc7ae9	0.024960952
180	0x3c98a218	0.01863198
181	0xbb63fb18	-0.0034787115
182	0x3c73a125	0.014869963
183	0x3c68939c	0.014195349
184	0x3d42a52e	0.04752081
185	0xbb9b7387	-0.0047439965
186	0x3c5d93f2	0.013524042
187	0xbc290172	-0.010315286
188	0x3c4a8d5f	0.012362807
189	0x3d30c97b	0.043160897
190	0x3bd285a6	0.0064246235
191	0x3d817c0c	0.06322488
192	0x3bb0f645	0.0054004514
193	0x3d175c28	0.03695312
194	0x3c7c1878	0.015386693
195	0xb98e4b6c	-0.00027140544
196	0x3c8a585c	0.016887836
197	0x3ad4ea24	0.0016244096
198	0xbca3b952	-0.019985829
199	0x3d217c35	0.039425094
200	0x3d97680b	0.073928915
201	0xbd2c2ad4	-0.04203303
202	0x3c52490c	0.012834799
203	0x3d3cac12	0.046062537
204	0xbcb8cc02	-0.022558216
205	0xbc8dd997	-0.017315669
206	0x3d26665e	0.04062497
207	0x3b8c7b92	0.0042871917
208	0xbd091475	-0.033466775
209	0xbbe246b2	-0.0069054
210	0xbd3e0cdf	-0.046398994
211	0xbcde8739	-0.027164089
212	0xb9d107b0	-0.00039869314
213	0xbb4b396d	-0.003100957
214	0x3d1166b1	0.035498325
215	0xbd53bade	-0.051691882
216	0x3d497940	0.0491879
217	0x3d737880	0.05944109
218	0xbd0e7a19	-0.03478441
219	0xbd2bf3b7	-0.04198047
220	0xbb61ddcf	-0.0034464484
221	0x3b931c4c	0.0044894572
222	0xbceea42a	-0.029131014
223	0xbc21670b	-0.0098512275
224	0x3c8d3da6	0.01724131
225	0xbce8d977	-0.028424008
226	0xbb35ca1c	-0.0027738875
227	0x3c92e8e7	0.017933322
228	0xbbde85af	-0.0067908387
229	0xbc7c69d0	-0.015406087
230	0xbc67bc63	-0.014144036
231	0x3c7419b2	0.014898704
232	0xbd0ae19a	-0.033906557
233	0xbca3c429	-0.019990997
234	0xbcdebc4e	-0.0271894
235	0xbc8e0bcf	-0.017339615
236	0x3cc5ac7d	0.0241301
237	0xbcef8f01	-0.029242994
238	0x3c695837	0.014242223
239	0x3c963160	0.01833409
240	0xbc714307	-0.014725453
241	0x3c47d8f7	0.012197725
242	0xbd1b0a0c	-0.03785138
243	0xbcd32022	-0.025772158
244	0xbc91532e	-0.017739858
245	0x3ce257da	0.027629782
246	0x3d06cac9	0.032908235
247	0xbc2f05cd	-0.010682535
248	0x3d15cd34	0.03657265
249	0xbcef36bf	-0.02920091
250	0x3c93cc4f	0.018041758
251	0xbd367618	-0.044546217
252	0x3d1f2eab	0.038862865
253	0x3d0f91d9	0.0350512
254	0x3da41f20	0.08013749
255	0xbce79a89	-0.02827193

model.5.bias f4 [64]
0	0x3cc62365	0.0241868
1	0xbd129438	-0.035785884
2	0xbd3d8032	-0.046264835
3	0x3cccf79f	0.025020419
4	0xbd901cc2	-0.07036735
5	0x3c9545be	0.018221732
6	0xbd6fc1bf	-0.05853438
7	0xbdbd1f01	-0.09234429
8	0xbdc01c50	-0.093804
9	0xbbebab5a	-0.0071920576
10	0x3c7347cf	0.0148486635
11	0x3da3ad54	0.07992044
12	0xbcc01595	-0.023447791
13	0xbc10bc64	-0.008833978
14	0x3cae4f5d	0.021278078
15	0x3ca86b4f	0.020558981
16	0xbd8fae38	-0.070156515
17	0xbd270b32	-0.04078216
18	0x3bc22348	0.005924616
19	0xbd5309c7	-0.051522996
20	0x3cf1057f	0.029421566
21	0x3d5fd8a1	0.054649953
22	0xbe158312	-0.1460078
23	0xbd7a5743	-0.061118376
24	0xbdedec9a	-0.11617394
25	0xbc76fcec	-0.01507495
26	0xbd3c4962	-0.04596842
27	0xbd59f12f	-0.053208526
28	0xbd38f9b0	-0.045159996
29	0xbc4a2ab2	-0.012339281
30	0xbd90cc6d	-0.07070241
31	0xbd26107b	-0.04054306
32	0x3d25773f	0.040396925
33	0x3d085762	0.03328646
34	0xbd8fd706	-0.07023434
35	0x3cb8a5d1	0.022540005
36	0xbd742ac9	-0.059611116
37	0xbdb90cb7	-0.09035628
38	0xbd9a4b5e	-0.075339064
39	0x3d134b29	0.03596035
40	0xbde21041	-0.110382564
41	0x3d0ce108	0.034394294
42	0xbd3c4cbf	-0.04597163
43	0xbd756bf4	-0.059917405
44	0x3ca30284	0.01989866
45	0xbdb844b3	-0.08997478
46	0xbdb53bfa	-0.0884933
47	0xbcfb5ef4	-0.030684926
48	0x3d639cba	0.055569388
49	0xbdb76623	-0.08955028
50	0x3c732a10	0.014841571
51	0xbd58dd1a	-0.052945234
52	0x3c56c924	0.013109479
53	0xbd935d13	-0.07195487
54	0xbd0aff77	-0.033935037
55	0xbd3f42bc	-0.046694502
56	0xbcc726a2	-0.024310414
57	0xbddc1018	-0.10745257
58	0x3d19f101	0.037583355
59	0x3c4af0ff	0.0123865595
60	0xbd91bfa4	-0.07116631
61	0x3c6a277b	0.014291639
62	0x3bd5b9cd	0.0065223933
63	0x3d0e73f9	0.03477857

model.7.weight f4 [64]
0	0x3f7e1162	0.99245274
1	0x3f7fa796	0.9986509
2	0x3f6da9b1	0.92837054
3	0x3f7eb5f4	0.9949639
4	0x3f7ed7f7	0.99548286
5	0x3f800000	1.0
6	0x3f7dd9e7	0.9916062
7	0x3f7d1f60	0.98876
8	0x3f800000	1.0
9	0x3f7d38f7	0.98915046
10	0x3f790416	0.9727186
11	0x3f793b45	0.97356063
12	0x3f7f103a	0.99634135
13	0x3f7ed7d1	0.9954806
14	0x3f7a444f	0.9776048
15	0x3f776bf2	0.96649086
16	0x3f7db695	0.99106723
17	0x3f7893e7	0.9710068
18	0x3f7f0076	0.9961008
19	0x3f7e92bf	0.99442667
20	0x3f7a5b9b	0.9779603
21	0x3f798e6b	0.9748294
22	0x3f7f5e3c	0.99753165
23	0x3f7e4852	0.993291
24	0x3f774c95	0.9660123
25	0x3f7d1ae3	0.9886915
26	0x3f7d3f17	0.9892439
27	0x3f7aea29	0.9801355
28	0x3f7d8775	0.99034816
29	0x3f7e99dd	0.99453527
30	0x3f7f38c1	0.99695975
31	0x3f78972d	0.97105676
32	0x3f7bbe23	0.98337
33	0x3f75c3f3	0.9600212
34	0x3f7d68ce	0.98988044
35	0x3f7adeea	0.9799639
36	0x3f73531a	0.9504868
37	0x3f7af1fc	0.9802549
38	0x3f7a883f	0.97864145
39	0x3f7a90ff	0.97877496
40	0x3f7d22b6	0.9888109
41	0x3f7673fb	0.9627072
42	0x3f7b7f31	0.98240954
43	0x3f748cc4	0.9552729
44	0x3f7e93be	0.99444187
45	0x3f7dc378	0.99126387
46	0x3f77e1de	0.9682902
47	0x3f7b1d8a	0.9809195
48	0x3f7961f8	0.97415113
49	0x3f7accc6	0.9796871
50	0x3f7a3b0d	0.97746354
51	0x3f7ab3e4	0.9793074
52	0x3f7bbbb9	0.9833332
53	0x3f7d05ee	0.98837173
54	0x3f7d2aa9	0.9889322
55	0x3f7cbb1f	0.98723024
56	0x3f7bb069	0.98316056
57	0x3f78a42b	0.971255
58	0x3f7d2085	0.98877746
59	0x3f7fd8bd	0.9994009
60	0x3f7ed0b8	0.9953723
61	0x3f7d4cad	0.9894512
62	0x3f7e0ef3	0.9924156
63	0x3f7ff805	0.9998782

model.7.bias f4 [64]
0	0xbd023287	-0.031786468
1	0xbd363769	-0.044486437
2	0xbb30f65d	-0.0027002313
3	0xbc1a2bf5	-0.009409894
4	0xbda5fb64	-0.081045896
5	0xb910e614	-0.00013818621
6	0x3ba4fd81	0.005035103
7	0xbd1d98ff	-0.038475987
8	0xbd016190	-0.031587183
9	0xbacfd633	-0.0015856683
10	0xbb218e76	-0.0024651564
11	0xbd063a3a	-0.032770373
12	0xbda57be1	-0.08080269
13	0xbb4a0083	-0.003082306
14	0x3cc5b479	0.024133908
15	0x3ce007e6	0.027347516
16	0xbc076896	-0.008264681
17	0x3b8d4ad0	0.004311897
18	0xbd131e4d	-0.03591757
19	0x3bd113af	0.0063805203
20	0xbb7db3fb	-0.0038712013
21	0x3d8b6890	0.06807053
22	0x3c80adfc	0.015707962
23	0xb95d25c1	-0.00021090267
24	0xbbbcde3a	-0.005763796
25	0x3caf190d	0.02137425
26	0x3c654c5e	0.013995258
27	0x3be104c1	0.006867022
28	0x3afa0e34	0.0019077719
29	0xbbabd513	-0.0052439063
30	0x3c9dc05f	0.019256769
31	0x39eb2fea	0.00044858392
32	0xbbbe71ae	-0.0058118915
33	0xb97cf110	-0.00024122396
34	0x3c503bdf	0.012709587
35	0xbd19203c	-0.037384257
36	0x3ccfd2f2	0.025369141
37	0x3c8540fc	0.016266339
38	0x3b60cac7	0.0034300552
39	0x3ca5dd00	0.020246983
40	0xbc296056	-0.01033791
41	0x3cbf014c	0.023316048
42	0xbc53c282	-0.012924792
43	0xbd66d431	-0.056354705
44	0xbc99d9c3	-0.018780595
45	0x3d6c5144	0.05769469
46	0x3c8628de	0.016376909
47	0xbb41ce7f	-0.0029572544
48	0xbd1ac004	-0.037780777
49	0xbce7700e	-0.028251674
50	0x3cbd89f7	0.023137076
51	0xbd83b0b8	-0.06430191
52	0x3d5d9b9f	0.05410349
53	0xbd943050	-0.072357774
54	0xbd85a877	-0.06526273
55	0x3c91f6ed	0.017817939
56	0x3d1ca226	0.038240574
57	0xbde5a01d	-0.1121218
58	0x3c3986ee	0.011323674
59	0x3d2e18ed	0.04250424
60	0x3c61e17b	0.013786669
61	0xbc36fe5d	-0.011169043
62	0x3c078932	0.008272456
63	0x3d1aa8b1	0.037758533

model.7.running_mean f4 [64]
0	0x3e20b59e	0.15694281
1	0x3de4a785	0.11164764
2	0x3e0cf5a9	0.13765587
3	0x3e1e9969	0.15488209
4	0x3dc8e560	0.09809375
5	0x3e031392	0.12800434
6	0x3dd4bb49	0.10387284
7	0x3e215efa	0.15758887
8	0x3cfa91f1	0.030587168
9	0x3e8d1379	0.2755392
10	0x3e801d39	0.25022295
11	0x3ecbca66	0.39802855
12	0x3e08d809	0.13363661
13	0x3e3338fb	0.17502205
14	0x3e2b321e	0.16718337
15	0x3e48ae2f	0.19597696
16	0x3e14547d	0.14485355
17	0x3e577aa1	0.21042873
18	0x3e287b32	0.16453245
19	0x3dc5032f	0.09619748
20	0x3e840afb	0.25789627
21	0x3e9a4dda	0.3013752
22	0x3d577660	0.052603126
23	0x3e14df23	0.14538245
24	0x3e218ce0	0.15776396
25	0x3e4c40c0	0.19946575
26	0x3e902fae	0.28161377
27	0x3e0af6a0	0.13570642
28	0x3e459f33	0.19299011
29	0x3e91d038	0.2847917
30	0x3e307cdd	0.17235132
31	0x3e91e3f8	0.2849424
32	0x3ec09579	0.3761404
33	0x3e6a1746	0.2286044
34	0x3e307658	0.17232645
35	0x3eba4813	0.36383113
36	0x3e111477	0.14167963
37	0x3de5f0c9	0.11227567
38	0x3db6ac47	0.08919578
39	0x3e60656f	0.21913694
40	0x3df0fb70	0.11766708
41	0x3e55d01b	0.20880167
42	0x3df43eb0	0.11926019
43	0x3e1e2ccf	0.1544678
44	0x3e47303b	0.19451992
45	0x3de5b33a	0.112158254
46	0x3dc89fa4	0.09796074
47	0x3e69fc45	0.2285014
48	0x3ea5e83d	0.32403746
49	0x3db9a2bc	0.09064242
50	0x3e2f2deb	0.1710736
51	0x3e0a11cc	0.13483351
52	0x3e2c3e57	0.16820656
53	0x3e0cf16d	0.13763972
54	0x3e1243ef	0.14283727
55	0x3df3a384	0.118964225
56	0x3de3113a	0.1108727
57	0x3d604265	0.05475082
58	0x3e775e46	0.24157056
59	0x3e623f2e	0.22094414
60	0x3e0ba030	0.13635325
61	0x3e703de6	0.23461112
62	0x3e8c74f4	0.27432978
63	0x3ea2e678	0.3181646

model.7.running_var f4 [64]
0	0x3f0e1d88	0.5551381
1	0x3e57d796	0.21078333
2	0x3dc06cb6	0.09395735
3	0x3e9ced29	0.3064969
4	0x3eed97a7	0.46404764
5	0x3d8ff17b	0.070284806
6	0x3e16c8c4	0.14725024
7	0x3e4423a8	0.19154227
8	0x3d8cc338	0.068731725
9	0x3e1f16cf	0.15536045
10	0x3eb26d55	0.3484904
11	0x3eb12113	0.34595546
12	0x3eeb3368	0.45937657
13	0x3dedae41	0.11605502
14	0x3dcb59a0	0.09929204
15	0x3ea61dd0	0.3244462
16	0x3db07d59	0.08617658
17	0x3e94336a	0.28945476
18	0x3ea62b01	0.32454684
19	0x3e1a64c4	0.15077502
20	0x3e03a26f	0.12854932
21	0x3e5bc964	0.21463543
22	0x3ec6b04d	0.38806382
23	0x3f73602a	0.9506861
24	0x3e914b4b	0.28377756
25	0x3e2724e0	0.1632266
26	0x3e9298fc	0.28632343
27	0x3e53c488	0.2068044
28	0x3e6528d9	0.22378863
29	0x3ed1f834	0.41009676
30	0x3e6ebcb3	0.2331417
31	0x3ef15ba0	0.47140217
32	0x3ed99152	0.42493683
33	0x3e46aaf8	0.19401157
34	0x3f41d603	0.7571718
35	0x3ed49849	0.41522434
36	0x3dfc6fdf	0.12326025
37	0x3ed395d0	0.41325235
38	0x3ee07fd6	0.4384753
39	0x3e3071c1	0.17230894
40	0x3e4eec87	0.20207416
41	0x3e2d96dc	0.1695208
42	0x3decd5d4	0.11564222
43	0x3e2d90b5	0.16949733
44	0x3e455cb9	0.19273652
45	0x3f270230	0.6523771
46	0x3db87990	0.09007561
47	0x3e5c3337	0.21503912
48	0x3e8e406f	0.27783534
49	0x3e1469d3	0.14493494
50	0x3db89ef0	0.0901469
51	0x3e54ab24	0.2076841
52	0x3e887fb6	0.26659936
53	0x3e4c830a	0.19971862
54	0x3dded20f	0.10879909
55	0x3e6c5af9	0.23081578
56	0x3ee35943	0.4440404
57	0x3dab4ad6	0.08363883
58	0x3f00e817	0.5035414
59	0x3e08815e	0.133306
60	0x3df1bc74	0.11803523
61	0x3e2f3d8e	0.17113325
62	0x3e8c9ba7	0.27462503
63	0x3e3a2331	0.18177487

model.8.weight f4 [128, 64, 3, 3]
0	0xbc8d74b4	-0.017267562
1	0x3ca20d11	0.019781621
2	0xbb8e3067	-0.004339266
3	0xbcda13a0	-0.026620686
4	0xbc29d959	-0.010366761
5	0xbbbe43c9	-0.0058064205
6	0xbd2ef5d5	-0.042714912
7	0xbbf55b44	-0.0074876864
8	0xbd279065	-0.04090919
9	0x3cec465f	0.02884215
10	0xbb736343	-0.0037138022
11	0xbcaaa23a	-0.020829309
12	0xbd0f6d72	-0.035016485
13	0xbd8018e0	-0.062547445
14	0x3b665a95	0.0035149206
15	0x3bcb4e15	0.0062043765
16	0xbd17d96f	-0.037072595
17	0xbbea8891	-0.0071573933
18	0x3c9e6825	0.01933677
19	0x3cef5f69	0.0292203
20	0x3d6c8b51	0.05775005
21	0xbbcf54d3	-0.0063272505
22	0xbc826d01	-0.015921118
23	0xbc9e6317	-0.01933436
24	0xbd4922df	-0.04910552
25	0xbcb11c50	-0.021619946
26	0x3b51cab6	0.0032011694
27	0x3d098ff3	0.033584546
28	0x3ccd15f2	0.025034878
29	0xbc9b58fb	-0.018963328
30	0xbd34eecd	-0.04417305
31	0xbccf319c	-0.02529221
32	0x39892108	0.00026155286
33	0xbd714b10	-0.058909476
34	0xbd595838	-0.053062648
35	0x3c8a36e6	0.01687188
36	0xbc197f4b	-0.009368728
37	0x3c00452a	0.00782899
38	0xbc06fa9f	-0.008238464
39	0xbcb85464	-0.022501178
40	0x3cc24dd4	0.023718752
41	0xbd0a7e66	-0.03381195
42	0xbc78de76	-0.015189758
43	0x3bcd1e04	0.0062596817
44	0x3c46f74a	0.012143919
45	0x3d4cec8c	0.050030276
46	0x3ce24ae0	0.027623594
47	0x3bf48cbc	0.007463066
48	0x3d866bf8	0.06563562
49	0x3c84d3dd	0.016214306
50	0xbc68ca49	-0.014208385
51	0x3d6867c4	0.056739584
52	0xbc89bce9	-0.016813712
53	0xbd125372	-0.03572411
54	0x3d00152e	0.0312702
55	0xbcbfa560	-0.023394287
56	0xbbade47c	-0.0053067785
57	0x3c524cdf	0.01283571
58	0x3cf63347	0.030053748
59	0xbc9a8064	-0.01886005
60	0x3d05b401	0.03264237
61	0x3c9331a4	0.017968006
62	0x3c6064b5	0.013695885
63	0x3cd56d38	0.026053056
64	0x3d333eb8	0.043760985
65	0xbc690c12	-0.014224069
66	0x3c2fec55	0.010737498
67	0x3ce5d115	0.0280538
68	0xbccd28fd	-0.025043959
69	0x3d2f789a	0.042839624
70	0x3cb9a6a8	0.022662476
71	0xbce17611	-0.027522119
72	0xbcd99178	-0.026558623
73	0xbc31472e	-0.010820193
74	0xbc3cdc23	-0.011527094
75	0xbd820c8c	-0.063500494
76	0x3d1d222e	0.038362674
77	0x3ccf8eb9	0.02533661
78	0xbd22d44b	-0.03975324
79	0xbbc6149b	-0.006044937
80	0xbd0bc3bd	-0.034122217
81	0xbc7effa0	-0.015563875
82	0xbbc904e7	-0.0061346176
83	0xbb96d598	-0.004603099
84	0xbce14621	-0.02749926
85	0xbc5e855b	-0.013581599
86	0x3c1cd98f	0.009573354
87	0x3c211ba9	0.009833255
88	0x3d323b1a	0.043513395
89	0x3d3c32f1	0.04594702
90	0x3d100602	0.03516198
91	0x3c3876d7	0.011258802
92	0x3b99e625	0.004696625
93	0xbcc76014	-0.024337806
94	0xbcf1518f	-0.029457835
95	0xbc4db1ce	-0.012554599
96	0xbd1852cc	-0.037188336
97	0x3c413211	0.011791722
98	0x3b9bdc4a	0.004756485
99	0x3b8b980f	0.00426007
100	0xbcc90dc6	-0.0245427
101	0xbd0d8d76	-0.034558736
102	0xbbe032fa	-0.0068420144
103	0xbb0fba5d	-0.002193115
104	0x3c6992a2	0.014256151
105	0xbd2bf017	-0.041977014
106	0xbce2a352	-0.027665768
107	0xbcbfb94b	-0.023403784
108	0x3ce51784	0.027965315
109	0x3a0bcfb8	0.00053333817
110	0x3d043ad5	0.03228267
111	0x3c7a0907	0.015260941
112	0xbd80f550	-0.0629679
113	0xbc0893ba	-0.008336002
114	0xbcb8bf6e	-0.022552218
115	0xbcd32b80	-0.025777578
116	0x3d332d93	0.043744635
117	0x3d717bf7	0.058956113
118	0x3c114d77	0.008868567
119	0x3c099a0f	0.008398547
120	0x3cbb89cf	0.02289286
121	0x3cf2f8be	0.029659625
122	0xbc6677d6	-0.014066657
123	0x3c8b8828	0.017032698
124	0x3c8ca9c2	0.01717079
125	0x3b51f192	0.0032034856
126	0xbca52a41	-0.02016175
127	0x3bcc1eca	0.0062292563
128	0x3c77601f	0.015098601
129	0x3d9fdba8	0.07805568
130	0xbcb3604b	-0.021896502
131	0x3bdae65f	0.0066802944
132	0x3d7a1e8b	0.061064284
133	0x3c4af1ec	0.01238678
134	0xbd03bff1	-0.03216547
135	0xbc94b90a	-0.01815464
136	0xba8b69cf	-0.0010636392
137	0x3c186064	0.009300325
138	0x3d05e8ff	0.032692906
139	0x3c06b9e0	0.008223027
140	0xbce20970	-0.02759239
141	0xbb9fc0d7	-0.004875283
142	0x3d35ac87	0.044353988
143	0xbc138312	-0.009003418
144	0x3c1cdcfa	0.009574169
145	0xbcde0e23	-0.02710635
146	0xbc4102c6	-0.011780446
147	0x3d43cf82	0.047805317
148	0xbc08d467	-0.008351422
149	0x3c30d0df	0.010791986
150	0x3c3c0cc6	0.011477655
151	0xb9afd848	-0.00033539743
152	0xbbb428db	-0.0054980344
153	0x3d3057d7	0.04305252
154	0x3d020232	0.031740375
155	0xbd061103	-0.032731067
156	0x3d407da1	0.04699481
157	0x3d812079	0.06305022
158	0x3d35ca63	0.044382464
159	0x3c56e3a9	0.013115802
160	0x3c671737	0.014104656
161	0xbbbaf39b	-0.0057053096
162	0x3c079bc4	0.0082768835
163	0x3b492ab6	0.0030695624
164	0x3b0497ac	0.0020232005
165	0xbc8a5743	-0.016887313
166	0xbbca5c4a	-0.0061755525
167	0x3ce5567b	0.027995339
168	0x3c8a0d3e	0.016852017
169	0x3b7cda33	0.0038582205
170	0xbc423d74	-0.011855472
171	0xbd6c4587	-0.057683494
172	0x3c876acd	0.016530419
173	0x3c948f08	0.018134609
174	0xbc2200b6	-0.009887865
175	0xbc396493	-0.011315483
176	0xbc9d3331	-0.019189449
177	0xbd98500a	-0.07437141
178	0x3b54f8dd	0.0032496967
179	0x3c720ffc	0.014774319
180	0xbcaf8a7e	-0.021428343
181	0x3c064ef4	0.008197535
182	0xbbaf74ce	-0.0053545004
183	0xbc80eb1c	-0.015737109
184	0xbd182e43	-0.037153494
185	0xbd52b2f8	-0.05144021
186	0xbc938544	-0.018007882
187	0x38cc9b20	9.756372e-05
188	0xbc6accd0	-0.014331058
189	0xbc987d6d	-0.018614495
190	0x3d3705c9	0.04468325
191	0xbcf539ea	-0.029934842
192	0x3c98fdde	0.01867574
193	0x3c35d7a0	0.011098772
194	0x3be30448	0.0069280006
195	0x3d25a2e8	0.040438563
196	0xbd96c614	-0.07361999
197	0xbccad8fd	-0.024761671
198	0x3caf0d57	0.021368666
199	0xbc1c8d75	-0.00955521
200	0xbb9638bb	-0.0045843995
201	0x3d13d02a	0.036087193
202	0xbd7d452a	-0.061833538
203	0xbb9b4b1b	-0.004739178
204	0x3d795d8e	0.060880236
205	0x3c633849	0.0138684
206	0x3c345634	0.011006881
207	0xbcff5b36	-0.031171422
208	0x3c3a2137	0.011360458
209	0x3ccb8b70	0.024846762
210	0xbb557b97	-0.0032574886
211	0xbc1f0e12	-0.0097079445
212	0xbc6839e8	-0.014173962
213	0xbcaf1352	-0.021371517
214	0xbd5ca517	-0.05386838
215	0x3d493b02	0.04912854
216	0x3cd01631	0.025401207
217	0x3d107fde	0.035278194
218	0xbce0e470	-0.027452677
219	0x3cdd5780	0.027019262
220	0xbbed7b2e	-0.00724735
221	0x3d489635	0.048971374
222	0x3d7e9189	0.062150512
223	0x3ab6f4bb	0.0013958433
224	0xbd519aaa	-0.05117289
225	0x3bbb8ea0	0.0057237893
226	0x3cffb97b	0.031216374
227	0x3c34e129	0.0110400105
228	0x3c9af9b5	0.018917898
229	0x3cda5b0e	0.026654746
230	0x3c57f32e	0.013180537
231	0x3d40390e	0.04692941
232	0x3c89d10e	0.016823318
233	0xbc0bdba1	-0.00853625
234	0x3d761b7c	0.060084805
235	0x3d06085b	0.032722812
236	0xbad6b1ca	-0.001637989
237	0x3d4aab7c	0.049479946
238	0x3caf4eb8	0.02139984
239	0xba89fecc	-0.0010528206
240	0x3d5eb5f0	0.054372728
241	0xbd27edbd	-0.04099821
242	0x3c57d17d	0.0131725045
243	0x3bddac1a	0.006764901
244	0x3c5edc0f	0.013602271
245	0xbcd8bc3d	-0.026456947
246	0x3d4d8607	0.050176647
247	0x3cdebbca	0.027189154
248	0x3bcdfef8	0.006286498
249	0x3d1dc454	0.03851731
250	0xbb4da197	-0.0031376833
251	0x3bdd3c33	0.006751561
252	0x3ccf920d	0.025338197
253	0xbadd94e1	-0.0016905331
254	0xbd18ddbc	-0.037320837
255	0x3bb43361	0.005499289

model.8.bias f4 [128]
0	0xbd840f54	-0.06448236
1	0xbdb9937f	-0.09061336
2	0xbc120872	-0.008913146
3	0xbc665d34	-0.014060307
4	0xbd01632c	-0.03158872
5	0xbd8d28dc	-0.06892559
6	0x3cdb02eb	0.02673479
7	0xbdb2e6c4	-0.08735421
8	0xbdd268fa	-0.10273929
9	0xbcb76709	-0.022387998
10	0x3d211c96	0.039333902
11	0x3c92dc2b	0.01792725
12	0x3b4040bd	0.0029335462
13	0x3cefbbd2	0.029264364
14	0xbcf82375	-0.030290345
15	0x3a9a1bb2	0.0011757521
16	0xbc49e947	-0.012323684
17	0xb9d6e3e4	-0.00040987052
18	0x3c24ff09	0.010070571
19	0x3c045e95	0.008079191
20	0xbdb98a82	-0.090596214
21	0xbd99b5a7	-0.075053506
22	0xbd5f3888	-0.05449727
23	0xbcde4123	-0.027130669
24	0xbcffbd5f	-0.031218229
25	0xbcf02e9d	-0.029319102
26	0xbce5df1c	-0.028060488
27	0x3a46aafa	0.0007578578
28	0x3c80c4fb	0.015718928
29	0x3c87274d	0.016498232
30	0xb899b928	-7.3300966e-05
31	0xbc8249bc	-0.0159043
32	0xbd103d36	-0.035214625
33	0xbce5e359	-0.02806251
34	0xb952e688	-0.0002011304
35	0xbd9ed616	-0.077556774
36	0xbd1687f6	-0.036750756
37	0x3c8a6929	0.016895847
38	0xbd0970c9	-0.033554826
39	0xbd93a327	-0.07208853
40	0xbcd2ba3f	-0.025723575
41	0xbcbcac4f	-0.023031382
42	0xba0c758d	-0.00053580926
43	0xbd4d9686	-0.05019238
44	0xbd06b4f4	-0.032887414
45	0xbd0425e9	-0.032262716
46	0x3cf7585e	0.030193504
47	0xbd921ccd	-0.071343996
48	0xbd962272	-0.07330789
49	0xbdad1597	-0.084513836
50	0xbdb6feb5	-0.089353
51	0x3b7c3dd1	0.0038488994
52	0xbbe951ac	-0.0071203317
53	0xbcfd64d0	-0.03093186
54	0xbd820ebf	-0.06350469
55	0xbd0ceb70	-0.03440422
56	0xbcb04a88	-0.021519914
57	0xbced3dd9	-0.028960155
58	0xbcfdbebe	-0.030974742
59	0xbe12ffd4	-0.14355403
60	0xbd97d30d	-0.074133016
61	0xbba154f8	-0.004923459
62	0x3d175366	0.03694477
63	0xbd2b0d10	-0.041760504
64	0xbd3664e1	-0.0445298
65	0xbb0dfdc2	-0.0021666144
66	0x3c1c3b2a	0.00953559
67	0xbdad4d3a	-0.084619954
68	0xbca89fd5	-0.020584026
69	0xbd019ee3	-0.031645667
70	0x3ce05cf6	0.027388077
71	0xbb951051	-0.004549064
72	0xbc82e8d6	-0.015980165
73	0x3c8c808f	0.017151145
74	0xbd976a5f	-0.073933356
75	0xbd16ee38	-0.036848277
76	0xbd4fd700	-0.05074215
77	0xbb9bb88c	-0.0047522243
78	0xbcf859e0	-0.030316293
79	0x3c4a5c9c	0.012351181
80	0xbd1d2d3c	-0.038373217
81	0xbd397e59	-0.04528651
82	0xbc395390	-0.011311427
83	0xbd051d8d	-0.032498885
84	0xbd2f6a9b	-0.042826276
85	0xbcd6776a	-0.026179988
86	0xbcc6a58a	-0.024248857
87	0xbdc6fc74	-0.0971612
88	0xbd4f585b	-0.05062137
89	0xbd6ae141	-0.057343725
90	0xbd776930	-0.06040305
91	0x3c3a601d	0.011375454
92	0x3cad471e	0.021152075
93	0xbbb6d299	-0.0055793044
94	0x3ce7181a	0.028209735
95	0xbd5ea244	-0.054353967
96	0xbc7504f1	-0.014954791
97	0xbd7ee404	-0.06222917
98	0xbd08c77f	-0.03339338
99	0xbd201c2f	-0.039089378
100	0xbd36b2dd	-0.04460417
101	0xbc8520b6	-0.01625095
102	0xbc817816	-0.015804332
103	0xbc4365f6	-0.011926165
104	0xbdafdb2c	-0.085867256
105	0xbdc39511	-0.095499165
106	0xbd6cf845	-0.057853956
107	0xbd5d79a4	-0.054071084
108	0xbbd17ef0	-0.006393306
109	0xbd6af61c	-0.057363614
110	0xbcab5a89	-0.020917194
111	0x3bd527af	0.006504975
112	0xbcd3787a	-0.025814284
113	0x3d037686	0.032095455
114	0xbd9f34c9	-0.0777374
115	0xbd22ddd5	-0.039762337
116	0xbc7c1f09	-0.015388259
117	0xbc845589	-0.016154068
118	0xbcc50dae	-0.024054375
119	0xbca06284	-0.019578226
120	0xbd05b910	-0.032647192
121	0x3b9c5536	0.0047709
122	0x3c83de6b	0.016097268
123	0x3cf679c3	0.030087357
124	0xbc0a14d5	-0.008427818
125	0xbd99e72e	-0.07514797
126	0xbc16c65f	-0.009202569
127	0xbd830b46	-0.063986346

model.10.weight f4 [128]
0	0x3f73cb12	0.95231736
1	0x3f7111f9	0.9416805
2	0x3f72eeea	0.94895804
3	0x3f6e3011	0.93042094
4	0x3f6d04a7	0.92585224
5	0x3f7275c2	0.94710934
6	0x3f6d3a21	0.9266682
7	0x3f71372e	0.9422482
8	0x3f7b83bf	0.98247904
9	0x3f6c87c4	0.9239466
10	0x3f6ea5c9	0.9322172
11	0x3f677841	0.9041787
12	0x3f767576	0.9627298
13	0x3f73f964	0.95302415
14	0x3f6f3779	0.9344402
15	0x3f6c9d0b	0.9242713
16	0x3f61aa51	0.8815051
17	0x3f6fb9c6	0.9364284
18	0x3f737f15	0.95115787
19	0x3f76b29d	0.9636629
20	0x3f76cabb	0.9640309
21	0x3f7283b8	0.94732237
22	0x3f7884d6	0.9707769
23	0x3f70dc9c	0.94086623
24	0x3f758b65	0.95915824
25	0x3f70ed02	0.94111645
26	0x3f6e4ea5	0.9308875
27	0x3f700199	0.9375244
28	0x3f6b6f4a	0.9196669
29	0x3f729735	0.94761974
30	0x3f71e365	0.944876
31	0x3f7624eb	0.9615008
32	0x3f762604	0.9615176
33	0x3f6a95c4	0.91634774
34	0x3f6a2c66	0.91473997
35	0x3f65babf	0.89738077
36	0x3f6f1b0f	0.93400663
37	0x3f70964d	0.9397934
38	0x3f71f804	0.94519067
39	0x3f774dbc	0.9660299
40	0x3f724ead	0.946513
41	0x3f7d0816	0.98840463
42	0x3f7770c1	0.96656424
43	0x3f7881e9	0.9707323
44	0x3f75f5f9	0.9607845
45	0x3f5e8136	0.8691591
46	0x3f6db138	0.9284854
47	0x3f77de8a	0.9682394
48	0x3f6ae9f4	0.91763234
49	0x3f7c5cbc	0.98579
50	0x3f67382b	0.9032008
51	0x3f737daa	0.95113623
52	0x3f734f70	0.95043087
53	0x3f6ff816	0.93737924
54	0x3f7499aa	0.9554697
55	0x3f7144ad	0.94245416
56	0x3f751488	0.95734453
57	0x3f757b81	0.95891577
58	0x3f800000	1.0
59	0x3f7dc1ee	0.9912404
60	0x3f7443f5	0.95416194
61	0x3f6f2b06	0.93425024
62	0x3f70d659	0.9407707
63	0x3f715216	0.9426588
64	0x3f64cc62	0.89374363
65	0x3f6faaab	0.93619794
66	0x3f711f2d	0.94188195
67	0x3f733990	0.9500971
68	0x3f75c525	0.96003944
69	0x3f710be6	0.9415878
70	0x3f71d4e5	0.94465476
71	0x3f70c587	0.940514
72	0x3f6e8a14	0.9317944
73	0x3f74f6f0	0.95689297
74	0x3f6fbd0f	0.93647856
75	0x3f785f61	0.97020537
76	0x3f73e6e2	0.95274174
77	0x3f739a78	0.95157576
78	0x3f769c89	0.96332604
79	0x3f6dc09d	0.9287203
80	0x3f77987c	0.9671705
81	0x3f6959af	0.9115247
82	0x3f6f4d35	0.93477184
83	0x3f6d6b9d	0.9274233
84	0x3f6f58a8	0.93494654
85	0x3f723a6d	0.946204
86	0x3f6aa864	0.91663194
87	0x3f7fa88a	0.99866545
88	0x3f779704	0.96714807
89	0x3f6c15f2	0.92220986
90	0x3f6cf8ce	0.92567146
91	0x3f6ae997	0.9176268
92	0x3f747a21	0.95498854
93	0x3f7ff19d	0.9997805
94	0x3f77ccb4	0.9679673
95	0x3f719309	0.9436498
96	0x3f7073a7	0.9392647
97	0x3f795578	0.9739604
98	0x3f6da64b	0.9283187
99	0x3f6be579	0.9214702
100	0x3f748595	0.9551633
101	0x3f68d16b	0.90944546
102	0x3f66c867	0.9014954
103	0x3f715656	0.94272363
104	0x3f7bdd03	0.9838411
105	0x3f7ebd23	0.9950735
106	0x3f6ecb98	0.9327941
107	0x3f6e8dea	0.93185294
108	0x3f7554de	0.9583262
109	0x3f75b18d	0.95974046
110	0x3f68d820	0.9095478
111	0x3f75557b	0.9583356
112	0x3f6df637	0.9295382
113	0x3f77bfa2	0.96776783
114	0x3f7f9a46	0.9984478
115	0x3f7324d9	0.949781
116	0x3f6390f9	0.88893086
117	0x3f6a1daf	0.91451544
118	0x3f71de0b	0.94479436
119	0x3f698210	0.91214085
120	0x3f692313	0.91069144
121	0x3f691c88	0.9105916
122	0x3f7344d5	0.95026904
123	0x3f78f85c	0.97253966
124	0x3f6e9559	0.93196636
125	0x3f74e787	0.9566578
126	0x3f6c3661	0.92270476
127	0x3f760d01	0.9611359
