Lab4/models/gan_models/ls_50e_250b_dis.pth (torch, 403159 bytes, 22 tensors)

model.0.weight f4 [16, 3, 3, 3]
0.051674433 -0.04232457 0.039107293 0.017610535 0.022784362 -0.021353938 -0.043308374 0.032659657
-0.093630895 0.030384006 -0.079340614 0.08590048 -0.0016802273 -0.0038736262 0.02342094 -0.080248624
0.09168194 0.0020206592 0.023910835 -0.06803857 0.031492766 0.00088967115 -0.010897683 0.038668834
0.00951581 0.06642047 -0.015938569 0.011842475 -0.0071188137 -0.0089015905 -0.00058375223 -0.0008194348
-0.021561226 0.019231848 0.0008103749 -0.020256998 -0.042099554 -0.039736133 -0.0039895866 -0.016298266
-0.054209214 -0.006331767 -0.03669385 0.0036802262 -0.013877511 0.013385401 -0.04088134 -0.062140018
-0.0050032106 -0.04427398 -0.008276341 -0.017731996 -0.022454437 -0.019528918 -0.029906645 0.004365331
-0.08420586 0.018083284 0.0927499 0.007810894 -0.034719557 -0.050664857 -0.06750125 -0.005640442
0.02138404 -0.03773303 0.07324018 0.09230379 0.034339517 -0.086816356 -0.018936938 -0.09622257
0.009551419 0.02257278 -0.016993428 0.052640233 0.073723115 0.04651047 -0.028783463 -0.020932127
-0.054429885 -0.04220905 -0.0021472962 -6.146732e-06 -0.050110374 -0.050660294 -0.038386837 -0.10669966
-0.03192383 -0.06954712 0.1129792 0.06443354 0.042563133 0.102004446 0.04013222 0.009260666
0.07439895 -0.0028262155 0.009838107 0.05145916 0.043390233 0.020511065 -0.021730682 0.0031305812
-0.022077557 -0.07605105 -0.026426457 0.020841418 -0.098502316 -0.109705575 -0.09254698 -0.06235511
-0.098858856 -0.09367211 -0.11687245 -0.07924693 -0.13167828 0.16160658 0.12861519 0.12570477
0.1726084 0.19106163 0.14984092 0.13182457 0.15125044 0.10862519 -0.0781407 -0.028781973
-0.03521534 -0.04868274 -0.040402245 -0.056751 -0.07453365 -0.09026901 -0.0063145757 -0.060561035
0.05706491 -0.056664277 0.00015287973 0.044551734 0.013044277 -0.0024873954 -0.092202455 -0.045490164
-0.06548936 -0.04111212 -0.011641655 -0.012845992 0.030349191 0.05250627 -0.012142344 -0.02443883
-0.023433326 -0.013919298 -0.010032252 -0.053311206 0.03199858 0.022837726 0.00908841 -0.009043484
-0.009716998 -0.021069257 -0.10645495 -0.048997328 -0.028565537 -0.083693065 0.0034192966 -0.01646128
-0.0807736 -0.043567516 -0.0015745872 0.068249755 0.07766853 0.0775965 0.10374737 0.081180505
0.047931824 0.1597141 0.06146507 -0.035664234 -0.06253922 -0.015454003 -0.0004571538 -0.053231128
-0.02793557 -0.006244938 -0.013182684 -0.010611726 -0.042930845 0.03513413 0.039302725 0.03888064
0.039526675 0.07105554 0.013885453 0.046523925 0.026560593 -0.008308088 0.0059154844 0.021771576
-0.0146986395 -0.008202538 0.038897563 0.042779822 -0.001768311 -0.0033474218 -0.025533129 -0.0014241571
0.01817459 -0.00060163037 0.02718083 0.008611844 0.0347563 0.004944464 0.024197739 -0.019775169
-0.045438614 -0.036883745 -0.075360745 0.006734272 0.028778292 -0.1122948 -0.056273658 -0.026413398
-0.028290391 0.019315192 0.034119386 -0.014995494 0.057802424 0.082233034 -0.019935716 -0.0022597315
0.030700203 0.035965476 -0.03688009 0.015473571 -0.09784546 0.05255796 0.08107888 -0.05100743
0.0024136207 0.034795843 0.013087539 -0.024279822 -0.025083326 0.026827196 0.0906737 -0.028674547
0.012187769 0.086443774 -0.05486279 -0.047315493 -0.052765492 0.040724423 0.07160908 -0.05690155
00000000: 92a8 533d 875c 2dbd f82e 203d f843 903c
00000010: 45a6 ba3c 74ee aebc 1f64 31bd 22c6 053d
00000020: 8ec1 bfbd e1e7 f83c 557d a2bd 97ec af3d
00000030: 133b dcba aadc 7dbb 45dd bf3c 6459 a4bd
00000040: bec3 bb3d 096d 043b a8e0 c33c ce57 8bbd
00000050: 8ffe 003d d238 693a 328c 32bc 3663 1e3d
00000060: 33e8 1b3c 7507 883d 9a91 82bc f106 423c
00000070: f044 e9bb fad7 11bc f306 19ba 57cf 56ba
00000080: 2ba1 b0bc 1c8c 9d3c 576f 543a 01f2 a5bc
00000090: 9570 2cbd 5bc2 22bd 14bb 82bb f183 85bc
000000a0: 7b0a 5ebd b67a cfbb 4a4c 16bd f32f 713b
000000b0: 805e 63bc 714e 5b3c 3173 27bd 8886 7ebd
000000c0: f9f1 a3bb a258 35bd 7d99 07bc b142 91bc
000000d0: 5ef2 b7bc 1cfb 9fbc c8fe f4bc 0d0b 8f3b
000000e0: 1f74 acbd 6523 943c a9f3 bd3d 87f2 ff3b
000000f0: 1836 0ebd f485 4fbd 183e 8abd 75d3 b8bb
00000100: 952d af3c f38d 1abd f3fe 953d c509 bd3d
00000110: 98a7 0c3d c6cc b1bd a321 9bbc 5710 c5bd
00000120: 8e7d 1c3c 8dea b83c cd35 8bbc 499d 573d
00000130: 25fc 963d c381 3e3d 4ccb ebbc da79 abbc
00000140: dff1 5ebd 66e3 2cbd a7b9 0cbb 0740 ceb6
00000150: 8940 4dbd 2b81 4fbd 843b 1dbd 5a85 dabd
00000160: 90c2 02bd b86e 8ebd a461 e73d bbf5 833d
00000170: ae56 2e3d b5e7 d03d af61 243d 0cba 173c
00000180: 7a5e 983d 0738 39bb 0330 213c d7c6 523d
00000190: f5b9 313d d206 a83c 8b04 b2bc 702a 4d3b
000001a0: fedb b4bc a7c0 9bbd 4c7c d8bc 9fbb aa3c
000001b0: 95bb c9bd 51ad e0bd 4589 bdbd 1268 7fbd
000001c0: 8376 cabd 2ad7 bfbd d35a efbd 374c a2bd
000001d0: acd6 06be 327c 253e b3b3 033e c0b8 003e
000001e0: 42c0 303e a9a5 433e e66f 193e 05fd 063e
000001f0: 65e1 1a3e e276 de3d 3b08 a0bd 2cc8 ebbc
00000200: f63d 10bd 8e67 47bd d37c 25bd bd73 68bd
00000210: 19a5 98bd f5de b8bd 80ea cebb d90e 78bd
00000220: e5bc 693d cd18 68bd 574e 2039 e17b 363d
00000230: aab7 553c 9203 23bb a4d4 bcbd e553 3abd
00000240: 491f 86bd 2f65 28bd a4bc 3ebc ff77 52bc
00000250: de9e f83c d110 573d aff0 46bc f133 c8bc
00000260: 3ff7 bfbc c40d 64bc 515e 24bc da5c 5abd
00000270: f110 033d 2f16 bb3c 8ee7 143c 1f2b 14bc
00000280: 0b34 1fbc 6f99 acbc 0e05 dabd 6cb1 48bd
00000290: 4602 eabc 4567 abbd 4716 603b ced9 86bc
000002a0: a16c a5bd da73 32bd 6162 ceba 87c6 8b3d
000002b0: ae10 9f3d eaea 9e3d 8079 d43d f741 a63d
000002c0: 2954 443d 188c 233e ccc2 7b3d a914 12bd
000002d0: 9014 80bd c932 7dbc 25ae efb9 e208 5abd
000002e0: 23d9 e4bc 56a2 ccbb 2ffc 57bc cedc 2dbc
000002f0: 41d8 2fbd cee8 0f3d e5fb 203d 4e41 1f3d
00000300: b9e6 213d 9185 913d d07f 633c df8f 3e3d
00000310: 9a95 d93c a61e 08bc aed6 c13b 4e5a b23c
00000320: 90d2 70bc f063 06bc 0d53 1f3d e539 2f3d
00000330: acc6 e7ba 6b60 5bbb da2a d1bc c8aa baba
00000340: e1e2 943c bbb6 1dba 55aa de3c b118 0d3c
00000350: 9f5c 0e3d 2c05 a23b 563a c63c 89ff a1bc
00000360: d71d 3abd 6913 17bd bc56 9abd 2bab dc3b
00000370: 74c0 eb3c d1fa e5bd 357f 66bd e960 d8bc
00000380: 40c1 e7bc e53a 9e3c c5c0 0b3d a9af 75bc
00000390: 3cc2 6c3d cb69 a83d 3a50 a3bc 0118 14bb
000003a0: fe7e fb3c 8950 133d 940f 17bd dc84 7d3c
000003b0: 3363 c8bd 0447 573d af0c a63d 2bed 50bd
000003c0: d62d 1e3b 1686 0e3d 1e6d 563c 7ae6 c6bc
000003d0: 8c7b cdbc b5c4 db3c 22b3 b93d e2e6 eabc
000003e0: 35af 473c 6f09 b13d ceb7 60bd e4cd 41bd
000003f0: a120 58bd a7ce 263d c8a7 923d 9a11 69bd

model.0.bias f4 [16]
-0.0069603156 -0.20790508 -0.067173004 -0.0976418 -0.056126628 -0.027174037 0.06436323 -0.2500012
0.054391325 -0.027358903 -0.20624186 -0.022572888 0.053909037 0.0015691976 -0.19937868 -0.038252547
00000000: 5c13 e4bb 12e5 54be 0092 89bd 6df8 c7bd
00000010: 09e5 65bd 169c debc ded0 833d 2800 80be
00000020: 70c9 5e3d c71f e0bc 1131 53be c7ea b8bc
00000030: b9cf 5c3d 89ad cd3a ed29 4cbe b4ae 1cbd

model.2.weight f4 [32, 16, 3, 3]
-0.028288763 -0.057969056 -0.06386077 -0.014133864 0.031167593 0.002286937 -0.059105705 0.0507851
-0.059975218 0.04127679 0.041779675 0.019857373 -0.029259013 -0.04197309 0.002017031 -0.028009126
-0.026858235 0.05604222 -0.020410635 -0.039137177 0.027045347 -0.02157286 -0.045341346 0.050044533
-0.05831127 -0.10009236 -0.01683335 -0.005248621 -0.053087287 -0.08714234 -0.058500238 -0.022029404
-0.09592792 -0.0486565 -0.041017417 -0.11668999 0.1418192 0.07515246 0.007987781 0.10656612
0.02197439 -0.08860847 0.119007155 0.05431824 -0.047038455 -0.017069157 -0.044237636 0.012985409
-0.039643474 -0.06711474 -0.010996165 -0.022025246 -0.0014370776 -0.0193109 0.06488477 0.05560496
-0.018417256 0.05965123 0.102615595 -0.019227756 -0.0064529153 0.037235506 -0.03718096 -0.026241638
-0.04094756 0.024371764 -0.033480447 -0.06590744 -0.027383914 -0.03489739 -0.09502969 -0.014393389
0.031215671 -0.021397747 0.042852703 0.029462734 -0.05393061 0.0041711805 0.008802859 -0.028831434
0.050277993 -0.10541174 0.015820963 -0.041315567 0.007011659 0.12858485 0.05442907 -0.0012476381
0.09338247 0.027490625 0.038573634 0.017296176 -0.014858021 -0.006148997 0.011760752 -0.07869127
0.016991038 0.03809044 -0.09916417 -0.07775526 -0.0014234724 0.08064716 -0.030085847 0.06615027
0.09728664 -0.09807597 0.056030363 0.12813921 -0.028172622 -0.043010995 0.004178785 0.014323577
-0.07375224 0.025099296 -0.053606525 -0.07346195 0.02511794 -0.16225979 -0.050921574 -0.034947123
-0.115135044 -0.011774926 0.033214148 -0.17187111 -0.016204732 -0.00985829 0.01014754 0.032854486
-0.016183509 0.003342384 0.001303755 -0.06664474 0.03843735 0.0458803 -0.014156425 -0.015613066
0.013230958 -0.09245032 -0.036545005 0.0071714944 -0.060585808 -0.013537867 0.008258838 -0.12830174
0.0014142181 0.040180907 0.039254844 0.009654014 -0.06928446 0.07925625 -0.028725455 -0.03595221
-0.0012448179 -0.03175936 0.023472989 0.011269102 -0.0038599109 0.09294114 0.040019047 -0.016292084
0.055337712 -0.022365578 -0.045203716 0.0019470472 0.06513572 0.081914276 -0.023474611 0.07568381
0.0003652209 -0.034040067 0.02951931 0.023431053 -0.0045091105 0.0011866422 0.09369228 0.059273638
-0.026153801 -0.00017445887 0.017119441 -0.01843004 -0.0018563222 -0.011195272 -0.016910201 0.047801584
0.013019464 0.04122213 0.035705797 -0.0056627253 0.0020965934 0.026761148 0.06906984 0.06730826
0.039157826 0.012079086 0.037527513 -0.031017028 0.013153644 -0.028864343 -0.016024398 0.0048461137
0.0015851089 0.032488875 -0.0030097647 -0.01867592 0.005896426 -0.08468161 0.025853604 0.014038728
0.03961712 0.01660012 0.04706658 0.048875395 0.09933284 0.03350583 0.049589407 0.08983383
-0.010191219 -0.07167405 0.09078447 0.014535471 -0.040316325 -0.02816161 0.022909662 -0.07034724
0.012955755 0.06153743 0.04314344 -0.029847376 -0.039127182 -0.021283092 -0.03253174 -0.037807487
-0.13182561 -0.012410778 -0.017333118 -0.020375347 -0.04377097 0.017348243 -0.03762498 -0.04310895
-0.03590022 -0.022457909 -0.05230318 -0.005567973 -0.019068573 0.051277444 -0.024635006 -0.004316767
0.01954604 0.042494923 0.03900823 0.024854314 -0.023503108 0.009002832 -0.037015866 0.044582773
00000000: d6bd e7bc f670 6dbd 6fc9 82bd b991 67bc
00000010: 2e53 ff3c 70e0 153b d318 72bd 0904 503d
00000020: 93a8 75bd da11 293d 2a21 2b3d eeab a23c
00000030: 99b0 efbc faeb 2bbd 2a30 043b 6573 e5bc
00000040: cd05 dcbc 878c 653d 3434 a7bc 4e4e 20bd
00000050: 348e dd3c 91b9 b0bc d9b7 39bd 7ffb 4c3d
00000060: ccd7 6ebd 39fd ccbd 18e6 89bc a0fc abbb
00000070: 0e72 59bd af77 b2bd f29d 6fbd 0277 b4bc
00000080: db75 c4bd 0a4c 47bd e101 28bd 29fb eebd
00000090: 0d39 113e 88e9 993d 2fdf 023c 573f da3d
000000a0: a303 b43c 5c78 b5bd 06ba f33d ce7c 5e3d
000000b0: 65ab 40bd 9ed4 8bbc 8632 35bd c1c0 543c
000000c0: 3261 22bd 7473 89bd 4229 34bc 4a6e b4bc
000000d0: 535c bcba e431 9ebc 4ee2 843d 07c2 633d
000000e0: c9df 96bc d954 743d 2028 d23d 8783 9dbc
000000f0: fa72 d3bb 4284 183d 104b 18bd b4f8 d6bc
00000100: a1b8 27bd 4ba7 c73c cb22 09bd 7bfa 86bd
00000110: 3b54 e0bc 91f0 0ebd ed9e c2bd 40d2 6bbc
00000120: 02b8 ff3c 544a afbc 5186 2f3d d55b f13c
00000130: 58e6 5cbd 66ae 883b de39 103c e62f ecbc
00000140: 4cf0 4d3d 1ce2 d7bd f79a 813c 833a 29bd
00000150: 0fc2 e53b bfab 033e 04f1 5e3d ca87 a3ba
00000160: 4f3f bf3d 0534 e13c 63ff 1d3d b6b0 8d3c
00000170: 0f6f 73bc 877d c9bb 2bb0 403c e328 a1bd
00000180: ca30 8b3c b904 1c3d 9616 cbbd 263e 9fbd
00000190: cf93 baba 572a a53d 9876 f6bc cb79 873d
000001a0: 383e c73d 0edc c8bd 1880 653d ed36 033e
000001b0: 45ca e6bc 4c2c 30bd 30ee 883b 70ad 6a3c
000001c0: 6a0b 97bd 0a9d cd3c 8492 5bbd 3873 96bd
000001d0: 23c4 cd3c 6e27 26be 2493 50bd b724 0fbd
000001e0: eccb ebbd 9feb 40bc 8f0b 083d fbfe 2fbe
000001f0: c9bf 84bc aa84 21bc de41 263c 6d92 063d
00000200: 4793 84bc e60b 5b3b c2e2 aa3a 0a7d 88bd
00000210: 7c70 1d3d fbec 3b3d 5af0 67bc f2cd 7fbc
00000220: a9c6 583c 9856 bdbd 37b0 15bd dbfe ea3b
00000230: d328 78bd eecd 5dbc 1450 073c 8861 03be
00000240: 495d b93a bc94 243d b0c9 203d df2b 1e3c
00000250: 03e5 8dbd 1a51 a23d a551 ebbc a042 13bd
00000260: 2829 a3ba 1a16 02bd 6d4a c03c 0aa2 383c
00000270: 8ff6 7cbb ed57 be3d 03eb 233d fa76 85bc
00000280: cca9 623d 0438 b7bc 8827 39bd 1034 ff3a
00000290: e065 853d acc2 a73d d44d c0bc 1d00 9b3d
000002a0: 1f7b bf39 996d 0bbd 7bd2 f13c 7bf2 bf3c
000002b0: 29c1 93bb 1b89 9b3a bde1 bf3d eac8 723d
000002c0: 7f40 d6bc f2ee 36b9 123e 8c3c 98fa 96bc
000002d0: d64f f3ba 606c 37bc 4387 8abc 98cb 433d
000002e0: 974f 553c 89d8 283d 3e40 123d 628e b9bb
000002f0: 0067 093b 323a db3c 7d74 8d3d ead8 893d
00000300: f563 203d 5ce7 453c 73b6 193d 6c17 febc
00000310: 6282 573c ea74 ecbc 9945 83bc 26cc 9e3b
00000320: 6ec3 cf3a 0e13 053d 793f 45bb 3efe 98bc
00000330: ce36 c13b 8d6d adbd f0ca d33c b102 663c
00000340: 9045 223d fafc 873c e3c8 403d 9131 483d
00000350: 046f cb3d 693d 093d 431e 4b3d cdfa b73d
00000360: 12f9 26bc d8c9 92bd 35ed b93d 2f26 6e3c
00000370: bb22 25bd 2db3 e6bc 0bad bb3c 3712 90bd
00000380: 6044 543c ac0e 7c3d 2db7 303d 7c82 f4bc
00000390: d343 20bd e159 aebc 0040 05bd 06dc 1abd
000003a0: 4bfd 06be 9356 4bbc 2ffe 8dbc 33ea a6bc
000003b0: 3049 33bd e71d 8e3c a71c 1abd 0393 30bd
000003c0: 1c0c 13bd a6f9 b7bc dc3b 56bd 8b73 b6bb
000003d0: b235 9cbc 4c08 523d 5acf c9bc ab73 8dbb
000003e0: 041f a03c 280f 2e3d 18c7 1f3d 469b cb3c
000003f0: 9789 c0bc 9d80 133c f39d 17bd 6d9c 363d

model.2.bias f4 [32]
0.10047617 -0.07955983 0.0153757725 -0.05612913 -0.06387158 -0.019194352 0.108807705 0.3010496
0.03712487 -0.13740952 0.12948579 -0.042631067 -0.023116944 -0.007418687 -0.093449734 0.0050725928
-0.012273285 0.08387511 -0.06709022 -0.05629313 -0.077576645 -0.10391767 -0.08947966 0.12104513
0.01920871 -0.07820358 -0.092530005 0.19494314 0.19069661 -0.056423664 0.031027285 0.02252218
00000000: 73c6 cd3d 44f0 a2bd aaea 7b3c a9e7 65bd
00000010: 1acf 82bd 793d 9dbc 93d6 de3d 2c23 9a3e
00000020: 3f10 183d 15b5 0cbe ec97 043e ea9d 2ebd
00000030: bf5f bdbc 7518 f3bb 9362 bfbd fe37 a63b
00000040: e315 49bc b7c6 ab3d 9966 89bd a093 66bd
00000050: 81e0 9ebd cad2 d4bd 1d41 b7bd 82e6 f73d
00000060: 965b 9d3c 3329 a0bd 5f80 bdbd 2d9f 473e
00000070: f945 433e 801c 67bd ef2c fe3c 6f80 b83c

model.4.weight f4 [32]
0.9716505 0.9268468 0.99153626 0.96070105 0.94622314 0.95111 0.9612315 0.9529214
0.99785876 0.9092987 0.85982305 0.9376607 0.9849415 0.9202188 1.0 0.88365215
0.9071268 0.99698037 0.95823544 0.98420024 0.922149 0.99833226 0.9952009 0.94833624
0.9634041 0.98402447 0.9888573 0.9934387 0.952815 0.93398315 0.9722679 0.9860275
00000000: 16be 783f d545 6d3f 52d5 7d3f 81f0 753f
00000010: ae3b 723f f27b 733f 4513 763f a8f2 733f
00000020: ac73 7f3f cdc7 683f 5d1d 5c3f 880a 703f
00000030: 2025 7c3f 7693 6b3f 0000 803f 0737 623f
00000040: 7639 683f 1b3a 7f3f eb4e 753f 8cf4 7b3f
00000050: f511 6c3f b492 7f3f 7cc5 7e3f 2ac6 723f
00000060: a7a1 763f 07e9 7b3f c125 7d3f 0052 7e3f
00000070: afeb 733f 8519 6f3f 8de6 783f 4c6c 7c3f

model.4.bias f4 [32]
-0.028723974 0.084779166 0.011233454 0.017953644 -0.0024615093 -0.06280812 -0.07727716 0.01371522
-0.12805231 -0.027850691 -0.024395185 0.10873512 0.045253787 0.06822516 0.042763952 -0.01855425
-0.0040319925 0.08079028 -0.043462954 -0.007685257 0.006581577 -0.107841946 -0.086230434 -0.025675591
-0.038566098 -0.15709953 -0.07818465 0.02386021 -0.014070225 -0.12030502 -0.097084776 -0.08402453
00000000: 8a4e ebbc b3a0 ad3d 850c 383c 8513 933c
00000010: 4651 21bb 8ba1 80bd 7d43 9ebd cdb5 603c
00000020: 2520 03be 2227 e4bc 69d8 c7bc 85b0 de3d
00000030: 095c 393d a2b9 8b3d 4129 2f3d 15ff 97bc
00000040: ce1e 84bb 6075 a53d 3606 32bd 9cd4 fbbb
00000050: 45aa d73b 3ddc dcbd 9599 b0bd 9e55 d2bc
00000060: 7cf7 1dbd b3de 20be 461f a0bd 7d76 c33c
00000070: cd86 66bc 7a62 f6bd 62d4 c6bd 0e15 acbd

model.4.running_mean f4 [32]
0.11939954 -0.039657973 0.078861944 0.0035664565 -0.03470041 -0.026104113 0.11497095 0.2862693
0.06806989 -0.036890816 0.13914305 -0.037520863 0.0006039869 -0.006669055 0.0022153666 -0.006684152
-0.008154249 0.08233725 -0.02252083 -0.043661464 -0.046286285 -0.056864128 -0.048678193 0.12619531
0.018481417 -0.04132204 -0.023143161 0.22929615 0.2395313 -0.014690833 0.035803664 0.062600225
00000000: bf87 f43d 6670 22bd 5f82 a13d 36bb 693b
00000010: 0422 0ebd 4bd8 d5bc e475 eb3d e491 923e
00000020: 3a68 8b3d d31a 17bd 847b 0e3e 7aaf 19bd
00000030: e054 1e3a 1788 dabb af2f 113b bb06 dbbb
00000040: 6699 05bc 6fa0 a83d 9b7d b8bc 5dd6 32bd
00000050: b096 3dbd 5cea 68bd c962 47bd 5839 013e
00000060: 5766 973c 4d41 29bd ba96 bdbc 9ccc 6a3e
00000070: b147 753e d2b1 70bc dda6 123d 8c34 803d

model.4.running_var f4 [32]
0.0043532727 0.0003620192 0.001184352 0.0009746 0.00149238 0.0050075003 0.0034231008 0.002280067
0.008064479 0.00049222336 0.0050783865 0.0031180785 0.0035164335 0.0007786668 0.0062939925 0.00038387268
0.0002614025 0.009016564 0.00045083562 0.0007368446 0.0010407422 0.0025529389 0.00088460324 0.0090317745
0.001083612 0.0016524353 0.0004524911 0.007995596 0.0040759137 0.000379209 0.00051207194 0.0021252423
00000000: e6a5 8e3b 65cd bd39 423c 9b3a 4d7c 7f3a
00000010: f79b c33a f515 a43b 1a56 603b 2d6d 153b
00000020: e020 043c 8d08 013a 9868 a63b ad58 4c3b
00000030: f773 663b 721f 4c3a d63d ce3b 8542 c939
00000040: da0c 8939 36ba 133c 225e ec39 ce28 413a
00000050: 8369 883a 354f 273b b8e4 673a 02fa 133c
00000060: fc07 8e3a 8796 d83a 543c ed39 f6ff 023c
00000070: 3e8f 853b 92d0 c639 913c 063a a647 0b3b

model.5.weight f4 [64, 32, 3, 3]
-0.013608297 -0.044444 0.0010664322 0.011560643 -0.081946984 -0.008471795 -0.05690272 -0.11099086
-0.034169644 -0.047608815 0.0521372 -0.021049002 -0.035534505 -0.028163424 -0.006284662 0.008289593
0.0027664984 -0.020710375 0.10257041 0.04723398 -0.019863956 0.11487202 0.001014849 -0.0047633587
0.112467505 0.005080019 0.013180686 0.0731749 -0.032209933 -0.017180866 0.07775586 -0.027351538
-0.018742917 0.05759277 0.0150935175 -0.005928066 0.059467863 -0.04526673 -0.00472967 0.04228729
-0.040694226 0.038763218 0.050156217 0.011453463 0.008872749 0.025520273 -0.1420524 -0.04079279
0.0475023 -0.05829765 0.025534738 0.040649965 -0.027232395 -0.019187184 -0.0107301315 0.0894831
-0.010573708 -0.036582842 0.09528296 -0.022075856 0.03667007 0.104522064 0.0056009386 -0.081389114
0.008891151 0.029440923 -0.08763158 -0.008633176 0.018321803 -0.07675677 -0.024120513 0.004085594
-0.06389001 0.052985217 0.006975091 -0.022631545 0.0379754 0.016102394 -0.08476156 0.033672977
0.0157075 0.011606902 -0.0760857 0.020755967 0.048264243 0.0055208537 0.049726576 0.068375126
0.021705482 0.024019757 -0.01103272 0.064257264 0.008449392 0.035060428 0.06989997 0.007294392
0.012424461 0.014105989 -0.033196222 0.03953091 -0.042749353 -0.007162348 0.06366183 -0.036193997
0.019570438 0.06582878 -0.07227406 0.006267458 0.09065388 0.007928326 -0.009464854 0.038077235
-0.0019605542 -0.019872019 0.0645194 0.014657575 0.041428313 -0.0081063295 0.008374032 -0.019488003
-0.026358582 0.038918328 -0.0015457864 -0.026348924 -0.08536508 -0.016237205 -0.08423838 0.043891866
0.002846926 -0.12239509 -0.045293186 -0.033420336 -0.1286198 -0.019339614 0.020617345 -0.029498065
-0.0349869 -0.015672099 -0.060908005 -0.0050561624 -0.018539248 -0.038916998 -0.015719134 -0.008627536
-0.058858518 -0.079518266 -0.030518297 -0.07193942 -0.036717385 -0.013865931 -0.02868663 0.012261312
0.0019764204 0.06787724 -0.04828117 -0.029950438 0.06278454 -0.012783912 -0.07721944 0.12271514
-0.018933695 -0.043074198 0.0041176146 -0.025720168 -0.0039599044 -0.035344195 -0.010736895 -0.010040838
-0.014563142 -0.024477324 0.03455521 0.080554456 -0.08572389 -0.03538363 0.1325263 -0.029786717
0.027764304 0.14331985 0.0039471663 -0.00045259416 0.058068454 -0.045751818 -0.011443833 0.13013189
0.0078089605 -0.0025493773 0.06143307 -0.04576932 -0.013212882 -0.06804537 0.12906936 0.033937432
-0.11204514 0.02068207 -0.011113653 -0.14327675 0.07359358 -0.0020661636 -0.026974544 -0.15978831
0.001938085 -0.00504271 -0.116723396 0.007393316 -0.06823374 -0.099866726 -0.046810225 -0.03943845
0.04860683 0.019164633 -0.08390751 0.058106996 0.024280299 -0.09711922 0.03103667 0.013311065
-0.039421353 -0.008771985 -0.013197546 -0.113872275 -0.06200933 -0.03617093 -0.018234111 0.0086496975
0.013485544 -0.035990562 0.12741376 -0.015920555 -0.037617743 0.047956705 -0.030399721 -0.015682125
0.0941691 -0.020926062 0.018416882 0.015170971 0.01012116 0.033931024 0.03656842 0.0043782145
-0.046242133 -0.022917105 -0.013065135 -0.018121023 -0.2133588 0.018417431 -0.10182684 -0.16124012
-0.0065530636 -0.0025012558 -0.1357933 0.006655864 0.12562855 0.019471122 -0.015327667 0.044487394
00000000: 56f5 5ebc e90a 36bd 87c7 8b3a da68 3d3c
00000010: d2d3 a7bd 49cd 0abc d412 69bd 2d4f e3bd
00000020: 78f5 0bbd 7601 43bd d18d 553d f56e acbc
00000030: a18c 11bd fbb6 e6bc 91ef cdbb 13d1 073c
00000040: 244e 353b cea8 a9bc 6f10 d23d 6b78 413d
00000050: bcb9 a2bc 0642 eb3d af04 853a f315 9cbb
00000060: 5d55 e63d 4a76 a63b cef3 573c b9dc 953d
00000070: 90ee 03bd e3be 8cbc 773e 9f3d 5510 e0bc
00000080: bf8a 99bc 65e6 6b3d cd4a 773c 3940 c2bb
00000090: 9394 733d 9b69 39bd 59fb 9abb 7035 2d3d
000000a0: fdae 26bd 2ec6 1e3d 9b70 4d3d 4ea7 3b3c
000000b0: 025f 113c e40f d13c 2f76 11be 5716 27bd
000000c0: c691 423d 84c9 6ebd 3a2e d13c 9480 263d
000000d0: 7916 dfbc 712e 9dbc 6fcd 2fbc ea42 b73d
000000e0: 593d 2dbc e4d7 15bd b623 c33d 6dd8 b4bc
000000f0: 5b33 163d aa0f d63d 1488 b73b 56af a6bd
00000100: 31ac 113c 172e f13c 3078 b3bd 2a72 0dbc
00000110: 9b17 963c a732 9dbd 6298 c5bc 72e0 853b
00000120: c4d8 82bd 0707 593d 4e8f e43b ca65 b9bc
00000130: 188c 1b3d 2be9 833c 7897 adbd adec 093d
00000140: 04ad 803c e02a 3e3c d2d2 9bbd 6b08 aa3c
00000150: bab0 453d 47e8 b43b 18ae 4b3d 4208 8c3d
00000160: b2cf b13c 15c5 c43c 95c2 34bc 5099 833d
00000170: 526f 0a3c 869b 0f3d b727 8f3d cc05 ef3b
00000180: f78f 4b3c ce1c 673c c3f8 07bd 2aeb 213d
00000190: f219 2fbd 21b2 eabb 2261 823d 2840 14bd
000001a0: 2f52 a03c 3dd1 863d 6c04 94bd 405f cd3b
000001b0: bea8 b93d cfe5 013c 7a12 1bbc e0f6 1b3d
000001c0: a47c 00bb a5ca a2bc bf22 843d 5326 703c
000001d0: bcb0 293d 69d0 04bc 3c33 093c 4ea5 9fbc
000001e0: f4ed d7bc d368 1f3d fc9b caba b3d9 d7bc
000001f0: e3d3 aebd e303 85bc 2c85 acbd f5c7 333d
00000200: 7e93 3a3b 47aa fabd 5985 39bd c3e3 08bd
00000210: e9b4 03be 1c6e 9ebc b5e5 a83c eda5 f1bc
00000220: 6c4e 0fbd c662 80bc ac7a 79bd 2aae a5bb
00000230: 9fdf 97bc 6e67 1fbd 6ac5 80bc 825a 0dbc
00000240: a115 71bd 79da a2bd 8201 fabc fa54 93bd
00000250: f864 16bd ee2d 63bc 3900 ebbc ace3 483c
00000260: d586 013b 3903 8b3d 7ac2 45bd 9f5a f5bc
00000270: 2e95 803d 9d73 51bc 3a25 9ebd 1352 fb3d
00000280: d61a 9bbc 926e 30bd 0eed 863b 1ab3 d2bc
00000290: 16c2 81bb 13c5 10bd cde9 2fbc 5482 24bc
000002a0: 3f9a 6ebc ab84 c8bc c489 0d3d bcf9 a43d
000002b0: 0290 afbd 6dee 10bd f9b4 073e 4603 f4bc
000002c0: f771 e33c 70c2 123e 3b57 813b 294a edb9
000002d0: 30d9 6d3d 4266 3bbd ea7e 3bbc 4b41 053e
000002e0: 4fe2 ff3b 7413 27bb 3ea1 7b3d 9c78 3bbd
000002f0: d87a 58bc 5f5b 8bbd c22a 043e fa01 0b3d
00000300: ec77 e5bd 726d a93c 0a16 36bc 24b7 12be
00000310: 3bb8 963d 7968 07bb b8f9 dcbc 8c9f 23be
00000320: 5707 fe3a 513d a5bb ad0c efbd a143 f23b
00000330: 22be 8bbd ed86 ccbd 14bc 3fbd 368a 21bd
00000340: f517 473d 26ff 9c3c b3d7 abbd 9a01 6e3d
00000350: 7ae7 c63c 71e6 c6bd 9d40 fe3c a716 5a3c
00000360: 4978 21bd 5fb8 0fbc 853a 58bc de35 e9bd
00000370: 7ffd 7dbd f827 14bd b45f 95bc 76b7 0d3c
00000380: 79f2 5c3c d76a 13bd c178 023e d36b 82bc
00000390: 1015 1abd 406e 443d d608 f9bc cd77 80bc
000003a0: bbdb c03d 226d abbc 00df 963c aa8f 783c
000003b0: 39d3 253c 42fb 0a3d c4c8 153d 2077 8f3b
000003c0: 6468 3dbd a7bc bbbc 260f 56bc 8a72 94bc
000003d0: bb7a 5abe 27e0 963c 978a d0bd 211c 25be
000003e0: 15bb d6bb 1cec 23bb 660d 0bbe 6f19 da3b
000003f0: c5a4 003e e781 9f3c e520 7bbc 6a38 363d

model.5.bias f4 [64]
-0.058432836 -0.3734241 -0.16555409 -0.12458582 -0.091084234 -0.09666005 -0.041849706 -0.28027096
-0.204852 -0.15272763 -0.07341589 -0.08101607 -0.27639169 -0.28354788 -0.032238647 -0.22798488
-0.2959269 -0.18286203 -0.1398845 -0.2671226 -0.17153746 0.0044877403 -0.25486654 -0.27976876
-0.13923655 -0.117725566 -0.06713357 -0.16365668 -0.045216154 -0.03525881 -0.27808094 -0.22220369
-0.11575598 -0.14666243 0.022877261 -0.05378973 -0.14883673 -0.16393514 -0.3229698 -0.1031862
-0.14529489 -0.016119355 -0.2949869 -0.30525532 -0.13493262 -0.17431164 0.07737163 -0.25015587
-0.2942487 -0.024693243 -0.08723376 0.016727433 -0.3275311 -0.18985279 -0.20354486 -0.16781372
-0.105788544 -0.021986231 0.012407808 -0.06488272 -0.22580339 -0.05640425 0.023729645 -0.014663296
00000000: 4557 6fbd 7231 bfbe 0387 29be da26 ffbd
00000010: 5f8a babd b4f5 c5bd 996a 2bbd ad7f 8fbe
00000020: b9c4 51be a264 1cbe 125b 96bd c1eb a5bd
00000030: 3683 8dbe 302d 91be ac0c 04bd de74 69be
00000040: bb83 97be 2f40 3bbe e23d 0fbe 4bc4 88be
00000050: 84a7 2fbe e50d 933b de7d 82be da3d 8fbe
00000060: 0794 0ebe 1a1a f1bd 537d 89bd 9e95 27be
00000070: 9334 39bd 8b6b 10bd a060 8ebe 5d89 63be
00000080: 7911 edbd ad2e 16be 1869 bb3c 9f52 5cbd
00000090: a868 18be 9dde 27be 4c5c a5be 4953 d3bd
000000a0: 2fc8 14be bd0c 84bc 8608 97be 6d4a 9cbe
000000b0: c72b 0abe c07e 32be 0475 9e3d 6e14 80be
000000c0: c4a7 96be 7c49 cabc 9da7 b2bd f807 893c
000000d0: 28b2 a7be c568 42be 106e 50be 5cd7 2bbe
000000e0: aaa7 d8bd 781c b4bc 1e4a 4b3c 3be1 84bd
000000f0: 0139 67be 2508 67bd ac64 c23c 523e 70bc

model.7.weight f4 [64]
0.9978365 0.96586466 0.94660157 0.9693113 0.9739449 0.98863256 0.8865952 0.86263365
0.96478957 0.8823317 0.96345353 0.979525 0.9767508 0.97176665 0.94628114 0.8887199
0.9152861 0.9853286 0.990408 0.957047 0.8785645 0.9783126 0.9272425 0.92507297
0.997649 0.9249528 0.99509686 0.86183053 0.9963832 0.9730459 0.960494 0.9481936
0.9859375 0.9656537 0.90845287 0.9801214 0.9437684 0.9577232 0.94532424 0.9826039
0.98206574 0.9626738 0.929919 0.9561988 0.9217165 0.9791243 0.88757515 0.9692984
0.9829358 0.99276173 0.9863771 0.99542177 0.957656 0.8811796 0.9499211 0.998177
0.84469724 0.9771845 0.8628192 0.9418303 0.9003906 0.9367325 0.99351674 0.89470685
00000000: 3672 7f3f e842 773f 7b54 723f c924 783f
00000010: 7454 793f 0617 7d3f e7f7 623f 8fd5 5c3f
00000020: 73fc 763f 7ee0 613f e4a4 763f 27c2 7a3f
00000030: 570c 7a3f b3c5 783f 7b3f 723f 2683 633f
00000040: 3150 6a3f 7f3e 7c3f 618b 7d3f 0801 753f
00000050: 9ae9 603f b272 7a3f c45f 6d3f 95d1 6c3f
00000060: ed65 7f3f b5c9 6c3f abbe 7e3f eda0 5c3f
00000070: f812 7f3f 8919 793f efe2 753f d1bc 723f
00000080: 6666 7c3f 1535 773f 5e90 683f 3ce9 7a3f
00000090: ce9a 713f 592d 753f c500 723f ee8b 7b3f
000000a0: a968 7b3f ca71 763f 2c0f 6e3f 72c9 743f
000000b0: 9df5 6b3f e4a7 7a3f 2038 633f f123 783f
000000c0: aea1 7b3f a225 7e3f 3683 7c3f f6d3 7e3f
000000d0: f228 753f fc94 613f 072e 733f 8788 7f3f
000000e0: 143e 583f c328 7a3f b8e1 5c3f ca1b 713f
000000f0: 0080 663f b3cd 6f3f 1d57 7e3f 820b 653f

model.7.bias f4 [64]
-0.042764805 0.04558667 -0.019656157 0.029553883 -0.0683339 0.0039231945 0.02962485 -0.010361306
0.027309002 0.08059427 0.051364094 -0.059360426 0.084577344 0.04207543 -0.0058826623 0.1643611
0.08899227 0.09747852 0.004853496 -0.12271058 0.01686186 0.06615428 0.044896487 0.02779132
0.02069229 0.09731739 0.032274105 -0.017366154 -0.06398842 0.019364815 0.053368002 -0.014796513
0.027801603 -0.11285446 -0.041017283 0.013811772 0.07239197 -0.029383613 0.044505354 0.026646914
-0.017920662 0.044384945 -0.028092816 0.061015792 0.0185923 0.08758579 -0.04828487 0.04617215
0.06978702 0.038708523 0.08136062 -0.07759134 0.05479458 0.08345131 0.020392591 0.022905093
0.026549675 -0.060549997 0.08127973 0.0416888 -0.0090207 -0.05413539 0.008249579 -0.019843198
00000000: 262a 2fbd 17b9 3a3d f305 a1bc fc1a f23c
00000010: a5f2 8bbd 248e 803b d0af f23c 78c2 29bc
00000020: 21b7 df3c 9c0e a53d 2863 523d eb23 73bd
00000030: e336 ad3d 4957 2c3d 59c3 c0bb 474e 283e
00000040: 9441 b63d d1a2 c73d 130a 9f3b af4f fbbd
00000050: e221 8a3c e57b 873d 61e5 373d 9faa e33c
00000060: e182 a93c 574e c73d da31 043d 7743 8ebc
00000070: 5c0c 83bd f6a2 9e3c 6898 5a3d 136d 72bc
00000080: 30c0 e33c 3d20 e7bd bd01 28bd c54a 623c
00000090: 3e42 943d e7b5 f0bc 3f4b 363d a14a da3c
000000a0: 5ace 92bc fdcc 353d e822 e6bc b2eb 793d
000000b0: e14e 983c 2e60 b33d 5bc6 45bd 021f 3d3d
000000c0: 7fec 8e3d d48c 1e3d 66a0 a63d 35e8 9ebd
000000d0: 4870 603d 85e8 aa3d 5d0e a73c 76a3 bb3c
000000e0: b47e d93c 4603 78bd fd75 a63d e0c1 2a3d
000000f0: 8fcb 13bc 12bd 5dbd 3e29 073c 348e a2bc

model.7.running_mean f4 [64]
0.12947124 -0.05249671 0.24191537 0.2404492 0.16766772 0.1933991 0.050613314 -0.012665405
-0.051920135 0.110608175 0.114670746 0.19818774 -0.03765864 0.03171922 0.3449615 0.052872196
-0.0038427336 0.037809007 0.0004944869 -0.03710682 0.24178532 0.16502997 0.018578477 -0.0020576713
0.1729037 0.42143974 0.020249508 0.059718896 0.22596844 0.18355642 -0.010457453 0.025821183
0.058277342 0.07478067 0.37277302 0.18530673 0.09529374 0.08412357 0.054744534 0.07692143
0.120272055 0.19559564 0.027562048 0.077749975 0.16909863 -0.008783961 0.2727966 -0.031665012
-0.050170522 0.24259177 0.14965272 0.17643823 0.010437891 0.068139315 0.041425675 0.059980206
0.2784899 0.21221383 0.15779734 0.15997103 0.065389715 0.25289497 0.23299773 0.27704895
00000000: 1c94 043e ca06 57bd aab8 773e 5138 763e
00000010: 16b1 2b3e 6a0a 463e e84f 4f3d 8f82 4fbc
00000020: 35aa 54bd 8a86 e23d 7fd8 ea3d baf1 4a3e
00000030: f23f 1abd 03ec 013d cb9e b03e 8490 583d
00000040: 5fd6 7bbb 9edd 1a3d 74a0 013a 52fd 17bd
00000050: 9296 773e 9efd 283e e431 983c ffd9 06bb
00000060: ab0d 313e f3c6 d73e 4ce2 a53c cd9b 743d
00000070: 4564 673e 37f6 3b3e bd55 2bbc f286 d33c
00000080: 39b4 6e3d 9c26 993d 1bdc be3e 0cc1 3d3e
00000090: 5d29 c33d fa48 ac3d ce3b 603d fc88 9d3d
000000a0: 3251 f63d 394a 483e cec9 e13c 613b 9f3d
000000b0: 3128 2d3e 9aea 0fbc ffab 8b3e 2cb3 01bd
000000c0: 9b7f 4dbd fa69 783e 903e 193e 39ac 343e
000000d0: b003 2b3c a08c 8b3d f8ad 293d cead 753d
000000e0: 3a96 8e3e 954e 593e a095 213e 72cf 233e
000000f0: 0beb 853d 737b 813e f596 6e3e 5cd9 8d3e

model.7.running_var f4 [64]
0.12534092 0.19114882 0.6068053 0.25776875 0.23919752 0.8807672 0.16190416 0.18105869
0.081673056 0.19887035 0.34058917 0.4812433 0.21488464 0.27500477 0.59965587 0.3082184
0.19990951 0.22293185 0.12261751 0.12927978 0.71071756 0.123829596 0.29137707 0.13892268
0.89391494 2.046653 0.08265944 0.22174402 0.12043891 0.15425614 0.20299894 0.17172803
0.12086495 0.26625785 0.7627053 0.388003 0.1200548 0.3923344 0.32510704 0.5003897
0.20253827 0.142919 0.26015776 0.21726282 0.37599215 0.25223 0.19871633 0.08458454
0.09876849 0.66475654 0.2540184 0.22831205 0.22302839 0.3773392 0.18861772 0.22805272
0.60010326 0.57950926 0.30476296 0.24178958 0.32111868 0.40287298 0.16923504 0.41697845
00000000: 5f59 003e 84bc 433e 9857 1b3f 44fa 833e
00000010: 32f0 743e f679 613f 34ca 253e 7367 393e
00000020: 3444 a73d aba4 4b3e b461 ae3e 8665 f63e
00000030: b80a 5c3e 6dcd 8c3e 0c83 193f cdce 9d3e
00000040: 14b5 4c3e 3f48 643e e41e fb3d eb61 043e
00000050: 96f1 353f 5f9a fd3d 602f 953e bf41 0e3e
00000060: 9cd7 643f 5dfc 0240 5a49 a93d dd10 633e
00000070: ada8 f63d 52f5 1d3e f4de 4f3e 79d9 2f3e
00000080: 0b88 f73d f352 883e a840 433f 54a8 c63e
00000090: 4adf f53d 0ee0 c83e 6e74 a63e 8a19 003f
000000a0: 3166 4f3e 5c59 123e 6633 853e 257a 5e3e
000000b0: 0b82 c03e 4a24 813e 4b7c 4b3e a93a ad3d
000000c0: 2247 ca3d 7c2d 2a3f b30e 823e a2ca 693e
000000d0: 8e61 643e 9b32 c13e 0125 413e a786 693e
000000e0: 5ea0 193f b85a 143f e409 9c3e b097 773e
000000f0: ab69 a43e 5e45 ce3e f34b 2d3e 337e d53e

model.8.weight f4 [128, 64, 3, 3]
-0.0040558986 -0.023418585 0.014306428 0.101942636 0.13812658 0.10309321 0.124955066 0.08152351
-0.004268727 -0.042743143 0.07262184 0.07386818 -0.063405514 0.002258342 -0.036262453 -0.08932412
-0.009307908 -0.034683943 -0.034789544 0.065884925 0.037946276 -0.007181369 0.04298525 0.060535148
0.019507993 0.040096235 0.06212268 -0.0822748 0.03106132 0.021335226 0.097432815 -0.0057418766
0.06288947 -0.025303911 0.024245847 -0.004056858 -0.012501026 -0.037405394 0.019469963 -0.0029931362
0.03744517 0.029494107 -0.0072830105 0.04704932 0.028703041 -0.02110366 0.053487502 -0.052991576
0.020398667 -0.017988883 -0.054439906 -0.045203365 0.014799564 -0.019879771 0.035311118 0.026924834
0.080174156 0.030112814 -0.086763576 0.0288328 -0.04149844 -0.0058264923 -0.025082111 -0.053850655
0.04105668 0.036047302 0.02540077 0.012567536 0.015881376 -0.032267515 0.021382812 0.02944277
0.0067444933 0.0017784995 -0.041693974 -0.02071054 -0.009819571 -0.039378457 0.091953285 -0.033033825
0.045010384 0.06400414 0.034039777 0.022645792 -0.035234064 -0.01743259 -0.029650126 -0.002015116
-0.011345092 -0.022293117 -0.019706212 0.02798922 -0.019154316 0.0156146055 0.05717392 0.012607806
0.018298965 0.02287296 -0.05298475 0.044890568 0.01974744 0.06013211 -0.123965874 -0.03526795
0.03935824 0.021633351 0.036132943 0.017867384 -0.033667266 0.06353657 0.029178562 -0.09198719
-0.013241874 -0.10953295 -0.0123037 -0.069041416 -0.030983321 -0.05410717 -0.016094448 -0.012747674
-0.014682124 -0.016630324 -0.0023919458 0.017479738 -0.11360315 -0.062484678 -0.029871447 0.10634291
0.095390745 0.04812369 -0.03639908 -0.0097619705 -0.10040629 0.066516764 -0.019491475 -0.005701283
-0.02569273 -0.045194365 -0.055495527 -0.055408083 -0.066957064 0.033490296 -0.033817533 -0.040396094
-0.094995975 -0.00073815073 -0.004890686 -0.0002980618 -0.0164243 -0.0871433 -0.00079249067 0.0393209
-0.0046538427 -0.086990364 0.021905975 0.0072022043 -0.10492463 -0.036294997 -0.007618338 -0.03250461
-0.0230184 -0.045601223 0.008823944 -0.05868644 -0.07392041 0.03114536 0.008811882 -0.13268018
0.07746602 0.024806563 0.036606833 0.029649256 0.04768081 0.07114639 0.097094625 0.03868354
0.045417286 0.038345266 0.068804726 0.10566116 0.03455005 -0.0062769237 0.055978447 0.029073322
0.0326268 0.09249984 0.017572133 -0.007915585 -0.020812452 -0.081371695 -0.03762355 0.027826209
-0.04443871 -0.011578317 0.0045377854 -0.027077796 -0.017105961 -0.06388511 0.053611804 -0.0030244645
0.040877 0.03126084 0.014120778 -0.05768943 0.019197548 0.020325504 0.01382895 0.04538313
0.06007116 0.055925768 -0.047554754 0.03507455 0.078251846 -0.0402255 -0.04277472 0.009933141
0.033066515 0.0742166 -0.008708896 0.11839913 0.12517527 0.0420357 0.11399908 0.059327643
-0.019019261 -0.010456874 0.030241676 0.06664644 -0.031950086 0.023114445 -0.006560306 -0.026206292
-0.0039276564 0.02677567 -0.044434108 0.044738684 -0.011267575 0.0068649454 -0.005536659 -0.05773832
0.037618194 0.02826557 -0.02050414 0.017956803 0.044450432 0.020636566 -0.00048907864 0.014499668
0.04467942 0.028941792 0.004483324 -0.033634484 0.03504253 0.04205675 -0.019368554 0.04393734
00000000: 58e7 84bb 55d8 bfbc 8265 6a3c 4dc7 d03d
00000010: 0e71 0d3e 8822 d33d 71e8 ff3d ccf5 a63d
00000020: ade0 8bbb 6f13 2fbd c2ba 943d 3348 973d
00000030: c0da 81bd b100 143b f087 14bd 90ef b6bd
00000040: 3280 18bc c010 0ebd 7b7f 0ebd adee 863d
00000050: 8e6d 1b3d b051 ebbb 4d11 303d b4f3 773d
00000060: 3acf 9f3c f33b 243d 5a74 7e3d b17f a8bd
00000070: 4f74 fe3c 36c7 ae3c db8a c73d 5a26 bcbb
00000080: 32cc 803d 264a cfbc 3a9f c63c 64ef 84bb
00000090: 1ad1 4cbc 6636 19bd 797f 9f3c 7e28 44bb
000000a0: 1b60 193d a09d f13c 52a6 eebb cab6 403d
000000b0: a422 eb3c 95e1 acbc b615 5b3d b20d 59bd
000000c0: 1b1b a73c 6c5d 93bc 61fc 5ebd 2a27 39bd
000000d0: df79 723c e7da a2bc 64a2 103d 7891 dc3c
000000e0: 5932 a43d 26af f63c 1ab1 b1bd c432 ec3c
000000f0: 45fa 29bd 29ec bebb 0079 cdbc 8192 5cbd
00000100: 0d2b 283d 56a6 133d 4715 d03c 11e8 4d3c
00000110: a919 823c f12a 04bd 022b af3c f731 f13c
00000120: e900 dd3b 8a1c e93a 4dc7 2abd 26a9 a9bc
00000130: 44e2 20bc 4e4b 21bd 0152 bc3d 7a4e 07bd
00000140: cf5c 383d 9a14 833d 4b6d 0b3d ab83 b93c
00000150: 9851 10bd cace 8ebc d2e4 f2bc 0910 04bb
00000160: c4e0 39bc 0ea0 b6bc ec6e a1bc a649 e53c
00000170: 83e9 9cbc 67d4 7f3c 332f 6a3d f990 4e3c
00000180: b6e7 953c 1360 bb3c 8a06 59bd 2cdf 373d
00000190: 62c5 a13c 164d 763d d2e1 fdbd 2075 10bd
000001a0: 1b36 213d 6d38 b13c 2300 143d 9f5e 923c
000001b0: b0e6 09bd 761f 823d e107 ef3c c863 bcbd
000001c0: 72f4 58bc d052 e0bd 7595 49bc 9665 8dbd
000001d0: bcd0 fdbc 7b9f 5dbd 81d8 83bc 9fdb 50bc
000001e0: 4b8d 70bc 513c 88bc 31c2 1cbb ab31 8f3c
000001f0: c5a8 e8bd efef 7fbd f7b4 f4bc 50ca d93d
00000200: 395c c33d 591d 453d 3417 15bd acf0 1fbc
00000210: d0a1 cdbd f139 883d 96ac 9fbc d4d1 babb
00000220: 8f79 d2bc ba1d 39bd 474f 63bd 96f3 62bd
00000230: c920 89bd 1f2d 093d 4184 0abd 6076 25bd
00000240: 408d c2bd 7580 41ba 0c42 a0bb 2d45 9cb9
00000250: 418c 86bc 3078 b2bd 26bf 4fba f40e 213d
00000260: 437f 98bb 0128 b2bd 2974 b33c 7800 ec3b
00000270: b9e2 d6bd 10aa 14bd 40a3 f9bb 8e23 05bd
00000280: 1591 bcbc 59c8 3abd 4e92 103c 3161 70bd
00000290: 9563 97bd 8e24 ff3c b65f 103c 50dd 07be
000002a0: 81a6 9e3d 2237 cb3c 0cf1 153d ffe2 f23c
000002b0: f44c 433d 33b5 913d 8cd9 c63d a272 1e3d
000002c0: 7a07 3a3d ed0f 1d3d 7ee9 8c3d e164 d83d
000002d0: 5a84 0d3d a7ae cdbb a849 653d 2d2b ee3c
000002e0: aea3 053d 8e70 bd3d 6ff3 8f3c 5fb0 01bc
000002f0: e07e aabc 34a6 a6bd 271b 1abd caf3 e33c
00000300: 5d05 36bd fbb2 3dbc b4b1 943b 41d2 ddbc
00000310: cd21 8cbc 32d6 82bd 0d98 5b3d 1836 46bb
00000320: a46e 273d 5e0b 003d d65a 673c c04b 6cbd
00000330: 2d44 9d3c ac81 a63c d292 623c a9e3 393d
00000340: 2d0d 763d 6b12 653d c6c8 42bd 55aa 0f3d
00000350: 8142 a03d 7ec3 24bd 8b34 2fbd 9dbe 223c
00000360: c170 073d dffe 973d c2af 0ebc 3e7b f23d
00000370: f22d 003e a02d 2c3d 5a78 e93d 8b01 733d
00000380: 48ce 9bbc 4f53 2bbc 64bd f73c ee7d 883d
00000390: 18de 02bd 815a bd3c d6f7 d6bb 94ae d6bc
000003a0: 92b3 80bb a658 db3c 8a00 36bd e93f 373d
000003b0: a39b 38bc 56f3 e03b dd6c b5bb 047f 6cbd
000003c0: 8915 1a3d 328d e73c 4cf8 a7bc 251a 933c
000003d0: a811 363d 040e a93c 8335 00ba 0490 6d3c
000003e0: c401 373d 5617 ed3c d9e8 923b 50c4 09bd
000003f0: c288 0f3d b343 2c3d cdaa 9ebc a4f7 333d

model.8.bias f4 [128]
-0.12237334 -0.07740839 -0.024855664 -0.05000008 -0.054097477 -0.13593921 -0.113624506 -0.08065705
-0.07469752 -0.06228555 -0.09219817 -0.09030572 -0.0955308 -0.12654653 -0.03871569 0.021684626
-0.16449283 -0.090632536 -0.17018461 -0.09793613 -0.071417786 0.0075624106 -0.06544264 0.06047145
0.0061519044 -0.33791247 -0.07024275 -0.018101113 -0.04642529 -0.058447972 -0.111892514 -0.0584576
-0.038252264 -0.019454539 0.019026913 -0.08255515 -0.076120645 -0.1197084 -0.08698475 -0.03111843
-0.06907854 -0.10829125 -0.14524497 -0.061472464 -0.045404494 -0.074616924 -0.054942425 -0.1796111
-0.3384788 -0.067406975 -0.119343005 0.05008377 -0.11900263 -0.099935584 -0.11860713 -0.04417619
-0.07223738 -0.10160578 -0.050857436 -0.078358606 -0.0048337216 -0.108244464 -0.081990354 -0.047039583
-0.058754683 -0.0658583 -0.043163624 -0.08202279 -0.070818305 -0.080854885 -0.08477692 -0.041542992
-0.13526927 -0.060541242 -0.06846176 -0.14604875 -0.16410376 -0.10685331 0.029063743 -0.14654414
-0.16595298 0.023753177 -0.020193616 -0.11635007 0.05473084 -0.064980455 -0.11482628 -0.15645507
-0.05572542 -0.10980088 -0.07975728 -0.09067247 -0.116471015 0.023035804 -0.10341342 0.019085307
-0.04080258 -0.17419642 -0.13234752 -0.11551027 -0.1746755 0.06907588 0.04775266 -0.09014987
-0.11738666 -0.05028976 -0.049850453 -0.08703298 -0.17415409 -0.094846144 -0.14488544 -0.18217218
0.02237088 -0.1679742 -0.19684102 -0.17438217 -0.12159801 -0.07284556 -0.10945766 -0.02576947
-0.04508023 -0.08760151 -0.15233052 -0.032391902 -0.1637431 -0.044950664 0.009596575 -0.10681298
00000000: e09e fabd 4a88 9ebd 1b9e cbbc e2cc 4cbd
00000010: 5195 5dbd a633 0bbe f7b3 e8bd 862f a5bd
00000020: 03fb 98bd 221f 7fbd 65d2 bcbd 35f2 b8bd
00000030: a7a5 c3bd 6a95 01be 5894 1ebd f5a3 b13c
00000040: cf70 28be 8d9d b9bd e044 2ebe bd92 c8bd
00000050: 7d43 92bd 19ce f73b ca06 86bd e9b0 773d
00000060: ea95 c93b dd02 adbe 6edb 8fbd c948 94bc
00000070: 7228 3ebd 2467 6fbd e727 e5bd 3d71 6fbd
00000080: 68ae 1cbd 205f 9fbc 54de 9b3c ad12 a9bd
00000090: 24e5 9bbd ad29 f5bd 1025 b2bd 14ec febc
000000a0: 0d79 8dbd cec7 ddbd 19bb 14be 8dca 7bbd
000000b0: 10fa 39bd c2d0 98bd 4f0b 61bd f9eb 37be
000000c0: 184d adbe ab0c 8abd 1b6a f4bd a424 4d3d
000000d0: a7b7 f3bd 07ab ccbd 4ce8 f2bd 18f2 34bd
000000e0: 31f1 93bd b116 d0bd e34f 50bd 7a7a a0bd
000000f0: 3264 9ebb 46af ddbd 8fea a7bd 94ac 40bd
00000100: c0a8 70bd b7e0 86bd 57cc 30bd 91fb a7bd
00000110: 3009 91bd 3f97 a5bd 869f adbd fc28 2abd
00000120: 0784 0abe 18fa 77bd ae35 8cbd ce8d 15be
00000130: d10a 28be e8d5 dabd 1617 ee3c ab0f 16be
00000140: 94ef 29be 0696 c23c 156d a5bc f248 eebd
00000150: 722d 603d 7914 85bd 0a2a ebbd c235 20be
00000160: 5740 64bd 49df e0bd c957 a3bd 7db2 b9bd
00000170: 5b88 eebd 95b5 bc3c 6aca d3bd ca58 9c3c
00000180: 9b20 27bd 8c60 32be 1c86 07be a690 ecbd
00000190: 22de 32be a877 8d3d 4b98 433d 7fa0 b8bd
000001a0: 6b68 f0bd a3fc 4dbd fd2f 4cbd 593e b2bd
000001b0: 7355 32be b23e c2bd d95c 14be 588b 3abe
000001c0: 2343 b73c 6e01 2cbe b190 49be 3d91 32be
000001d0: 6108 f9bd 0e30 95bd 562b e0bd 7f1a d3bc
000001e0: 0ca6 38bd 6c68 b3bd 88fc 1bbe 5fad 04bd
000001f0: 45ac 27be 301e 38bd f43a 1d3c c3c0 dabd

model.10.weight f4 [128]
0.9677071 0.95080954 0.98865074 0.9922349 0.94960326 0.8537944 0.9187239 0.9869807
0.9899441 0.99103653 0.92477375 0.9967506 0.8741282 0.9509226 0.8722126 0.96284604
0.9805482 0.9996998 0.9748888 0.9238155 0.9701531 0.991718 0.9558599 0.9897434
0.9770443 1.0 0.99900746 0.91984886 0.94859636 0.999869 0.9980729 0.98624796
0.92815036 0.99710155 0.92894 0.861896 0.9393184 0.9998942 0.9458166 0.9804717
0.9188381 0.94311476 0.95636034 0.9994147 0.9970897 0.9319433 0.9977119 0.8831722
0.99703485 0.9749622 0.97944516 0.94615364 1.0 0.98089033 0.99978536 0.9130508
0.97989774 0.99918467 0.952921 0.9976508 0.9968746 0.9088411 0.950309 0.9535099
0.9547016 0.9764912 0.95743537 0.9461338 0.99123347 0.9371342 0.89891905 0.94703734
0.9678546 0.9980598 0.9744956 0.8493479 0.92815816 0.9538907 0.9213301 0.9824117
0.8954457 0.9783802 0.99965173 0.9981477 0.99825567 0.99940324 0.9285307 0.95665956
0.95631075 0.99968725 1.0 0.95415354 0.8676941 0.93278843 0.9981179 0.99753904
0.974364 0.90542406 0.9307734 0.9907341 0.9985549 0.9152886 0.88524044 0.9975228
0.9990434 0.9979534 0.9980664 0.94103444 0.92149794 0.9993883 0.99558425 0.8901645
0.99541265 0.9946389 0.92862004 0.97959656 0.9324871 0.9757674 0.99826825 0.9926034
0.9446121 0.96903545 0.9968607 0.9326539 0.99963725 0.95440245 0.95033574 0.9988245
00000000: a7bb 773f 4168 733f 3718 7d3f 1b03 7e3f
00000010: 3319 733f 4592 5a3f 7d31 6b3f c4aa 7c3f
00000020: fa6c 7d3f 92b4 7d3f f9bd 6c3f 0c2b 7f3f
00000030: dec6 5f3f aa6f 733f 5349 5f3f 147d 763f
00000040: 3505 7b3f 53ec 7f3f 5092 793f 2c7f 6c3f
00000050: f45b 783f 3be1 7d3f 3cb3 743f d35f 7d3f
00000060: 931f 7a3f 0000 803f f4be 7f3f 377b 6b3f
00000070: 36d7 723f 6af7 7f3f b581 7f3f bf7a 7c3f
00000080: 439b 6d3f 0c42 7f3f 03cf 6d3f 37a5 5c3f
00000090: 2c77 703f 11f9 7f3f 0921 723f 3100 7b3f
000000a0: f938 6b3f f86f 713f 08d4 743f a4d9 7f3f
000000b0: 4541 7f3f d693 6e3f 0c6a 7f3f 9317 623f
000000c0: ad3d 7f3f 1f97 793f ebbc 7a3f 2037 723f
000000d0: 0000 803f a11b 7b3f eff1 7f3f b2bd 693f
000000e0: 94da 7a3f 91ca 7f3f a1f2 733f 0b66 7f3f
000000f0: 2c33 7f3f cfa9 683f 7347 733f 3a19 743f
00000100: 5367 743f 54fb 793f 7c1a 753f d335 723f
00000110: 7ac1 7d3f 07e8 6f3f 8f1f 663f 0a71 723f
00000120: 52c5 773f d980 7f3f 8b78 793f dd6e 593f
00000130: c69b 6d3f 2e32 743f 4adc 6b3f 557f 7b3f
00000140: ee3b 653f 2077 7a3f 2de9 7f3f 9c86 7f3f
00000150: af8d 7f3f e4d8 7f3f 30b4 6d3f a4e7 743f
00000160: c8d0 743f 81eb 7f3f 0000 803f 6843 743f
00000170: 3321 5e3f 39cb 6e3f a884 7f3f b85e 7f3f
00000180: eb6f 793f dfc9 673f 2a47 6e3f c0a0 7d3f
00000190: 4ba1 7f3f 5b50 6a3f 1e9f 623f a75d 7f3f
000001a0: 4fc1 7f3f e079 7f3f 4881 7f3f a2e7 703f
000001b0: 4ae7 6b3f e9d7 7f3f 9cde 7e3f d2e1 633f
000001c0: 5dd3 7e3f a8a0 7e3f 0bba 6d3f d7c6 7a3f
000001d0: 79b7 6e3f e4cb 793f 828e 7f3f 421b 7e3f
000001e0: 19d2 713f b512 783f 4332 7f3f 68c2 6e3f
000001f0: 3ae8 7f3f b853 743f 3449 733f f6b2 7f3f

model.10.bias f4 [128]
0.013866111 -0.0034485627 0.025933689 0.0056855194 -0.0035331168 0.09099415 0.012126048 -0.013162497
-0.008535327 -0.012821871 -0.004151882 -0.011063739 0.019064091 0.0025822327 0.033665936 -0.014899482
0.03494901 -0.009319369 0.022779258 0.07052715 -0.007508279 0.0076117567 0.02662988 0.012133278
0.013772559 -0.0018348705 -0.01465581 0.00877373 0.02453428 -0.013724091 -0.009044565 -0.024430372
0.016962431 0.0024573428 0.012628611 0.079255804 -0.015745567 0.02956033 0.057486165 0.018586524
0.06771191 -0.008581839 0.06673484 -0.05690524 -0.009813114 -0.005925765 0.0042721843 0.01380515
0.024670308 -0.006216878 0.02512988 -0.010969807 0.032333568 -0.007981168 -0.002715982 0.0059151626
0.038243767 0.0058382507 0.037915874 -0.0049849697 0.00032550268 0.008785308 0.01594096 -0.011822764
0.015253371 0.016626783 -0.0006666608 0.020730013 -0.007232246 0.0019228299 0.058772292 0.010791215
0.01576754 0.012100606 0.018898532 0.017510409 0.007832718 0.002324417 -0.0026792854 0.028896114
0.014387271 -0.0111067025 -0.0105605535 0.0048494283 -0.003839589 -0.008277053 0.047633562 0.025372693
0.0030706413 0.0053354837 -0.0105618555 0.020499079 0.053471737 0.028285837 0.016731845 0.0075673917
0.008944799 0.011733431 0.033089686 -0.012180721 0.036967013 -0.037306897 0.06910903 -0.010958892
-0.008402279 0.00047215552 -0.006022596 0.0051924726 0.014505863 -0.0086791655 -0.008806093 0.03805472
-0.009347503 0.018499076 0.053593762 -0.0025300586 0.023302136 0.0132732615 0.012246658 0.007699784
0.021927318 0.009432068 0.01878071 9.284916e-05 0.0013242337 0.0018163591 0.022862056 0.006511226
00000000: af2e 633c 4801 62bb e372 d43c 984d ba3b
00000010: dd8b 67bb 245b ba3d 55ac 463c 84a7 57bc
00000020: c2d7 0bbc d312 52bc 830c 88bb af44 35bc
00000030: 4c2c 9c3c ad3a 293b 4be5 093d f51c 74bc
00000040: b126 0f3d 44b0 18bc 919b ba3c 8a70 903d
00000050: 0208 f6bb 0b6c f93b e826 da3c a8ca 463c
00000060: 4da6 613c 0a80 f0ba ec1e 70bc b1bf 0f3c
00000070: 1dfc c83c 03db 60bc a82f 14bc 3422 c8bc
00000080: ccf4 8a3c 5f0b 213b 3ce8 4e3c de50 a23d
00000090: d9fc 80bc 8128 f23c 9d76 6b3d c442 983c
000000a0: 8bac 8a3d d79a 0cbc 47ac 883d 7815 69bd
000000b0: 2fc7 20bc eb2c c2bb aefd 8b3b ff2e 623c
000000c0: 6319 ca3c f4b6 cbbb 2edd cd3c b5ba 33bc
000000d0: 3470 043d 72c3 02bc 9efe 31bb fbd3 c13b
000000e0: 7fa5 1c3d cc4e bf3b ad4d 1b3d f558 a3bb
000000f0: 3ba8 aa39 41f0 0f3c 9e96 823c 44b4 41bc
00000100: 46e9 793c e434 883c d9c2 2eba fdd1 a93c
00000110: 7afc ecbb 7707 fc3a 37bb 703d a3cd 303c
00000120: ee2a 813c 9f41 463c 18d1 9a3c fd71 8f3c
00000130: cd54 003c 3f55 183b f396 2fbb 8bb7 ec3c
00000140: 97b8 6b3c e3f8 35bc 2c06 2dbc f4e7 9e3b
00000150: 9da1 7bbb 7a9c 07bc 691b 433d 65da cf3c
00000160: d03c 493b 48d5 ae3b a20b 2dbc afed a73c
00000170: 2e05 5b3d b3b7 e73c 3911 893c e2f7 f73b
00000180: 358d 123c 943d 403c 0d89 073d a691 47bc
00000190: b96a 173d 1ecf 18bd 0989 8d3d ed8c 33bc
000001a0: b6a9 09bc a48b f739 3259 c5bb 9e25 aa3b
000001b0: 00aa 6d3c 0f33 0ebc 6e47 10bc 44df 1b3d
000001c0: 4526 19bc 608b 973c 2285 5b3d 57cf 25bb
000001d0: 1fe4 be3c 1878 593c 35a6 483c 784e fc3b
000001e0: eba0 b33c f688 1a3c 01da 993c 03b8 c238
000001f0: e991 ad3a e612 ee3a 3549 bb3c 1f5c d53b

model.10.running_mean f4 [128]
0.16776773 0.7293563 0.64141244 0.22417432 0.252719 0.383499 0.15224671 0.20927215
0.086586624 0.41948345 0.048940666 0.4982518 0.3036865 0.373558 0.14763805 0.2199128
0.3335561 0.17802536 0.34793484 0.39202487 0.10387052 0.8765406 0.33366972 0.48928958
0.2811627 -0.05903916 0.15157114 0.346326 0.31830862 -0.0054660016 0.14406668 0.2244738
0.5408997 0.47706234 0.42341602 0.43785504 0.22117454 0.021681402 0.05980875 0.08792971
0.5136802 0.22867605 0.2533229 0.31089917 0.4497826 0.30441666 0.30095166 0.2999192
0.07169871 0.12623858 0.19515683 0.5595413 0.14763004 0.27399346 0.033214554 0.32050353
0.2678769 0.010175055 0.36054757 0.18935215 0.6639886 0.65065444 0.39802173 0.33999926
0.35426447 0.25500932 0.36794806 0.16838229 0.1887329 0.36930734 0.26685366 0.31801084
0.20525508 0.25694114 0.30255884 0.34290713 0.30618912 0.32787463 0.6387454 0.27541938
0.18721335 0.14599238 0.27211154 0.009812792 0.4900607 0.25637615 0.32169062 0.41287327
0.6026836 0.22504236 0.20797618 0.30469236 0.27405542 0.6098036 0.23989244 0.30996785
0.63009596 0.410731 0.1416904 0.26079425 0.06572491 0.4142138 0.69275373 0.108595416
0.34220624 0.43237782 0.20680723 0.19079645 0.1555564 0.00431056 0.14766638 0.11699552
0.3166053 0.028795239 0.18103325 0.11839057 0.36207673 0.24299455 0.28925222 0.3712701
0.27839017 0.3670079 0.28192854 0.24235936 0.115776666 0.15991035 0.4478722 0.2251002
00000000: 4ecb 2b3e 18b7 3a3f 9b33 243f f48d 653e
00000010: 6364 813e fb59 c43e 90e6 1b3e 704b 563e
00000020: 5454 b13d 89c6 d63e 0276 483d dc1a ff3e
00000030: cc7c 9b3e ff42 bf3e 6e2e 173e d230 613e
00000040: ddc7 aa3e 484c 363e 8424 b23e 7cb7 c83e
00000050: 11ba d43d f764 603f c2d6 aa3e 2a84 fa3e
00000060: 8ff4 8f3e 0cd3 71bd 7735 1b3e a451 b13e
00000070: 59f9 a23e 251c b3bb 3786 133e 76dc 653e
00000080: 6778 0a3f 8441 f43e fcc9 d83e 892e e03e
00000090: 947b 623e 329d b13c 05fa 743d 7e14 b43d
000000a0: 8c80 033f 0e2a 6a3e 8ab3 813e 2d2e 9f3e
000000b0: e849 e63e 80dc 9b3e 5616 9a3e 028f 993e
000000c0: c6d6 923d b044 013e 31d7 473e 193e 0f3f
000000d0: 542c 173e df48 8c3e fc0b 083d 0a19 a43e
000000e0: 2927 893e 46b5 263c b199 b83e 88e5 413e
000000f0: 28fb 293f 4a91 263f 81c9 cb3e 6214 ae3e
00000100: 2762 b53e 9590 823e b063 bc3e 686c 2c3e
00000110: 3343 413e da15 bd3e 0ba1 883e 51d2 a23e
00000120: 632e 523e ca8d 833e fee8 9a3e 8691 af3e
00000130: d2c4 9c3e 2fdf a73e d284 233f c503 8d3e
00000140: dbb4 3f3e 077f 153e 3452 8b3e d5c5 203c
00000150: 3ce9 fa3e bc43 833e a2b4 a43e 2064 d33e
00000160: 7949 1a3f 8171 663e b5f7 543e a300 9c3e
00000170: fe50 8c3e 171c 1c3f 5da6 753e 1bb4 9e3e
00000180: f84d 213f 554b d23e 4a17 113e d386 853e
00000190: c89a 863d d513 d43e 4f58 313f 4667 de3d
000001a0: a835 af3e a060 dd3e 46c5 533e 2560 433e
000001b0: 2d4a 1f3e 993f 8d3b db35 173e 599b ef3d
000001c0: 171a a23e fee3 eb3c c860 393e c176 f23d
000001d0: 1f62 b93e 90d3 783e de18 943e 1d17 be3e
000001e0: 2889 8e3e 76e8 bb3e f058 903e 0d2d 783e
000001f0: 511c ed3d 8abf 233e 814f e53e ab80 663e
