Lab4/models/gan_models/ls_dis.pth (torch, 402522 bytes, 21 tensors)

model.0.weight f4 [16, 3, 3, 3]
000000 11 b8 d5 bc db a6 48 bc 9e d4 32 39 4b 58 9f bc
       -0.026088746 -0.012246813 0.00017054609 -0.019451281
000010 84 84 4f bd 22 b7 ef bc f2 a6 c2 bc 80 02 2f bd
       -0.050663486 -0.02926213 -0.023761246 -0.042726994
000020 20 fa 4c 3c 7e c0 18 bd 9d 11 bb bc 01 01 d5 3c
       0.012510806 -0.03729295 -0.022835547 0.026001455
000030 39 aa 4c bd e8 8a d4 bc 6d cb 3d ba b8 cb ac bc
       -0.049967024 -0.025945142 -0.00072400906 -0.021093234
000040 2f 79 30 bd 1f 6c 88 bc 1c ae bc 3d 4b 64 a8 3d
       -0.04308432 -0.016653119 0.09212896 0.08222254
000050 0c 1d 66 bc 48 68 ac 3d 0f 67 c2 3c f8 92 d2 3c
       -0.014045011 0.084183276 0.023730783 0.025704846
000060 48 a6 ce 3c b2 45 8a 3d 88 c4 1f 3d 2b fa 9a 3c
       0.025225773 0.067515746 0.039005786 0.018918118
000070 78 65 67 3d dd e2 c3 bd 78 cd 22 3d e7 9f 1f 3d
       0.056493253 -0.09564755 0.03974673 0.038970854
000080 a6 17 1a 3d d8 1f 40 3c e5 00 87 bd e7 8f 95 3c
       0.03762021 0.011726342 -0.065919675 0.018257095
000090 8a f2 19 bd 2c 6f 4f 3d c4 38 cb bd aa a0 0a bb
       -0.03758482 0.05064313 -0.099229366 -0.0021152892
0000a0 84 72 38 3d 8d 36 8e 3d 7b 07 06 bd 79 78 b3 bd
       0.045031086 0.069439985 -0.032721978 -0.08763213
0000b0 a6 62 61 3d 75 ed d1 bc 78 c2 1f 3d ae 4e a0 bd
       0.05502572 -0.025625924 0.03900382 -0.07827507
0000c0 00 7a 0d 3d ac f3 08 3d 0d ba fd 3c 2c f4 7e bc
       0.034540176 0.03343551 0.030972505 -0.015561145
0000d0 04 21 85 bd 16 9a 16 3d cd 83 23 3c e4 2e cc bc
       -0.06500438 0.03676804 0.009980154 -0.024924703
0000e0 b2 d1 97 bd 85 5b 42 bd ca d9 6d 3c b0 fb b0 bc
       -0.07413043 -0.04745056 0.014517257 -0.021604389
0000f0 c2 15 12 bd 98 c3 d7 bb c0 32 a9 3a 98 78 22 3d
       -0.03566528 -0.006584596 0.0012908801 0.03966579
000100 78 36 c3 bc f7 14 32 bc e0 3d 2d 3d 53 0a 4d 3d
       -0.023829684 -0.010869256 0.042295337 0.050058674
000110 7b 23 83 bc cf 0e c1 bb 09 7c 2b 3d 41 35 99 3c
       -0.01600813 -0.005891658 0.041866336 0.018702151
000120 d7 04 fa 3c 40 15 95 3c 7d cf 87 b9 bb 9b 51 bc
       0.030519886 0.01819861 -0.00025903797 -0.012793477
000130 82 82 77 3c 5a 28 59 bc 48 08 dd bc 7d e2 b8 3c
       0.015106799 -0.0132542495 -0.026981488 0.022568936
000140 a9 e2 85 3b c2 c9 56 3d 7f b0 ac 3d 34 47 5d 3d
       0.004085858 0.052438505 0.084321015 0.054022983
000150 41 0d a8 3d f6 4f b3 3d 2c e2 75 3d 72 f2 04 3d
       0.08205653 0.08755486 0.060030147 0.032457776
000160 10 d0 15 3d 2c 3d a6 3d 88 dc c3 bd e7 ba 73 bd
       0.036575377 0.08117136 -0.095635474 -0.059504416
000170 51 9e 84 bd 4e ba 63 bd 15 12 d1 bd 3b 94 88 bd
       -0.06475509 -0.055597596 -0.10208527 -0.06668898
000180 e1 1c aa bd 92 01 b7 bd 7f 32 97 bd 92 06 22 3d
       -0.083062895 -0.089358464 -0.07382678 0.039557047
000190 ea c4 c6 3c 4e b5 30 3d 4a 44 55 3c 94 28 25 bc
       0.024263818 0.043141656 0.01301677 -0.010080475
0001a0 ec 95 a0 3b 11 fc 6a 3c f1 26 74 bc e8 e3 cf bc
       0.0049006846 0.014342324 -0.0149018625 -0.025377229
0001b0 fe f6 8a bd 90 5d d8 bc 7a 60 c0 bc 61 08 47 bd
       -0.06785391 -0.026411802 -0.023483504 -0.048591975
0001c0 9e cc 2a bd ce e7 72 b9 37 67 79 bd f5 9c 34 bd
       -0.041699044 -0.00023165272 -0.06088945 -0.044095
0001d0 fb f9 83 bc 0e 71 c6 3d 18 55 fb 3c 4e d4 4b 3d
       -0.01611041 0.09689532 0.030680224 0.049763016
0001e0 60 72 ad 3d 79 ed cd 3c 42 9f 10 3d c3 24 86 3d
       0.08469081 0.02513765 0.03530813 0.065499805
0001f0 a4 68 3c 3d 02 d6 2c bb 09 f9 d2 ba 45 45 c0 bc
       0.04599823 -0.0026372676 -0.0016095947 -0.02347053
000200 d5 95 21 3d 2b 6a 31 bc d1 6e 28 bb 12 ff 76 3c
       0.03944953 -0.010828535 -0.0025700817 0.015075462
000210 73 2d b0 bd 16 5e 26 bd c4 63 f6 bc f2 3d d3 bc
       -0.08602419 -0.04061707 -0.030076869 -0.025786374
000220 65 45 4e bc 0c 4b b0 bc 2e 19 c8 3b 30 0b 36 3c
       -0.012589787 -0.02152016 0.0061065173 0.011111066
000230 26 8c 78 bc 2d d3 e2 3c 96 58 6a 3d 92 c6 04 3d
       -0.015170133 0.027688587 0.05721339 0.032415934
000240 fa 30 86 3b c0 aa a5 bc c1 af 88 bc 12 55 dc 3b
       0.004095194 -0.020223022 -0.016685368 0.0067240084
000250 e8 c7 d7 3c 3b 2d 88 bc eb 46 c5 3c 14 50 3c 3d
       0.02634044 -0.01662313 0.024081668 0.045974806
000260 e0 e6 f9 3c a4 c5 76 bd 5d 98 66 3c 6f 73 3b bc
       0.030505598 -0.06024708 0.014074412 -0.011441096
000270 2b 60 f0 3b 38 19 67 3d 0e dc b3 3b 09 95 42 3d
       0.007335683 0.056420535 0.005488879 0.047505412
000280 7b 6b 4c 3d e5 70 4e 3d ed d6 30 bc bc 34 1e 3d
       0.04990719 0.050400633 -0.01079343 0.03862451
000290 74 59 79 3c a9 25 25 bc ef ab 6f 3c b5 3b 85 bc
       0.015219081 -0.01007978 0.0146283945 -0.016263822
0002a0 58 bd 45 bd 94 e2 83 bd b8 42 13 bd 2b eb 80 3d
       -0.048276275 -0.06439701 -0.0359523 0.06294855
0002b0 cd 1e 47 3d d9 a5 cf 3c 4b 8b 50 3d 05 cc 20 3d
       0.04861336 0.025347637 0.05091409 0.03925707
0002c0 fb f7 e7 3c f6 76 b2 3c 3c 7b bb bc b7 1f bf 3c
       0.028316488 0.02178524 -0.022885911 0.023330553
0002d0 2f b5 fb bc 45 de 0b bc 6c fa c8 bb 38 1f c8 bc
       -0.030726044 -0.00853688 -0.0061333682 -0.024428949
0002e0 50 98 95 bc c8 9d cf bc dd 2b 1b bd 69 ef b9 bc
       -0.018261105 -0.02534379 -0.03788363 -0.022697167
0002f0 6a bd 58 bd e2 c1 01 bd f0 e5 81 bd c6 91 9d bd
       -0.052915014 -0.03167904 -0.06342685 -0.0769382
000300 70 79 29 bd 0b ac 9d bd 44 22 85 bd 34 83 59 3b
       -0.041375577 -0.0769883 -0.06500676 0.0033189775
000310 9a 80 0d bd 3d c1 75 bc ea 19 b3 3d 20 05 8c 3b
       -0.034546472 -0.014999685 0.08745177 0.004273072
000320 45 e4 52 bc 76 50 55 3d e0 3c f0 3d de ee 4a 3d
       -0.0128718065 0.052078687 0.11730361 0.049544208
000330 54 09 92 3d a4 1a 8d 3d 4f de 88 3d 36 e3 09 bd
       0.071306854 0.06889847 0.06683027 -0.03366395
000340 72 95 25 bd c1 9c b4 3c ba 78 16 bc 52 79 0d 3b
       -0.040425725 0.022047402 -0.009184057 0.0021587205
000350 ce 5b 90 bc 08 d4 ac ba 87 c6 77 3c 6f 09 b2 3b
       -0.0176219 -0.0013185749 0.015123016 0.0054332535
000360 a8 91 94 3c 94 e6 a9 bc 08 b0 94 ba a9 db 58 3b
       0.01813586 -0.020739831 -0.0011343965 0.0033089912
000370 cf 03 c2 3a 17 e3 82 bb 59 15 b2 3d c8 9c 67 3d
       0.001480216 -0.0039943564 0.08695478 0.056546003
000380 22 61 fb 3c 97 9d 6c bd a9 eb 08 bd bc ee 64 bc
       0.030685965 -0.057767477 -0.033427868 -0.013972934
000390 93 3d a6 bd 7e 1d bf bd 71 74 74 bd b6 78 fb bc
       -0.08117213 -0.09331797 -0.05968136 -0.030697208
0003a0 27 8a fe bc 7d a1 31 3c 06 55 8c 3c ef 6c 92 3c
       -0.031071736 0.010841724 0.017130386 0.01787421
0003b0 1d 02 23 3d b0 b6 fd bb 91 69 56 bc 95 a2 ad bc
       0.039796937 -0.0077427253 -0.013086692 -0.02119569
0003c0 0d d7 91 3d f6 e0 66 3d a6 77 19 3d dc 4a 49 bd
       0.07121096 0.056366883 0.03746762 -0.049143657
0003d0 c5 b5 9a 3c a2 e8 9d 3c a9 a7 83 3c 6a c0 c3 3d
       0.018885503 0.019275967 0.016071158 0.095581844
0003e0 fb 6d a7 3d b1 61 7d bc 55 8b 6b bc 8b c4 82 bd
       0.08175274 -0.015465186 -0.014376481 -0.06385144
0003f0 04 d6 1e bd 01 a2 11 bd 60 e0 08 bd 1c a9 f2 bc
       -0.03877832 -0.03555489 -0.033417106 -0.029621653

model.0.bias f4 [16]
000000 a9 2b 0c bd c9 3e 28 bd 9e 2b da 3d 53 c1 24 be
       -0.034221325 -0.0410755 0.106528506 -0.16089372
000010 fd 8d 05 be 84 a0 66 be a8 0a 1c be 43 7f 1e be
       -0.13042445 -0.2252217 -0.1523844 -0.15478234
000020 fc ce 32 bb d0 7e da bd d1 0c 99 3b 53 ab ed bd
       -0.0027284017 -0.10668719 0.0046707173 -0.11604943
000030 68 c9 e8 bb ad 41 7b bd 8d 93 fc bd b1 82 37 bc
       -0.0071040876 -0.06134193 -0.123328306 -0.011200593

model.2.weight f4 [32, 16, 3, 3]
000000 35 b5 5a 3d 54 6a db 3c e5 fd 69 bc 25 9f 17 3c
       0.05339547 0.0267841 -0.014281725 0.009254252
000010 5e dc a6 3b 82 63 c3 bc 1a 3f 02 3d 0c d9 30 3b
       0.005092188 -0.02385116 0.03179846 0.0026984839
000020 c0 68 58 bd 0d 81 28 3d 02 cb 7f 3d 72 87 cd bc
       -0.052834272 0.041138697 0.062449463 -0.025089
000030 81 ff 28 3d ae be 20 3d 72 3f 08 3c 6a 92 de 3c
       0.041259293 0.039244346 0.008315908 0.027169425
000040 16 f1 18 bb 95 3e 9f bd 8f b4 bc 3c c0 a8 60 3b
       -0.0023337058 -0.077756085 0.023035316 0.003428027
000050 83 b3 03 3d 0c 38 43 3c 25 c5 52 3c a8 22 55 3d
       0.032153618 0.011915218 0.012864386 0.052035004
000060 9a 7c 77 3c 71 c1 82 3d 24 f8 04 3b af f8 92 3d
       0.015105391 0.06384552 0.0020289505 0.07176339
000070 3d a0 25 3d 6c e8 82 3d 45 d5 54 3d a5 55 8e 3d
       0.04043602 0.06391987 0.051961202 0.06949929
000080 41 3d 8a 3b 60 62 d0 3c ba e9 a7 3c c1 22 04 bd
       0.004218728 0.025437534 0.020497192 -0.032259706
000090 10 a0 8a bd 2c 3e 99 bd 9b 60 e3 bb b1 f7 3d bd
       -0.06768811 -0.074825615 -0.0069390065 -0.046378795
0000a0 0f 2e a1 bd a7 14 ed bc 0f 89 73 bc a3 c1 a5 bb
       -0.07870113 -0.028940512 -0.01486422 -0.0050584837
0000b0 9b 6c 0d 3d 28 ee bc 3d d8 f3 08 3c 0a 53 1e bd
       0.034527402 0.09225112 0.008358918 -0.03865341
0000c0 74 4a 6d 3d 7b c4 40 3d 8b 0c b6 3c 8d c2 99 3c
       0.057932332 0.04706238 0.022222778 0.018769527
0000d0 99 da 03 3d 29 60 70 bc 92 5d 9b bd 23 8f c3 bd
       0.032190893 -0.014671364 -0.075862065 -0.095487855
0000e0 aa 7f 5c bc dc db 50 bd eb b0 30 bd 3b 6b 24 3d
       -0.013458172 -0.050990924 -0.043137472 0.040141325
0000f0 05 23 be 3b 4e 98 47 3d 92 53 56 3d 62 9f bf bd
       0.0058025145 0.048729233 0.052325793 -0.09356572
000100 d7 c9 67 bd 86 5a e2 3a 56 6b 81 bd 53 b5 af bd
       -0.056588974 0.001726941 -0.06319301 -0.08579507
000110 7d 8d 3c 3d 94 5d db bc a2 84 be 3c 19 9a ca 3d
       0.04603337 -0.02677802 0.023256604 0.09892673
000120 18 18 b3 3d f8 9b f6 3d cd d9 f7 bc f2 28 0b 3d
       0.0874483 0.120414674 -0.030255223 0.033974595
000130 a4 d2 60 3d ed 7e 44 bd 35 7f 03 3d 90 f2 71 bd
       0.054888383 -0.04797261 0.032103736 -0.059069216
000140 68 16 a7 bd 02 68 d7 3c b8 ed 11 3d 0c fe 1e 3c
       -0.081585705 0.026294712 0.035627097 0.009704124
000150 dc c3 b6 3d d8 ff 85 3d d0 53 31 3c ee b6 58 3d
       0.08924076 0.06542939 0.010823205 0.05290883
000160 1e c2 c8 3c c8 48 50 bd 7d 4b 55 bb bb 90 c7 3c
       0.024506625 -0.05085066 -0.0032546215 0.024361005
000170 ff 11 63 3b c7 0b ca 3c 63 36 cf bc 6f 90 59 bc
       0.0034648178 0.024663819 -0.025294488 -0.013279065
000180 39 dd a5 bb a4 7d 26 bb 33 84 84 bd 4a 94 ad bc
       -0.005061772 -0.0025404477 -0.064705275 -0.021188874
000190 2a 90 14 bd 73 18 8f 3c 06 f5 0a 3d 0a 3c 9e 3b
       -0.036270298 0.017467713 0.03392508 0.0048289346
0001a0 ca 60 4b 3c 22 58 ba bc 96 08 13 bd f4 f4 d8 bb
       0.012413213 -0.022747103 -0.03589686 -0.0066209976
0001b0 63 81 4c 3d 01 80 94 3d bc d0 f4 bc cc 20 c4 3d
       0.04992808 0.07250977 -0.029884689 0.09576568
0001c0 9e 85 f3 bb f7 dc 43 bd 82 34 35 bc 52 6f ac bd
       -0.0074317 -0.04781815 -0.011059882 -0.0841967
0001d0 24 1f 64 bd 3c 8a 38 3d 32 33 25 bd 72 57 dd bb
       -0.05569376 0.045053706 -0.040332027 -0.006754809
0001e0 22 ce 98 3d c9 e9 85 3c 39 40 45 bd fc 2f d8 bc
       0.07461192 0.016346829 -0.04815695 -0.026390068
0001f0 f4 ff 24 bb d9 44 20 bd 43 ec 8a bd c9 64 3a bc
       -0.0025176974 -0.03912816 -0.067833446 -0.011376568
000200 7b 87 ca 3c f6 26 fe bc d7 1b 25 bd 01 f4 b1 3c
       0.024722805 -0.031024437 -0.040309753 0.021722795
000210 9a 50 3c bd 97 67 bd bb 67 e9 2b 3d b4 5a a2 bc
       -0.045975305 -0.005780171 0.041970637 -0.019818641
000220 68 fd 55 3c 43 d6 db ba a9 ed 29 3d a3 42 84 3c
       0.013060905 -0.0016772229 0.041486416 0.016145056
000230 1f c4 5b bc 50 4a ad 3c 0e 82 3a 3d 16 63 4f 3d
       -0.013413458 0.021153599 0.045534186 0.050631605
000240 3f 2a c8 3c 1b a4 a4 3b b9 b9 82 bc 2d dd 79 bc
       0.024434207 0.0050244457 -0.0159577 -0.015250486
000250 e2 94 50 3c 4b 1c 89 bb 60 ee d1 3b 8c c4 44 3d
       0.012730809 -0.004184281 0.0064065903 0.048039004
000260 9f 86 4d 3d 0c 65 5d bd 54 11 85 bd a3 69 a8 3b
       0.050177213 -0.054051444 -0.06497446 0.005139546
000270 d6 79 06 bd ac c9 29 bd b7 fe 5e bc 79 dc 1a bd
       -0.032831036 -0.041452095 -0.013610533 -0.037807915
000280 12 b8 ea 3c c9 0b 2b 3d fd ef 39 3c ec 76 5a 3d
       0.028652225 0.041759286 0.011348722 0.05333607
000290 54 a2 a5 3d ec bf 3f bc 5e e8 2e 3b 1b 98 84 3c
       0.08087602 -0.011703473 0.0026688795 0.01618581
0002a0 67 c5 d3 3b ed 96 b5 ba a3 51 9b 3c 36 0c 28 bd
       0.006462741 -0.0013854183 0.018959826 -0.04102727
0002b0 a2 e2 c3 3c 9c 7c 6c 3d ce e7 08 3d 2a d9 0e 3e
       0.023911778 0.057736024 0.03342419 0.13950029
0002c0 63 66 ea 3d a3 23 b2 3d a7 d3 bc 3d 41 7b 6c 3d
       0.1144531 0.086982034 0.09220057 0.05773473
0002d0 50 f9 fc 3c 0e 91 8e 3c 93 7d 73 3d 00 8d fc ba
       0.0308806 0.017403152 0.05944593 -0.0019268095
0002e0 d3 e7 9e bd 15 ed 00 bd 6e 3b 1e bd c1 51 7d bd
       -0.07759061 -0.0314761 -0.038630895 -0.061845545
0002f0 66 33 35 bd 46 0b e8 3b 04 47 09 bd 8b 87 d6 bb
       -0.04423847 0.007081422 -0.03351499 -0.0065469197
000300 be 12 42 3d 3c 6b 2a bc e6 14 0a 3d 76 30 4b 3d
       0.047381155 -0.010401543 0.033711337 0.049606763
000310 f6 fb b3 3c 8a ed b5 3d 81 36 15 bd e2 0f 56 bd
       0.02197073 0.088831976 -0.036428932 -0.05226124
000320 3b cd 8e bb 07 c8 36 bb 97 d8 75 bd e1 86 cf bc
       -0.0043579615 -0.0027890222 -0.06002101 -0.02533287
000330 ee 71 2b bd c9 3b 74 bd 71 6a 08 3c 16 ae 53 3d
       -0.0418567 -0.059627328 0.008326159 0.051679693
000340 fe 98 01 3d 95 18 84 3d 8a a2 e1 bc af 2c 21 bd
       0.031640045 0.06450001 -0.027543325 -0.039349254
000350 67 d6 1a 3c ce 88 ca bc 8c fa 82 bd d6 8e 97 bc
       0.009450532 -0.024723437 -0.06395444 -0.018500727
000360 59 36 cf bd a5 f8 88 bd cc 77 a2 bc ca e5 17 bd
       -0.10117788 -0.0668805 -0.019832514 -0.03708438
000370 29 f2 c2 bc 44 5c 8c 3c b8 2c c5 ba 6a fb 13 3c
       -0.023797112 0.01713384 -0.0015043234 0.00903211
000380 17 49 ce bb de b5 95 bc 84 5d a9 bd 75 16 6a 3d
       -0.006295334 -0.018275198 -0.0826979 0.057150323
000390 dc 5f 9d 3c ac 4b bf 3c 43 d3 35 3d 5b a6 5d 3d
       0.019210748 0.023351513 0.044390928 0.054113727
0003a0 11 8b 97 3d 89 13 b5 3d d3 cf e7 bc 1b f5 04 bc
       0.07399572 0.08841617 -0.02829734 -0.008115078
0003b0 df b7 dd 39 1e 6b 87 3c ce 50 40 3a 74 2f 64 3c
       0.000422894 0.01653057 0.00073362596 0.013927329
0003c0 a5 b5 67 3c 43 43 29 3d 44 d1 ed 3c 3d 92 b1 bc
       0.0141424285 0.04132391 0.02903045 -0.021676177
0003d0 fe 4e 7a bc 7e 05 be 3c f8 86 88 bd 00 c2 44 bd
       -0.015277622 0.023195978 -0.06666368 -0.048036575
0003e0 1e 98 82 bb 0b 26 d6 3c 28 16 7e bb c3 bf d8 3c
       -0.003985419 0.026141187 -0.003877053 0.026458627
0003f0 6f 9f 12 bd 22 46 ea bc 75 bf 0e bd 9b bf e5 bc
       -0.03579658 -0.028597895 -0.034850556 -0.028045466

model.2.bias f4 [32]
000000 5d 11 9c bd 77 7d 6c bd bf 18 67 bd bc 86 06 bd
       -0.07620499 -0.05773684 -0.056420084 -0.032843336
000010 59 8e 53 bd 2f 0d 54 bd 69 18 b8 bd f1 f1 53 3d
       -0.051649425 -0.051770385 -0.08989031 0.051744405
000020 d7 02 ba bd ae bf 42 bd d7 0e a5 3d 68 ef 8c bd
       -0.09082573 -0.04754608 0.08059471 -0.068816006
000030 8a 2f 2f 3d 52 41 13 bd d0 3f 2f 3c f0 1d 36 bd
       0.042769946 -0.035950966 0.010696366 -0.044462144
000040 f0 41 a2 3d 35 22 af bd 39 72 31 3e 8b ef bd 3d
       0.07922733 -0.08551446 0.17328729 0.09274205
000050 00 c9 5c bd a0 cd 10 bd 07 77 02 bd e7 64 7e bd
       -0.053902626 -0.03535235 -0.031851795 -0.062107947
000060 3b b8 81 bd 73 d4 2d bb 8e 56 e4 3d 44 1e ae bc
       -0.06333967 -0.0026524335 0.111493215 -0.021254666
000070 bb ea 3c bd 1f a3 02 3e 7c 9d 96 3c 22 96 a5 bd
       -0.046122294 0.12757538 0.018385641 -0.08085276

model.4.weight f4 [32]
000000 f4 38 75 3f b1 f0 7b 3f aa dc 64 3f 09 8a 7b 3f
       0.9579003 0.9841414 0.89399207 0.982575
000010 ba 34 74 3f 4f 2e 78 3f 8d e7 75 3f 25 b3 75 3f
       0.95392954 0.9694566 0.96056443 0.9597648
000020 71 4e 7a 3f 30 df 6e 3f dc bf 7e 3f 40 87 70 3f
       0.9777594 0.9330931 0.99511504 0.93956375
000030 97 de 7c 3f d3 e7 7e 3f 98 06 7c 3f b9 b5 64 3f
       0.98777145 0.99572486 0.9844756 0.89339787
000040 35 1e 6f 3f f8 60 66 3f 1f 28 66 3f 99 3d 68 3f
       0.9340547 0.8999171 0.8990497 0.9071899
000050 e7 75 74 3f d0 8c 71 3f 8f 0f 76 3f 57 2a 75 3f
       0.95492405 0.9435549 0.9611749 0.9576773
000060 1c 28 7d 3f 7c ba 72 3f 20 ac 72 3f e1 4f 6f 3f
       0.9888933 0.948158 0.9479389 0.9348126
000070 f9 3d 7d 3f 94 c5 7f 3f cb 1b 73 3f d6 ba 7f 3f
       0.9892269 0.99910855 0.94964284 0.99894464

model.4.bias f4 [32]
000000 00 e6 45 be da 71 41 be 94 db c3 3d 00 e7 15 be
       -0.1932602 -0.18891087 0.095633656 -0.14638901
000010 0b c7 1b be ef 23 55 3d 55 33 05 be fb d8 5b bd
       -0.15212648 0.052036222 -0.13007863 -0.053673726
000020 69 18 c3 3d f7 47 ae bd 31 93 89 3c db d3 55 be
       0.0952614 -0.0850982 0.01679382 -0.20881598
000030 77 7c 22 be 0a 0d b3 bd 28 da 67 be af 64 0b bd
       -0.15867792 -0.087427214 -0.22641814 -0.034031566
000040 bf 50 f0 bd 4a 56 84 be ca 1f 3a 3c 90 6d 21 be
       -0.11734151 -0.25847083 0.011360118 -0.15764451
000050 b2 a9 74 bd c5 f1 29 be 4a 83 c4 bd a9 e8 cf bd
       -0.059732147 -0.16596134 -0.09595354 -0.10151798
000060 55 fa 7e 3d 59 37 39 bc 7b c7 2e be c1 41 85 be
       0.062250454 -0.0113047 -0.17068283 -0.2602673
000070 1b fb 61 be 68 59 0f 3e b9 fa 0f be 0e 6b d2 bd
       -0.22068445 0.1399895 -0.14060487 -0.10274325

model.4.running_mean f4 [32]
000000 44 f4 a9 bc 96 24 a4 bc 32 9b a2 bc f8 03 8f bc
       -0.020746358 -0.020036977 -0.019849394 -0.017457947
000010 42 f4 56 bc b0 d4 81 bc ae 92 05 bd 47 eb ce 3d
       -0.013119759 -0.015848488 -0.032610588 0.10103469
000020 5f b1 ef bc 1c 81 ef bc 68 d3 ea 3d 56 0b e6 bc
       -0.029259382 -0.029236369 0.11466104 -0.028081577
000030 eb 0d 3f 3d 54 ce 4b bc 55 9e 16 3d 28 34 8a bc
       0.046644133 -0.012439329 0.03677209 -0.016870573
000040 77 d8 f2 3d 1e f7 99 bc 0f 27 3a 3e ae 93 ed 3d
       0.11857694 -0.018794592 0.18178962 0.11600433
000050 6f 7d 06 bd ba 59 cf bc 80 b2 36 bc 53 23 6e bc
       -0.032834467 -0.02531134 -0.011150956 -0.014534789
000060 b7 31 0b bd f3 f3 4b bc 4b e8 14 3e eb f3 5a bc
       -0.03398296 -0.012448299 0.14541738 -0.013363819
000070 7d 5e 53 bc a6 12 d1 3d 91 f8 69 3d 80 2d 0e bd
       -0.012900946 0.10208635 0.057121817 -0.03471136

model.4.running_var f4 [32]
000000 08 81 d4 38 78 0e a9 38 d9 57 04 39 9c 28 a8 38
       0.00010132982 8.061243e-05 0.00012621227 8.018428e-05
000010 c8 13 41 39 a6 75 54 39 0c 6c 0d 38 a3 ec ec 39
       0.00018413283 0.00020261723 3.3717646e-05 0.00045189736
000020 ac 90 99 37 45 42 8a 38 44 3a 35 3a 25 13 33 39
       1.830639e-05 6.5926964e-05 0.00069132843 0.00017077902
000030 f7 e1 36 3a f7 a0 09 38 9b 67 d8 39 a1 82 12 39
       0.00069764204 3.2813256e-05 0.00041275923 0.00013972308
000040 80 67 43 3a 60 d8 9a 38 c8 38 b6 39 f9 7d 2a 3a
       0.00074540824 7.383595e-05 0.0003475605 0.0006503757
000050 22 1f 14 39 7d 95 8a 38 76 0c 03 39 c3 72 a5 38
       0.00014125978 6.608197e-05 0.00012497776 7.889189e-05
000060 b3 35 f6 37 3f 48 3b 39 c5 dd 62 3a 3b bb 6a 38
       2.935049e-05 0.00017860623 0.0008654262 5.596432e-05
000070 bb 1c 45 38 e1 be b9 39 22 52 97 39 37 fd 99 38
       4.6995217e-05 0.00035428166 0.00028862158 7.3427735e-05

model.5.weight f4 [64, 32, 3, 3]
000000 0a ca f7 bb ba 69 bb b9 b2 ff f6 3c 39 0c d1 3c
       -0.0075619267 -0.00035746192 0.030151222 0.025518524
000010 21 59 be bb 09 37 dc 3c 56 08 38 ba 5a 07 4e bc
       -0.005808965 0.026881712 -0.0007020285 -0.012574995
000020 37 f8 bb 3c 26 a4 31 3d 59 59 f8 3c 8e ab 9d 3d
       0.022945506 0.043369435 0.030316042 0.07698737
000030 97 dd 4a 3d 70 0e d0 3c 84 6d 90 3d b2 04 48 bd
       0.04952773 0.02539751 0.070521384 -0.048832603
000040 24 1f 29 3c 88 52 2d 3d b0 2a fb 3b b2 af 0a 3c
       0.010322366 0.042315036 0.007665001 0.008464741
000050 c1 f9 e9 bb a9 a6 d9 bc e3 b5 cb bc e3 ae 64 bc
       -0.0071403687 -0.026568728 -0.024867004 -0.013957712
000060 07 f0 12 bc 4b 81 4f ba 80 49 18 bc e8 38 3b bd
       -0.00896836 -0.00079156895 -0.0092948675 -0.045708567
000070 b6 1f d8 3d b0 e5 5b 3d 86 ac 96 bc 29 1e 68 3d
       0.105529234 0.053685844 -0.018392812 0.056669388
000080 75 3f 55 3d 79 5a 68 bc fb 84 64 3c 61 be 61 3d
       0.05206247 -0.014181727 0.013947721 0.0551132
000090 aa 9a c2 bb d9 27 a1 3c 6c dd da 3d 81 30 60 3d
       -0.0059388475 0.019672321 0.10686764 0.054733757
0000a0 7b 94 f7 3c 76 b9 5c 3d 95 4e 01 3d b7 9e a4 3c
       0.030222168 0.053887807 0.031569082 0.020095212
0000b0 8c bc 12 3d 58 20 0f 3d 7e 71 54 3d c7 27 cc 3c
       0.035824344 0.034942955 0.051866047 0.024921311
0000c0 7e 2d e2 bc 8b 57 af 3d 96 d3 eb bc a9 2e cd 3b
       -0.027609583 0.08561619 -0.028787415 0.006261666
0000d0 4e 64 ee 3b 4f 1a 33 3d d0 c4 25 bc 82 8f 08 bd
       0.007275141 0.04372626 -0.010117725 -0.033339985
0000e0 02 61 15 3d 74 dc 01 bc fb 8c 27 3c 3f 2d a7 3d
       0.036469467 -0.007926095 0.010226483 0.08162927
0000f0 01 93 19 3c 60 bc 81 bd e9 2f 89 3c c6 f4 e3 3b
       0.009373427 -0.06334758 0.016746478 0.0069566695
000100 56 38 94 3d 20 74 55 bd c9 ed 17 3d 9c 8b 9e 3d
       0.07237308 -0.0521127 0.037092004 0.07741472
000110 07 f5 87 3b 5d 2e 32 bc c7 20 dd 3c ff b0 25 bd
       0.0041490826 -0.010875312 0.026993169 -0.040452
000120 56 3a 32 bb 22 ba ff bc 8b 1d a4 bd d3 33 92 bc
       -0.0027195415 -0.031216685 -0.080134474 -0.017846977
000130 79 4e 64 bd 95 96 e5 bc d4 57 93 bc e1 bd 31 3d
       -0.0557389 -0.028025905 -0.017986216 0.043393973
000140 c2 34 d7 bb 17 1a d1 bc d2 e5 26 bd 93 45 e5 bc
       -0.0065675685 -0.025525136 -0.040746517 -0.027987277
000150 34 9a 7f bc 63 da 3e bd 18 f5 a8 3b 5a 18 65 3c
       -0.01560073 -0.04659499 0.0051561706 0.013982857
000160 78 23 25 3c f9 8f 8c bd 8c d8 b1 bc ac eb 1f 3d
       0.010079257 -0.06863398 -0.021709703 0.039043114
000170 24 96 28 3c 51 85 dd bc 98 53 09 bd 42 da f0 3b
       0.010289703 -0.02704111 -0.033526987 0.007350237
000180 1c e8 b6 bb 13 be 4c 3b a6 a9 54 bc ab 2f 18 3d
       -0.005581869 0.0031241223 -0.0129799 0.037154835
000190 23 de eb 3a 93 43 9e 3d f4 1c 2e 3d 44 84 72 bd
       0.0017995279 0.077277325 0.04250808 -0.05920817
0001a0 5e cb 82 3c 57 59 7c bb 59 68 1b bd 42 f6 07 3d
       0.015966114 -0.00385054 -0.03794131 0.033193834
0001b0 5a 52 1b bc 59 ca f2 3c 87 65 44 bd a2 73 17 bd
       -0.009480083 0.029637503 -0.047948387 -0.03697551
0001c0 fb 68 9d bc ee a8 30 3d 12 f1 0f 3d c6 20 0f 3c
       -0.019215098 0.043129854 0.035142012 0.008735841
0001d0 9c 24 a0 bb c0 63 a1 bc 07 13 b3 bc bc f9 a0 bd
       -0.0048871767 -0.019700885 -0.021859659 -0.07860133
0001e0 66 6d 97 3d 8f ea ef 3c 23 89 18 bd 8f 7b 0c 3c
       0.07393913 0.029286651 -0.03724016 0.008574381
0001f0 11 62 25 3b 49 a1 b8 3c 92 2e 1f 3c 36 ea cd 3c
       0.0025235454 0.022537844 0.009715693 0.025136095
000200 ad 88 69 bb 53 a4 39 3c d4 2b 99 3d 7f b9 cd 3c
       -0.0035634444 0.011330682 0.07479063 0.025112865
000210 f2 2e dc 3c 33 39 12 3d 3e 77 79 3c ac a4 c2 3c
       0.026877854 0.03569908 0.015226183 0.023760162
000220 01 a5 83 3d d0 af 77 3d 53 a6 29 bd 1a aa 14 3d
       0.06427956 0.060470402 -0.041418385 0.036295034
000230 ee 22 2c 3d f8 ed 57 3c f7 e4 7b 3c 15 99 8d 3c
       0.0420255 0.013179295 0.015374414 0.01728491
000240 f7 f9 2f bd c8 ba 7f bc 2d ba 31 bc d9 d4 08 3c
       -0.042962994 -0.015608497 -0.01084761 0.008351528
000250 16 68 9d 3d 99 70 ac 3b b9 b5 bd bc 44 07 0f 3d
       0.076858684 0.005262446 -0.023157941 0.03491904
000260 da 6f ce bc 86 6f 70 3d 94 51 9b ba 88 ee 9f 3d
       -0.02519982 0.058700107 -0.0011849874 0.07809168
000270 cb b7 bd 3c 40 79 37 3d f5 0d d0 3d 0e 96 40 bc
       0.023158928 0.044793367 0.10158912 -0.011754526
000280 f7 5c 86 3c d5 cf 2b bc 13 7d 9a bb 1a 9f d3 bc
       0.016401751 -0.010486563 -0.004714617 -0.025832701
000290 28 ed ef bc 38 38 00 bd 85 a6 e4 bc 5f 0d 6a 3d
       -0.02928789 -0.031303614 -0.027911434 0.057141658
0002a0 8c 33 59 3d e8 98 8c bb 4e 4d f6 bc cd d3 62 3d
       0.053027675 -0.004290689 -0.030066159 0.05537777
0002b0 96 12 ad 3c b9 ec bf bc f4 fc 85 bb 49 a1 3b 3d
       0.021127027 -0.023428308 -0.0040889923 0.04580811
0002c0 10 16 06 bc 88 52 e4 bc 5a db 7f bc b4 29 7d ba
       -0.008183971 -0.027871385 -0.015616262 -0.00096573983
0002d0 76 ec 0f 3d ad fd a3 bc c5 6b a0 ba fc c6 1a 3b
       0.035137616 -0.020018423 -0.0012239149 0.002361714
0002e0 8b 6d 2d 3d 54 3d b7 bb fc 93 25 3d 24 ca a2 b9
       0.042340796 -0.0055920277 0.040424332 -0.00031049654
0002f0 2c e0 bb 3a 59 f8 c3 3c ed 77 ff ba 50 5e e0 3d
       0.0014333776 0.023922132 -0.0019490697 0.10955489
000300 de 1b d5 3c 3f 4f 65 3d 51 ca 41 3d 4e 7a ff 3c
       0.026014265 0.055983778 0.047312085 0.03118625
000310 86 fc 95 bc 32 e0 11 3d 0b 90 fd 3c dc bc 07 3c
       -0.01830889 0.0356142 0.030952474 0.008284774
000320 ce c6 c5 3d ac c3 da bb d8 d5 83 3c f0 f4 6f 3d
       0.096570596 -0.006676158 0.01609318 0.0585832
000330 6d 6b 9b 3c 54 14 56 bb 74 48 02 3d 4f 67 84 3c
       0.018972123 -0.0032665925 0.031807378 0.016162543
000340 d9 36 7f bd d3 5c 1e bc cf 1b 31 bd 6a f9 71 bd
       -0.062308166 -0.009665686 -0.04323941 -0.05907575
000350 23 2d 61 3c 42 72 43 bb f5 0c c2 3c 09 27 51 bd
       0.013743672 -0.0029822742 0.023687819 -0.051062617
000360 d0 eb 6b 3d ee 50 35 3d ca 16 83 bd 4c f5 74 bd
       0.057597935 0.044266634 -0.06400831 -0.059804246
000370 b7 65 1a bc d1 a4 00 bd 47 c9 46 bc 9f f7 42 bc
       -0.009423665 -0.03140718 -0.012132949 -0.011899858
000380 a1 79 04 3c df e2 91 bd dd 85 84 bd 06 6f 55 bd
       0.008085639 -0.0712335 -0.06470845 -0.052107833
000390 13 0e 21 3c 30 65 89 bd 0e f7 95 bd 84 25 0a 3c
       0.009830016 -0.06708753 -0.073225126 0.008431796
0003a0 f1 57 a3 bd 68 16 5a bd 40 be 82 bd 7e e3 9b bc
       -0.07975758 -0.053244025 -0.063839436 -0.019029375
0003b0 98 1f 0b bb b6 6d f8 bc 3a ab e9 bc fa 6b 4d 3d
       -0.0021228548 -0.030325752 -0.02852403 0.050151803
0003c0 91 bd 8f bb 14 72 a1 3c db ac c8 bc 57 2a ce bc
       -0.0043866117 0.019707717 -0.024496486 -0.025166674
0003d0 12 42 0d bd df d4 cf 3b 1c 58 43 3d 13 1e 51 bd
       -0.034486838 0.006342515 0.04769145 -0.05105407
0003e0 70 b1 2f 3c 23 09 fa bc 75 18 c5 bc de 6e a7 bc
       0.010723457 -0.030521935 -0.024059514 -0.020438608
0003f0 e6 9f c1 3d 49 41 6c 3d 2f 2b eb 3d 2c b6 97 bd
       0.09454326 0.05767945 0.11482846 -0.074077934

model.5.bias f4 [64]
000000 17 0e 8b bd 9b 15 20 be 52 fb b3 bd ad 8e cc bd
       -0.06789797 -0.15633242 -0.0878817 -0.09988151
000010 0f ee 7e be 38 fc a9 bd a4 d0 89 be 5b 21 92 be
       -0.248955 -0.0830006 -0.26916993 -0.28541073
000020 e3 64 b3 be b2 73 4d bd fa c5 24 be c0 69 b8 3d
       -0.35037908 -0.050159164 -0.16091147 0.09004545
000030 73 81 de bd f1 f1 a5 bd 98 80 78 bd 01 ca 13 be
       -0.10864534 -0.08102787 -0.06066951 -0.14432527
000040 1e 91 09 be 49 02 6f be 6e 05 fe bc af 5a 6f be
       -0.13434264 -0.23340715 -0.031008448 -0.23374437
000050 5e 5c 92 bc 92 63 e2 3d 5a 85 bc be 95 0d f4 bd
       -0.01786631 0.11054148 -0.3682049 -0.11916653
000060 b7 82 f6 bd a1 ac 01 be 35 49 97 be 8c a0 92 be
       -0.12036651 -0.12663509 -0.2954804 -0.28638113
000070 ee 84 88 be d2 89 fd bd 84 f8 1c be 87 49 45 be
       -0.26663917 -0.12379803 -0.15329176 -0.1926633
000080 39 ca 86 bd 49 97 17 be 29 00 36 be a4 61 91 3b
       -0.0658154 -0.14803804 -0.17773499 0.0044366885
000090 18 4e 47 be 57 43 5c be 2b a9 66 be 4e 93 83 3c
       -0.19463384 -0.21510063 -0.2252547 0.016061451
0000a0 0f fb 85 be 50 6f 97 3c 70 fc 65 be 0a a3 5e be
       -0.26168105 0.018485695 -0.22459579 -0.21741882
0000b0 b7 e1 6f 3b 90 ef 19 be f5 23 7d be ba 45 b8 bd
       0.0036603042 -0.15032792 -0.24720748 -0.08997674
0000c0 d5 b5 ad bc 83 60 72 be 6d 27 00 bd 59 9f 69 be
       -0.021204868 -0.23669629 -0.0312876 -0.22814693
0000d0 fc b1 18 be 15 2f dc bd 8c 6d 30 bd dc 3c 00 be
       -0.14911646 -0.10751168 -0.043073222 -0.12523216
0000e0 f0 45 7e be d3 0f 38 be 04 29 bf bd e0 5e 64 3d
       -0.24831367 -0.17974786 -0.09333995 0.055754542
0000f0 64 ce 6d be 4e e6 34 3c e5 bd 14 bd 37 48 2b 3d
       -0.23223263 0.011041237 -0.03631391 0.041816916

model.7.weight f4 [64]
000000 3d da 6b 3f 22 05 77 3f 7d 0e 72 3f 42 6c 77 3f
       0.9212988 0.9649221 0.9455336 0.96649563
000010 13 87 7d 3f 78 59 68 3f 9a 11 7e 3f 10 12 7b 3f
       0.9903423 0.9076152 0.9924561 0.98074436
000020 45 c6 7c 3f dd fb 72 3f 54 84 70 3f af 31 78 3f
       0.98740035 0.9491556 0.93951917 0.9695081
000030 59 ad 66 3f 17 3f 7d 3f ba 0e 70 3f 15 cd 6a 3f
       0.9010826 0.9892439 0.9377247 0.9171918
000040 02 b7 7c 3f ff 36 74 3f 5a 29 6e 3f b1 98 77 3f
       0.9871675 0.9539642 0.9303185 0.96717364
000050 e3 26 7b 3f f1 ff 79 3f de 3f 7e 3f 3d cc 74 3f
       0.9810621 0.9765616 0.99316204 0.9562414
000060 26 ef 76 3f 5f f7 77 3f 8d 86 79 3f 5e b8 7f 3f
       0.9645866 0.96861833 0.97470933 0.99890697
000070 55 4c 7c 3f 6c a8 74 3f 0c c4 74 3f e6 1e 71 3f
       0.98553973 0.9556949 0.95611644 0.9418777
000080 60 68 75 3f b8 27 6d 3f a8 c1 70 3f bb 7d 74 3f
       0.9586239 0.9263873 0.94045496 0.9550435
000090 92 d5 74 3f b2 20 7e 3f c1 43 78 3f bf a2 76 3f
       0.9563838 0.9926864 0.96978384 0.9634208
0000a0 85 b4 7e 3f 52 80 76 3f 57 62 72 3f ce 66 65 3f
       0.994942 0.9628955 0.94681305 0.8960999
0000b0 1c 8e 78 3f a9 56 73 3f c2 c3 73 3f 41 41 7c 3f
       0.9709184 0.9505411 0.9522058 0.9853707
0000c0 24 2c 7e 3f 14 a2 75 3f 0f df 7d 3f 1b 20 79 3f
       0.99286103 0.95950437 0.99168485 0.97314614
0000d0 23 30 77 3f e0 ad 6c 3f 95 a3 7a 3f e3 28 6f 3f
       0.96557826 0.9245281 0.97905856 0.93421763
0000e0 c1 b1 7b 3f a5 9f 7d 3f 26 39 77 3f 11 e9 7a 3f
       0.98318106 0.99071723 0.96571577 0.9801188
0000f0 e1 4a 7e 3f 37 ac 75 3f 90 8d 78 3f d1 de 7f 3f
       0.99333006 0.95965904 0.9709101 0.99949366

model.7.bias f4 [64]
000000 7e f1 f6 bd e9 06 b1 be 3c 94 99 ba 81 1d 4e 3c
       -0.1205778 -0.34575585 -0.0011717151 0.0125802765
000010 fa cc 3b be 01 0b ff bd 83 4f 10 3d 04 ac ba bd
       -0.18339911 -0.12453271 0.03523208 -0.091148406
000020 d2 c0 a4 bd 3a 48 08 be 8b 10 7c 3e 3f d7 7e be
       -0.0804459 -0.13308802 0.24615686 -0.24886797
000030 bd aa a1 be 1a de 6a bd 6e 1e b2 3d 53 4b 06 3e
       -0.31575575 -0.05734072 0.0869721 0.13114671
000040 30 a5 18 bd 86 61 d5 bb 46 93 d4 bb 8f 7b 7d bc
       -0.03726691 -0.00651187 -0.006487283 -0.015471353
000050 6f 43 37 bd a4 c3 58 3e 80 1f 1b 3c ef 6c 86 bd
       -0.044742044 0.21168381 0.009467959 -0.06563746
000060 68 85 91 bd 59 ca 04 3e 4f 77 aa 3c e3 56 14 3c
       -0.07105523 0.12967815 0.020808844 0.0090539185
000070 98 30 f1 bd 5b 9f a5 3d 9e 40 c5 3c e5 1e 30 3e
       -0.11776847 0.08087035 0.024078663 0.17199285
000080 8f de 54 3d b2 0e 14 3e e4 ea 2e bc bf e1 85 be
       0.05197006 0.14458731 -0.0106761195 -0.26148793
000090 3a 2f 5a 3d e4 85 20 3e b9 b6 d0 3a 6d 6f 3e bd
       0.053267695 0.15676075 0.0015923596 -0.046492983
0000a0 cf c1 7a bd 8a 45 89 3c 0c 48 29 bd 6e 5f ff bd
       -0.061219987 0.016756792 -0.041328475 -0.12469374
0000b0 98 9e 0b be 6f 60 f2 3d 3d 4d b0 3b 85 6f d6 bc
       -0.13634717 0.118347995 0.0053803013 -0.026176224
0000c0 b9 59 a1 bd c6 6c a9 bc ee d1 d1 3b 24 bf 0a bd
       -0.07878441 -0.02068175 0.0064031994 -0.033873692
0000d0 20 0f 88 3d 10 68 40 be 99 8f a5 bd fa 6f d9 3d
       0.0664351 -0.18789697 -0.0808403 0.10617061
0000e0 f7 9d 9c 3d 7f d4 c3 be bf 38 b1 bd 46 29 9a 3e
       0.07647317 -0.3824806 -0.086534016 0.30109614
0000f0 48 35 00 3e 65 70 aa bd d0 23 a0 3d f0 62 26 bd
       0.12520325 -0.08322219 0.07819331 -0.040621698

model.7.running_mean f4 [64]
000000 c6 09 09 bd b2 bc 16 be d5 76 fb 3d 81 cf 05 be
       -0.033456586 -0.14720419 0.12278525 -0.13067438
000010 fb 34 05 be c7 5c 03 3d a8 ae ff bd ce 0a 9b bd
       -0.13008492 0.0320709 -0.12484485 -0.0757042
000020 33 d4 54 be 58 63 e3 3e 28 2c 16 bd fd ef d6 3e
       -0.20784073 0.4441173 -0.036663204 0.41979972
000030 46 7d 3a bd 35 d0 e8 3e d0 15 f5 3c 9b ab 65 bc
       -0.045529626 0.4547135 0.029917628 -0.014017965
000040 4c c1 0e 3e 3a b9 c1 bd 6b 2f a3 3d 2e 68 1e be
       0.13940924 -0.09459157 0.07968029 -0.15469429
000050 4f da 92 3e 14 42 b0 3e a9 1d 6a be df 76 16 3d
       0.2868218 0.34425414 -0.22862877 0.036734458
000060 0d fc 6b 3d bb 55 d2 3e 5f 9a 00 be 5f c1 fb bd
       0.05761342 0.41081032 -0.12558888 -0.12292742
000070 d2 ef 91 bd cc 97 d0 bc 5a 61 41 bd 7f 32 55 3d
       -0.0712582 -0.025463007 -0.047211982 0.05205011
000080 c0 0b d8 3d 0e 88 93 3d 34 27 bd bd 3c d3 dd 3e
       0.10549116 0.07203685 -0.09235993 0.43325222
000090 5e d6 ca bd aa 78 05 be 88 d1 1e be a2 5f 30 3f
       -0.099041685 -0.13034311 -0.15509617 0.68895924
0000a0 de 0b 30 be ff ad df 3e d0 12 00 be bd 43 94 bd
       -0.17192027 0.43687436 -0.12507176 -0.072394826
0000b0 4b e3 17 3e af 38 c5 3c 8e 3b 01 be 3e df 24 3e
       0.14832799 0.02407488 -0.12620375 0.16100785
0000c0 e4 69 22 3e ed 62 3c 3d db b2 81 3e c5 10 6f bd
       0.15860707 0.04599278 0.25331768 -0.058365602
0000d0 72 35 36 bd ab f2 90 3d fe df b2 3e 14 67 b2 3d
       -0.044484563 0.07077535 0.34936517 0.08711067
0000e0 a5 5f 1f be 24 66 41 bd 4b f3 3c bd 16 53 a7 3e
       -0.15563829 -0.04721655 -0.04613046 0.32680577
0000f0 d2 16 89 3e be a7 83 3d a6 2d b5 3d 64 b7 44 3f
       0.26775223 0.06428479 0.088465974 0.7684233

model.7.running_var f4 [64]
000000 2a d5 80 3e da 5c fa 3d a8 89 74 3e 4a f7 f7 3d
       0.2516263 0.12224741 0.23880637 0.121077135
000010 b8 12 4c 3d f9 2e 4f 3e ba cf 80 3d 66 c8 8c 3d
       0.04982254 0.20232762 0.06289621 0.068741605
000020 6e 89 5f 3d 8c 83 08 3f b8 90 19 3e da e7 81 3e
       0.054574423 0.53325725 0.14996612 0.253722
000030 7e 6d 84 3e 78 30 8f 3e 95 28 ef 3d d0 09 2a 3e
       0.25864786 0.27966666 0.11677662 0.16605306
000040 9e f8 00 3e ae bb 72 3d 9a 5a ff 3e bc 6d c0 3d
       0.1259484 0.059261017 0.4987381 0.0939593
000050 01 06 92 3e 4e ab 90 3e 5e ff a1 3d 14 11 a3 3e
       0.28520206 0.28255695 0.079100356 0.31848967
000060 34 2d 96 3e 20 ee 9b 3f 2c 56 87 3d b3 83 55 3d
       0.29331362 1.2182045 0.06608233 0.05212755
000070 de bf a4 3d 4d 03 06 3e 5c 28 1c 3e be be 07 3f
       0.08044408 0.13087197 0.15249771 0.53025424
000080 ef 83 84 3e 3b 56 2f 3e bd 6c a9 3d 21 38 08 3f
       0.25881907 0.17122738 0.08272693 0.53210646
000090 19 46 81 3d 34 25 31 3e 91 cc 83 3d e6 0b 1d 3f
       0.06312198 0.17299348 0.06435502 0.6134628
0000a0 a1 42 66 3d cf 48 01 3f da cd 81 3d e3 ef b7 3d
       0.056215886 0.5050172 0.06338091 0.08981302
0000b0 4e 78 61 3f ac 78 96 3e 88 95 b2 3d 1d 8f 25 3e
       0.88074195 0.2938894 0.08719927 0.16167875
0000c0 ee 93 2e 3e c8 c8 3e 3e 06 07 46 3e 9f e5 bc 3d
       0.17048618 0.1863128 0.19338617 0.09223484
0000d0 4d ba 27 3e 45 44 17 3e ce 89 a1 3e 1a 19 32 3e
       0.16379662 0.14772137 0.3155045 0.17392388
0000e0 99 1a 3e 3d a3 e5 c7 3e 7e 73 55 3d d2 aa 1e 3f
       0.046412084 0.39042386 0.052112095 0.619794
0000f0 f6 65 46 3f 11 b0 34 3e 88 55 f3 3e 49 11 03 3f
       0.7749933 0.17645289 0.47526193 0.5119825

model.8.weight f4 [128, 64, 3, 3]
000000 6b 29 73 bd 49 4e 0d 3c 62 c3 56 bd 76 4b 0b bd
       -0.05936567 0.008624622 -0.052432425 -0.034007512
000010 35 6f 02 bc e7 79 80 3c 9b e5 73 bb 28 14 3f 3c
       -0.007961084 0.015683128 -0.0037215713 0.0116625205
000020 b2 4d 0f bd 33 ff 23 bd b6 c3 90 bc be ea 0f bc
       -0.034986205 -0.0400383 -0.017671447 -0.008783994
000030 f5 53 dc bc c5 44 28 bd 2f be 37 3d 0b 67 75 3b
       -0.026895503 -0.04108121 0.044859108 0.0037445452
000040 2c d3 88 ba 7d e2 98 3c 20 67 6d b8 18 09 06 3c
       -0.0010438911 0.018662686 -5.6601246e-05 0.008180879
000050 83 cb 98 3d c6 73 e6 bc fa 9d 1f be ce fc a6 3b
       0.07460692 -0.028131377 -0.15587607 0.0050960546
000060 84 eb 85 bd a5 f0 b1 3b 61 ed 75 bd e4 be f0 3d
       -0.06539062 0.0054302984 -0.060040835 0.117551595
000070 db 13 94 3d 11 9d 55 bb ed 04 af bc ff f9 bb ba
       0.0723035 -0.003259484 -0.021364653 -0.0014341472
000080 2a 3f 4e 3d 20 1e 9d bb c3 80 0e bd 5f 20 64 bc
       0.050353207 -0.004794851 -0.034790765 -0.0139237335
000090 30 f2 ae bd 91 0e fc ba a7 f9 07 3d 1c 40 ae 3d
       -0.08542287 -0.0019230415 0.03319707 0.08508322
0000a0 a8 2e 0d bb 1b c5 e8 3c 87 35 cd 3c 4d 71 06 bd
       -0.0021542702 0.0284143 0.025049938 -0.032822896
0000b0 5a 67 9f 3d df bc 38 bb 47 d5 64 3c dd 34 0c bd
       0.077833846 -0.0028188748 0.013966865 -0.0342301
0000c0 d0 ad 9e bc 0a de 47 3d 2c e9 30 bd 6d 05 c9 3c
       -0.01936999 0.048795737 -0.04319112 0.02453872
0000d0 32 23 ef bc b0 90 8d bc 21 05 42 3d 24 3f 48 bd
       -0.029191587 -0.017280906 0.047368173 -0.04888834
0000e0 dd 1a 82 bd dd 9f ce 3d 76 c8 30 3d 18 ba 30 bd
       -0.0635278 0.10089085 0.043159924 -0.043146223
0000f0 4f ff 7e 3d b7 0b cd 3c ee fd 8c 3d 8f c3 46 3d
       0.0622552 0.02503 0.06884371 0.048526343
000100 6b 35 50 3c c6 96 63 bd f7 a8 34 3c ee 47 f0 bb
       0.012708048 -0.05556371 0.0110266125 -0.0073327934
000110 11 4c 86 bd e2 75 38 3d fd 84 2a 3d 1a 17 14 3c
       -0.06557477 0.045034297 0.041630734 0.009038711
000120 28 1d fe 3a 3b 0c 55 bd 93 7e 41 3d 47 8f c2 bd
       0.0019387351 -0.052013617 0.04723985 -0.09499984
000130 7d 54 b4 3d 86 20 aa 3d c0 d7 98 bd f0 13 89 bd
       0.08805177 0.083069846 -0.07463026 -0.06693256
000140 a0 54 22 3d 05 96 25 3d c9 34 9f bc 80 ba fd b9
       0.039631486 0.040426273 -0.01943435 -0.00048394874
000150 79 64 27 bd a6 aa 63 bb 3d 9a 32 3d fe ac 84 3c
       -0.040867303 -0.0034739166 0.043604124 0.01619577
000160 cd 61 1f 3d 0d f7 ab bb 0e 8f 38 3d 5e ef 8b 3b
       0.03891163 -0.0052479566 0.045058303 0.004270478
000170 6a cd 1b bc ad 37 b9 bd 94 33 66 bd 2a 18 92 bd
       -0.009509424 -0.090438224 -0.056201532 -0.07133515
000180 d5 8c 1e bd c5 0b 48 3d 90 4f c8 3c ca 04 82 3d
       -0.038708527 0.04883935 0.024452 0.0634857
000190 3a 97 ea b9 9f ae 98 bc 0e 0e 31 bd 2b 0f 1a 3d
       -0.0004474463 -0.018637953 -0.043226294 0.03761212
0001a0 71 7b 8e 3d 50 35 56 bd f1 94 5a bd f6 13 e0 bc
       0.06957138 -0.052296937 -0.053364698 -0.027353268
0001b0 bb 3c aa bc 08 56 9a 3c 6a d7 00 3d ec 96 d8 bc
       -0.020780912 0.018839851 0.031455435 -0.026439153
0001c0 27 87 77 bc c9 d5 82 3d f6 20 bf bd 75 c9 e3 bc
       -0.015107906 0.063884325 -0.09332459 -0.027806023
0001d0 f4 d1 80 3d 73 15 6c 3d e2 03 33 3d 52 fc 57 3d
       0.062900454 0.057637643 0.043704875 0.052730866
0001e0 d4 ba 80 3d aa b7 6f 3b 78 7a 31 bd 84 42 24 3d
       0.06285635 0.0036577978 -0.043329686 0.040102497
0001f0 9d ba 46 3d 89 9a f3 b9 6b ae 83 bd 98 c1 08 3d
       0.048517812 -0.0004646371 -0.06429752 0.03338775
000200 cc bb 22 3b 66 7d 09 3d d9 45 16 bd da 69 63 3b
       0.0024831174 0.033566855 -0.036687706 0.0034700544
000210 aa b0 c0 3c 38 24 23 3b 9d 27 de 3c 9a b9 9c 3d
       0.02352174 0.0024893414 0.027118498 0.07652588
000220 8b 23 4e 3c 7c de 34 3c 4e bf c0 3c 69 7f 25 3c
       0.012581716 0.0110393725 0.023528721 0.010101178
000230 75 9a a4 bd 7c ea de bc 59 d1 87 bc 42 2d 0a 3d
       -0.08037273 -0.02721142 -0.016579317 0.033734567
000240 17 f7 e2 3c d8 03 24 3d 16 8f c1 3b fe ef 40 3d
       0.027705712 0.04004273 0.0059069498 0.047103874
000250 5f bf af 3b a8 30 6d 39 1c da 78 3c 58 ef fa bc
       0.0053633894 0.00022620207 0.01518872 -0.030631706
000260 ec ed d4 bb f5 15 bd 3b 4d 0d d5 3c 43 03 5c bd
       -0.006498089 0.0057704397 0.026007319 -0.053714048
000270 57 e3 68 3d d9 67 e2 3d 7e b6 7d 3d 3d e4 0f bc
       0.056857433 0.110549636 0.061941616 -0.008782444
000280 09 8f 02 3d f4 12 48 bc 86 e2 22 bd 49 e7 c5 3c
       0.03187469 -0.01221155 -0.03976681 0.024158137
000290 32 18 d9 bc ba 95 42 bd 04 77 a1 bc 3e 66 17 3c
       -0.026500795 -0.04750607 -0.019710071 0.009240685
0002a0 1f 6a 50 3c 52 b8 6e 3d cc b2 85 bc 6a db db bc
       0.012720614 0.05828125 -0.016320609 -0.026838023
0002b0 81 89 ae 3c 9e 38 d5 3c 03 83 ab 3b d1 50 7f bd
       0.021305801 0.026027974 0.0052341237 -0.062332932
0002c0 9c 1a 2c bd f5 33 79 bc 61 fa 09 bc 5e 34 da 3c
       -0.042017564 -0.015210141 -0.008421511 0.026636299
0002d0 02 cf ca 3c 14 7d 9e 3d c4 a0 7e bb 9d a2 11 bd
       0.024756912 0.077387005 -0.0038853148 -0.03555547
0002e0 d0 70 43 bd f1 65 9e bd 60 13 36 bc 72 19 ba 3c
       -0.04771501 -0.077342875 -0.011113018 0.022717211
0002f0 56 b8 5f bc c0 65 a9 bd 68 b8 a1 3c 5f ee ab bc
       -0.013654789 -0.082713604 0.019741252 -0.020987688
000300 de e6 bd bd bb 2f 81 3d 11 5c 09 3d 3b 44 e7 3c
       -0.0927255 0.06307932 0.033535067 0.028230777
000310 1f e6 41 bb 63 b5 fc bc 40 78 86 bc bd f8 6a 3c
       -0.0029586626 -0.03084821 -0.016414762 0.01434153
000320 65 b1 8d bc 29 54 c2 bc 54 22 e6 bd e7 74 b7 bb
       -0.017296502 -0.023721771 -0.11237016 -0.0055986526
000330 c7 63 5b 3d f5 7e a3 3d 4c b8 c3 3b 5b 95 23 3d
       0.053561952 0.079831995 0.0059728976 0.03993736
000340 2b ad 15 bd c5 6a 63 bc a7 d8 01 bc 5b 1b 1e bd
       -0.0365421 -0.013880436 -0.007925189 -0.038600307
000350 91 60 0a bd 65 c4 05 3c 0c ac 97 bd a3 15 22 3d
       -0.0337835 0.0081645 -0.07405862 0.039571416
000360 50 88 a5 bc 99 99 4e 3d 33 00 7b bd 3f 41 e8 3c
       -0.0202066 0.05043945 -0.061279487 0.028351424
000370 ca 4b 83 3d 13 31 81 3d d5 dc 13 3d 03 fc 18 ba
       0.0641094 0.06308188 0.036099274 -0.00058358925
000380 b3 07 92 bd b2 a3 66 bc c2 80 7a bc 6b b4 8d 3b
       -0.07130375 -0.014077114 -0.015289487 0.004324486
000390 9f ae 37 3c 9b 17 7f 3c 85 92 85 bc 56 74 ce bb
       0.0112110665 0.015569593 -0.016305218 -0.0063004894
0003a0 4c 8d f9 bc 8d 3a 58 bd 05 18 55 3d 5c d5 27 3d
       -0.030462883 -0.052790213 0.05202486 0.04097496
0003b0 d6 f9 44 bc 02 96 c6 3d 85 f0 9c 3c dd 5e 14 bd
       -0.012022456 0.096965805 0.019157657 -0.03622328
0003c0 58 8a de 3d 9c f8 25 bd 47 c6 7d bc f3 68 50 bd
       0.10866231 -0.040520296 -0.0154891675 -0.050881337
0003d0 0b 0b f8 3c e8 ed a5 bc 24 9f 99 bb 9f 0f 97 3d
       0.030278703 -0.020255044 -0.0046881605 0.07376026
0003e0 67 3f 6a bd a8 e3 79 3d fe a4 c8 3d e2 49 5a bd
       -0.05718937 0.061008126 0.09797095 -0.053293116
0003f0 fa 66 06 3e 04 19 0a bd f5 5c c5 bd 6b f7 9c bc
       0.1312522 -0.033715263 -0.09636871 -0.019160947

model.8.bias f4 [128]
000000 67 1e d9 bd e0 78 e4 bd 93 5c 48 bd be 7d f9 bc
       -0.10601502 -0.111558676 -0.04891641 -0.030455466
000010 d0 ba 81 bd 12 9b c5 bd e3 e5 0a bd d4 af 48 be
       -0.0633446 -0.09648718 -0.033910643 -0.19598323
000020 1a 2d 2b be cb 2b 46 bd ea b9 9a 3d 84 5a 93 bd
       -0.16716424 -0.048381608 0.075549915 -0.07194999
000030 ff 9e 56 bd 3c 5b 86 bc ab 31 93 bd 93 a2 a2 bd
       -0.052397724 -0.016400926 -0.07187208 -0.07941165
000040 d6 f3 88 bd bf 04 14 bd f0 5e 94 bb 5e 55 f3 3c
       -0.06687133 -0.03613734 -0.004527919 0.029703792
000050 9f 28 b6 bd 26 49 53 be 21 8a 9e bd 87 0d 90 bd
       -0.088944666 -0.20633373 -0.0774119 -0.0703383
000060 d1 34 e9 bc e6 97 99 bd b5 82 79 bd 34 db bd bc
       -0.028467568 -0.074996755 -0.060915668 -0.023175813
000070 df 78 0f 3a 46 97 65 bc ce 9b f1 bc a5 4f 69 bd
       0.0005473028 -0.014013117 -0.029493239 -0.05696072
000080 94 05 2b be 92 4d 91 bd 9d 19 aa bc 7b 22 f9 bd
       -0.16701347 -0.070948735 -0.020764166 -0.1216478
000090 62 a5 3a bd 5c 8a ec bd a0 4e eb bd 73 b3 c4 be
       -0.045567878 -0.115498275 -0.11489606 -0.3841816
0000a0 c5 c5 d4 bc 41 0f 8e bd 97 28 4b bd d4 e5 4d bd
       -0.02597321 -0.06936503 -0.049599256 -0.05026801
0000b0 a9 aa 51 bc 97 6e af bd b5 32 31 3c 59 85 f2 bd
       -0.012797036 -0.08566015 0.010815312 -0.1184184
0000c0 d2 5a 17 be 25 be 96 be 4f 91 07 be ee fc 88 bc
       -0.14780739 -0.29441944 -0.13239025 -0.016722169
0000d0 f3 f2 2f bd 46 07 34 be 54 a0 0a be 49 f3 0f be
       -0.042956304 -0.175809 -0.13537723 -0.1405765
0000e0 bb ea 44 bd 6d ac 16 bd 60 d8 8d bd de 6d 54 be
       -0.04807542 -0.03678553 -0.06926036 -0.20745036
0000f0 f3 12 92 be 3e 65 82 3a 4f aa 12 3c b1 93 05 be
       -0.28530082 0.0009948385 0.008951738 -0.13044621
000100 86 7f 00 be d0 4e 84 bd c3 45 13 3c 6e ee d9 bd
       -0.12548646 -0.06460345 0.0089888 -0.1064118
000110 55 fb d0 bd 1a 51 08 be 28 e9 71 3d b2 92 ff bc
       -0.10204188 -0.13312188 0.059060246 -0.03119788
000120 a8 00 a5 bc ce 6c 0f bd 50 bd bd bd 12 4c bb bd
       -0.020141914 -0.035015874 -0.09264624 -0.09145369
000130 98 a1 f4 bd 4d 1e 0a 3c 76 03 f3 bd f9 bc 04 bc
       -0.11944884 0.008430076 -0.118658945 -0.008101695
000140 82 8f ee bd ce 0d c3 bd 98 08 84 bd e2 f6 98 bd
       -0.11648466 -0.095241174 -0.06446952 -0.07468964
000150 8b 0a 8e bd b1 df c8 bd cf 28 7a be da f0 a7 be
       -0.06935605 -0.09808291 -0.2442963 -0.32800943
000160 95 05 ce be f8 21 cc bd a3 90 e7 3b ec d7 57 bd
       -0.40238634 -0.099674165 0.0070668026 -0.052696154
000170 b4 c9 fc 3b bb aa 81 be 46 f2 98 3d 3e 0f bf bd
       0.0077144746 -0.2532557 0.07468085 -0.09329079
000180 8a 8f 95 bd 08 2c 38 bd 6d 44 35 bd f2 1b c7 bc
       -0.073027685 -0.044963866 -0.04425471 -0.024305318
000190 ab 04 55 bd c4 96 53 bd 5d 99 c0 bd 8a 69 5c bc
       -0.052006405 -0.051657453 -0.09404252 -0.013452897
0001a0 0c bf d2 bd aa 4c 6e be ae f9 ac be da 97 80 bd
       -0.102903455 -0.23271433 -0.3378424 -0.062789634
0001b0 8b ee 1c bd 0b 0f 43 bd c8 14 a8 bd f7 27 06 bd
       -0.03831343 -0.047621768 -0.08207089 -0.032752957
0001c0 74 62 d4 bc 4b f5 15 3b 45 5c ca be 6a 7c a7 bd
       -0.025925852 0.0022881802 -0.3952352 -0.08178027
0001d0 c0 eb 79 bd 8e 37 01 3d 72 61 a1 3b 57 97 bb bd
       -0.061015844 0.03154712 0.0049249465 -0.09159725
0001e0 3c 9d fd bd ac 72 9f bd e8 b9 cf 3c 6c 0a 4b 3d
       -0.12383506 -0.07785544 0.025357202 0.049570486
0001f0 6c ee 5d bc 2d 37 07 be ba aa 3e bd bf 60 08 be
       -0.013545614 -0.13204642 -0.046549536 -0.13318156

model.10.weight f4 [128]
000000 e8 e9 7f 3f 31 6a 6c 3f 64 ef 7b 3f 9f 79 70 3f
       0.9996629 0.92349535 0.98412156 0.9393558
000010 b8 22 6b 3f 49 e0 75 3f f4 73 5b 3f 55 e7 7f 3f
       0.9184985 0.96045357 0.85723805 0.9996236
000020 46 f2 7f 3f ab 1f 6a 3f ec 18 7a 3f 2e 73 5e 3f
       0.99979055 0.9145457 0.9769428 0.868945
000030 b7 ee 7f 3f e1 35 7f 3f 82 ee 7f 3f e6 53 65 3f
       0.99973625 0.9969159 0.9997331 0.89581144
000040 12 4c 5f 3f eb 4e 6d 3f 84 46 7f 3f 16 66 75 3f
       0.8722545 0.92698544 0.99716973 0.95858896
000050 00 00 80 3f b0 f2 7f 3f 23 7c 77 3f c9 82 78 3f
       1.0 0.99979687 0.9667379 0.9707456
000060 1c f4 7f 3f 1f ff 6c 3f c3 3c 6e 3f 77 c8 75 3f
       0.99981856 0.92576784 0.93061465 0.9600901
000070 39 f8 69 3f 8e be 7f 3f 67 dd 7b 3f 00 00 80 3f
       0.9139438 0.9990014 0.9838471 1.0
000080 6a f1 7f 3f 85 ce 6d 3f 26 6c 6c 3f a3 09 7c 3f
       0.99977744 0.9289325 0.9235252 0.98452204
000090 6c 9a 79 3f 0c b3 7f 3f b9 1d 6f 3f 92 f6 7f 3f
       0.97501254 0.9988258 0.9340473 0.9998561
0000a0 0a 1a 75 3f ff b0 7f 3f 18 ce 71 3f 3e 0b 79 3f
       0.9574286 0.9987945 0.944551 0.9728278
0000b0 0a f3 7f 3f 1c 56 6a 3f 1c fd 6c 3f 8f 56 7a 3f
       0.99980223 0.9153764 0.92573714 0.9778833
0000c0 c1 ed 66 3f 5d ed 7f 3f 3d 42 75 3f 00 00 80 3f
       0.90206534 0.9997156 0.95804197 1.0
0000d0 7d 22 7d 3f 66 26 7b 3f 50 ef 7f 3f 31 91 6a 3f
       0.9888075 0.98105466 0.99974537 0.91627795
0000e0 ef 2e 6c 3f 17 a9 73 3f a9 ae 7f 3f 8b f2 7f 3f
       0.92259115 0.95179886 0.99875885 0.99979466
0000f0 4d dd 7f 3f 77 72 79 3f 89 83 71 3f b2 f6 7f 3f
       0.99947053 0.97440284 0.9434133 0.999858
000100 43 77 76 3f c7 f3 7f 3f 9b 11 6b 3f 20 ef 7f 3f
       0.9627573 0.9998135 0.9182374 0.9997425
000110 00 00 80 3f e4 f3 7f 3f b4 9e 76 3f 5b 47 73 3f
       1.0 0.9998152 0.9633591 0.95030755
000120 6d cc 76 3f b1 5c 71 3f 64 e3 6e 3f 9c a6 79 3f
       0.9640568 0.9428206 0.9331572 0.9751985
000130 5f f5 74 3f 24 26 75 3f 52 b0 7f 3f 10 7f 72 3f
       0.95686907 0.9576132 0.9987842 0.9472513
000140 52 fe 70 3f 83 43 6c 3f 44 63 79 3f 82 bc 6f 3f
       0.9413806 0.92290515 0.9741709 0.93647015
000150 20 17 6b 3f 50 b0 7b 3f f5 09 7b 3f 50 f3 7f 3f
       0.9183216 0.98315907 0.9806207 0.9998064
000160 43 f0 7f 3f e6 1f 74 3f 75 4f 69 3f 58 86 69 3f
       0.99975985 0.95361173 0.91136867 0.9122062
000170 53 f6 7f 3f 91 f6 7f 3f 18 a6 79 3f a4 e3 7f 3f
       0.99985236 0.99985605 0.97519064 0.9995673
000180 39 47 7e 3f 9f ea 7f 3f c6 c2 74 3f 03 d0 6e 3f
       0.9932743 0.9996738 0.956097 0.9328615
000190 21 17 6e 3f 54 a9 70 3f 72 37 68 3f 2c 97 7e 3f
       0.9300404 0.94008374 0.907096 0.9944942
0001a0 00 00 80 3f d6 f2 7f 3f 83 f0 7f 3f 39 76 6f 3f
       1.0 0.99979913 0.99976367 0.9353977
0001b0 fd ed 7f 3f 00 00 80 3f 52 d6 68 3f 4f b9 6d 3f
       0.99972516 1.0 0.90952027 0.92860883
0001c0 d2 fd 6b 3f 85 ea 7f 3f e1 f6 7f 3f 1e 8f 7f 3f
       0.92184174 0.99967223 0.9998608 0.99827754
0001d0 da d1 65 3f 57 78 65 3f 83 9e 7d 3f ee e7 69 3f
       0.89773333 0.8963675 0.99069995 0.9136952
0001e0 56 07 69 3f 4a 46 67 3f 01 fc 6f 3f e0 39 74 3f
       0.9102682 0.9034163 0.937439 0.9540081
0001f0 f2 fd 6d 3f 00 00 80 3f dc 6e 6b 3f cb 60 79 3f
       0.92965615 1.0 0.91966033 0.9741332
