Lab4/models/gan_models/ls_dis.pth (torch, 402839 bytes, 22 tensors)

model.0.weight f4 [16, 3, 3, 3]
0	0x3cbad133	0.022804832
1	0x3d1ccceb	0.038281363
2	0x3d47668f	0.048681792
3	0xbca0c282	-0.019623999
4	0xbd1e3464	-0.038624182
5	0x3c5bfa6b	0.0134264035
6	0xbd8c3aa6	-0.06847124
7	0xbda73a40	-0.08165407
8	0xbd54c654	-0.051946953
9	0x3d252315	0.04031666
10	0x3d528835	0.05139943
11	0x3d2f1fa9	0.042754803
12	0xbc755b5c	-0.014975395
13	0xbca51d74	-0.020155646
14	0x3abec076	0.0014553207
15	0x3d124103	0.03570653
16	0xbc341df5	-0.01099347
17	0xbc0f7542	-0.008755984
18	0x3d0f73f4	0.03502269
19	0x3d7a66a5	0.061133046
20	0x3c02c211	0.007980839
21	0xbd37b27a	-0.044847943
22	0xbd5429e5	-0.051797766
23	0x3c2d6d1a	0.010585094
24	0x3d1b9428	0.03798309
25	0xbbbfb0f6	-0.005849953
26	0x3c9624d2	0.018328104
27	0xbd88354f	-0.06650793
28	0xbdaec2b8	-0.085332334
29	0xbd603aea	-0.054743685
30	0xbd7f9593	-0.062398504
31	0xbd7a6525	-0.061131615
32	0xbd415c8c	-0.0472074
33	0xbdb94f7c	-0.090483636
34	0xbd226fac	-0.03965728
35	0xbd633d9d	-0.05547868
36	0x3e18217b	0.14856522
37	0x3dc8f52e	0.09812389
38	0x3dad6f3e	0.084684834
39	0x3dfa255a	0.122141555
40	0x3dfc0fc3	0.12307694
41	0x3dac9d16	0.08428399
42	0x3e0c0edc	0.13677543
43	0x3dc5cb3b	0.09657904
44	0x3ddce29c	0.1078541
45	0xbd8e20b4	-0.069398314
46	0xbcb5443c	-0.022127263
47	0xbcce0f2a	-0.025153715
48	0xbd76577c	-0.060142025
49	0xbd889d7e	-0.06670664
50	0xbd09ae5f	-0.03361356
51	0xbd221b7e	-0.039577
52	0xbd46f05f	-0.04856908
53	0xbd5f4e5f	-0.0545181
54	0xbd3b1065	-0.045669932
55	0xbd829233	-0.063755415
56	0x3c5e6853	0.0135746775
57	0x3c2a58cb	0.010397146
58	0xba1fba8a	-0.0006093165
59	0xbc4d071e	-0.012513904
60	0x3d128824	0.035774365
61	0x3d698d76	0.057019673
62	0xbc6026f1	-0.013681159
63	0xbdbb4d5a	-0.09145613
64	0xbd396d44	-0.04527022
65	0xbb3e2c2d	-0.002901803
66	0xbc0740cc	-0.008255195
67	0x3ac27e96	0.0014838751
68	0x3c7dabb1	0.015482829
69	0x3d8a4f18	0.06753367
70	0x3d71c97f	0.059030052
71	0xbc079091	-0.008274213
72	0xbd16d605	-0.0368252
73	0xbd182201	-0.037141804
74	0xbc552fe0	-0.013011903
75	0x3cc4051f	0.023928223
76	0xbc88cac4	-0.016698249
77	0xbc746206	-0.014915949
78	0x3d4337ab	0.04766051
79	0x3d748ff4	0.059707597
80	0x3bc23c95	0.005927632
81	0x3dbb2e9e	0.09139751
82	0xbd1803a7	-0.03711286
83	0x3be3d012	0.006952294
84	0xb9c423bd	-0.0003741066
85	0xbdf343cf	-0.11878168
86	0xbc107e3b	-0.008819158
87	0x3d1b889c	0.037972078
88	0x3c2df690	0.010617867
89	0x3c13d28f	0.009022369
90	0x3d8d9cf4	0.06914702
91	0xbd3545a2	-0.04425586
92	0x3c9eea0e	0.019398715
93	0xbd5c9e47	-0.053861883
94	0xbdb048e3	-0.08607652
95	0xbd729cff	-0.059231754
96	0x3c281c3d	0.010260639
97	0xbc4b4804	-0.012407307
98	0x3da0af54	0.07845941
99	0x3d74df19	0.059783075
100	0xbca5dac4	-0.020245917
101	0x3cd61e7b	0.026137581
102	0xbd417a23	-0.04723562
103	0xbda7d396	-0.08194654
104	0xbc45461f	-0.012040644
105	0x3d2aa1ea	0.04165832
106	0x3c18345a	0.009289825
107	0x3d347daf	0.044065174
108	0xbd0ec7a9	-0.03485838
109	0x3c71dc11	0.014761941
110	0x3c58b5f9	0.013226979
111	0x3ac57518	0.0015064804
112	0x3d08d417	0.03340539
113	0x3d7af4d6	0.06126865
114	0xbdac00a7	-0.08398562
115	0xbc8b53d5	-0.017007748
116	0xbc7d13bc	-0.0154466
117	0x3cc306fe	0.023807045
118	0x3cb87bcb	0.022519967
119	0x3c499458	0.012303434
120	0x3d422a1a	0.047403432
121	0x3da0b2a1	0.07846571
122	0x3d64e3ac	0.055881187
123	0xbda6863e	-0.081310734
124	0xbd19b56c	-0.037526533
125	0xbd0d584d	-0.03450804
126	0xbc22e0df	-0.009941309
127	0x3ba7f1f4	0.0051252786
128	0xbcc5c7ee	-0.024143185
129	0x3caf9642	0.021433953
130	0x3c96946e	0.018381324
131	0x3d5755a5	0.05257191
132	0xbd8a179a	-0.06742783
133	0xbd02227f	-0.03177118
134	0xbcf14deb	-0.0294561
135	0x3ce27454	0.02764336
136	0x3d6a5f22	0.057219632
137	0x3d2b928d	0.04188781
138	0x3cf1fc19	0.029539155
139	0x3d06be89	0.032896552
140	0x3cbbdf0d	0.022933507
141	0x3d386982	0.045022495
142	0x3cc9020c	0.024537109
143	0x3d258d91	0.04041821
144	0xbda537b4	-0.08067265
145	0xbdcde419	-0.10053272
146	0xbd758135	-0.059937675
147	0xbda83f80	-0.08215237
148	0xbdb5f663	-0.08884885
149	0xbd906404	-0.070503265
150	0xbde62ed1	-0.11239398
151	0xbd91b6f3	-0.07114973
152	0xbddad874	-0.106858164
153	0x3d51d677	0.05122992
154	0x3d3294c6	0.043598913
155	0x3c9e9033	0.019355869
156	0x3d687219	0.056749437
157	0x3d87687d	0.066117264
158	0x3d34ab30	0.04410857
159	0x3d99285b	0.074784
160	0x3cf4de24	0.029891081
161	0x3d93cd18	0.07216853
162	0x3be16e0c	0.0068795737
163	0x3c2998cb	0.01035137
164	0xbd2693bf	-0.040668245
165	0x3d135430	0.03596896
166	0x3d2e916b	0.04261915
167	0x3c6d84eb	0.014497022
168	0x3c48af72	0.012248861
169	0xbcf1cb7c	-0.029515974
170	0xbd384ec4	-0.04499699
171	0xbd1df9c3	-0.03856827
172	0x3baab245	0.0052092397
173	0xbc218212	-0.009857671
174	0xbcc4cca3	-0.02402336
175	0x3b461c2c	0.0030229194
176	0x3d376145	0.044770498
177	0xbd7f4b09	-0.06232742
178	0xbce43cbe	-0.027860995
179	0xbbcb2579	-0.0061995354
180	0x3bd5e23f	0.006527215
181	0xbb52466d	-0.0032085434
182	0x3c9ede18	0.019393012
183	0x3b823902	0.003974081
184	0x3cb40e78	0.021979555
185	0x3c153b8b	0.009108434
186	0xbbfc2d3c	-0.007695822
187	0x3b712468	0.0036795381
188	0xbc62e87c	-0.013849374
189	0x3cba646b	0.022752961
190	0x3c8017d7	0.015636368
191	0xbb992309	-0.004673366
192	0x3c817405	0.015802393
193	0x3c4ef0aa	0.012630621
194	0x3c562a79	0.01307165
195	0xbb70b2f9	-0.003672777
196	0xbcf9e0ba	-0.030502666
197	0xbd55b9de	-0.05217921
198	0xbb742912	-0.0037255925
199	0x3c9a131a	0.018807936
200	0x3d47f61e	0.0488187
201	0xbd061936	-0.032738887
202	0x39e87c5a	0.00044343137
203	0x3c5d6009	0.013511666
204	0x3d2862c1	0.041109804
205	0xb9efe117	-0.00045753337
206	0x3ce22e49	0.027609961
207	0xbcb02524	-0.021502085
208	0xbce28d0d	-0.027655149
209	0xbd1e0f14	-0.0385886
210	0x3ced754d	0.028986597
211	0x3b6af78a	0.0035853111
212	0xbcbd89a6	-0.023136925
213	0x3c74d42e	0.014943166
214	0xbcadc8ef	-0.021213977
215	0xbc50f1c3	-0.012752953
216	0x3cc09931	0.023510547
217	0x3d2292a0	0.039690614
218	0xbde1589d	-0.1100323
219	0x3cc8a3f2	0.024492238
220	0x3d3b5654	0.045736626
221	0xbd2ac480	-0.041691303
222	0xbd8caab2	-0.06868495
223	0x3b3ff9b0	0.0029293112
224	0x3da5494b	0.0807062
225	0x3d197165	0.037461657
226	0x3d205a17	0.039148416
227	0xbdf6d366	-0.1205204
228	0x3ccf1a1b	0.025281003
229	0x3d207e55	0.03918298
230	0xbd562c74	-0.052288488
231	0xbd5bb8c1	-0.053642992
232	0x3bb68ad8	0.0055707507
233	0x3d4aab14	0.04947956
234	0x3cd8cab2	0.02646384
235	0x3d2b83fd	0.04187392
236	0xbd8854cb	-0.06656798
237	0x3d82da47	0.06389289
238	0x3c290664	0.010316465
239	0xbd6cfafc	-0.057856545
240	0xbdb31c32	-0.08745612
241	0x3d2121f4	0.03933902
242	0x3cf6fc07	0.030149473
243	0x3c133d93	0.008986848
244	0x3c79f42a	0.015255967
245	0xbad3a27d	-0.0016146448
246	0xbd21a8f5	-0.03946777
247	0x3ce4d433	0.027933216
248	0xbd429d02	-0.047513016
249	0xbc22c4a1	-0.009934575
250	0xbba0f21d	-0.0049116747
251	0x3b0f99c4	0.002191172
252	0xbc6dc877	-0.014513127
253	0x3ccd74b1	0.025080057
254	0xbcb13db5	-0.02163587
255	0xbd000f7b	-0.031264763

model.0.bias f4 [16]
0	0xbdacefe0	-0.0844419
1	0xbbf0fdde	-0.007354482
2	0xbd056f89	-0.03257707
3	0xbcc7a995	-0.024372855
4	0xbd56132b	-0.052264374
5	0xba2163e9	-0.00061565504
6	0x3d8f054f	0.069834344
7	0xbe0154f0	-0.12630057
8	0xbd0a0fec	-0.03370659
9	0xbe4e9f8b	-0.20178048
10	0xbdf16344	-0.117865115
11	0xbbca958e	-0.006182379
12	0x3d1c13b0	0.038104713
13	0xbda98e43	-0.082790874
14	0xbe52a77f	-0.20571707
15	0xbd96a213	-0.07355132

model.2.weight f4 [32, 16, 3, 3]
0	0x3cad7c4d	0.021177435
1	0x3d9930f1	0.07480038
2	0x3d68ae7a	0.05680702
3	0x3b46df8e	0.0030345651
4	0x3c935afb	0.017987719
5	0xbc534e72	-0.012897121
6	0x3d0b2ef1	0.033980314
7	0x3d95d090	0.07315171
8	0xbd20ef04	-0.039290443
9	0x3d648c96	0.055798136
10	0xbc8cca19	-0.017186211
11	0xbd712d77	-0.05888125
12	0x3cff5818	0.031169936
13	0x3d3f1288	0.046648532
14	0xbd09c893	-0.033638548
15	0x3d443c7c	0.047909245
16	0x3cda168a	0.026622076
17	0x3bc26d5f	0.005933448
18	0xbd9e88c8	-0.07740933
19	0xbd37def8	-0.044890374
20	0xbd09afd8	-0.033614963
21	0x3d4c46e7	0.049872305
22	0x3d2897b9	0.04116032
23	0x3cc29f12	0.023757491
24	0xbc07062d	-0.0082412185
25	0x3bcb7e08	0.0062100925
26	0x3c0e1d9f	0.008674054
27	0xbda41a53	-0.080128334
28	0x3c865504	0.01639796
29	0x3c615042	0.013752045
30	0xbc70e5a6	-0.01470319
31	0x3d08ac1c	0.03336726
32	0xbcddeb81	-0.027089836
33	0xbbfd5b9e	-0.007731869
34	0x3a4503ca	0.0007515518
35	0xbd2f1d70	-0.042752683
36	0xbc39680a	-0.011316309
37	0x3b69756b	0.0035622965
38	0xb93e0925	-0.00018123219
39	0x3ccbf84c	0.02489867
40	0x3b32b60c	0.0027269153
41	0xbb8ab20c	-0.0042326506
42	0x3d6b8f8e	0.05750995
43	0x3cea427b	0.028596153
44	0xbd40726d	-0.046984125
45	0xbd992b1c	-0.074789256
46	0xbd9e7b38	-0.07738346
47	0xbd650490	-0.055912554
48	0xbdb51a2f	-0.08842885
49	0xbda19319	-0.07889385
50	0xbc6b613a	-0.014366442
51	0xbdc6b55d	-0.09702561
52	0xbd87014e	-0.06592046
53	0xbd4e9f17	-0.05044469
54	0xbcd1b742	-0.02560008
55	0x3d258a34	0.040415004
56	0x3c805f48	0.015670434
57	0x3be2432a	0.0069049792
58	0x3c92d566	0.017924022
59	0xbd3d130a	-0.046160735
60	0x3c07d986	0.008291608
61	0xbd11ca10	-0.035593092
62	0xbd0d9166	-0.03456249
63	0xbd4cbaf8	-0.049982995
64	0xbd00b56c	-0.031423017
65	0xbd1a18db	-0.03762136
66	0xbd251e63	-0.040312182
67	0xbd59684e	-0.05307799
68	0xbcaf857f	-0.02142596
69	0xbd1a6ee3	-0.037703406
70	0xbbe14c54	-0.006875554
71	0x3bd389e9	0.006455649
72	0xbd9f6708	-0.077833235
73	0xbb001db4	-0.0019548954
74	0xbb60324f	-0.0034209674
75	0xbdc1ac54	-0.09456697
76	0xbb9f7d19	-0.0048672077
77	0xbd4194df	-0.047261115
78	0xbc2963d2	-0.01033874
79	0xbc96d9f3	-0.018414473
80	0xbc0de089	-0.00865949
81	0xba149d10	-0.0005669156
82	0xbd142145	-0.03616454
83	0xbcb79a3e	-0.022412416
84	0xbd16dd81	-0.036832336
85	0x3bce5625	0.0062968903
86	0xbd45c481	-0.048283104
87	0x3c9c61e5	0.019089649
88	0x3cdd136b	0.026986798
89	0x3d459727	0.048239853
90	0x3daad5e1	0.083415754
91	0x3dc0fc78	0.094231546
92	0xbbc7b545	-0.006094607
93	0x3d8f71ed	0.070041515
94	0x3dec1331	0.11527098
95	0x3d75bec2	0.059996374
96	0x3d89fc7e	0.06737612
97	0x3dc7e9ab	0.097613655
98	0x3d904e53	0.07046189
99	0xb6759000	-3.6591664e-06
100	0xbb77243f	-0.0037710813
101	0x3d018f64	0.03163089
102	0xbcefc125	-0.029266903
103	0xbb29b14c	-0.002589303
104	0xbd288caf	-0.04114979
105	0xbd14727a	-0.036241986
106	0xbd233303	-0.03984357
107	0xbcee2511	-0.029070409
108	0x3d08f085	0.033432502
109	0x3cebb630	0.028773397
110	0x3cb0889f	0.021549521
111	0xbd5fcd18	-0.054638952
112	0xbdef0f1d	-0.116728045
113	0xba75ecd0	-0.0009381296
114	0xbb9047a1	-0.00440307
115	0x3c22b22e	0.009930177
116	0x3cdbedd4	0.026846804
117	0xbd1ead8a	-0.03873972
118	0xbd0907ae	-0.03345459
119	0x3ca8cd8a	0.020605821
120	0x3bf56ea3	0.0074899956
121	0xbc386550	-0.0112546235
122	0x3cd1953b	0.025583854
123	0xbc90cfd2	-0.017677221
124	0xbcfb080c	-0.030643485
125	0x3beb00f9	0.007171747
126	0xbcf915c3	-0.030405885
127	0xbd3b7277	-0.04576346
128	0xbd9efe0f	-0.077633016
129	0x3cbd53a8	0.02311118
130	0xbce4ca83	-0.027928596
131	0xbb9bbcf9	-0.004752752
132	0x3d2ddd48	0.04244736
133	0x3cdaaf27	0.026694847
134	0x3d190278	0.03735587
135	0xbd1a9684	-0.0377412
136	0xbd8c13cc	-0.068397135
137	0xbc8a1586	-0.016855966
138	0xbd74cf09	-0.059767757
139	0x3c6c5746	0.0144251045
140	0xbaaa7569	-0.0013004962
141	0xbc0db5b0	-0.008649275
142	0xbb14ffde	-0.0022735517
143	0x3b665f9a	0.0035152198
144	0x3d4e4965	0.050362963
145	0x3d016373	0.031588983
146	0xbc62ad11	-0.013835208
147	0x3c75b78a	0.014997372
148	0xbcb400b2	-0.021972988
149	0xbd0da813	-0.034584116
150	0xbcc9fd41	-0.024656894
151	0xbdfb5c7f	-0.122735016
152	0xbd2ed0f0	-0.042679727
153	0x3cc0660d	0.023486162
154	0x3c49b9b4	0.0123123415
155	0x3dd95836	0.10612528
156	0xbc12e15c	-0.008964863
157	0xbc82963f	-0.015940784
158	0x3d73e53c	0.059544787
159	0x3cf31079	0.02967094
160	0x3d5014db	0.05080114
161	0x3d91d817	0.07121294
162	0x3c5cdfeb	0.013481121
163	0xbc076205	-0.008263116
164	0x3c48bc00	0.012251854
165	0x3cf8b2a4	0.03035862
166	0x3da5aba7	0.08089381
167	0x3dbfd2d0	0.09366381
168	0x3d066b4d	0.032817174
169	0x3d9c89b1	0.0764345
170	0x3dbadf1f	0.09124588
171	0xbd260137	-0.040528502
172	0xbd50aa09	-0.05094341
173	0xbbf945f7	-0.0076072174
174	0x3cb70694	0.022342004
175	0xbad1d93c	-0.0016010175
176	0xbc6591a2	-0.014011772
177	0xbce178d3	-0.027523434
178	0xbc853393	-0.016259944
179	0xbc488b1d	-0.012240198
180	0xbb9dd4f8	-0.0048166476
181	0xbce992e4	-0.028512426
182	0xbd8d21df	-0.06891226
183	0x3b3d2eec	0.002886708
184	0xbd206575	-0.039159257
185	0x3cb71d6f	0.022352902
186	0x3a96b592	0.0011498204
187	0x3cc68ade	0.024236139
188	0x3d8189e7	0.06325131
189	0x3d558fa0	0.052138925
190	0x3c1e2b8e	0.009653939
191	0x3c365043	0.011127534
192	0x3d825e4a	0.063656405
193	0xbc6f19fd	-0.014593598
194	0x3da36dbf	0.07979917
195	0x3c8f239e	0.017473038
196	0x3c4d1657	0.012517533
197	0x3ce8fae8	0.028439954
198	0xbcbc9d2f	-0.02302417
199	0xbc0cfc47	-0.0086050695
200	0xbb0c5cb9	-0.0021417572
201	0xbca35054	-0.019935764
202	0xbd20f105	-0.039292354
203	0xbd3e2f13	-0.046431612
204	0xbc150a3b	-0.009096677
205	0xbc96eb5e	-0.018422779
206	0xbbc229dc	-0.0059254
207	0xba16c664	-0.00057516084
208	0xbb8dfd05	-0.004333141
209	0x3c43fbf7	0.011961929
210	0x3c965e60	0.018355548
211	0xbbd18420	-0.0063939244
212	0xbbce47b2	-0.006295168
213	0xba1c70bb	-0.0005967726
214	0x3c3acf2e	0.011401935
215	0x39267f7f	0.0001587849
216	0x3cef877a	0.029239405
217	0x3cbf1496	0.023325246
218	0xbad0fe76	-0.0015944976
219	0x3d3b43ee	0.04571908
220	0xbd2ad213	-0.04170425
221	0x3dc37f25	0.09545735
222	0xbcedd85f	-0.029033838
223	0x3d9cc0df	0.07653975
224	0x3d86f49e	0.06589626
225	0x3cce7ec0	0.025206923
226	0xbc16cbe0	-0.009203881
227	0x3dbb8f2c	0.09158167
228	0xbaebf894	-0.0018003159
229	0xbc3f49f8	-0.01167535
230	0x3d1454db	0.036213737
231	0xbc8ec792	-0.017429147
232	0xbd896409	-0.06708533
233	0x3dd9a11d	0.10626433
234	0xbc283045	-0.010265415
235	0xbd276b5e	-0.040873878
236	0x3c6e66b5	0.014550854
237	0xbba99cb6	-0.005176152
238	0xbd82bf83	-0.06384184
239	0x3bb13765	0.005408215
240	0xbd459ac2	-0.04824329
241	0xbd24137e	-0.04005765
242	0x3d15292e	0.036416225
243	0xbcef2d92	-0.029196534
244	0x3b677473	0.0035317212
245	0x3cd67378	0.026178107
246	0xbc668ba2	-0.014071377
247	0x3cd0cb8b	0.025487682
248	0x3c2060d3	0.00978871
249	0xbc2fbc3a	-0.010726029
250	0xbcba3f08	-0.022735134
251	0x3d1e3d6c	0.038632795
252	0xbbbd3de3	-0.0057751997
253	0x3c91d78e	0.01780298
254	0x3d03c6a7	0.03217187
255	0xbbae5edc	-0.0053213667

model.2.bias f4 [32]
0	0x3da57e45	0.080807246
1	0xbd5450de	-0.051834933
2	0xbd5b7d49	-0.053586278
3	0x3e1d64e7	0.15370522
4	0xbdb68d17	-0.089136295
5	0x3bd9158f	0.0066248844
6	0xbcc8cab6	-0.024510723
7	0x3d8fe95e	0.07026933
8	0x3ac4271b	0.0014965268
9	0xbd020b33	-0.03174896
10	0x3d4ac126	0.049500607
11	0xbc918c61	-0.017767133
12	0xbd663295	-0.056200583
13	0x3e3c5ab8	0.18393981
14	0x3c88e887	0.01671244
15	0xbd03e753	-0.03220303
16	0x3e21ce9a	0.15801468
17	0xbd02ec75	-0.031963784
18	0xbd584e66	-0.05280914
19	0xbdab1066	-0.08352737
20	0x3d6edcde	0.058316104
21	0x3d868269	0.065678425
22	0x3d856c2c	0.06514773
23	0x3d1972ef	0.037463125
24	0xbd57de20	-0.05270207
25	0x3c222d46	0.009898489
26	0x3d8de23d	0.06927917
27	0xbcebdc71	-0.028791638
28	0xbd089dcc	-0.03335361
29	0xbd87724e	-0.06613599
30	0x3dafe02b	0.085876785
31	0xbd1d14d1	-0.03834993

model.4.weight f4 [32]
0	0x3f756e35	0.9587129
1	0x3f71dd0e	0.9447793
2	0x3f7b6a62	0.982092
3	0x3f61ae48	0.8815656
4	0x3f757444	0.9588053
5	0x3f7f9b77	0.99846596
6	0x3f7d2b64	0.98894334
7	0x3f7ec58b	0.99520177
8	0x3f7c379b	0.9852235
9	0x3f5f71d2	0.8728305
10	0x3f710d5a	0.94161
11	0x3f708c07	0.93963665
12	0x3f7efad2	0.9960147
13	0x3f7dd4e2	0.9915296
14	0x3f7fd667	0.99936527
15	0x3f7ddf66	0.99169004
16	0x3f698887	0.9122395
17	0x3f7d5d50	0.9897051
18	0x3f7fcf86	0.9992603
19	0x3f7f1db3	0.9965469
20	0x3f7bf16e	0.9841527
21	0x3f6e6a9f	0.9313144
22	0x3f760177	0.96095985
23	0x3f78246d	0.9693058
24	0x3f7bb687	0.9832539
25	0x3f7fe689	0.99961144
26	0x3f7e68f8	0.9937892
27	0x3f79ea04	0.97622705
28	0x3f704313	0.9385235
29	0x3f6eb5d5	0.93246204
30	0x3f70ad24	0.9401419
31	0x3f6a2a5a	0.91470873

model.4.bias f4 [32]
0	0x3ce040f2	0.027374718
1	0xbd1fd8e0	-0.039025187
2	0xbd65f3c1	-0.056140665
3	0xbe187a43	-0.14890389
4	0xbda3fb75	-0.08006946
5	0xbe04ca77	-0.12967859
6	0xbe045793	-0.12924032
7	0x3e067807	0.13131724
8	0xbe40dfe5	-0.18835409
9	0xbe58c470	-0.21168685
10	0x3dea1e66	0.11431579
11	0x3dcded6c	0.1005505
12	0xbdf17a8b	-0.11790951
13	0x3c32237b	0.010872717
14	0xbd2bc47b	-0.041935425
15	0xbdc1be9b	-0.09460183
16	0x3e2504bd	0.16115089
17	0xbe108a1b	-0.14115183
18	0xbe2fd8c7	-0.17172538
19	0xbd7c57a7	-0.06160703
20	0x3e0eb075	0.139345
21	0x3cd3d8e3	0.025860256
22	0xbdd1212e	-0.10211407
23	0x3c8ce02e	0.017196741
24	0xbe21feb1	-0.15819813
25	0x3d164f46	0.036696695
26	0xbdb77b76	-0.08959095
27	0xbdae4418	-0.085090816
28	0xbe52667f	-0.20546912
29	0x3850567c	4.967161e-05
30	0x3d6cbd6d	0.057797838
31	0xbd8cbbb7	-0.06871741

model.4.running_mean f4 [32]
0	0x3d8b46cc	0.06800613
1	0xbc8f80b1	-0.01751742
2	0xbc69cf62	-0.014270635
3	0x3e2f0115	0.17090257
4	0xbcb95fce	-0.022628691
5	0xbbc82912	-0.0061084116
6	0xbc47a997	-0.012186429
7	0x3d7a679b	0.061133962
8	0xbc0ee2db	-0.008721079
9	0xbc26d2e2	-0.010182114
10	0x3cb4b8fe	0.022060867
11	0x3bbe9896	0.0058165295
12	0xbcd7575e	-0.026286777
13	0x3e4e1ff5	0.20129378
14	0x3d1a1e57	0.03762659
15	0xbc84f8d3	-0.01623193
16	0x3e20c543	0.1570025
17	0x3a1c4bb5	0.0005962209
18	0xbc6fb1da	-0.014629805
19	0xbcaaa8c5	-0.020832429
20	0x3d3615b0	0.044454277
21	0x3dac6947	0.084185176
22	0x3d795ed9	0.06088147
23	0x3d831d6b	0.064020954
24	0xbc94f6d4	-0.018184103
25	0x3ce45745	0.027873645
26	0x3d9a5889	0.07536418
27	0xbc5d3f03	-0.013503793
28	0xbc52a4cf	-0.012856676
29	0xbce1cc32	-0.027563188
30	0x3df3d6c1	0.119061954
31	0xbc897224	-0.01677806

model.4.running_var f4 [32]
0	0x3af52f64	0.001870614
1	0x398232c1	0.00024833347
2	0x3954322b	0.00020236585
3	0x3acaa670	0.0015460979
4	0x39c76578	0.00038031838
5	0x3a5d256a	0.0008436056
6	0x39044604	0.00012614584
7	0x3b4604dd	0.00302153
8	0x399b09d1	0.00029571218
9	0x39230c40	0.00015549455
10	0x3a1292fa	0.0005591359
11	0x3a4f84e8	0.0007916228
12	0x3a716e19	0.0009209826
13	0x3b073b6d	0.0020634786
14	0x3ac96c9a	0.0015367449
15	0x39d65591	0.00040881013
16	0x39ef27c3	0.00045615257
17	0x3a000f56	0.0004885098
18	0x39254b5d	0.00015763701
19	0x394f53f1	0.00019772329
20	0x3aa48efc	0.001255482
21	0x3a88a010	0.0010423679
22	0x3a0ec474	0.0005446144
23	0x3a0ec3ef	0.00054460665
24	0x392b9c3a	0.0001636603
25	0x3ab783ed	0.0014001109
26	0x3a796a7b	0.0009514463
27	0x3a219066	0.00061631796
28	0x38ec6319	0.00011271815
29	0x38952dea	7.113426e-05
30	0x3a47b537	0.00076182507
31	0x3905e575	0.00012769348

model.5.weight f4 [64, 32, 3, 3]
0	0x3da0b25e	0.07846521
1	0x3a701152	0.00091578544
2	0x3d4fe028	0.05075088
3	0xbd2d47e2	-0.04230488
4	0x3c5a3d5e	0.013320295
5	0xbc5f1c55	-0.013617595
6	0x3b2372b5	0.0024940197
7	0xba3f5fff	-0.00073003763
8	0xbcd52b13	-0.026021516
9	0xbcdd5328	-0.027017191
10	0xbd0c2170	-0.034211576
11	0x3cdd3172	0.027001116
12	0x3d16474a	0.03668908
13	0x3c8fbba7	0.017545534
14	0x3d06682a	0.032814182
15	0x3d101591	0.035176817
16	0x3c892956	0.016743343
17	0x3bf40088	0.0074463524
18	0x3d6df5c9	0.058095727
19	0xbbd90744	-0.0066231806
20	0x3d9aabee	0.07552324
21	0x3db16efd	0.086637475
22	0x3ccacd6d	0.024756158
23	0x3d38e2c0	0.04513812
24	0x3d260005	0.040527362
25	0xbcaf9218	-0.021431968
26	0x3caa90f1	0.020821067
27	0xbc782e2d	-0.015147728
28	0xbc497865	-0.012296771
29	0x3c67cdbc	0.014148172
30	0x3cb7aa78	0.022420153
31	0xbaa1cf54	-0.0012345114
32	0x3ce10b6a	0.027471263
33	0x3c55df29	0.013053694
34	0x3c0ebaed	0.008711559
35	0x3ca1091d	0.019657666
36	0x3d1ea232	0.0387289
37	0x3cdf16eb	0.027232608
38	0xbccbe8fd	-0.02489137
39	0x3cda5c8a	0.026655454
40	0x3c13ff40	0.009033024
41	0x3d552aed	0.05204289
42	0x3d34e65a	0.044164993
43	0xbc895279	-0.016762959
44	0x3c01cdb7	0.007922581
45	0x3bcc4674	0.0062339846
46	0xbc3a3098	-0.011364125
47	0xbc90ca66	-0.017674636
48	0x3d06ee27	0.032941964
49	0xbcf6eaf9	-0.03014134
50	0x3b2a45a4	0.002598145
51	0x3d0c9142	0.034318216
52	0xbd1f2ab3	-0.03885908
53	0x3d55caf2	0.052195497
54	0xbc60ebd8	-0.0137281045
55	0x3d3572be	0.04429888
56	0xbd18cdeb	-0.037305754
57	0xbc5fbd7f	-0.013656019
58	0xbd04d05c	-0.03242527
59	0x3d2628a5	0.040566105
60	0xbc1267b7	-0.00893586
61	0x3d9e04e7	0.07715779
62	0x3ce27e7b	0.027648201
63	0xbcbed90c	-0.023296855
64	0xbaf5230c	-0.0018702461
65	0x3bc86374	0.0061153714
66	0xbd5dce05	-0.054151554
67	0xbd8b57c7	-0.068038516
68	0xbbd8c7e5	-0.006615626
69	0x3d9e334c	0.07724628
70	0x3ca3541a	0.019937564
71	0x3ccdacee	0.025106873
72	0x3d9ede52	0.07757248
73	0x3cee5eb6	0.029097896
74	0xbc990a89	-0.018681781
75	0x3d7bb799	0.06145439
76	0x3db75c62	0.089531675
77	0xbcc35bc0	-0.02384746
78	0x3cb2179e	0.021739777
79	0x3d77df6e	0.060515814
80	0xbc90b73d	-0.0176655
81	0x3a95d765	0.001143199
82	0x3d327fef	0.04357904
83	0xbc4a3d76	-0.012343755
84	0xbc1263d9	-0.008934938
85	0x3cf86464	0.030321307
86	0xbcdeb817	-0.02718739
87	0x3c1c65eb	0.0095457835
88	0xbcdd1330	-0.026986688
89	0xbe095d6d	-0.13414545
90	0xbd303b06	-0.04302504
91	0xbcf24104	-0.029572017
92	0x3bfe874d	0.007767594
93	0xbdd5ca9f	-0.104390375
94	0xbc8fe16e	-0.017563548
95	0xbd9b64bf	-0.07587575
96	0xbd6fba4e	-0.058527283
97	0xbb36370d	-0.002780381
98	0xbd237bb1	-0.039912883
99	0xbd0c488b	-0.03424887
100	0x3ce43825	0.027858803
101	0x3d38f4f3	0.045155477
102	0xbb2a2c6c	-0.002596642
103	0xbd1d4964	-0.03840007
104	0x3c57cb84	0.0131710805
105	0x3c0744b9	0.008256131
106	0xbcde2e89	-0.027121799
107	0x3ce39b17	0.027783914
108	0x3ca71279	0.02039455
109	0x3c93919f	0.018013773
110	0x3d2d9bd6	0.042384945
111	0xbc2ab171	-0.010418282
112	0x3ccba5ba	0.024859298
113	0x3cb5d546	0.022196423
114	0xbc842f7d	-0.016135925
115	0x3ce2ee81	0.027701618
116	0x3cee4161	0.02908391
117	0xbc28147a	-0.010258788
118	0xbb800c5b	-0.003907723
119	0xbceac45c	-0.028658085
120	0x3d10b228	0.035326153
121	0xbc47e1bc	-0.012199815
122	0xbd06a8ff	-0.03287601
123	0xbda7957a	-0.08182807
124	0x3c5e6fc3	0.013576451
125	0xbd588e31	-0.05286998
126	0x3d3a5327	0.045489457
127	0x3d6b5cf4	0.057461694
128	0x3ca46c5d	0.020071203
129	0xbd55a783	-0.052161705
130	0x3d06e74c	0.032935426
131	0xbdb12d49	-0.086512156
132	0x3c98f84d	0.018673087
133	0x3d664803	0.05622102
134	0xbc1ecea3	-0.009692821
135	0xbcd93e6b	-0.026519021
136	0xbcee33df	-0.029077468
137	0xbcc6af0f	-0.024253396
138	0x3b1ac2e3	0.0023614697
139	0xbdbab9a7	-0.091174416
140	0xbd9bbe8f	-0.076047055
141	0xb849a497	-4.807542e-05
142	0xbdab53c9	-0.0836559
143	0x3d19b750	0.037528336
144	0xbccfafc6	-0.02535237
145	0x3d67fd87	0.056638267
146	0x3d673e3c	0.056455836
147	0x3d2db49d	0.042408574
148	0x3b497e4b	0.0030745442
149	0x3d1f3708	0.03887084
150	0xbc2a4dbb	-0.010394509
151	0x3ca3d583	0.019999271
152	0xbd245e83	-0.040129196
153	0x3d3dea42	0.046365984
154	0x3c0f8b61	0.008761258
155	0xbc9c5cba	-0.019087184
156	0x3d886c08	0.0666123
157	0x3d76e2e3	0.06027497
158	0x3cde1b8e	0.027112748
159	0x3d754c07	0.05988696
160	0x3ce1c018	0.027557418
161	0xbcb54fc4	-0.022132762
162	0x3da33dbb	0.079707585
163	0x3c23e0f4	0.0100023635
164	0x3d0f46c3	0.034979593
165	0xbb8ed48e	-0.0043588346
166	0xbc83d279	-0.016091572
167	0x3c90af53	0.017661726
168	0xbcb6be53	-0.02230755
169	0xbd880c7d	-0.06643007
170	0xbb518684	-0.0031971047
171	0x3caf0f20	0.021369517
172	0xbc8f2080	-0.017471552
173	0x3ce7336a	0.028222758
174	0x3cbcf47a	0.023065794
175	0xbd6d43ad	-0.05792587
176	0xbb23e958	-0.002501091
177	0x3cbe0fd6	0.02320091
178	0xbca79869	-0.020458417
179	0x3d8a1009	0.0674134
180	0xbd2679a9	-0.040643368
181	0x3b5f7114	0.00340945
182	0x3c8135d4	0.015772738
183	0xbb80776a	-0.0039204853
184	0xbd24cb01	-0.040232662
185	0xbd52eb53	-0.051493954
186	0xbd724c8a	-0.059155025
187	0xbc393b2b	-0.011305611
188	0xbc683f72	-0.014175283
189	0x3d4f8c9c	0.050671205
190	0x3d89fad5	0.067372955
191	0x3ca3312c	0.019920908
192	0x3d829209	0.0637551
193	0x3d4ef84d	0.050529767
194	0xbda49696	-0.080365345
195	0x3d97a1bc	0.07403895
196	0x3cdb6357	0.026780767
197	0xbd6e6a0d	-0.058206607
198	0x3c3287cf	0.010896637
199	0x3c9a7b04	0.018857487
200	0xbbcfe21f	-0.0063440944
201	0x3d8b1913	0.06791892
202	0x3c91a3e2	0.01777834
203	0x3cc0b040	0.023521543
204	0x3d826f30	0.063688636
205	0x3d2bc5f5	0.041936833
206	0xbcd10294	-0.025513925
207	0x3c4edf9e	0.012626557
208	0xbc87fd54	-0.016600288
209	0x3d07fc46	0.03319957
210	0xbc8b1b45	-0.016980777
211	0xbcc9cd96	-0.024634164
212	0x3c7def3f	0.015498935
213	0xbd3ccfcb	-0.046096604
214	0xbd258555	-0.04041036
215	0x3c2a98bb	0.01041239
216	0xbc0b9e6d	-0.008521658
217	0x3c18f9a6	0.009336865
218	0x3d193f63	0.037413966
219	0xbdc4f0f5	-0.096162714
220	0x3cfd2396	0.030900758
221	0xbb8d8197	-0.004318427
222	0xbca9dd1c	-0.020735316
223	0x3c7b34b9	0.015332394
224	0x3d0564c1	0.03256679
225	0x3be3f344	0.0069564898
226	0x3cedd0d9	0.02903025
227	0xbc03b328	-0.00803832
228	0x3c593319	0.013256812
229	0x3b970abf	0.0046094353
230	0xbd0cf0cb	-0.034409326
231	0xbc8a621d	-0.016892487
232	0xbc4be6c9	-0.01244516
233	0xbafb4dd0	-0.001917297
234	0xbc8066c8	-0.01567401
235	0xba95ca14	-0.0011428022
236	0xbd33280a	-0.043739356
237	0x3d60dc60	0.054897666
238	0x3cb1c90b	0.02170231
239	0xbd0058da	-0.031334735
240	0x3dbcf209	0.09225852
241	0x3da98375	0.082770266
242	0x3ce0e825	0.027454445
243	0x3d240106	0.04004004
244	0x3cf42b5f	0.029805837
245	0xbccc38f0	-0.024929494
246	0x3ce261ab	0.027634462
247	0xbd2e5e23	-0.042570245
248	0xbc802e00	-0.015646935
249	0x3c42c103	0.011886838
250	0x3cd5faa4	0.026120491
251	0xbc2aa759	-0.010415875
252	0x3cc41164	0.023934074
253	0x3c819115	0.01581625
254	0x3d8f4bcd	0.0699688
255	0x3d38e6af	0.045141872

model.5.bias f4 [64]
0	0xbb834c0b	-0.0040068678
1	0xbe453c2c	-0.19261235
2	0x3c80cd81	0.015722992
3	0xbd5cc9c5	-0.05390336
4	0xb9933022	-0.00028073887
5	0xbd9ec80c	-0.07753
6	0xbe77c658	-0.24196756
7	0xbd8e4a91	-0.06947816
8	0xbdb731a7	-0.08945017
9	0xbc79356f	-0.0152104935
10	0xbe04beeb	-0.12963454
11	0xbe11c8ed	-0.14236803
12	0xbe1f7fbd	-0.15576072
13	0xbdcdad6a	-0.10042842
14	0xbd4688e3	-0.04847039
15	0xbcc4132e	-0.023934927
16	0xbe7e43c0	-0.24830532
17	0xbc0e79bf	-0.008696019
18	0xbcc37544	-0.023859628
19	0xbe0a1a6c	-0.13486642
20	0xbda1bb4b	-0.078970514
21	0xbdcfaf24	-0.10140827
22	0xbdffec19	-0.12496204
23	0xbe4ba6a0	-0.19887781
24	0xbd6f5fd3	-0.058440994
25	0xbe011e60	-0.12609243
26	0xbd43024e	-0.04760962
27	0xbd97c74e	-0.07411061
28	0xbe1fac72	-0.15593126
29	0xbe26d7be	-0.16293237
30	0x3cd73831	0.026271911
31	0xbd642c22	-0.05570615
32	0xbb658c93	-0.0035026416
33	0xbde7db0d	-0.113210775
34	0xbcac774d	-0.02105298
35	0xbe93f80c	-0.28900182
36	0xbdb21d90	-0.08697045
37	0xbdb96aa1	-0.09053541
38	0xbdaffe50	-0.08593428
39	0xbd538872	-0.051643796
40	0xbe12ccc7	-0.14335929
41	0x3cdf4b74	0.027257659
42	0xbd91544e	-0.07096158
43	0xbdef24c7	-0.116769366
44	0xbd13729e	-0.03599798
45	0xbd8d9fa7	-0.06915217
46	0xbe2684b4	-0.1626156
47	0xbe8680a3	-0.26270017
48	0xbe0a6b9a	-0.13517609
49	0xbddc5558	-0.107584655
50	0xbd820144	-0.06347898
51	0xbd0c9d0c	-0.03432946
52	0xbe2477e2	-0.16061357
53	0xbdba4856	-0.09095828
54	0xbea8ac34	-0.3294388
55	0xbe638674	-0.22219259
56	0xbdbf0b71	-0.09328354
57	0xbe438e2b	-0.19097202
58	0xbd4fb167	-0.050706293
59	0xbe29f77e	-0.16598317
60	0xbd310e73	-0.04322667
61	0xbdd0840d	-0.10181437
62	0xbe11bfdd	-0.14233346
63	0xbd8f8e89	-0.07009608

model.7.weight f4 [64]
0	0x3f6bd4a4	0.9212134
1	0x3f7bc219	0.98343045
2	0x3f6a4568	0.91512156
3	0x3f595e20	0.8490925
4	0x3f790496	0.9727262
5	0x3f70c0b7	0.9404406
6	0x3f7e7a70	0.99405575
7	0x3f749528	0.95540094
8	0x3f700897	0.9376311
9	0x3f65cfde	0.89770305
10	0x3f7f0c74	0.99628377
11	0x3f77e9e4	0.96841264
12	0x3f745b0c	0.95451427
13	0x3f719e98	0.9438262
14	0x3f79bfe0	0.97558403
15	0x3f77817d	0.9668196
16	0x3f7f936d	0.9983433
17	0x3f77d833	0.9681427
18	0x3f7f70e5	0.9978164
19	0x3f69a119	0.9126144
20	0x3f7f4d8f	0.9972772
21	0x3f7ebdd0	0.9950838
22	0x3f6bd4ae	0.921214
23	0x3f613ac6	0.87980306
24	0x3f6dcb6c	0.9288852
25	0x3f7c9010	0.9865732
26	0x3f7f153d	0.9964178
27	0x3f6ccbe4	0.9249861
28	0x3f785ae0	0.97013664
29	0x3f7dab28	0.9908929
30	0x3f7656ba	0.96226084
31	0x3f764d36	0.96211565
32	0x3f7a4e81	0.9777604
33	0x3f72a650	0.9478502
34	0x3f6e7889	0.9315267
35	0x3f760112	0.96095383
36	0x3f770a02	0.96499646
37	0x3f64fc19	0.8944717
38	0x3f5c409a	0.86036074
39	0x3f756a00	0.9586487
40	0x3f6fb384	0.93633294
41	0x3f7fa680	0.99863434
42	0x3f7b25d9	0.98104626
43	0x3f7585e3	0.9590742
44	0x3f71f08c	0.9450767
45	0x3f76bdaf	0.96383184
46	0x3f6adf91	0.91747385
47	0x3f78324c	0.96951747
48	0x3f6b7661	0.91977507
49	0x3f7f4896	0.9972013
50	0x3f75de25	0.9604209
51	0x3f7d9394	0.9905331
52	0x3f72e925	0.94887
53	0x3f709f32	0.9399291
54	0x3f748d4a	0.9552809
55	0x3f6cbc15	0.9247449
56	0x3f6a9f9f	0.9164981
57	0x3f66a1c7	0.900906
58	0x3f71b739	0.944202
59	0x3f6a8c4f	0.91620344
60	0x3f7c3d44	0.98530984
61	0x3f6ff222	0.9372884
62	0x3f6e0a3c	0.92984366
63	0x3f70203b	0.9379918

model.7.bias f4 [64]
0	0x3d08d888	0.033409625
1	0xbcb32bc2	-0.021871451
2	0x3d2d7b70	0.042354047
3	0x3d046a6b	0.03232805
4	0xbd2aa27b	-0.04165886
5	0x3dbe5b45	0.09294752
6	0xbc71f93d	-0.014768896
7	0xbd6e88f7	-0.05823609
8	0xbd63c9ff	-0.05561256
9	0x3d24ca74	0.040232137
10	0x3d770a7f	0.060312744
11	0x3e07a725	0.13247354
12	0xbd8b9016	-0.068145916
13	0xbc0b5c2d	-0.008505863
14	0xbc70dba4	-0.014700804
15	0x3db10e2d	0.08645282
16	0xbc507354	-0.012722809
17	0xbda34d04	-0.07973674
18	0x3d3fb377	0.04680201
19	0xbcb23914	-0.021755733
20	0xbd483887	-0.048882034
21	0x3d90a61c	0.07062933
22	0xbd2019e8	-0.039087206
23	0xbbaa4490	-0.0051961616
24	0xbdedc80c	-0.116104215
25	0x3d62ceec	0.055373117
26	0x3d6526d1	0.05594522
27	0x3d0f0d02	0.034924515
28	0x3d0d7c35	0.03454228
29	0x3d10bdda	0.035337307
30	0xbd930102	-0.071779266
31	0xbd884133	-0.06653061
32	0x3d79537b	0.06087063
33	0x3d679285	0.056536216
34	0xbd604bf8	-0.05475995
35	0x3d7869d4	0.0606478
36	0xbca2864c	-0.019839428
37	0x3d4b5e7c	0.049650654
38	0xbcc3807d	-0.023864979
39	0x3d2bca72	0.041941114
40	0xbd485c61	-0.048916224
41	0xbc8d411c	-0.01724296
42	0xbdae09a7	-0.08497935
43	0xbd663044	-0.056198373
44	0xbd26ad62	-0.040692694
45	0x3c696376	0.014244905
46	0x3bc371fb	0.0059645153
47	0xbdbc0d23	-0.09182193
48	0xbd1fd1ec	-0.039018556
49	0xbd1f5d43	-0.0389073
50	0xba537964	-0.00080671
51	0xbcd62221	-0.02613932
52	0xbd4ae43e	-0.049534075
53	0x3da4844e	0.080330476
54	0xbce5bbe5	-0.028043697
55	0x3d7b83d7	0.06140503
56	0xbcec919f	-0.028878031
57	0xbb64537b	-0.0034839797
58	0x3d3805ce	0.04492741
59	0x3db7c315	0.08972756
60	0xbd89f92d	-0.0673698
61	0x3c0a6542	0.008446993
62	0x3d9369f4	0.07197943
63	0x3d0a684c	0.03379087

model.7.running_mean f4 [64]
0	0x3e1879fb	0.14890282
1	0x3d9dfc77	0.077141695
2	0x3e8e8be0	0.2784109
3	0x3dff6d1b	0.12471982
4	0x3e96703a	0.29382497
5	0x3e60639d	0.21913
6	0x3b0665db	0.0020507488
7	0x3e2e36cf	0.17013095
8	0x3d55f14d	0.052232075
9	0x3e46c560	0.1941123
10	0x3e3b6d77	0.18303476
11	0x3e6cd4da	0.23128071
12	0xbb491b23	-0.003068634
13	0x3e063fc3	0.1311026
14	0x3e601204	0.21881872
15	0x3e6a66bf	0.22890757
16	0xbe27168e	-0.16317198
17	0x3e7dfe82	0.24804118
18	0x3e719dbf	0.23595332
19	0xbbb0e460	-0.005398318
20	0x3e1a952e	0.1509597
21	0xbc19003f	-0.009338438
22	0xbd0a7509	-0.03380302
23	0x3cf317ac	0.029674374
24	0x3dcf1b6f	0.101126544
25	0x3e6e3c66	0.23265228
26	0x3e735a0c	0.23764819
27	0x3d367d6c	0.044553205
28	0xbcc04fc7	-0.02347554
29	0x3e88dd77	0.26731464
30	0x3e01b9f6	0.12668595
31	0x3cc1691e	0.023609694
32	0x3e469edb	0.19396536
33	0xbbfad1be	-0.0076543977
34	0x3e3c07e4	0.18362385
35	0xbdf21441	-0.118202694
36	0x3e109eb9	0.14123048
37	0x3e9c33a8	0.3050816
38	0x3d962bc0	0.073325634
39	0x3e38dfae	0.18054077
40	0xbca1ede0	-0.019766748
41	0x3efe4c12	0.49667412
42	0x3dfc64a9	0.12323887
43	0xbd9308ba	-0.07179399
44	0x3f09ce7b	0.5383069
45	0x3e98748d	0.2977642
46	0xbcceafec	-0.02523037
47	0xbe08f41f	-0.13374375
48	0x3d05c6b1	0.03266019
49	0x3df779c0	0.12083769
50	0x3ddcd8a8	0.107835114
51	0x3e541519	0.20711173
52	0xbe04253b	-0.12904827
53	0x3d6d2b06	0.05790236
54	0xbde87d11	-0.113519795
55	0xbd2cb76a	-0.042167105
56	0xbd56df23	-0.052458894
57	0x3d2cabea	0.042156138
58	0x3d8098ce	0.06279145
59	0x3ceff76d	0.029292786
60	0x3e6abd6c	0.22923821
61	0x3b0e16da	0.00216811
62	0xbc22d20d	-0.009937775
63	0x3d303a19	0.043024156

model.7.running_var f4 [64]
0	0x3e9fea2d	0.3123335
1	0x3e03117a	0.12799636
2	0x3e9beccb	0.30454096
3	0x3e8a32a5	0.26991764
4	0x3eb5d8d6	0.35516995
5	0x3f0953b8	0.5364337
6	0x3f712b4e	0.942067
7	0x3eadb8c8	0.3393004
8	0x3e19885e	0.14993426
9	0x3e64464c	0.22292441
10	0x3f05e8fc	0.5230863
11	0x3f127192	0.57204545
12	0x3e5602fb	0.20899574
13	0x3e7c0c9c	0.24614185
14	0x3ef16698	0.47148585
15	0x3ec4f7ad	0.38470212
16	0x3de41f2c	0.11138758
17	0x3e631480	0.22175789
18	0x3f048d95	0.5177854
19	0x3db9d410	0.09073651
20	0x3e83cf68	0.25744176
21	0x3e0dd26a	0.13849798
22	0x3e191676	0.14949974
23	0x3de5508c	0.11197004
24	0x3e4e59fc	0.20151514
25	0x3f34cc24	0.70623994
26	0x3f27ccad	0.65546685
27	0x3e277559	0.16353358
28	0x3e319f5c	0.17345947
29	0x3ee41353	0.44545993
30	0x3e738017	0.23779331
31	0x3e6ba903	0.23013692
32	0x3e7a1c0f	0.24424766
33	0x3e25b3f9	0.16181935
34	0x3ecc3f11	0.39891866
35	0x3d3efffd	0.04663085
36	0x3eaa3f00	0.3325119
37	0x3f3a9726	0.72886884
38	0x3e8543b1	0.26028207
39	0x3e1fe50a	0.15614715
40	0x3e15ff38	0.1464814
41	0x3f051972	0.5199195
42	0x3de88753	0.11353936
43	0x3da3a7a9	0.07990963
44	0x4004e158	2.076254
45	0x3f32140e	0.6956185
46	0x3de27451	0.11057342
47	0x3d9791ee	0.07400881
48	0x3db54e98	0.08852881
49	0x3e822bf8	0.2542417
50	0x3e9dd81b	0.30828938
51	0x3e8ef7d0	0.2792344
52	0x3d9bb648	0.07603127
53	0x3eab1c13	0.33419856
54	0x3da11301	0.07864953
55	0x3e273679	0.16329373
56	0x3df95548	0.12174469
57	0x3e812309	0.25222042
58	0x3e1caa8c	0.15299433
59	0x3e8da543	0.27665147
60	0x3f25ef08	0.6481786
61	0x3db2d0ce	0.087312326
62	0x3d9849c5	0.074359454
63	0x3da3ca98	0.07997626

model.8.weight f4 [128, 64, 3, 3]
0	0x3ce67045	0.028129706
1	0xbc36b263	-0.011150929
2	0xbca794da	-0.02045672
3	0xbd50b304	-0.050951973
4	0xbc8e9805	-0.017406473
5	0xbcf93ad2	-0.030423556
6	0x3d7e6666	0.062109374
7	0x3ce2e5be	0.02769744
8	0x3d366051	0.04452545
9	0x3c429558	0.011876427
10	0xbd2efc8d	-0.04272132
11	0xbc3a56da	-0.011373246
12	0xbd7be8dc	-0.06150137
13	0x3c4d12f7	0.012516729
14	0xbd3edb48	-0.04659584
15	0xbe022c45	-0.127122
16	0xbc833fa9	-0.016021566
17	0xbd318ea7	-0.043348935
18	0xbbdba492	-0.006702968
19	0x3d102734	0.035193637
20	0xbcbde2e1	-0.023179473
21	0x3aba370d	0.001420708
22	0x3a760331	0.0009384631
23	0x3db0fe1a	0.08642216
24	0xbbecf013	-0.0072307675
25	0xbc3c2dc1	-0.011485518
26	0x3d6ad5d4	0.05733283
27	0x3d280189	0.04101709
28	0x3b5464ab	0.0032408636
29	0x3d9b190c	0.07573137
30	0xbcb6a1ea	-0.022294004
31	0x3c26ae0a	0.01017333
32	0x3d9655c3	0.073405765
33	0xbd3a377d	-0.045463074
34	0xbbc2c8a2	-0.0059443275
35	0xbc42bf52	-0.011886435
36	0x3d544142	0.051820047
37	0x3ceed179	0.029152619
38	0xbd002ad2	-0.031290837
39	0x3d898adc	0.067159384
40	0x3d7a22f2	0.061068483
41	0x3cf9fbdc	0.030515604
42	0x3d5cda03	0.05391885
43	0x3d3a433a	0.04547427
44	0x3d4c9855	0.049949963
45	0x3d88b77f	0.06675624
46	0x3d7e5be6	0.06209936
47	0xbc3b7e8d	-0.011443746
48	0x3ad4b1c2	0.0016227292
49	0x3c3c9083	0.011509064
50	0x3d7ebc7e	0.06219148
51	0xbd0095b8	-0.031392783
52	0x3bfc5def	0.0077016274
53	0x3cab9fd5	0.020950237
54	0x3cfec5e7	0.031100227
55	0xbc7239c6	-0.014784282
56	0xbd8dbba7	-0.069205575
57	0x3d3caf37	0.046065535
58	0xbcd7e80f	-0.026355771
59	0xbd8a4abc	-0.06752536
60	0xbcb11728	-0.021617487
61	0xbbfed7f4	-0.0077772085
62	0x3af524dd	0.0018703003
63	0x3cf95245	0.030434737
64	0x3ba32fff	0.004980087
65	0xbcf10b9a	-0.029424477
66	0xbd827ab5	-0.06371061
67	0xbcde2261	-0.027116003
68	0x3c75c58e	0.015000714
69	0xbd36791b	-0.04454909
70	0xbb834c17	-0.0040068734
71	0x3c216414	0.009850521
72	0x3d47b4e5	0.0487565
73	0x3cb9fa82	0.02270246
74	0xbbd38573	-0.0064551174
75	0x3c2ef83f	0.010679304
76	0x3c984fe1	0.018592777
77	0x3c44f281	0.012020708
78	0x3d4dfc3f	0.05028939
79	0xbd1cab65	-0.038249392
80	0x3c31cc76	0.01085197
81	0xbc114196	-0.008865735
82	0x3d0c31fb	0.034227353
83	0x3ba46af5	0.005017633
84	0x3cef0e27	0.029181553
85	0xbc379554	-0.011205036
86	0x3cb4ab4d	0.022054339
87	0xbd2bf439	-0.041980956
88	0xbca4079c	-0.02002316
89	0x3d51152d	0.051045585
90	0xbc746343	-0.014916244
91	0xbcf0c9b8	-0.029393062
92	0xbd1fd91e	-0.03902542
93	0xbcb896f5	-0.02253292
94	0xbdcb39d4	-0.09923139
95	0xbd89fd01	-0.0673771
96	0xbd0d4b6d	-0.03449576
97	0xbd879673	-0.06620493
98	0xbda31f8f	-0.07965004
99	0xbc9beeca	-0.019034762
100	0xbc8687e3	-0.016422218
101	0x3d2bd82f	0.041954216
102	0xbd022b39	-0.0317795
103	0xbcdbb412	-0.026819263
104	0xbbf005ff	-0.0073249335
105	0xbd1f2c11	-0.038860384
106	0xbd6f04a5	-0.05835404
107	0x3c81ea67	0.015858842
108	0x3c3612c3	0.011112872
109	0xbc18169b	-0.009282733
110	0x3cb4a511	0.022051366
111	0xbc492dde	-0.012279002
112	0x3c9ff99d	0.019528205
113	0x3db19547	0.086710505
114	0xbdacb2d6	-0.08432548
115	0x3baaa52d	0.005207679
116	0x3c824308	0.015901104
117	0x3d0bc398	0.03412208
118	0xbb50210c	-0.0031757979
119	0xbd38601b	-0.04501353
120	0x3d8229e8	0.06355649
121	0xbd002495	-0.031284887
122	0xbd87c022	-0.06628443
123	0xbd71a053	-0.058990788
124	0x3cb60488	0.022218958
125	0xbdfa087f	-0.12208652
126	0x3a956972	0.0011399223
127	0xbdb1f0a8	-0.0868848
128	0x3c7fcc56	0.015612682
129	0xbcfdb803	-0.030971533
130	0xbcd97ba4	-0.026548214
131	0x3c844a7c	0.016148798
132	0x3d8e4c9a	0.06948204
133	0xbbcab945	-0.0061866366
134	0xbc792641	-0.015206874
135	0xbd23baed	-0.03997319
136	0xbd3f3481	-0.04668093
137	0xbd3288a4	-0.043587342
138	0x3ceec7ea	0.02914806
139	0x3cddfbcb	0.027097603
140	0xbd5d20ca	-0.05398635
141	0xbc1aeb5d	-0.009455529
142	0xbcc6e309	-0.02427818
143	0xbd8f84c6	-0.070077464
144	0x3c8c2904	0.017109402
145	0xbd57bf0c	-0.05267243
146	0xbc6f4f6a	-0.014606336
147	0x3932f6ae	0.00017067298
148	0x3bf0aab8	0.00734457
149	0x3d1833fe	0.03715896
150	0x3c54c63f	0.012986719
151	0x3c830628	0.015994146
152	0x3d3dab9e	0.046306245
153	0xbd8ff697	-0.07029455
154	0xbd0afe36	-0.03393384
155	0xbd117acf	-0.03551751
156	0x3d70e338	0.058810443
157	0xbc52c30c	-0.012863886
158	0xbc28281e	-0.010263471
159	0xbdc6eb0c	-0.097128004
160	0xbd2dfc9a	-0.042477228
161	0xbc97f70b	-0.018550416
162	0x3d151aa1	0.03640235
163	0xbcaa97a0	-0.020824254
164	0xbd103d55	-0.03521474
165	0xbceb3d75	-0.028715828
166	0xbd62bf96	-0.05535849
167	0xbd987ce3	-0.07445695
168	0xbcf7eb44	-0.03026355
169	0xbe00137e	-0.12507436
170	0xbdefd2d3	-0.117101334
171	0xbdaa1bc1	-0.08306075
172	0x3c2b1575	0.0104421275
173	0x3cbacff7	0.022804243
174	0xbc4293ae	-0.01187603
175	0xbd665f5d	-0.05624329
176	0x3d2aa7b9	0.04166386
177	0xbd1fd1ce	-0.039018445
178	0xbd50f080	-0.05101061
179	0x3d59e4ab	0.05319659
180	0xbbbe571e	-0.005808725
181	0xbb776929	-0.003775189
182	0x3bb16c1b	0.0054144985
183	0xbd799a08	-0.06093791
184	0x3bc346b9	0.0059593585
185	0xbd88d028	-0.06680328
186	0xbda54cf7	-0.080713205
187	0x3c651229	0.0139813805
188	0x3c724e94	0.014789242
189	0xbbde9fc5	-0.0067939484
190	0xbcde2758	-0.02711837
191	0xbc9cd729	-0.019145565
192	0xbd03c656	-0.03217157
193	0xbd6ff5b9	-0.05858395
194	0x3cd519e4	0.026013322
195	0xbd740b94	-0.059581354
196	0xbd378e1c	-0.04481326
197	0x3c88373d	0.016627902
198	0x3cef3fb1	0.029205175
199	0x3be3ae43	0.006948264
200	0x3b84a060	0.0040474385
201	0xbd41ae74	-0.047285512
202	0x3cc3c149	0.023895876
203	0x3d2cdd24	0.042203084
204	0x3cb16faa	0.02165969
205	0xbcfcec79	-0.030874478
206	0x3ba5e2c5	0.0050624334
207	0xbcdca26a	-0.026932914
208	0x3d94d8de	0.07267927
209	0x3c3ac311	0.0113990465
210	0xbd402cfa	-0.046917893
211	0x3cb646d7	0.022250576
212	0xbd13c139	-0.036072943
213	0x3d13b640	0.03606248
214	0xbc800d55	-0.015631357
215	0x3d408d71	0.04700989
216	0x3db7ecfb	0.08980747
217	0x3ca38754	0.01996199
218	0x3cbd375e	0.02309769
219	0xbd826209	-0.06366355
220	0x3cdaa003	0.026687628
221	0x3cac79c5	0.021054158
222	0xbd6e3ab8	-0.058161467
223	0x3b942e41	0.0045221155
224	0xbbd42657	-0.006474297
225	0x3d8a710a	0.06759842
226	0x3c35ebcb	0.011103581
227	0xbc9f1b1e	-0.01942211
228	0xbbee79cf	-0.0072777043
229	0xbb15f207	-0.0022879855
230	0xbce9901b	-0.028511098
231	0x3de3b5b1	0.11118639
232	0xbcd942cd	-0.02652111
233	0xbd842054	-0.064514786
234	0xbc7ebb3f	-0.015547573
235	0xbd80c73e	-0.062880024
236	0xbe05599d	-0.13022466
237	0xbcb36f93	-0.021903789
238	0xbda08b98	-0.078391254
239	0xbd11c29a	-0.035585977
240	0xbd33dd33	-0.043912124
241	0xbcb45294	-0.022012033
242	0xbd2f4830	-0.042793453
243	0xbd2e1d1f	-0.04250824
244	0x3cb789eb	0.022404632
245	0x3d18738b	0.037219565
246	0xbda84c32	-0.08217658
247	0xbd079c0a	-0.033107795
248	0x3b08de88	0.0020884592
249	0xbd0f95f8	-0.03505513
250	0xbd45c745	-0.04828574
251	0xbd1866ee	-0.037207536
252	0x3d838c1c	0.06423208
253	0xbbdcab2d	-0.006734273
254	0x3d29d1f1	0.04145998
255	0x3c3c9743	0.011510673

model.8.bias f4 [128]
0	0x3c12eec3	0.008968058
1	0xbdfde67d	-0.12397478
2	0xbe17c5d1	-0.14821555
3	0x3cdafae2	0.026730958
4	0xbd2c5626	-0.042074345
5	0xbdf0a241	-0.117496975
6	0xbdfcb8ee	-0.1233996
7	0xbe2c9435	-0.16853411
8	0x3ca8187c	0.020519488
9	0xbd2f842e	-0.042850666
10	0xbe284b27	-0.16434918
11	0xbd19077f	-0.037360664
12	0xbc21ea54	-0.009882528
13	0xbcd1c3c4	-0.025606044
14	0xbe4e2425	-0.20130976
15	0xbdca29d4	-0.09871259
16	0x3cb390a8	0.021919563
17	0xbd825486	-0.06363778
18	0xbde2ccbf	-0.110742085
19	0xbd103749	-0.035208974
20	0xbd61affb	-0.05509947
21	0xbe63110f	-0.22174476
22	0x3b9538c1	0.0045538847
23	0xbd509d48	-0.050931245
24	0xbd8934a6	-0.06699495
25	0xbc20232a	-0.009774009
26	0xbd08f064	-0.03343238
27	0xbdfb9e28	-0.12286025
28	0xbd23af13	-0.039961886
29	0xbcb34230	-0.021882147
30	0xbd2efd24	-0.042721882
31	0x3cd755eb	0.026286086
32	0xbe9edc6c	-0.31027544
33	0xbdd10905	-0.102067985
34	0xbdf75589	-0.120768614
35	0xbd9c34a8	-0.07627231
36	0xbdb57dc0	-0.088618755
37	0xbdee60d6	-0.11639564
38	0x3ce487f2	0.027896855
39	0xbd86ff41	-0.065916546
40	0xbe08350a	-0.13301483
41	0xbd4954b5	-0.04915305
42	0xbdeb3966	-0.11485557
43	0xbd0b29e1	-0.033975486
44	0xbdecfb33	-0.1157135
45	0xbc96ca5c	-0.01840704
46	0xbdb7a312	-0.0896665
47	0xbe1593e4	-0.14607197
48	0xbe424828	-0.18972838
49	0xbdffcbd4	-0.12490049
50	0xbd978c78	-0.07399839
51	0x3d14eeac	0.036360428
52	0xbd9a6956	-0.075396225
53	0xbd3b719f	-0.045762654
54	0xbca6af3a	-0.020347226
55	0x3cb50545	0.02209724
56	0xbd303913	-0.04302318
57	0xbc5674f7	-0.01308941
58	0x3ce14403	0.02749825
59	0xbd09883a	-0.03357718
60	0xbe1b907e	-0.15191838
61	0xbd931590	-0.07181847
62	0x3d3ce895	0.046120245
63	0x3daf267f	0.085522644
64	0x3d22c29b	0.03973637
65	0xbce9f032	-0.028556917
66	0xbdf245f7	-0.11829751
67	0xbddf7abd	-0.10912082
68	0xbd339d33	-0.04385109
69	0xbd5d5333	-0.054034423
70	0xbd876f55	-0.06613032
71	0xbe0cf396	-0.13764796
72	0xbdb4879c	-0.08814928
73	0xbc3b6ca5	-0.011439477
74	0xbce5ed2a	-0.02806719
75	0xbde2a7c5	-0.11067156
76	0xbda90f08	-0.0825482
77	0xbd8ef21d	-0.06979773
78	0xbd40e693	-0.047094893
79	0xbe098f85	-0.13433655
80	0x3c773164	0.015087459
81	0xbcd71678	-0.026255831
82	0xbd947ceb	-0.07250389
83	0xbdb332a3	-0.087498926
84	0xbdf3ae2e	-0.118984565
85	0xbdda2782	-0.10652067
86	0xbc0e3d41	-0.008681596
87	0xbe009676	-0.12557396
88	0xbdd0c5e4	-0.10193995
89	0xbd554bb8	-0.052074164
90	0xbd88c551	-0.0667826
91	0xbd36b3b6	-0.04460498
92	0xbda22757	-0.0791766
93	0x3c48be96	0.0122524705
94	0xbd90dd4e	-0.070734605
95	0xbdaf7a15	-0.08568207
96	0xbbaea395	-0.005329559
97	0xbd88948a	-0.066689566
98	0xbd76ae7f	-0.060225006
99	0xbd8cf8da	-0.06883402
100	0xbd1b2d55	-0.03788503
101	0xbd1ac7ae	-0.037788086
102	0xbe2ae7d7	-0.16690002
103	0x3c7d39af	0.015455647
104	0xbd0c2df5	-0.034223516
105	0xbd9d5269	-0.07681734
106	0xbd5f827d	-0.054567803
107	0x3d9501e3	0.072757505
108	0xbe091d47	-0.13390075
109	0xbd2b1b4d	-0.041774083
110	0xbd60a80b	-0.05484776
111	0x3cbf8210	0.023377448
112	0x3d35f15e	0.04441964
113	0xbe06fac5	-0.13181598
114	0xbd9df06c	-0.077118725
115	0xbd7ea644	-0.062170282
116	0xbdec2504	-0.11530498
117	0xbdf2a2dd	-0.1184747
118	0xbddc95e5	-0.107707776
119	0xbe29fefa	-0.16601172
120	0x3d07b34e	0.033129983
121	0xbdfd2f1d	-0.12362502
122	0xbe401747	-0.1875888
123	0x3d3867cf	0.045020875
124	0xbc7cb589	-0.015424141
125	0x3cfceabe	0.030873653
126	0xbd6721f0	-0.05642885
127	0xbde08d38	-0.10964435

model.10.weight f4 [128]
0	0x3f79665f	0.9742183
1	0x3f66d669	0.90170914
2	0x3f7715e7	0.96517795
3	0x3f7d0475	0.98834926
4	0x3f74b29b	0.9558503
5	0x3f7ab87e	0.9793776
6	0x3f72d902	0.9486238
7	0x3f6febdc	0.9371927
8	0x3f7855c0	0.97005844
9	0x3f7a2072	0.9770576
10	0x3f74d8d3	0.9564335
11	0x3f715de6	0.942839
12	0x3f7a97ce	0.97887886
13	0x3f6d0662	0.92587864
14	0x3f6d911e	0.92799556
15	0x3f6cd976	0.9251932
16	0x3f72e6e3	0.94883555
17	0x3f6aba25	0.91690284
18	0x3f611092	0.8791591
19	0x3f7cf6f1	0.988143
20	0x3f721016	0.94555795
21	0x3f6e6467	0.9312195
22	0x3f7741ed	0.9658497
23	0x3f760a90	0.9610987
24	0x3f6cf8a9	0.92566925
25	0x3f71de61	0.9447995
26	0x3f7f9ab8	0.9984546
27	0x3f73aa22	0.9518148
28	0x3f68fb20	0.91008186
29	0x3f7fbad2	0.9989444
30	0x3f6d8c45	0.9279216
31	0x3f7006d1	0.937604
32	0x3f7e2c59	0.9928642
33	0x3f7c2018	0.9848647
34	0x3f6be27a	0.9214245
35	0x3f56749c	0.8377168
36	0x3f731893	0.9495937
37	0x3f69015e	0.9101771
38	0x3f7d7b0a	0.9901587
39	0x3f7946cc	0.9737365
40	0x3f79ed99	0.9762817
41	0x3f769428	0.9631982
42	0x3f7fb1f2	0.998809
43	0x3f63d810	0.8900156
44	0x3f765718	0.96226645
45	0x3f762568	0.9615083
46	0x3f7fe796	0.9996275
47	0x3f7fac0d	0.99871904
48	0x3f6fc082	0.9365312
49	0x3f6db9ee	0.9286183
50	0x3f7870b5	0.9704698
51	0x3f71a553	0.9439289
52	0x3f7fb034	0.9987824
53	0x3f7a3603	0.97738665
54	0x3f78b013	0.9714367
55	0x3f71b4bb	0.944164
56	0x3f6b309b	0.9187104
57	0x3f686294	0.9077542
58	0x3f666ec8	0.9001279
59	0x3f6a65a5	0.9156135
60	0x3f6be2cc	0.9214294
61	0x3f7a77c4	0.97839
62	0x3f7aaa64	0.97916245
63	0x3f7132b5	0.94218
64	0x3f6eed1e	0.9333056
65	0x3f79401c	0.9736345
66	0x3f73e9b2	0.95278466
67	0x3f73d1bc	0.95241904
68	0x3f6d2106	0.92628515
69	0x3f681cf3	0.90669173
70	0x3f749ab3	0.9554855
71	0x3f671537	0.90266746
72	0x3f7fd3cf	0.9993257
73	0x3f749c4a	0.9555098
74	0x3f72fcae	0.9491681
75	0x3f76f9a0	0.9647465
76	0x3f6ec039	0.9326206
77	0x3f7f6cac	0.99775195
78	0x3f748ef6	0.9553064
79	0x3f608c2a	0.87713873
80	0x3f6b4100	0.9189606
81	0x3f7262b2	0.9468185
82	0x3f6cc2b2	0.9248458
83	0x3f72e123	0.9487478
84	0x3f778fe3	0.9670393
85	0x3f67a168	0.9048066
86	0x3f7da859	0.99085003
87	0x3f6586fc	0.89659095
88	0x3f79f4af	0.9763898
89	0x3f7f25ad	0.99666864
90	0x3f6f8761	0.93565947
91	0x3f60e985	0.8785632
92	0x3f6acff6	0.91723573
93	0x3f71e666	0.94492185
94	0x3f69e55d	0.91365606
95	0x3f6403f4	0.8906853
96	0x3f7999e0	0.9750042
97	0x3f6dacb3	0.92841643
98	0x3f70b630	0.94027996
99	0x3f6a5382	0.9153367
100	0x3f6de8fc	0.9293363
101	0x3f7cd8fa	0.9876858
102	0x3f7d7592	0.99007523
103	0x3f5bb037	0.8581576
104	0x3f7885d1	0.9707919
105	0x3f7fc7f2	0.9991447
106	0x3f548fc9	0.830319
107	0x3f624a24	0.8839438
108	0x3f7f1e24	0.99655366
109	0x3f75e857	0.9605765
110	0x3f7ce015	0.9877942
111	0x3f716a33	0.9430267
112	0x3f71dfcf	0.9448213
113	0x3f6c877e	0.92394245
114	0x3f7fa888	0.99866533
115	0x3f72d72d	0.9485958
116	0x3f714106	0.9423984
117	0x3f74dca7	0.9564919
118	0x3f745c3b	0.9545323
119	0x3f7f7ac4	0.997967
120	0x3f782ea3	0.9694616
121	0x3f7f24e1	0.9966565
122	0x3f674e3c	0.9035375
123	0x3f71e30e	0.9448708
124	0x3f780af0	0.9689169
125	0x3f6ff048	0.93726015
126	0x3f74de4a	0.95651686
127	0x3f767a09	0.9627996

model.10.bias f4 [128]
0	0xbca40e9f	-0.020026503
1	0xbc21ff4f	-0.0098875305
2	0x3c6949ba	0.014238769
3	0x3ca6b773	0.020351147
4	0xbc187e14	-0.009307403
5	0xbc952136	-0.018204313
6	0xbc0d0619	-0.008607411
7	0x3cc5d698	0.024150178
8	0x3cb4e942	0.022083882
9	0x3caca1b7	0.021073205
10	0x3ce818b0	0.028332084
11	0x3ceaeb2d	0.028676594
12	0x3cb47fc0	0.022033572
13	0x3ca84e1b	0.020545056
14	0x3cc9b80e	0.024623897
15	0xbc83dafd	-0.016095633
16	0xbc99f335	-0.018792728
17	0x3b4e7c3f	0.0031507162
18	0xbc6d639a	-0.014489079
19	0xbc9a5034	-0.018837072
20	0x3cbf07ff	0.023319243
21	0x3ce8792e	0.028378095
22	0xbc4bc608	-0.012437351
23	0xbc6c86e0	-0.014436454
24	0xbc903bd5	-0.017606655
25	0xbca91899	-0.020641612
26	0xbc737131	-0.01485853
27	0xbc5bc99c	-0.013414767
28	0xbc8fc036	-0.017547708
29	0xb94222c6	-0.00018514236
30	0xbc856bb1	-0.016286703
31	0x3caed783	0.021342998
32	0xbc7c2214	-0.015388984
33	0x3c40a341	0.011757673
34	0x3d80bdfe	0.06286238
35	0xbc11c0b3	-0.008896041
36	0x3cca83a3	0.024720972
37	0x3ce25b3b	0.027631393
38	0x3c895ea0	0.016768754
39	0xbc4668d6	-0.012109956
40	0x3cb9a009	0.022659319
41	0xbbdc35e4	-0.0067202915
42	0x3d15c554	0.03656514
43	0x3c06ad88	0.008220084
44	0xb98e54d0	-0.0002714754
45	0xbc4809d1	-0.012209372
46	0x3ca82c47	0.020528926
47	0x3be85a16	0.007090817
48	0x3cc2956f	0.023752896
49	0xbc298645	-0.010346954
50	0x3c804806	0.015659343
51	0x3c97c1bb	0.018524995
52	0xbcb2bf72	-0.021819804
53	0xbc881a6e	-0.016614165
54	0x3c983a10	0.018582374
55	0xbc8cd9c3	-0.01719368
56	0x3ce5649d	0.028002078
57	0x3cb3fbc8	0.021970645
58	0x3ca69b26	0.020337652
59	0x3d06b1e7	0.032884505
60	0x3912ad31	0.00013988164
61	0x3cbe5dc5	0.023238072
62	0xbc97cba5	-0.018529722
63	0x3c89394d	0.016750956
64	0x3c00d3c8	0.007862993
65	0x3d1c40f2	0.038147874
66	0x3c9dfa20	0.019284308
67	0x3ca64d1c	0.02030044
68	0x3cca6935	0.02470837
69	0xbc88ec76	-0.016714316
70	0xbcc00e20	-0.023444235
71	0x3d3e2e64	0.04643096
72	0x3ce08cf9	0.027410971
73	0x3ca104f6	0.019655686
74	0x3c954512	0.018221412
75	0x3cba7667	0.022761537
76	0xbc433e58	-0.011916719
77	0xbcbbdaf7	-0.022931559
78	0x3c3a4131	0.011368082
79	0xbc82f629	-0.015986519
80	0xbc8ce37b	-0.017198315
81	0xbc857acd	-0.016293908
82	0xbc839d4c	-0.016066216
83	0x3cc4d931	0.024029346
84	0x3c6e17b6	0.01453202
85	0xbc7058d5	-0.014669617
86	0x3cace128	0.021103457
87	0xbc6b9b3d	-0.014380273
88	0x3be62568	0.007023502
89	0xbc7149b5	-0.014727046
90	0xbc99af27	-0.018760277
91	0x3ce839ad	0.028347814
92	0x3b58d7e9	0.0033087677
93	0xbbc272e1	-0.005934105
94	0x3d63803d	0.05554222
95	0xbc2feea9	-0.010738053
96	0x3caf9fee	0.021438565
97	0xbc5ea691	-0.013589517
98	0x3cabf3d0	0.020990282
99	0x3ca03797	0.019557757
100	0xbb2409d9	-0.0025030284
101	0xbcb3c725	-0.021945545
102	0x3cab09e3	0.020878738
103	0x3cbe127f	0.023202179
104	0x3cc2ae04	0.023764618
105	0xbca9cc32	-0.02072725
106	0x3d5223a4	0.05130352
107	0xbc2b05e4	-0.010438416
108	0x3d696440	0.05698037
109	0xbcb5b069	-0.022178845
110	0x3ca83ca5	0.02053673
111	0xbca485d3	-0.020083344
112	0xbc98c326	-0.018647742
113	0xbc4fc436	-0.012681058
114	0xbc6d5f0a	-0.014487991
115	0xbcb637ca	-0.0222434
116	0x3cacf8fd	0.02111482
117	0xbc92188d	-0.017833972
118	0x3d36c9c7	0.044626024
119	0x3d0ebbce	0.034847073
120	0xbcd24d6b	-0.025671681
121	0xbc9eef13	-0.019401109
122	0x3c941e9d	0.018081004
123	0xbc5e6da3	-0.013575944
124	0xbcb8f260	-0.02257651
125	0x3c12d001	0.008960725
126	0x3c18fe52	0.009337978
127	0xbc989333	-0.018624878
