Lab4/models/gan_models/ls_ha_vbng_1000e_500b_dis.pth (torch, 403159 bytes, 22 tensors)

model.0.weight f4 [16, 3, 3, 3]
00000000: a6d7 ce3b 655f 323c 2770 a23c ef92 a0bc
00000010: af04 863c b255 ec3b a819 8abc 32f9 5a3b
00000020: 9dc9 9a3d 02de b7bb 3664 36bc b600 1dbc
00000030: bfd6 07bd a6dd a9bc a370 7e3b e8f7 1abd
00000040: 1552 48bd 55fe 61bc 4c9d 213b b09f d7bc
00000050: ca68 5bbb f6ee 913b a294 6a39 9eaa 9aba
00000060: 5065 923c ec38 d7bc 1306 dfbc 9013 3dbb
00000070: 024e 2bba 7cc4 c5ba aa72 063c b8d6 2dbd
00000080: 248c d0bc 52de 09bd 134e 773c 27d0 b6bc
00000090: 443a 54bc 8c80 3f3c 4b69 24bc 254c cfbb
000000a0: eeeb e53b 1698 acbb bfbd 80bc bf82 8e3c
000000b0: 6aaa 61bc 49c6 edbc 64a0 953c 7b8f 323c
000000c0: a8f5 b13c 09d9 8b3c 9394 64bc 5af9 233c
000000d0: 5524 e6bb d61e 4ebc e147 283b 32a7 59bb
000000e0: 56ff e9bc 3e78 1ebc bb30 bcbc 2674 24bc
000000f0: ab8e 97bc 24df 0dbd e015 81bc 2b62 32bd
00000100: 28d9 80bc 6fc0 863c cb49 f43b 4e34 903b
00000110: 4b6b 63bb 36e9 953b b021 29bd d5a9 1cbd
00000120: ae67 0cbd 64f2 7fbd ad46 efbb ff4c 07bd
00000130: 04dc 03bd 7711 88bd bdba 4cbc 2098 d3bc
00000140: 3526 05bd 0878 d33c 24c1 453c f0b4 49bc
00000150: 1f2e c6bb 887e 81bb 330c 58bb da76 2abc
00000160: ff55 163d 7577 51bc 8739 9fbb f35b 84bc
00000170: ee1d a9bc 7465 03bd 0bcc 7bbc e2c5 d33b
00000180: e6ea 203d 41ff 5bb8 6f81 f2bb f032 0a3c
00000190: 5b94 a1bc 8fa6 8ebc e6c6 5cbc 84b8 c7bb
000001a0: 6dde 0d3c 93c6 b53c 1aa5 e8bb 96bf 923c
000001b0: 7ef1 ca3c dc0c 133c 092d cc3c 9aa0 003c
000001c0: 6c0b 073d 8f5a 913b 200f a43c 735b 5cbd
000001d0: a899 26bd 0639 3fbd df9e 25bc a8da 1bbd
000001e0: 6b34 f9bc 1ec0 a23c 10fc 603d e410 623c
000001f0: 58b3 a7bc 1061 313c 8910 d0bb cf29 ddb9
00000200: 05a5 d9bc 81b8 c03c 4bbf a7bb 9eb4 313d
00000210: ce60 763c d1f9 05bd b3a5 c83c a1f9 b0bb
00000220: 287c 323c 61c1 ec3b 67c2 ec3b 9c20 1fbd
00000230: 436f c4bc 55db 9b3b 383d bcbb b586 9c3a
00000240: aaf9 103d 9038 b63c ca0b 413c 6627 d33c
00000250: b7a0 c33a 2bad 283d 0ec4 133d d984 913c
00000260: f308 d03c 5ce1 853b 07cb f23c 6446 fabc
00000270: 975b d8bb 573c 593c 5b8c 7a3c 03a5 a43c
00000280: 55cf b53b a671 fb3c 0b65 90bc 05d4 11bd
00000290: 93ad 0fbd a78d d53c d4d1 07bc 9403 103d
000002a0: 8163 fabb ec4e 6b3d 77b3 f93c 446c cbbc
000002b0: 7976 333b 9e97 263c e17c 2cbd 6377 4b3b
000002c0: ff84 6e3c 5661 12bd e409 2abd 938f 6b3a
000002d0: db30 033c 1ee4 223d 914c 02bb c536 8f3c
000002e0: 471c ddbb 2ef2 8cbc ba2a d5ba 9a1d ddbc
000002f0: 13c8 873b 5174 b23b daa0 edbc d6ba d43c
00000300: 01b7 1abb 60fc 5a3c b6a6 a43c 1936 cdbc
00000310: 4a81 013d 6537 ce3b bd46 d0bb 3caa 95ba
00000320: df9b e63b 907e 57ba f6fe 2e3d b1de 15bd
00000330: e524 2b3d e359 e93c 7bfd 0c3c 44e6 00bd
00000340: c411 343c 419c c2bb 6d40 ed3c 24d7 5b3d
00000350: 4413 94bc 30f3 313d 9374 733d 1696 de3c
00000360: 88ca 443d 97f5 f03c f210 ae3c 4751 df3c
00000370: 464a 8bbb b828 f43c 349b 9aba a765 87bc
00000380: cbae 27bd 5a93 123d a449 a03c 5e9b fc3c
00000390: 0852 aa3a 3954 863d cc17 d33c be87 2b3c
000003a0: f629 813d 24ed 92bc 8a23 623c 17ed 973c
000003b0: 2c3c 543d 7d86 e5bb 6fb2 6d3d ba26 ac3d
000003c0: 721f 57bc 3461 413d 7415 61bb 9b7a 94ba
000003d0: 7e34 823b 45d5 053d a36d 79bc d565 913c
000003e0: 712d 083d 6e51 37bc 2d25 ac3c 1dd7 ca3c
000003f0: 89ba 6d3b 3f3e 8a3c e084 383c 61f3 263d
0.0063123284 0.010887002 0.019828869 -0.019601313 0.016359655 0.007212364 -0.016857937 0.0033412692
0.07557986 -0.005611182 -0.011132291 -0.009582689 -0.033163782 -0.020735573 0.003882446 -0.037834078
-0.048906405 -0.013793548 0.0024660407 -0.026321262 -0.0033479207 0.004453535 0.00022371349 -0.0011800115
0.017870575 -0.02627226 -0.027224576 -0.0028850771 -0.00065347564 -0.0015088464 0.008206049 -0.0424411
-0.02545745 -0.033659287 0.015094298 -0.022316052 -0.012953345 0.011688363 -0.010034869 -0.006326216
0.0070166504 -0.0052671535 -0.015715478 0.017396329 -0.01377354 -0.029025214 0.018264957 0.010898466
0.021723583 0.017071264 -0.0139514385 0.0100081805 -0.007023374 -0.012580594 0.0025677609 -0.0033211228
-0.028564136 -0.009672223 -0.022972455 -0.010037458 -0.018500647 -0.03463663 -0.015757501 -0.04355065
-0.015728548 0.016449181 0.007455086 0.0044007665 -0.0034701403 0.00457492 -0.041291893 -0.038247902
-0.034278564 -0.06248702 -0.0073021264 -0.033032414 -0.032192245 -0.06643956 -0.012495694 -0.025829375
-0.03250714 0.025814071 0.012069974 -0.012311205 -0.0060479785 -0.0039518513 -0.0032966256 -0.010404313
0.036703106 -0.012784828 -0.0048591527 -0.016157126 -0.020644154 -0.032079175 -0.015368472 0.0064627985
0.039286517 -5.2451393e-05 -0.0074006836 0.008434996 -0.019724062 -0.017413406 -0.013475155 -0.006094994
0.0086589875 0.022189414 -0.0070997598 0.01791362 0.024773356 0.008975234 0.024923818 0.00785079
0.032969877 0.0044358443 0.020026743 -0.05379815 -0.04067388 -0.04668524 -0.010108679 -0.038050324
-0.030420503 0.019867 0.054927886 0.013797972 -0.02047126 0.010826364 -0.0063496274 -0.00042183555
-0.026567945 0.023525478 -0.0051192394 0.04338514 0.0150377285 -0.032708947 0.024493074 -0.005400852
0.010893859 0.007225201 0.007225323 -0.038849458 -0.023978835 0.004756371 -0.0057446025 0.0011942001
0.03539435 0.022243768 0.011782596 0.025775623 0.0014925216 0.04118077 0.036075644 0.017763542
0.025394892 0.004085703 0.029637827 -0.030551143 -0.0066027152 0.013259015 0.015292252 0.020098215
0.0055483975 0.03069384 -0.017626306 -0.03560259 -0.035077643 0.026068522 -0.008289773 0.035159662
-0.0076412563 0.057448313 0.030481083 -0.024831899 0.0027383848 0.010167984 -0.04211128 0.0031046502
0.014558076 -0.035737358 -0.04151334 0.0008985933 0.0080072535 0.03976833 -0.0019882063 0.01748217
-0.0067477557 -0.017205324 -0.0016263344 -0.026991654 0.0041437238 0.005445995 -0.029007364 0.025967997
-0.0023607614 0.013365835 0.020099025 -0.02505021 0.03161744 0.0062932246 -0.006356089 -0.0011418532
0.0070376243 -0.00082204584 0.04272362 -0.03658933 0.041783232 0.028485244 0.008605356 -0.0314696
0.010990564 -0.005939037 0.028961385 0.05367197 -0.018075593 0.043444812 0.059437346 0.027171176
0.04804471 0.029413981 0.021248315 0.027260436 -0.0042507974 0.029804572 -0.0011795522 -0.016527964
-0.04093818 0.035785057 0.019566365 0.030835804 0.0012994418 0.06559033 0.025768183 0.010469375
0.063068315 -0.017935343 0.0138024185 0.01854567 0.051815197 -0.0070045576 0.058031496 0.08405824
-0.013130056 0.04721184 -0.0034345062 -0.0011328043 0.0039735427 0.032674093 -0.015223893 0.017748753
0.03324646 -0.011188848 0.02101382 0.024760777 0.0036274514 0.016875384 0.011262149 0.040759448

model.0.bias f4 [16]
00000000: 53d8 043e c618 1cbe 0838 c8bd 4e73 b5bd
00000010: b48b dbbd 6471 4b3d a8f7 873d 4270 2abe
00000020: b5d1 133e ca76 b43d d503 60be 6cde e43c
00000030: 3972 303e 39bb ec3c f96d 38be 6be5 563d
0.12973146 -0.15243825 -0.09776312 -0.08859883 -0.10720006 0.049668685 0.066390336 -0.16644385
0.14435466 0.0881172 -0.21876462 0.02793809 0.17231072 0.028897868 -0.18010701 0.052464884

model.2.weight f4 [32, 16, 3, 3]
00000000: 1942 afbb 2abb 44bb f358 b73a 26df a13c
00000010: c44b 1e3c 9b68 f43c 3249 063c 857d 653c
00000020: f0ae 8d3a bbf4 55bb e2db 02bc decc 30bc
00000030: befa 123d c29b 973c a1c8 c5b8 7a9c 413c
00000040: 3b4f 12bb 18bf 0a3d 8aff f93c e990 f73c
00000050: e32b 09bc c6f1 07bb ec63 c13c 457d 8cbb
00000060: 81b8 123d 3807 7d3c 771e 81bc 27cd 4f3b
00000070: 64eb 84bc 318c 533d 019f 9d3a 3721 34bc
00000080: 7958 4d3c 0a84 913c 1759 013c 3079 82bb
00000090: d04f 833c 402b 1c3d cec4 1bbd 310f dc3c
000000a0: 56e2 aa3b 08d6 04bc afb9 03bd 7ed6 783c
000000b0: 2039 f43b feb3 7fbd 8f27 8b3a cd77 57bc
000000c0: 75b2 debc a992 bbbc 9b8b 303c 4e8d 8e3c
000000d0: b8eb c53c 8290 953c 81fe 023d d990 cdbc
000000e0: 4c69 adbc da88 bc3c c8e1 a6bb 306e cdbc
000000f0: 40ce 1e3d 0de6 4dbd fa90 b8bc ae86 dd3b
00000100: a530 a83b b553 593c 2f58 adba 8d6b 643c
00000110: 30d4 153b 003d d3ba 5b8c 0c3d b279 c8b9
00000120: 5021 72bc bb85 1a3d 0ac8 e7bc 2858 9c3c
00000130: 61f1 ddbc 6477 913c 0d21 983c ce3d e9bc
00000140: 10a7 ffbb 7b1c cdbc 381c 2ebd da4a 523c
00000150: a4b9 45bc 563c 9abc c407 e5bc 1b8d 5fbc
00000160: 00f4 51bd 730c 73bc f2c1 01bd 76fa 2a3d
00000170: d852 a7ba 9ded 90bb 0c11 673c ec31 bbbb
00000180: 5002 a3bb 6983 61bb ead6 e03c 76a2 debb
00000190: a7f1 613a 846c 003d 5231 313d 084e c33c
000001a0: b7d0 c2bc ce1a b8bb bd71 23bc cd55 ac3c
000001b0: f1c9 37bc 01b0 46bc 4651 dc3c 4c72 763d
000001c0: b2d1 5a3c daf0 9fba f39d edba 634e fd3c
000001d0: 78e6 ccbc 7010 cabc b5fd 88bc 2850 8fbb
000001e0: c4cf 193c 77a4 aebc 295b acbb 4133 dc3b
000001f0: 79a0 0d3d 68d2 0d3c d330 29bd df01 42bb
00000200: e5cc 633c 0dd8 c1bc 5cfb b8bc bfe3 89bc
00000210: c600 17bc c64f 583c 3405 013d ce3e 4ebc
00000220: 871b a63b e2ea f1bc 7545 6f3b f10e 2a3d
00000230: d4b9 8a3c 987d 873c a75d e03b 7ae4 a3bb
00000240: 84f1 91bc 6c79 633c bfbc 843c aee6 973a
00000250: 2816 bcbc 2bc6 d33c 3755 b93b f692 0ebc
00000260: d3c7 203c 8e88 14bd 9c5b b9bc 4e55 02bd
00000270: aad7 a8bc 4465 b33a 6648 353d 3058 e2bb
00000280: f4a1 f93b 2e58 a7bc 9fac 003c d517 c73b
00000290: 73f3 343c 736c c4ba c166 a23b 813c 203d
000002a0: 878f c73b 4ebe 343c d6b4 073d 85f4 1abc
000002b0: f6a2 daba 3903 dfbc 5549 c53c 6a5e 9abc
000002c0: 2bcb d33c 7379 7dbc ef6e 02bc 221e 77bc
000002d0: b394 c5bc d3a3 fcbc 2da0 24bc 56b4 d8bb
000002e0: 2efd 103d 6f96 d33c c477 8b3b 186b 1c3d
000002f0: 6b8b 1dba d179 8e3c 781b fb3c ace9 75bc
00000300: f0a8 773c 3a37 293c 6385 a93c 1cd1 823b
00000310: 31d9 2a3d 4fc6 d0bc 8aa0 043c 2155 2cbc
00000320: 43d9 febc 6483 6b3b 4108 0dbc 89f9 e439
00000330: 7a13 193c 2d9d 953c a7fe 56bd 0576 353b
00000340: dfe9 8b3c ed39 debb 7405 d4bc 4635 933b
00000350: 2f07 59bc 75a7 03bd 0591 e63c 3b93 d63c
00000360: 9f96 ff3b dd46 2a3d 983f 6fbc d2b3 12bd
00000370: 513c 13bd 584b d7bb 9519 cd3b 435e dd3a
00000380: 6aaa 0abd 70ac 193d b4dd 52bb 42d3 7ebc
00000390: f638 813b 1beb 49bc 12d1 a6bc 6946 273c
000003a0: 816d d3bc 91a0 a3bc daa9 113d 4f9e 013c
000003b0: 9ae6 f4bb adbb f0bc 5a41 32bc 852f 303c
000003c0: e36b 41bd b8df 30bc dabe 093b ec31 203d
000003d0: f250 f9bb 11fb 1c3c 4713 823b cd2e 92bc
000003e0: 4349 953c ce4a 44bc 8aab 07bd c9cb 033c
000003f0: 8f61 e33c 2b54 883c ecc9 813c e1f6 bd3c
-0.0053484556 -0.0030018785 0.0013988301 0.019759726 0.009661619 0.029835036 0.008196162 0.014006977
0.0010809582 -0.0032647091 -0.007986994 -0.010791032 0.035883658 0.018506888 -9.431062e-05 0.011817092
-0.0022325057 0.033873647 0.030517358 0.030220466 -0.00837228 -0.0020743473 0.023607217 -0.004287394
0.035820488 0.015443616 -0.015761597 0.0031707974 -0.016225524 0.05164737 0.0012025536 -0.010994247
0.012533301 0.017763156 0.007894776 -0.003981732 0.016029269 0.038127184 -0.038029484 0.026862713
0.0052149696 -0.00810767 -0.032159504 0.015187858 0.007453099 -0.062427513 0.0010616648 -0.013151121
-0.027184704 -0.022897081 0.010775472 0.017401364 0.024160251 0.018257383 0.031980995 -0.025093483
-0.021168374 0.023014475 -0.005092833 -0.025076956 0.038770914 -0.05026822 -0.022530068 0.00676044
0.005132752 0.013264586 -0.0013225133 0.013941658 0.002286207 -0.0016116202 0.03431354 -0.00038237643
-0.01477845 0.03772519 -0.028293628 0.019085005 -0.027092637 0.017757125 0.018570447 -0.028471854
-0.007801898 -0.025037995 -0.04250738 0.012835229 -0.012068186 -0.018827599 -0.027957805 -0.013644482
-0.051258087 -0.014834511 -0.0316791 0.041742764 -0.0012765778 -0.004422857 0.014103185 -0.0057127383
-0.004974641 -0.0034410602 0.027446229 -0.006794269 0.0008619078 0.03135349 0.043259926 0.02384092
-0.023781164 -0.0056184297 -0.009975848 0.021037007 -0.01121758 -0.012126924 0.026894223 0.060167596
0.013355659 -0.0012202517 -0.0018128738 0.030921167 -0.02501224 -0.024666041 -0.01672254 -0.004373569
0.009387914 -0.021318657 -0.0052598906 0.006719977 0.034576867 0.008656122 -0.041306328 -0.0029603166
0.013903831 -0.023662591 -0.022580795 -0.01683223 -0.009216493 0.013202613 0.031499103 -0.012588216
0.0050691995 -0.029530946 0.0036509905 0.041518155 0.016934313 0.01653938 0.0068471017 -0.0050016018
-0.017815359 0.01388393 0.016203282 0.0011589134 -0.022959784 0.02585133 0.0056559104 -0.00870203
0.009813267 -0.03626304 -0.02262669 -0.031819634 -0.02061065 0.0013686796 0.044258498 -0.0069074854
0.0076181833 -0.02042779 0.007853656 0.006075839 0.011044371 -0.0014985934 0.004956097 0.0391202
0.006090108 0.0110317 0.033131443 -0.009457712 -0.0016680646 -0.027223216 0.024082819 -0.018843848
0.025853714 -0.01547085 -0.007961019 -0.015082868 -0.024118757 -0.030839836 -0.0100479545 -0.0066132946
0.0353977 0.025828568 0.0042562205 0.03818807 -0.00060098496 0.017392071 0.030652747 -0.015009325
0.015115961 0.010328108 0.020693487 0.003992213 0.041711036 -0.025485186 0.008094916 -0.010518343
-0.031109458 0.003593647 -0.008607925 0.00043673467 0.0093430225 0.018263424 -0.05248895 0.0027688753
0.017079292 -0.0067818076 -0.025881507 0.0044924347 -0.013246342 -0.03214212 0.028145323 0.026193252
0.007799938 0.041571487 -0.014602564 -0.03581602 -0.035946194 -0.006570261 0.006259153 0.0016889054
-0.033853926 0.037517965 -0.0032175602 -0.0155532975 0.003943558 -0.01232412 -0.020363364 0.010209658
-0.025809051 -0.019974025 0.035562374 0.007911279 -0.007473779 -0.029386366 -0.010879839 0.010753517
-0.04722203 -0.010795526 0.0021018297 0.03911011 -0.0076085264 0.009581343 0.003969583 -0.017844582
0.01822341 -0.011980725 -0.033122577 0.008044192 0.02775648 0.016641697 0.015843354 0.02318901

model.2.bias f4 [32]
00000000: d59f 2c3d 4a11 163c 0ef3 ec3b 255f 23bd
00000010: 9c48 dbbc 77e7 073d 85be 913d b3a1 d33b
00000020: c1c6 203d ae0f 2dbd d52e cf3c c987 b93c
00000030: 223b 893d 1c79 393b 31a6 b3bd aab0 a83d
00000040: 346c f73d 6527 2f3d 73f9 95bb 14ae 8d3c
00000050: be9f 393d 2b8d a6bb 123f a43c 4940 c03d
00000060: a6b8 d33c 3676 7fbd d1e6 8cbd 3984 b23d
00000070: e30d be3d 8844 6fbc 1e10 02bc c16a 04bd
0.042144615 0.0091593955 0.007231123 -0.03988566 -0.026768021 0.033179726 0.07116417 0.006458485
0.039252046 -0.04225128 0.025290886 0.022647755 0.06700732 0.0028300947 -0.08771933 0.08236821
0.12081185 0.04276218 -0.004576856 0.017294921 0.045318358 -0.0050827465 0.020049606 0.093872614
0.025844883 -0.062368594 -0.06879962 0.08716626 0.092799924 -0.0146037415 -0.007938413 -0.03232837

model.4.weight f4 [32]
00000000: 925b 7d3f 3b46 7f3f b7b8 7e3f 7bff 793f
00000010: c453 7c3f 28c8 7d3f 5852 7a3f ba5b 7b3f
00000020: 44c7 7f3f adb0 7d3f 8ed8 7e3f 8e26 7e3f
00000030: 2b34 7f3f 3590 7d3f feec 7f3f 94c7 7f3f
00000040: 9a6b 7f3f 3e9d 7c3f 973a 793f e0dd 7c3f
00000050: c6eb 773f 01c4 703f a665 7d3f 6b66 7e3f
00000060: 85e0 7e3f 0000 803f 079e 7c3f f8b6 7d3f
00000070: f4ba 7e3f cefd 7b3f 2025 7e3f fa85 7d3f
0.9896785 0.9971654 0.995006 0.9765546 0.98565316 0.9913354 0.97781897 0.9818684
0.9991343 0.9909771 0.99549186 0.9927758 0.99688977 0.9904817 0.99970996 0.9991391
0.9977356 0.9867743 0.97355026 0.98776054 0.96844137 0.9404908 0.9898323 0.9937503
0.9956134 1.0 0.9867863 0.99107313 0.9950402 0.9843415 0.992754 0.99032557

model.4.bias f4 [32]
00000000: 81d5 ac3c dc31 1f3d 8bcd 4a3d 72b9 18bd
00000010: 1dd2 f93c eec5 343c af75 a2bc 8ffe 763c
00000020: 6d0c 1dbc 27cc 8a3b fd1b ffbc 49c1 94bb
00000030: 44b1 243c 89fc aabb 2388 873c db71 923c
00000040: be5f 023c 58aa 35bc a59d f53a 92a0 24bd
00000050: 0a02 9abb 2891 d9bb 28d9 823c 9b05 b0bb
00000060: a821 c3bc 1e33 a0bc 667c debc 80da 6b3a
00000070: 076c ba3a c888 be3c 8011 76bc 65ca 76bc
0.0210979 0.03886591 0.049512427 -0.03728623 0.030495698 0.011033518 -0.019831507 0.01507534
-0.009585482 0.0042357626 -0.031141276 -0.004539643 0.010052029 -0.005218093 0.016544407 0.017876556
0.007957397 -0.011087976 0.0018738998 -0.040192194 -0.00469995 -0.0066396184 0.015972689 -0.005371762
-0.02381976 -0.019555625 -0.027158927 0.00089970976 0.0014222868 0.023258582 -0.015018821 -0.015062903

model.4.running_mean f4 [32]
00000000: d37d 7d3d 9552 703d 0cba 503d 9d14 b5bc
00000010: 5a81 56bc da0d f73d 52fd 8f3d 4e0b 693c
00000020: 374e 953d ba30 fc3b 0390 f63c 0997 a43d
00000030: 6b1e 8b3d a7ac 113d 8140 02bb f3b3 1e3d
00000040: 1b8c 883d d403 963c 0eb4 31bb 98a1 833d
00000050: 437d 9f3d a4ca 2a3c d8df 823d 13ff a33d
00000060: 13e3 853c 277b 6f3a a224 31bc fe34 f13d
00000070: c1de 113e 6707 8abb d00d cf3c 897e 133b
0.061887573 0.058672506 0.050958678 -0.022104556 -0.013092363 0.12063189 0.07030739 0.014223887
0.07290309 0.0076962383 0.030097967 0.0803662 0.06792911 0.035565045 -0.0019874873 0.03874583
0.06667348 0.018312372 -0.0027115378 0.06427306 0.07787564 0.01042429 0.06390351 0.08007636
0.016343629 0.00091354776 -0.010811957 0.117776856 0.1424513 -0.004212308 0.025275141 0.002250584

model.4.running_var f4 [32]
00000000: 7a8d 573b 6c1f 393b 5cda 483b 3b99 c839
00000010: 3769 3e3a 55fc b43a 4984 c83b b24d c13a
00000020: 50dd cf3a 1eb4 853a 7df5 9c3b 0dc2 6a3b
00000030: e88d 293b 944c 5b3a a4d5 fd39 7453 463a
00000040: aa47 b03a 51a7 303b 5021 013b fae6 123b
00000050: 8cfd 2f3b 2fc1 233a a1e6 323b d129 623b
00000060: 8126 0a3b 1511 323a 16a3 fb3a 2f9e 933a
00000070: fe19 0c3b 53df 233a 2bbb a53b e356 fe39
0.0032890723 0.0028247489 0.003064773 0.00038261138 0.0007263603 0.0013808111 0.0061192852 0.0014747886
0.0015858803 0.0010200774 0.0047900067 0.003582123 0.0025871936 0.0008365598 0.00048415095 0.0007565536
0.0013449092 0.0026955197 0.0019703694 0.0022415505 0.0026854007 0.0006246743 0.002729811 0.0034509788
0.002108008 0.00067927066 0.0019198384 0.0011262352 0.0021377797 0.00062512344 0.0050577126 0.0004851139

model.5.weight f4 [64, 32, 3, 3]
00000000: 2391 353c 15fa a5ba 608f 783b a6a9 82bc
00000010: 973b 2ebb 3b91 01bc da5a c2bb 1b07 47bc
00000020: 0101 27bd cb1a d9bc 2bac 0cbd 3c9f fb3b
00000030: c89a 1bbc 6394 d4bb 028c 74bc 8fde 80bd
00000040: 0a55 1d3d 5251 0e3c 48cf a4bc 9a16 8cbc
00000050: 90e3 8e3b 7d42 bbbc 079a 3ebc c4e6 493c
00000060: 1a6b d33c 796e 373d ff51 0bbc 1bd1 a6ba
00000070: 7a60 6f3b 7af5 2abc f3ce d1bb 49e9 003c
00000080: b7c3 59bc ac04 ce3c f0da b03b ff5c 11bd
00000090: 9489 2cbd 50b9 f8bc 7f63 51bc 1b60 70bc
000000a0: 9264 06bd a79d 6ab9 e996 b8bc ff35 ad3c
000000b0: 1e03 c5bb 65f6 3d3d 8fbd 7dbb b5da 24bd
000000c0: a4ec 193a be8e e1bc 6bc1 0dba 3574 a6bc
000000d0: 6fc6 4cbc 6710 70bc a132 013d 3e54 803c
000000e0: a28e 49bc b1c8 903c d8bd d63c 7903 f7bb
000000f0: db15 0c3d b496 99bc 1a42 d1ba 7965 993b
00000100: 7f12 1c3c 8328 583c d17b 333d e928 213c
00000110: ea5b dc3b b952 c9bc 7bd2 5b3c 6723 05bd
00000120: c576 2b3c 4c27 3b3b 414f 39bc d763 dc3c
00000130: 23d1 b5bb 27a8 68bc b717 59bb 58f8 c6bb
00000140: 8c5f 14bd 5c5a 9cbc 8312 be3c 0d93 453a
00000150: 622e 8e3c 6261 c93a d780 43bb ccde 10bd
00000160: 2c54 e33c c7d9 2abc 5f3e e03c c943 57bb
00000170: 4203 9b3c c2b0 683c ce7f 86bc 2ec9 a4bc
00000180: 79aa a93c 5953 04bc fcd2 f6bb 3896 5f3c
00000190: a08c 053c 694e d7bc 0f46 43bb 57ff f1bb
000001a0: dd0c 2ebd 0e81 46bc bdfd fcbb 0e6c f93c
000001b0: 7bf8 d3bc dbe7 8abc 3dac c8bc fcc2 da3b
000001c0: 8fc2 f43a 1236 bebc 5040 27bc e4f3 313d
000001d0: 14ec 3abd b2af e53c e6e8 b63b ab30 62ba
000001e0: 0f02 e2bb bec3 e33b db15 20bd 0288 f3bb
000001f0: 1a86 f93c 781b 14bc 84f7 3fbc c668 b83c
00000200: 784e c33b 8cf0 41bc 807a b9bc 3e26 3bbd
00000210: a981 debc 3f61 86bd cac5 8c3c 0c0a 09bd
00000220: 2113 4a3d 9153 a13c 7c65 cebc 843e 013c
00000230: d74d 3f3c a645 c03c 1820 6cbd 4737 f1bb
00000240: 7c08 d9bc 0c57 40bd 76dd acbc 0e37 933b
00000250: 087c a73b a451 383c 968c a6bc 793b 893b
00000260: dae3 4f3b 149e 123d f7ee 343d 5cde de3c
00000270: 6ca3 06bb bdc0 063c 8084 b1ba 7e92 8abc
00000280: e176 bf3c 41ca 833c b37a 34bc abda 24bb
00000290: 0162 a43c 0741 b3bb 6b54 553d c685 b93b
000002a0: f91c e2bc 8eaf 3abc 9fb5 133d 69a1 e2bc
000002b0: b813 423c 4c38 203d 7ca6 c23c bdae a43c
000002c0: 58b0 ec3c f219 253d ebce cd39 912b bebc
000002d0: da3f c73b 1394 df3b b027 983c 1074 b73c
000002e0: 7c4a 9f3c 3ece 923c 2c27 383c 6b5f dd3c
000002f0: 82d6 4bbc fcf6 c53a 509d ef3c 83b1 373d
00000300: b558 83bb 63f9 043d ba88 933a e384 063d
00000310: 9534 943c 2c42 48bc 259e e9bc a99a dbbb
00000320: 4254 f1bc 9a15 0fbd 73f5 843b e706 ac3c
00000330: dd80 27bc 2b55 72bc 3c5a d1bc f813 14bd
00000340: 0b8c 83bc f66f 78bc 6889 a13b c3a2 c1bc
00000350: cd7d bd3c c239 36bc 5bb5 74bb 3054 01bd
00000360: 7822 b439 aef4 a0bc a50d a13c 9354 0dbd
00000370: 9e4c f6b8 1178 4cbd 5eee 03bd be10 69bc
00000380: e4d0 fb3b 3433 2a3d 714f 203c 9586 ee3c
00000390: b8d7 173d 819f ba3c f0dc d8bb 1c0d 8f3c
000003a0: de47 8a3a bf34 8bbb 919f 5abc 59d4 913c
000003b0: 2710 bebc 116d 0b3c 301e f33c 2cbd f3bc
000003c0: 7304 733c 15f8 1c3c bd9d c93a c294 20bc
000003d0: 74dc 19bd bf73 153c 8920 173d 2e10 e03b
000003e0: c08a 6fbb ad3a be3c 4861 c33c fef1 c6bc
000003f0: 0cab 0f3d e54d 603c 0784 5e3c 7e21 013b
0.011081967 -0.0012663031 0.0037927255 -0.015950035 -0.0026585811 -0.007908161 -0.0059312405 -0.01214769
-0.04077244 -0.026502034 -0.03434388 0.0076788943 -0.009497352 -0.0064874156 -0.014925959 -0.0629245
0.038411178 0.00868638 -0.02011837 -0.017100621 0.0043606237 -0.022858853 -0.011633403 0.012323085
0.025807906 0.04478309 -0.008503436 -0.0012727113 0.003652601 -0.010434503 -0.006402844 0.0078681195
-0.013291291 0.025148712 0.005397193 -0.03548908 -0.042123392 -0.030361801 -0.012780069 -0.014671351
-0.032810755 -0.00022374709 -0.022532897 0.021143911 -0.0060123345 0.04637756 -0.0038717722 -0.040247638
0.0005871749 -0.027533885 -0.00054075447 -0.020319084 -0.012498482 -0.014652348 0.031542424 0.01566517
-0.012302073 0.017673822 0.026213571 -0.007538256 0.03420053 -0.018748619 -0.0015965134 0.004681286
0.009525894 0.0131932525 0.043819252 0.009836414 0.006724824 -0.024575578 0.013416882 -0.032504465
0.010465329 0.0028557358 -0.0113103995 0.026903076 -0.0055486127 -0.014200247 -0.0033125707 -0.0060720854
-0.036223933 -0.019086055 0.023202186 0.0007536866 0.017356101 0.0015364105 -0.0029831433 -0.035368726
0.027750097 -0.010427899 0.02737349 -0.00328468 0.018922452 0.014202299 -0.016418364 -0.020115461
0.02071117 -0.008076512 -0.0075324755 0.013646655 0.008151203 -0.026282506 -0.0029796397 -0.007385175
-0.042492736 -0.01211573 -0.0077206776 0.030447032 -0.02587532 -0.01695626 -0.024496192 0.006676076
0.0018673706 -0.023219142 -0.010208204 0.043445483 -0.045635298 0.02803788 0.005581963 -0.0008628468
-0.006897218 0.0069508245 -0.039083343 -0.007431985 0.030459452 -0.009039752 -0.011716727 0.022510897
0.005960282 -0.011837136 -0.02264142 -0.045690767 -0.027161436 -0.06561517 0.017184157 -0.033456847
0.04933465 0.019693168 -0.025194876 0.00788844 0.011676273 0.023470711 -0.057647794 -0.007361326
-0.026493303 -0.046958014 -0.021101695 0.004492647 0.005111221 0.011249933 -0.020330708 0.004187998
0.0031721503 0.035795286 0.044173207 0.027205639 -0.0020544184 0.008224663 -0.0013543516 -0.016915556
0.023372116 0.016087653 -0.011015582 -0.002515475 0.020066263 -0.0054703983 0.05208246 0.005661699
-0.027601706 -0.011394395 0.03606188 -0.027664857 0.011845522 0.03911619 0.023761027 0.020102853
0.028892681 0.040307947 0.00039254813 -0.023214133 0.0060806097 0.0068230717 0.018573612 0.02239421
0.019444697 0.01792061 0.011239808 0.027023038 -0.012441279 0.0015103514 0.029249817 0.044847023
-0.0040083774 0.032464396 0.0011255958 0.032841574 0.01809148 -0.012222808 -0.028517792 -0.0067017865
-0.029459123 -0.03493271 0.00405758 0.020999385 -0.0102235945 -0.014790813 -0.025555722 -0.036151856
-0.016057989 -0.015163412 0.00492971 -0.023637181 0.023131276 -0.011122169 -0.0037339542 -0.031574428
0.00034357957 -0.019647922 0.019659827 -0.034504484 -0.00011744465 -0.04991919 -0.032209747 -0.014225183
0.007684814 0.041552737 0.009784565 0.029116908 0.03707096 0.022781136 -0.0066181347 0.017462306
0.0010549983 -0.004248231 -0.013343708 0.01780145 -0.023201061 0.00850989 0.02967748 -0.02975329
0.014832604 0.009580632 0.0015382093 -0.009801092 -0.037563756 0.009121834 0.036896262 0.0068378663
-0.0036551207 0.023221338 0.023850098 -0.024285313 0.035075232 0.0136904465 0.013581282 0.00197038

model.5.bias f4 [64]
00000000: 6cad 5abd df09 353c 5ea2 71bb 923c 7b36
00000010: fcc3 2b3d e51a a73c 142e b83c 0818 5a3a
00000020: 2da1 06bd 0468 46bd e5d1 463d 1618 9ebc
00000030: 7142 0c3c 3813 14bd 28b9 433c a736 20bd
00000040: 7a4f dd3b ca4d 00bd 5ab9 12bc 21b3 773c
00000050: bc70 c93c 6a15 a6bc d93d f6bc ea1f 243c
00000060: 7ed5 a5bd 4c29 f93a 490e 4b3d e6b4 283c
00000070: 9a6a 09bc 9a47 8ebc 571f 88bc 6db2 1cbd
00000080: 864f 11bd 4037 073a 2bd0 c23c 6e21 dc3c
00000090: 1227 fcbc 7e87 1abd a337 84bd efbb 093d
000000a0: daad 7a3c 0127 603d 393a fcbb 1c5c 87bd
000000b0: 94be c4bc 6dc3 5a3d 9837 d83c 1cea 373c
000000c0: 4aca 5cbd 7feb 523c 0f95 d93b 273d e63c
000000d0: df78 563d 3114 5a3c 127a 353b 1121 f1bc
000000e0: 6ff6 86bd 29d1 5b3d 51f6 423d 691c dbbb
000000f0: 3940 11bd 7c18 a2bd 81ba 473b d5c1 483d
-0.053388044 0.011049717 -0.003687046 3.7437171e-06 0.041934952 0.020398566 0.02248291 0.0008319621
-0.032868553 -0.04843904 0.048540015 -0.019298594 0.008560763 -0.03615114 0.011946 -0.03911462
0.006753859 -0.031324185 -0.008955324 0.015118391 0.024589889 -0.020273883 -0.030058788 0.0100173745
-0.08097361 0.00190095 0.04957417 0.010297036 -0.008387232 -0.017368127 -0.016616507 -0.038256098
-0.03547623 0.0005158074 0.023780903 0.02687141 -0.030780349 -0.03772687 -0.06455924 0.033626493
0.0153002385 0.054724697 -0.0076973704 -0.06609365 -0.024016656 0.05340903 0.026393697 0.01122525
-0.053903855 0.012873529 0.0066400836 0.028105332 0.052361365 0.013310478 0.0027691168 -0.029434713
-0.06589972 0.053666268 0.047598187 -0.0066867364 -0.035461638 -0.07914826 0.0030476155 0.049012978

model.7.weight f4 [64]
00000000: 2aae 7c3f b267 773f 0f4d 7e3f 62dd 7e3f
00000010: e5c0 7d3f 0bf2 7e3f 4de0 7a3f c6b4 7e3f
00000020: 5efd 753f 9766 7d3f 0cae 7e3f 0ae5 7b3f
00000030: 21c3 7d3f 6e24 763f 5dae 7e3f 5fba 7b3f
00000040: f203 773f 66a3 7f3f 1993 7d3f 02bf 7d3f
00000050: 0128 7c3f a8af 723f 462e 7d3f 0000 803f
00000060: c13c 7b3f 20fd 783f fc2a 7c3f dce7 7d3f
00000070: cf8c 7c3f 0f4f 7f3f 1111 723f dcf2 7e3f
00000080: 6fbd 7f3f 0d62 7d3f e207 7a3f 16aa 7d3f
00000090: 90e6 7c3f 7ee6 7e3f 94b0 7d3f eedd 7b3f
000000a0: 5dbd 7e3f 5e85 7b3f 19d4 793f 7210 7e3f
000000b0: 0000 803f a1f5 7d3f dc51 793f c1c7 7e3f
000000c0: ae02 7a3f 50a2 7e3f 7d52 7f3f 2f91 743f
000000d0: 0000 803f 2e71 7c3f f8ca 7d3f d0a5 7a3f
000000e0: e68f 7e3f e55e 7e3f ee1d 7d3f e956 7d3f
000000f0: f5b8 773f 7620 713f 17db 7e3f bbf1 7d3f
0.98703253 0.966426 0.9933633 0.99556553 0.9912246 0.9958808 0.97998506 0.9949459
0.9608973 0.98984665 0.99484324 0.9839636 0.9912587 0.9614934 0.9948481 0.98331255
0.96490395 0.998587 0.9905258 0.9911958 0.9849854 0.9479928 0.9889873 1.0
0.9813958 0.9726124 0.9850309 0.99181914 0.98652357 0.9973001 0.9455729 0.99589324
0.9989843 0.9897774 0.9766828 0.99087656 0.9878931 0.99570453 0.9909756 0.9838551
0.99507695 0.9825038 0.9758926 0.99243844 1.0 0.99202925 0.9739053 0.9952355
0.9766034 0.9946642 0.9973524 0.9553403 1.0 0.986102 0.9913783 0.9790926
0.9943832 0.9936355 0.98873794 0.9896074 0.967666 0.94190156 0.99553055 0.99196976

model.7.bias f4 [64]
00000000: 63c3 19bc 56ed 833b 6907 06bd f989 00bb
00000010: e7ee 85bc 9408 69bc 5ac0 833c ca98 e83b
00000020: 7fd1 b8ba d8f3 c53b f750 90bc 6b53 373b
00000030: 1eb1 983c e08a aabc 9882 b73c d1dd a1bc
00000040: deb0 9fbb 0b55 66bb d4cb 8abc 04d1 bfba
00000050: 24de b9bb a094 8e3c f1b3 0f3d bece d53c
00000060: ee3a 5d3b 5035 c6bc edf9 2ebb 62d9 893b
00000070: f6d4 833c 6c3a 56b9 2f1f 8d3c 1f03 0dbc
00000080: 65cd 81bb 0d5b eabc 1919 0ebd abcc 71bb
00000090: 1622 65bc 762a 7cbc 9747 753c 719f 993b
000000a0: 35a6 94bc f287 82bb dd03 ca3c b049 a13b
000000b0: 5f9d 61bb eaac ca3c 8fb2 463c 1eec 98bc
000000c0: ccd4 fb3c 3939 8dba d1fa 15bd 882c c73c
000000d0: 8420 d83c 5d0b 9d3c 91db 4c3c fdf6 943b
000000e0: e323 2bbc 5c77 b03b 92d7 553c 32d1 5cbc
000000f0: a642 57bb b46f 813a 9adc edbc b630 1a3c
-0.009384963 0.0040260954 -0.03272191 -0.0019613488 -0.01634927 -0.014223237 0.016082931 0.007098292
-0.0014100521 0.0060410313 -0.017616732 0.0027973305 0.018639144 -0.020818174 0.02240114 -0.01975909
-0.004873379 -0.0035145904 -0.016942896 -0.0014634435 -0.005672233 0.017404854 0.035083715 0.026099559
0.0033757049 -0.024195343 -0.002669926 0.0042068223 0.016092759 -0.00020430394 0.017226784 -0.008606701
-0.0039612525 -0.02860787 -0.034691904 -0.0036895673 -0.0139851775 -0.015390983 0.014970682 0.0046881963
-0.01814566 -0.003983491 0.024660045 0.0049221143 -0.0034426076 0.024740655 0.012127533 -0.018667277
0.030741118 -0.00107745 -0.03661615 0.024313226 0.026382692 0.019170457 0.012503521 0.004546045
-0.010445568 0.0053853225 0.013051884 -0.01347761 -0.0032846122 0.0009875209 -0.029035855 0.009411028

model.7.running_mean f4 [64]
00000000: 1faf 7c3e 634a 673e c56f a23e 7eaf d83e
00000010: 6363 903e 8384 893e da34 803e 43d3 913e
00000020: 5182 5a3e a2d5 883e b83c e33e e0b5 553e
00000030: 8118 963e c7e6 093e 7b64 623e c40b a63e
00000040: c0e6 773e 3240 113e e17d 823e e472 a83e
00000050: f822 273e b297 553e 19b5 b83e be15 583e
00000060: 7f4f 473e 1552 4d3e 52d1 d23e e1cd 7b3e
00000070: d5d6 313e f714 b73e 7a99 323e c3d8 5d3e
00000080: 5284 993e 5906 883e baa3 8d3e f551 893e
00000090: 0ad3 0f3e b0fd 7f3e f801 f83d 4236 af3e
000000a0: 7c73 843e ade3 7e3e 8ddf 9f3e b5c4 773e
000000b0: c423 193e d35d b03e cefc 4a3e 8540 b63e
000000c0: e299 173e 862b 953e d344 913e 7cfa 933e
000000d0: ca4a 9a3e 8a49 d33e 06a4 b23e fea5 423e
000000e0: d84a 703e c51a a23e 3b3b 7b3e cf7a 803e
000000f0: 954d 343e acc6 733e 0113 9e3e 79c6 ac3e
0.24676178 0.2258697 0.31725898 0.4232139 0.28200826 0.2685891 0.25040323 0.28481492
0.21338774 0.2672549 0.44382262 0.20870161 0.2931557 0.13466941 0.22108643 0.3243085
0.24209118 0.14184645 0.25486663 0.32900155 0.16321933 0.20858648 0.36075667 0.21102044
0.19463919 0.20050843 0.41175324 0.24590255 0.17367108 0.35758182 0.17441359 0.2166472
0.29983765 0.26567343 0.27663976 0.2682034 0.14045349 0.24999118 0.121097505 0.34221083
0.25869358 0.24891539 0.31225243 0.24196132 0.1495505 0.34446582 0.19823 0.355961
0.14804795 0.29134768 0.2837282 0.28902042 0.30135185 0.41267043 0.34890765 0.19008633
0.2346605 0.3166105 0.24534313 0.25093696 0.1760772 0.23806256 0.30873874 0.33745173

model.7.running_var f4 [64]
00000000: 0dbb bb3e a918 233e 41e5 f73e 4c06 603f
00000010: 7e41 c63e 519b bf3e b93b 6d3e 224a 323e
00000020: a7f5 993e 83bb 8b3e 3bb7 4a3f 392b 453e
00000030: 0ef4 9c3e 1d27 cc3d b8ef ff3d e183 043f
00000040: 55be 4b3e 92bc 513e 3225 4d3e 5e2a 1b3f
00000050: 8c41 2c3e 2be8 ae3e ff91 aa3e 4e42 9a3e
00000060: 4a07 6f3e d186 d13d 76c7 0e3f ba8b 803e
00000070: 2d88 2c3e dc9d 263f b010 2d3e 8d14 623e
00000080: 79a9 4c3e 9c3e 933e 21a4 f33e 2e4d ba3e
00000090: 7ded 2c3e 19ea 513e 6181 153e 8d1b 983e
000000a0: 0862 b43e 2674 3c3e f4f5 ce3e ca73 f83e
000000b0: 3050 243e ae6d a63e ad82 403e ebaa f53e
000000c0: d218 633e cf41 ac3e 65b0 e63e c417 0b3f
000000d0: 370f 7c3e eb68 093f 926e 1d3f b1e7 973e
000000e0: b517 e73e 0023 903e 8b09 f93d be89 f53e
000000f0: 9dd6 9d3e 8151 df3e 0363 063f d977 a13e
0.36666146 0.15927376 0.48417094 0.8750961 0.38721842 0.37423185 0.23167314 0.17411092
0.3007023 0.27291498 0.7918584 0.1925477 0.3065495 0.09968398 0.124968946 0.5176373
0.19896825 0.2048209 0.2003372 0.6061152 0.16821879 0.34161505 0.3331451 0.3012871
0.23342624 0.10230792 0.55773103 0.25106603 0.16848822 0.65084624 0.16900897 0.22078152
0.19986524 0.28758705 0.47586158 0.36387008 0.1688747 0.20499457 0.14600135 0.2970852
0.35231042 0.18403682 0.40422022 0.4852584 0.16046214 0.32505554 0.18799849 0.47981963
0.22177437 0.33643958 0.45056453 0.5433314 0.24615179 0.5367572 0.6149684 0.29668954
0.45135275 0.28151703 0.12160023 0.4795665 0.308278 0.4361687 0.5249483 0.3153675

model.8.weight f4 [128, 64, 3, 3]
00000000: a228 63bc 8782 d93c 8831 24bd fde8 b0bc
00000010: 5121 6e3b 8dec 863b c4a7 44bd a676 c7bc
00000020: fbbe debc 9535 f5bc 963c 04bc 87e8 3bbb
00000030: 4a3f b53c 9215 4b3b b9a1 db3c df47 433c
00000040: fd88 f0bb 16a6 b1bc 2cba 16bd 1e58 20bd
00000050: de83 8cbc 69b2 223b 5a0e 6fbc 2e10 6dbd
00000060: e258 e3bc 42ff 073d fb32 323c c7e6 7bbb
00000070: fa07 b9bc 6529 c43c 6e59 853a f3af 913c
00000080: d517 653c 6047 e8bc 0c89 c33c 84de 28bc
00000090: b1d5 c1bc 1072 333d 3940 833c 3ff0 fd38
000000a0: 91a6 01bd 1b1b 5c3d fbf6 393d 3880 7cbc
000000b0: d20a 66bc 1b2a 14bc 4a80 9c3b 1f82 113a
000000c0: c25d 3abb 537e 053c 28b5 c63b bfab a939
000000d0: eab7 e23b 6377 a0bb 21a3 853b 8618 dabc
000000e0: 8325 4b3d ac19 0c3c 324f 15bd 5905 373d
000000f0: 2bd0 1a3d 3a3b 853c a41a fc3c 1919 4d3d
00000100: f8a0 ae3c dbfa 3c3d aba0 a43c accb 2a3d
00000110: edcf 713b 249a b2bc d7cf 833c d5d8 c1bc
00000120: 9ff6 773c 2580 9abc c727 42bd 04d7 d9bc
00000130: e2da 0a3d 43a9 88bc 9451 d8bb 2b24 ed3b
00000140: f2f6 4fbd ab26 a0bc e3fd 63bc 27a1 2f3d
00000150: 1701 dabc f12b e0bc 9478 4c3c 79d1 353c
00000160: 44fe e73b 771f 3c3c 24bb 19bd 884d e6bc
00000170: a64d 08bc 7c1b 10bc a60b 74bc 9163 163b
00000180: 1b6a 753c 407f 47bb 0084 1b3c 7bf0 8bbc
00000190: 767f ad3b d63b 853b b4d9 ccbb 0976 5fbc
000001a0: 9700 0ebd 0605 013d 653c cf3c b91e 103d
000001b0: 6d1e 68bc ce96 c53b 2420 493d 8473 183d
000001c0: 3f53 b9bc d63d 143d e7a3 943c d058 0e3b
000001d0: 0b03 cb3a 49e2 69bc 30d7 a13a 1df7 f43c
000001e0: 62d3 023d 06a4 a1bc 6df4 92bb 06b7 9f3c
000001f0: a8e8 1abd 5edf 06bd 08f0 2f3c f790 3c3c
00000200: 34de 003d 172d 283d b53d 8d3c 4bd9 8e3c
00000210: d674 fcbb 946f 243d 4583 4abc 527e 683c
00000220: ce98 3b3d dff2 5dbb fa17 85bd 88f6 3bbc
00000230: 9d60 a8ba 29bf cf3b 0896 f63b aebc 1d3c
00000240: 8a65 e13c a9b1 40bd 2b93 4abd 5f91 823c
00000250: 8b71 06bd 6477 9b3c 120a f2bc af5e 8c3c
00000260: c1aa 43b9 acc7 3dba f0ba b2bc 32c2 2fbd
00000270: 752e 633c 8b09 48bc 4228 a43b e359 5dbc
00000280: 4571 553c bf66 3e3c 748d 353c 760e ae3c
00000290: 13e2 93bb f8b8 5b3d 5ae4 263d 2cae 88bc
000002a0: e20e 13bc 76ed ed3c 0efc be3c fea5 303c
000002b0: 562e 06bc 38ca d2bc a30f 483d 5acf a3ba
000002c0: b2d1 3c3b 9023 36bc 7e23 053c cd6f 903c
000002d0: 0305 813b 5507 5d3b 542e a3bc f8d5 923b
000002e0: c04e c33c 42f3 46bb 84bf eebb e958 083c
000002f0: 4e2e 3abc 03f2 a43b f5eb 163d 6ad8 ec39
00000300: 0a5b b5bc 4a13 11bc f796 e53c 215e 413c
00000310: 45f6 96bc e35a e8bc b942 e23c 0764 873c
00000320: 43f4 5e3d c9e5 443d fdf4 433b fd4c 83bd
00000330: eb16 0bbd d7d6 dc38 5239 0d3d f05f 833b
00000340: 60b3 c4bc c667 7e3b 8ca4 f8bc cb27 f33b
00000350: 4b63 caba 3abb a0bc 4a66 6abc d160 b7bc
00000360: cd38 81bc fdd3 70bc 262a 46bc caff 263c
00000370: 2aa6 673c c698 243c 644f 803c 54b4 bb3c
00000380: 32aa d3bc 96fa 82bc ae76 b23c 1dc5 39bd
00000390: 069e 7c3c 5b98 813a f7a1 70bc 1e5e f6bc
000003a0: b4fa 82bb 67d5 483c bd15 d43c 8683 52bb
000003b0: d045 953d f7bb 753c 76d9 c83c feb9 b93c
000003c0: 1b8e 283c 25b6 3b3d d79e e7bb b8f6 d6bb
000003d0: ac96 0c3c 4b6a 60bc 3e80 783b f34c d63b
000003e0: d12c 283c e442 03bc b09a cbbb 5ec0 053d
000003f0: 6698 ec3b 20e5 83bc a026 1d3d fc41 eb3b
-0.013864668 0.026551498 -0.0400863 -0.021595472 0.0036335776 0.0041175545 -0.048011556 -0.024348568
-0.027190676 -0.029932776 -0.008071085 -0.0028672533 0.022124905 0.0030988199 0.026810514 0.011918991
-0.007340549 -0.021685641 -0.03679864 -0.039146535 -0.017152723 0.002482558 -0.014590824 -0.05787676
-0.027752344 0.033202417 0.0108764125 -0.0038437115 -0.022586811 0.02394552 0.0010173747 0.017784094
0.013982733 -0.028354347 0.02386906 -0.010306958 -0.023661466 0.04380995 0.016021835 0.000121087294
-0.03165299 0.053736787 0.045401555 -0.015411429 -0.014040666 -0.009043242 0.0047760354 0.00055507006
-0.0028437232 0.008147794 0.006064076 0.00032362153 0.006918897 -0.0048970445 0.0040782844 -0.026623022
0.04959632 0.0085510425 -0.03645248 0.044682834 0.03779618 0.016263593 0.030774422 0.050072763
0.02131699 0.046137672 0.020096144 0.041698143 0.0036897615 -0.021802016 0.016090317 -0.023662964
0.015134483 -0.018859932 -0.047401216 -0.026591785 0.03390015 -0.016682273 -0.0066015217 0.0072369776
-0.050772615 -0.019549688 -0.013915512 0.042878296 -0.026611848 -0.027364703 0.01247992 0.011097305
0.0070798714 0.011482111 -0.037531987 -0.028113142 -0.008319294 -0.008795615 -0.014895355 0.002294753
0.014978911 -0.0030440837 0.0094919205 -0.017082443 0.0052947355 0.004065971 -0.006251538 -0.013638982
-0.03466853 0.03149893 0.025297353 0.03518555 -0.01416741 0.00602994 0.049102917 0.03721954
-0.022622703 0.036191784 0.018144561 0.0021720417 0.0015488578 -0.014275142 0.0012347456 0.029902989
0.03193987 -0.019731533 -0.004484704 0.019496452 -0.037819535 -0.032927863 0.01073838 0.011509172
0.03146191 0.041058626 0.017241338 0.017437598 -0.0077043576 0.04014547 -0.012360399 0.014190273
0.045800023 -0.0033866686 -0.06498714 -0.011472352 -0.0012846176 0.0063399267 0.0075252093 0.009627504
0.027514238 -0.04704443 -0.049456757 0.015938459 -0.032823127 0.018977828 -0.029545818 0.017134992
-0.0001866026 -0.0007239531 -0.021817654 -0.04290981 0.013866057 -0.0122093065 0.005009682 -0.0135102
0.013027494 0.011621176 0.011081088 0.02124713 -0.004513034 0.053643197 0.040745117 -0.016684614
-0.008975716 0.029043894 0.023313548 0.010781763 -0.008189758 -0.025731191 0.048843037 -0.0012497709
0.0028811512 -0.011116877 0.008126138 0.017631436 0.003937365 0.0033726294 -0.019919552 0.0044810735
0.023841262 -0.0030357395 -0.007286014 0.008321979 -0.011363579 0.005033733 0.03684612 0.0004517467
-0.022138137 -0.0088546965 0.028026087 0.011802227 -0.018427977 -0.02836365 0.027619706 0.016527189
0.054432165 0.048070703 0.0029900663 -0.06411169 -0.033957403 0.000105304345 0.034478493 0.0040092394
-0.024011314 0.0038819178 -0.0303519 0.007420515 -0.0015440969 -0.019620527 -0.014306614 -0.022385033
-0.015774155 -0.014698979 -0.01209501 0.010192821 0.014138738 0.01004619 0.015662856 0.022913136
-0.025837991 -0.01598863 0.021785107 -0.045353997 0.015418535 0.0009887324 -0.014687053 -0.030074175
-0.0039971713 0.01225791 0.025889272 -0.003212185 0.07288706 0.014998428 0.024517756 0.022671696
0.010287787 0.045828003 -0.0070684957 -0.006560173 0.008580845 -0.013697217 0.0037918235 0.006539935
0.010264591 -0.008011553 -0.0062135085 0.03265416 0.0072203157 -0.016100466 0.038366914 0.007179497

model.8.bias f4 [128]
00000000: fbb1 84bd 800d 9ebc 838e 62ba c7ff 25bd
00000010: 9c36 b73c 2eb9 ea39 3df3 723c b42d f2bc
00000020: 00f4 dbbc 93e7 5a3d 4fd3 56bc df5e 33bd
00000030: 1328 e6bc 2b40 6d3c 9242 0d3d 9e23 8d3c
00000040: 6d34 ffbc 93ff 883c 0743 f5bc 07fc 42bc
00000050: c4c1 66bb 0373 cdbc 0d6f 39bc 5e9c fc3c
00000060: 857d 2f3d d06c 1cbd 39c1 7d3c 8e40 d4bb
00000070: 9f05 543b 8044 22bc a055 51bd 1d43 b3bc
00000080: 3da8 893b fedb 2e3c 93c6 9f3c f658 b2bb
00000090: 2335 27bd c368 febb 417b a53a aa33 aabb
000000a0: c031 8abd 8a0f 38bd 7823 f1b9 6d7e cdbc
000000b0: e9f8 b13b 9e4b 343c 9932 af3c 9719 ecbc
000000c0: 0c3b 1cbd 5229 133c e74e 00bd fa17 8e3c
000000d0: 9ade 09bb 5e3b dcbc 35f6 89bc 3b38 97bb
000000e0: dbfe 11bd dca0 3e3c b014 6dbc 541c 15bc
000000f0: eb9f a8bb ab7f 0ebd dd61 69bd fec3 893b
00000100: 7bf7 b7bc 5be1 ad39 d95b 2bbd d76d 2d3d
00000110: 6515 12bd 0c21 d6bc fd52 763c a651 513a
00000120: e3fa 5abd 99cd 653c 4423 9e3c fecb b13c
00000130: ee80 84bb ca1d 80bb 45c0 923c 2e20 e83c
00000140: e68f 243b 3874 bb3c cba0 edbc 8475 c2bc
00000150: 4f60 f23c 6ff9 1abd 56cb aabc 87c5 c9bc
00000160: 73ef e63c 03a6 92bc 52ae 17bd bd8c afbc
00000170: 41dc 0fbd e57b ed3b 9afc 90bb bbb8 63bb
00000180: e36c 613c 9283 85bc 5d10 e63c a942 75bc
00000190: fbd7 02bb 7308 b63c 3cf2 893d 721b 52bd
000001a0: 8909 d0bc f46e 30bd c31b d7bc 3b5b c5bc
000001b0: b4e6 f2bc 1d11 50bc 69fc 17bd 48ea 14bd
000001c0: 744a 1c3d 6121 62bd 9965 b63a 05b3 0ebd
000001d0: af79 85bd 5f14 08bc 10d5 f63c 425d 4cbd
000001e0: c940 983b 1b40 213c 7571 f6bc 5d60 8bbc
000001f0: 2efd 8f3c 37d7 9abc c273 f13c 18b3 4ebc
-0.064792596 -0.019293547 -0.0008642452 -0.04052713 0.022364907 0.00044769928 0.0148285 -0.029562809
-0.026849747 0.053443503 -0.013111903 -0.043791648 -0.02809528 0.014480631 0.034487315 0.017228898
-0.031152928 0.01672343 -0.029939188 -0.011900908 -0.0035210708 -0.025079256 -0.0113179805 0.03083628
0.042844314 -0.03818971 0.015487962 -0.006477422 0.0032351983 -0.009904027 -0.05110705 -0.021882588
0.004200964 0.010672567 0.019503867 -0.005442734 -0.04082216 -0.0077639534 0.0012625234 -0.005194147
-0.0674777 -0.044936694 -0.00045993528 -0.025084699 0.0054312837 0.011004357 0.021386432 -0.028820796
-0.03814225 0.0089820195 -0.031325247 0.017345417 -0.0021037222 -0.026883777 -0.016841033 -0.0046148575
-0.03564344 0.011635032 -0.014470264 -0.009100992 -0.005146017 -0.034789722 -0.056978095 0.0042042723
-0.022456875 0.00033165034 -0.04183564 0.04234108 -0.035664935 -0.026138805 0.015034434 0.0007984884
-0.05346192 0.014026069 0.019303925 0.021703716 -0.00404369 -0.003909801 0.017913947 0.028335657
0.0025110184 0.022882566 -0.029007336 -0.023737676 0.02958694 -0.037835535 -0.020848911 -0.024630321
0.02819035 -0.017901426 -0.03703148 -0.021429414 -0.03512216 0.0072474354 -0.0044246437 -0.003474756
0.013758871 -0.01629809 0.028083974 -0.014969506 -0.001996516 0.022220826 0.06735656 -0.051295705
-0.025395172 -0.043074563 -0.026258355 -0.024091354 -0.029651023 -0.012699393 -0.03710595 -0.03635624
0.03815694 -0.055207614 0.0013915777 -0.034838695 -0.0651735 -0.008305638 0.030130893 -0.049893625
0.004646395 0.009841944 -0.030083397 -0.017013723 0.01757678 -0.01890145 0.029474143 -0.012615941

model.10.weight f4 [128]
00000000: 0e4a 763f c6d7 7b3f 62d8 773f 30f6 793f
00000010: 7d2c 793f bc63 793f 2618 7c3f b8d4 713f
00000020: 4915 793f 4348 723f c471 7a3f a04c 713f
00000030: ba54 773f a022 7d3f 645f 7e3f a023 7c3f
00000040: afc6 763f cd31 6f3f fcd2 793f fc3c 7c3f
00000050: e9f3 7b3f 5aae 7b3f 8156 783f 8444 7e3f
00000060: 6811 7a3f 7a01 753f 8cdf 773f e451 7f3f
00000070: 9d22 793f 5652 783f 6f6b 7a3f ea82 7d3f
00000080: df43 7e3f 6857 703f fd7a 7b3f 6d6f 7a3f
00000090: e4cf 763f c85e 7c3f 7501 7d3f 0457 7d3f
000000a0: 1400 793f da74 793f 5b96 753f 3555 7f3f
000000b0: 1402 7e3f 2bbe 793f 270e 723f b45e 7a3f
000000c0: 9724 7b3f bf09 7b3f c56d 7b3f b059 7c3f
000000d0: da6f 7e3f 5363 7d3f 3382 733f 8e8e 7b3f
000000e0: 0988 793f ce20 7d3f 1a83 793f ea6f 7c3f
000000f0: 777c 763f 2793 7a3f e92f 743f e6d7 763f
00000100: a496 7d3f b0b9 793f e580 783f 9e34 783f
00000110: d14a 703f 1eab 753f 8431 763f ab3a 7b3f
00000120: e105 7c3f dc08 7d3f 402d 7e3f 589d 7d3f
00000130: 6409 7a3f cd6d 7b3f 79a1 6f3f b7f2 7c3f
00000140: 71b1 7b3f 0c48 7d3f 108f 793f 3ad8 7a3f
00000150: f788 793f 33bf 7c3f f34c 7d3f 19fa 7d3f
00000160: 3c92 753f 8bf4 743f 8cb6 793f d7d0 7c3f
00000170: 101c 7a3f 8fc1 793f e521 7d3f 5131 7f3f
00000180: d431 793f da24 763f 30f4 763f d238 7c3f
00000190: 4311 733f 956e 743f 3e3e 793f 0bf2 773f
000001a0: 8210 7f3f c534 7f3f b8c8 793f 23f3 7a3f
000001b0: cd5d 783f 790e 7e3f c81f 7b3f 909f 763f
000001c0: c20e 793f 0ede 7b3f 4744 7a3f b11f 7f3f
000001d0: f257 7e3f 5474 793f 8cb7 7e3f 9368 753f
000001e0: 12d2 703f 47bf 763f 6ce7 7d3f 2ae8 773f
000001f0: a423 7a3f 3173 6d3f fbfb 793f 3544 7e3f
0.9620675 0.9837612 0.9681455 0.9764128 0.9733351 0.9741781 0.9847435 0.9446521
0.97298104 0.9464151 0.9782984 0.94257545 0.9661366 0.9888096 0.99364305 0.9849186
0.9639692 0.93435365 0.9758756 0.98530555 0.9841905 0.98312914 0.97006994 0.99323297
0.9768281 0.9570538 0.9682548 0.9973433 0.9731844 0.97000635 0.9782018 0.99027884
0.99322313 0.9388337 0.9823454 0.9782627 0.96410966 0.98582125 0.9883035 0.989609
0.97265744 0.97443926 0.9593255 0.9973939 0.9922192 0.975558 0.94552845 0.97800756
0.98102707 0.98061746 0.9821437 0.9857435 0.9938942 0.9897968 0.95120543 0.98264396
0.974732 0.9887818 0.9746567 0.9860827 0.9628367 0.97880787 0.95385605 0.96423185
0.99057984 0.9754896 0.9707168 0.9695529 0.9386416 0.9596423 0.96169305 0.98136395
0.9844647 0.98841643 0.99287796 0.9906821 0.9767058 0.9821442 0.9360576 0.98807853
0.9831763 0.9893806 0.9748392 0.97986186 0.97474617 0.98729247 0.9894554 0.99209744
0.9592626 0.9568564 0.9754417 0.98756164 0.9769907 0.9756097 0.98879844 0.99684626
0.97341657 0.9614998 0.9646635 0.985242 0.94948214 0.95481235 0.973606 0.96853703
0.99634564 0.99689895 0.975719 0.9802725 0.9701813 0.99240834 0.9809537 0.96337223
0.97288144 0.98385704 0.9776043 0.9965773 0.99352944 0.9744313 0.9949882 0.9586269
0.9407054 0.96385616 0.99181247 0.9683863 0.97710633 0.92753893 0.97650117 0.99322826

model.10.bias f4 [128]
00000000: 9b02 c3bb 7832 9fbb b7cd 673b f693 893b
00000010: bf9e 87bb 8b3e 263c d41f 12bc 792a 9bbb
00000020: 466c 273c 3dd5 14bb 0f65 b43b f94f d03b
00000030: 58e1 ae3b cd33 ac3b 9657 b3bb e0af 113d
00000040: 33f9 85bb f32f ecbb 87e2 a53b 83be 73bb
00000050: 68ca 85bb 21a7 833c c3d8 88bb aa88 a33b
00000060: cc13 c0bb 4925 6f3a e538 c4bb 01f4 83bb
00000070: 7c95 a63b a35f bab9 197e 9d3b 9a5f 1bbb
00000080: 9379 b43b c549 a13b 6984 b9bb 3f24 aab7
00000090: 71bf 17bb a2b7 4cbb b55a b5bb 0426 873b
000000a0: 7321 a53b 318c b53b c1f7 883b e859 c33b
000000b0: 27a6 93bb d737 c53c 2759 813b c821 cd3b
000000c0: 2224 e83c 71a7 913b f2e5 c43b 676d 123c
000000d0: b59c b6bb ba3c 7cbb 96fd ca3b eaa2 d4bb
000000e0: e086 c53b ee46 70bb 78d0 c9bb 413c c9bc
000000f0: c8fe 223c 8850 b63b 4807 29bb 2cb0 833b
00000100: 6f73 04bb 9fe8 75bb 08fe ca3b 080f 8a3b
00000110: 7cc7 f1bb 8824 0d3c 2b9d f4ba 2377 283b
00000120: e515 43bb ce60 68bb c78d 9d3b 7e43 1fbc
00000130: a881 023c 63bd 87bb b193 83ba 93eb 91bb
00000140: d106 a2ba 3779 9fbb c9ad be3b 0f9d ac3b
00000150: 9877 93ba 61f7 87bb ebcb 8bbb 92c9 9d3b
00000160: 6eb7 32bb 4d95 823a 65c3 a13b 549c ae3b
00000170: 893f dc3b 61f1 9e3b ff8c 79bb a4f2 9fbb
00000180: e1e7 db3a 8484 9c3b 0794 0338 ad51 9abb
00000190: f6f7 483c 6884 a33b b023 a1bb 1eb9 8d3b
000001a0: 9773 88bb bb5a a43b d3d1 123c f33a e03b
000001b0: b934 c03c c7da 7dbb 6cc2 f13a edb8 c6bb
000001c0: 6e3c 0cbd e720 943b 7276 ae3b cfcb a23b
000001d0: 7c85 3cbb a971 273c 1635 8dbb 0edc 29bb
000001e0: 31a7 75bb d0c8 93bb d00a 7dbb e7ab 97bb
000001f0: e4e4 2ebb 7340 8d3c c438 9cbb 3c57 b13b
-0.0059512383 -0.0048583113 0.0035370418 0.0041985465 -0.004138797 0.010146747 -0.008918721 -0.0047352877
0.0102186855 -0.0022710108 0.005505211 0.0063571897 0.0053369217 0.0052551986 -0.0054730875 0.035568118
-0.0040885448 -0.0072078644 0.0050624046 -0.0037192411 -0.0040829666 0.016070904 -0.0041762306 0.004990657
-0.005861735 0.00091226824 -0.0059882277 -0.0040268903 0.005083738 -0.0003554794 0.004806292 -0.0023708106
0.005507657 0.004922124 -0.0056615365 -2.0282458e-05 -0.002315488 -0.0031237383 -0.0055344948 0.004124405
0.005039388 0.0055403938 0.004179925 0.0059616454 -0.004505891 0.024074478 0.0039473954 0.0062601306
0.028337542 0.0044450094 0.006008857 0.008937216 -0.00557288 -0.0038488344 0.0061947806 -0.0064891474
0.0060280412 -0.003666337 -0.0061588846 -0.024564864 0.00994844 0.0055637993 -0.0025791693 0.004018804
-0.0020210405 -0.0037522686 0.0061948337 0.0042132176 -0.0073785167 0.008614667 -0.0018662562 0.0025705777
-0.0029767689 -0.003545809 0.004808161 -0.009720681 0.007965483 -0.0041424497 -0.0010038522 -0.0044531315
-0.0012361651 -0.004866745 0.0058190566 0.0052677463 -0.0011250852 -0.004149363 -0.0042662523 0.004815289
-0.0027269977 0.0009962708 0.004936623 0.0053286944 0.006721441 0.004850552 -0.0038078425 -0.00488122
0.0016777479 0.0047765393 3.1370695e-05 -0.0047094435 0.01226615 0.0049901493 -0.0049175844 0.004325046
-0.00416417 0.0050156987 0.008961159 0.006842965 0.02346264 -0.0038735138 0.0018444783 -0.0060645253
-0.034237318 0.004520524 0.0053241784 0.0049681435 -0.0028766086 0.01021997 -0.004309307 -0.0025918516
-0.0037483687 -0.0045100227 -0.003861118 -0.0046286467 -0.0026686722 0.017242646 -0.004767509 0.0054120105

model.10.running_mean f4 [128]
00000000: 3344 9a3e 0bd7 8d3e dcab 123f e877 ab3e
00000010: 305f c93e e4c9 033f ba94 be3e a0c6 703e
00000020: 13d5 ed3e f6b2 b03e a72b 083f c581 163f
00000030: c3ad 4f3f f654 3d3f 0493 c43e 4267 d23e
00000040: a9b0 d23d ad41 403e a330 403f 1e4f ad3e
00000050: bdea 993d 78ce 023f d331 983e 5446 1e3f
00000060: d7c8 a93e 74e0 b63e 01bd eb3e 30d5 f53e
00000070: cf72 f23e f577 f53e 44e0 f43e 5521 b73e
00000080: 7d80 2b3f 2910 3b3f 6f47 f33e 8925 ab3e
00000090: 1a9a d83e 34f9 033f 05b4 8f3e 4240 bd3e
000000a0: d770 243f 7b72 f03e f722 003f 4bd5 3d3f
000000b0: 5c9f aa3e 5b01 143f 64aa bb3e c92d e53e
000000c0: 39ec f73e 622c 0a3f efa6 0f3f 5e4e 0c3f
000000d0: 20f0 b93e 7315 e33e b621 0f3f d659 bb3e
000000e0: 298b 1d3f 8dd5 b83e 956f d13e 09b1 fd3e
000000f0: ae5c 233f a0d1 113f e815 9c3e cb17 1c3e
00000100: 585d 793e c606 b43e 828c 1e3f e552 633f
00000110: 226b 983e 7eb0 dd3e 4b4b c63e ceec 9e3e
00000120: 2010 da3e 766d 073f 9143 2e3f 2fe7 f93e
00000130: ec1d 1c3f e9ae c43e 094b 0a3f f0e4 b13e
00000140: 316b ad3e abe3 8a3e d915 383f 9959 ac3e
00000150: 4a7a d63e 6f05 2e3e d927 ba3e 35b6 333f
00000160: 69aa df3e 26bc bf3e 91b5 403f 350e b23e
00000170: d8d9 3d3f 96b0 2c3f e61a 273e c3ba 943e
00000180: f5c2 093f ec25 1b3f fa75 093f d5e2 c23e
00000190: 9b3f 113f b7c6 233f 003b e53e fc1b 033f
000001a0: f099 e93e 48c9 e73e 8492 173f 3728 163f
000001b0: f0b5 163f b251 c33e 8fa5 053f 9976 be3e
000001c0: 135b ae3e 372b 293f 67a6 0a3f 0bb3 2b3f
000001d0: 27cb 8b3e 439a 283f 7395 c83e dc21 a83e
000001e0: 4333 f83e 858b a93e 6a44 993e 5a62 933e
000001f0: 9682 b03e b15c be3e 8cb0 c23e 822c 593f
0.30130157 0.27703127 0.57293487 0.3348992 0.39330435 0.51479936 0.37222844 0.2351327
0.46451625 0.34511536 0.5319161 0.5879176 0.81124514 0.73957765 0.38393414 0.41094404
0.102876015 0.18775053 0.75074214 0.33849424 0.07515476 0.51096296 0.29725513 0.6182606
0.3316104 0.3571812 0.46042636 0.48014212 0.47353217 0.47943082 0.4782735 0.35767618
0.6699293 0.73071533 0.47515437 0.33427075 0.4230507 0.5155213 0.28067032 0.36963087
0.6423468 0.46962342 0.5005335 0.74153584 0.33324707 0.5781457 0.36653435 0.44761494
0.4842241 0.5397397 0.56114095 0.5480708 0.36316013 0.44352302 0.55910814 0.36591977
0.61540467 0.36100426 0.40905443 0.4954913 0.6381329 0.5696049 0.30485463 0.15243451
0.24352014 0.35161418 0.6193315 0.8879836 0.29769236 0.43298715 0.3872932 0.31040043
0.42590427 0.529014 0.6807185 0.48809192 0.6098316 0.38414696 0.54020745 0.34744978
0.33870843 0.27126822 0.71908337 0.33662108 0.41890174 0.1699426 0.36358526 0.701999
0.436847 0.37448233 0.7527705 0.34776464 0.7416053 0.6745695 0.16318855 0.29048738
0.53813106 0.6060474 0.5369564 0.38063684 0.5673768 0.6397509 0.44771576 0.51214576
0.45625257 0.45270753 0.5920794 0.58655113 0.58871365 0.38148266 0.5220575 0.37199858
0.3405386 0.66081566 0.5416016 0.6707007 0.2730343 0.65860385 0.3917652 0.32838333
0.4847661 0.33114257 0.29935008 0.28785974 0.3447463 0.37180093 0.3802532 0.8483354
