Lab4/models/gan_models/ls_ha_vbn_50e_250b_dis.pth (torch, 403159 bytes, 22 tensors)

model.0.weight f4 [16, 3, 3, 3]
000000 a8 56 b0 3d cd e2 99 3d ee 82 6a 3d 4f 55 bd 3c
       0.08610278 0.07513962 0.05725377 0.023111967
000010 b6 83 02 3d fd 4f 89 3c 0f 9f 4a 3d 0c 28 34 3d
       0.03186389 0.016761774 0.049468096 0.043983504
000020 f8 7a b3 3c e6 93 c9 bd f4 5b ff bd 00 8a 91 bd
       0.021909222 -0.098426625 -0.124687105 -0.071063995
000030 b9 ee ce bd 00 a7 f9 bd fc 70 b1 bd a5 f7 eb bd
       -0.101041265 -0.12190056 -0.08664128 -0.11521844
000040 4b 50 92 bd 89 2d 01 bd 08 f9 4d 3d eb 80 da 3c
       -0.07144221 -0.031537566 0.050286323 0.026672801
000050 6a bb 37 3d a3 4e 2c 3d 03 14 c1 3c 12 14 77 3d
       0.044856466 0.04206718 0.023569113 0.060321875
000060 35 42 d4 3d db 0e 81 3d 17 0f 4f 3d 4f d6 94 bd
       0.103641905 0.063016616 0.0505515 -0.072674386
000070 40 c5 96 bd 35 44 89 bd df 51 67 bd 85 d0 29 bd
       -0.07361841 -0.067024626 -0.056474563 -0.041458625
000080 5f 5e 74 bd 09 79 48 bd 99 de 7d bd ce 8a 89 bd
       -0.05966031 -0.048943553 -0.061979864 -0.06715928
000090 c4 34 b0 3c e4 f0 49 3c 8a 0c b7 3c a4 e8 80 3d
       0.021509536 0.012325499 0.022344846 0.06294373
0000a0 bb 9e b8 3c 22 9e 42 3d fb 61 0c 3d 7f 41 8e 3d
       0.022536626 0.04751409 0.03427313 0.06946086
0000b0 32 8f 08 3d 43 52 e0 3c aa 4e 98 bc 75 58 30 bd
       0.033339687 0.027382975 -0.018592197 -0.04305311
0000c0 8c 70 d3 3b 85 49 87 bc 09 6d 75 3c 94 dc 77 b9
       0.0064526256 -0.016514549 0.014979609 -0.00023637927
0000d0 e9 55 62 ba 1c 53 5c 3b 17 f0 c4 3c 71 49 37 3d
       -0.00086340174 0.0033618873 0.024040265 0.044747774
0000e0 f0 37 6b bd ec 8f 93 3d 0e b3 77 3d 35 7c b7 bd
       -0.057426393 0.07205185 0.060473494 -0.089592375
0000f0 91 50 a3 3c 41 92 d6 bc fc 7f 0b bd e8 bb 0c 3d
       0.019935878 -0.026192786 -0.034057602 0.03435889
000100 30 5f f0 3c 15 58 5f bd cd b2 11 3e bb 5b 5f 3d
       0.029342264 -0.05452736 0.14228363 0.05453084
000110 d4 e2 9d bd 83 11 8b bc a7 12 86 3c cd 67 58 bd
       -0.0770928 -0.016976124 0.016366316 -0.052833367
000120 a8 88 08 3d 02 0e 0d 3d 25 e3 8a bd f4 70 b0 3d
       0.03333345 0.034437187 -0.06781606 0.08615294
000130 ba a5 29 3d 4b 35 b3 bd f1 77 54 bb cc 7c e9 3b
       0.041417815 -0.08750399 -0.0032420123 0.0071254726
000140 63 57 6f bd 1a ea aa bc b8 1f 2c 3d d2 c0 07 3d
       -0.058432948 -0.020863581 0.042022437 0.033142872
000150 5c 17 85 3c f9 ab fe 3c a1 16 3f bc d4 63 72 bd
       0.01624649 0.031087862 -0.01166311 -0.059177235
000160 0d 2c 98 3c 7c bf cb bc a8 16 86 bb 25 c0 15 bc
       0.018575693 -0.02487158 -0.0040920563 -0.009140049
000170 17 37 85 3a 25 1e a3 ba f4 1a 3c 3c 3f 20 5a bd
       0.0010163513 -0.0012444897 0.0114810355 -0.05325341
000180 71 73 c1 3b b9 bf b6 bb 33 3f 8e bb 1e c9 a4 bc
       0.0059036543 -0.0055770543 -0.00434103 -0.020115431
000190 e6 51 cd bc 19 be 6c bd 75 a8 ee bc 0e 14 a1 bc
       -0.025063466 -0.05779848 -0.029133061 -0.019662883
0001a0 b7 31 c8 bd 84 7f 11 bd b7 c7 8b bc 2c 8e 0b 3c
       -0.09775107 -0.035522 -0.017063005 0.008517783
0001b0 87 99 9b bd 96 3e 70 bd cb 02 d4 bc 03 5b 97 bc
       -0.075976424 -0.058653437 -0.025880238 -0.018476015
0001c0 7f 11 66 bc 23 61 6b bd 7a 50 52 bd 79 a0 57 bc
       -0.014042257 -0.057465684 -0.05134628 -0.013160818
0001d0 60 c4 54 bd e3 fd da 3d ce cd 9a 3d 81 78 b8 3d
       -0.05194509 0.10692956 0.075587854 0.09007359
0001e0 19 8f df 3d 49 97 06 3e 74 5d 08 3d 95 4f 92 3d
       0.109159656 0.13143648 0.03329225 0.07144085
0001f0 68 06 cb 3d 0d 3a 91 3d 78 2a 70 bd 1b d0 03 bd
       0.09913331 0.070911504 -0.05863425 -0.032180887
000200 03 cc da bc ed 66 fc bc 8e 9e 84 bc 89 45 a3 bd
       -0.026708608 -0.030810798 -0.016188886 -0.07972247
000210 15 51 37 bd b1 6b 6e bd d5 2b a4 3c 06 25 2a bd
       -0.04475506 -0.05820817 0.020040432 -0.041539215
000220 b4 3a 54 3d 9e 78 5a 3d e5 f3 ae bd a0 43 94 bd
       0.051813796 0.053337686 -0.08542613 -0.07239461
000230 29 bd 1c 3d 34 ce 5a 3d 66 9e 49 bd 8d 21 cc 3c
       0.038266335 0.053419307 -0.049223326 0.024918342
000240 37 de 08 bd 96 a6 70 bd fd bd 83 3b a7 c8 3d bd
       -0.033415046 -0.05875262 0.004020451 -0.046333935
000250 b9 bf a1 bd e8 10 7a 3d 36 96 ef 3c d0 d6 f0 bc
       -0.07897896 0.06105128 0.02924643 -0.029399306
000260 5c 0a bc 3c d3 16 0e bc aa cd 90 3c 74 50 42 3d
       0.022954158 -0.008672434 0.017676193 0.047440007
000270 46 ce 58 bd d6 25 91 bd 9b 93 1d 3d fa 82 10 3b
       -0.052931093 -0.07087295 0.038470846 0.0022050724
000280 f2 7a 7a 3a 68 61 e2 3c b6 20 8f bd 30 4a 43 b9
       0.00095550634 0.027634338 -0.06988661 -0.00018624286
000290 78 d6 52 3d 8c 37 17 bd 36 3c 55 3d d9 17 e8 39
       0.051474065 -0.036918208 0.052059375 0.00044268256
0002a0 78 66 b9 bd da 6f 5b bd f7 e9 b8 bb f6 b9 b9 3c
       -0.090527475 -0.053573467 -0.005643125 0.02267168
0002b0 ab fc 96 3d bc 6b f1 3d 1c ed 0f 3c 29 d4 05 3d
       0.07372411 0.11788127 0.008784559 0.032673035
0002c0 2d 4b 0f 3d 73 28 8a bc fe 30 1b bd d0 06 59 bd
       0.034983803 -0.01686499 -0.03788852 -0.052985013
0002d0 c2 2e b1 3b a4 e4 f9 3c 0a da a0 3d 9d 2c 07 ba
       0.0054071853 0.030504532 0.07854088 -0.0005156489
0002e0 8a b1 2f 3c 81 f1 da 3c 1f 4b 65 bd 44 35 1a bd
       0.010723481 0.026726486 -0.055979844 -0.037648454
0002f0 4b 81 60 bd 70 b9 83 3c 02 9c 92 3d 1c 40 5c 3d
       -0.054810803 0.016079634 0.071586624 0.053772077
000300 32 1c 37 3d 34 53 ee 3d e0 61 90 bc e1 91 2d 3c
       0.044704624 0.116369635 -0.017624795 0.010593862
000310 3d 2d 9f 3c 55 f2 74 bd 5c f0 ad bc 30 e2 07 3d
       0.019430751 -0.05980142 -0.021232776 0.033174694
000320 05 3a 58 bc 9c 59 86 bb 2d 8a 91 3d 10 dc b6 3b
       -0.013197427 -0.0041000377 0.07106433 0.0055804327
000330 39 74 36 bc 74 7a 59 3c cd c2 2d bd 5a 51 39 bd
       -0.011136108 0.013273824 -0.042422105 -0.0452436
000340 7d 15 a5 bb a1 53 db bb 47 9d fd 3b 7b a5 dc 3b
       -0.005037962 -0.006693319 0.007739696 0.006733594
000350 3c 4f 48 bc ee 3e bc bc 43 2b 65 3b 24 45 59 bd
       -0.012225922 -0.022979226 0.0034968413 -0.053044453
000360 17 fa 1d bd ac 4a b0 bc d0 06 2f 3d e7 e1 df 3b
       -0.038568582 -0.021519981 0.042731106 0.0068323496
000370 0b ac 81 3d e1 5c ae bd ad da 21 bd 86 59 e7 bb
       0.06331643 -0.08513809 -0.039515186 -0.0070602326
000380 63 a7 8e 3c 4f 4c e1 3c 5d 20 15 bc ee e1 2e 3c
       0.0174138 0.027502207 -0.009101954 0.010673983
000390 5b 56 6d 3d fc ff 6a 3d 4e 28 c0 bd 44 1c 79 bc
       0.057943683 0.057373032 -0.093826875 -0.015204493
0003a0 19 cb 8a bc 69 e6 fd bc d9 85 0d bd fe 41 7b 3c
       -0.016942548 -0.030993657 -0.034551475 0.015335558
0003b0 73 e4 ba bb 6b 97 1d 3c d0 27 6e 3d d8 b5 ba bd
       -0.005703503 0.00961862 0.058143437 -0.09116715
0003c0 94 b1 34 3c c8 57 54 3d 07 bc 29 3d a4 5b cf 3c
       0.011028666 0.051841527 0.041439082 0.025312252
0003d0 ce 81 3d bd cb 46 4f 3a a2 47 f3 3c 84 59 ee bc
       -0.04626637 0.00079069723 0.029697243 -0.029095419
0003e0 b2 ab 59 3c 9b 91 56 3c df 3d 6a bb 26 be 4c bc
       0.013285564 0.0130962385 -0.0035742444 -0.012496507
0003f0 f0 8e 02 3d 2c f9 22 bd 8a e7 8f bc a7 48 8c bd
       0.031874597 -0.03978841 -0.017566461 -0.06849795

model.0.bias f4 [16]
000000 ab 1a b7 3c cc 89 0e be 0a 7a c2 bd 71 bd 2e be
       0.022351583 -0.13919753 -0.09495933 -0.17064454
000010 6a 09 43 3d be 89 c3 bd a2 2b ed bd 8c be f2 bd
       0.0476164 -0.095477566 -0.11580588 -0.1185275
000020 1b e1 e3 3c ad a1 27 be c7 c7 a9 bc 05 4e b9 bd
       0.0278173 -0.16370268 -0.020725144 -0.09048084
000030 f9 f9 81 bc a0 40 5c 3d 66 3e 5f be 9f ee db bb
       -0.015866267 0.05377257 -0.21801147 -0.0067117955

model.2.weight f4 [32, 16, 3, 3]
000000 77 c0 50 bc 66 13 17 bd 46 14 4a bd ac 53 3b 3d
       -0.0127412 -0.036883734 -0.04933574 0.045734093
000010 77 25 c3 3d 17 1c 64 3d bd 77 5d bc db c8 be 3d
       0.0952863 0.05569085 -0.013517317 0.09315654
000020 a4 85 d9 bc 5a 83 4c bd d8 ff e0 bc 0e 3a 57 bd
       -0.026552983 -0.049929954 -0.027465746 -0.0525456
000030 7e 40 0c bd c0 ea ad bc e3 18 8f 3c e9 4a 81 bd
       -0.034241192 -0.021230102 0.017467922 -0.06313116
000040 70 6f 30 bd c8 73 48 3c 95 1b bc bc ec e6 5b bd
       -0.043075025 0.012234636 -0.02296237 -0.05368702
000050 b5 ee 9b 3c ab 49 ad bd 12 89 97 bd 26 42 72 3c
       0.019034723 -0.08461317 -0.07399191 0.014786279
000060 ed cf cf bd 61 93 5f bd 75 21 0b 3b 63 d8 3c bd
       -0.101470806 -0.05458391 0.0021229659 -0.0461048
000070 70 db e5 bd 2c 4f 2e bd 6c a4 46 bd 4c 6b 35 bd
       -0.11223495 -0.042555973 -0.04849665 -0.04429178
000080 37 aa 77 bd 6e 4d cd bc b9 88 92 bc 7a cd f2 bc
       -0.060465064 -0.025061335 -0.01788746 -0.029638994
000090 ef 9c cd bc 09 1e a3 bc eb 13 84 3c 67 81 93 3c
       -0.025099246 -0.019911783 0.016122779 0.01800604
0000a0 27 10 b3 bc a9 cc b8 bc 16 2d a6 bb c1 b7 05 bd
       -0.021858288 -0.022558527 -0.0050712926 -0.032645945
0000b0 be 31 ac 3b 64 06 25 bd 96 93 68 3b 45 89 e7 3d
       0.005254953 -0.040289298 0.0035488359 0.11305479
0000c0 e6 33 55 bc 65 9b c4 3c a9 2c b1 3d 35 8b bb 3c
       -0.013012862 0.02399988 0.086510964 0.022893528
0000d0 54 40 ea 3c 39 da 8b 3d 25 4c 2f bd 2b fa 93 bc
       0.028595127 0.06828732 -0.042797226 -0.018063625
0000e0 32 b1 35 bc fc 3f 98 3b 0f a8 c7 bb 72 72 df bc
       -0.01108961 0.0046462994 -0.006093032 -0.027276251
0000f0 2c 11 87 3b 22 f8 af bc e2 c9 37 bc 42 98 49 3c
       0.00412192 -0.021480624 -0.011217566 0.0123043675
000100 00 fc 6c ba cb 5e bf 3c d4 12 b4 39 db c5 64 bd
       -0.00090402365 0.02336063 0.00034346303 -0.055852752
000110 c9 25 52 bd 69 7f a1 3d de 95 c7 bb d0 2f 99 bc
       -0.051305566 0.0788563 -0.0060908636 -0.018699557
000120 7c fa 35 3c 62 7c dd bc 1f 26 bb 3c 73 fc 8e 3c
       0.011107083 -0.02703685 0.022845326 0.017454362
000130 ba 61 67 bd da 4c 45 bd d0 35 14 ba 1f 33 81 bd
       -0.056489684 -0.048168994 -0.00056537706 -0.06308579
000140 9a e1 af bc 2d 56 14 be e0 db fa bc 04 7c 08 bd
       -0.02146988 -0.14485998 -0.030622423 -0.033321396
000150 94 f2 53 3b 02 b2 e2 3d 7c 76 89 3d db 5d bc bc
       0.0032340633 0.110691085 0.06712052 -0.022993973
000160 e5 43 b6 3d cf f4 9f 3d 43 a2 ca 3c 93 24 5e 3d
       0.088996686 0.078103654 0.024735576 0.0542341
000170 07 a4 49 3d 15 c4 c3 3c d2 74 1a 3d b0 bf 28 bc
       0.049228694 0.02389721 0.037709065 -0.010299608
000180 02 e1 32 3d 82 8f 81 bc 6a 23 92 bd 3e 06 ce bb
       0.043671615 -0.0158155 -0.07135661 -0.006287365
000190 83 87 4a bd ff 07 46 bd 77 03 6f 3d 2d 7f b2 3d
       -0.04944564 -0.04834747 0.058352914 0.08715663
0001a0 3f f7 a5 3c 3c c1 f8 bc 2f 32 69 bc 2f 80 95 bd
       0.020259498 -0.030365579 -0.014233156 -0.0729984
0001b0 3d ec c9 bb 48 73 29 bd 07 0d e8 bd d7 9a 32 3d
       -0.006162195 -0.041369706 -0.1133061 0.043604698
0001c0 a4 17 7e bb bf 3a 57 bd db 2c 0b 3b 2d b6 31 bd
       -0.0038771415 -0.05254626 0.0021236453 -0.043386627
0001d0 78 7b b6 bd e7 c7 20 bd e9 1b ca bc d2 29 a1 bc
       -0.089102685 -0.03925314 -0.024671512 -0.019673262
0001e0 ff 3a 64 bc 93 65 fe 3d 90 e7 14 3e 80 fa 66 bd
       -0.013930081 0.124217175 0.14541459 -0.05639124
0001f0 8d f6 a0 3d 42 f9 18 3d 24 c7 98 bd e6 a2 34 bd
       0.07859526 0.037347086 -0.07459858 -0.044100665
000200 58 1f 30 bd 45 7c b3 bc 6f 3d 5d bd 9b 1b 0c bd
       -0.04299864 -0.021909842 -0.054013666 -0.034206014
000210 85 87 04 3d 03 e4 2d 3c ca 78 b3 3c a1 b0 dd bd
       0.032355804 0.010613444 0.021908183 -0.10824705
000220 33 12 d5 bc e4 fb 9c bc ff ff 92 bd c3 37 dc 3c
       -0.026009655 -0.01916308 -0.07177734 0.026882058
000230 9b e1 86 39 c2 34 16 bd 91 dd 5b 3d d5 a2 49 bc
       0.0002572656 -0.036671408 0.0536781 -0.012306889
000240 63 15 5e bd 7c 87 e9 bc 34 b1 ae bd c0 56 8f bc
       -0.054219615 -0.028506987 -0.085298926 -0.01749742
000250 b2 fc 52 bd 87 7f da 3b cc 90 45 bd a7 d2 4a bd
       -0.05151052 0.0066680345 -0.048233792 -0.0495173
000260 0b 38 07 bc 08 48 fc 3d 96 34 f1 3d 41 91 f0 3d
       -0.008253108 0.12318426 0.11777608 0.11746455
000270 5f bb 87 3c 0f d8 2f bd 17 90 d7 bc ca 2d 85 bc
       0.016568838 -0.04293066 -0.026313825 -0.016257185
000280 17 fc 9a bd 17 85 61 bd 4c 85 a5 3a 62 8f 36 bc
       -0.075676136 -0.055058565 0.0012628227 -0.011142584
000290 1a c1 d7 3d 8b ea e6 bc 76 7c 68 bd f6 c2 80 3d
       0.10534878 -0.02818801 -0.05675932 0.06287186
0002a0 0e ac 64 3d be 8b d3 bd 04 5f c9 bc dc 18 83 3c
       0.055828147 -0.10329388 -0.02458144 0.016003065
0002b0 9f 3e 52 bc 28 c4 e7 bc 3d c8 da b9 3f fd 3a bd
       -0.012832313 -0.028291777 -0.0004172939 -0.04565167
0002c0 85 45 c3 bd 3e e4 1b bd d9 79 c0 3c 73 c1 24 bd
       -0.09534744 -0.038059466 0.023495601 -0.04022355
0002d0 2b 6b 1c bd 7d cf 93 bc 94 90 6f bc 5d ee a7 3c
       -0.03818814 -0.018043274 -0.014621872 0.020499403
0002e0 64 9c 68 3d 35 9a a5 3d 0b b5 43 bc 2c 17 03 bd
       0.05678977 0.08086053 -0.0119450195 -0.03200452
0002f0 85 95 84 bd 3d 61 21 3d 55 64 df 3d ae 75 2b 3d
       -0.06473831 0.039399374 0.10907809 0.041860275
000300 28 a1 fd 3b 8a 09 c0 3c 4f 83 a1 bc 8a 12 21 bd
       0.0077401586 0.023442049 -0.019715933 -0.03932432
000310 03 22 6e 3d 62 62 31 bc d8 b9 cc 3d 8e d0 bb 3c
       0.058137905 -0.010826679 0.099963844 0.022926595
000320 50 36 76 3c 6c d5 b7 3d 09 87 c3 3d e3 49 03 bd
       0.015027598 0.08976254 0.0954724 -0.032052886
000330 05 13 83 3d d0 f6 9c 3d c3 15 4f 3d ce 77 4d bd
       0.06400112 0.07664263 0.050557863 -0.050163083
000340 9f e7 ad 3c 3d 30 95 3c 2c 31 89 3b 82 39 8c 3d
       0.02122861 0.018211478 0.00418677 0.06846906
000350 47 1f b1 3c cc b8 8f bc c8 36 fe 3c bc 2c fe 3c
       0.02162136 -0.017544173 0.031031981 0.03102719
000360 93 f9 6b bd 1f 6a 00 bd 73 40 5e 3d 34 5e b5 3c
       -0.05761106 -0.031351205 0.054260682 0.022139646
000370 2d 5f 14 3d df c2 1b 3d ce d0 01 3d 63 e5 4c bd
       0.03622358 0.03802764 0.031693272 -0.050023448
000380 c4 91 0a bc 06 45 b9 3d 96 91 db 3c 41 57 63 bc
       -0.008457605 0.09046368 0.02680282 -0.013875783
000390 37 af 04 3c 66 22 62 bd a3 83 61 bd e0 48 de 3c
       0.008098415 -0.055208586 -0.05505718 0.027134359
0003a0 41 cb c4 3c ec 47 92 3c 1f 38 88 3c 36 82 a0 3c
       0.0240227 0.01785656 0.016628323 0.01959334
0003b0 9b 56 9a 3b 06 a0 ad 3d c9 93 9a 3d be 1b be 3c
       0.004710031 0.08477788 0.07547719 0.023206588
0003c0 29 95 a3 ba 10 0a 96 3d 04 e6 fd bc 65 a2 16 3d
       -0.0012480366 0.07326138 -0.030993469 0.036775965
0003d0 73 12 8f 3c a4 ae 0d 3d 64 30 55 bd 1b 31 ac bd
       0.017464852 0.03459038 -0.052048102 -0.084078036
0003e0 80 7f 8e bd bf 4a 9c bd 8b 3b 82 bd 72 8c 95 bd
       -0.069579124 -0.07631444 -0.06359013 -0.073021784
0003f0 96 35 52 3c 10 4a a4 3c 86 11 92 bd 88 d7 00 3c
       0.012830159 0.020054847 -0.071322486 0.007863887

model.2.bias f4 [32]
000000 15 61 6c bd fb dc d3 bd 8d e7 72 3d 88 a1 87 bc
       -0.057709772 -0.10344883 0.059302855 -0.016556516
000010 6a a2 61 3e 2c 91 4f bd a0 c8 e6 3d 26 6d a6 bd
       0.22034612 -0.050675556 0.11268735 -0.08126287
000020 c4 e8 4a bd 70 e0 31 bd 94 48 d0 bd 85 96 ae 3d
       -0.04953839 -0.04342693 -0.10170093 0.08524803
000030 c9 d8 ab bd c7 ea 24 3e fc c1 83 bd cf 78 8c 3d
       -0.08390958 0.16105185 -0.06433484 0.0685898
000040 7f c2 02 bd 2d 9c cf 3d 6e c3 a7 bd 57 83 43 bd
       -0.031923767 0.1013721 -0.08191572 -0.047732677
000050 e2 9b d8 bc 3e 33 53 3b 0c 1e ae bc bb 72 02 bd
       -0.026441518 0.0032226588 -0.021254562 -0.031847697
000060 e7 fb 30 3e f7 12 09 3d cf c2 ac bd 77 b7 c4 bd
       0.17283593 0.033465352 -0.08435594 -0.09605306
000070 ee 73 93 bd a2 4b 90 bd 21 dd 12 3e 53 70 f5 bd
       -0.07199846 -0.07045676 0.14342166 -0.11984315

model.4.weight f4 [32]
000000 8f 85 78 3f 5e b1 7a 3f b7 78 75 3f 0e 39 75 3f
       0.97078794 0.9792689 0.9588732 0.95790184
000010 eb 94 74 3f a7 59 7e 3f 5e 62 5c 3f e3 7a 7f 3f
       0.9553973 0.9935555 0.86087596 0.99796885
000020 c5 f9 7f 3f 68 8c 7b 3f 09 02 74 3f 20 15 7d 3f
       0.99990493 0.9826112 0.95315605 0.9886036
000030 8c 3e 7f 3f 12 14 7e 3f b1 e5 7e 3f f2 34 75 3f
       0.99704814 0.99249375 0.9956923 0.95783913
000040 6f d8 7f 3f 68 4f 6d 3f 0e a3 5f 3f c8 19 71 3f
       0.99939626 0.9269929 0.87358177 0.94179964
000050 a7 c4 5b 3f dc 29 7d 3f 47 19 6d 3f fd 61 74 3f
       0.8584694 0.98892 0.92616695 0.9546202
000060 27 a5 72 3f 01 ad 6d 3f 24 44 71 3f e8 64 7a 3f
       0.9478325 0.9284211 0.942446 0.9781022
000070 9b dd 77 3f bd 6b 76 3f 26 52 7d 3f e3 db 75 3f
       0.9682252 0.96258146 0.98953474 0.96038646

model.4.bias f4 [32]
000000 b4 36 23 bd 5a c8 8f bd dc c0 b9 3d 93 3b ee 3c
       -0.03984709 -0.07020636 0.09069988 0.029081142
000010 b0 87 77 bd ba c7 ab 3c 3f 8a a2 3c 1e 1d 81 3c
       -0.060432136 0.02096926 0.019841311 0.015760954
000020 13 7d 90 3d 78 91 86 bd 3c 24 0e bd 85 6b ea 3c
       0.07055106 -0.06570715 -0.034702525 0.028615722
000030 d3 dd dd bd d2 7f 21 3d 3d 41 5e bc f5 f3 31 bd
       -0.10833325 0.03942854 -0.013565359 -0.043445546
000040 8c be b2 3d 6b a3 d4 bc 0d 6d a4 bd b5 e4 44 3c
       0.0872775 -0.02595683 -0.08028612 0.012017419
000050 37 45 75 3d a0 c3 9f bc f9 a9 00 3d a6 eb 86 3b
       0.05988046 -0.019502461 0.0314121 0.004117447
000060 71 c4 71 3c 77 33 67 bd 6c 58 1c 3c 1f 87 9b bd
       0.014756308 -0.056445565 0.009542566 -0.07594132
000070 b1 e1 c3 bb d4 a0 72 bd 67 58 24 bd fd 94 3c bd
       -0.0059778322 -0.05923541 -0.04012337 -0.046040524

model.4.running_mean f4 [32]
000000 7c e5 5d bc a6 bd 6b bc 6b 0d 62 3d b3 54 5d bc
       -0.013543483 -0.014388477 0.055188578 -0.013508963
000010 2d 0e 54 3e ce 7a 06 bd 38 fe 06 3e e5 f3 26 3c
       0.20708533 -0.03283196 0.13182914 0.010189985
000020 00 ff 9a bc b5 f5 4e bd 67 f1 51 bc 43 bc 2b 3e
       -0.018920422 -0.050527293 -0.012813902 0.16771035
000030 08 40 17 bc f3 b5 0b 3e 9e 77 87 bd 16 51 55 3d
       -0.009231575 0.13643627 -0.06614612 0.052079283
000040 fa 98 36 bc 48 36 37 3e a7 8f 4e bd 06 1f 83 bc
       -0.011144871 0.178918 -0.050429966 -0.016006004
000050 43 06 0a bd 7c d8 fc 3a 32 a6 ab bb fb 63 1f bd
       -0.033697378 0.0019290592 -0.005238318 -0.03891371
000060 49 c8 19 3e f7 c0 60 3d fa 20 b9 bc ef ed c3 bb
       0.15017809 0.054871526 -0.022598732 -0.0059792916
000070 4e 9f aa bc c0 69 39 bd f5 c3 05 3e 02 ef d4 bc
       -0.020827916 -0.045266867 0.13063033 -0.025992874

model.4.running_var f4 [32]
000000 52 a5 e2 39 3a b3 0e 3c 2a f7 97 3b 78 09 b8 3a
       0.00043229252 0.008709723 0.0046376185 0.0014040908
000010 a4 e0 58 3b 69 3e 0a 3b fb 40 dc 3b 63 88 db 3c
       0.003309288 0.0021094328 0.0067216135 0.026798433
000020 28 c0 59 3b 25 44 b8 3b 27 1a c8 3b c5 26 d5 3c
       0.0033226106 0.005623358 0.006106633 0.026019463
000030 f2 a4 50 3c 31 de ed 3b 29 6f de 3b 19 6b 72 3b
       0.0127346385 0.0072591533 0.0067881537 0.0036990105
000040 ca 8a 22 3b ea 2b 3c 3d cc 0c 6a 3b 83 d9 88 3a
       0.0024801963 0.045940317 0.0035713194 0.00104408
000050 d6 eb 28 3b f6 15 09 3a 2d 87 25 3a 80 bf 2d 3b
       0.0025775335 0.00052294077 0.0006314393 0.0026511848
000060 6f 38 00 3c 4b ec 08 3b 59 33 6b 3b 87 79 67 3b
       0.007825955 0.0020892795 0.003588876 0.0035320239
000070 15 88 e9 3a 53 5c 1f 3b 55 03 ad 3b f4 d6 0e 3b
       0.0017817045 0.0024316504 0.005279938 0.0021795603

model.5.weight f4 [64, 32, 3, 3]
000000 4d e3 c9 3c 40 6d 74 3c 1f cb 8e bd 85 5e 42 3d
       0.024644518 0.014918625 -0.06972336 0.047453422
000010 61 7d 93 bc 2a b4 13 3c c5 a7 41 3c d0 05 d0 bd
       -0.018004121 0.009015122 0.0118197845 -0.10157359
000020 e0 56 c1 bd d0 7f 6c bc 28 4b 06 3d 12 36 78 bd
       -0.09440398 -0.01443477 0.03278652 -0.06059844
000030 65 ba 46 bd 50 c8 e8 bc 38 a5 89 bc 02 8e ee bc
       -0.048517603 -0.028415829 -0.016802415 -0.029120449
000040 9a 16 d0 3c b1 5e 3c bd 2c cf 08 3d 6f 67 c7 3c
       0.025401402 -0.045988742 0.0334007 0.024341313
000050 20 6b 65 3c 9d f3 15 3d ee c1 cf bb 28 b2 93 3c
       0.014002591 0.03660928 -0.006340257 0.018029287
000060 bc 3d 16 3d 6e 67 41 bd 28 62 59 bc f6 26 b6 3c
       0.03667997 -0.04721778 -0.013268031 0.022235375
000070 f2 be 80 bd c3 19 6b bc ea e1 56 3d a5 94 9a 3c
       -0.0628642 -0.014349404 0.052461542 0.018869707
000080 dd 0a 4c 3c df 19 44 bd cb 09 52 bc c8 02 0c 3d
       0.012453762 -0.047876235 -0.012819718 0.03418234
000090 50 17 c2 bb ac d4 20 3d 30 00 f9 3b e5 c6 82 3b
       -0.005923189 0.03926532 0.0075988993 0.003990995
0000a0 f3 27 74 3d 2b 6c e1 bc cd a3 81 3d 00 a4 b3 39
       0.05960841 -0.027517399 0.06330071 0.0003426373
0000b0 01 8a ea bd b7 ce d8 3b d4 a5 47 bd 77 6c 0c bd
       -0.114521034 0.006616439 -0.04874213 -0.034283128
0000c0 8a 96 42 bc 05 68 12 3c b9 e8 b6 bc 76 8c 08 3c
       -0.011876712 0.008935933 -0.022327768 0.00833427
0000d0 93 f3 1e 3d 22 a0 d0 bb 68 bc b2 bc 1d b6 af 3d
       0.03880651 -0.0063667456 -0.021818355 0.08579657
0000e0 b4 bb e1 bc da 9d a1 bd 64 24 07 bd ef 22 ab bd
       -0.027555324 -0.07891436 -0.03299369 -0.083562724
0000f0 ae 11 a6 bd f0 d5 30 bd bd 83 91 bd 52 31 79 3d
       -0.08108841 -0.043172777 -0.07105205 0.06083805
000100 23 eb f2 3d 40 ca 26 3d 51 1c 59 3c d4 cf 25 3d
       0.11861255 0.040720224 0.01325138 0.040481403
000110 1a 50 d3 bc 40 4b 71 3d 72 c5 4d 3d b6 98 82 3d
       -0.025795031 0.058909655 0.050237127 0.063767835
000120 63 29 1e 3d ec 68 fb bb 00 9d 30 3b e5 9a 8f 3d
       0.03861369 -0.00767242 0.0026949048 0.07011966
000130 6d c7 23 3d 2e 33 7f 3d 30 b5 f3 bb f6 95 20 3d
       0.03998511 0.062304668 -0.0074373707 0.039205514
000140 87 4e 0d bd 8a 99 7e 3d 45 c4 36 bc 36 62 d5 3c
       -0.034498718 0.062158145 -0.011155193 0.026047807
000150 b3 5a 7b 3c c8 70 06 bc 49 3f 8d 3c 7c 4a ef 3b
       0.015341449 -0.0082056 0.01724209 0.0073025804
000160 98 d1 9d bd 72 9d 1b bd 3e b8 d6 bc 45 0b 44 3c
       -0.077059925 -0.03799195 -0.0262109 0.0119655775
000170 41 63 ae 3b 89 19 6f bc c1 ae 18 3b 26 e2 93 3c
       0.0053218906 -0.01459349 0.002329752 0.018052172
000180 ff 71 74 bd d6 95 e7 3c 9b b1 88 3b 7a 11 97 bc
       -0.059679028 0.02826969 0.004171563 -0.01844095
000190 ef 0d 71 3c 88 be 52 bd d8 90 7f 3c 14 0b 1e 3c
       0.014712795 -0.051451236 0.015598498 0.009646196
0001a0 e5 fa c0 bc f5 31 2b bc d0 41 53 bd f2 21 ac 3c
       -0.023557136 -0.010448922 -0.051576436 0.02101228
0001b0 ad 81 ab 3d 53 68 9d 3d 1e fc 90 3d b6 53 92 bc
       0.08374343 0.07685914 0.070793375 -0.017862182
0001c0 65 b5 0a bc e3 24 07 3d 14 88 5e 3c 85 7d c7 3c
       -0.008466099 0.032994162 0.013582248 0.024351845
0001d0 4d de 54 3d 51 e7 a0 3c 1d 11 02 bc ac c7 5a 3d
       0.051969815 0.01964155 -0.00793865 0.05341308
0001e0 68 09 1d 3d 9d 51 28 3d 8c 49 1a 3d 82 90 d0 3b
       0.03833905 0.041093457 0.037667796 0.006364883
0001f0 f7 1a b0 bc 8c 10 5f bd 42 75 90 3c 73 1a 2a 3d
       -0.021497233 -0.05445914 0.017634038 0.04152913
000200 35 72 2d 3d 42 08 57 3c d9 14 cb bc 82 a3 b2 3c
       0.042345244 0.013124527 -0.024790214 0.021806482
000210 9d 5c 63 3d 44 7e 6b 3a 01 41 61 3d 64 30 a3 3c
       0.055508245 0.00089833536 0.054993633 0.019920535
000220 7d 50 60 bd 90 82 2f bc 87 20 2f 3d b9 22 1b 3d
       -0.05476426 -0.010712281 0.04275563 0.03787491
000230 82 c0 a7 bc 81 80 bc 3c 52 e9 27 bd 0c d3 78 bd
       -0.020477537 0.023010494 -0.040993996 -0.060748145
000240 56 2d 3b bd 5c 64 1b bd 89 36 b5 bc f5 36 aa bd
       -0.045697533 -0.037937507 -0.022120731 -0.083112635
000250 9a 5e 60 bd 0b 40 61 bc 66 66 2a bd da 3f cb 3d
       -0.05477772 -0.013748179 -0.04160156 0.09924288
000260 18 02 46 3e bc 2a 1b bd 66 48 dc 3c 4d ee f9 bc
       0.19336736 -0.03788255 0.026889991 -0.030509138
000270 04 59 ce bc 72 3c c7 bb 6e e3 79 bd 08 1b 62 bd
       -0.02518893 -0.0060802037 -0.06100791 -0.05520156
000280 69 7f 81 bc 3d a7 8b 3d 0e fc cb 3c 94 0a 8a bd
       -0.015807824 0.068190075 0.024900462 -0.06740299
000290 03 f8 af 39 a8 5d 64 3c d7 ae 1b 3c 1e 47 0c bd
       0.00033563384 0.013938345 0.009502134 -0.03424751
0002a0 c2 91 4b 3c b0 b4 2c bd 30 06 e9 bb 68 35 71 3c
       0.012424888 -0.042164505 -0.0071113333 0.014722206
0002b0 c3 d6 35 ba 4d 04 87 3d bb f8 76 3d 76 dd 1f bb
       -0.0006936604 0.06592617 0.0602958 -0.0024393476
0002c0 eb 64 f7 3d cd df 09 bc e3 d3 81 3d d2 8b c4 3d
       0.120797954 -0.008415175 0.06339242 0.09596981
0002d0 df 80 5e 3b 80 74 3d bb 86 5b 41 bd 16 1a 20 3c
       0.0033951325 -0.002890855 -0.047206424 0.009771844
0002e0 b9 e9 5f bb 78 15 89 bc 40 3d 39 3d 0d ae e6 3c
       -0.003416641 -0.01673387 0.04522443 0.028159166
0002f0 5c 87 54 3b ee 1a 20 bd 54 c1 c3 bc aa 85 29 bc
       0.0032429313 -0.039088182 -0.023895897 -0.010346809
000300 67 c3 95 3c 7c 96 85 bc 6d 37 a7 3d 99 f8 5c 3d
       0.018281652 -0.016307108 0.081648685 0.05394802
000310 c3 d6 0b bd 8f 72 bd bc 6e cc 0a 3d 39 c1 f3 bc
       -0.03414036 -0.023125915 0.033886366 -0.029755222
000320 00 24 03 bc b9 2a 81 3d d3 16 43 3d ba 32 e3 bd
       -0.008004189 0.06306977 0.04762919 -0.1109366
000330 89 0d 0c 3d a8 49 51 3d d6 1e 9d bc 99 92 9e bc
       0.034192596 0.051095635 -0.019179743 -0.019357013
000340 f6 07 44 bd ae be a1 3b 9c c7 4b 3d 98 7c 85 3c
       -0.047859155 0.004936061 0.04975091 0.016294762
000350 2f 8c 2c 39 5c cc 34 3c c0 c2 50 bd 44 a8 5c bd
       0.0001645542 0.011035051 -0.050966978 -0.053871408
000360 1e 73 04 3c 09 2f 14 bd 82 ff 7a bc 05 b5 03 3d
       0.008084087 -0.03617767 -0.015319707 0.032155056
000370 26 a0 b5 bc a3 3b 9f 3d 8b 7b 1d 3d 08 9c 0c bd
       -0.022171091 0.07775047 0.038447898 -0.03432849
000380 4c 13 b8 bc e5 8a 12 bd 44 ea 48 3d 19 3f 02 3d
       -0.022470139 -0.03577699 0.049051538 0.031798456
000390 6a da 93 bc c7 1d 9e 3b 72 1b ca bc a3 7c fa 3c
       -0.018048484 0.004825327 -0.02467129 0.03057701
0003a0 a2 a9 65 3c da 71 c1 bd b8 32 89 bd aa 73 3e bd
       0.014017494 -0.094455436 -0.06699127 -0.046497025
0003b0 53 c6 0d bd db e4 01 bc 2b e8 65 bb 44 15 45 3c
       -0.034612965 -0.007928099 -0.003508101 0.012028996
0003c0 d6 7f a3 3c c1 9d 8d 3d 51 41 97 3d 32 b9 02 ba
       0.019958418 0.06914855 0.07385505 -0.00049867027
0003d0 5b af 0f bd 8d 08 35 bd 04 20 32 bd 77 36 c8 3c
       -0.03507934 -0.044197608 -0.043487564 0.024440033
0003e0 8e 7d 80 3d 25 ed cd 3c ed be 1a 3d 46 1f f4 bc
       0.06273948 0.025137493 0.037779737 -0.029800069
0003f0 b1 2c 03 3c af 46 2e 3d 36 63 f2 3c 72 77 c9 3c
       0.008006261 0.042547878 0.029588323 0.024593089

model.5.bias f4 [64]
000000 3e 8e 7c be d8 d8 6d be b6 c7 5b be e8 98 f6 bd
       -0.24663636 -0.2322725 -0.21462902 -0.12040883
000010 0c 9a ea bd bf 6f 74 bb 86 5b 27 bd 14 bd 63 be
       -0.11455163 -0.0037298051 -0.040858768 -0.22240096
000020 c0 5f aa bd ee 48 4d bd 42 46 29 bd 3a 03 05 be
       -0.08319044 -0.05011838 -0.04132677 -0.12989512
000030 7a 0b 99 bb 65 94 aa bd 49 c1 06 be 9b 08 8e bd
       -0.0046705576 -0.08329085 -0.1315967 -0.06935235
000040 73 d6 34 be cf cc 0b be d9 d9 ad be 68 60 98 be
       -0.17659931 -0.13652347 -0.33955267 -0.29761052
000050 70 5a 0f be 94 82 65 be 43 6f cb bc 90 88 d7 bd
       -0.13999343 -0.22413093 -0.024833327 -0.10524094
000060 52 db 2b be 1c 99 58 be fb 88 15 bc 50 e2 22 be
       -0.16782883 -0.21152157 -0.009126897 -0.15906644
000070 0d a3 ad be a3 96 b7 bd 5c c0 da bd 8e ad 28 be
       -0.3391346 -0.089642785 -0.10681221 -0.16472456
000080 c1 80 1a 3c 3b d5 9d bd 00 82 ce be e3 8c 1c be
       0.009430111 -0.07706686 -0.40333557 -0.15288119
000090 5f d1 95 be 16 96 d1 bd 8d de 1f 3e 20 ca e1 bd
       -0.292613 -0.10233705 0.1561224 -0.110248804
0000a0 21 18 40 be 7b 89 90 bd 19 77 9f bd 98 2d 36 be
       -0.18759204 -0.07057472 -0.07786388 -0.1779083
0000b0 b5 c6 b7 bd a2 09 ec bd ce e6 0d be a9 87 77 bd
       -0.08973447 -0.11525275 -0.13857576 -0.06043211
0000c0 26 ca 81 be c6 97 93 3c cf 0c 02 be 45 2e a5 bd
       -0.2534954 0.018016707 -0.12700199 -0.08065466
0000d0 d6 bf d4 bd 1a 8a 4e be 03 69 65 be 0e 90 5f bd
       -0.10388152 -0.20169869 -0.2240334 -0.05458074
0000e0 b4 38 3e be 2f 2e ea bc 17 7e ec bd 1a fe 1d 3c
       -0.18576318 -0.028586475 -0.11547487 0.009643102
0000f0 f9 62 2d be f4 ba 1b bd b0 e7 7f be 65 86 1d be
       -0.16932286 -0.03802009 -0.24990726 -0.15383299

model.7.weight f4 [64]
000000 25 9c 7a 3f ca ee 79 3f 60 76 6c 3f e6 3d 7e 3f
       0.9789451 0.9762999 0.92368126 0.993132
000010 65 ce 71 3f 85 24 7c 3f 86 c3 63 3f 2a 33 66 3f
       0.9445556 0.98493224 0.8897022 0.8992182
000020 72 4a 6e 3f f0 33 7e 3f bd b7 75 3f cc 4e 7f 3f
       0.93082345 0.99298 0.9598349 0.9972961
000030 8c 07 74 3f 28 83 68 3f 79 18 7e 3f 09 f3 79 3f
       0.95324016 0.9082513 0.9925609 0.9763647
000040 fc 1b 6f 3f ba b0 6d 3f a6 30 7a 3f 76 b2 6b 3f
       0.93402076 0.9284779 0.9773048 0.92069185
000050 e9 c8 64 3f a3 51 4f 3f 5d 1a 7e 3f 38 c0 71 3f
       0.89369065 0.8098394 0.9925898 0.9443393
000060 5e 35 63 3f 88 06 7e 3f e8 90 77 3f f2 22 70 3f
       0.88753307 0.99228716 0.96705484 0.9380332
000070 22 70 75 3f f7 71 7f 3f 68 3d 72 3f 6a d6 7e 3f
       0.95874226 0.9978327 0.9462495 0.9954592
000080 78 dd 7f 3f a0 82 56 3f 91 41 74 3f 01 08 6c 3f
       0.9994731 0.8379307 0.95412546 0.92199713
000090 1f 65 6d 3f 84 50 7e 3f 00 00 80 3f fa 37 7e 3f
       0.92732424 0.9934161 1.0 0.99304163
0000a0 ce 9f 79 3f e6 76 69 3f 08 e8 7d 3f 9b a8 73 3f
       0.9750947 0.9119705 0.99182177 0.95179147
0000b0 13 17 72 3f ee ec 6c 3f 79 b4 62 3f 05 0a 7d 3f
       0.9456646 0.92549026 0.8855663 0.98843414
0000c0 7f 16 70 3f 02 74 6e 3f a5 44 77 3f 9a 87 68 3f
       0.93784326 0.93145764 0.9658912 0.9083191
0000d0 73 40 70 3f 9e 9b 6e 3f db 38 72 3f e1 96 63 3f
       0.9384834 0.93206203 0.94618005 0.889021
0000e0 94 18 69 3f c3 2e 6c 3f 60 28 70 3f 80 3f 61 3f
       0.9105313 0.9225885 0.9381161 0.8798752
0000f0 80 4b 5e 3f d7 0b 5c 3f 9f 1d 79 3f bc 94 7e 3f
       0.86833954 0.85955566 0.97310823 0.994457

model.7.bias f4 [64]
000000 9e 8b fa 3c a7 e4 40 bd de cd 0d bc 8b 19 af 3a
       0.030584153 -0.04709306 -0.00865504 0.0013359053
000010 d6 0f 9a 3d 30 8c 70 bc ae a5 ff bc 0c c5 5e 3d
       0.07522552 -0.014681861 -0.031206932 0.054387137
000020 22 61 77 bd a9 54 99 3c ce 6c 53 bd 37 ab 90 3d
       -0.060395367 0.018717127 -0.051617436 0.07063907
000030 0c 05 8e bd f4 76 05 bd 9d 07 4b 3d b3 e9 4a bc
       -0.06934556 -0.032584146 0.049567807 -0.01238482
000040 7d 2f 92 3d 16 11 9e 3d 7c 12 99 3d 3e 68 a1 bd
       0.07137964 0.07718103 0.07474229 -0.07881211
000050 bc c0 3a 3c ad 07 9c b8 df 1e 26 bd e0 d2 8a 3d
       0.0113984905 -7.4400894e-05 -0.040556785 0.067785025
000060 19 0d de bb 4d 0c b2 bc 46 ae f3 bc 1e cb 58 bd
       -0.0067764637 -0.021734381 -0.029746186 -0.052928083
000070 f4 47 0a bc 68 b9 f5 3a 76 bd 99 3c e6 2f fa 3c
       -0.0084400065 0.0018747272 0.0187671 0.030540418
000080 be 7d 1a 3c 53 47 27 bc e0 ea 81 bb fc 75 39 3d
       0.009429393 -0.010209876 -0.003964767 0.045278534
000090 69 60 0f 3d f1 1f a7 3d a7 d8 f5 3c ca b7 26 3c
       0.035004053 0.08160389 0.030010534 0.010175655
0000a0 2a b6 ef bb 3a 1b 13 bc fe 8c 38 3c a9 32 8c bb
       -0.007315417 -0.008978659 0.011264084 -0.0042785
0000b0 6a b3 ab 3c 2d b4 49 bc a3 79 5e bd d9 20 a9 3d
       0.020959575 -0.012311024 -0.05431522 0.08258218
0000c0 d1 43 59 bd ae fc 23 3d 19 56 54 bc ed d4 05 bd
       -0.05304319 0.040035896 -0.01295998 -0.032673765
0000d0 3e 1e 03 bd 5e e3 51 bd 02 a2 1d 3d 17 ab a5 3b
       -0.032011263 -0.051242225 0.03848458 0.005055796
0000e0 86 d8 41 3d a1 45 7d 3c 61 4a 3d 3d 51 80 e6 3d
       0.047325633 0.015458495 0.04621351 0.11254943
0000f0 25 86 8b 3b 4a 01 b4 bc 1c bf 7b 3d 0f e3 fa bc
       0.0042579346 -0.02197327 0.061461553 -0.030625848

model.7.running_mean f4 [64]
000000 cc da 36 3e 74 7e 33 bc 2e d2 b3 3c f6 b8 f8 3d
       0.17856902 -0.010955442 0.021950807 0.121446535
000010 35 4d 3f 3e 24 07 8b 3e 9c 5e 89 3e 86 f1 6b 3d
       0.18681796 0.27153885 0.26829994 0.05760338
000020 26 de 30 3e a3 17 0e 3e e9 96 8e 3e 61 9f 4a 3e
       0.17272243 0.13876204 0.2784951 0.1978736
000030 0b e0 37 3e 6b 4c 0d 3e aa 9c 5c 3e 4c 30 3c 3e
       0.1795656 0.13798682 0.21544138 0.18377799
000040 67 cb cf 3d e3 74 38 3e 17 7c b5 3d 4c 2a b2 3c
       0.10146218 0.18013339 0.08861559 0.021748684
000050 76 3b 08 3e 7e be 94 3d a5 bc cd 3e 10 af 8d 3d
       0.13303933 0.07262896 0.40182987 0.06918156
000060 49 9f 85 3d 4b 5c 56 3e 1d eb 90 3e fe c6 14 3e
       0.06524522 0.20933644 0.28304377 0.14529034
000070 ba 43 a3 3d 59 85 86 3e 7e bd 14 3e e9 4f e8 3d
       0.07971902 0.2627361 0.1452541 0.11343367
000080 96 5b a3 3e 15 7f 8f 3e 2d ee 46 3e 25 61 d9 3d
       0.31905812 0.28026643 0.19426794 0.10614232
000090 32 b6 3f 3e ad 9a a6 3e b7 d2 d4 3e 1f 5d 6f 3e
       0.18721846 0.32539883 0.41567013 0.23375367
0000a0 c5 ae 87 3d 6a 47 c1 3e 4c 33 90 3e c7 9d b1 3d
       0.066251315 0.37749797 0.28164136 0.08672672
0000b0 2e 47 14 3e c7 84 5a 3e 8c 97 0a 3e 6a d7 25 3e
       0.14480278 0.21339713 0.13534373 0.16195455
0000c0 cf f0 96 bc 30 8e e3 3e 8e 00 7c 3d f6 89 6e 3e
       -0.018425373 0.44444418 0.061523966 0.23294815
0000d0 86 d5 0c 3e ff 19 23 3d d0 c5 ab 3c 63 55 8e 3e
       0.13753328 0.039819714 0.020968348 0.2779952
0000e0 1b 18 88 3d 55 b7 8e 3e c7 06 15 3f 2e a2 b3 3e
       0.06645223 0.27874246 0.58213466 0.3508467
0000f0 a6 60 e2 3d ee 1e 26 3e 96 b7 09 3e d6 81 41 3e
       0.110535905 0.16222736 0.13448939 0.18897185

model.7.running_var f4 [64]
000000 ae 13 25 3f c5 3f f0 3d d0 89 72 3e 49 0c 1d 3e
       0.64483154 0.11730913 0.23685384 0.15336718
000010 bd e1 19 3f a3 fc 16 3f 31 a5 8c 3f 4e 24 50 3e
       0.60110074 0.58979243 1.0987912 0.20326349
000020 01 41 75 3e 9f ec 70 3e bf e0 7f 3e 93 6f 70 3f
       0.23950578 0.23527764 0.24988078 0.9392025
000030 a9 73 fc 3e 0a 67 72 3e 1f 37 7d 3e c4 4b 2a 3f
       0.49306992 0.23672119 0.24728058 0.6652186
000040 e8 7a 21 3e 3a eb 74 3e d6 d0 fc 3e dd 53 32 3e
       0.15769541 0.23917857 0.4937808 0.17414804
000050 f4 58 08 3f 96 30 6d 3e d4 9e 0b 3f 45 ff 42 3e
       0.5326073 0.23163065 0.5453923 0.1904269
000060 af 9c 57 3e 9f 95 b9 3e f4 bd 73 3e e7 e9 f7 3e
       0.21055864 0.36246964 0.2380293 0.4842064
000070 98 86 0d 3f a5 1f ca 3e f8 a9 7c 3e dc 79 4f 3e
       0.552835 0.39477268 0.24674213 0.2026133
000080 2f a4 78 3e 38 2a d7 3e b3 37 ba 3f e7 5e d0 3e
       0.24281381 0.42024398 1.4548248 0.40697405
000090 8c 00 96 3f f0 a9 7b 3f aa 65 a3 3e b6 0a 51 3f
       1.1718917 0.9830618 0.319135 0.8165697
0000a0 5d ef 0f 3e d7 0b e6 3e c8 ee c9 3e 44 45 7a 3e
       0.14056154 0.44930908 0.39439988 0.24440485
0000b0 fa 34 a0 3e 56 2f 1c 3f 8f 82 2f 3e a4 06 67 3f
       0.31290418 0.6100973 0.17139648 0.9024451
0000c0 63 f2 1f 3e 5c 76 b6 3f 33 71 aa 3e b8 d9 bf 3e
       0.15619807 1.425487 0.3328949 0.37470794
0000d0 7d 8c 6e 3e 70 96 cf 3e c8 0f 5e 3e eb 46 16 3f
       0.2329578 0.40544462 0.21685708 0.5870196
0000e0 de 96 49 3e cb d5 9a 3e 0e 8c d9 3f 7f 22 0a 3f
       0.19686458 0.30241236 1.6995866 0.53958887
0000f0 8c f4 95 3e fd 1c a3 3e 92 cd 6d 3f 58 a8 7b 3e
       0.29288137 0.31858054 0.928918 0.24575937

model.8.weight f4 [128, 64, 3, 3]
000000 aa 15 7b bd c0 03 43 bd a7 d6 eb bb 95 54 d3 bd
       -0.061299957 -0.047611 -0.0071972194 -0.10318867
000010 04 e2 f9 bb 3c 5c 5b 3c 02 9f 07 3c 34 28 9a 3c
       -0.00762582 0.01338869 0.0082776565 0.018817998
000020 f1 73 1b 3c 04 07 72 3d 43 4c f8 bc 2a 95 6b bb
       0.009488092 0.059088722 -0.030309802 -0.0035947063
000030 5f 50 31 3d 5c c4 1a bb b5 a5 5c bd 86 ea b6 3d
       0.04328954 -0.0023615574 -0.053868968 0.089314505
000040 e0 5a 84 3c 61 d9 ea bc 6e fe 73 bb 9e 06 92 bc
       0.016156614 -0.028668107 -0.003723051 -0.017825421
000050 68 ea 24 bc 02 48 8f 3d 3d 72 37 ba 8b bb 38 bb
       -0.010065652 0.06996156 -0.0006997919 -0.0028187956
000060 70 4b b8 3b 59 97 a0 bc 0d 95 ce bc 90 f6 84 bc
       0.005624227 -0.019603418 -0.025217557 -0.016230851
000070 b7 57 c2 bd 1f ce 29 bd 5a 0c 02 3d ad 9c bd bd
       -0.094893865 -0.041456338 0.03175006 -0.09258399
000080 34 f4 2a bd 24 13 45 3c af d6 51 bd 74 5d 3a bc
       -0.041736796 0.012028489 -0.05123013 -0.01137482
000090 18 ba 5a bd d6 f4 af bd 75 c9 60 bd 5f 6d 52 3d
       -0.05340013 -0.085916206 -0.054879624 0.051373836
0000a0 b7 4a 8b bb 9b 4c c0 3a 20 85 df 3a 0d 3c 2b 3c
       -0.00425085 0.0014671268 0.0017053224 0.010451329
0000b0 d5 2e de 3a cf c5 07 bd 07 6a c4 bc 93 d6 b1 bc
       0.0016951213 -0.03314763 -0.023976339 -0.021708762
0000c0 06 c7 c7 3c 4d df e1 3c ee 78 db 3c 4b ae 7e bd
       0.024386894 0.027572298 0.026791062 -0.062177937
0000d0 f8 06 48 3c 27 3e d3 bc bd f8 01 3d e8 3c f3 3c
       0.012208693 -0.025786472 0.031731356 0.029692128
0000e0 86 66 d7 3d c7 d0 4a 3c 44 85 8b bd 34 88 9a 3c
       0.10517602 0.012378878 -0.06812528 0.018863775
0000f0 a0 28 1d 3d 66 a9 84 bd 82 88 59 bd 25 27 91 3b
       0.03836882 -0.06477623 -0.0531087 0.004429715
000100 e9 64 a4 bd 21 2c 39 bd 37 0b 86 bc 6e 7c 02 bb
       -0.080270596 -0.0452081 -0.01636277 -0.0019910592
000110 eb af 47 3c 55 f9 32 bd a3 11 cf bc 9a 76 e8 3b
       0.012187938 -0.043694813 -0.025276965 0.0070942165
000120 be 4f 95 bc a9 ba bc 3c c2 4c 38 bc 87 f3 a0 bd
       -0.0182265 0.023038225 -0.011248769 -0.07858949
000130 a4 1d 12 bd 76 e2 01 bd b1 5d f9 bc 81 41 c6 bd
       -0.0356728 -0.03171011 -0.030440183 -0.09680463
000140 f7 e2 96 bd 6b 26 14 be 3d da 86 bd f4 d3 f1 bd
       -0.07367509 -0.1446778 -0.065845944 -0.11808005
000150 01 d0 28 bd 33 96 ae bc 43 1f 13 3d 55 6f d9 bd
       -0.041213993 -0.021311855 0.035918485 -0.10616938
000160 4c d2 3d bd 3a 2d b6 bc 9e a0 87 bd 6f 0d 70 3c
       -0.046343133 -0.022238363 -0.06622432 0.01465164
000170 b8 6c db 3a b8 d0 db bd ce 8a 41 bd 97 06 2f bd
       0.0016740775 -0.10733169 -0.047251515 -0.042730894
000180 3a 0f 39 bc 1c ab 80 bc 8e 8d d0 bc f7 ac 22 3c
       -0.011295134 -0.015706591 -0.025458124 0.009928933
000190 04 6c bb bd 86 d5 e0 bc 34 ae 78 bd 3f 17 d4 bd
       -0.09151462 -0.027445566 -0.060713008 -0.10355996
0001a0 61 33 9a bd 2e a3 a3 bd d5 7e bf bd 3e 05 05 be
       -0.07529331 -0.079901084 -0.09350363 -0.12990281
0001b0 70 0b f9 3c 3e cb c6 3c a0 58 a0 3d ca c2 2d be
       0.030400962 0.024266835 0.07829404 -0.16968837
0001c0 ea b2 4b bd f5 07 c4 bd 12 b1 8a 3a ad 13 67 bd
       -0.049731173 -0.0957183 0.0010581336 -0.05641525
0001d0 cd 25 f4 bc 2d af 88 ba 8e 69 6b bd be 73 d3 3c
       -0.029803181 -0.0010428183 -0.05747371 0.025812026
0001e0 ea c1 8c 3d f1 60 0c bd 00 0d 91 3c ec 1a 71 3c
       0.06872924 -0.034272138 0.017706394 0.014715891
0001f0 ab ac 4c bd 41 c7 9d 3c ba f1 81 bb 0f 45 67 3d
       -0.049969357 0.01926005 -0.0039655836 0.056462344
000200 64 0f 8c 3d e9 de e1 bd a4 f3 a8 bd 81 ee c4 bd
       0.06838873 -0.11028845 -0.08249596 -0.096158035
000210 86 01 11 be c4 bc 99 bd b3 87 37 bd 4c 93 87 3d
       -0.14160737 -0.07506707 -0.044807147 0.066198915
000220 23 82 0c bc a3 2c 57 bc a6 75 5e 3d f6 5d 39 3c
       -0.008575949 -0.013133201 0.054311417 0.011313906
000230 e9 9e ad bc a3 fd 01 bd bf 70 0c bd 68 52 eb 3c
       -0.021193938 -0.031736027 -0.03428721 0.028725818
000240 7f 99 cd 3c b3 fd 18 bc 5e ca 08 bd 56 a0 05 3d
       0.025097607 -0.00933783 -0.033396117 0.03262361
000250 0d 19 9a 3c 2b d3 f9 3b 43 89 96 3c 18 bb de 3b
       0.018810773 0.00762405 0.018375998 0.0067972057
000260 64 5a 48 3c 24 1a 25 be 08 df 52 bd 55 09 05 be
       0.012228582 -0.16123253 -0.05148223 -0.12991841
000270 f5 d1 21 bd 5e 4d 0c 3d e4 69 72 3b ea 8a 60 3b
       -0.03950687 0.03425347 0.0036989385 0.0034262487
000280 4d 44 19 3d 10 a9 11 bc da 85 9b 3c 72 be 8b bd
       0.037418652 -0.008890405 0.018984724 -0.06823434
000290 e9 4d be bb 91 f4 00 be be 0f d9 bd aa 15 89 bd
       -0.0058076275 -0.12593295 -0.10598706 -0.06693585
0002a0 28 59 ac bc e1 6d 27 bd 9d 9d 89 bd bd fa 45 bc
       -0.021038607 -0.040876273 -0.067195155 -0.012083706
0002b0 83 dd 81 3d 1b d5 2e 3d 94 b7 eb 3c 16 15 21 bd
       0.06341078 0.042683702 0.02877406 -0.03932675
0002c0 02 91 02 bd 8d 5a 0b bd 73 ab 98 bc a7 2f 0a bd
       -0.03187657 -0.034021903 -0.01863644 -0.03373685
0002d0 df d3 1e 3d ad d9 92 3b 2e bf 45 3d 42 06 c1 bc
       0.038776275 0.0044815154 0.048278026 -0.023562554
0002e0 2f ca 85 bc c5 d2 07 bc 6c 08 f4 bd 48 a1 dc bc
       -0.01633176 -0.0082899975 -0.11915669 -0.026932374
0002f0 7d e7 c1 bc 3e 8a 92 bd 3e 42 74 bd 53 37 13 bd
       -0.023669953 -0.07155274 -0.059633486 -0.035941433
000300 fd 38 22 3d 50 eb a2 3c 9d 3c b6 3c 4c d9 54 bd
       0.03960513 0.019887596 0.0222457 -0.051965043
000310 94 f8 17 3c bd 48 64 bd 6e 14 a3 3c 4a b2 ae bc
       0.009275574 -0.05573343 0.019907203 -0.02132525
000320 ac 2f 98 3d 17 40 4b bd 4f b7 53 bd 3d 93 9b bd
       0.07430968 -0.049621668 -0.05168849 -0.07596443
000330 3c 8f 91 3d 76 0a 97 bb 17 3a 9a 3c 93 71 a2 bc
       0.07107398 -0.0046094013 0.018826528 -0.019829547
000340 e4 76 ea bb 71 ef 3a bd 25 ff 83 3d a0 c1 99 3c
       -0.007155286 -0.045638505 0.06445149 0.018769085
000350 97 6c dc 3b 35 7b 45 bc f9 b7 c4 bb 89 5c 72 ba
       0.006726812 -0.012053301 -0.0060033766 -0.0009245356
000360 cd 4e ea bc 5d 67 d7 3c 7b b3 ff 3c 7d 58 ed 3a
       -0.028602028 0.026294405 0.031213513 0.0018108037
000370 ff 6b b7 3c db 4e 65 39 d5 a8 68 3a 66 e6 2d bd
       0.022390364 0.00021868518 0.00088752556 -0.042456053
000380 87 b6 bd bd c9 e6 cf 3c 2d df 26 bc 14 b5 17 3c
       -0.0926333 0.025378602 -0.010185045 0.009259481
000390 dd 56 41 3d 36 e0 80 3d 3a f6 11 bd 4e 06 6b 3c
       0.04720198 0.06292765 -0.03563521 0.014344765
0003a0 99 e9 33 bb f7 3d c7 3c 82 a0 0e 3d 5d 4c 0f 3d
       -0.0027452467 0.02432154 0.03482104 0.034984935
0003b0 96 9c 2d bb c6 82 0e be 44 72 3f bd 15 08 c1 bd
       -0.0026491038 -0.13917074 -0.04673983 -0.0942537
0003c0 f9 65 75 bc 15 6f 44 bc 27 3e 1a bd 1c 42 2d 3b
       -0.014977925 -0.011989375 -0.03765693 0.002643711
0003d0 83 ae b5 bd 47 8f 86 bd 0c fb 95 3d 10 c8 8f bb
       -0.08871176 -0.06570297 0.07323274 -0.004387863
0003e0 83 27 40 bb e6 74 1f bd 85 cd 3b bc 7b 27 07 bd
       -0.0029320426 -0.038929842 -0.011462574 -0.032996636
0003f0 8e 6c ad 3c c6 1e 5b bd 9f 91 12 bd 87 cc c2 3d
       0.021169927 -0.053496145 -0.035783406 0.09511667

model.8.bias f4 [128]
000000 8d 63 d5 bd d3 c7 f5 bd 1d 5d f7 bd 69 ec 0f be
       -0.104193784 -0.12001004 -0.12078307 -0.14055027
000010 35 88 02 3b b7 b8 90 bd c9 f6 86 be 1f 45 bb bd
       0.0019917611 -0.070664816 -0.26360157 -0.09144043
000020 a9 f1 c6 bd 85 02 80 3d bb 3a 74 bc b2 ad 3d bd
       -0.09714062 0.062504806 -0.014906581 -0.046308227
000030 1b 7d 44 be 74 ee 82 be dc cb 35 bd 4a 22 08 bd
       -0.19188349 -0.2557255 -0.04438387 -0.033235826
000040 2f c2 91 bd cd 26 24 be 66 3a a0 bd 73 32 46 be
       -0.07117116 -0.16030426 -0.078236386 -0.19355182
000050 13 67 a5 bd b7 63 d5 3d ab b1 a3 bd 36 6e 27 bd
       -0.080763005 0.1041941 -0.07992872 -0.04087659
000060 f8 3e 09 be fc 53 be bd 54 26 c3 bd de 89 84 be
       -0.13402927 -0.092933625 -0.09528795 -0.25886434
000070 e1 f8 f2 bd 8f 85 c7 bd 22 99 b5 bc e4 1b fd 3c
       -0.11863876 -0.09742271 -0.022167746 0.030897088
000080 9a 88 ab bb df 83 09 bd 67 2d a6 bc 80 c8 25 be
       -0.00523479 -0.033573028 -0.020285321 -0.16189766
000090 4e ec ad bd e9 2b 94 3d b0 e8 d8 bd 36 41 81 bd
       -0.08492337 0.07234938 -0.105912566 -0.06311266
0000a0 1f 03 62 be ee 75 bc bd 93 a4 df bd b8 f3 ca bd
       -0.22071503 -0.09202181 -0.10920062 -0.09909767
0000b0 36 ef 83 bc 8f 11 79 3c 96 09 ed bd a3 3a 6c bb
       -0.016105276 0.01520194 -0.11574094 -0.0036045692
0000c0 de ab 99 bd 4b 21 2f be d3 12 87 3c 63 14 cb bc
       -0.07503484 -0.17102544 0.016488468 -0.024789995
0000d0 0e 28 47 bc a7 62 80 bd fc a2 81 bd 77 63 9f bd
       -0.012155546 -0.062688164 -0.06329915 -0.07782643
0000e0 96 80 d0 b9 da 5e 28 be a6 b3 1b be a4 08 42 be
       -0.00039768656 -0.16442433 -0.15205249 -0.18948609
0000f0 b3 15 f9 bc bc ee 01 be c2 ae 00 be be 0a 33 be
       -0.030405855 -0.12688726 -0.12566665 -0.17484567
000100 73 45 e0 bd 63 19 5f be 9d 16 05 3c 68 ec 56 bc
       -0.109507464 -0.21787028 0.008123067 -0.013117887
000110 38 c2 11 be a5 13 a7 3a ee 0d 5e bc 5a 3d 81 bd
       -0.14234245 0.0012746943 -0.013553126 -0.0631053
000120 16 1e a8 bd e2 c1 80 bd 4b 74 99 bc d5 d6 17 be
       -0.082088634 -0.0628698 -0.01873221 -0.14828046
000130 79 e8 ec 3c f2 b1 a6 bd 35 34 25 bb b0 a3 f3 bd
       0.028919445 -0.08139409 -0.002520812 -0.11896455
000140 5c 29 81 be 1e a9 e7 bd 8d 54 34 be 69 a7 83 bd
       -0.25226867 -0.113115534 -0.17610379 -0.06428415
000150 a8 28 d0 bd b1 cc 6a bd 91 8d e5 bd 6d b8 17 be
       -0.101640046 -0.057324115 -0.11208642 -0.14816447
000160 fc c8 da bc 62 b0 ad bd 90 ea 20 bd 2f 21 5d 3c
       -0.026707165 -0.08480908 -0.039286196 0.013496681
000170 db 24 cb bd 3a cf 45 3c 23 65 02 be 2c 8a 66 bd
       -0.09919139 0.012073332 -0.12733893 -0.056284115
000180 60 24 94 bd fd 46 97 3c 8b 56 43 bc bc f2 54 bd
       -0.072335005 0.018466467 -0.011922489 -0.051989302
000190 f0 3e f1 bd 21 9f 6c 3d 84 8d dd bd 6e c0 c8 3b
       -0.117795825 0.057768945 -0.108180076 0.006126455
0001a0 80 7e d1 bd 23 53 73 ba 82 a2 bc bc 1a 88 bc bd
       -0.10229206 -0.00092821027 -0.023026709 -0.09205647
0001b0 b3 dc e4 bd 1a a2 b7 bd 0d ca 64 be d8 2a 2a be
       -0.111749075 -0.08966465 -0.22342701 -0.16617906
0001c0 cb a7 fd bd e4 ed 30 be 80 fd 09 be 86 d8 c4 bd
       -0.123855196 -0.17278248 -0.13475609 -0.09611611
0001d0 4a 44 f7 3b 42 29 a4 bb 27 08 42 bd 38 95 0b be
       0.0075459825 -0.005009801 -0.047371056 -0.13631141
0001e0 2a 12 d1 bd ee d5 67 bd 20 00 a8 bd 39 e0 48 be
       -0.10208543 -0.056600504 -0.08203149 -0.19616784
0001f0 b2 fb 37 be ea 34 25 be 06 51 41 be 85 07 60 bd
       -0.17967108 -0.16133466 -0.18878564 -0.05469467

model.10.weight f4 [128]
000000 8f c8 7e 3f 9a 3e 78 3f e6 23 64 3f c3 f2 7e 3f
       0.9952478 0.9697052 0.89117277 0.99589175
000010 58 eb 70 3f 00 00 80 3f 28 f5 75 3f 5e 58 7f 3f
       0.94109106 1.0 0.96077204 0.9974421
000020 ad 1d 7e 3f c1 58 7d 3f 9f de 60 3f 00 f4 7f 3f
       0.9926403 0.9896355 0.8783969 0.9998169
000030 90 d6 6b 3f d6 51 76 3f 3f 33 63 3f 3b 56 7f 3f
       0.9212427 0.9621862 0.8875007 0.9974095
000040 8a 68 73 3f 6d 9b 70 3f cb 86 7b 3f 9d aa 77 3f
       0.9508139 0.9398716 0.9825255 0.9674471
000050 b1 89 75 3f c8 c0 74 3f 9c 7e 74 3f d3 8f 7a 3f
       0.95913225 0.9560666 0.9550569 0.9787571
000060 35 c6 75 3f 08 55 76 3f 65 08 7a 3f 9f 1d 75 3f
       0.96005565 0.962235 0.9766906 0.95748323
000070 e6 c6 7f 3f 1b 2d 79 3f 24 17 78 3f 0e fa 7f 3f
       0.9991287 0.9733445 0.9691031 0.9999093
000080 8d 2e 7b 3f 50 fc 7f 3f 6a d8 61 3f db 84 7f 3f
       0.98117906 0.99994373 0.88220847 0.99812096
000090 b8 d7 6f 3f 39 42 71 3f 77 38 7e 3f 28 05 7a 3f
       0.93688536 0.9424167 0.9930491 0.9766412
0000a0 c3 60 7c 3f 06 2b 7d 3f cf ec 6b 3f 45 39 6f 3f
       0.98585147 0.98893774 0.92158216 0.9344676
0000b0 17 6d 72 3f 37 dc 73 3f 3f 4d 7f 3f 9a 4b 61 3f
       0.9469771 0.95257896 0.99727243 0.88005984
0000c0 34 a0 7b 3f 26 25 7e 3f 28 5a 70 3f 69 b6 7e 3f
       0.98291326 0.99275434 0.9388757 0.99497086
0000d0 14 b8 74 3f f2 bd 6e 3f 3b 35 7c 3f 3c f9 78 3f
       0.9559338 0.93258584 0.98518723 0.972553
0000e0 b1 65 6c 3f 30 64 67 3f 0a 8b 7e 3f 98 f5 73 3f
       0.9234267 0.9038725 0.99430907 0.9529662
0000f0 29 f0 74 3f 57 2a 71 3f c8 a9 7a 3f 18 05 77 3f
       0.95678955 0.9420523 0.97915316 0.9649215
000100 02 6b 6b 3f 10 b6 7b 3f 00 00 80 3f 9b 41 7f 3f
       0.91960156 0.9832468 1.0 0.9970948
000110 a5 aa 7c 3f 8c 72 7f 3f ed 60 76 3f 14 70 6e 3f
       0.9869788 0.9978416 0.96241647 0.9313977
000120 13 fe 7a 3f 91 41 79 3f 12 fd 79 3f 4d 08 71 3f
       0.98043936 0.9736567 0.9765178 0.9415329
000130 08 c6 66 3f 55 e4 7d 3f bc 36 62 3f c3 11 7f 3f
       0.9014592 0.9917653 0.8836477 0.9963648
000140 f4 62 7f 3f e0 02 77 3f df 6e 7b 3f 6b 92 6e 3f
       0.99760365 0.9648876 0.9821605 0.93192166
000150 f7 5f 73 3f 07 74 78 3f 13 b7 79 3f db b2 79 3f
       0.95068306 0.97052044 0.97544974 0.97538537
000160 66 8a 6e 3f b0 87 60 3f ae 04 6c 3f f7 26 75 3f
       0.9317993 0.8770704 0.9219464 0.9576258
000170 b8 68 79 3f f6 2d 77 3f 8f 97 7d 3f 00 00 80 3f
       0.97425413 0.96554506 0.99059385 1.0
000180 7f b0 6f 3f 6e 14 6c 3f 87 23 79 3f c4 7d 6a 3f
       0.93628687 0.92218673 0.97319835 0.91598153
000190 af 27 66 3f 0d 76 72 3f d1 4f 69 3f cc 68 79 3f
       0.899043 0.9471138 0.91137415 0.9742553
0001a0 5c 32 7e 3f 5e aa 7f 3f 8c c8 7f 3f ec 77 7c 3f
       0.9929559 0.99869335 0.99915385 0.98620486
0001b0 72 22 7f 3f 6a 22 78 3f 1b 87 76 3f 6c 59 7f 3f
       0.99661934 0.9692751 0.96299905 0.9974582
0001c0 28 48 7f 3f 29 94 6e 3f 12 7a 6a 3f eb 4a 75 3f
       0.99719477 0.93194824 0.91592515 0.9581744
0001d0 1b a9 7d 3f a0 1b 6d 3f 56 b1 75 3f 76 eb 71 3f
       0.9908616 0.9262028 0.9597372 0.9449991
0001e0 2f 74 7b 3f 49 0f 7c 3f 3a 72 76 3f 58 f8 63 3f
       0.9822416 0.98460823 0.96268046 0.8905082
0001f0 bc a8 7a 3f 9c f6 6e 3f 23 9a 7f 3f 28 64 7c 3f
       0.9791372 0.93345046 0.9984457 0.98590326
