Lab4/models/gan_models/ls_ha_50e_250b_dis.pth (torch, 403159 bytes, 22 tensors)

model.0.weight f4 [16, 3, 3, 3]
0.078088515 0.034732558 0.05558626 0.016272927 0.068139136 0.051330883 0.025772942 0.026144028
0.000562694 -0.08542762 -0.09537156 -0.017583214 -0.08939925 -0.021718746 -0.008203928 -0.108852215
-0.029029006 -0.030111862 0.007880185 -0.030577611 -0.02048254 0.027228098 0.025542907 0.044464093
0.07521182 0.018821944 -0.0141239315 0.038374376 0.016771331 0.009696136 0.025671242 0.02997244
0.018672304 0.03967121 0.011689805 0.025916105 -0.067014605 -0.06535443 -0.034876388 -0.05199741
-0.07739674 -0.02655113 -0.05688452 -0.020872414 -0.020768484 0.014576985 -0.0339554 -0.053960007
-0.021985538 -0.044602625 0.0045282813 -0.014800096 -0.013912685 0.025609331 0.04779368 0.0028005803
-0.011710705 0.058862977 -0.01159764 -0.016483929 -0.008975298 -0.10008916 -0.042067416 0.035733912
0.020146215 0.035130948 0.09327257 0.018679388 0.03651604 -0.090923645 -0.032960385 -0.030254181
0.05196027 0.015371936 0.02246231 0.08405684 -0.0058132852 0.0079570385 -0.014937666 -0.042714488
-0.046313245 -0.017917594 0.00030288144 -0.0023058944 -0.01879743 -0.065647334 -0.046852335 -0.06716255
-0.031877276 -0.062463805 0.09704609 0.05606073 0.05790463 0.05221959 -0.0022656547 -0.007889454
0.068073764 3.723491e-05 0.008261758 0.036157418 0.009788256 -0.0140627185 -0.02525088 -0.03537497
-0.05500142 -0.0164548 -0.0032157968 0.03146103 -0.055835046 -0.06319145 -0.055352617 -0.030793102
-0.06386083 -0.0713347 -0.061122876 -0.02853785 -0.09409901 0.11615285 0.085108876 0.078078635
0.10741335 0.11737375 0.07175612 0.07590983 0.09519153 0.04712727 -0.0012869724 0.02497812
0.021707889 0.002675336 -0.014717424 -0.03215643 -0.019037217 -0.058887124 0.021194132 -0.08207709
0.027501317 -0.08694418 0.015649363 0.13799335 -0.0063069644 0.036040403 -0.025884837 -0.0072164326
-0.12770647 -0.06903477 -0.09589109 0.010370997 0.10036818 -0.006939969 -0.0060164537 -0.03981732
-0.067119636 -0.010209526 0.043882605 -0.03201013 0.03938931 0.13141085 0.015212198 -0.009417273
0.014781081 -0.018930463 -0.09875739 -0.05335686 0.052213386 -0.05560891 -0.027411444 0.018780407
-0.060810838 -0.03551552 0.013652247 0.05051586 0.040282693 0.022422154 0.13287188 0.01901761
-0.0071138046 0.16375306 0.031514477 -0.091409884 -0.06840887 -0.021952264 0.043548744 -0.030122848
-0.03833896 0.037428465 -0.003206803 0.021185374 -0.0035580744 0.048089113 0.06479588 0.051550616
0.044589136 0.0841968 0.013154681 0.02889452 0.031975105 -0.013244258 0.019914929 0.026037263
-0.019835722 -0.0048738034 0.03043744 0.025389124 -0.0205428 -0.019345192 -0.045984775 0.0044735
0.006557849 -0.006295021 0.01958272 -0.012599992 0.01931489 -0.011282365 0.012613963 -0.020344732
-0.025934694 0.012695567 0.016329965 -0.017853597 -0.036031783 -0.120896965 0.010832591 -0.0004580001
-0.031135252 0.017863551 0.057435244 0.049053654 0.09046488 0.041739848 -0.031721037 0.11973234
0.06801968 -0.009084675 -0.08471317 0.004494428 -0.059749383 -0.006782106 -0.009548772 -0.09556728
0.038557317 0.042058468 -0.025810324 -0.030417219 -0.012679021 0.0217254 0.024046471 -0.014443835
0.021659235 0.026107423 0.07158408 0.032648537 0.0028409534 0.028974477 0.040777884 -0.06582706
00000000: dfec 9f3d ba43 0e3d 6bae 633d cd4e 853c
00000010: 888c 8b3d 5540 523d c721 d33c 002c d63c
00000020: c181 133a adf4 aebd 2a52 c3bd ac0a 90bc
00000030: f416 b7bd 83eb b1bc c569 06bc e9ed debd
00000040: 3dce edbc 27ad f6bc e41b 013c e67d fabc
00000050: 00cb a7bc 760d df3c 5c3f d13c fb1f 363d
00000060: a808 9a3d 7a30 9a3c 1068 67bc 732e 1d3d
00000070: 0864 893c 8bdc 1e3c 7f4c d23c c388 f53c
00000080: a9f6 983c 477e 223d 9986 3f3c 034e d43c
00000090: f43e 89bd 8bd8 85bd 8bda 0ebd 3cfb 54bd
000000a0: 2f82 9ebd c181 d9bc beff 68bd a0fc aabc
000000b0: ab22 aabc 4ed4 6e3c d114 0bbd 2b05 5dbd
000000c0: 041b b4bc 3eb1 36bd fa61 943b 1a7c 72bc
000000d0: 08f2 63bc a9ca d13c 4ec3 433d f189 373b
000000e0: 42de 3fbc 4e1a 713d 0704 3ebc 4e09 87bc
000000f0: 210d 13bc 8cfb ccbd e24e 2cbd b95d 123d
00000100: ad09 a53c 78e5 0f3d b005 bf3d 8405 993c
00000110: d891 153d 2d36 babd 7801 07bd 9ed7 f7bc
00000120: 4bd4 543d 93da 7b3c e102 b83c fe25 ac3d
00000130: 5f7d bebb 3d5e 023c 1dbd 74bc 63f5 2ebd
00000140: f5b2 3dbd ebc7 92bc 0fcc 9e39 7d1e 17bb
00000150: 11fd 99bc 1c72 86bd 3ce8 3fbd 858c 89bd
00000160: bf91 02bd 0cda 7fbd 1ac0 c63d f09f 653d
00000170: 682d 6d3d 35e4 553d 617b 14bb c542 01bc
00000180: 426a 8b3d ae2c 1c38 535c 073c cd19 143d
00000190: ec5e 203c 5167 66bc efda cebc 58e5 10bd
000001a0: 2b49 61bd 37cc 86bc 1ec0 52bb 48dd 003d
000001b0: 4ab3 64bd 856a 81bd 6db9 62bd d141 fcbc
000001c0: 78c9 82bd ed17 92bd fb5b 7abd 36c8 e9bc
000001d0: fbb6 c0bd 8ce1 ed3d 904d ae3d b1e7 9f3d
000001e0: 88fb db3d a661 f03d dff4 923d 9d76 9b3d
000001f0: c7f3 c23d 8608 413d a1af a8ba ea9e cc3c
00000200: bed4 b13c b154 2f3b 5a21 71bc 76b6 03bd
00000210: f0f3 9bbc a033 71bd 519f ad3c 0918 a8bd
00000220: 714a e13c ca0f b2bd 1833 803c 214e 0d3e
00000230: a7aa cebb 1a9f 133d 700c d4bc d377 ecbb
00000240: 7cc5 02be 1a62 8dbd 8c62 c4bd 1deb 293c
00000250: d58d cd3d ae68 e3bb ac25 c5bb 7c17 23bd
00000260: 0576 89bd db45 27bc 3fbe 333d 0e1d 03bd
00000270: af56 213d 9190 063e 953c 793c e84a 1abc
00000280: 592c 723c 0f14 9bbc 5141 cabd b98c 5abd
00000290: b4dd 553d 2bc6 63bd f78d e0bc 5ed9 993c
000002a0: c914 79bd b978 11bd adad 5f3c b8e9 4e3d
000002b0: 77ff 243d aaae b73c 910f 083e d2ca 9b3c
000002c0: eb1a e9bb e2ae 273e 5315 013d 1b35 bbbd
000002d0: f319 8cbd 3cd5 b3bc 2b60 323d 31c4 f6bc
000002e0: 5009 1dbd 974e 193d 3a29 52bb f38c ad3c
000002f0: 952e 69bb 17f9 443d b4b3 843d bd26 533d
00000300: 19a3 363d 5f6f ac3d bb86 573c 33b4 ec3c
00000310: 54f8 023d 72fe 58bc a224 a33c 194c d53c
00000320: 867e a2bc 6db4 9fbb f057 f93c dafc cf3c
00000330: 6049 a8bc cf79 9ebc 885a 3cbd 7096 923b
00000340: 39e3 d63b 7746 cebb f16b a03c 3270 4ebc
00000350: 433a 9e3c abd9 38bc ccaa 4e3c ffa9 a6bc
00000360: ff74 d4bc 1101 503c 6bc6 853c b541 92bc
00000370: 1096 13bd d498 f7bd 2e7b 313c bc1f f0b9
00000380: 5b0f ffbc 9556 923c 3841 6b3d 7cec 483d
00000390: a745 b93d 67f7 2a3d ebed 01bd 3b36 f53d
000003a0: e74d 8b3d e4d7 14bc 197e adbd ff45 933b
000003b0: c5bb 74bd 6e3c debb 7472 1cbc c7b8 c3bd
000003c0: 47ee 1d3d 8045 2c3d 2c70 d3bc 882d f9bc
000003d0: abbb 4fbc 77f9 b13c 1bfd c43c d6a5 6cbc
000003e0: b56e b13c 3cdf d53c ad9a 923d 79ba 053d
000003f0: 4a2f 3a3b e25b ed3c b606 273d 56d0 86bd

model.0.bias f4 [16]
0.03804579 -0.18565245 -0.0722269 -0.111055076 -0.10925083 -0.020993536 0.05115109 -0.24748492
0.03784544 -0.029881872 -0.17872085 -0.010166515 0.0840701 -0.031584144 -0.16155796 -0.045013826
00000000: e7d5 1b3d ad1b 3ebe b2eb 93bd d870 e3bd
00000010: e6be dfbd a3fa abbc ce83 513d b06c 7dbe
00000020: d203 1b3d d4ca f4bc 9902 37be 7491 26bc
00000030: f22c ac3d 605e 01bd 736f 25be 6b60 38bd

model.2.weight f4 [32, 16, 3, 3]
-0.027820937 -0.07128122 -0.028787281 -0.00457939 -0.006602083 0.020652367 -0.010369759 0.02324403
-0.039484244 -0.010762291 -0.022653691 -0.004021686 -0.028880492 -0.07059945 -0.038627822 -0.060923815
-0.1116329 -0.04929728 0.014260389 0.042350564 0.01874211 0.033926737 0.013721769 0.013398852
-0.020744456 -0.018875865 -0.05125932 0.0054452727 -0.018419748 0.013732448 -0.013542633 0.07683623
0.030836916 -0.0499174 -0.008938183 -0.014136947 -0.030083386 0.028161447 0.002718439 0.026655007
0.048473768 -0.011915238 -0.04826711 -0.0148896435 -0.04348105 0.0048638512 -0.012002003 -0.03503614
-0.03848503 -0.02137866 0.025800012 0.0028295943 0.063059926 -0.027996095 -0.032125782 0.004211272
0.065493196 -0.023858704 0.030857088 0.11166838 -0.07177568 -0.036047176 0.058725648 -0.011987098
-0.03986965 0.06990946 0.02767572 0.011346474 0.061864916 0.009166839 -0.03976862 0.05864349
0.03384853 0.077002786 0.066970095 -0.0010428135 0.050995447 0.04758633 -0.03051783 0.057268243
-0.012375466 -0.023327377 -0.0050522876 -0.017025424 0.019183293 -0.027863193 0.011914833 0.033819344
-0.046786174 0.028589835 0.012025677 -0.026537374 -0.006619281 0.011120219 0.044803973 0.0041265055
0.013557087 0.02356052 -0.058022913 0.1259177 0.010143591 -0.06331616 0.15359786 0.07616107
0.0037787328 0.15633306 0.14169197 0.06045713 0.011250199 -0.023476515 -0.12499748 0.038357764
-0.062363327 -0.12401682 0.0055348217 -0.048073944 -0.1395015 -0.02590518 -0.0051291776 0.112785526
0.04130695 0.06027828 0.052460592 -0.04295007 -0.008873762 0.04466919 -0.08007195 0.0014328106
0.002409294 -0.032000996 0.06803019 0.05254963 -0.033888344 0.004077778 -0.0050868522 -0.00534709
0.08177784 0.002005252 -0.032971624 0.0007405592 0.0126786055 -0.01512143 -0.012360016 -0.03586859
-0.016857589 -0.025520535 0.028418072 0.010172198 -0.0857777 0.05614026 -0.019501979 -0.07565382
0.061334252 -0.038576283 -0.026251664 -0.0031956395 -0.03733038 -0.041252855 -0.0068749334 -0.025816228
-0.03515604 0.003972287 0.031588595 0.025135443 0.08854764 -0.025163993 0.011260778 0.04202249
0.02694744 0.03451066 -0.027541356 -0.01528419 -0.011825996 -0.055867985 0.01672631 -0.009559522
-0.08293679 -0.051703468 0.030147353 -0.0608276 0.052420337 0.039263643 -0.0077903904 0.06438284
0.030787444 0.023379266 0.07010716 0.043428127 0.008871344 -0.006242548 -0.021534039 0.03766584
0.0015417569 -0.003847898 0.04642781 -0.026141305 -0.01732647 -0.019053796 0.04513859 0.06694003
-0.06717902 0.061533567 0.1307842 -0.06716945 0.051378053 0.11622111 0.023169018 -0.019191777
0.0022880808 -0.05918501 0.0047882255 -0.013364466 -0.042710867 -0.01600206 0.0051944726 -0.005291045
-0.013644463 0.05488225 0.08684438 -0.0031587982 0.095785126 -0.0047152108 0.017593965 0.028868819
0.009958716 0.019500714 0.027955074 -0.016909247 -0.029510215 0.023021987 -0.004798581 -0.021397851
0.049423605 0.009589589 0.0022368135 0.01319577 -0.002790354 0.01583953 -0.04078801 -0.05540609
-0.03810704 0.006357685 -0.045771953 -0.40802395 -0.08636517 0.10428679 -0.3688711 -0.08490883
0.071605615 -0.38238198 -0.10346372 0.07939607 -0.036230274 0.012088497 0.008820775 -0.006104121
00000000: bce8 e3bc e3fb 91bd 4ed3 ebbc b50e 96bb
00000010: 4956 d8bb 272f a93c ece5 29bc 446a be3c
00000020: 3bba 21bd 5254 30bc 3c94 b9bc 59c8 83bb
00000030: c896 ecbc 7296 90bd 3538 1ebd 408b 79bd
00000040: ca9f e4bd f2eb 49bd 68a4 693c c977 2d3d
00000050: 0e89 993c c3f6 0a3d 45d1 603c dc86 5b3c
00000060: 47f0 a9bc 8fa1 9abc 4bf5 51bd 426e b23b
00000070: 03e5 96bc 10fe 603c ebe1 5dbc 505c 9d3d
00000080: b39d fc3c 3076 4cbd 7571 12bc a79e 67bc
00000090: 6f71 f6bc d6b2 e63c d727 323b 9a5b da3c
000000a0: 6e8c 463d 2138 43bc bcb3 45bd b1f3 73bc
000000b0: 2f19 32bd f160 9f3b 0da4 44bc 0e82 0fbd
000000c0: 7ba2 1dbd 4d22 afbc 8c5a d33c b770 393b
000000d0: 9025 813d 1158 e5bc 5396 03bd b6fe 893b
000000e0: 4c21 863d 5473 c3bc 01c8 fc3c 64b2 e43d
000000f0: 21ff 92bd 34a6 13bd 4e8a 703d 8865 44bc
00000100: 5c4e 23bd b12c 8f3d 31b8 e23c 90e6 393c
00000110: 1166 7d3d 8230 163c 6ce4 22bd 2834 703d
00000120: c2a4 0a3d a3b3 9d3d 9e27 893d 04af 88ba
00000130: 9ae0 503d e2e9 423d 8700 fabc 1b92 6a3d
00000140: 77c2 4abc 0e19 bfbc a98d a5bb e778 8bbc
00000150: 4826 9d3c 5a41 e4bc 6f36 433c 2786 0a3d
00000160: dca2 3fbd 3b35 ea3c 5807 453c e864 d9bc
00000170: 8ee6 d8bb 9431 363c 5f84 373d a337 873b
00000180: 8b1e 5e3c fe01 c13c 6fa9 6dbd 92f0 003e
00000190: 4e31 263c e7ab 81bd c248 1d3e 56fa 9b3d
000001a0: 9ea4 773b c615 203e b317 113e e5a1 773d
000001b0: c152 383c d251 c0bc aefe ffbd 081d 1d3d
000001c0: b070 7fbd 88fc fdbd 735d b53b 2fe9 44bd
000001d0: 7bd9 0ebe 1a37 d4bc a912 a8bb 19fc e63d
000001e0: 7a31 293d 5ce6 763d ebe0 563d 6aec 2fbd
000001f0: 4163 11bc 0af7 363d c3fc a3bd 25cd bb3a
00000200: 3fe5 1d3b 7a13 03bd 6a53 8b3d 483e 573d
00000210: 81ce 0abd e29e 853b 9caf a6bb a436 afbb
00000220: 247b a73d 8c6a 033b 410d 07bd 1622 423a
00000230: edb9 4f3c e0bf 77bc aa81 4abc f1ea 12bd
00000240: ed18 8abc 7110 d1bc 04cd e83c 4aa9 263c
00000250: 38ac afbd 54f3 653d 9dc2 9fbc 64f0 9abd
00000260: a039 7b3d 2a02 1ebd bb0d d7bc ef6d 51bb
00000270: bee7 18bd c1f8 28bd 1f47 e1bb 8e7c d3bc
00000280: c8ff 0fbd f529 823b 0b63 013d d8e8 cd3c
00000290: 7758 b53d b824 cebc 207f 383c c61f 2c3d
000002a0: e1c0 dc3c 0d5b 0d3d 699e e1bc 8a6a 7abc
000002b0: d3c1 41bc d4d5 64bd 9d05 893c 8b9f 1cbc
000002c0: c4da a9bd 04c7 53bd 95f7 f63c 5d26 79bd
000002d0: b5b6 563d ead2 203d 8846 ffbb 27db 833d
000002e0: f335 fc3c e085 bf3c 5894 8f3d b1e1 313d
000002f0: 1d59 113c 4a8e ccbb 2768 b0bc 7f47 1a3d
00000300: c714 ca3a 042d 7cbb 162b 3e3d 4a26 d6bc
00000310: 3ef0 8dbc b516 9cbc 3ee3 383d db17 893d
00000320: 2795 89bd 9f0a 7c3d 4bec 053e 2390 89bd
00000330: cb71 523d 5505 ee3d f4cc bd3c 1338 9dbc
00000340: a0f3 153b fb6b 72bd 8ce6 9c3b a2f6 5abc
00000350: 97f1 2ebd c116 83bc 6536 aa3b 8160 adbb
00000360: 078d 5fbc 36cc 603d 77db b13d d703 4fbb
00000370: fe2a c43d 0e82 9abb 3821 903c 4d7e ec3c
00000380: e229 233c f6bf 9f3c 0a02 e53c 4385 8abc
00000390: 68bf f1bc 9b98 bc3c 6a3d 9dbb 8c4a afbc
000003a0: 6870 4a3d a71d 1d3c 8197 123b 1233 583c
000003b0: 5fde 36bb e7c1 813c 5411 27bd 7ff1 62bd
000003c0: 2116 1cbd 2154 d03b 5f7b 3bbd 84e8 d0be
000003d0: 39e0 b0bd 5094 d53d acdc bcbe aee4 adbd
000003e0: f7a5 923d 92c7 c3be c9e4 d3bd 689a a23d
000003f0: 3266 14bd d50e 463c 0385 103c 1405 c8bb

model.2.bias f4 [32]
0.06444177 0.045130413 -0.020311465 -0.052462462 -0.05909448 -0.027520929 0.14858533 -0.06727016
0.039052363 -0.045946606 -0.030089526 -0.04698595 0.031148896 -0.05899803 -0.06719477 0.020169806
0.11234715 0.22425404 -0.033598788 -0.014306048 -0.060746808 -0.076653264 -0.06672729 0.025027184
0.0056428425 -0.045910385 -0.060966 0.09550255 0.17637648 -0.07095931 0.04871513 -0.065541096
00000000: 0cfa 833d abda 383d 3b64 a6bc e1e2 56bd
00000010: 0e0d 72bd 9273 e1bc c126 183e f0c4 89bd
00000020: 5ff5 1f3d 8232 3cbd 4f7e f6bc 5774 40bd
00000030: f82b ff3c eba7 71bd 699d 89bd 263b a53c
00000040: 4316 e63d daa2 653e e29e 09bd ea63 6abc
00000050: a5d1 78bd 63fc 9cbd 51a8 88bd cf05 cd3c
00000060: 98e7 b83b 870c 3cbd 7cb7 79bd d796 c33d
00000070: 099c 343e 1d53 91bd 8489 473d 693a 86bd

model.4.weight f4 [32]
0.9397505 0.99436784 0.87472886 0.960384 0.99160904 0.94441915 0.899382 0.9921587
0.9940135 0.8825712 0.99510205 0.9795228 0.96819717 0.9869872 0.96028554 0.8873167
0.99988806 0.9407581 0.9978967 0.99443156 0.9765606 0.9526139 0.88604784 0.9361348
0.8038717 0.98864627 0.9916855 0.98541754 0.9998663 0.99311215 0.94331896 0.9926905
00000000: 7d93 703f e48e 7e3f 3bee 5f3f badb 753f
00000010: 17da 7d3f 74c5 713f e63d 663f 1dfe 7d3f
00000020: ab77 7e3f 30f0 613f 02bf 7e3f 02c2 7a3f
00000030: c5db 773f 31ab 7c3f 46d5 753f 3027 633f
00000040: aaf8 7f3f 86d5 703f 2876 7f3f 1193 7e3f
00000050: e0ff 793f 81de 733f 08d4 623f 88a6 6f3f
00000060: 89ca 4d3f ec17 7d3f 1adf 7d3f 5344 7c3f
00000070: 3df7 7f3f 993c 7e3f 5a7d 713f f720 7e3f

model.4.bias f4 [32]
-0.030868793 -0.039342202 -0.006986874 0.09916754 -0.07438948 -0.06552333 0.0614685 -0.0758175
-0.115167744 0.070987575 0.0661838 -0.0028659257 0.12580657 0.01363584 0.026897602 -0.08135329
0.0013770526 0.02492875 0.13414216 -0.021054441 -0.05286348 0.0069487137 0.050736308 -0.022443283
0.05947786 0.05122441 -0.0102249095 -0.1041099 -0.004244488 -0.00626559 0.012908899 -0.10204492
00000000: 8de0 fcbc 4a25 21bd 26f2 e4bb 5a18 cb3d
00000010: 8359 98bd 1831 86bd 65c6 7b3d 3546 9bbd
00000020: 11dd ebbd ef61 913d 5f8b 873d 41d2 3bbb
00000030: 70d3 003e dc68 5f3c 5c58 dc3c 8e9c a6bd
00000040: 387e b43a 6137 cc3c 905c 093e 5d7a acbc
00000050: 6087 58bd 09b2 e33b e0d0 4f3d fada b7bc
00000060: 0e9f 733d b0d0 513d 6186 27bc 9237 d5bd
00000070: 5915 8bbb 944f cdbb d97f 533c edfc d0bd

model.4.running_mean f4 [32]
0.06383894 0.10958787 0.004960404 -0.007954449 -0.03467822 -0.003976886 0.17517404 -0.026602568
0.037013113 -0.024650516 -0.011239547 -0.0387395 -0.0067668874 -0.02161383 -0.00068764517 -0.01064935
0.11214848 0.27682367 -0.0082285395 -0.024460763 -0.038381737 -0.021779956 -0.009709649 0.018096872
-0.0039836867 -0.00820205 -0.009379612 0.09445196 0.19937088 -0.029311417 0.08452994 -0.0172044
00000000: fdbd 823d 9b6f e03d e28a a23b 6153 02bc
00000010: c00a 0ebd 8a50 82bb d360 333e a1ed d9bc
00000020: 109b 173d e1ef c9bc 1426 38bc 4fad 1ebd
00000030: c4bc ddbb 7d0f b1bc 1643 34ba 9c7a 2ebc
00000040: 1aae e53d d5bb 8d3e ffd0 06bc f061 c8bc
00000050: 2b36 1dbd e16b b2bc 3815 1fbc e43f 943c
00000060: 9689 82bb e461 06bc f2ac 19bc 0770 c13d
00000070: e127 4c3e 7f1e f0bc 081e ad3d 3ef0 8cbc

model.4.running_var f4 [32]
0.0014887075 0.005812017 0.0017265005 0.0031510952 0.0009349055 0.0010242446 0.00551955 0.004671553
0.0028815034 0.0018593627 0.0019813806 0.0018128237 0.0006456978 0.0037097926 0.00033582823 0.002083412
0.0024302695 0.006378805 0.0005846837 0.0006120006 0.0011860618 0.00048118157 0.00036181565 0.0006364431
0.00041614549 0.00048713718 0.00061446184 0.0022713642 0.0021463311 0.00014543414 0.0014407892 0.0039340938
00000000: bc20 c33a bb72 be3b be4b e23a 9b82 4e3b
00000010: 7214 753a f23f 863a 57dd b43b d413 993b
00000020: 9bd7 3c3b dcb5 f33a 0dda 013b 459c ed3a
00000030: 0c44 293a fe1f 733b 1a12 b039 da89 083b
00000040: 2845 1f3b 4b05 d13b 7545 193a aa6e 203a
00000050: a175 9b3a 1947 fc39 13b2 bd39 f9d6 263a
00000060: 1a2e da39 7266 ff39 d613 213a 2bdb 143b
00000070: 76a9 0c3b ae7f 1839 ddd8 bc3a 92e9 803b

model.5.weight f4 [64, 32, 3, 3]
0.006591101 0.08508427 0.0137468735 -0.035682693 -0.03788677 0.020654153 0.018851077 -0.07317183
0.019914981 -0.0435336 0.03790104 -0.033328988 0.02324259 0.04098666 0.014109447 0.034778625
-0.059126586 -0.09311949 -0.025562014 0.030711273 0.0525961 -0.05082582 0.01631601 0.031198632
-0.0010087456 -0.009587544 0.009822031 0.013317203 -0.047516707 0.01512391 0.04179333 0.024682015
0.02421981 -0.006378155 -0.067051135 -0.0122200735 0.056790177 -0.006051853 -0.018980032 0.014302783
-0.027593512 0.0033880833 -0.06804876 0.025418276 -0.0064317333 0.02430934 -0.00036813924 0.025386054
0.033808157 0.008323534 -0.003611735 0.013162082 0.002584587 0.063711494 -0.005217743 -0.03981758
-0.06995566 -0.019900236 0.024672352 -0.086839356 -0.019115541 0.07192168 -0.036682736 -0.01625697
0.016418375 -0.01639238 0.004018291 0.023383077 -0.0202174 0.038190063 0.0066278353 -0.01700163
0.007039269 -0.029155208 0.017856218 0.060271773 0.08070807 0.06938522 -0.032372683 0.032883573
0.13826889 0.037405882 0.020928541 0.033638183 -0.05706726 -0.016760789 0.0074090525 0.021202166
-0.07806802 0.010569022 -0.043723773 0.004294849 -0.01694903 0.03193272 0.04200711 0.035912957
-0.030290104 -0.05279292 -0.08831983 -0.06499318 -0.053461827 -0.035487723 0.027082179 -0.010779042
0.031276826 -0.006220803 -0.016415244 0.055013724 -0.002884882 -0.057130873 -0.023168795 0.032148626
0.0077737705 -0.016683763 -0.06699761 -0.02192662 0.0471968 -0.027094482 0.045507893 -0.050520048
0.047331855 0.11570998 0.077868566 0.018016292 0.042071223 -0.009356902 0.04346301 0.038479887
-0.072468646 0.015454953 -0.06786314 -0.095453575 0.04625689 0.05300521 0.023711937 -0.03360072
-0.029640857 -0.031581435 -0.024772212 0.0013425548 0.041278996 -0.0317251 -0.022458112 0.018186685
0.112193644 -0.020210436 0.03599288 -0.028287157 -0.061277196 0.016934995 0.041592807 0.009354064
-0.1215247 -0.0138751175 -0.014434605 -0.05391166 0.0013067911 0.043420725 -0.046998147 0.028844193
0.023767618 0.017705455 -0.009565535 -0.0286726 -0.0694323 -0.016974155 0.07782331 -0.03311596
0.052679144 0.0058759274 -0.0743032 -0.009542317 -0.07716588 -0.03253638 0.029297557 -0.050172213
-0.02736073 0.0230789 0.0006504412 -0.0514179 -0.068422094 -0.018062871 -0.08911442 0.036964197
0.03236695 -0.049051292 0.020509332 0.09944251 -0.010571363 -0.05429479 0.011947541 0.033971686
-0.06463451 -0.033252805 0.11387037 -0.05683885 0.012418285 0.084110126 -0.14038408 -0.017556712
-0.12465349 0.13631582 0.08456223 -0.07191421 0.0057897572 0.032981176 -0.045526166 -0.045545295
0.0007410559 0.025514232 -0.002544114 0.03596333 0.06804847 -0.011232107 -0.015002604 0.06432189
0.0050485083 0.014672588 -0.0756756 0.07948311 -0.041521735 -0.056457017 0.060321555 -0.019707412
-0.08163386 -0.031826988 -0.099722095 -0.10408276 -0.018339936 -0.09670067 0.051437672 -0.03246805
-0.041919082 -0.05043035 -0.045121904 0.038648162 0.034543827 0.0012580308 0.069171056 0.03804234
-0.0099128885 0.038634155 0.0693242 0.05356879 -0.015873067 0.056421723 -0.014358599 0.003250301
-0.042771507 0.042129103 -0.042205226 0.06664016 -0.0026753328 0.06824459 0.088543065 -0.06305328
00000000: 2afa d73b a940 ae3d 913a 613c 0428 12bd
00000010: 282f 1bbd e632 a93c 936d 9a3c 1ddb 95bd
00000020: be24 a33c 4a50 32bd 1f3e 1b3d fa83 08bd
00000030: 3e67 be3c a1e1 273d 4f2b 673c 0874 0e3d
00000040: b82e 72bd 6eb5 bebd 6e67 d1bc 3596 fb3c
00000050: 026f 573d bc2e 50bd 27a9 853c 4694 ff3c
00000060: e337 84ba 1315 1dbc 95ec 203c 6630 5a3c
00000070: e1a0 42bd 47ca 773c 7c2f 2b3d f031 ca3c
00000080: 9f68 c63c d8ff d0bb 1b52 89bd b436 48bc
00000090: d19c 683d 9f4e c6bb 037c 9bbc 3856 6a3c
000000a0: ca0b e2bc 9b0a 5e3b 265d 8bbd fd39 d03c
000000b0: 4ac1 d2bb 6224 c73c d002 c1b9 6af6 cf3c
000000c0: 6c7a 0a3d 6f5f 083c dcb2 6cbb c6a5 573c
000000d0: 2d62 293b 2c7b 823d 9af9 aabb c217 23bd
000000e0: ea44 8fbd d205 a3bc ac1d ca3c d5d8 b1bd
000000f0: 3298 9cbc ac4b 933d a340 16bd 562d 85bc
00000100: d47f 863c 5049 86bc deab 833b de8d bf3c
00000110: f69e a5bc 2f6d 1c3d 502e d93b 0147 8bbc
00000120: aba9 e63b e7d6 eebc 3447 923c 89df 763d
00000130: 464a a53d d719 8e3d 3899 04bd edb0 063d
00000140: 5c96 0d3e e936 193d 5572 ab3c 31c8 093d
00000150: 5cbf 69bd ec4d 89bc a3c7 f23b 2ab0 ad3c
00000160: 20e2 9fbd b129 2d3c b317 33bd cebb 8c3b
00000170: b1d8 8abc e2cb 023d a60f 2c3d 7719 133d
00000180: f422 f8bc 643d 58bd 07e1 b4bd 251b 85bd
00000190: cafa 5abd 935b 11bd 72db dd3c 949a 30bc
000001a0: 211c 003d e1d7 cbbb 4379 86bc 1256 613d
000001b0: 4a10 3dbb 1002 6abd 7ccc bdbc 47ae 033d
000001c0: 1dbb fe3b 63ac 88bc 0b36 89bd 749f b3bc
000001d0: 6f51 413d 3ff5 ddbc 7c66 3a3d 1cee 4ebd
000001e0: 0cdf 413d 5bf9 ec3d 8e79 9f3d e796 933c
000001f0: e052 2c3d b14d 19bc 4506 323d 169d 1d3d
00000200: 716a 94bd c536 7d3c d4fb 8abd 2a7d c3bd
00000210: dd77 3d3d fe1b 593d 893f c23c e9a0 09bd
00000220: 62d1 f2bc 895b 01bd 18ef cabc aaf8 af3a
00000230: 2a14 293d 2ef2 01bd 13fa b7bc 3efc 943c
00000240: c8c5 e53d 5b90 a5bc 456d 133d 78ba e7bc
00000250: ccfd 7abd 42bb 8a3c 385d 2a3d ca41 193c
00000260: f1e1 f8bd 7654 63bc 1f7f 6cbc 79d2 5cbd
00000270: a248 ab3a eed9 313d 2181 40bd a84a ec3c
00000280: 4fb4 c23c 080b 913c c3b8 1cbc cde2 eabc
00000290: 8632 8ebd 620d 8bbc d461 9f3d 9aa4 07bd
000002a0: 16c6 573d da8a c03b 472c 98bd 6157 1cbc
000002b0: 2509 9ebd de44 05bd 6e01 f03c 6181 4dbd
000002c0: 9c23 e0bc f60f bd3c 5f82 2a3a 939b 52bd
000002d0: e220 8cbd 96f8 93bc 9f81 b6bd c567 173d
000002e0: 3593 043d 02ea 48bd 3003 a83c 84a8 cb3d
000002f0: 8333 2dbc 3764 5ebd 9ebf 433c e525 0b3d
00000300: 195f 84bd 1834 08bd de34 e93d dbcf 68bd
00000310: 1076 4b3c ee41 ac3d d8c0 0fbe 18d3 8fbc
00000320: 544a ffbd 6096 0b3e f62e ad3d c247 93bd
00000330: 01b8 bd3b 4517 073d a579 3abd b48d 3abd
00000340: 6b43 423a 3903 d13c 26bb 26bb 494e 133d
00000350: ff5c 8b3d df06 38bc 7bcd 75bc 32bb 833d
00000360: f56d a53b 4b65 703c cffb 9abd 0ac8 a23d
00000370: b212 2abd 793f 67bd bc13 773d 7071 a1bc
00000380: a72f a7bd 045d 02bd 193b ccbd 5829 d5bd
00000390: a23d 96bc 000b c6bd 4fb0 523d 38fd 04bd
000003a0: 58b3 2bbd 0e90 4ebd bfd1 38bd 894d 1e3d
000003b0: d47d 0d3d 82e4 a43a 8ea9 8d3d 49d2 1b3d
000003c0: ab69 22bc d93e 1e3d d9f9 8d3d f36a 5b3d
000003d0: 3c08 82bc 771a 673d 5440 6bbc 0003 553b
000003e0: 2d31 2fbd 918f 2c3d 63df 2cbd a37a 883d
000003f0: a354 2fbb d2c3 8b3d 1156 b53d 1422 81bd

model.5.bias f4 [64]
-0.22271615 -0.15199155 -0.03335647 -0.038909268 -0.11406593 -0.07862426 -0.06324959 -0.16191669
-0.10724075 -0.088243954 -0.22698262 -0.13146766 -0.082899064 -0.27774292 -0.105978146 -0.1644338
-0.09990075 -0.20359787 -0.18717065 -0.13996232 -0.15015292 -0.17007689 -0.1943219 -0.11381209
-0.0032072573 -0.04545268 -0.07903538 -0.09182784 -0.18219833 -0.17780891 -0.06539772 -0.120742366
-0.20965841 -0.09303617 0.056241293 -0.12993303 -0.21920253 -0.092335805 -0.108219974 -0.06772965
-0.016321203 -0.116667725 -0.12508203 -0.20797066 -0.19753164 -0.12676434 0.039714046 -0.14064184
-0.1398434 -0.10227662 -0.046400633 -0.057353064 -0.15200537 -0.0027845562 -0.30907956 -0.054242507
-0.29086807 -0.10628611 -0.23260847 -0.061217505 -0.19616875 -0.15284611 -0.050965652 -0.12895897
00000000: b40f 64be aca3 1bbe cba0 08bd 535f 1fbd
00000010: 669b e9bd c205 a1bd 0089 81bd 7dcd 25be
00000020: 0aa1 dbbd 3fb9 b4bd 226e 68be 759f 06be
00000030: fcc6 a9bd 5234 8ebe 120b d9bd 5661 28be
00000040: c498 ccbd f67b 50be aaa9 3fbe 4852 0fbe
00000050: b0c1 19be a328 2ebe 52fc 46be 5016 e9bd
00000060: d930 52bb 972c 3abd 4ddd a1bd 3c10 bcbd
00000070: 3392 3abe 8a13 36be 3def 85bd c647 f7bd
00000080: b2b0 56be bf89 bebd 455d 663d 2a0d 05be
00000090: a176 60be 8e1a bdbd 6fa2 ddbd d8b5 8abd
000000a0: 0bb4 85bc 7def eebd 8115 00be 43f6 54be
000000b0: bc45 4abe 83ce 01be 32ab 223d 6a04 10be
000000c0: 1c33 0fbe 6876 d1bd 970e 3ebd 0ceb 6abd
000000d0: 4ca7 1bbe 1a7d 36bb ad3f 9ebe 642d 5ebd
000000e0: a9ec 94be 88ac d9bd ea30 6ebe 35bf 7abd
000000f0: 76e0 48be b183 1cbe 5cc1 50bd d20d 04be

model.7.weight f4 [64]
0.90178263 0.92549175 0.9961285 0.846011 0.8123305 0.9961001 0.8764386 0.996821
0.97789973 0.995328 0.94478047 0.96396023 0.9974347 0.893531 0.9582101 0.9942491
0.9463859 0.89585465 0.8580823 0.9776212 0.8733724 0.89204687 0.93307567 0.9781195
0.98102933 0.9589431 0.9703819 0.7854221 0.9465484 0.9426182 0.9936282 0.94697434
0.94539654 0.99632484 0.94240665 0.93263316 0.89809936 0.9289847 0.91276854 0.9855933
0.97336596 0.99637526 0.9842789 0.94534874 0.90123683 0.9168846 0.9995926 0.98456234
0.9955673 0.9341512 0.9929535 0.85807526 0.8856701 0.9519797 0.9567805 0.997363
0.9203897 0.96148455 0.9973089 0.89675856 0.95842844 0.8873585 0.9918082 0.92063683
00000000: 3adb 663f 07ed 6c3f 4702 7f3f 2d94 583f
00000010: e4f4 4f3f 6b00 7f3f 485e 603f a92f 7f3f
00000020: a357 7a3f d1cd 7e3f 22dd 713f 19c6 763f
00000030: e157 7f3f 73be 643f 424d 753f 1c87 7e3f
00000040: 5946 723f bb56 653f 48ab 5b3f 6245 7a3f
00000050: 5595 5f3f 2f5d 643f 0cde 6e3f 0a66 7a3f
00000060: bd24 7b3f 4c7d 753f f36a 783f 6c11 493f
00000070: ff50 723f 6d4f 713f 6b5e 7e3f e96c 723f
00000080: 8205 723f 250f 7f3f 9041 713f 0cc1 6e3f
00000090: d7e9 653f f1d1 6d3f 33ab 693f d84f 7c3f
000000a0: 832e 793f 7312 7f3f b4f9 7b3f 6002 723f
000000b0: 75b7 663f f3b8 6a3f 4de5 7f3f 470c 7c3f
000000c0: 80dd 7e3f 8824 6f3f 3332 7e3f d2aa 5b3f
000000d0: 47bb 623f f1b4 733f 91ef 743f 2e53 7f3f
000000e0: a99e 6b3f da23 763f a34f 7f3f f891 653f
000000f0: 915b 753f ed29 633f 24e7 7d3f dbae 6b3f

model.7.bias f4 [64]
0.051114798 0.10215718 -0.029130934 0.0073487805 -0.05275403 -0.0428257 0.040096827 0.018521786
0.041371945 0.0543921 -0.03617303 0.03948412 0.0038544834 0.11856818 0.07707009 0.055004824
0.050376836 -0.015463095 0.073135205 0.023064679 0.0216702 0.019332359 -0.008214322 0.0942876
0.038039725 0.03824381 -0.02541693 0.08945074 0.013805664 0.11246671 0.041508198 0.041365825
0.03250278 0.095707 -0.02792162 0.040438168 0.07035282 -0.011020046 0.08270059 0.0626249
0.025935471 0.0465475 0.004258374 0.07537603 0.103378884 0.09864636 -0.0020452281 -0.020440254
0.030348647 0.03039307 -0.005717595 -0.013142586 0.01755273 0.011865492 0.026586464 0.012671975
0.041703023 0.08423358 -0.012520289 0.032308668 0.07771287 0.053030863 0.06442761 0.029472852
00000000: c05d 513d c937 d13d ffa3 eebc 0ace f03b
00000010: 9c14 58bd 006a 2fbd 923c 243d 00bb 973c
00000020: a175 293d 40ca 5e3d 2c2a 14bd 1aba 213d
00000030: 809b 7c3b e0d3 f23d ecd6 9d3d bd4c 613d
00000040: f157 4e3d ec58 7dbc e9c7 953d 23f2 bc3c
00000050: b485 b13c e55e 9e3c 5d95 06bc db19 c13d
00000060: 8bcf 1b3d 8ba5 1c3d 2a37 d0bc f331 b73d
00000070: 2731 623c f254 e63d 8004 2a3d 366f 293d
00000080: a321 053d 0802 c43d e2bb e4bc 7ea2 253d
00000090: 2415 903d 6c8d 34bc ed5e a93d 7c41 803d
000000a0: a076 d43c 97a8 3e3d d589 8b3b bf5e 9a3d
000000b0: 4fb8 d33d 1a07 ca3d 3c09 06bb 5272 a7bc
000000c0: ba9d f83c e3fa f83c aa5a bbbb 0054 57bc
000000d0: beca 8f3c 7b67 423c dbcb d93c 1e9e 4f3c
000000e0: cad0 2a3d a882 ac3d e621 4dbc 1856 043d
000000f0: ed27 9f3d e436 593d 9ff2 833d 0d71 f13c

model.7.running_mean f4 [64]
0.031278104 0.08915079 0.4653858 0.2332407 0.12611738 0.055634245 0.21952812 0.03926053
0.2631467 0.3050713 0.09935871 0.084311016 0.14025734 -0.04813638 0.050714158 0.047612827
0.18840477 -0.004421504 0.17669858 0.10626383 0.09867397 0.28428352 0.15731253 0.16778271
0.16467865 0.16675957 0.022984346 0.22710551 0.06614064 0.19862472 0.20542325 0.054271933
0.16192353 0.2323458 0.25877696 0.109823585 0.050117157 0.18134801 0.10810911 0.08598772
0.25824755 0.041269187 -0.022901997 0.14678843 0.027048253 0.13267119 0.0708451 0.36619085
0.11420408 0.13250646 0.050783325 0.23170128 0.11323096 0.20056963 -0.013992341 0.052578736
0.08310969 0.05018013 -0.013963083 0.20373121 0.098226525 0.122100666 -0.0374226 0.013625843
00000000: 781d 003d b094 b63d 0c47 ee3e a6d6 6e3e
00000010: ea24 013e bce0 633d fbcb 603e a6cf 203d
00000020: 2abb 863e 4e32 9c3e 947c cb3d 41ab ac3d
00000030: 9f9f 0f3e a72a 45bd a6b9 4f3d ab05 433d
00000040: 2eed 403e 44e2 90bb 79f0 343e daa0 d93d
00000050: 9415 ca3d 9c8d 913e 8916 213e 3bcf 2b3e
00000060: 85a1 283e 05c3 2a3e ab49 bc3c 598e 683e
00000070: be74 873d 4764 4b3e 795a 523e 3f4c 5e3d
00000080: 48cf 253e 0fec 6d3e 6a7e 843e 30eb e03d
00000090: a647 4d3d 4bb3 393e 4f68 dd3d 541a b03d
000000a0: 0639 843e e109 293d f89c bbbc b54f 163e
000000b0: 4c94 dd3c f5da 073e 3c17 913d 5e7d bb3e
000000c0: d4e3 e93d c6af 073e 2d02 503d 1a43 6d3e
000000d0: a2e5 e73d 2062 4d3e 2240 65bc cd5c 573d
000000e0: 6a35 aa3d ae89 4d3d 6ac5 64bc ea9e 503e
000000f0: fd2a c93d ea0f fa3d 7148 19bd ee3e 5f3c

model.7.running_var f4 [64]
0.15480292 0.18935396 0.5473238 0.33898622 0.29229343 0.19155577 0.3658712 0.13480102
1.6260208 0.2492636 0.45972764 0.24216267 0.37417036 0.15379652 0.21272117 0.2362044
0.52629 0.1464728 0.7184048 0.29990062 0.19488765 0.70984876 0.45172343 0.7967371
0.17612574 0.19175991 0.24312285 0.30603266 0.22352111 0.7298419 0.15525036 0.16441433
0.67302394 0.31585172 0.21411829 0.2185654 0.21741071 0.23241593 0.5063531 0.25414732
0.4167767 0.3355317 0.18954791 0.29565024 0.21377899 0.550288 0.07164041 2.323672
0.72204655 0.17875408 0.120269425 0.35823268 0.17085902 0.50376606 0.23105343 0.07512199
0.32447428 0.34844944 0.18093874 0.36765555 0.35052446 0.3942556 0.18849179 0.19339384
00000000: a884 1e3e 01e6 413e 6a1d 0c3f 9a8f ad3e
00000010: 7ca7 953e 3227 443e 7853 bb3e 4709 0a3e
00000020: 7321 d03f f53e 7f3e 6c61 eb3e 7ef9 773e
00000030: 4293 bf3e d67c 1d3e 94d3 593e 91df 713e
00000040: f1ba 063f f7fc 153e 61e9 373f 938c 993e
00000050: a190 473e a6b8 353f 4b48 e73e f6f6 4b3f
00000060: 4e5a 343e b65c 443e 32f5 783e 50b0 9c3e
00000070: b8e2 643e ebd6 3a3f f3f9 1e3e 3b5c 283e
00000080: 4c4b 2c3f 51b7 a13e d341 5b3e 9ccf 5f3e
00000090: eaa0 5e3e 71fe 6d3e 5ba0 013f 991f 823e
000000a0: c163 d53e d0ca ab3e d918 423e 785f 973e
000000b0: e1e8 5a3e addf 0c3f 35b8 923d 0bb7 1440
000000c0: 0bd8 383f 4f0b 373e d14f f63d 466a b73e
000000d0: abf5 2e3e d0f6 003f 4599 6c3e 8fd9 993d
000000e0: 7e21 a63e f767 b23e 0148 393e 593d bc3e
000000f0: f177 b33e dfdb c93e fe03 413e 0909 463e

model.8.weight f4 [128, 64, 3, 3]
-0.090896204 -0.004743396 0.018897433 0.054532267 0.09540598 0.030038595 -0.052402124 0.018839883
-0.023251088 -0.009971689 -0.019293947 -0.006253376 -0.0011485645 -0.050569043 -0.03560623 0.0023006666
0.0006880971 -0.055601824 0.015271517 0.16227372 0.059175685 -0.028048448 0.07871528 0.01975162
0.024202606 0.10105487 0.06526441 -0.0552731 -0.040559173 0.022929959 -0.021741841 -0.06764081
-0.06351602 0.03985325 0.011859546 -0.040487602 -0.044687808 -0.068125784 0.022492982 0.058027525
-0.02156342 -0.057454452 0.07958447 -0.004684729 -0.011067242 -0.05613275 -0.11153645 -0.06763601
-0.011466387 -0.03316476 0.07363767 0.042869452 -0.01658117 0.011881557 -0.02078911 -0.00075128075
0.03159874 -0.041611396 -0.11737035 0.035373364 -0.02205025 -0.055435207 -0.053541087 -0.08029297
-0.09365075 -0.038042717 0.11025379 0.008098138 0.050586853 0.022945788 -0.07504261 -0.0343109
-0.030107696 -0.06490747 -0.08497593 0.06539318 -0.029811041 -0.013600567 0.053934313 -0.08898845
0.02495813 0.11960062 0.09279286 -0.041274656 -0.0011603581 0.01481504 0.03601924 0.036438454
0.044498436 -0.043835036 -0.0046121795 0.0332245 0.020323588 -0.05673159 -0.09428611 -0.014606518
-0.013470648 0.03577175 -0.02361941 -0.018011775 -0.07308611 -0.027062492 -0.05017031 6.23301e-05
0.052116115 -0.005339553 0.036950406 0.019597981 0.0013291889 -0.057587143 0.012714038 0.011203147
-0.050504047 -0.036125492 0.075902246 -0.086621895 -0.024448583 -0.044429895 -0.031836756 0.02991835
-0.011375631 -0.06118985 -0.050373375 -0.0053105922 -0.052605577 0.00038665088 -0.119221255 -0.013989716
0.10316218 0.047710612 -0.06874955 -0.020226084 -0.0029672089 -0.026419163 0.028369833 -0.04101578
-0.009951747 -0.016768312 -0.111622445 -0.05591752 -0.17298819 -0.019165637 -0.0015878738 0.020387454
0.052286547 -0.022510251 -0.025968537 0.03452486 0.03524902 0.08145112 0.0023078565 -0.0752948
-0.0982461 0.04995494 0.03183917 -0.026226748 -0.047982913 0.02895399 -0.034363978 -0.014250151
-0.004319744 -0.075886086 0.012463029 0.012360657 0.026264433 -0.01787192 -0.014242854 -0.026036978
0.015333882 -0.03339917 -0.030252771 0.0013520023 0.0211093 -0.024576016 -0.01734537 -0.06801221
-0.008026473 -0.0035780596 0.030788569 0.014734183 0.03740449 -0.023742283 0.078822166 0.020847823
0.0008189385 -0.0068228384 0.023984253 -0.014934148 -0.0744793 -0.13411859 -0.048171733 0.03135607
-0.050280042 -0.08724809 -0.061993293 0.009751922 -0.020538738 -0.03274493 0.00088948215 -0.054370847
0.051203858 0.019319419 0.001825996 -0.05032764 0.028936198 -0.016620629 -0.048794772 -0.021232668
-0.0077079246 0.011592263 -0.009197221 -0.013081607 -0.045020502 -0.023851335 -0.01422027 -0.0045652236
-0.048501473 -0.052144937 -0.068026915 -0.11289402 -0.030965509 0.021222943 -0.06368973 -0.0729471
-0.07857832 0.014676423 0.065175 0.060588147 0.09715719 0.065768376 0.033055764 -0.032766536
0.031683598 0.036894973 -0.0090389 -0.01752201 0.02872559 0.012644996 -0.031139957 -0.01323403
0.013699112 -0.028982906 0.0145123955 -0.027218876 -0.05703672 -0.053442586 0.018022574 0.009479224
0.0014339514 0.041165803 0.01691357 0.010396559 0.00057956163 0.009215206 -0.071852654 -0.06496731
00000000: ca27 babd 7d6e 9bbb cace 9a3c 3a5d 5f3d
00000010: 3664 c33d 8013 f63c 9ca3 56bd 1956 9a3c
00000020: 1179 bebc 4c60 23bc 570e 9ebc 1fe9 ccbb
00000030: 6e8b 96ba 7c21 4fbd d7d7 11bd c8c6 163b
00000040: 6a61 343a bdbe 63bd 6335 7a3c 152b 263e
00000050: 3462 723d dcc5 e5bc 7a35 a13d 26ce a13c
00000060: 8b44 c63c dbf5 ce3d 59a9 853d 0c66 62bd
00000070: 6021 26bd 9cd7 bb3c f21b b2bc 4487 8abd
00000080: b014 82bd 293d 233d 8b4e 423c 54d6 25bd
00000090: 900a 37bd 8885 8bbd 3443 b83c 45ae 6d3d
000000a0: c5a5 b0bc 5c55 6bbd 2ffd a23d 5b82 99bb
000000b0: 6153 35bc 74eb 65bd 396d e4bd c084 8abd
000000c0: 83dd 3bbc c5d7 07bd 59cf 963d e197 2f3d
000000d0: 3cd5 87bc ddaa 423c ec4d aabc 99f1 44ba
000000e0: ae6d 013d b670 2abd de5f f0bd a9e3 103d
000000f0: baa2 b4bc 0710 63bd e64d 5bbd a470 a4bd
00000100: f7cb bfbd aed2 1bbd bdcc e13d 0dae 043c
00000110: 2934 4f3d cef8 bb3c f1af 99bd 9689 0cbd
00000120: 6aa4 f6bc 35ee 84bd dc07 aebd dcec 853d
00000130: 4936 f4bc ead4 5ebc 3aea 5c3d 943f b6bd
00000140: fe74 cc3c 2bf1 f43d 2f0a be3d 9d0f 29bd
00000150: 2817 98ba c8ba 723c e988 133d 7d40 153d
00000160: fe43 363d 5e8c 33bd c421 97bb 6a16 083d
00000170: a77d a63c 625f 68bd 1319 c1bd 2d50 6fbc
00000180: feb3 5cbc 6685 123d 7e7d c1bc 6e8d 93bc
00000190: 2cae 95bd 29b2 ddbc 627f 4dbd 38b7 8238
000001a0: b577 553d 6bf7 aebb 4f59 173d f28b a03c
000001b0: 2e38 ae3a 7fe0 6bbd 8a4e 503c 678d 373c
000001c0: 55dd 4ebd 53f8 13bd a372 9b3d d266 b1bd
000001d0: 6548 c8bc 1ffc 35bd 4267 02bd 5417 f53c
000001e0: db60 3abc 35a2 7abd 5054 4ebd 7a04 aebb
000001f0: f278 57bd 67b7 ca39 462a f4bd 1f35 65bc
00000200: b146 d33d 346c 433d 90cc 8cbd 2cb1 a5bc
00000210: 8175 42bb 006d d8bc da67 e83c 2a00 28bd
00000220: a70c 23bc b35d 89bc 4f9a e4bd c509 65bd
00000230: d123 31be 4101 9dbc 3420 d0ba 9703 a73c
00000240: 6b2a 563d 6b67 b8bc f8bb d4bc f169 0d3d
00000250: 4761 103d d8cf a63d 683f 173b 2934 9abd
00000260: 4035 c9bd 8d9d 4c3d ca69 023d 7ad9 d6bc
00000270: bb89 44bd eb30 ed3c 3ec1 0cbd 7779 69bc
00000280: a48c 8dbb 2a6a 9bbd bb31 4c3c 5a84 4a3c
00000290: 8228 d73c 2268 92bc dc5a 69bc 804b d5bc
000002a0: f63a 7b3c 91cd 08bd a9d4 f7bc ab35 b13a
000002b0: 69ed ac3c a453 c9bc e117 8ebc fc49 8bbd
000002c0: 7881 03bc e17d 6abb 4f38 fc3c a567 713c
000002d0: 7335 193d 2d7f c2bc 846d a13d 0ec9 aa3c
000002e0: 08ae 563a 1e92 dfbb a07a c43c 5bae 74bc
000002f0: 9a88 98bd 6256 09be b94f 45bd 396f 003d
00000300: 72f2 4dbd 20af b2bd aeec 7dbd 87c6 1f3c
00000310: db40 a8bc 8c1f 06bd 232c 693a f7b3 5ebd
00000320: 23bb 513d c243 9e3c 4256 ef3a 5b24 4ebd
00000330: 9b0b ed3c fc27 88bc 07dd 47bd 22f0 adbc
00000340: c292 fcbb 7aed 3d3c f1af 16bc 3d54 56bc
00000350: 6b67 38bd e063 c3bc 23fc 68bc df97 95bb
00000360: 7ba9 46bd ee95 55bd b251 8bbd fb34 e7bd
00000370: 61ab fdbc bddb ad3c c36f 82bd 4a65 95bd
00000380: aced a0bd 6175 703c 787a 853d 472b 783d
00000390: 59fa c63d 92b1 863d 7b65 073d 3436 06bd
000003a0: a9c6 013d 2f1f 173d e517 14bc 518a 8fbc
000003b0: ee51 eb3c f52c 4f3c 3919 ffbc 8cd3 58bc
000003c0: 3e72 603c 8f6d edbc 66c5 6d3c 1ffa debc
000003d0: 569f 69bd 9de6 5abd 14a4 933c bf4e 1b3c
000003e0: 6df3 bb3a 799d 283d 548e 8a3c 5456 2a3c
000003f0: b9ed 173a 60fb 163c 7c27 93bd 950d 85bd

model.8.bias f4 [128]
-0.07185647 0.09227883 -0.09409922 -0.2805448 -0.051838595 -0.18099494 -0.13365914 -0.088891536
-0.14677075 -0.10824195 -0.19607854 -0.07140229 -0.03551967 -0.092496455 -0.11392617 -0.06801744
-0.12342357 -0.16346987 -0.2883849 -0.13208663 -0.11751036 -0.26039454 -0.17444898 0.10899027
-0.029260855 -0.10586532 -0.15534943 -0.0034310494 0.054959614 -0.15711838 -0.11936606 -0.20181058
-0.09815607 -0.08128184 -0.18502711 -0.0077227945 -0.13504323 -0.09863527 -0.057468243 -0.067180716
-0.12664688 -0.17357631 -0.09687645 -0.08962084 -0.05407567 -0.114162855 0.008893705 -0.111044995
-0.1057973 -0.082249865 -0.12285982 -0.084602535 -0.014473759 -0.08607828 -0.19988485 -0.07604512
-0.10773682 -0.072339766 -0.122321986 -0.14332525 -0.07049034 0.010484624 -0.20976225 -0.013533047
-0.06588015 0.004302775 -0.087545045 -0.05620897 -0.09302183 -0.025244555 -0.14774314 -0.013748859
-0.0364819 -0.09840197 -0.106859475 -0.05054412 -0.06657922 -0.1036602 -0.033825908 0.007849225
-0.1775343 0.046131935 -0.08588946 -0.17241201 0.031414684 0.024911007 -0.017557524 -0.025630794
-0.15061669 -0.031134162 -0.09833268 -0.052933637 -0.0466398 -0.023271328 -0.11439084 -0.015092704
-0.06198168 -0.013267403 -0.04317942 -0.06285357 -0.14328204 -0.24643154 -0.048275024 -0.16742025
-0.033223804 -0.12233365 -0.06415824 0.022285394 -0.25519398 -0.20660451 -0.13811639 -0.17376064
0.0014687794 -0.07053419 -0.16238678 -0.092521295 -0.16384853 -0.041680895 0.022088818 -0.12802067
-0.080808535 0.025210045 -0.15735954 -0.1455041 -0.14754006 -0.13911457 -0.069006294 -0.16422492
00000000: 7c29 93bd affc bc3d 18b7 c0bd 91a3 8fbe
00000010: b554 54bd bd56 39be f1dd 08be c40c b6bd
00000020: 124b 16be f5ad ddbd d0c8 48be 5d3b 92bd
00000030: 137d 11bd c86e bdbd 2052 e9bd ba4c 8bbd
00000040: 7fc5 fcbd a564 27be 30a7 93be b841 07be
00000050: 46a9 f0bd 6f52 85be c1a2 32be 4a36 df3d
00000060: 76b4 efbc ebcf d8bd ec13 1fbe 75db 60bb
00000070: 551d 613d a4e3 20be 3176 f4bd 6fa7 4ebe
00000080: 0d06 c9bd 1877 a6bd bf77 3dbe 7f0f fdbb
00000090: c648 0abe 4a01 cabd d263 6bbd 0b96 89bd
000000a0: b8af 01be fdbd 31be 2967 c6bd 228b b7bd
000000b0: 737e 5dbd 37ce e9bd e7b6 113c 8f6b e3bd
000000c0: 41ac d8bd 9e72 a8bd ee9d fbbd 1844 adbd
000000d0: 5823 6dbc cf49 b0bd 9dae 4cbe 8bbd 9bbd
000000e0: 1fa5 dcbd df26 94bd f383 fabd dbc3 12be
000000f0: 3d5d 90bd b3c7 2b3c eacb 56be b7b9 5dbc
00000100: 2cec 86bd 4bfe 8c3b d14a b3bd 603b 66bd
00000110: 3b82 bebd abcd cebc fa49 17be e542 61bc
00000120: 0b6e 15bd f986 c9bd 24d9 dabd 5a07 4fbd
00000130: b05a 88bd cd4b d4bd 098d 0abd 099a 003c
00000140: 8dcb 35be d7f4 3c3d d0e6 afbd c68c 30be
00000150: afac 003d 2b12 cc3c ccd4 8fbc acf7 d1bc
00000160: 433b 1abe 120d ffbc a562 c9bd f1d0 58bd
00000170: 6009 3fbd 83a3 bebc bf45 eabd 6447 77bc
00000180: 81e0 7dbd 855f 59bc e7dc 30bd 5fb9 80bd
00000190: 87b8 12be 8d58 7cbe 08bc 45bd 3770 2bbe
000001a0: af15 08bd 118a fabd 6565 83bd dc8f b63c
000001b0: c9a8 82be 2290 53be 626e 0dbe 4fee 31be
000001c0: 0f84 c03a 3b74 90bd b848 26be ce7b bdbd
000001d0: e9c7 27be 96b9 2abd 9cf3 b43c da17 03be
000001e0: f27e a5bd 4c85 ce3c dc22 21be 07ff 14be
000001f0: be14 17be 0d74 0ebe 2c53 8dbd 942a 28be

model.10.weight f4 [128]
0.9912523 0.95022196 0.94653547 0.99740833 0.9973354 0.9398942 0.9614701 0.9928361
0.9960088 0.99729574 0.89487267 0.9891423 0.9598435 0.946283 0.9037645 0.9972138
0.9808786 0.985799 0.9758969 0.86659557 0.9775436 1.0 0.896415 0.9999995
0.97897416 0.9525132 1.0 0.99726737 0.9714202 0.99640733 0.9804908 0.93951905
0.8879565 0.9961189 0.92233574 0.9990404 0.93801606 0.9843913 0.9971858 0.99404246
0.8825351 0.9720827 0.97606874 0.8764691 0.9436883 0.9406329 0.99758375 0.9302968
0.9948965 0.9690554 0.9971648 0.9955175 0.87198937 0.9765405 0.997099 0.89753634
0.9537161 0.923976 0.8831337 0.9970927 0.8199534 0.9530093 0.99827677 0.98905146
0.9252627 0.9791987 0.9982708 1.0 0.99704736 0.968625 0.9110909 0.9018957
0.95765615 0.9721208 0.9988526 0.9812604 0.9578556 0.9510663 0.9294555 0.9187052
0.9347366 0.99431646 0.9960338 0.8994905 1.0 0.99734753 0.85281914 0.9558558
0.9453141 0.9902577 0.9744336 0.98764753 0.97338367 0.94288445 1.0 0.9849734
0.9704253 0.91322327 1.0 0.96852595 0.9819506 0.9531257 0.96108705 0.87796474
0.9979663 0.95173365 0.9970317 0.9875289 0.9996609 0.9165692 0.98854613 0.94397
0.992697 0.9799802 0.91627944 0.99252796 0.99705106 0.9070193 0.98703563 0.9970744
0.95237863 0.9891533 0.9950506 0.94461167 0.99682117 0.98216766 1.0 0.99724865
00000000: b6c2 7d3f bf41 733f 2650 723f 2756 7f3f
00000010: 5f51 7f3f e89c 703f e822 763f 822a 7e3f
00000020: 6ffa 7e3f c64e 7f3f 6016 653f 6e38 7d3f
00000030: 4eb8 753f 9a3f 723f 1c5d 673f 6749 7f3f
00000040: dc1a 7b3f 535d 7c3f 61d4 793f 35d9 5d3f
00000050: 4c40 7a3f 0000 803f 747b 653f f8ff 7f3f
00000060: 0d9e 7a3f e8d7 733f 0000 803f ea4c 7f3f
00000070: ffae 783f 8d14 7f3f 7201 7b3f 5284 703f
00000080: 1e51 633f a601 7f3f 321e 6c3f 1dc1 7f3f
00000090: d221 703f 1101 7c3f 9247 7f3f 9179 7e3f
000000a0: d2ed 613f 69da 783f a4df 793f 4760 603f
000000b0: 8e95 713f 51cd 703f a661 7f3f ee27 6e3f
000000c0: 89b1 7e3f 0414 783f 3146 7f3f 3cda 7e3f
000000d0: b23a 5f3f 8ffe 793f e141 7f3f f1c4 653f
000000e0: bd26 743f b189 6c3f 0d15 623f 7841 7f3f
000000f0: 77e8 513f 6bf8 733f 118f 7f3f 7a32 7d3f
00000100: 04de 6c3f c4ac 7a3f ad8e 7f3f 0000 803f
00000110: 7f3e 7f3f cff7 773f 413d 693f a3e2 663f
00000120: f428 753f e9dc 783f ceb4 7f3f e233 7b3f
00000130: 0636 753f 1579 733f ccf0 6d3f 4430 6b3f
00000140: e64a 6f3f 868b 7e3f 12fc 7e3f 0245 663f
00000150: 0000 803f 2b52 7f3f 5b52 5a3f f7b2 743f
00000160: 1b00 723f 8781 7d3f 7b74 793f 78d6 7c3f
00000170: ac2f 793f e060 713f 0000 803f 3727 7c3f
00000180: cb6d 783f 00c9 693f 0000 803f 51f1 773f
00000190: 1d61 7b3f 0c00 743f cd09 763f 4cc2 603f
000001a0: b87a 7f3f d1a4 733f 783d 7f3f b2ce 7c3f
000001b0: c7e9 7f3f 47a4 6a3f 5c11 7d3f 05a8 713f
000001c0: 6421 7e3f fbdf 7a3f 4a91 6a3f 5016 7e3f
000001d0: bd3e 7f3f 6b32 683f 5eae 7c3f 4540 7f3f
000001e0: 16cf 733f 2739 7d3f a3bb 7e3f 12d2 713f
000001f0: ac2f 7f3f 576f 7b3f 0000 803f b04b 7f3f

model.10.bias f4 [128]
0.0032679169 -0.0012471086 -0.0007187716 0.044369288 0.0005256346 0.05661918 0.01737905 0.003911768
0.0010598571 -0.0050928444 0.081974745 0.017465875 0.0029782131 0.01340254 0.017047646 0.0067700874
0.048103657 0.0037117878 0.012803574 0.0319946 0.0066738757 0.002872752 0.031567108 0.0014593776
0.0043338616 0.008593183 -0.002517343 0.0034701237 -0.036844786 0.010192905 0.00023787013 0.015152858
0.066057615 0.0060423138 0.0095069315 0.021951117 0.009984229 0.012370212 -0.0012793718 0.014458691
0.056016497 0.030199504 0.06468638 0.053426124 0.008261991 0.050858535 0.013997335 0.016559975
0.01088709 0.01214748 0.0058188103 0.0041378736 0.0781225 0.0033895853 0.008477178 0.009533514
0.016286151 0.0027138393 0.07945298 1.6462844e-05 0.042519834 0.0054774317 0.0022122464 -0.005169175
0.014268751 0.0077763353 0.00095571554 0.007654825 0.0053318916 0.0004886936 0.07217184 0.00058979756
0.0034365188 0.014353053 0.0057831206 0.0025805552 -0.022141274 0.009327724 0.0021771358 0.029255074
0.01308218 -0.0019386878 0.00260317 0.016510142 -0.033234634 -0.0021862602 0.016973631 0.008508445
0.008171756 0.002804882 0.0023789478 0.00027974817 -0.017529568 0.061254892 0.003862017 -0.003065803
0.0042584296 0.0012047967 0.0022154993 0.032317393 -0.0074211154 0.012742481 0.022618776 0.06917442
0.0006440302 0.0650648 -0.005866193 0.003973669 -0.0030004543 0.011300736 0.00069417845 0.06276914
-0.001384101 0.065560706 0.0048638294 -0.008498988 0.011074917 0.0117478045 0.003541884 0.010028847
0.009350875 -0.008068813 0.010381628 0.01854728 0.0019479296 0.041484233 0.00065235095 0.021343378
00000000: 8c2a 563b 0576 a3ba f26b 3cba 92bc 353d
00000010: beca 093a 83e9 673d 825e 8e3c 4a2e 803b
00000020: e7ea 8a3a e0e1 a6bb 60e2 a73d 9814 8f3c
00000030: 202e 433b 5496 5b3c 81a7 8b3c 9cd7 dd3b
00000040: 5708 453d 7741 733b 15c6 513c c50c 033d
00000050: 87b0 da3b c844 3c3b 834c 013d 9648 bf3a
00000060: 1103 8e3b 6cca 0c3c 02fa 24bb 046b 633b
00000070: 8fea 16bd 2400 273c c76c 7939 b143 783c
00000080: 3749 873d 9afe c53b f6c2 1b3c d4d2 b33c
00000090: e494 233c 6eac 4a3c 98b0 a7ba 25e4 6c3c
000000a0: 8e71 653d f364 f73c 4b7a 843d 5ad5 5a3d
000000b0: 4d5d 073c 0a51 503d 1455 653c c9a8 873c
000000c0: c45f 323c 3906 473c b8ab be3b 0097 873b
000000d0: b0fe 9f3d ce23 5e3b dde3 0a3c 7532 1c3c
000000e0: 896a 853c abda 313b 3eb8 a23d b019 8a37
000000f0: 4729 2e3d 077c b33b 56fb 103b 2f62 a9bb
00000100: 7bc7 693c a1d0 fe3b fc88 7a3a 54d5 fa3b
00000110: 26b7 ae3b ac1b 003a d4ce 933d a59c 1a3a
00000120: 3837 613b 1129 6b3c 5580 bd3b 881e 293b
00000130: 9e61 b5bc 4fd3 183c 47ae 0e3b 56a8 ef3c
00000140: a456 563c 911b feba f299 2a3b 4740 873c
00000150: 0a21 08bd 5c47 0fbb 490c 8b3c 0167 0b3c
00000160: d4e2 053c 1cd2 373b 1fe8 1b3b 2aab 9239
00000170: 2b9a 8fbc 69e6 7a3d e519 7d3b a4eb 48bb
00000180: 4c8a 8b3b 45ea 9d3a e931 113b 3e5f 043d
00000190: d42c f3bb d7c5 503c 034b b93c 51ab 8d3d
000001a0: 23d4 283a b240 853d 3239 c0bb 8d35 823b
000001b0: 45a3 44bb b926 393c 87f9 353a 1b8d 803d
000001c0: b96a b5ba b144 863d c260 9f3b 573f 0bbc
000001d0: 9273 353c dd79 403c f41e 683b 0850 243c
000001e0: 6a34 193c 0e33 04bc b417 2a3c 77f0 973c
000001f0: ac51 ff3a 5feb 293d 8802 2b3a 4fd8 ae3c

model.10.running_mean f4 [128]
0.5391753 0.3905574 0.3673178 0.069441296 0.12972349 0.20714343 0.19008334 0.24899651
0.20637897 0.21574733 0.6378201 0.3383267 0.3663275 0.2694776 0.1669361 0.2698781
0.3221417 0.3626528 0.13606836 0.4228414 0.04878921 0.16308005 0.21145877 0.92969966
0.5874409 0.22442205 0.40822232 0.321332 0.5190131 0.17403835 0.05225713 0.10820461
0.7401518 0.14096047 0.18376239 0.3681854 0.23029223 0.39504948 0.2722545 0.16143899
0.465322 0.02101802 0.28301033 0.37717322 0.81890583 0.35428932 0.42664266 0.67012477
0.10607136 0.45769873 0.21811178 0.057908747 0.46992177 0.43397424 0.26747125 0.13177623
0.13857605 0.20286103 0.42246822 0.19456442 0.4578425 0.8797421 0.21743096 0.3333337
0.23182562 0.92949414 0.18100993 0.26746744 0.14518142 0.23266535 0.45425954 0.3338099
0.52056503 0.18137734 0.1988807 0.3061615 0.21517757 0.29962343 0.38493916 1.1526588
0.3278018 0.7638643 0.42575353 0.42202398 0.8163009 0.5636344 0.28497037 0.43555543
0.37394956 0.8032951 0.45239845 0.15596591 0.22576308 0.61529946 0.14963534 0.53801626
0.61839324 0.43675825 0.19319879 0.32943967 0.29023838 0.072533846 0.14828928 0.31450167
0.24698415 0.19393677 0.17921884 0.28350353 0.06960195 0.14380564 0.529785 0.4007179
0.26720414 0.36874524 0.2395871 0.31859547 0.10746005 0.6406528 0.28472945 0.059698105
0.252709 0.51079166 0.26643693 0.29082707 0.26205724 0.38357583 0.21560992 0.28199595
00000000: 6407 0a3f 24f7 c73e 1411 bc3e 3d37 8e3d
00000010: 3cd6 043e 681d 543e 35a5 423e f1f8 7e3e
00000020: 0255 533e deec 5c3e 2e48 233f 2839 ad3e
00000030: 478f bb3e f8f8 893e 4cf1 2a3e 762d 8a3e
00000040: c2ef a43e a1ad b93e 8155 0b3e ab7e d83e
00000050: 32d7 473d 75fe 263e a688 583e cc00 6e3f
00000060: 8762 163f e5ce 653e 8402 d13e a185 a43e
00000070: 0bde 043f 1c37 323e 930b 563d 619a dd3d
00000080: 977a 3d3f f157 103e 352c 3c3e cc82 bc3e
00000090: bad1 6b3e ed43 ca3e f164 8b3e 4350 253e
000000a0: af3e ee3e fc2d ac3c bbe6 903e d91c c13e
000000b0: d0a3 513f 6965 b53e e870 da3e 4c8d 2b3f
000000c0: f13b d93d 7d57 ea3e b258 5f3e b931 6d3d
000000d0: 9699 f03e df31 de3e fef1 883e 59f0 063e
000000e0: e1e6 0d3e cdba 4f3e c14d d83e e53b 473e
000000f0: 556a ea3e c736 613f 39a6 5e3e b7aa aa3e
00000100: b263 6d3e 54f3 6d3f ab5a 393e 7ef1 883e
00000110: 70aa 143e d33f 6e3e b594 e83e 22e9 aa3e
00000120: c043 053f fbba 393e 62a7 4b3e 33c1 9c3e
00000130: 8257 5c3e 3e68 993e bf16 c53e 538a 933f
00000140: a3d5 a73e 9c8c 433f 5efc d93e 8713 d83e
00000150: 19f9 503f 584a 103f a3e7 913e 1f01 df3e
00000160: 5176 bf3e bfa4 4d3f c5a0 e73e 87b5 1f3e
00000170: 702e 673e 4484 1d3f 023a 193e 6fbb 093f
00000180: 054f 1e3f c79e df3e e7d5 453e 51ac a83e
00000190: 209a 943e a08c 943d 25d9 173e 5d06 a13e
000001a0: 6ae9 7c3e 5c97 463e 2585 373e 6027 913e
000001b0: 788b 8e3d c941 133e fd9f 073f e62a cd3e
000001c0: fbce 883e 2dcc bc3e 5256 753e f21e a33e
000001d0: 0414 dc3d d201 243f 0fc8 913e 0086 743d
000001e0: 1363 813e 3ec3 023f 6c6a 883e 49e7 943e
000001f0: 5e2c 863e 0d64 c43e d9c8 5c3e c661 903e
