Lab4/models/gan_models/ls_ha_1000e_500b_dis.pth (torch, 403159 bytes, 22 tensors)

model.0.weight f4 [16, 3, 3, 3]
00000000: c5cd 96bd 5b50 babd e4d8 bbbd 67c9 1cbe
00000010: 96f7 17be a304 15be 5958 0bbe 5cb2 f4bd
00000020: dcc1 29be ae48 5e3e 773d f93d 171c e33d
00000030: 634a 3e3e 4355 d93d 4b78 c83d 670a e43d
00000040: aa91 1f3e c03e c13d 5b67 5abd c779 cbbc
00000050: 3f41 a73c 0868 93bd 0053 533c 681d 9b3d
00000060: 4407 1fbd 1d6b 633d 2b00 8e3c 2fcf 213d
00000070: bc36 763d a40c 933d 3b1d c63c e429 1d3d
00000080: c66b 8b3d 66ed 383c 45c7 9fbb 7bcd b9bc
00000090: 7d58 eebd ed6d 3abe 694d b9bd c198 28be
000000a0: 4431 83be f593 ccbd 989d bfbd b4e7 ebbd
000000b0: 03ea adbd e060 2e3e 808c de3d 17f4 a23d
000000c0: c3d1 d73c 8058 d43c ae53 8c3d 34f2 343d
000000d0: f0be 643d 599c 613d b2db 05bd 8100 c239
000000e0: fe8c aebd d5df 113d c5f6 bc3d 03aa c9bc
000000f0: d777 503b c74d 54bc 3efa 85bd 8e06 4e3d
00000100: 3ecc a13d b848 973d dce8 1e3e 8644 143e
00000110: 9367 363e 34fe 6e3c 874b 5f3d 4871 3c3d
00000120: 0fbd 00be 565a 08bd 1878 01bd 033b a0bc
00000130: c448 7c3d 29f3 fd3c 9455 88bd 46b5 12bc
00000140: 8692 7bbc 6661 6d3d 6752 0a3e 82b6 9d3d
00000150: fb42 263e 20b2 4b3e d6d3 033e 7514 573d
00000160: a18d 2a3e 4636 293d 7507 52be ed7b 91be
00000170: 8d3d 0dbe b35e 8ebe 30c5 acbe bf80 86be
00000180: c830 4abe 3425 8bbe 7a8b 26be 83fb 563e
00000190: 88d6 163e 7877 df3d df2e 163e aef1 a73d
000001a0: 2e7f 6c3c 5517 0d3e 4db0 f93d eb4d 0a3e
000001b0: 4717 1ebd 1057 8abd 39cb 5a3d f373 40bd
000001c0: 3d05 03be 1644 c0bc cce6 0d3b f108 02bc
000001d0: 8013 99bb 1d94 193d e4bf ea3c d231 f93d
000001e0: c41e 4cbc 38ab 9e3c 1638 423d 0d48 183c
000001f0: 9039 553d 8504 963c 6090 bebd c61a 9bbd
00000200: 896c 18bc 3e10 8dbd 5ef7 f4bd 7d8c e6bd
00000210: 2c6e 0f3d 338d adbd 5fa4 cdbc efa2 c0bd
00000220: 925b 803e 7d4f c63d e968 e0bd 59a1 3c3e
00000230: 6930 113e 5337 b5bd 3c95 09be 7a34 e2bc
00000240: 64e1 e8bd 8ee8 d839 fb79 bcbe 563a 623d
00000250: 503e 8c3e 968c 033d b268 a2bd fb14 9cbd
00000260: 5362 66bd 970b 083c c304 283e 15ea 34be
00000270: 7810 f53c 6250 743e 83cf 75bd 1b21 1dbc
00000280: 276a 95bb e544 c7bd ad78 0bbe 5f6d b1bc
00000290: d50e f1bc b1de 32bd 3fc5 003d e8ac 08bd
000002a0: a6b8 6fbd 8020 3dbd 65da 29bc 3c71 b93d
000002b0: f1d0 463e 1248 113e b005 733e 8b4e 073e
000002c0: 8eff 473c af20 4f3e a295 2c3d d7ad 5ebd
000002d0: ecff 2abe 1530 85bb 6259 c5bb 39c2 82bd
000002e0: 3426 73bd d5b8 b3bd 45de 87bd 90fe 97bd
000002f0: 9d35 afbd a8cf 6b3d 575a a73d f792 363d
00000300: 6466 fb3d b1ef 263e 2f66 f73c f9d1 963d
00000310: 0f3b 823d 2c29 51bd cb7e 2fbe aa0f 79be
00000320: 5dfe 1fbe 5994 edbd 3ebb 09be db15 27bd
00000330: 733c 12be bb38 44be 2df1 10be c6d5 363d
00000340: a343 ad3c d0a9 903d 3845 e43d 5902 c23d
00000350: d02e 1b3e 547e 8b3d afb7 bc3d 7adc c53d
00000360: 8790 3abe 185d 02bd 16af cb3d 5870 82be
00000370: 7b56 c7bd b928 723d b940 93bd d7b0 c63c
00000380: 082c 633e add0 123e 53bd 863d a1f3 8abd
00000390: 920b 193e f265 40bc c6c4 06be a1d2 343e
000003a0: 0af3 a8bd a261 12be 8678 54bd b0f4 663c
000003b0: 8272 d5bc bd3c b43c dfba 983d 059b 133d
000003c0: a464 d33c 3dda 16bd bd4e 68bb 95f9 20bc
000003d0: bc59 2dbd b4cf 6a3e 1f12 543e bdee 5abe
000003e0: 13bc e1bd ce42 01be 39f0 fb3d c22d 00bd
000003f0: dcf8 e83d e8bf cfbd 8853 f63d 9da5 113e
-0.07363466 -0.09097358 -0.09172228 -0.15311204 -0.1484054 -0.1455255 -0.1360792 -0.11948082
-0.16577858 0.21707413 0.121699266 0.11089342 0.18583064 0.106119655 0.09788569 0.111347966
0.1558291 0.09435797 -0.053321224 -0.024838341 0.020416854 -0.07197577 0.012898207 0.07573968
-0.03882529 0.055522073 0.017334064 0.039504226 0.060110793 0.071801454 0.02418386 0.03837003
0.068076655 0.011287069 -0.0048760497 -0.022680989 -0.116379716 -0.18205996 -0.09047968 -0.16464521
-0.25623524 -0.09989158 -0.093562305 -0.11518803 -0.084919 0.17029142 0.10866642 0.07956713
0.02634514 0.025921106 0.06851898 0.044176295 0.055846155 0.055080745 -0.03268022 0.0003700294
-0.08522986 0.035613853 0.09226755 -0.0246172 0.0031809711 -0.012957997 -0.065418705 0.05029922
0.07900284 0.07386917 0.15518516 0.14479265 0.17812948 0.014586974 0.054515388 0.04600647
-0.1257212 -0.033289276 -0.03160867 -0.019559389 0.061592832 0.030999737 -0.06656948 -0.008954352
-0.015354758 0.057954215 0.13507996 0.07700826 0.16236489 0.19892168 0.12873778 0.052509744
0.1665559 0.041311525 -0.20510657 -0.2841486 -0.13793011 -0.27806625 -0.33744192 -0.262701
-0.19745171 -0.2717682 -0.16264144 0.20994382 0.14730275 0.10911459 0.14666317 0.082003936
0.014434619 0.13778432 0.1219183 0.13506286 -0.038596418 -0.06754887 0.053416464 -0.046985578
-0.12794967 -0.023469966 0.0021652458 -0.007936702 -0.004671514 0.037494767 0.028655954 0.121677056
-0.012458507 0.019368753 0.04741677 0.009294522 0.05205685 0.018312702 -0.09304881 -0.07573466
-0.009303221 -0.068878636 -0.11961244 -0.11257265 0.035017177 -0.08474197 -0.025102792 -0.09406077
0.25069863 0.0968313 -0.1095751 0.18420924 0.14178623 -0.08848443 -0.13435835 -0.027612913
-0.11371115 0.00041371997 -0.36811814 0.055231415 0.2739129 0.032116495 -0.07930125 -0.07621189
-0.056246113 0.0083035445 0.16408066 -0.1766742 0.02991508 0.23858789 -0.06001235 -0.0095904125
-0.0045597735 -0.097299375 -0.13620253 -0.021658598 -0.029426018 -0.043669406 0.03143811 -0.03336802
-0.058525704 -0.046173573 -0.010367011 0.09054801 0.19415642 0.14187649 0.23732638 0.13213556
0.012206925 0.20227312 0.04213489 -0.054365005 -0.16699189 -0.0040645697 -0.006022618 -0.06384701
-0.059362605 -0.08775488 -0.066341914 -0.07421601 -0.08555148 0.057571083 0.08171528 0.04457375
0.12275389 0.16302373 0.030200092 0.07364268 0.06358921 -0.051064655 -0.17138211 -0.24322382
-0.15624376 -0.11600561 -0.13450333 -0.040792327 -0.14280872 -0.19162266 -0.14154501 0.044637464
0.021150416 0.07063639 0.11146015 0.09473104 0.15154576 0.068112046 0.09214722 0.09661193
-0.18219195 -0.031827062 0.09945504 -0.25476336 -0.09733292 0.059120867 -0.07190079 0.024254246
0.22184765 0.14337416 0.065790795 -0.0678475 0.1494582 -0.011743056 -0.13161 0.17658474
-0.08249481 -0.14295056 -0.051872753 0.014096424 -0.026055578 0.022001619 0.07457518 0.03603651
0.025804825 -0.036829222 -0.0035447322 -0.00982513 -0.042321905 0.22930795 0.20710038 -0.21380134
-0.110222004 -0.1262314 0.12301678 -0.031293638 0.11375591 -0.10144025 0.12027651 0.14223333

model.0.bias f4 [16]
00000000: 6757 833c b707 a4be a6be b3be a841 1abe
00000010: cbe6 82be 4f6e c2bd 372c 043e ead1 bdbe
00000020: cfc4 5cbc 1010 143c a47f 9bbe 61e6 53be
00000030: b5f5 093e 9948 11be 9be6 b7be 5321 a2bd
0.016032888 -0.32037136 -0.3510639 -0.15064108 -0.25566706 -0.09493696 0.12907492 -0.37074214
-0.013474657 0.009037033 -0.3037082 -0.20693351 0.13472636 -0.1418785 -0.35918126 -0.07916512

model.2.weight f4 [32, 16, 3, 3]
00000000: 0cbf e33d ffe3 fc3c 2949 9ebd 8bb0 193e
00000010: 909c b33d 0e73 113c 4573 f4bb 4edc cbbd
00000020: 21cd 45be b17c 6c3e acd1 1e3e e632 ac3d
00000030: e081 603d 9dd2 a8bd 4c91 20bc 6716 023c
00000040: 1bc3 5cbd 2b9f 23bd 8832 793e cea7 9f3e
00000050: b69b 7d3e e245 583e 45e6 b33d 2c02 dd3d
00000060: 033e c83d 8442 0dbd 7227 353b 0a00 ecbd
00000070: 1914 42bd 15ee 0e3d 38d0 f1bd 1c79 ae3d
00000080: e646 a63d 7913 28bd 73c2 053e fde6 993d
00000090: 5462 953d 5330 bd3d 89c5 0e3d 24c9 9d3d
000000a0: 2729 1f3b 8fe9 753c 38e7 693d fa4c 43be
000000b0: 0c48 ee3b b714 8dbe 18b3 f8bd f47f 59bd
000000c0: a1da 9dbe a07d 4dbe 820b ce3d b231 cdbd
000000d0: 7461 8a3e c3aa 5f3e deb1 09bb 3ec6 4ebd
000000e0: 0c68 8fbd 7a77 b83d 2a73 c43d 1e9b 53bc
000000f0: 384e 17be 7d49 48be 6609 6fbe f63c 8a3d
00000100: a61d a33b 3301 a43d c3c3 a7bc 275e e5bd
00000110: ada5 5c3d c773 b13d 480c 213d b103 083e
00000120: 714d 1dba ec57 05bd 47d5 5fbd bcc2 d03d
00000130: f6fb f93c 7baf 03be 1c36 303c 454a 19bc
00000140: 336b c0bd 30c5 95be 4cab 7bbe 4ca3 71be
00000150: acaf 85be f14a 153e 2ffd 13bd abd7 2abe
00000160: 9b40 1b3e dd59 c53d 2179 b73d 06f2 5abd
00000170: 2534 9e3b 94b0 3f3e f8d2 cb3c 055f d3bd
00000180: d02e 163e 633a 823d 22de f3bd d534 233d
00000190: 9128 533d 531d 173e c92a 5cbd e233 993d
000001a0: 28e4 343e 5e69 97bd dae4 1b3e 5918 213e
000001b0: 264f 34be b8c2 69be 0efc 2bbe 40a0 84be
000001c0: 3b95 a93d 1503 8b3e 262a 7abe 3b06 fcbc
000001d0: c329 1b3e f53b 323c 48ad ecbb 3f40 2f3e
000001e0: 0a92 ecbb f979 153d 97ba a83d 9436 663c
000001f0: a462 07bd fcc5 69bd 91c8 123e 308b 973d
00000200: a916 2e3e a2bf 863e 4ba0 e7bd 186c 03be
00000210: fb70 be3d f335 41be ea56 a73c ee7e 91bd
00000220: 5c96 66b9 85d8 fdbd 26c8 8cbe d7c6 d1bc
00000230: af8a cc3c 8fcb 2ebe edf0 273d 524e 01bd
00000240: 127d ea39 4a87 e93d 7731 323e b407 263d
00000250: ff19 ddbd 5890 bc3c 6333 743d b8de 93bd
00000260: 3c98 89bc c904 d4bd 92ca 3dbd 1872 1fbe
00000270: 2112 d23d 5873 8a3e f38c b13d c802 df3d
00000280: 75d6 713d 340d 55bd ca6f f83b 5248 173d
00000290: f928 bc3d 444e 0abe bfaa fd3c 9102 8b3d
000002a0: f51a 7ebd 7458 853d 0eab bd3c 17e9 0a3d
000002b0: cb73 ecbd 1b33 01be ede6 8c3e 42e0 273e
000002c0: f29e a8bc a5a9 763b 263c a1bd 678a 06be
000002d0: 7c06 dabc a9b2 983d 4a3b ef3b 251d d9bc
000002e0: 765a 7b3d 0ddf 1a3d 1cf9 2c3d 2c13 783d
000002f0: 8264 a9bd 78d7 dcbd 9ba2 053e a853 1c3e
00000300: 4505 03be 00df aabc 57cc 52bd d0f1 c9bc
00000310: 7c4d abbc 34f0 7b3c d272 f4bb 340d e6bc
00000320: 92a2 a53d f5b3 e7bc 4f13 7abd a98e 7b3d
00000330: 1b03 683d ceb6 99bc 836f 14bc 9a9e 163b
00000340: 223c 85bc 024f 21be 8419 603e 3c06 093f
00000350: c670 2e3e 5d80 983e 4c74 003f d0e9 fe3d
00000360: b584 fcbd c12d ef3c 14a9 193e e2e9 163d
00000370: 8955 ecbc 2daf 7c3c cf40 cf3d f796 233b
00000380: ac6f 5bbc 0c92 e33b 0e44 523d 5169 cebb
00000390: efd3 3dbd 6365 07bc b1a7 2f3c 6944 5a3c
000003a0: 6706 8bbd 7e0e 02be 0e63 24bd 2f3b 91bd
000003b0: f9b7 99bd 6319 a53d f18d a2bc cf91 b33d
000003c0: b455 2d3c d673 25bc 76b0 043e 957b 03be
000003d0: 458b 3bbe 57a1 95be 4610 9d3d ad92 293e
000003e0: 5991 3dbd 2874 3a3e a2ce 0c3e 03b4 163c
000003f0: 93de d13d cde9 2bbd b434 a5bd aabb b4bc
0.11120424 0.030870436 -0.07728798 0.15008752 0.08770096 0.008877529 -0.0074600303 -0.09954129
-0.19316532 0.23094441 0.15509671 0.084081456 0.05481136 -0.08243296 -0.0098002665 0.007939911
-0.053897005 -0.039946716 0.24335682 0.31182712 0.2476643 0.21120408 0.08784155 0.1079143
0.09777453 -0.034487262 0.002764192 -0.11523445 -0.047382448 0.03489502 -0.11807293 0.085191935
0.081189916 -0.041034196 0.13062458 0.07514761 0.07294145 0.09237733 0.034856353 0.0770438
0.0024286003 0.015009298 0.057105273 -0.19072333 0.0072717723 -0.27554867 -0.121435344 -0.05310054
-0.30830863 -0.20067453 0.10060789 -0.10019244 0.27027476 0.21842484 -0.0021010558 -0.050482027
-0.07002267 0.09007163 0.09592278 -0.012915401 -0.14775932 -0.19559284 -0.23343429 0.067499086
0.0049778996 0.08008041 -0.020479089 -0.11199599 0.05386894 0.08664661 0.039318353 0.13282658
-0.00060006144 -0.032554552 -0.054646757 0.10193393 0.030515652 -0.12859909 0.010755088 -0.009356086
-0.09395447 -0.29252005 -0.24577063 -0.23597449 -0.2611059 0.14579369 -0.036130127 -0.16683833
0.15161364 0.09636281 0.089586504 -0.053453468 0.0048279935 0.18719703 0.024880871 -0.10320858
0.14666295 0.06358793 -0.11907603 0.039845306 0.05155236 0.1475728 -0.05375174 0.07480599
0.1766516 -0.07393144 0.15224019 0.15731944 -0.17608318 -0.22828186 -0.1679537 -0.2590351
0.082804166 0.2715079 -0.24430141 -0.03076469 0.1515265 0.010878553 -0.007222805 0.17114352
-0.0072195577 0.036493275 0.08238714 0.014051098 -0.033053055 -0.05707358 0.14334323 0.07399595
0.17000832 0.2631808 -0.1130987 -0.12834203 0.09298893 -0.18868236 0.020427186 -0.07104288
-0.00021990523 -0.123948134 -0.2749645 -0.02560751 0.024968473 -0.17069839 0.04100125 -0.031568833
0.00044725143 0.114027575 0.17401682 0.04053469 -0.10795974 0.023018047 0.05961932 -0.072202146
-0.016796224 -0.10352475 -0.046335764 -0.15570867 0.10257364 0.27041125 0.08669462 0.10889202
0.059042413 -0.052014545 0.0075816857 0.036934204 0.091875024 -0.13506418 0.030965207 0.06787599
-0.062037427 0.06511012 0.023152854 0.033913698 -0.11545523 -0.12617151 0.27519932 0.16394141
-0.020583604 0.0037637737 -0.078728005 -0.13138734 -0.02661442 0.07455952 0.007300769 -0.026503155
0.061365567 0.037810374 0.042229757 0.06056516 -0.082711235 -0.10783285 0.1305031 0.15266287
-0.12794979 -0.020858288 -0.051464405 -0.024651438 -0.02091097 0.015377093 -0.0074599767 -0.028082468
0.080876485 -0.028284052 -0.06105357 0.06141535 0.056643587 -0.018763926 -0.00905979 0.0022982717
-0.016264025 -0.15752795 0.21884733 0.5352514 0.17035207 0.29785433 0.50177455 0.1244694
-0.12329999 0.029196622 0.15005904 0.03684414 -0.02884938 0.015422625 0.10119783 0.0024961808
-0.013393324 0.0069449004 0.051334433 -0.006299176 -0.046344694 -0.008263919 0.010721133 0.013321974
-0.067883305 -0.12700841 -0.04013353 -0.070913665 -0.07505793 0.08061483 -0.019843074 0.08768045
0.010579515 -0.010098418 0.1295794 -0.12840112 -0.18314846 -0.29224655 0.076691195 0.16559859
-0.046281192 0.18208373 0.13750699 0.009198192 0.10247531 -0.041971017 -0.08066693 -0.022062141

model.2.bias f4 [32]
00000000: 5c45 733e 0828 9ebe fe0e f7bd 54bc a4be
00000010: 91e2 86be 6fa6 d3be df79 3e3e 703b 403e
00000020: fd21 b83e ea39 b6be 232b a53e be53 2ebe
00000030: 4d13 313f fa5f d6bd 94d5 b8be 2207 8ebe
00000040: 9860 a53e dd79 6b3e 9114 443e 7e74 d3bd
00000050: 8ee9 95be 57f0 38be ff7b efbd f4d7 e5bd
00000060: 5a3d 05be de6f 59be aa10 34be 3243 5b3e
00000070: 87e6 993e 52b6 873e e087 06bc 5713 da3d
0.23756927 -0.30889916 -0.120634064 -0.32174933 -0.2634473 -0.41337916 0.18601178 0.18772674
0.3596343 -0.3559106 0.32259473 -0.17024133 0.69170076 -0.10467525 -0.36100447 -0.27739817
0.32300258 0.22995706 0.1914847 -0.103249535 -0.2927975 -0.18060432 -0.11693572 -0.112228304
-0.13011685 -0.2123408 -0.17584482 0.21412352 0.3005869 0.26506287 -0.008211106 0.1064822

model.4.weight f4 [32]
00000000: 248e 5b3f e623 7e3f e037 4d3f c34b 493f
00000010: 36b2 4d3f 0106 763f b98d 263f 7076 583f
00000020: 0917 4d3f 4666 7c3f 0847 623f 5f9f 093f
00000030: 7fc6 713f 9388 233f 152f 6d3f 788f 643f
00000040: 7e34 5d3f a00f 4d3f deae 7e3f 1847 2a3f
00000050: c9c4 743f 7315 493f 0e7a 293f 02c0 4d3f
00000060: 6c02 583f b227 7d3f ee20 7f3f 3120 293f
00000070: 976c 323f eb45 4e3f 39d3 4d3f 3250 5a3f
0.85763764 0.99273527 0.80163383 0.7863123 0.80350053 0.9610291 0.6506 0.8455572
0.80113274 0.98593557 0.88389635 0.53758806 0.94443506 0.6388027 0.92649966 0.89281416
0.8640822 0.80101967 0.99485576 0.6651473 0.9561277 0.78548354 0.66201866 0.80371106
0.84378695 0.98888695 0.9965962 0.66064745 0.69696945 0.80575436 0.80400425 0.8527862

model.4.bias f4 [32]
00000000: ff91 413e 2924 b7bc 1106 99be bd39 30be
00000010: e153 5cbe 927d 92be df81 113e 35ba c53e
00000020: c6e1 96be 8923 c4bd 7959 22bf be8a 97be
00000030: e1c3 b6bc cae2 f9bd f0e6 35bf 21b0 41bc
00000040: 479a d9be b732 0abf 333b 2d3f 14ca 7fbe
00000050: dc68 68bd 8a2f aebe 681e 873e 173f 0b3e
00000060: c619 1cbf c3c7 36be ffe7 db3c ad03 4fbe
00000070: 9d32 8b3d 57bd 49bd c748 fcbe 93f2 e83e
0.1890335 -0.02235611 -0.2988744 -0.17209525 -0.21516372 -0.28611428 0.14209698 0.38618627
-0.29469126 -0.0957709 -0.63417774 -0.2959804 -0.0223102 -0.1220146 -0.7105551 -0.011821778
-0.42500517 -0.53983635 0.67668456 -0.2497943 -0.056740627 -0.34020644 0.26390386 0.13598286
-0.6097683 -0.1784964 0.026844023 -0.20216246 0.06796763 -0.049252834 -0.49274275 0.4549757

model.4.running_mean f4 [32]
00000000: 17e7 983a e9ed 0ebe 194f 8b3c f4d0 35be
00000010: 0629 d2bd 0403 26be c654 933e 51d6 b93e
00000020: 0396 f43e 7fc5 19be 6c68 0e3f ad79 a6bd
00000030: 2793 2d3f 8697 e2bd 4374 e4bd 2e1d 43be
00000040: 07dc 113f 754c b83e 870f a63e a813 c4bd
00000050: 773a edbd 11d4 2cbe 009f 7fbd 6127 02be
00000060: 1986 4ebd cfe8 afbd d8d9 7bbd cb28 503e
00000070: 141d 853e a349 e63e 86f5 823d 97ea 9b3e
0.001166555 -0.13957943 0.01700549 -0.1775549 -0.10261731 -0.16212088 0.28775615 0.36296323
0.477707 -0.15016745 0.55628085 -0.081286766 0.6780266 -0.11064057 -0.11154988 -0.190541
0.5697636 0.35995832 0.3243372 -0.09574062 -0.11583417 -0.16877772 -0.062407494 -0.12710334
-0.050420854 -0.085893266 -0.06148705 0.20328061 0.25998747 0.44978055 0.06394486 0.30452415

model.4.running_var f4 [32]
00000000: d76b a53c a44f f83b 920b 8a3c 9cf9 e23b
00000010: 7bef 3e3c bb62 dd3b 543c ba3d 0725 223d
00000020: c453 9b3c 3a22 053c 281e 013d f746 943c
00000030: 9a0a 2f3c e1db 603c bfde 913b 326f 323c
00000040: ab14 3b3d 4627 053d f814 903c 56e3 853c
00000050: 48fa c53b 5b9d 4d3c 8c5e 093c e94e 2a3b
00000060: 55f7 833c 6a90 3c3b 4455 833b 9f22 533d
00000070: 1c6c 0b3d e557 ba3c 4444 163d 4f87 103d
0.020193024 0.0075778533 0.01685122 0.0069267284 0.011653776 0.0067561544 0.09093538 0.039586093
0.018960841 0.008125836 0.0315229 0.018100245 0.01068368 0.013724298 0.004451602 0.010890769
0.045674007 0.032508157 0.017588124 0.016343754 0.0060417987 0.0125497235 0.008384358 0.0025986976
0.016109148 0.00287726 0.004007967 0.05154669 0.034038648 0.02274699 0.036686197 0.03528529

model.5.weight f4 [64, 32, 3, 3]
00000000: fa7a bc3d 8e60 8fbe c328 8b3d cb07 c73e
00000010: aa9b 6e3d 3eb7 943e 3b54 06bc 12d5 0ebd
00000020: 0ac0 f2bc 18ff c63d 0138 073d f3ef d0bd
00000030: 9099 043d b3c2 803c 6df5 0f3e e8ac 4f3e
00000040: 47da 0aba 8e6d c6bd 0b17 c03d 6ccb 5b3e
00000050: accc 2cbe 2330 a7bd 8db9 50be 79fd 59bd
00000060: e396 12bd 9cfd fdbc 716c 133d 1667 713e
00000070: 501b b73d 67e0 3a3d 4937 693d 45a1 e83d
00000080: fb3b 903d ade3 fd3d 0be3 2f3e 1bfe d93d
00000090: 5dff b03c 22fa 69be 5a7a 873d addf 913d
000000a0: 2f6b 2cbe bab5 473d 04e3 323d 7482 1fbe
000000b0: bb84 8abd f510 ef3d e89f 43bd f67a 91bd
000000c0: eb99 cd3c 4f86 f1bc 78d4 7bbe bd7f a33d
000000d0: fcb0 043d 8818 df3c 6fb1 d43d b3b3 b03c
000000e0: 6b4e eebd cf7d 55bd 41d3 b0bd 6d45 8ebe
000000f0: 8948 f7bb c1b8 f23d 0e9a 88bd 4805 563e
00000100: d33f 87bc 0f97 d2bc afd5 b1bd fd25 a5be
00000110: 8477 b2be 7c0d 973d 37ef 03bc 8b3a a53c
00000120: 0cc0 053e 8f9e c73d 1915 b83d d2d1 2a3e
00000130: 1f5a 163d 7060 563d d8d5 f83b 6706 013e
00000140: 27a8 ea3d 8b26 a83d be81 55be 26a0 053c
00000150: 5e89 4a3d b323 c6bd e714 4ebe 4122 16be
00000160: d350 69bc 27be 063d c3ac 42be 8ce8 af3e
00000170: dc50 ef3d 4eee b6bd 4ad6 903e 87ab 0e3e
00000180: fbc8 c3bd ba36 95bd 374c c83d 940d 1f3d
00000190: 1550 11be beab be3d c2b0 f73d 3400 e0ba
000001a0: 921b 5b3e a634 f4bb 9f16 4b3d 47a6 023c
000001b0: fb03 ac39 3cb9 36be dba0 5d3d aed1 b0be
000001c0: 2f7a 9fbe 6803 28be b0a1 b5bd e268 c13b
000001d0: 4b1b 8a3d b080 1a3e 0c06 163e 3029 443d
000001e0: d984 f83d 974a 483e 6581 123c 70f0 563c
000001f0: f68d 0a3e 1c83 0d3e 284a 543c cf26 2abd
00000200: 074c 0e3e ab31 c43d 24da e6bd 5801 92bd
00000210: b980 813c 6d33 2bbe 99b3 d1bb 013a 883d
00000220: 635e 1cbe f60f 81bd f876 fe3d 3519 043e
00000230: 6d5e 1d3e 75e8 773b a123 06be b98c 96bd
00000240: f4d4 d63d 4fae 86bd 9cfb b93d ca86 c13d
00000250: 42b8 c73d 2864 613d 0cc0 65bd 1709 68bd
00000260: fc99 b73d fd83 683d bfaa 903d f89e e13d
00000270: ed8c dc3c 7b2c 05bd 5610 b33d c197 2b3d
00000280: e2df 47bd e4be db3d 438e 423d 19de 783e
00000290: 335c cabe 3f9f 90bb 2867 99bb 6200 d1bd
000002a0: 1e74 673c f2ab f2bd 6524 d73d 4abb 3c3c
000002b0: 005a 33be c85b 433d 1a4b f63d 71c2 c33c
000002c0: 5752 243e 943f ac3d 0829 30bc eec9 75bd
000002d0: 8ec8 163d b841 073e 4d00 20be fcf5 28bd
000002e0: e78b b5bd 1310 75be 184b ba3d 77e2 21be
000002f0: 99ba c1bc dcff 0c3e e2d1 f63c 4d84 353e
00000300: ec08 353e cc83 bd3d 1cd7 8a3e d477 003e
00000310: 9ca9 95bc a95d 4e3b d533 d3bd 6f1b 1bbe
00000320: 3a2e 2a3d 6491 2a3c 3767 2dbe fb3c c2bb
00000330: 1e68 0fbe e824 0abd 4c25 863d 927a 0ebd
00000340: a7af 73bd f050 7abd 5212 dcbc 0b3e 913e
00000350: 6ed3 5a3d 83cf 3cbc 708b 41bd 2b1c e83c
00000360: 35d2 833e 3b3f db3d 437b 713e 8570 0bbe
00000370: 5910 6abd c83a 23be 3eff 6dbd 2487 cdbd
00000380: 865a 47be e102 e43d 38b5 99bd 50dc 9dbd
00000390: 87ea 253e 3fad 46be d70b aabe ab1c cc3d
000003a0: 36d6 eebc 0d69 073e 0ffc 14bd 7638 713e
000003b0: 7742 d0bc f988 483e 9a8a 883d fb47 cb3c
000003c0: 0783 edbd 3c36 bebd 4ecd bbbd b38e e73c
000003d0: 8767 713e b2f3 8e3d 2a02 d1bc 243c 923c
000003e0: d93d e23d 2463 b1bd d493 4d3c 413b 31bd
000003f0: 907f 023e 722a 533e 17c4 003e f08f 0d3e
0.092031434 -0.28003353 0.06794884 0.38873133 0.05825392 0.29046053 -0.008198793 -0.03487117
-0.029632587 0.09716624 0.033012394 -0.10202017 0.03237301 0.01571784 0.14058466 0.20280802
-0.0005296808 -0.09688865 0.09379395 0.21464318 -0.16874951 -0.08163478 -0.20383282 -0.053220246
-0.035788428 -0.03100472 0.03599209 0.2357448 0.08940756 0.045624163 0.05693749 0.11358885
0.0704269 0.12396941 0.17176454 0.1064417 0.021606142 -0.22849324 0.066151336 0.07122741
-0.16837762 0.048757292 0.04367353 -0.15577108 -0.067635976 0.11673156 -0.04775992 -0.07103531
0.025097808 -0.029482989 -0.24592769 0.079833485 0.032395348 0.027233377 0.10385405 0.021570062
-0.11636051 -0.052121934 -0.086340435 -0.27787343 -0.0075464887 0.11851645 -0.066700086 0.20900452
-0.016509926 -0.025706796 -0.08683335 -0.32255545 -0.34856808 0.07375619 -0.008052639 0.020169517
0.13061541 0.097470395 0.08988399 0.16681603 0.03670704 0.052338064 0.0075938515 0.12600099
0.11457854 0.082104765 -0.20850274 0.008155858 0.04944741 -0.09674778 -0.20125161 -0.14661504
-0.014240461 0.032896187 -0.19011216 0.34357107 0.116853446 -0.08932172 0.2828849 0.1393262
-0.09559818 -0.07285829 0.09780162 0.03883131 -0.14190705 0.09310101 0.12094261 -0.0017089904
0.21397236 -0.0074525652 0.04958212 0.007974214 0.00032809362 -0.17844099 0.05410848 -0.34534973
-0.31147906 -0.1640755 -0.0886873 0.0059023956 0.06743487 0.15088153 0.14650744 0.047890842
0.12134714 0.19559704 0.008941983 0.013118848 0.13530716 0.13819546 0.012957133 -0.041540917
0.1389619 0.09579786 -0.11272076 -0.071291625 0.01580845 -0.16718836 -0.0063995835 0.06651688
-0.1527038 -0.063018724 0.12425035 0.1290024 0.15368052 0.0037827764 -0.13099529 -0.073510595
0.10489836 -0.065762155 0.09081194 0.09449537 0.09751941 0.055027157 -0.056091353 -0.056649294
0.08964917 0.0567665 0.07063817 0.11016649 0.026922667 -0.032513123 0.0874335 0.04189277
-0.048797496 0.10729769 0.047498953 0.24303474 -0.39523467 -0.004413515 -0.0046814866 -0.10205151
0.014126806 -0.11849202 0.105049886 0.011519263 -0.17514801 0.04769495 0.12026043 0.023896428
0.16047035 0.08410564 -0.01075197 -0.06000703 0.036812358 0.13208663 -0.15625115 -0.041250214
-0.08864575 -0.23931913 0.09096354 -0.15809046 -0.023648547 0.13769478 0.030129377 0.1772625
0.17679185 0.09253654 0.2711724 0.12545711 -0.018269353 0.0031488931 -0.103126206 -0.15147184
0.04154799 0.01041064 -0.16933905 -0.0059276796 -0.14004561 -0.033726603 0.065500826 -0.03478486
-0.059493687 -0.061112344 -0.026864205 0.28367648 0.05342429 -0.011524084 -0.04725212 0.028333744
0.25746313 0.1070542 0.23582177 -0.13617142 -0.057144497 -0.15940392 -0.058104746 -0.10035542
-0.19468126 0.111333616 -0.07505268 -0.07708037 0.16202746 -0.19402026 -0.33212158 0.099664055
-0.029154878 0.13223667 -0.036373194 0.23556694 -0.025422318 0.19583501 0.06667061 0.024814596
-0.11597257 -0.09287688 -0.09170018 0.028266286 0.23574649 0.06980075 -0.025513727 0.017850943
0.11046953 -0.08661488 0.012547452 -0.0432694 0.12743974 0.2062166 0.12574802 0.13824439

model.5.bias f4 [64]
00000000: e448 e3bd 9c6b 35bf 2d3c babb 33e4 b1be
00000010: b5c9 14bf 9a99 09bf dc61 25bf c074 57bf
00000020: 5cdc 0cbe b5a2 91bd 8f5f dabe 21bd 7fbf
00000030: 3c20 73bf 208d 7dbf 6c85 4abf fdf8 4dbf
00000040: 8697 3abf 5360 b5be 006b fcbe bb30 bebd
00000050: a8ff 7fbf 8a81 dbbe 686c d1bc 1baf 21bf
00000060: 74a4 64be 6c7b 7ebf 0087 88be b3b8 1fbf
00000070: 02a0 04bf c368 44bf cc60 71bf 0f22 7fbf
00000080: 9e03 4cbf b5ae e2bd ce76 44bf fa56 08be
00000090: e7bb 19bf c974 30bf 9f45 48bf 2b41 3bbf
000000a0: 6130 7abe eb39 013e a924 48bf e6cb 7ebf
000000b0: 51c5 7dbf ff0b c2be 66a6 ccbe 4c69 87be
000000c0: e943 6dbe 8d8b 88be a5a8 6bbf ed1d 1ebf
000000d0: f8c3 e4be a425 3ebf 5106 b93d 564b 7dbf
000000e0: eb96 b8be 1f47 7cbf a7b1 81be 068e 55bf
000000f0: 94a0 7ebf 511d 91be 2ea8 39be 639d 06bf
-0.11097887 -0.70867324 -0.005683443 -0.34744415 -0.5812028 -0.5375 -0.64602447 -0.8416252
-0.13755935 -0.07111112 -0.4265103 -0.9989796 -0.9497106 -0.99043465 -0.79109836 -0.8045805
-0.72887456 -0.35425052 -0.49300385 -0.09286638 -0.99999475 -0.42872268 -0.025564387 -0.63157815
-0.22328359 -0.99407077 -0.26665497 -0.62391204 -0.5180665 -0.76722354 -0.94288325 -0.99661344
-0.7969302 -0.11068479 -0.7674378 -0.13314429 -0.6005234 -0.689282 -0.78231233 -0.73146313
-0.24432518 0.1261975 -0.7818094 -0.99529874 -0.99129206 -0.37899777 -0.39970702 -0.26447523
-0.23170437 -0.2666897 -0.92054206 -0.61764413 -0.44680762 -0.74276185 0.09034408 -0.9894308
-0.3605264 -0.9854602 -0.2533085 -0.83419836 -0.9946377 -0.2834268 -0.18130562 -0.52583903

model.7.weight f4 [64]
00000000: f038 7f3f 4cc1 413f 619d 7e3f cce2 253f
00000010: c563 4c3f c56d 533f 7261 373f 03c9 393f
00000020: bdda 7a3f 7011 473f b0c3 6b3f 25cb 5d3f
00000030: 5734 373f d277 7e3f 28e5 363f 8eaf 5c3f
00000040: 94fe 633f 55f1 613f 188c 6b3f 6f84 5d3f
00000050: 58aa 663f 60a9 053f 76c1 7d3f d2d4 593f
00000060: 08a2 5c3f 72df 633f ed6c 0f3f 8454 3c3f
00000070: a871 5d3f 38f0 483f a416 493f 01bf 613f
00000080: 951a 6f3f d524 693f 8a38 673f e4d9 7d3f
00000090: 0ee6 5c3f 8e29 473f cde0 5a3f 2c64 313f
000000a0: 45f5 273f 807d 6e3f da43 6b3f 3495 603f
000000b0: f1f8 753f 0aa5 783f 614e 5e3f 34d7 5b3f
000000c0: d538 603f 1c1c 6b3f 6c3e 5a3f 0991 523f
000000d0: 1d5d 3e3f e7c7 103f 535c 4e3f 1efe 5d3f
000000e0: e23d 5f3f 4db2 503f 0cdd 583f 8c9b 583f
000000f0: acc9 763f bc29 2c3f c208 5c3f 6fc0 773f
0.99696255 0.7568557 0.9945889 0.6479919 0.79839736 0.8258937 0.71633065 0.72572345
0.9799002 0.7776098 0.9209547 0.866381 0.7156424 0.9940158 0.71443415 0.86205375
0.8906033 0.8825887 0.9201064 0.865302 0.90103674 0.5221157 0.9912332 0.85090363
0.8618474 0.89012825 0.5602558 0.7356646 0.8650155 0.78491545 0.7855017 0.88182074
0.93399936 0.91071826 0.90320647 0.991606 0.86288536 0.7779778 0.8549927 0.69293475
0.65608627 0.9316025 0.9190041 0.87727666 0.9608298 0.9712683 0.86838347 0.8587525
0.8758672 0.91839767 0.852515 0.82252556 0.7436083 0.56555027 0.80609626 0.8671588
0.872038 0.81522065 0.8471229 0.84612346 0.96401477 0.6725118 0.85950863 0.96778005

model.7.bias f4 [64]
00000000: c212 a8bd 74ba acbe 67c1 243f 8209 7fbf
00000010: d1ef 9a3e b25b 4e3e 7120 1f3e 9895 b0bd
00000020: 985a 02bc 4375 12bd b83e 703f f20d 9fbe
00000030: 830e 2b3e a45c 373f 3066 d63d b6a9 343f
00000040: 2a65 b9be 95b4 d83e 4e4a c73e 3314 04bf
00000050: 822a 293f 8f31 9b3d 9e93 31bf d262 3f3f
00000060: cddd 28bd db21 47bd f858 84bd 57dc 353f
00000070: d5c1 70bd 1b5a eabd e21d 3dbf df81 a2be
00000080: bc28 183e 9bdc 093e b9f3 8f3e 9424 2f3f
00000090: ecf6 f63e 680a 593f 2774 a23d 4010 543d
000000a0: d82f 82bd 6d7e 09bf f386 b4be f432 163d
000000b0: 0428 21be 6096 703e 16ed e43e 6401 7c3e
000000c0: 1f66 703f f520 103e cd77 663d df95 84bb
000000d0: efab 9ebe 031c 7fbf 1fb3 2abd 3c76 9fbe
000000e0: 1f86 8fbd a6d3 03bf 4f83 dd3b 5748 ec3e
000000f0: b6d2 c0be e484 13be 3f4f 913d 5e06 a33e
-0.08206703 -0.33736002 0.6435761 -0.9962388 0.3026109 0.20152166 0.15539719 -0.08622283
-0.00795617 -0.03575636 0.938457 -0.31065327 0.16704755 0.71625733 0.104687095 0.7057146
-0.36209995 0.42325273 0.38923877 -0.5159332 0.66080487 0.07577812 -0.6936587 0.7476016
-0.04122715 -0.04861627 -0.06462282 0.71039337 -0.058778603 -0.114429675 -0.7387372 -0.3173971
0.14859289 0.1346306 0.28115633 0.6841519 0.4823526 0.84781504 0.079323106 0.05177331
-0.06356782 -0.53708535 -0.35259208 0.036669686 -0.15737921 0.23494864 0.44712132 0.24609905
0.93905824 0.14075072 0.056266595 -0.0040461863 -0.3099055 -0.9965212 -0.04167473 -0.31144893
-0.070080034 -0.51494825 0.006760038 0.4614894 -0.3766076 -0.14406163 0.07095193 0.31840795

model.7.running_mean f4 [64]
00000000: c7e3 7a3d 7f4b 10bf 6ada 3940 6e5f f0be
00000010: fbc5 29bf 0893 01bf ccc3 03bf 5a43 8dbe
00000020: adbd 8c3d 8a85 a13f 5406 27bf cd90 3ebf
00000030: 0964 3bbf d4db 31bf 673c f4be f32c 31bf
00000040: d870 cabe fc74 fcbe 24b5 6ebf f329 f3be
00000050: 2743 3cbf 5075 bebe b82c a03e eb68 26bf
00000060: ac76 483d 0d69 61bf 242e 9bbe 7e3a 71bf
00000070: 0735 f2be 81fe 99be 8a2d 20bf 6671 17bf
00000080: 530e 14bf 7bd8 2cbe 5748 22bf a2b0 7abe
00000090: ac1b 20bf e001 20bf 38f3 03be 37a4 2ebf
000000a0: 96c5 1d3e 3fd3 3240 1b35 04bf 1237 2ebf
000000b0: 22de 34bf 6a18 ffbe 98fb 41bf 28cc d1bd
000000c0: 0600 49be 217f ce3d 8b7e 21bf 9075 11bf
000000d0: 0693 babe e707 cdbe 5f0d 0540 2652 3bbf
000000e0: 2059 fdbe a48d cdbe 4769 d6be a126 85bf
000000f0: 1921 d0be 31ff dcbd a41e 94be 11fd 2fbf
0.06125238 -0.563652 2.903956 -0.46947807 -0.6631772 -0.50614977 -0.5147064 -0.27590448
0.06872115 1.2618878 -0.6524403 -0.744397 -0.73199517 -0.69476056 -0.47702333 -0.6920921
-0.39539218 -0.49308002 -0.9324515 -0.47492942 -0.73539966 -0.37198877 0.31284118 -0.6500384
0.0489413 -0.8805092 -0.3030864 -0.94229877 -0.47306082 -0.30076984 -0.6256949 -0.5915741
-0.5783436 -0.16879456 -0.6339163 -0.24481443 -0.62542224 -0.6250286 -0.1288575 -0.6821932
0.15407404 2.7941434 -0.5164353 -0.6805278 -0.7065145 -0.49823314 -0.75774527 -0.10244018
-0.19628915 0.10082842 -0.63083714 -0.5682001 -0.36440295 -0.40045092 2.078941 -0.73172224
-0.4948206 -0.40147126 -0.41877195 -1.0402414 -0.40650252 -0.107908614 -0.28929627 -0.68745524

model.7.running_var f4 [64]
00000000: 6af3 f83f b12c 8d3e 218b 0341 e8e6 153f
00000010: 6ec0 183f e96d ba3e ba45 823f 996e ee3e
00000020: 83bf 063f b9b7 1e40 1b83 1740 941e 993e
00000030: 5fdf 943e d02c 923e 7328 953e f4b3 c93e
00000040: 1663 553f e797 7f3f b640 a03e e997 1b3f
00000050: 4ea3 873e 384e cc3e c08f db3f a99a 823f
00000060: f29d a43f ef9c 773e 06f1 433f 2af5 043f
00000070: 492e a33e 22a3 583f 672a 863f 9855 673e
00000080: 8fa0 b13e a6ed 413f 0d30 1d3f 2444 8f3f
00000090: ac4c c43e bda1 073f 7d5a 0040 4969 823e
000000a0: 5767 0440 5bf8 2c40 8192 fa3e 5a18 e03e
000000b0: 713d 763e fa4d 413f 21ea 6c3e 2668 cd40
000000c0: b521 7740 5386 0a40 5809 793e c29a 8b3e
000000d0: 109b e83e 985f 343f c47b 8b40 e766 a83e
000000e0: 7bdc 9f3e 936f a93e 9492 c93e ded0 8f3e
000000f0: 1f26 ad3e ed8f db3f bd44 b13e b24f 483e
1.9449284 0.2757316 8.221467 0.5855546 0.59668624 0.3641198 1.0177529 0.46568754
0.52635974 2.4799635 2.367377 0.29906142 0.2907667 0.28549814 0.29132423 0.39395106
0.8335432 0.9984116 0.3129937 0.6077867 0.2649178 0.39903426 1.7153244 1.0203449
1.2860701 0.24180959 0.7653965 0.5193659 0.3187125 0.8462392 1.048169 0.22591245
0.3469281 0.7575325 0.61401445 1.119267 0.38339746 0.5298117 2.005523 0.2547095
2.0688074 2.7026584 0.489399 0.4376858 0.24046876 0.7550961 0.23136188 6.4189634
3.8614323 2.1644485 0.2431997 0.27266508 0.45430803 0.70458364 4.358858 0.32891008
0.312229 0.33092937 0.39369643 0.2808904 0.33818147 1.7153298 0.34622756 0.19561651

model.8.weight f4 [128, 64, 3, 3]
00000000: 0d9a aa3d c8e9 903e 5364 cc3d f9d3 e43d
00000010: 537c a03c 043e 6dbe 19e3 953c c146 133e
00000020: a952 0f3e 3a2d 89be 8b4a 90be 3d3a 1a3d
00000030: 33c7 d53a ce69 333e 2f5e 67bd fa03 7bbe
00000040: e9fe 01be daaa d53d 2b5f 06be 9edb 83bd
00000050: 7f09 8abd 90b9 6ebe 27c8 d73c 5af4 7ebd
00000060: b447 263d 1a5a 803d 0ec6 26be f8b0 c5bd
00000070: 12bf 0dbd 57c8 463e 7f27 913d a495 cb3d
00000080: c208 3e3e 8719 e9bd 43fb d33b 6e96 573e
00000090: 7d3c 26be 9eaf 49be 17bb 313d 676f 993d
000000a0: 3d85 dcbd 3891 e03d f3aa 95bb 5c23 603b
000000b0: 3847 da3d 2850 e6bd acd3 a33c de18 1bbe
000000c0: aec6 863d cae3 f4bd f6b8 e13d ef88 053d
000000d0: 4b7d d2bd bfd6 af3c bee6 0e3d 46d9 3a3e
000000e0: c001 d7bd 2850 71bd d287 a53d 7a44 51be
000000f0: 519b 223e 0d2d ab3d a603 e6bd 242f a9be
00000100: 4b33 0cbe 1bb8 373e 24d7 b9bb 4e4a 1f3d
00000110: a44d 8f3d 7d08 983d 64d1 b9bc 0cbf 543d
00000120: 76a3 89be 9c7f 3dbd d4eb 7dbe c03a c4be
00000130: 5bf1 13be 0791 a53d 791d 54be 1613 2dbe
00000140: bc6a 403c 3919 113d 3ff6 bb3c 9591 923d
00000150: 4bba dd3c d96c 3b3e a9ec 133c 285c 1cbd
00000160: 9260 883d 95ad 15be a187 78bd 2602 553e
00000170: 8d25 883d a200 b23c 4d31 50bc 6e00 85bd
00000180: f338 fcbd 1bc0 efbd c663 dcbd d2ed 30bd
00000190: a131 273c 5e99 813e 272b 92bd 389d 98bd
000001a0: 49d9 a83d 489e c93a fdc0 e93c 65a5 213d
000001b0: 3d19 fdbc 7c76 a33c 3b16 863c 122c c5bd
000001c0: f0f8 06be 6f2b 40bc 550a 39be 65da 79be
000001d0: f055 e2bd 29a3 0dbe 4836 2dbe 8f69 21bd
000001e0: 5853 413d 9427 fbbd 117c be3d 791a 23be
000001f0: 234f 87be 35b1 123d d5b2 f53d 8070 97bd
00000200: d8e9 2f3e 54d5 533e 7ed7 963c 3470 e5bd
00000210: 5e3d 83bd 5f13 5d3b 9183 a93d 8a03 c0bd
00000220: 94e5 6a3d c004 85be 323a 9cbd 4f57 8cbc
00000230: c33d 5bbc 4e2f 9fbc 2cb7 0dbe 2c76 8abd
00000240: 16d5 f7bd 7384 4d3d 28ea c73d a665 a03e
00000250: 910b 533d ae7b 5cbe 85ef 2ebe 3c4e 993d
00000260: 7a8e fe3c 3b03 03bc 757d 1cbe a7f1 ee3d
00000270: 3a6d 45be 95b7 e63d f89b 30be c361 203b
00000280: c5ac 853d b095 e4bd 3fed 1e3d 3648 c5bd
00000290: af75 46bd 17bc b33d d5eb fabc 1530 023e
000002a0: 40d4 1d3d 360b d8bd 0e47 343d 4f3d 173e
000002b0: 7536 d83b 1b85 693c b8c0 843d 1411 31be
000002c0: c0de 65bd 588d 533d ecde 683d 07d4 e83d
000002d0: 41cc 17bc 173d b2bd 500d 003c f193 04be
000002e0: 6c23 01be 7d3e 973d a290 4ebd 5846 b83c
000002f0: dbaf 6cbd c8d5 733d 97ff 2cbe e686 23be
00000300: 7524 8fbd a0ae ebbd 21e9 193e 1612 1e3d
00000310: cf11 7abe efbc 823c a69f 9cbc efef a43d
00000320: cf09 963e e6d9 f43d 67e2 04bc 617d 2ebe
00000330: ab58 20bd 0033 a83d 8ea5 023e bea7 16be
00000340: 17c7 713e 42b6 7a3b 031a 8d3b 2030 bfbd
00000350: 2261 34be 5ea2 bd3d 3068 aabb bfdb b2bd
00000360: 46f6 363e ee64 83bd ba94 fdbd dcfa 8dbd
00000370: 5ca3 b93d 7ce1 b6bc 7217 9dbd dca5 36bd
00000380: 89e2 c5bd f57f 423c c242 48bc d68b 3d3d
00000390: d0e9 abbd 5f2c 133d 59c9 303d 2920 a13d
000003a0: 6b63 cfbd a9a7 013e b8e6 e83d b401 00be
000003b0: b14a b83d 933c 1f3d 4cd2 9dbd 9df5 4d3d
000003c0: eab7 dfbc 5639 58be bb82 98bc 37d5 143d
000003d0: 46b3 423e 5f05 3fbc 1fe7 debd beb2 3abc
000003e0: 7f51 bebc 77f7 4ebc ad59 bfbc e0a9 c1bd
000003f0: e9d9 d3bc aef8 183e f9b1 233e 0b1c a4bd
0.08330164 0.2830336 0.09980073 0.11173243 0.019590532 -0.23168188 0.018296765 0.14382459
0.13996376 -0.26792318 -0.28181872 0.037653197 0.0016309976 0.1752083 -0.056486305 -0.24513236
-0.12694897 0.10432978 -0.13122241 -0.06438373 -0.067400925 -0.23312974 0.026340557 -0.06224475
0.040595725 0.062671855 -0.1628649 -0.09652895 -0.034606047 0.19412361 0.070876114 0.09940651
0.18558028 -0.11381822 0.0064691617 0.21053478 -0.16234012 -0.19695899 0.043391313 0.074919514
-0.10767601 0.10965198 -0.004567498 0.0034200763 0.10658115 -0.11245757 0.019998394 -0.15146205
0.06580864 -0.1195751 0.110216066 0.032601293 -0.10277804 0.021464704 0.03488802 0.18246946
-0.10498381 -0.058914334 0.08082546 -0.20436278 0.15879561 0.08358202 -0.11231165 -0.33043778
-0.13691442 0.17941324 -0.0056713987 0.03888922 0.06997231 0.07423494 -0.022682853 0.05194001
-0.26882523 -0.046264276 -0.24796993 -0.38326073 -0.14447539 0.080843024 -0.20714368 -0.16901812
0.011744197 0.035424445 0.022944568 0.07156674 0.02706637 0.18303241 0.009028592 -0.038173825
0.06659044 -0.14616998 -0.06067622 0.20801601 0.06647787 0.021728817 -0.012707067 -0.064942226
-0.1231555 -0.11706563 -0.10761218 -0.043195553 0.010204704 0.25312322 -0.07137137 -0.07451862
0.08244569 0.0015382254 0.028534407 0.039464373 -0.030895824 0.019953959 0.016368022 -0.09627546
-0.131809 -0.011729105 -0.18070348 -0.24399717 -0.110515475 -0.13831772 -0.16915238 -0.03940731
0.047198623 -0.12263408 0.093010075 -0.15928067 -0.26427564 0.03581353 0.11997 -0.073945045
0.17179048 0.20686847 0.018413302 -0.11203042 -0.06408189 0.003373347 0.082770474 -0.09375675
0.05734785 -0.25980186 -0.076282874 -0.017131476 -0.013381424 -0.019431736 -0.13839406 -0.06760821
-0.1210119 0.05017514 0.09761459 0.31327552 0.051524702 -0.21531555 -0.17083557 0.07485625
0.031073797 -0.007996376 -0.15282233 0.11667185 -0.19279948 0.11265484 -0.17246997 0.0024472333
0.06527094 -0.11161363 0.038800474 -0.09632914 -0.048452076 0.0877611 -0.030630032 0.12713654
0.038532495 -0.10549013 0.044013076 0.14769481 0.0065982887 0.014252926 0.06482071 -0.17291671
-0.056120634 0.051648468 0.05685322 0.11368566 -0.0092650065 -0.08703058 0.007815674 -0.1294706
-0.12611169 0.073849656 -0.0504309 0.02249448 -0.057784896 0.05953005 -0.16894375 -0.15969428
-0.069893755 -0.115079165 0.15030338 0.038591467 -0.24420856 0.015959231 -0.019119095 0.08053576
0.29304358 0.11955623 -0.008110619 -0.17040016 -0.03914706 0.082128525 0.12758467 -0.14712426
0.23611103 0.0038255607 0.0043060794 -0.09335351 -0.17615178 0.09259485 -0.0052004084 -0.087333195
0.17867383 -0.06415735 -0.12381883 -0.06932613 0.090643615 -0.022324316 -0.076704875 -0.04459177
-0.09662349 0.011871328 -0.012222948 0.046275936 -0.083942056 0.035930987 0.04316077 0.07867462
-0.10126384 0.12661614 0.11372131 -0.1250065 0.08998621 0.038876127 -0.077061266 0.050283063
-0.027309377 -0.21115622 -0.018617025 0.03633615 0.190137 -0.011658995 -0.108839266 -0.0113951545
-0.02323222 -0.012632242 -0.02335819 -0.09456229 -0.025860744 0.14938614 0.1598586 -0.08013161

model.8.bias f4 [128]
00000000: a4fa 8cbe f925 19bf 816f 18bf 0d16 17bf
00000010: 2a98 54bf 9ba7 3fbe 9d2c fabe 618b 1ebf
00000020: cd12 67bf 7b23 aabe 4ace d9be 4a19 6dbf
00000030: c73b 64be ed82 63bf 55a2 803c 73f9 53be
00000040: 57eb 26be a133 9dbe 3f06 10bf e5e2 3abe
00000050: d5c6 2ebe 8808 98bd 3003 9fbe b423 e2be
00000060: 9fdc 15be 0e68 c5be c4e3 a2be f0ec 2bbf
00000070: 9cbf 23bf 8fd9 a2be b640 1cbf 4554 95be
00000080: 031f 6abf b417 dbbd 75f3 cdbd 56e9 5ebf
00000090: 7c56 49be ffae 3bbf 7875 42bf 2ee4 51bf
000000a0: 59b5 c8be 3474 0fbe 24f4 85be f037 e6be
000000b0: 54bb 0abf 5f20 d9be b39c 41bf 20bc 9ebe
000000c0: 6842 edbe 5d90 1ebe ebca 7ebf 2139 8ebe
000000d0: 2c09 04bf 2b90 e8be 316b 6abf 7ba8 48ba
000000e0: f3d0 3ebf a10d 37bf a4f2 57bf d5c0 eabe
000000f0: 6c64 e1be 35a3 1fbf 5fbd 33be 4c4d 41be
00000100: e624 afbe 1167 63be 6b90 ccbe ed72 31be
00000110: 1e7f a6be 2ec0 d2be 0b8e 85be 1e28 44be
00000120: 3e0b cbbe 5147 1cbe 03f4 2bbe 317e e5be
00000130: 6dd6 54bf 7cce 34bf dbde 4abe 6e28 2ebf
00000140: 0dd0 66bf dd5c fabd 59a0 23bf c61a 07bf
00000150: b005 af3d e95a d5be 149e 2bbe 90fe 39bf
00000160: 9bcb bebe 0161 02bf 5907 96bd 18d7 56be
00000170: c438 3f3b c983 abbe e8f1 9fbe 4214 b0bd
00000180: 82c3 9cbe 3784 dbbe e45d 4abf 5ff5 cbbe
00000190: 8396 6dbe a7ee 2dbf 2360 17bf 0150 8ebe
000001a0: c7f5 82bd 44b3 1fbf 05fc 98be 02f6 3dbe
000001b0: f588 7fbf 77d9 7fbf 1dd4 7bbe 66fc 55be
000001c0: 61b2 59bf 704e 06bf e297 d6be d450 3bbf
000001d0: 538b bdbe df6d 02bf e71f 6bbd 8dcd 42be
000001e0: 9201 7abe e12b 47bf 009c 2fbf 54a6 6fbf
000001f0: a926 50bf d492 bebe 0cbf 0bbe bc58 5bbf
-0.27534974 -0.59823567 -0.5954514 -0.5901802 -0.83044684 -0.1871628 -0.48862162 -0.61931425
-0.9026306 -0.33230194 -0.425402 -0.92616713 -0.22288428 -0.8887165 0.015702406 -0.20700626
-0.16300713 -0.30703452 -0.5625953 -0.18250616 -0.17068036 -0.07423502 -0.3105712 -0.44167864
-0.14634942 -0.3855595 -0.31814396 -0.6715841 -0.6396425 -0.3180661 -0.6103624 -0.29165855
-0.9145357 -0.106978804 -0.10056201 -0.8707479 -0.19661897 -0.733139 -0.75960493 -0.819888
-0.39200857 -0.14009172 -0.26162827 -0.44964552 -0.5419209 -0.4240751 -0.7562973 -0.31002903
-0.46339726 -0.15484758 -0.9952838 -0.2777796 -0.51576495 -0.4542249 -0.9156981 -0.00076545
-0.7453758 -0.7150517 -0.84354615 -0.45850244 -0.44021928 -0.6235841 -0.17552708 -0.18877143
-0.3420784 -0.22207285 -0.39953932 -0.17328997 -0.32518858 -0.41162246 -0.26084933 -0.19155928
-0.39657015 -0.1526158 -0.16792302 -0.4482284 -0.8313969 -0.7062757 -0.19811575 -0.6803044
-0.9016121 -0.122247435 -0.63916546 -0.5277523 0.08546007 -0.4167092 -0.16759521 -0.72654057
-0.37264714 -0.50929266 -0.0732562 -0.20980489 0.0029178122 -0.33498982 -0.31239247 -0.08597614
-0.3061791 -0.4287431 -0.79049516 -0.3983564 -0.23201947 -0.6794228 -0.5913107 -0.27795413
-0.063945346 -0.6238291 -0.29879776 -0.18550876 -0.99818355 -0.999412 -0.24592634 -0.20897064
-0.8503781 -0.52463436 -0.41912752 -0.7317021 -0.37020358 -0.509489 -0.05740347 -0.19023724
-0.24414662 -0.7780133 -0.6859741 -0.9361317 -0.8130899 -0.37221396 -0.13647097 -0.8568227

model.10.weight f4 [128]
00000000: 9a67 7e3f 8226 7d3f 9f62 7e3f d8b8 7d3f
00000010: ce40 7d3f 0cdb 4e3f 8eb4 7c3f b230 7e3f
00000020: 47ec 7e3f 0f3c 7f3f bf72 7b3f b385 7e3f
00000030: 507c 7c3f aa9a 7c3f aeb9 603f 03ce 7e3f
00000040: ffab 743f 0eee 7e3f be3d 7f3f dbaf 3b3f
00000050: 20e1 7d3f 6e7e 7b3f c5d9 7b3f 4e82 7e3f
00000060: 3400 723f a032 7e3f 2092 7f3f 44cc 7e3f
00000070: e1ec 783f 5cde 7e3f 9959 7f3f c137 793f
00000080: 69ea 7d3f b873 5f3f 93f8 5b3f 2475 7e3f
00000090: ddbd 7c3f feab 7e3f 56ba 7e3f f464 7f3f
000000a0: 6105 7d3f d26a 4c3f 8b41 7e3f a211 7f3f
000000b0: 253a 7f3f 78d0 7d3f fddd 7e3f 3ddf 7e3f
000000c0: d418 7b3f 833f 5d3f 55d1 7e3f 2dc1 783f
000000d0: 97a2 7e3f 9efb 7e3f 70c7 7e3f e8b5 743f
000000e0: c3d9 7c3f 2b28 733f 4abd 7e3f 9113 7f3f
000000f0: 4df9 7d3f 37ef 7c3f 87ad 793f 46d3 6f3f
00000100: 1455 7b3f e985 7d3f 9323 7d3f d9d5 793f
00000110: 071e 7f3f 1098 7e3f 6ea9 7d3f ce4f 7f3f
00000120: 3af5 7d3f cc9f 7c3f 285c 763f 884d 7a3f
00000130: 776f 7e3f 2057 7f3f 50e1 763f 9868 7d3f
00000140: 8c7d 7d3f 8a10 6b3f f524 7e3f f52d 7f3f
00000150: 58f6 7d3f 675c 7d3f 3450 7c3f 75b3 7d3f
00000160: e9e9 7d3f f557 7e3f 8449 703f 2244 7e3f
00000170: dc10 563f 6be7 7c3f 095a 7e3f fb29 7e3f
00000180: 052e 7f3f 8d74 633f d3ea 7e3f b99b 7c3f
00000190: 9a5e 763f 043d 7f3f 738f 7c3f fd1a 7e3f
000001a0: e7b8 7a3f c1c9 7e3f f064 7f3f 0fd0 7b3f
000001b0: 6417 7f3f bc00 7f3f ed3d 7e3f ceb7 6d3f
000001c0: 18d6 7e3f c247 5b3f 5f23 7f3f 3248 7e3f
000001d0: c0bb 7f3f a4d1 7f3f df15 5e3f a2be 7f3f
000001e0: 9a90 7d3f 7f65 7e3f 1b83 7d3f 6862 7e3f
000001f0: 0c5a 7e3f a093 7e3f 557c 7e3f e52e 7f3f
0.99376833 0.98886883 0.99369234 0.99110174 0.9892701 0.8080299 0.98713005 0.99293053
0.9957928 0.9970102 0.98221964 0.9942276 0.98627186 0.986735 0.87783325 0.995331
0.95574945 0.9958199 0.99703586 0.7331521 0.9917164 0.9823979 0.98379165 0.9941758
0.9453156 0.99296 0.99832344 0.99530435 0.9723645 0.99558043 0.9974609 0.973507
0.99185807 0.8728595 0.8592617 0.9939749 0.9872721 0.9948119 0.99503076 0.9976342
0.9883633 0.79850495 0.9931876 0.9963628 0.99698097 0.99146223 0.9955748 0.99559385
0.9808476 0.86425036 0.99538165 0.9716976 0.9946684 0.9960269 0.9952307 0.95590067
0.9876978 0.94983166 0.9950758 0.9963923 0.9920853 0.9880251 0.97530407 0.9368175
0.98176694 0.99032456 0.98882407 0.9759193 0.99655193 0.9945078 0.99086654 0.9973115
0.9920231 0.9868133 0.9623437 0.97774553 0.9938883 0.9974232 0.9643755 0.9898772
0.99019694 0.9182211 0.9927514 0.996795 0.99204016 0.9896912 0.9855988 0.99101955
0.99185044 0.9935296 0.93862176 0.9932271 0.83619475 0.98790616 0.9935613 0.9928281
0.99679595 0.8884972 0.99577063 0.98675114 0.962381 0.9970248 0.98656386 0.9925993
0.9793839 0.995266 0.99763393 0.9836435 0.99645066 0.99610496 0.9931324 0.9285859
0.9954543 0.8565637 0.99663347 0.9932891 0.9989586 0.9992926 0.8675212 0.9990026
0.9904877 0.9937362 0.99028176 0.99368906 0.9935615 0.9944401 0.99408466 0.9968093

model.10.bias f4 [128]
00000000: d4e6 16bc 495f 813c 8f2b a6bc fb02 243d
00000010: 4298 9e3d 7ef4 e13c 270d 7f3d 2c63 703c
00000020: 3cfe 883c 2d25 913c f6e4 9a3d 6f47 f2bc
00000030: 3f3c 23bc 6119 71ba 8e38 12ba 2b2f 3c3b
00000040: c1ac db3d c08a cf3c 922e d43c ff8a f73c
00000050: 4a92 643d da85 bfbc c963 b4bc 1a2c aabb
00000060: d647 bc3a 3193 ec3c d32e 183c 6398 6c3c
00000070: de6d 88bd 51cd 353c 758a a23c d156 5ebd
00000080: ec3b ee3b d148 6e3d 9070 5cba ab14 233d
00000090: bd82 df3d 50e8 9bbd 64e2 e23b 6728 753d
000000a0: b181 60bb cd45 153c 64e9 08bd e7e4 003d
000000b0: bca9 4bbc 6af2 9ebd 2391 503d 599f 593d
000000c0: e07f 2fbd f956 0d3c 9dfa e43c 8875 5a3b
000000d0: 7021 e83c c14c 873c dd7a 873c 0798 b93c
000000e0: 7354 6c3b 2e36 3e3d 5498 883d 3dd4 b03c
000000f0: 3559 31bd dda2 33bb 50af 82ba 921a 433c
00000100: f4cd a3bc 9e8c 8b3b 7cad eb3c 5dd0 b9bb
00000110: 9ca3 da3b 4770 8bbd f437 f03c ebc2 993c
00000120: 8daa 95bb fbcb 89bb 0624 03bb 5734 c8bc
00000130: 4eef a5bd 74aa a63c b4b6 c33b 4948 90bb
00000140: d076 a43d 6b65 e43c b10e 9c3c 602e 2f3d
00000150: 2fa7 b8bc 0441 453c c3ea 28bd a671 53bc
00000160: 1fa3 41bb 0262 9fbc 550e 4b3d 00cd 803b
00000170: 388c 0d3d 3cfc 3ebd fed5 2dbb d8dd 50bd
00000180: 969c 78bc c4e5 063d 6cc7 6ebb 5766 9dbd
00000190: 0334 713d 3cb8 4dbc 270b 3ebd 3a89 083d
000001a0: 83d3 a83c 7edb 253c 700e c6bd a596 883b
000001b0: 61a1 a53b 1eeb 983c 4633 0c3c fd44 e43c
000001c0: 0192 4b3b 54d5 de3c 486f 013b e1d9 c4bb
000001d0: a523 973c ea58 9eba 8283 a9bc 0c62 ad3b
000001e0: 40d7 00bc d5e1 4f3c 940e 003c e574 ea3c
000001f0: b38a d53c 238c d1bb 99cc 4b3c 65bc 473d
-0.009210307 0.015792506 -0.020284442 0.040041905 0.077438846 0.027582403 0.062268402 0.014672082
0.01672279 0.017717922 0.07563202 -0.029575078 -0.009963094 -0.0009197202 -0.00055778853 0.0028714638
0.107263096 0.025334716 0.025901113 0.030217646 0.055803575 -0.023379255 -0.022020238 -0.0051932456
0.001436467 0.02887878 0.0092885075 0.014440629 -0.066615805 0.0110963145 0.019841412 -0.054282013
0.007270327 0.058174912 -0.0008409107 0.039814632 0.10913608 -0.076126695 0.0069239605 0.059852984
-0.003425699 0.00911088 -0.033425704 0.0314683 -0.012430605 -0.077610806 0.050919663 0.05313048
-0.04284656 0.008626693 0.027951533 0.0033334214 0.028336257 0.016516091 0.016538078 0.0226555
0.0036061078 0.04643839 0.06669679 0.021585578 -0.043297965 -0.0027410307 -0.000997046 0.01190819
-0.019995667 0.0042587062 0.028769247 -0.005670591 0.006672336 -0.068085246 0.029323556 0.018769702
-0.0045674504 -0.0042052246 -0.0020010485 -0.02443902 -0.08102284 0.02034495 0.0059727076 -0.0044031483
0.08030474 0.027880391 0.019049974 0.042768836 -0.022540657 0.012039427 -0.04123951 -0.012905514
-0.002954669 -0.019455913 0.049574215 0.003930688 0.03455755 -0.04662727 -0.0026525254 -0.050992817
-0.015174052 0.032933965 -0.0036434783 -0.076855354 0.058887493 -0.012556132 -0.046397354 0.033333994
0.02060867 0.010123132 -0.096707225 0.004168349 0.0050546383 0.0186668 0.008557146 0.027864927
0.0031062367 0.027201332 0.0019750167 -0.0060074185 0.018449614 -0.0012080942 -0.02069259 0.005291229
-0.00786382 0.01268812 0.007815976 0.028620193 0.026067114 -0.0063948794 0.012438917 0.04876365

model.10.running_mean f4 [128]
00000000: 1fea aabf cd5a a3bf 6d54 ccbf 4a6b 95bf
00000010: 94af 8bbf dc55 f13e 6f92 86bf 41da abbf
00000020: b24e c7bf 4d8c 97bf 6e76 9d3e 89d4 d7bf
00000030: 3796 97bf cfc6 c9bf d17d 193f 9fcb 7cbf
00000040: c8f0 013f 4e94 d6bf 41b1 ccbf 3986 2fbf
00000050: 8f5e 9cbf b53d dd3e 4be1 27bf d562 b1bf
00000060: 982c 2cbf d37f ccbf f739 88bf 94da b0bf
00000070: 34b6 b3bf 5700 a0bf a197 ccbf cbdf 85bf
00000080: 6470 01c0 d49d 82be e497 73bf f1f3 a4bf
00000090: e8ee a43e cf6d a7bf 06a8 c4bf 01ba b9bf
000000a0: a891 a3bf e570 edbd 6110 95bf 9ae0 bfbf
000000b0: c3f7 d7bf fcc5 8cbf 311d cfbf 109d 7fbf
000000c0: fe8f b7bf b38e 813e c9cc d4bf fdb7 67bf
000000d0: 0fde e0bf 0ec2 b8bf 6699 f0bf a14a 633e
000000e0: fbca cfbf 940c bfbf 8a09 ddbf 39df bbbf
000000f0: 69b2 9bbf fa93 aabf b36b ac3f e69b 85bf
00000100: 5052 9cbf 012f a7bf 90c8 a3bf 77ce 533e
00000110: 0c1c c1bf 4156 b3bf 321d 95bf 5c20 7dbf
00000120: 0fd6 bdbf 87f9 8abf 6722 2fbe 11db 96bf
00000130: 9329 e2bf 4db7 c7bf 2aa6 9cbf 1865 95bf
00000140: 643b d5bf 4d0b 173f 13c9 9fbf 6ba7 c2bf
00000150: 5be4 e83f 232e bdbf 2893 39bf 65c1 a2bf
00000160: 6567 b3bf a3e3 c6bf 3fa1 0a3f ed58 87bf
00000170: 3573 1a3f b8b9 5abf d05f 97bf 1693 58bf
00000180: 61b9 93bf 8e87 9dbf 44c2 c0bf 92be 8bbf
00000190: 6303 4fbf 3b13 e9bf 53cb aabf e923 0b3f
000001a0: d969 623f fe66 b7bf c819 78bf d0fb 633d
000001b0: 6f82 cebf 0eb9 abbf 5495 55bf dd6f 873d
000001c0: c581 a3bf 080c 83bf c58f ccbf bf4b 88bf
000001d0: 89f9 46bf 2c42 c4bf ad7b c5be 6f67 a0bf
000001e0: 227a acbf 04e5 c0bf aa0d dbbf 2494 b7bf
000001f0: 80bf d8bf f391 b9bf e9c0 83bf 2e62 cdbf
-1.3352698 -1.2762085 -1.5963265 -1.1673367 -1.0912957 0.47135818 -1.0513438 -1.3425981
-1.5570891 -1.1839691 0.30754417 -1.6861736 -1.1842717 -1.5763797 0.59957606 -0.987482
0.5075803 -1.6764009 -1.5991594 -0.6856418 -1.2216357 0.4321114 -0.65578145 -1.3858286
-0.67255545 -1.5976509 -1.064269 -1.3816705 -1.4039979 -1.2500104 -1.5983773 -1.0458921
-2.0224848 -0.25511038 -0.9515364 -1.2886945 0.3221352 -1.3080386 -1.5363777 -1.4509889
-1.2778826 -0.115937985 -1.1645623 -1.4990418 -1.6872486 -1.099792 -1.6180784 -0.99849033
-1.4340818 0.25304183 -1.6624995 -0.9051512 -1.7567767 -1.4434221 -1.8796813 0.22196437
-1.623382 -1.4925714 -1.7268536 -1.4677497 -1.2163821 -1.3326409 1.3470367 -1.0438201
-1.221262 -1.306122 -1.2795582 0.20684229 -1.5086684 -1.4010698 -1.1649535 -0.988775
-1.483095 -1.08574 -0.17102967 -1.1785604 -1.7668937 -1.5602814 -1.2238209 -1.1671476
-1.665875 0.5900162 -1.2483238 -1.5207342 1.8194689 -1.4779705 -0.7249017 -1.2715269
-1.4015929 -1.5538219 0.5415229 -1.0574013 0.6033204 -0.85439634 -1.1826115 -0.84599435
-1.1540948 -1.2306993 -1.5059285 -1.0917532 -0.8086454 -1.8208994 -1.33433 0.5435167
0.8844276 -1.4328306 -0.9691434 0.05566007 -1.6133555 -1.3415849 -0.8343098 0.06613133
-1.2773978 -1.0238047 -1.5981375 -1.0648116 -0.7772451 -1.5332694 -0.3857092 -1.2531565
-1.3474772 -1.506989 -1.7113545 -1.4342084 -1.6933441 -1.4497665 -1.0293247 -1.6045587
