Lab4/models/gan_models/ls_vbn_50e_250b_dis.pth (torch, 398770 bytes, 16 tensors)

model.0.weight f4 [16, 3, 3, 3]
00000000: a845 07bc d635 01bc 69b3 15bd 524c 59bc
00000010: aaba cabc 810a 56bc f4d5 cf3b 4cda 65bd
00000020: 538e 47bc fbeb babc 74e8 0d3d fc4d ebbc
00000030: b1c5 80bc 848d 4f3c bcf5 1b3c 0916 b13c
00000040: e68f b6bc f9d9 60bd 341e dcbb 83ed 553c
00000050: e725 bdbc 3ba5 3bbc be5c c1bb a5c1 8abc
00000060: bd81 9d3c 4fb5 883a 7578 7b3b 74d7 153d
00000070: 566a 593c fa0c 233d 5333 d13c 090d fb3c
00000080: 90a3 c13c 183c d2bc 648b d73c ae4f 0b3d
00000090: 03bb e63c c841 933c 063f 4e3c 7e48 0b3d
000000a0: 6786 383c ffa7 ea3c 705d 003c a8fc cd3c
000000b0: 40b7 9b3c 6b5c 4e3c 2383 c8bc 549f 833b
000000c0: 3ab6 2fbb 9786 09ba 1108 773b 96a9 d23c
000000d0: c6aa 503d f679 043d fa9e 0bbd 4fac 223d
000000e0: 1a29 863c 5b05 c1bc fb16 b73a 1a7c 2bbc
000000f0: 288e 46bc 3a3c 2b3c ade0 48bd b9c9 34bd
00000100: 504c bfbc 3a30 9fbc c956 8fbd 4f57 82bd
00000110: d744 a4bd 8803 81bd f608 e6bd a1e8 a2bd
00000120: 717d c53c 51c8 123d cb3e 2d3d 08e8 313d
00000130: b479 643c 67a4 3a3d 6745 0fbc 7e7c 643c
00000140: 90b6 2e3c 4caa 5d3d cfe1 1ebc 24cc 3e3b
00000150: 665b 353c 1197 83bb e1db 36ba 6892 6c3c
00000160: dab1 9bbc 8bc3 903b 8315 3dbd 3fa9 c8ba
00000170: 883d 3abc 8311 8bbc d79a a63c dd50 373b
00000180: b7e5 abbc 8803 15bd fdfe a8bc 225a 213c
00000190: 855e c53a 3a05 efbc c6f6 223d acc2 cd3c
000001a0: 57ce 7d3c 8870 df3b 7a80 a1ba df9c 9c3c
000001b0: 119d b73c 3a2c 9f3b 242e b5ba 6ca1 16bd
000001c0: f8ae 8dbc 6ed3 e4bc b996 fabc b324 c73a
000001d0: 6550 683c 5ddf 243c 13f0 b33c 75d3 d1bc
000001e0: 55f4 eeba 30d3 fb3c df19 ff3c d35e 873c
000001f0: 45d3 a43c acc4 c2bb b3f2 8dbc d71b 233d
00000200: 0824 d2ba 2c34 2ebc 3619 f4bc 13d4 d5bb
00000210: 334a 8dbb 8a5b c1bc f531 173b 9fd5 743d
00000220: 24c8 923c 76da 0a3d cf3d 923c 6142 3eb9
00000230: 16f4 17bb aca8 233c 5188 163c 5506 9e3c
00000240: fe39 743c fbe4 54bc 98b5 c83b 2448 79bc
00000250: af5a bbbc 27a4 9d3b af41 643c 46da 073d
00000260: 08e0 333d 38f4 c7bc b207 02bc 47c6 98bc
00000270: 793f a93c 465d ef3c e63b 05bc fa11 843c
00000280: 6704 fb3c 6ae1 393d a11e 0ebd 2b6b 06bd
00000290: 8324 27bc d158 e4bc 9283 29bb 7e07 f9bc
000002a0: c862 3cbd e1ed 64bd 82b5 b0bc 1d46 91bd
000002b0: 2d33 cfbd 13e9 8bbd c23d 5bbd 7e2d a0bd
000002c0: 21fc 48bd 23c9 95bd 81a9 9abd ad69 bcbd
000002d0: 3c2e 9b3c a72e 073d 9135 e63b 02c3 383d
000002e0: 0036 ee3c 20dd ed3c 1b6a 863b b8ba 143d
000002f0: 167f e73c aa02 83bb 8aaf dd3c 700f 343d
00000300: b484 303c dfdb efbb f40e ef3c 9cf6 73bc
00000310: 34d1 1b3d b643 e93c 9c8c 3c3a 418c 503c
00000320: 4f01 aa3c c5fa af3c 85ea 8a3c a414 203b
00000330: 8c87 76bc a20c 443d bbfd d03c 5e94 4a3b
00000340: e809 4dbc a061 253c 60fa a0bc f264 c53c
00000350: d273 483c 32c7 193c 8164 083c 0c12 ee3a
00000360: 2a93 023d 9f16 8f3b 3ce1 7fbc 8858 a93c
00000370: 93b3 103b 5865 353d c84d 023d 4d95 c73c
00000380: 34fb 063d 5f95 113d 6ff1 053d 86ac 8dba
00000390: 3b6e 7a3b fb86 6b3c 3e06 ff3b a411 183d
000003a0: 9928 193d 1e69 c23b 502f afbc e0fb 963c
000003b0: 66ec 2d3d 6bef 1a3c 2038 133c a9aa 88bc
000003c0: fd66 8abc 1f2d 903c efe9 133d 3fa8 5d3c
000003d0: f1d8 dfba 631d dc3c da4c e1bc ef10 cb3c
000003e0: ded9 a33c 24ee b5bc d357 dabc 7b34 a1bb
000003f0: 122d 373c a87f 153d 8769 34bb 93d3 03bd
-0.008256353 -0.007886371 -0.036548052 -0.013262825 -0.024747211 -0.013064028 0.006342644 -0.056116387
-0.012179929 -0.022817602 0.034645513 -0.02872371 -0.015719267 0.012668017 0.009519037 0.021616952
-0.022285413 -0.054895375 -0.0067174677 0.0130571155 -0.023089362 -0.011452968 -0.0059009483 -0.01693804
0.019226903 0.0010430011 0.0038371359 0.036582425 0.013269981 0.039807297 0.025537169 0.030645864
0.023637563 -0.02566342 0.026311584 0.034011535 0.028165346 0.017975703 0.012588268 0.03400468
0.011262513 0.02864456 0.007834777 0.02514489 0.019008279 0.012595276 -0.024476593 0.004016796
-0.0026811496 -0.00052461907 0.0037694017 0.02571563 0.050944112 0.032342874 -0.03408716 0.039715108
0.01637702 -0.023562124 0.0013968641 -0.0104666 -0.012118854 0.010451371 -0.049042393 -0.04413769
-0.023351818 -0.019432176 -0.06998975 -0.06364309 -0.08020943 -0.06299502 -0.11232178 -0.07954527
0.024107667 0.035835568 0.042296212 0.043434173 0.013945032 0.045566943 -0.008744574 0.013945697
0.0106636435 0.054117486 -0.009697392 0.0029113377 0.011069154 -0.0040158113 -0.00069755135 0.014439203
-0.019005705 0.004417842 -0.046163093 -0.0015309228 -0.011367209 -0.016976124 0.020337505 0.0027971782
-0.02098356 -0.03638032 -0.0206294 0.0098481495 0.0015058076 -0.029177297 0.039786123 0.02511724
0.01549109 0.0068188347 -0.0012321614 0.01911777 0.022413762 0.004857567 -0.0013822955 -0.036775038
-0.017295346 -0.027932849 -0.030589448 0.0015193432 0.014179324 0.01006302 0.021965062 -0.025613526
-0.0018230776 0.03074035 0.031140266 0.016524708 0.020120272 -0.0059438553 -0.017327642 0.039821472
-0.0016032467 -0.010632556 -0.029797178 -0.0065255254 -0.0043118238 -0.02360322 0.0023070548 0.059774037
0.0179177 0.033899747 0.017851738 -0.0001814454 -0.0023186258 0.009988945 0.009187774 0.019290129
0.014906405 -0.012994046 0.0061251633 -0.015214954 -0.02287039 0.0048108282 0.013931676 0.033167146
0.043914825 -0.024408445 -0.007936405 -0.018649234 0.020660149 0.02921928 -0.008131957 0.016121853
0.030641748 0.045380987 -0.03469718 -0.032817047 -0.010201576 -0.027874382 -0.0025865776 -0.03039908
-0.045992643 -0.05589092 -0.021570925 -0.07093451 -0.10117183 -0.06831565 -0.053525694 -0.07821177
-0.049068574 -0.073137544 -0.075518616 -0.091998436 0.018942945 0.033003476 0.0070254286 0.04510785
0.029078484 0.029036105 0.004102004 0.03631088 0.028258841 -0.0039981203 0.027061243 0.043960035
0.010773826 -0.007319912 0.029181935 -0.014890339 0.03804131 0.02847467 0.0007192583 0.012728752
0.020752577 0.02148188 0.01695753 0.0024426365 -0.015046965 0.04786361 0.025511613 0.0030911188
-0.012514569 0.010094076 -0.019650638 0.024095986 0.012234645 0.009385871 0.008324743 0.0018163337
0.031878628 0.0043667103 -0.015617665 0.020672098 0.002207969 0.044286102 0.03181246 0.024363184
0.03295441 0.035542842 0.032700952 -0.0010808862 0.0038212675 0.014375444 0.0077827265 0.0371262
0.037392233 0.005932941 -0.021384865 0.01843065 0.042461775 0.009456496 0.008985549 -0.01668294
-0.016894812 0.01759964 0.03611177 0.0135288825 -0.0017078203 0.026869481 -0.027502466 0.024788348
0.020001348 -0.02220828 -0.026653206 -0.0049195862 0.011180179 0.036498696 -0.002752872 -0.032184195

model.0.bias f4 [16]
00000000: 1511 aabe 216b 80be e4fe a2bd bb4f 4dbe
00000010: 40e4 4ebc b089 33be ab9d 1fbe 08ff 33be
00000020: 41c6 5fbe 5c55 2f3d 4857 36be ea7c 83be
00000030: ebcd 23be 9ab1 1e3e 9a8b 223e a9fd 283d
-0.33216158 -0.25081733 -0.07958773 -0.20049946 -0.012627661 -0.17532992 -0.1558749 -0.17577755
-0.21852972 0.042806014 -0.17806733 -0.2568124 -0.1599652 0.15497437 0.15873566 0.041257534

model.2.weight f4 [32, 16, 3, 3]
00000000: 14dc 953c 0f37 8b3d ad66 953d 90e2 a73c
00000010: b99a 213a 837e 783b 5796 b63c cb14 173d
00000020: 6444 893d 7e42 e03c 35a1 a1bc ee17 f7bb
00000030: 8284 26bd 201e c3bc 6605 5dbc e10c c8bb
00000040: bb62 24bd f8b2 003d 8bbd b5bb 3fa0 31bd
00000050: 9afa 40bd 65f8 89bd 9684 e5bd ff5a 0bbe
00000060: 94a4 86bd 05d3 b3bd 05bc dabd ee38 873d
00000070: ceb0 b73c 8a3b 473d b0b2 c639 987f 7e3d
00000080: 5205 11bd b481 b43c 0d13 bb3c 82ba 2f3d
00000090: a0be 083d 0e48 c23c 633d 923c 948a 063d
000000a0: 49fb 623d ee20 ad3c 0181 863d 6fa4 a23b
000000b0: 85fb 00bd 8f99 133c a9a0 25bd 8a92 df3b
000000c0: 4a6a c9bc 8a1a e43a 0e47 6039 ab17 a3bc
000000d0: b383 4b3c 997f 793d e995 13b9 3e1b 023d
000000e0: b0ca 78bc 2452 61bd 4909 67bd 5376 6abd
000000f0: 5626 1abd 53ab b5bd 16b3 85bd 21c1 9bbc
00000100: bf05 04b9 a32f d5bc bb78 96bc c022 26bd
00000110: b2d0 3fbd 620e d5bc 335b 0cbd b952 a43b
00000120: 27d4 8b3b f2d5 fb3c 499b 0c3d 365c 2bbd
00000130: e232 39bc 64b0 e5bc 239d e7bc 6eec 60bc
00000140: 5d62 cf3c bb8b 5e3d 8147 063d c407 16bc
00000150: b37d 63b8 ff81 32bd 6781 93bd 9789 a73c
00000160: 7795 05bc a3cf af3b bcd0 e33b bff4 113c
00000170: d10d 5a3d c6c5 583c 3057 d23c 3d78 893c
00000180: 4749 6d3c fe7f 843c 0442 c53c a032 af3b
00000190: b2a3 d4bb 34f6 eabc 9547 593c a188 283c
000001a0: d4ad 103c 3c56 203d 1811 15bc d5ab 0d3a
000001b0: e20f 463b ab42 75bc 725f f33b 6ae3 da3b
000001c0: 9f79 8bbb 5c07 853d 5a3e e93b 8e99 c23c
000001d0: b831 883d 5570 0bbd 8280 af3c fb00 d13a
000001e0: 0e3c c43c 9ef6 663c b791 033b 82d0 22bd
000001f0: 995d 11bd 3672 64bc 4a2a 143a 1ef1 07bd
00000200: a197 7c3d 3f23 6c3c 054a 90bb a0ba a8bc
00000210: d741 233d 0005 453c ce20 dc3c 3b3b 003c
00000220: 861c cc3b adb1 f93c 2521 41bb a90b 33bc
00000230: 04b5 0e3c aa10 21bc 5ed3 babb d2a2 3a3d
00000240: ae0f 43bd 8aec 6cbc dd89 12bc a365 78bd
00000250: 53d8 0abd 7482 3abc 1291 94bd 9806 92bd
00000260: 9137 68bc c584 a2bd 0902 b5bc 4deb 8abd
00000270: d901 48bd bdcd 3abb baca 96bd 6ac0 b8bc
00000280: 21c0 45bc 3350 32bd bd33 6bbc e4c6 47bd
00000290: 001a 7d3c 23bd d63b 6b29 f43b 2385 773c
000002a0: 3825 3d3d 62bb 96bc 1c0f 313c 533f 00bd
000002b0: 8364 4dbd 28b6 fd3a 74bb 003c 5285 bebb
000002c0: 9313 4b3c fc0f d53b 7a70 2bbc 96d6 093c
000002d0: 816b 263d 38bb 97b8 45ac 8fbb 4c59 08bd
000002e0: 9445 52bd cc90 c3bc 6423 06bd 4d35 50bc
000002f0: c55f 0abd 79f4 ecbd 8907 6bbd 7754 64bd
00000300: 6876 5d3c 7fbf 72bc c83c b6bc 0eb5 afbd
00000310: 9a43 b9bd 3dfd bfbd 2b33 9638 d233 6c3c
00000320: 9df8 4ebc bd3b a3bc 2494 f13b 3fa0 553a
00000330: bf11 cabc b30c 24bd a8a7 b13b d77c eabc
00000340: 9a89 49bd 1d5e 9ebd 90a2 ea3b df29 28bd
00000350: 9dbd aebd e3a7 333b d5e1 37bb 3244 a6bd
00000360: c3c4 9abd 78a4 cebc 76ec 68bd 1a5e 2ebd
00000370: 64d0 05bd e41e d1bd bbc2 8abd e265 56bd
00000380: 8ec1 c4bd 348e dc3c c398 00bd 157e 873b
00000390: a162 58bc 4f6b 2b3d a297 793b bfc7 b93d
000003a0: 5346 613d 7d9a 243d 3b04 e3bd 08af 8cbd
000003b0: 4725 9dbc e8e2 82bd 155b 8dbb f248 07bc
000003c0: 7727 c8bb 45af 333b c248 113d 568d 2ebd
000003d0: 23bf 53bc 6144 95bc f6fc 66bd da29 99bd
000003e0: c460 efb9 ed61 303d f5cb 5f3c ad9a a13b
000003f0: 54dd 8abc dbce aabd 03a1 60bd 6f88 5fbd
0.018293418 0.06797611 0.072949745 0.020493776 0.0006164718 0.0037917204 0.022288484 0.036885064
0.067024976 0.027375456 -0.01973019 -0.0075406944 -0.040653713 -0.023818076 -0.013490057 -0.006105051
-0.04013322 0.031420678 -0.005546277 -0.043365713 -0.047113992 -0.067368306 -0.112069294 -0.13608931
-0.065743595 -0.08780483 -0.10680393 0.06602655 0.022423174 0.048640765 0.00037898635 0.0621334
-0.035405464 0.022034504 0.022836233 0.042902477 0.03338492 0.023715999 0.017851537 0.032847002
0.055415425 0.021133866 0.06567574 0.0049634497 -0.031489868 0.009008779 -0.04043642 0.0068228887
-0.024586815 0.0017402929 0.00021388775 -0.019908747 0.012421536 0.060912702 -0.00014074858 0.03176426
-0.015185043 -0.055009976 -0.05640534 -0.05724175 -0.037634216 -0.08870568 -0.065282986 -0.01901299
-0.00012590642 -0.026023692 -0.018368116 -0.040560484 -0.046829887 -0.026007835 -0.03426666 0.005014744
0.004267234 0.030741666 0.03432778 -0.041835986 -0.011303635 -0.028038211 -0.02827317 -0.013728244
0.025315458 0.054332476 0.032783035 -0.009157125 -5.4238084e-05 -0.043581005 -0.07202416 0.02045135
-0.008153311 0.0053653284 0.0069523733 0.00890845 0.053235833 0.013230747 0.02567634 0.016780967
0.014482803 0.016174313 0.02407933 0.005346611 -0.0064892406 -0.028681852 0.013261695 0.010286481
0.008830506 0.03914474 -0.009098314 0.0005404328 0.003022187 -0.014969508 0.0074271495 0.006679942
-0.0042564417 0.06495544 0.0071180286 0.023754861 0.06650108 -0.034042675 0.021423582 0.0015945727
0.023954418 0.014096884 0.0020075866 -0.03974963 -0.035489652 -0.013943246 0.00056520535 -0.03318893
0.061668042 0.0144127 -0.004403355 -0.020596802 0.03985771 0.012025118 0.026871111 0.007826622
0.006228986 0.03048023 -0.0029469219 -0.010928073 0.00871015 -0.009830633 -0.0057014665 0.045565434
-0.047622375 -0.014460692 -0.008944002 -0.060643803 -0.03389771 -0.0113836415 -0.072542325 -0.07130164
-0.014173404 -0.0793548 -0.022095697 -0.06783161 -0.048829887 -0.0028503977 -0.07362886 -0.022552688
-0.012069733 -0.043533515 -0.014355597 -0.04877366 0.015448093 0.0065533086 0.0074512265 0.015107426
0.046178073 -0.018399898 0.010806825 -0.03131039 -0.050144684 0.0019356655 0.007857192 -0.005814233
0.012394804 0.0065021496 -0.010463828 0.008412978 0.040629867 -7.235113e-05 -0.00438455 -0.033288285
-0.051335886 -0.023872755 -0.032748595 -0.01270802 -0.03378274 -0.11570067 -0.057380233 -0.055744614
0.013517 -0.014816164 -0.02224578 -0.08579455 -0.09046097 -0.09374473 7.162088e-05 0.014416652
-0.012632516 -0.019925946 0.007372396 0.00081491837 -0.024666665 -0.040051173 0.0054215975 -0.028623981
-0.049203493 -0.077327944 0.0071604922 -0.041055556 -0.085322596 0.00274133 -0.002805819 -0.08118476
-0.075570606 -0.02522491 -0.05686613 -0.04257021 -0.03266944 -0.1021097 -0.06775423 -0.052343257
-0.0960723 0.026923276 -0.031395685 0.004134903 -0.013207109 0.041850384 0.0038084765 0.09071302
0.054998707 0.040186394 -0.11084791 -0.06869322 -0.019182814 -0.06390935 -0.0043138363 -0.008257138
-0.00610822 0.0027417701 0.035469778 -0.042615257 -0.0129239885 -0.018221082 -0.056393586 -0.07478686
-0.00045657728 0.04306214 0.013659467 0.004931769 -0.01695124 -0.08340236 -0.054841053 -0.054573473

model.2.bias f4 [32]
00000000: 4e47 eb3d 9348 ce3d 4ace 89bd ba16 02bd
00000010: a6e8 cc3c b998 b7bd 14bb c1bd 63c8 a03d
00000020: e9fa a03b aa61 4fbd 8b7c c6bc bf63 8abd
00000030: 9447 b0bd 000a 0bbd d8e4 9ebd 8aac 213d
00000040: 70f9 86bd 8255 93bd 69ea 88bc 581c 58bc
00000050: 71fc 42bd 7af1 31bd 6e3b 073d 3b8b 0c3e
00000060: f9bb ba3d 60dd 6b3d 4d82 7c3c c3b7 593c
00000070: 4825 ddbd afde adbd b68e 0d3e 54fb 82bc
0.1148821 0.10072436 -0.067288 -0.031759955 0.02501328 -0.089646764 -0.094595104 0.07850721
0.0049127233 -0.05063025 -0.024229309 -0.06757306 -0.086074024 -0.033945084 -0.07758492 0.039471187
-0.06590545 -0.07194044 -0.016713338 -0.013190351 -0.047604028 -0.04344318 0.03301566 0.13724987
0.09117884 0.057584167 0.0154119255 0.013288441 -0.107981265 -0.08489739 0.13823971 -0.015988983

model.4.scaling_factor f4 [32]
00000000: 230c 313f 3e1b 6c3f a532 643f d8a7 603f
00000010: e7b2 6c3f f9d8 6e3f bf10 7f3f e10d 593f
00000020: 3848 5e3f ffc0 6f3f 9ee6 443f 530b 7f3f
00000030: d140 6a3f e8f7 713f 964d 7a3f b2f7 613f
00000040: a9cf 623f d974 6e3f 1260 6c3f 2d5f 623f
00000050: 3ef0 7a3f 3e1e 773f 811d 513f 2160 5e3f
00000060: 3a57 6b3f 9bb9 6f3f 447f 583f 6b82 6b3f
00000070: 654d 7f3f 7a7b 7b3f d5b1 493f 6a60 6b3f
0.69159144 0.9222907 0.8913978 0.8775611 0.92460483 0.93299824 0.9963493 0.847868
0.8682895 0.93653864 0.76914394 0.99626654 0.9150515 0.945189 0.97774637 0.8826858
0.88598114 0.93147045 0.9233409 0.88426477 0.9802283 0.9653052 0.81685644 0.8686543
0.9192997 0.93642586 0.8456919 0.9199588 0.9972747 0.98235285 0.78786975 0.9194399

model.4.bias f4 [32]
00000000: aeb0 29be 9a76 6abe c6d8 b9bd 788e 953e
00000010: a88d a73e a835 9f3e 6ce9 afbe f6bc 823e
00000020: 0972 25bd 378c a5be 172d b2bd 5075 acbe
00000030: cf42 b93e 31f1 b83e df21 bd3e 311c b93e
00000040: 5633 fc3d b8cc a1be 25ef a53e 478c a83c
00000050: 40da b5be 4a17 b03e ca09 953d a24c 16bc
00000060: ef7a 5fbe 179f ba3e 0422 91be aed5 a93e
00000070: e7f6 cbbe 1624 bb3e 8444 913d 9608 89be
-0.16571304 -0.22896805 -0.090745494 0.29210258 0.32725263 0.31095624 -0.34357774 0.2553479
-0.040391956 -0.32333538 -0.087000065 -0.33683252 0.36183783 0.36121514 0.36939904 0.3615432
0.12314479 -0.316015 0.32409015 0.020574702 -0.35518074 0.34392768 0.07277258 -0.009173544
-0.21824239 0.364495 -0.28346264 0.33170837 -0.3983681 0.3655097 0.070931464 -0.26764363

model.5.weight f4 [64, 32, 3, 3]
00000000: da0d 52bc 2fb0 b23c 78de e33c 68cc d3bc
00000010: afce 313d 0500 123c b7a0 333b e481 9a3c
00000020: af42 29bd 25f2 353d ac7f ad3c b259 383d
00000030: 25dd 5bbd 84ca 54bd 6088 d9bc 1852 303c
00000040: 7cdb 233d 2eb2 0b3b ab02 f8bc 08df 3a3d
00000050: bcbc 863c 04b6 703c e1ef 183d 6b74 b439
00000060: 61ab 643d a93e 0b3d 276b 8b3c 6dd1 e8bd
00000070: 2654 7cbd 3997 073a c13f 71bd 3e84 9cbd
00000080: 87f1 4bbd f660 28bd a81c 85bc 79b6 73bd
00000090: d5dc 9dbd 9611 6abd ab45 28bc b60a 4cbd
000000a0: f942 a7bc 329e 70bc 00d1 c3bc d001 44bc
000000b0: 043d 3fbd ede6 11bd 7200 50bd 05d0 7cbd
000000c0: 59f3 5bbd a490 aebc 2e2d 30bd 686c 56bd
000000d0: 3dac c8bc d601 30bd 1e45 fe3c fde1 0a3d
000000e0: 2bb3 b63d f441 363d e112 81bc 0d0d 863d
000000f0: 4363 813d 01a8 8a3d 268b f73c fa2d 85bd
00000100: 5034 76bc 18b3 abbc 7c03 43bc 0f1f e93c
00000110: f291 01bc 53bd 8fbc 41e2 753c fb4a 133c
00000120: b08d b2bd 9823 3cbd 38c7 eabc b604 edbc
00000130: e055 bb3c 4e42 a93c 61c2 bfbc dda4 18bd
00000140: cb36 2bbb 0be4 54bc 7388 37bc d37b 19bc
00000150: 740e b3bb 7000 35bc a464 3a3d a9c0 953c
00000160: 7305 443c 17e0 b8bc 5a2d d33c d243 a73c
00000170: d1f5 93b9 d226 a83c 76cd 1fbc a04d 94ba
00000180: cc17 083d 71f8 073d 7974 cd3c d5d1 173c
00000190: c3b4 01bd 7961 7d3d 415e 863c 4304 193c
000001a0: dfa1 813d bf70 2a3d a81f 9b3d b883 183d
000001b0: 56ec 08bd 846e 35bd 0ff1 dd3c 785d 9ebd
000001c0: d70b 4dbd baaa cdbd e7f9 fabc 433f a4bd
000001d0: d2ec 25bd d8f4 cdbd 0d1d e7bd 42ba 28bd
000001e0: 8f83 a1bd 5e2d 0ebd d30c c73c 9a7f 52bd
000001f0: c571 22bd b74f 19ba ed95 9cbd 4a37 5abd
00000200: c200 1d3d af41 a4bd 70fe c4bd 4ca5 82bd
00000210: 6a4f 49bd 3e81 afbc 9e40 a0bc 6523 8fbc
00000220: 56d3 e2bc 5e97 14bd 30a7 fdbc 6cb3 debb
00000230: 99e8 13bd 671b 2bbd 6a27 66bc 9a30 4bbd
00000240: 9358 91bd 6f45 9ebd 41e9 b0bc bfde b23b
00000250: b268 25bb 1df5 a43c 6dde df3b 931f 6e3c
00000260: a340 d3bb 50d3 1abd f469 3fbc 0f6e abbc
00000270: 9ee7 acbc 7eaa 763b c98c 973c 49e5 883b
00000280: a208 42bc f21e 10bc e278 18bd 8583 c2bd
00000290: 79cb b4bd 2630 abbc 98e1 80bc 9b63 57bd
000002a0: 86e3 4a3a 2149 70bc 111e 3cbd aa6b 283d
000002b0: 285e b63d 42a8 983d 33c0 8f3d 297c 30bc
000002c0: 740c 373d 415c 483b e958 473d eab1 803d
000002d0: e709 a23c 30ec d8bc 3a04 063d a1cd a83c
000002e0: 3639 af3c ab8c 743d 288d ed3c b356 033d
000002f0: 5c27 dd3b 1119 c3bd 0ffe 75bd 936c 50bd
00000300: 4c5c 9cbd 551b a2bd e108 f9bc 1727 3c3c
00000310: 67d5 a2bb 7c57 61bc 1612 6f3d 0b03 efbc
00000320: 24e0 203d ad19 933c 4a0b f43c 0bde a1bc
00000330: 14cd 983c 5b3e 7cbb 340d fabb eafb 253d
00000340: bc19 2a3d c859 b7bc 3eb2 e53c 5c2a 473d
00000350: d3da 103d 6d63 d53c 741c 263d 64f7 473d
00000360: 79b9 2d3d e5aa 253d 00f9 643c cae7 6e3d
00000370: 964b 7a3d 287b 443d b801 bf3c c9ca c23c
00000380: 95bd 0cbd ce53 16bd ea0a 3cbd af2c 91bb
00000390: 492b bbbc 5636 b2ba 3c15 20bd e179 e4bc
000003a0: a645 5abd e551 dabc 696c 133d b4f9 bd3b
000003b0: 422f a3bb b5b6 3e3d 07e3 2f3c 5aa3 69ba
000003c0: 535f 763d f3bb 6d3d 0dad ac3c 85bf 45bd
000003d0: 692a 8fbd c083 4ebd c245 55bd e1af 3fbc
000003e0: 2dc0 adbc 1bad 3cbd f457 7abb d58d 35bd
000003f0: b27c 953d d05c a73c 6b45 8f3d 4fb0 cd3b
-0.012820685 0.021812527 0.027816042 -0.025854304 0.04341 0.0089111375 0.0027409026 0.018860765
-0.04132336 0.04442038 0.021179043 0.045007415 -0.053677697 -0.051950946 -0.026554286 0.01076176
0.04000424 0.002131592 -0.03027471 0.045622855 0.016447417 0.014691833 0.03733814 0.00034419014
0.055827502 0.033995304 0.017018868 -0.1136807 -0.061603688 0.0005172375 -0.05889869 -0.07642411
-0.049790885 -0.041108094 -0.016249016 -0.05950019 -0.07708136 -0.057145678 -0.010270516 -0.049814902
-0.020417677 -0.014686154 -0.02390337 -0.011963323 -0.04668905 -0.03562062 -0.050781675 -0.06172182
-0.05369887 -0.021309204 -0.043011837 -0.052349478 -0.024496192 -0.0429705 0.031038817 0.033906925
0.08920892 0.04449649 -0.015756072 0.06545458 0.06317761 0.067703255 0.030217718 -0.0650291
-0.015027121 -0.020959422 -0.011902686 0.028457193 -0.007908331 -0.017546332 0.015007556 0.008990045
-0.08718431 -0.045932382 -0.028659448 -0.02893291 0.022868097 0.0206615 -0.023408117 -0.0372666
-0.0026125188 -0.012993823 -0.011201966 -0.009367901 -0.0054643694 -0.011047468 0.045506135 0.018280344
0.01196419 -0.022567792 0.025778461 0.020418081 -0.00028221172 0.020526323 -0.009753576 -0.0011314638
0.03322582 0.033195917 0.025079953 0.009266336 -0.03166653 0.061860535 0.016402366 0.009339395
0.063297026 0.04161143 0.07574397 0.03723499 -0.033428513 -0.04429485 0.027092485 -0.077326715
-0.05006012 -0.10042329 -0.03063674 -0.08019879 -0.040509053 -0.10056466 -0.11284838 -0.041193254
-0.07886421 -0.034711234 0.024298107 -0.05139122 -0.03965928 -0.0005848365 -0.076457836 -0.053275384
0.0383308 -0.08020341 -0.096188426 -0.06379184 -0.049148 -0.021423932 -0.019562062 -0.017472932
-0.027688663 -0.036277167 -0.03096351 -0.006796291 -0.036110494 -0.04177418 -0.014047483 -0.049606897
-0.07096972 -0.07728087 -0.0215956 0.0054586823 -0.0025239405 0.02013641 0.006831935 0.014533895
-0.0064469143 -0.03779918 -0.011682976 -0.020926503 -0.021106537 0.0037638242 0.018499749 0.0041777235
-0.011842879 -0.00879644 -0.037224658 -0.094977416 -0.08827872 -0.020896982 -0.015732571 -0.052585226
0.0007739592 -0.014665873 -0.04592711 0.0411183 0.08904678 0.07453968 0.07019081 -0.01077179
0.04468961 0.0030572566 0.048668776 0.062839344 0.019780112 -0.02647981 0.032718875 0.020605864
0.021389585 0.059704464 0.028997973 0.032065105 0.006749077 -0.095262654 -0.060056742 -0.050884794
-0.07634792 -0.079153694 -0.030399742 0.011483929 -0.004969287 -0.013753768 0.058366857 -0.029176256
0.039276257 0.01795658 0.02979054 -0.019759199 0.018652476 -0.0038489315 -0.0076309685 0.040523447
0.04152845 -0.022381678 0.028039094 0.04862438 0.035364937 0.026048386 0.04055448 0.048819914
0.04241321 0.04044618 0.013975382 0.05832652 0.06110724 0.047969013 0.02331625 0.023778336
-0.034360487 -0.036701016 -0.045908846 -0.0044303755 -0.022847788 -0.0013596516 -0.03908275 -0.027890148
-0.05328908 -0.026650378 0.03599206 0.005797589 -0.004979999 0.04656096 0.01073528 -0.0008912586
0.060149502 0.05804057 0.02107861 -0.04827835 -0.06990511 -0.050418615 -0.05206848 -0.011699648
-0.0212098 -0.046063524 -0.0038199397 -0.044324715 0.07299174 0.020429999 0.06995662 0.006277121

model.5.bias f4 [64]
00000000: 39df 15be 47ac 86bd 80ba 3ebe 4a6d 04be
00000010: d073 d5bd 80fd 1ebe a887 e9bd 5158 38be
00000020: 3b51 fcbd 3708 92bd 477d 0cbe ab51 30be
00000030: b73e 47be 5877 293c a598 11be 0934 14be
00000040: 37c7 c7bd 5b34 69be 6120 0abe 4259 1fbe
00000050: 684c 6abe ca91 c3bd e67c a1bd c431 8abe
00000060: addc 49be 22b1 4bbe 5eef 01be 8342 42be
00000070: 4f81 66be 75f1 27be 96b7 72be 02c9 75be
00000080: b62c edbd 2381 24be 2cd8 17be e75c 81be
00000090: 83ca 08be 187d 26be 54a9 9ebd 88fd 54be
000000a0: dbcd 84be 5b5b b4bd 089c bdbd fc5b 1ebe
000000b0: 6003 3dbe b59b 19be 3e5a 89be 1cc0 4ebe
000000c0: 8ac2 3dbe fe05 38be f4ac 41be a095 37be
000000d0: 2e5e 4bbe 8828 cabd 3ef9 0cbe 3ffd 09be
000000e0: 2d99 22be 793d 9fbd 72fc 38be 0d6e 20be
000000f0: 44c0 46be 5613 59be 40a9 fdbd d74f 23be
-0.14635934 -0.06575828 -0.18625832 -0.12932315 -0.1042248 -0.1552639 -0.114028275 -0.1800244
-0.12320181 -0.07130473 -0.13719665 -0.17218654 -0.19457518 0.010343395 -0.14218386 -0.14472975
-0.09754794 -0.22773878 -0.13488914 -0.15561393 -0.22880709 -0.095492914 -0.078851506 -0.26991093
-0.19713087 -0.1989179 -0.12688968 -0.18970685 -0.22510265 -0.16400702 -0.23702845 -0.2400246
-0.115807936 -0.16064887 -0.14828557 -0.2526619 -0.13358502 -0.16258657 -0.077471405 -0.2079984
-0.25938305 -0.08806487 -0.09258276 -0.15464777 -0.18458319 -0.15000804 -0.26826662 -0.20190471
-0.18531242 -0.17971036 -0.18913633 -0.17928171 -0.19860145 -0.09871012 -0.13766953 -0.13475512
-0.15878744 -0.07775397 -0.1806505 -0.15666981 -0.19409281 -0.21198782 -0.123857975 -0.15948425

model.7.scaling_factor f4 [64]
00000000: 49ed 7f3f 7ec1 7e3f 2f9a 7f3f d859 7d3f
00000010: dd65 7e3f 73ba 7f3f bd4e 7f3f 3a85 7f3f
00000020: fec7 7f3f af66 443f 4358 7f3f 53cd 7e3f
00000030: 1b2d 513f e783 523f 37d6 7f3f b53f 733f
00000040: f3e4 233f 7f2f 7f3f ac3d 7e3f 119f 7b3f
00000050: b9aa 7e3f 7ceb 533f 31df 563f b655 7b3f
00000060: 0df3 7e3f bdd6 7b3f 2346 363f aaff 7b3f
00000070: 065e 7f3f 4705 793f b72d 7f3f 04dd 7e3f
00000080: 22b0 5d3f df49 613f 0000 803f 628e 7e3f
00000090: fa23 7f3f c539 7f3f 0000 803f 9308 7f3f
000000a0: 2671 523f 4a20 7c3f e0d6 7b3f 6ca4 343f
000000b0: 343d 7e3f c28e 7f3f b2d3 6e3f 41c1 7f3f
000000c0: 02e9 2d3f b803 6b3f 81de 7f3f 3d41 7f3f
000000d0: 0597 5b3f a907 7e3f b646 7f3f 3ace 793f
000000e0: 82c0 7f3f 4c7a 7e3f 7d0b 4b3f 4267 583f
000000f0: b88b 7f3f eb0b 7f3f f079 773f c41a 7c3f
0.99971443 0.99513996 0.9984464 0.98965216 0.9937418 0.99893874 0.9972952 0.9981266
0.9991454 0.7671918 0.9974405 0.9953205 0.8170945 0.82232517 0.9993624 0.95019084
0.64021224 0.9968185 0.99312854 0.9828959 0.9947925 0.82781196 0.83934313 0.9817766
0.99589616 0.9837454 0.7120077 0.9843699 0.99752843 0.9727368 0.9967913 0.99555993
0.8659688 0.88003343 1.0 0.9943601 0.9966427 0.99697524 1.0 0.9962246
0.822039 0.9848677 0.9837475 0.7056339 0.9931214 0.99827206 0.9329177 0.9990426
0.67933667 0.9180255 0.9994889 0.9970892 0.8577731 0.9923044 0.9971727 0.975803
0.9990312 0.9940536 0.79314405 0.8453256 0.9982257 0.9962756 0.96670437 0.9847834

model.7.bias f4 [64]
00000000: a31f ebbd a501 a0bd 50e0 ab3b 5e15 e4bd
00000010: a5c1 b0bd 3d04 f3bd ece4 38bd 9ac6 c7bd
00000020: 0508 94bd 266b d43d 81bc 99bd b6c7 57bd
00000030: 4e60 5b3e 35d8 b93b da1e 96bd 8253 d6bd
00000040: 7f4b 2d3d 909e f5bd 28f4 c8bd a6f4 40bd
00000050: c793 b8bd d67b 7a3c 99e1 11bc 4dee 153d
00000060: dc16 10be c2c5 0e3b ed6f 88bc d1ae b9bd
00000070: df8f d4bd 0ac9 5cbd 9f15 d7bd d9f9 e3bd
00000080: d963 85bc 8f60 0fbd 263e 93bd 8622 c1bd
00000090: 3fb4 bbbd ef47 a4bd 92ab cbbd 3043 ccbc
000000a0: a513 27bd a90a cfbc 61a7 e1bd 9163 083c
000000b0: b69d a1bd 6f91 80bd 08d8 b03d e2a2 aabd
000000c0: e0c6 123d 555d c6bd 9bc9 efbd 0572 d5bd
000000d0: f372 213d 4827 08be a6b9 debd 8486 b3bd
000000e0: a70c 03be dfd5 77bd 7370 703d 265f a2bd
000000f0: 63cd f6bd 0fcd bdbd 5111 c9bd a9b8 bdbd
-0.114806436 -0.07812814 0.005245246 -0.11136888 -0.08630685 -0.11866043 -0.045140192 -0.09754677
-0.07228092 0.103719994 -0.075066574 -0.052680694 0.21423456 0.005671526 -0.07330103 -0.104651466
0.042308327 -0.11993134 -0.09812194 -0.047108315 -0.09012561 0.015288314 -0.008903884 0.036604214
-0.1407122 0.0021785353 -0.016654933 -0.09066547 -0.10379004 -0.053902663 -0.10502171 -0.11131639
-0.016282963 -0.035004195 -0.07189588 -0.09430413 -0.091652386 -0.08021533 -0.09944834 -0.024934381
-0.04079022 -0.025273638 -0.11018253 0.00832452 -0.07891409 -0.06277739 0.08634955 -0.08331849
0.035834193 -0.096857704 -0.11708375 -0.10422138 0.039416265 -0.13296235 -0.108752534 -0.08765891
-0.12797795 -0.060506698 0.05870099 -0.079283044 -0.12050893 -0.092676274 -0.09817756 -0.09263737

model.8.weight f4 [128, 64, 3, 3]
00000000: 7cec 30bd 8c89 a03d dad8 f93a 5059 97bd
00000010: 2519 8b3d 79ec 273d 2220 a1bd be8f e13c
00000020: dee5 963c 8535 49bd 05c2 9f3c cd37 1c3d
00000030: 620a e0bd ce83 7a3d 03a8 4c3d b4e4 79bd
00000040: 8207 d73c 67fc 353d d595 5dbd 4312 943d
00000050: e316 d03c b1d1 92bd a646 573d 57f8 983d
00000060: 9cf3 1abd 630b 073d 0c94 673d 2777 aabd
00000070: 30e5 4b3d b1f1 1d3d ecc0 b5bd 7a03 9b3d
00000080: 2224 aa3d 5a60 3dbd 0f24 1cbc b3a0 073d
00000090: 0217 8bbd faa3 863d 3932 3b3d 65cb 9abd
000000a0: 4d7f 523d 4fd0 903d 9cce 40bc 5afb a2ba
000000b0: 43cc 1b3d 6f20 5cbd f172 803b 6fb3 433d
000000c0: aed6 30bd e6a1 943d a04a 693c 2bf7 2fbd
000000d0: 611e 763c 71bc 66ba 476e 91bd 85c3 d33c
000000e0: d0e3 78bb a353 c5bd f4f8 783d 322a bf3d
000000f0: fd20 f6bc f537 433c 4e4c 353c 382c a1bd
00000100: 14e3 3c3d e7f2 833d 53ab 5cbd bd41 a83d
00000110: 0c19 c23d 56c8 f5bc 33c8 813b 739f 463d
00000120: 83da 55bd 6b66 af3d ff42 f53c 5cc3 72bd
00000130: 8658 de3d a4d4 7b3d e8e1 dbbd f052 7a3d
00000140: eff0 933a 2521 883d 8ab8 0dbd ec6e 84ba
00000150: fe10 053d 4f78 78bb 7dd6 273d bc49 f13c
00000160: 9138 d7ba 0a8b 22bb 0e80 ecbd 0119 2a3d
00000170: a02c 2f3d b84b a2bd ae4b 973d 8f49 8b3d
00000180: f4ca 64bd 44b9 4638 bd0a 4f3d 42ed cabd
00000190: 85d2 9b3c 61c4 6fba dbc2 90bd 2cc1 903d
000001a0: 43cd a03d 4e04 9dbc 0cab 9b3d b9ac 3e3c
000001b0: fd7d 9b3d 23ca a3bb 0bbf 08bc bb4d c13d
000001c0: ce83 183c 8b4e 073c d1f4 f63b aed7 b53c
000001d0: 8bc0 cdb9 d68a d5bd 1f09 243d f4ea 4c3d
000001e0: 260a 9bbc 20bc bb3d f057 5f3d 7742 a3bd
000001f0: 75d0 d33c 2f3a 5e3d c6d6 61bd 9397 903d
00000200: a5e4 c93c 042a c7bd 7583 ea3c 1218 183d
00000210: d471 3ebd 3325 543d 8282 ffbc db61 97bd
00000220: 3c47 0b3d fda5 bc3c fd24 e0bd 8568 ed3c
00000230: 3763 963d 63f5 38bd fd67 473d 8bcf 713d
00000240: 05ce 6bbd 6fc8 7d3c 7832 bb3b 4466 d9bc
00000250: fd35 523c 0647 3cbb 4345 27bd 06da d9bc
00000260: cf1a 92bc 60b8 b5bd 26d8 9e3d 8eaa 1f3d
00000270: 7c79 87bd 08c4 063d f469 593d aa42 e3bc
00000280: e402 473d fdf4 5b3d 49c2 d1bd 9a4d 253d
00000290: 1057 b83b e88d 99bd a249 1a3d 7fe5 803d
000002a0: ebba 60bd 2d94 f33c a045 f03c ac9c 6fbd
000002b0: e1a4 223d 60e8 e43c 2542 9ebd 3afa 0f3d
000002c0: 23b4 833d 36f5 13bd e869 d43c a84c b63c
000002d0: 4eee dfbd a90b 9d3d ae78 d23c 529e aebc
000002e0: aa74 273d 7fc1 0a3d 8815 81bd 46df c93c
000002f0: 0651 a4bc 4a65 dcbd 5c1e b53c 0e40 9a3c
00000300: 0ce2 e4bd 35af 4e3d 69ad dd3d 12cb 64bc
00000310: ad78 c43c 3111 1d3d 4825 98bd 6087 593c
00000320: f4d1 863c 8f38 b8bd 0300 0e3d 5e69 573d
00000330: 4508 ffbc 7e05 5f3b 89ee ee3c 0a8a 103d
00000340: b3de 50bb bcb1 813c 2e86 c13d 8321 893b
00000350: 1235 043d 8ac7 ea3c 7419 b43c d2a2 873c
00000360: 4534 dfbd 96fe 203d 84a1 913b e1ea 17be
00000370: ac83 dd3c 4490 4a3d 4565 49bd 7d9a 493d
00000380: e0e7 7b3c 02c7 acbd cc73 ff3b 4aaf b03c
00000390: 6e95 a8bd 2ed3 9e3c a542 033d 5997 f5bc
000003a0: 7aa8 283c a90c f83a 54b5 5bbd d36d c63b
000003b0: 4471 babb 6bbf 8ebd 85b5 5f3d 1825 793c
000003c0: 1889 83bd c32e 463d cf22 7ebb 2ff5 59bd
000003d0: 58fe 163d ef25 903c 09f8 e4bd 2b48 833d
000003e0: 1108 503d d485 5fbd b148 023d 1116 de3c
000003f0: ca9e adbd b5e6 993d 4a24 6c3d 9e4e 99bd
-0.04319428 0.07838735 0.0019061819 -0.07390082 0.06791905 0.040997002 -0.07867457 0.027534362
0.018420156 -0.049123306 0.019501695 0.038139153 -0.1093948 0.061160855 0.049964916 -0.061009124
0.026248697 0.044430163 -0.05409797 0.07230046 0.025401538 -0.07168902 0.05255761 0.07469242
-0.03782998 0.032969844 0.056537673 -0.08323508 0.049779117 0.038560573 -0.088746876 0.075690225
0.08307673 -0.046234466 -0.009530081 0.03311224 -0.06791498 0.06574245 0.045702193 -0.07558326
0.051390935 0.07070982 -0.0117680095 -0.0012434528 0.038036596 -0.05374187 0.003919952 0.047778543
-0.043173485 0.07257442 0.014238983 -0.042960327 0.015021891 -0.00088018837 -0.07101112 0.025850067
-0.0037977584 -0.09635093 0.060784295 0.0933422 -0.030045027 0.011915197 0.011065556 -0.07869762
0.046114996 0.06442814 -0.053874325 0.082156636 0.094774336 -0.030002754 0.003960633 0.048491906
-0.052210342 0.085644566 0.029939173 -0.05926834 0.10856728 0.061482087 -0.107364476 0.06111425
0.0011287014 0.06646947 -0.03459982 -0.0010103858 0.03248691 -0.0037913506 0.040976036 0.029454105
-0.0016420056 -0.0024802112 -0.11547862 0.04152775 0.042767167 -0.079245985 0.07387482 0.068011396
-0.055857614 4.737942e-05 0.05054735 -0.099085346 0.019021282 -0.0009146389 -0.07068416 0.070680946
0.078516506 -0.019167092 0.07600984 0.01163786 0.0759239 -0.004998462 -0.008346329 0.09438654
0.009308768 0.008258472 0.0075365086 0.02219757 -0.00039244103 -0.104268715 0.04004776 0.050028756
-0.018925738 0.09166741 0.054527223 -0.079716615 0.025856236 0.054254707 -0.055136465 0.070601605
0.024645159 -0.09724811 0.028627137 0.03713233 -0.046495274 0.05179329 -0.03119016 -0.07391711
0.03400348 0.023028368 -0.10944555 0.028980503 0.073431425 -0.045155894 0.048683155 0.05903582
-0.057569522 0.015489682 0.0057128035 -0.026538022 0.012830255 -0.0028728857 -0.040837537 -0.02659322
-0.017835049 -0.08873057 0.07756071 0.038981013 -0.06614968 0.032901794 0.05307956 -0.027741749
0.04858674 0.053700436 -0.10242135 0.04035721 0.005625613 -0.074977696 0.037667878 0.06293773
-0.05486576 0.029733742 0.029330075 -0.058499023 0.039708022 0.027942836 -0.0772746 0.035150744
0.06430843 -0.036122523 0.025929406 0.02225335 -0.10934125 0.076682396 0.02569231 -0.021315727
0.040882744 0.03387594 -0.06302935 0.024642598 -0.020058166 -0.10761507 0.022109203 0.018829372
-0.111759275 0.05046006 0.10824091 -0.013964431 0.023983324 0.038346473 -0.07428986 0.013276905
0.016457535 -0.08995163 0.03466798 0.05259072 -0.031131873 0.0034030373 0.029166477 0.035287894
-0.003187102 0.01583182 0.09449421 0.004184903 0.032277174 0.0286596 0.021984793 0.016557131
-0.108986415 0.039305292 0.004444303 -0.14835693 0.027040325 0.04945399 -0.049168844 0.049219597
0.0153751075 -0.08436395 0.0077957865 0.02156796 -0.082316265 0.019387808 0.03204598 -0.029979395
0.010294074 0.0018924671 -0.053639725 0.0060555725 -0.005689772 -0.06970104 0.05461647 0.015206598
-0.06422633 0.04838444 -0.0038778072 -0.05321234 0.036863655 0.017596213 -0.111801215 0.06410249
0.050788943 -0.054570988 0.031807605 0.027110131 -0.08477552 0.07514707 0.057651795 -0.07485698

model.8.bias f4 [128]
00000000: d690 22bd 042c 463d f2fb 09be 92bf 6fbc
00000010: d4bb 65bd b389 00be 34c5 80bd 4b69 b93c
00000020: 0a09 27bd febf 8b3c 7780 a13c c7dc 33bd
00000030: d65e 43bc 8fd6 eabb 5c14 99bd 9c80 93bd
00000040: d0e6 08bd 7ad3 6e3b 2e16 bdbc c7ce 4cbd
00000050: e3d0 30bc 8d72 1bbd a2ac c7bd 6902 aebc
00000060: 751a 39bb 3455 023c 9a8e 32ba 85e9 c4bb
00000070: 5c0c 83bc 87a7 06be fb48 9f3d 204d 8dbd
00000080: 2c89 d0bd c986 97bd 6e2b f9bc 764c 72bb
00000090: c4db adbc d13d 2fbe 9bf9 c5bc 6df1 39bd
000000a0: 5215 ddbc 7f7d a0bd 6e35 33be 72b9 c8bc
000000b0: f7f9 03bd 4b8b 9cbd 218a bbbd 0243 d0bd
000000c0: ce02 02be 83a6 43bd b5b6 16bd e464 d83c
000000d0: 08cc 94bd ad14 d83b afe2 48bc dd05 473b
000000e0: b410 53bd 03e2 b63c 059f a1bd a3ea 74bc
000000f0: 2f33 51bd 03f6 34bd 3fc5 92bd 2d6f c1bd
00000100: 05e2 b4bc 4c34 0fbe d257 22bd bd9d 89bd
00000110: 9b2e 9abc dcbe b1bd 7792 b5bc 5294 8ebd
00000120: 7684 a1bc da31 7cbc a0d1 b6bd 8a98 8ebd
00000130: fe53 45bd b054 2cbd 28fa d9bc 5d8e f9bd
00000140: 02b1 44be 529b 37bd cf8e 08bd a92a 8dbd
00000150: 4ca9 50bd cfb6 7bbc 09a4 74bd 6319 af3b
00000160: a468 e3bc 8f40 45bd 2766 e6bc b2e3 aabc
00000170: 2cf5 8dbd 61a5 15bd 90ad 88bc 012b 13bd
00000180: 209d 543c 278b ecbc c977 3dbd b6bb 64be
00000190: fdfe adbd 40e4 8ebd e148 86bd 788d 0dbd
000001a0: 46f9 923c 50d2 79bd c9b2 07be 5fd7 9aba
000001b0: 2123 c1bc 7862 6cbb a4f5 f3bb efce 14be
000001c0: 488f 72bc 436f 60bd 849c 7abd aa63 2ebd
000001d0: bef6 a4bd dc14 6dbd b2dd 22bd f7aa 08bd
000001e0: 354c 0a3d b463 0cbd 3c88 17bd 6260 a4bd
000001f0: 5588 ecbc a34f 7abd 685a 87bc 456b a0bc
-0.039688908 0.04838182 -0.13475016 -0.014633076 -0.05608733 -0.12552528 -0.062876135 0.022633215
-0.040780105 0.017059322 0.019714577 -0.04391172 -0.011924466 -0.0071666907 -0.07474586 -0.07202265
-0.033423245 0.0036441968 -0.023081865 -0.050001886 -0.01079199 -0.03795104 -0.09749724 -0.021241384
-0.002824453 0.007954884 -0.00068114104 -0.006009283 -0.015997104 -0.13149844 0.07777592 -0.06899476
-0.101824135 -0.07398755 -0.030416217 -0.0036971844 -0.021222956 -0.17113425 -0.024166873 -0.045396257
-0.026987705 -0.078364365 -0.1750085 -0.02450249 -0.032220807 -0.076437555 -0.091572054 -0.10169031
-0.12696382 -0.04776622 -0.036795337 0.026415296 -0.072654784 0.0065942616 -0.012261077 0.0030368485
-0.0515296 0.022324568 -0.07891659 -0.01494852 -0.051074203 -0.044179928 -0.07166528 -0.09445033
-0.02208043 -0.13984793 -0.039634533 -0.06719539 -0.018821051 -0.08678982 -0.022164566 -0.069618836
-0.019716483 -0.015392745 -0.089267015 -0.06962688 -0.048175804 -0.04207295 -0.026608542 -0.12185357
-0.19208148 -0.04482586 -0.033339318 -0.068929024 -0.050942704 -0.015363409 -0.05972675 0.0053436025
-0.027759857 -0.04815727 -0.028124882 -0.020860527 -0.069315284 -0.03653467 -0.016684324 -0.035929684
0.012976915 -0.028874947 -0.046256814 -0.22337231 -0.08495901 -0.06977129 -0.06556869 -0.034558743
0.017941128 -0.060991585 -0.13251795 -0.0011813453 -0.023576321 -0.0036069434 -0.007445054 -0.14532064
-0.014804669 -0.054793607 -0.06118442 -0.042575516 -0.08054875 -0.05788122 -0.039762206 -0.03336617
0.033764083 -0.03427477 -0.036995158 -0.08026196 -0.028873602 -0.061111104 -0.016522601 -0.0195824

model.10.scaling_factor f4 [128]
00000000: 2917 743f 2a8a 743f e1fe 173f ddac 6f3f
00000010: fd92 433f 0e25 573f c508 e53e 1b52 6c3f
00000020: 7941 763f a72c 653f 1d8b 443f b2cc 4f3f
00000030: 2cea 743f 65a8 603f 1b52 743f d874 643f
00000040: 0fbc 393f a94f 713f 0170 713f 60c8 603f
00000050: 8283 473f 4777 6e3f 9661 643f 8fe3 733f
00000060: be3d 6b3f 5327 693f fd13 693f 8f8d 683f
00000070: e919 653f 76e6 543f ed07 713f 86c8 4b3f
00000080: 0d45 2e3f 8e08 4c3f f302 623f 9d8f 563f
00000090: 674c 6e3f 8d91 333f 77b2 543f e8ab 193f
000000a0: 8ae3 013f c9fe 463f 4562 ea3e 2127 193f
000000b0: b108 663f 6a9b 683f 8d44 6c3f 68e1 533f
000000c0: 1582 383b 5072 103f 71f0 213f 75e5 6d3f
000000d0: 47aa 243f 1452 6c3f 6bbf 6a3f e36a 703f
000000e0: c203 553f f4b3 6d3f 7dc5 373f 1a12 6e3f
000000f0: 7e87 663f f839 713f c4e8 6d3f 1e79 da3e
00000100: 49d4 643f ee0f 4c3f 7e8a 6e3f 8c77 5b3f
00000110: 27b6 6f3f 1e43 6b3f 019c 603f f416 643f
00000120: e5c9 6f3f ec25 543f f5e0 5e3f 85ba cd3e
00000130: e73e 5b3f b7e9 693f 6452 703f 60df 4d3f
00000140: 46d3 4a3e 84dd 6d3f 2631 723f 0c54 653f
00000150: 17f3 683f 0bb8 723f 30c3 443f ccd7 5e3f
00000160: e83a 733f 65bc 613f 22e6 703f dbb5 693f
00000170: 2aa5 583f d631 733f 5396 6a3f 7dff 6e3f
00000180: 2b07 693f 246e 763f 888b 6e3f 17c2 403f
00000190: fe52 233f ab1f 6c3f 1359 553f ed1d 353f
000001a0: bd46 723f fe4b 5f3f b45f 4b3f 0087 6f3f
000001b0: 0b5b 6c3f 9aeb 6e3f b07d 703f dba4 453f
000001c0: fcc1 733f c8a6 683f bdac 753f 0364 553f
000001d0: dbbf 563f 9e8a 6b3f eaf0 753f dfa5 653f
000001e0: d9fe 6b3f e075 413f b075 6e3f 8be9 303f
000001f0: 8868 6b3f e149 273f f367 653f 9ab6 593f
0.9534784 0.9552332 0.5937329 0.93623143 0.7639616 0.84040916 0.44733253 0.92312783
0.96193653 0.8952126 0.7677477 0.81171715 0.9566982 0.8775695 0.95437783 0.8924079
0.7255258 0.94262177 0.9431153 0.8780575 0.7793504 0.9315075 0.89211404 0.952691
0.91891086 0.9107563 0.91046125 0.90841 0.8949266 0.83164155 0.9415272 0.7960285
0.68074113 0.79700553 0.8828575 0.83812886 0.9308533 0.7014397 0.83084816 0.60027933
0.5073782 0.7773252 0.457781 0.5982533 0.8985701 0.90862143 0.922921 0.8276582
0.0028153707 0.5642443 0.6325751 0.9292825 0.6432232 0.9231274 0.9169833 0.93913096
0.8320886 0.9285271 0.7178572 0.9299637 0.90050495 0.9422908 0.929333 0.4267053
0.8938642 0.79711807 0.9318007 0.8572929 0.9363732 0.9189929 0.87738043 0.89097524
0.9366744 0.82870364 0.8706201 0.40181366 0.85642856 0.91372246 0.9387572 0.8041897
0.19807157 0.9291613 0.94606245 0.8958137 0.90995926 0.9481208 0.7686033 0.8704803
0.9501176 0.8817809 0.94101155 0.91293114 0.8462702 0.9499792 0.91635627 0.93358594
0.9102656 0.9626181 0.9318166 0.7529616 0.6379851 0.9223582 0.8333904 0.7074879
0.9463919 0.8722533 0.79442906 0.9356537 0.9232642 0.9332825 0.93941784 0.77204674
0.9521787 0.9087949 0.959667 0.8335573 0.838865 0.9200839 0.9607073 0.89706224
0.9218574 0.7557049 0.93148327 0.6910636 0.9195638 0.65347105 0.8961174 0.8504425

model.10.bias f4 [128]
00000000: bb6b ccbb 454e ed3b 7047 623d 72d2 8cbc
00000010: 3e9b 133d c7fe 4e3d 0af7 81bd 22fd 913c
00000020: 10c1 553c 2132 01bb beb1 f03c 7d6c feba
00000030: d7cf 5ebc cf07 3c3b 201d 243c adf1 cc3a
00000040: d32d a7bc 307a 623c f843 e7bb 97c6 a03b
00000050: fa34 113c 4d54 33bc 39f4 a1bc e65f 67bc
00000060: d087 d9bb f20f bf3b f412 013c ccbb debb
00000070: 28d4 2cbb 2c01 b83a 84c1 e73b 6f9f d3bd
00000080: d68b c93d 8682 ce3c 769a e1ba 9a18 f13b
00000090: 221e a53b 5a69 0e3d d606 33bc 2aff 9c3d
000000a0: ec0f 0bbb 5559 423a 4274 8ebb 8016 88bc
000000b0: 0cad 4d3c a700 89bc 1ec0 f73b 4646 9ebb
000000c0: c1e2 373b 7a10 2ebc fdce 833d 5191 f03b
000000d0: 9e79 3fbb 46e5 d43b 036b 293c 9613 e43b
000000e0: 1dc8 883c cb74 513b ba2c 2b3d 331b 023c
000000f0: f5cc d2ba 4e61 6f3c d6ec 85bc 6458 623d
00000100: 07b5 5fbb a4c0 78bd 0f23 4b3c 0241 ea3b
00000110: 4a57 713c bbd7 803b 3bae 9abc ab1b 043c
00000120: 263e f2bb 78b3 613b ab5c 8cb9 1460 acbc
00000130: d1fd eb3b e2ba 9a3c 8a4b 753c 7148 b2ba
00000140: 6604 a93d dfee b13b 8e3d 823c 0615 8fbb
00000150: 7e57 353a 7fa5 673c ad0b 363d 57f5 0c3b
00000160: 2a03 66bc 0cea 99bc be10 f73b 77c5 92bb
00000170: 1f33 c8bb beee 71bc cbd5 85bb 2c0a ebbb
00000180: 9459 2fbc 0095 f9bb 0bb3 b5bb 35aa 053d
00000190: e2ff 93bd fb7d 853c 5bae 96b9 d96b c6bd
000001a0: 863c 443c cae7 9ebb eb16 053c c844 83bc
000001b0: 66fa 903c cf88 813c 7408 583c e1db 873c
000001c0: bafb 5c3c 6b5c 3f3a ffe7 5abc c3ec 503c
000001d0: 2ff4 713b 1394 72bc e22a 62bc 4435 c43c
000001e0: b7ea a9bc 7bf8 c13d a3ed 9bbb 8e74 09bd
000001f0: 085c a13c 8a18 3f3d 9f86 8cbc e725 24bc
-0.0062384284 0.0072419965 0.05524391 -0.017190192 0.036036722 0.050535943 -0.06345947 0.017820898
0.013046518 -0.0019713717 0.02938163 -0.0019410994 -0.013599358 0.0028691178 0.01001671 0.001563599
-0.020407593 0.013823077 -0.007057663 0.0049064863 0.008862728 -0.010945392 -0.019769775 -0.014121985
-0.0066385046 0.0058307583 0.007878054 -0.0067972895 -0.0026371572 0.0014038435 0.0070726294 -0.10333144
0.09841125 0.025208723 -0.0017212171 0.007357669 0.0050389925 0.03476844 -0.010926923 0.07665856
-0.0021219207 0.0007413824 -0.004347355 -0.016612291 0.012553465 -0.016723944 0.007560744 -0.0048301546
0.002805874 -0.0106240455 0.06435964 0.007341542 -0.0029216777 0.006497058 0.010340455 0.0069603426
0.016696984 0.0031960483 0.0417907 0.007941055 -0.001608281 0.014610602 -0.016348284 0.055260077
-0.0034135 -0.06073059 0.012398495 0.007148863 0.014730284 0.003931967 -0.018881908 0.008063237
-0.0073926626 0.0034439247 -0.00026771924 -0.021041907 0.007201888 0.01888794 0.014971623 -0.0013601911
0.08252792 0.005430087 0.015898492 -0.00436652 0.00069176394 0.014138578 0.04444473 0.0021508539
-0.01403884 -0.01878836 0.0075398376 -0.004479106 -0.0061096097 -0.014766393 -0.004084324 -0.0071728434
-0.010702509 -0.007616639 -0.005545025 0.032633025 -0.0722654 0.016295424 -0.00028740134 -0.09688539
0.011977321 -0.0048494088 0.00812314 -0.016024008 0.017697524 0.015812306 0.013185609 0.016584339
0.013487751 0.0007299843 -0.013360976 0.012751761 0.0036919226 -0.014805811 -0.013804169 0.02395118
-0.020741804 0.09471222 -0.004758553 -0.03355842 0.019697204 0.04665426 -0.017154036 -0.010018802

label_embedding.weight f4 [3, 3]
00000000: 05b6 683f 34d1 db3e 39eb f3bb 2689 f03e
00000010: 5794 6cbf 9be2 68bf cb94 313d 8299 54bf
00000020: 217e 79bf
0.9090274 0.42933047 -0.007443812 0.46979636 -0.9241385 -0.9097077 0.04335479 -0.83046734
-0.9745808

classification_layer.0.weight f4 [1, 515]
00000000: 3f90 94bd 7aff 86ba 516a 8dbd 3103 923a
00000010: bb8e 693c 96ce 383d a483 a33d 1d4f c33c
00000020: c6e5 a0bc 9e76 953c 67ce 863d 6575 99bd
00000030: 61b1 27bd d86f a03a 1cf8 89b9 1ff4 833a
00000040: 992d be3d 9c67 83bc c87b 44bd d352 eebc
00000050: 85b1 1bbd 2ec9 8b3d 4a29 953d 7454 a8bd
00000060: 2cae 2cbd 24e0 943c 79c0 813d b28b 33bd
00000070: f60c ac3d 7ea7 07bd 1b31 383c 15e6 21bc
00000080: 5d1a 813d fbaf 18bb 24e6 b63d 56ae 9b3d
00000090: 3009 b63d 407b 6b3d 95e1 66bd 4e6a 14bd
000000a0: bde2 c93b 5657 afbd 45e5 013d 63c5 963d
000000b0: 46e7 2bba 7533 1d3d 44bb 0cbd 9e88 8f3c
000000c0: 991c 863c a614 8ebd 25ac 86bd a397 98bd
000000d0: 579b 333d 6ebe f5bc b2e0 00bd 4a6f 7b3d
000000e0: 7775 15bc 3192 65bd 448a 7e3d 1a5a ac3d
000000f0: b16f 853d b274 603b 9ab4 fcbc 0d11 1c3c
00000100: 45a3 00bd e330 a13d b693 a7bc f121 1bbd
00000110: bbb6 813d b131 8b3d 6716 dcbc ed2f 053d
00000120: 9f23 b1bd 0bc1 84bd adf2 3dbc a772 8e3c
00000130: 1cda 5abd 7ac2 633d f1bf 0e3d 70f5 92bc
00000140: 5d36 25bc 7883 c3bc 0a62 833d 3174 2c3d
00000150: 8d8f bcbd 13db d0bd 777b 15bd d3b3 3fbd
00000160: dddd 813d 6265 a5bd d762 5dbd fbc1 033d
00000170: 154d b6bd 6b4c 8ebc 865a 9ebd 05fc f43c
00000180: d47f 87bd 161a 87bd 8ac1 b4bd 8e07 8d3d
00000190: 5f0c cbb9 214c 273d 32f8 21ba ed47 c1ba
000001a0: 6067 943c 8066 d43c 1c32 5a3a d062 16bb
000001b0: a10e 673b d662 1fbd 7ca8 613a 42a7 113b
000001c0: aa40 4ebc cfd8 773d 8881 633d 4cda 76bd
000001d0: 5d15 38bd 090a 663b 59a0 763d 2a2d 063b
000001e0: 34e2 9e3d ef69 803d 591b a7bc a2ca d03c
000001f0: b8e5 393d 0646 2c3d 30d3 e4bc c2fc 51bd
00000200: dd7b 73bc 168c ae3c 92e0 a8bd a3d3 7b3d
00000210: 73c9 67bd 93bd 573d e582 7cbb 2b57 af3c
00000220: 91d3 42bc 135e e8bc c459 97bd e503 333d
00000230: 34c4 7e3d eda6 b4bd fcc5 7a3d 7fb1 85bd
00000240: 0823 603d cad7 c43d 50f7 ea3c 9af0 96bd
00000250: 6315 653d b78a 50bd 8d17 17bd bad0 c33c
00000260: 87ae 803d 0a6d 83bd 94de e4bc 2bfa 803c
00000270: 3b88 803d a2af 84bd f80d 19bb 8005 d13a
00000280: 29ba 96bd 7c5e a33d 80ff 59bd 19a4 773d
00000290: daef 1f3d 832b 67bd dcc5 38bd 595e b03d
000002a0: 8e39 babb 5d3c a4bd 2f67 8b3d c4f6 ef39
000002b0: 9bde 9abd 40b6 a63d b61b b9b9 73ff 72ba
000002c0: 83bf 34bd e21e a73d 5df8 1639 22ee a8b9
000002d0: 3fac ddbc 7a51 893c 5c25 59ba e88a 3abd
000002e0: 0fbf 8a3d 594e b6b9 38b1 34bc 8f9b 773b
000002f0: 2262 c33d 9529 6dbd 9391 9ebd b000 853d
00000300: 6dfc efbb 94ef 1e3c f040 203b 43b0 99bb
00000310: f7fa 9c3d 69a2 a6bd f07e 28bd 7df0 2b3d
00000320: b11c 64bb 0231 8dbd ba04 433d d74a 713c
00000330: d7a7 af3d 9319 293d 6636 aabd 2336 c93d
00000340: e1b3 8ebd 2cf1 143d 2a9b f0bb ea35 333d
00000350: f371 333d 6b9f 8c3d 86db 8dbd 3175 723d
00000360: 610f b83d 7463 cdbd 452e ac3d cdfa 88bc
00000370: 81e9 9abd a5fa 8a3d b763 a33d 0f1f 923d
00000380: 7905 a7bd 631d 4c3d 3542 46bd 0848 403d
00000390: 0e86 323d c6a6 173c 630d 803d 91ef 1ebd
000003a0: de53 723d 55a3 82bd 8713 1d3d d45b 3abd
000003b0: 807b 7a3d 97b1 a73d 5a52 4cbd 9c1d 8b3d
000003c0: 1250 39bd 0059 063c ecd3 a93d 2e44 d4bd
000003d0: bf41 4439 d869 c23c 57c3 0a3d fa16 193d
000003e0: 6212 d8bc 70fa 3fbc dccb cd3c b928 86bd
000003f0: 2cfa 2cbc 36e9 ac3c 01bd b63c 6b10 04bd
-0.07254075 -0.0010299527 -0.06905044 0.0011139867 0.014255221 0.04511889 0.07984093 0.023841435
-0.019640815 0.018245038 0.06582337 -0.07493094 -0.040940646 0.0012240363 -0.00026315532 0.0010067261
0.09286041 -0.016040616 -0.04796961 -0.029092228 -0.038011093 0.06825481 0.07283266 -0.08219233
-0.04215829 0.018173285 0.06335539 -0.043834396 0.084009096 -0.033118717 0.011242176 -0.009881516
0.063038565 -0.0023298252 0.089306146 0.07601611 0.08888471 0.057490587 -0.056367476 -0.036234193
0.0061610625 -0.0856158 0.03171279 0.07361867 -0.0006557595 0.03837915 -0.034358278 0.017521199
0.016371058 -0.06937532 -0.06575803 -0.074507974 0.043849315 -0.02999803 -0.031464286 0.06138543
-0.009122244 -0.056047622 0.06214358 0.08415623 0.06515444 0.0034249243 -0.030847836 0.00952555
-0.031405706 0.078706525 -0.020456176 -0.037874166 0.06333681 0.06796587 -0.026866151 0.03251641
-0.08649372 -0.064821325 -0.011593503 0.017388655 -0.05343066 0.05560539 0.03485102 -0.0179393
-0.010083762 -0.0238664 0.06415184 0.042102996 -0.09207068 -0.10198035 -0.0364947 -0.046802353
0.06341145 -0.08075978 -0.05404934 0.032167416 -0.08901421 -0.017370423 -0.0773211 0.029905329
-0.06616178 -0.065967724 -0.08825977 0.068862066 -0.00038728394 0.040844087 -0.00061786466 -0.0014746167
0.0181157 0.025927782 0.0008323507 -0.002294708 0.0035256522 -0.038912617 0.0008608175 0.0022224938
-0.012588659 0.0605095 0.055543453 -0.060266778 -0.04494225 0.0035101196 0.060211513 0.0020473697
0.077579886 0.06270205 -0.020398783 0.025487248 0.045385092 0.042058967 -0.027932733 -0.05126644
-0.014861074 0.021307033 -0.082459584 0.06148113 -0.0565886 0.052671026 -0.0038530168 0.02140387
-0.011891262 -0.02836517 -0.07390168 0.043704886 0.062198833 -0.08820901 0.06122397 -0.06527995
0.05472091 0.09611471 0.02868238 -0.0737011 0.0559286 -0.05091354 -0.036887694 0.02390324
0.062832884 -0.06417282 -0.027938165 0.01574429 0.06275984 -0.06478812 -0.0023354273 0.0015947074
-0.07359726 0.07977006 -0.05322218 0.06045923 0.0390471 -0.05643798 -0.04511057 0.086117454
-0.0056831306 -0.08019326 0.0680679 0.00045769487 -0.0756199 0.0814023 -0.00035306596 -0.0009269632
-0.044127952 0.08160187 0.00014397637 -0.0003222088 -0.027059672 0.016762484 -0.000828346 -0.045542628
0.06774723 -0.0003477212 -0.01102858 0.003778193 0.09540202 -0.057900984 -0.0774261 0.06494272
-0.0073237927 0.009700675 0.0024452768 -0.0046902015 0.07665055 -0.08136446 -0.041136682 0.041977394
-0.003480714 -0.06894113 0.04761193 0.014727316 0.08576935 0.041284155 -0.08311157 0.09824779
-0.06967903 0.036362812 -0.0073427157 0.04375259 0.043809842 0.06866344 -0.069266364 0.059193794
0.08987308 -0.10028735 0.08407263 -0.016721154 -0.075640686 0.06786088 0.079780035 0.0713483
-0.08155341 0.049832713 -0.048402984 0.046943694 0.043584876 0.0092560705 0.06252553 -0.038802687
0.059162013 -0.06378809 0.0383487 -0.04549773 0.061152935 0.081881694 -0.049883224 0.06792757
-0.045242377 0.00819993 0.08292374 -0.10364567 0.00018716509 0.02373211 0.033877697 0.037375428
-0.026375953 -0.011717424 0.025121622 -0.06550736 -0.0105576925 0.021107297 0.022306921 -0.03224222
