Lab4/models/gan_models/ls_vbngd_1000e_500b_dis.pth (torch, 398770 bytes, 16 tensors)

model.0.weight f4 [16, 3, 3, 3]
00000000: 8a68 eb3d 2388 f23d eeec 80bd 29fd 68bd
00000010: 2bc4 833d ae3f 6a3d f957 14be b8e1 4abe
00000020: 3641 da3d 1efb 0e3e ea60 253e 3a21 8b3c
00000030: dea2 96bc cb2d b63d 4746 e13d 1dfc 4fbe
00000040: e7d9 9fbe 7a26 de3c c1b4 223e a958 213e
00000050: fd75 e1bd 8f90 b8bc a4ce 0d3e 566a e63c
00000060: 8769 39be 4c41 15be ec72 ca3c 1b57 d93c
00000070: 304d 26bd e374 5fbd ec47 32bc 1709 ddbd
00000080: dd6d 50bd 1f21 2fbc 5790 8fbd dc1f 6b3c
00000090: b919 fe3c f6b6 0ebb 4c98 87bc b874 51bc
000000a0: 6b57 58bd e906 96bd f50c 193d 743a e3bc
000000b0: 621a 843c fd2c 57bc 1299 02bd 4507 52bc
000000c0: b7dc 99bd 005f e9bd 20cb a8bd e893 c2bb
000000d0: 5289 9ebd f02d 833d 9052 b7bd 35ab 2abe
000000e0: 3b31 09be 6d4b 40bd ebbc f7bd 66e7 4dbd
000000f0: c577 d0bd 5a48 c0bd 83d4 c8bd f646 413e
00000100: 834a 0e3e 40c7 813e dfc6 053e fbcb 163e
00000110: 3cf2 783e 04b4 c83d 94b7 373e 54b9 353e
00000120: 17b9 9cbc 6978 d4bd e9bf c4bd f29b 59bd
00000130: 160d a4bd bd85 12be 9a3d 9bbd ff81 7ebd
00000140: 9c57 edbd 5cef 973d 67bc 163d 463c a3bd
00000150: 4e2f 4d3e 97ac b1bd 3e4a 8dbe 48f7 b63d
00000160: 33f3 03bb 2b01 7c3b 8fdf cd3d 11b1 863d
00000170: c4e1 4dbe 84cd 7c3e 98ad 4dbd 0125 b2be
00000180: bf5a 363e f964 2f3d c264 cd3c 18ff 223e
00000190: 598a ba3c e1c6 41be 9372 403e cecd 56bd
000001a0: 6f58 9bbe 44df 073e 66d1 cfbb aa2b 833b
000001b0: 4c2b c3bc fe57 e3bd 58ee 493d a335 fc3a
000001c0: c36d 17bd 1a68 113e 14e0 6f3d 321d 75be
000001d0: cc77 debb 4d02 00bd b4eb d5bd d66c 0c3e
000001e0: 83d5 cd3d ac42 b1bc b348 b53e 6e2d 463e
000001f0: 60c9 b6be e064 8fbd b9a4 423c 1ee3 8abd
00000200: 5c76 c63c 7ebb 683d 78e7 42bd 8539 b03d
00000210: 8aa7 f23d 8ec7 2ebe 85b7 a5bd 383b 1c3b
00000220: ba14 00bc a7bf b7bd 78aa 9dbd ceae 663d
00000230: ee51 193c 02a0 f7bd 7674 05be a464 23bd
00000240: 6d89 2a3e 7d6e 4f3e 981e cf3c 708e 773d
00000250: 9275 8d3e 886d 0b3e 1d6f eb3b ec8b 093d
00000260: 238b 653d fcd6 5e3d 431a 853c 7c94 21be
00000270: 14da 20bd 28d1 9b3d 8e89 94bb 769e c6bd
00000280: 762a 21be d50e 9bbc 8bf7 4abe 8e2e 80be
00000290: 22e9 9dbe d2ae f33b 6561 14be 11d0 5dbe
000002a0: 88f1 20bc 9301 c0bc d60a 07be e7c2 5939
000002b0: 8a0a ff3d 14ef 223e 48a2 e13d 4d09 1d3e
000002c0: 3180 2c3e 08ca 4f3e 1d7e 2a3e a13c 723e
000002d0: 88a1 d0bd 6c1f 10bc 44dd 02be 7043 d33b
000002e0: c0e9 abbb e04c ccbd fca5 d63c 0bad 013d
000002f0: fafd c0bd 2036 0bbe cd9b bfbd 074d 98bd
00000300: afd0 46bd 414e 3a3d 82f3 a6bc 1e35 9dbd
00000310: ed48 613d 1d5a 943c 1c9a d73c 84f2 2f3c
00000320: deee 51bd bd97 e33c 8cb0 a13d b084 46bd
00000330: 78e7 e33d 8b34 323e c8f3 163e 4f74 7dbd
00000340: 8949 bebc 70a7 2ebe b1f1 483d ab33 183e
00000350: 9ad8 abbc 1e08 073e 7e85 8e3e c9fa 533e
00000360: 9468 2fbe 2192 c73c 6e35 9f3d ef48 b9bd
00000370: afa1 d13d 3176 2c3e 6229 0ebd 2899 1d3d
00000380: 35aa c9bc 09d1 8abe f7ca 72bc 8843 253d
00000390: 2346 6fbe 9070 dd3d c8d3 a03d 6fc2 b0bc
000003a0: 15f9 fb3d 2016 d1bc effd 0abe eb74 ba3d
000003b0: c290 713e 6aaa 4cbe 05fb 973d cad6 203e
000003c0: b942 c6bd 7f76 7d3d ed17 6fbd 6d8c 893c
000003d0: 16dd 593d 0431 143d c1ba b63d 1cf9 043e
000003e0: fb95 b03c 3a84 ce3d c1e0 5a3e 2b47 5dbc
000003f0: 3793 5abe 9c0a 9cbe 56cf 76be 0068 12be
0.114945486 0.11842372 -0.06295191 -0.056882057 0.064339004 0.057189636 -0.14486684 -0.19812667
0.10656969 0.13962981 0.16150251 0.016983617 -0.018388208 0.08895453 0.109997325 -0.20311017
-0.31220934 0.027117956 0.15889265 0.15756477 -0.110088326 -0.022529868 0.13848358 0.028126877
-0.18106662 -0.1457569 0.024713002 0.026530793 -0.040600955 -0.05455483 -0.010881405 -0.107927494
-0.050886024 -0.010689049 -0.070099525 0.014350858 0.031018125 -0.0021776534 -0.016552113 -0.012784176
-0.052817743 -0.07325537 0.037365872 -0.027737834 0.016125862 -0.013133285 -0.03188426 -0.012819116
-0.07512801 -0.11395073 -0.08241868 -0.005938042 -0.077410355 0.06405246 -0.089512944 -0.16666873
-0.13397686 -0.04694693 -0.1209658 -0.050269507 -0.10179094 -0.093888 -0.098061584 0.18874726
0.13895611 0.25347328 0.13064145 0.1472625 0.24311155 0.0979996 0.17941123 0.17746478
-0.019131226 -0.10374529 -0.096069165 -0.053127237 -0.080103084 -0.1430883 -0.07580109 -0.062135693
-0.11588976 0.07418701 0.03680077 -0.079704806 0.20037577 -0.08675497 -0.27595705 0.08933884
-0.0020133972 0.0038452845 0.10052406 0.065767415 -0.20105654 0.24687773 -0.05021438 -0.34793857
0.17808054 0.042820904 0.02507246 0.15917623 0.022771047 -0.18923523 0.18793707 -0.052442364
-0.30340907 0.13268763 -0.006342101 0.004003008 -0.023824356 -0.111007676 0.049299568 0.0019242059
-0.03696991 0.14199868 0.058563307 -0.23936918 -0.0067891832 -0.031252194 -0.104453474 0.13713393
0.1005049 -0.021638237 0.35407028 0.19353268 -0.35700512 -0.07001662 0.011880093 -0.067816004
0.02422636 0.05681943 -0.047584027 0.08604721 0.11848362 -0.17068312 -0.08091644 0.0023839008
-0.007817442 -0.08972102 -0.0769853 0.05631905 0.0093579125 -0.12091066 -0.13032708 -0.0398909
0.16653986 0.20256992 0.025283143 0.060438573 0.27628762 0.13616002 0.0071848766 0.033580706
0.056040894 0.054404244 0.016247874 -0.15779299 -0.039270476 0.07608253 -0.0045329994 -0.09698193
-0.15738854 -0.01892797 -0.19820993 -0.25035518 -0.3084193 0.0074366117 -0.14490278 -0.21661402
-0.009823211 -0.02343825 -0.13187727 0.0002076734 0.12453182 0.15911514 0.11017281 0.15335579
0.16845776 0.20291913 0.16649671 0.2365594 -0.1018706 -0.008796554 -0.12779719 0.006447248
-0.005246371 -0.099756 0.026202194 0.031659167 -0.09423442 -0.13594866 -0.093558885 -0.07436567
-0.04853886 0.045484785 -0.020379785 -0.07676147 0.055001188 0.018109376 0.026318602 0.010738973
-0.051253192 0.027782315 0.07895002 -0.048466384 0.111281335 0.17402856 0.14741433 -0.0618785
-0.023228424 -0.1705606 0.04905862 0.1486346 -0.020977307 0.1318669 0.2783622 0.20701136
-0.17129737 0.024361672 0.07773863 -0.09047114 0.10235917 0.16841961 -0.034707434 0.03847614
-0.024617294 -0.27112606 -0.014818898 0.040347606 -0.23366599 0.10812485 0.07852894 -0.021577088
0.12303368 -0.025523245 -0.1357343 0.091043316 0.23590377 -0.19986883 0.07420925 0.15706936
-0.09680695 0.061880585 -0.058372427 0.016790593 0.05318936 0.036179557 0.08922339 0.12985653
0.021555891 0.10083814 0.213748 -0.013505737 -0.2134522 -0.30476844 -0.2410253 -0.14297485

model.0.bias f4 [16]
00000000: 6a84 a8bc 743c 50be 337e c7be 3bdd 97bc
00000010: 6b4c 89bd 54f6 cfbc 1646 02bf 0fb1 debe
00000020: 6dcb 67bd 8210 d6bd d3a7 dfbe e17b 0dbf
00000030: 0a35 e83d 4849 d9be bfdb 26bf d577 edbd
-0.020570952 -0.20335561 -0.3896347 -0.018538108 -0.06704029 -0.025386013 -0.5088819 -0.4349446
-0.056590486 -0.10452367 -0.43682727 -0.5526715 0.113382414 -0.42438722 -0.65179056 -0.11595122

model.2.weight f4 [32, 16, 3, 3]
00000000: 6a43 3ebe e5e0 3abe 27de 1bbd 2810 413d
00000010: d421 64be f981 5ebe afb1 43be 7e2f 86bd
00000020: 1fc1 99be 2640 85be 225b f7bd f9a5 7abc
00000030: 0900 0cbd 1c97 71bc b126 38bd 5643 f83d
00000040: 6a86 023e a619 183d e9ed 18be b48e 42be
00000050: 9572 cebd 26a1 57be 01bb 19be 1f8c 94bd
00000060: 9587 0fbd 4825 cd3c 8413 183d f5be 98be
00000070: f2e5 6fbe b8a5 b3bd 47f3 05be 03dc 86bd
00000080: 0c0e 56bd a50d 0bbe 0db2 0f3d 4e41 4bbd
00000090: 6f5d 573e ec46 e83d 0570 23bd bc2e f9bd
000000a0: eeb3 983e 130b 53be 4f89 2dbe 2762 703c
000000b0: 3372 0d3d 7acd f3bd f673 32be 6568 10bd
000000c0: 9c26 45be 84db 41be bfc0 eebd 4561 b83d
000000d0: 34cf bb3d fef3 013e b64d debc de3d b9bc
000000e0: 00e6 ac3d 2ae5 00bd 9702 953c befb 683e
000000f0: f225 793e 2c9b ec3c 3d56 903e 34ae 6e3d
00000100: 3e6c b3ba 9379 3d3e 81cc 0d3e 2c14 5b3b
00000110: ab7a 88be 07c5 f0bc f30e 17be d7c0 89be
00000120: 404c 5cbd 696b 723c 9544 09be aec9 98bb
00000130: b1ea b3bd b227 05be 327b 93bd 5422 90bd
00000140: fdda 55be 6bf0 1cbd 7ac9 bc3d 3233 0c3d
00000150: 8c88 1dbe 3385 d3bc 41ea f13d fedc 223d
00000160: 14c7 333e 60c1 253e 9aaf 82be 828d 1fbe
00000170: 5f07 d8bd cad2 6cbe f53c f2bd fe4d 82bd
00000180: 236a e3bd f38d 8cbd 1f76 293d 5784 343c
00000190: 5e54 1abc 6366 8d3d 14a6 8f3c b6ad 8d3d
000001a0: d00e 463d 2c98 28bd b1ec 8c3d 9c4d 6c3e
000001b0: d7e5 0abe 3d3e 25be db44 9cbd 6359 073e
000001c0: 63ad b83c 4c15 8f3b 92b5 8ebd 5a12 4abd
000001d0: f3b5 86bd 6b7f 1e3b 341a 963d 8642 763e
000001e0: eac9 86bc ea64 febc 8441 323d 8ef0 06be
000001f0: 1c05 83bd f891 213d 86dc cbbc 9070 623d
00000200: 2f5d cb3d 4259 073e 4daf 1f3d db66 85bd
00000210: 68f3 323e c4f2 c33d 1439 f0bc 9774 173e
00000220: e3cf 2f3e cd17 513e 48df 863e 8584 903e
00000230: d8a3 a73e 2c5c 063f cddd b53e 4ed4 ca3e
00000240: cca9 723d df75 37be e395 10be d79c 163e
00000250: 53ae b3bd 1489 e5bd 1553 33be c075 9bbc
00000260: 4ede 723d 97d7 39bd f512 03bd 2c5d 71bc
00000270: c5dd 893c 933d a73c 6dc2 09be 5ead 6abd
00000280: 10ac 35be 2028 94be 3d5b 1a3d f82f 4c3d
00000290: b678 a73d f2db f3bc a874 943c 19a5 9a3e
000002a0: 3241 173e d9fd 463e 3888 8b3e fc75 ddbc
000002b0: d7a1 e4bc 1ece d23c 18cc fa3d ce19 983d
000002c0: 7c6d 0f3d 739e e93d 56ca 273e fce2 793d
000002d0: 6a89 9f3d f78e fabc 1f0a ecbd 9b4b 153e
000002e0: a865 1b3d b788 7dbe cfaf e3bd 730a 38be
000002f0: f3fb 09be 8a13 853d 35ab afbd 6939 4cbd
00000300: 809d 743d d263 51bd 726f c33d 3595 fdbd
00000310: 4bd4 1b3e 876d ac3d 7df8 c6bd fd7b 32be
00000320: d6cd b5be 411d d03b 03c9 29be 18f5 2ebe
00000330: 3ef0 c2be f18a 7bbd 099d 90be b404 823c
00000340: aca6 3b3e fafa 30bd 4ea6 2b3d dd21 95bd
00000350: 61b5 6fbd 2e65 a33d fde1 e33d 58bb 053d
00000360: 34a1 24bd 805f 1bbd 793f 3c3d ab68 b73d
00000370: 24a9 74bd 00e8 91bc 88d9 913d 7cf4 d83d
00000380: c7df b83d c2a3 883d ebf4 23be f1cc bbbd
00000390: 5ade 063e 1096 453c b4bb b63b 87b7 cfbd
000003a0: 5f98 c03a c11d 133e 9be6 df3d 3ea0 1e3d
000003b0: 6ba0 1a3e f568 33bd 0793 9c3b 3dc9 a03e
000003c0: fc45 1f3d e239 ce3d 0868 973e 4c07 23be
000003d0: 8ef0 afbc 8474 b43b bc5d 6abe 676f 26bd
000003e0: 290a b23d 8e10 0dbe f9a5 f1bd f5d9 8c3d
000003f0: 325d bc3c 268b 99bc 9ca9 a2bd 8087 923d
-0.18580404 -0.18249853 -0.038053658 0.04713455 -0.2227853 -0.21729268 -0.1911075 -0.06552027
-0.30030152 -0.26025504 -0.12077929 -0.01529836 -0.03417972 -0.0147455 -0.044958774 0.12122218
0.12746587 0.037133835 -0.14934506 -0.1899975 -0.100804485 -0.21057567 -0.15012743 -0.072532885
-0.03504141 0.025042191 0.037127987 -0.2983319 -0.23427561 -0.08771843 -0.13081084 -0.06584933
-0.05225949 -0.13579424 0.03508191 -0.049622826 0.21031736 0.11341652 -0.039901752 -0.12167117
0.29824775 -0.20609693 -0.1694691 0.014671839 0.034532737 -0.11904426 -0.17427048 -0.03525581
-0.1925301 -0.18931395 -0.11657857 0.09002928 0.0917038 0.12690732 -0.027136665 -0.022612508
0.084423065 -0.031468548 0.018189711 0.22752282 0.24330881 0.028882585 0.28190795 0.0582716
-0.0013688875 0.18503408 0.13847543 0.0033428771 -0.26656088 -0.029390825 -0.14751796 -0.26904938
-0.053783655 0.014796116 -0.13405068 -0.004662714 -0.08784998 -0.13003424 -0.07201232 -0.070377976
-0.20884319 -0.038315218 0.09218116 0.03422851 -0.1538412 -0.02582035 0.118122585 0.039761536
0.17556411 0.16187048 -0.25524598 -0.15581325 -0.10548281 -0.23127285 -0.11828033 -0.06362532
-0.11104228 -0.06863012 0.041372415 0.01101788 -0.009419529 0.06904294 0.017535247 0.06917898
0.04835397 -0.041160747 0.06881083 0.2307648 -0.1356424 -0.16137023 -0.07630321 0.13217692
0.022543615 0.0043665525 -0.069682255 -0.049333908 -0.06577673 0.0024184834 0.073292166 0.24048814
-0.016453702 -0.031053979 0.04351951 -0.13177702 -0.06397459 0.039445847 -0.024885427 0.05528313
0.09929883 0.13217643 0.03898554 -0.06513759 0.17475665 0.09567788 -0.029324092 0.14790569
0.17169146 0.20419236 0.26342225 0.28226104 0.3274219 0.52484393 0.35520783 0.396151
0.059243962 -0.17916058 -0.14119677 0.14708267 -0.08773484 -0.11207786 -0.17512162 -0.018977046
0.059294038 -0.045371618 -0.0320005 -0.014731687 0.01682938 0.020415103 -0.13453074 -0.057294242
-0.17741418 -0.28936863 0.037684668 0.049850434 0.08177321 -0.029767964 0.018122032 0.30204085
0.14770964 0.19432773 0.27252364 -0.027033798 -0.027909203 0.02573305 0.12245959 0.07426797
0.03501652 0.11407175 0.16385779 0.061007485 0.077898815 -0.03058575 -0.11525368 0.14579622
0.037938744 -0.24759184 -0.11117517 -0.17972736 -0.13475017 0.064978674 -0.08577577 -0.049859438
0.059720516 -0.051120587 0.09542741 -0.123819746 0.15217702 0.08419328 -0.09715364 -0.1743011
-0.35508603 0.0063511436 -0.16580586 -0.17085683 -0.38073915 -0.0614118 -0.28244808 0.015871383
0.18325299 -0.0432081 0.041906647 -0.072818495 -0.058522586 0.07978283 0.11127088 0.032649368
-0.040192798 -0.037932873 0.04595897 0.08955511 -0.059731618 -0.017810822 0.07121569 0.10593507
0.09027057 0.06671859 -0.16011398 -0.09169949 0.13170758 0.0120597035 0.005576575 -0.10142427
0.0014693848 0.14366819 0.109326564 0.038727038 0.15100257 -0.043801267 0.004778269 0.31403533
0.0388851 0.10069634 0.29571557 -0.15920752 -0.02147701 0.005507054 -0.2288732 -0.040633585
0.08693344 -0.13775846 -0.11799235 0.068775095 0.022993658 -0.018743109 -0.07942507 0.07154751

model.2.bias f4 [32]
00000000: a8e8 2cbb 1a9c c0be 49ae 01bd e238 edbd
00000010: da21 a7be b6f3 32bc 99ce b5be 5f55 20be
00000020: b1c2 82be 1e11 82bc c1f8 debd 5633 fe3e
00000030: 62c1 c03e 1c45 4abe 2cf8 07be 1622 843e
00000040: b450 19bd 09e6 b13e f278 0bbd 956f 12be
00000050: e000 01ba 59fe 37be 623b 0bbe 2748 cd3c
00000060: abab 23be 23f5 20be 6faf a1be c929 833c
00000070: f43f d8bd 0294 36be a30b 23be a7d9 21bd
-0.002638379 -0.37619096 -0.031660352 -0.11583115 -0.32643014 -0.010922363 -0.35509184 -0.15657566
-0.25539163 -0.015877303 -0.1088729 0.4964854 0.3764754 -0.19752926 -0.13278264 0.25807256
-0.03743048 0.34745815 -0.03405089 -0.14300378 -0.000492109 -0.1796812 -0.13596871 0.025058819
-0.15983455 -0.15718512 -0.31579158 0.016011136 -0.10559073 -0.17829898 -0.15922408 -0.03951421

model.4.scaling_factor f4 [32]
00000000: a802 103f 6c26 443f 5fd2 713f fa9e 7a3f
00000010: e02c 7f3f 83fa 763f 4329 643f be69 403f
00000020: 8d63 7b3f 360d 0f3f d990 423f cc75 4d3f
00000030: 7b3e 3c3f b105 4b3f 15fe 3f3f e476 363f
00000040: ac45 483f 11f0 333f 8ac6 073f 3042 2d3f
00000050: 4772 5d3f f7b5 0f3f c406 793f c90d 2a3f
00000060: 839b 503f bdeb 483f 8c77 1a3f 9fb8 413f
00000070: 29a8 5f3f ae7f 7c3f 2574 703f b5f3 2f3f
0.56254053 0.7662113 0.94461626 0.9789883 0.9967785 0.96476 0.8912546 0.7516135
0.9819878 0.55879533 0.7600227 0.8025787 0.7353284 0.7930556 0.74997073 0.7127516
0.7823131 0.7028819 0.5303732 0.6767912 0.865025 0.5613703 0.9727595 0.66427284
0.8148729 0.7848471 0.60338664 0.75672334 0.8736597 0.98632324 0.9392722 0.6873124

model.4.bias f4 [32]
00000000: 8b59 5cbf 0384 cfbe 8044 5bbf 18f2 6abf
00000010: e98a b2be 6bc6 2cbf 33e1 013f 822f 243f
00000020: 2811 34bf d980 54bf 99a2 833e 36b7 cd3e
00000030: 0f06 1fbf 4594 27bf 87f9 64bf 4577 443f
00000040: 7ee7 88bd 5ba9 3abf dffd afbe b3df 693f
00000050: e39d 78bf 1d78 4d3f 3643 36bf f039 7bbf
00000060: 7bc5 7dbf 6b37 0ebf 8290 203d 8368 f6be
00000070: fa51 f1be adb5 4abf 7c18 bfbc 4be8 cf3e
-0.8607413 -0.40530404 -0.856514 -0.91775656 -0.34871605 -0.6749026 0.5073425 0.6413499
-0.7033868 -0.83009106 0.2570999 0.4017884 -0.6211862 -0.65460616 -0.8944325 0.7674449
-0.06684779 -0.72914666 -0.34373376 0.9135696 -0.97115916 0.80261403 -0.71196306 -0.9813528
-0.99129456 -0.5555331 0.039200313 -0.4812661 -0.47132856 -0.79183465 -0.023327105 0.40606913

model.5.weight f4 [64, 32, 3, 3]
00000000: d1b2 53be 5345 5a3e 8645 e03d 0541 16be
00000010: 4bdf 00bd f5a0 4a3c 9235 fbbd e236 c1bd
00000020: 5d11 5dbc d14c c0bd 96f6 283e 8212 f3bd
00000030: fcab 34bd 1f94 8b3d 620a 1b3d edd5 633d
00000040: fdd5 473d ad0e 593d b0f6 3dbe 9c8f b5bd
00000050: 57a8 e5bd a941 23be f2d6 0ebd d9e1 38be
00000060: 7b37 1fbe 4024 dfbd c2df a1bc 4a2d 603e
00000070: fc63 073e 956d 193e 411f 673e 4f1e 0dbd
00000080: 8d44 d5bd 0f8f df3c 8c3a 293c 61e2 3a3d
00000090: ad28 e73c bb30 92bd 693d dd3d 75b6 96bd
000000a0: 5042 f4bd 0439 843e ad01 113d 261d b5bd
000000b0: be54 72bd be9b 913e c8d4 8f3e bf8e 793e
000000c0: 39c7 523d 1e0a a43e 2210 c73e d7e4 e93b
000000d0: a9b7 253c 0890 033e 1fdd e63d 90ff 2ebd
000000e0: 3aa9 34bd 2f2e abbd 0600 12be c68b e83d
000000f0: 09ba 523e 554d e0ba d03a dabc 2971 183e
00000100: 82e1 e4bd 3df4 c03d f1d5 95be ce3b 7ebe
00000110: 8767 0abe 2995 b0bd d311 23be caff 5cbd
00000120: 5855 e53c a757 92bc ffb0 e93d a5a4 f0bd
00000130: 74c7 1d3b b18a 20be a8d2 f73d 33c6 e73d
00000140: cbe2 433c fdbf e23d 10ff f93d ad7f b03c
00000150: ff99 b1bd 7e85 d3bd 5692 d5bd 75a7 eb3d
00000160: 1612 063c c644 233d ee45 23bc a4a3 a3bd
00000170: 0172 ccbd 6e7e 38be c9ea d43d b11f 773e
00000180: f5cf 113e a4ce 96bd e829 3ebe 5fbe 533d
00000190: be47 14bd 50d0 173e 4181 19bd dc3b 50be
000001a0: a369 a3bd 470e 72bd f2a3 a5bd f236 1ebd
000001b0: 78f2 d2bd 59d3 86bd 7850 89bc 57a3 36be
000001c0: 70ef 4fbd 2692 38bd 53fc 16be 75a1 6b3c
000001d0: 4a3e 2bbd fca9 30be d44e a7bd ad15 86be
000001e0: 92e9 b63b 66c5 2fbd b1ce 853c eb00 31be
000001f0: 6b0c 1bbe c536 1cbe 938a 82bc 6534 003e
00000200: 9fa5 483d ea73 29be ba9e 87bd a902 92bd
00000210: 7e9e 183d df52 183e 4d64 4bbc d9ce fcbd
00000220: 44fa 783d 7c92 40be 1652 263e ac9c 4bbd
00000230: edde 70be b28a 02bd 8ead 98bd a336 86bd
00000240: 665c dc3c 74ef 25be a7e0 dcbd 09c7 283d
00000250: d6d6 443e b663 563d 301b 873d cdea 853c
00000260: 5084 9e3c e7c4 04bf 2881 793e ed08 9ebd
00000270: 5ce7 e83d eaa9 d03d 4421 833e 6775 acbd
00000280: d2c2 7cbd 8575 523d e907 8e3c e8f8 7d3d
00000290: 4283 593e 743f d0b9 3f45 30bd df0c 653d
000002a0: df5a 6e3c 8710 093e 0f9f 603d b02b 9bbd
000002b0: 1665 cabd c881 73be 7fb5 bbbc b733 6dbd
000002c0: 5041 a5be 198a 85bd adf7 2abe ec1b f6bd
000002d0: 8b6e fd3d 5e9a 24be 7228 6e3d 7f43 573d
000002e0: 4cd3 51bd 4fbf a13e efee eabd bc02 363e
000002f0: 172d 123e 1353 04bb 5ee6 8fbe f94e 2dbe
00000300: f139 40bd e85f 2abe 5169 01bd 0b66 c9bd
00000310: 0f3e 6c3d 9388 5fbc ef99 103e f439 a23d
00000320: 777c 4f3d 8348 c9bd ec5f 813c 4dfc f93c
00000330: 85ec 08bd 1dd0 253e b107 7b3d 9c42 5cbe
00000340: 8c7b 9a3d 0695 913d 6015 d6bd e458 233e
00000350: 75c2 ff3c 1d7e 4a3b 3d40 ee3d fb1c 1bbd
00000360: 326f 993e 1946 0bbd a10c 28be cd9e 9bbe
00000370: 18ae 583e 2572 7ebc 8991 0c3e a590 17bb
00000380: 5086 11bd 8676 a4be a1b7 943b ffb1 5a3a
00000390: 9f47 ee3c 6bd2 1dbd 5f3f f3bd 3799 82bd
000003a0: ee5c ee3d f08c c2bb 7475 2b3e afc8 613d
000003b0: 402b 173e 09ea c1bd d95e 88be 9234 8dbe
000003c0: 8fc1 c3bd efb3 fcbd 206d 2ebd 27e0 483e
000003d0: 2ac8 41be ca78 57be 160f 64bc b25c b8bd
000003e0: 9e7d 353c 26d2 1dbe e7e4 503d c7aa 553e
000003f0: 14cf 9f3a 88a4 05bd 2ef9 97be bdc3 953c
-0.20673682 0.21315508 0.109507605 -0.1467324 -0.03146295 0.012367477 -0.12266077 -0.09434296
-0.013492909 -0.093896516 0.16500315 -0.118687645 -0.04410933 0.06815361 0.0378517 0.055623937
0.04878806 0.05299251 -0.18551135 -0.08865282 -0.11213749 -0.15943016 -0.034872957 -0.18054904
-0.15548508 -0.10895586 -0.019760016 0.21892276 0.13221735 0.14983208 0.22570516 -0.034452733
-0.10413466 0.027289895 0.0103289 0.045626048 0.028217638 -0.07138201 0.10802729 -0.0735902
-0.119267106 0.2582475 0.03540199 -0.0884345 -0.059162848 0.28439134 0.28092027 0.2437086
0.051459525 0.3203897 0.38879496 0.0071378755 0.010114589 0.12847912 0.11272644 -0.042724192
-0.0441067 -0.08358418 -0.14257821 0.11354785 0.2057878 -0.001711289 -0.026639372 0.14886917
-0.11175825 0.09421585 -0.29264787 -0.24827501 -0.13516055 -0.086222 -0.15924768 -0.053954877
0.027994797 -0.017864062 0.114107125 -0.117501535 0.0024075182 -0.15677907 0.12100726 0.113171004
0.011955927 0.11071775 0.122068524 0.021545256 -0.086719505 -0.10328196 -0.10428302 0.11506549
0.008183023 0.03986051 -0.009965403 -0.07990196 -0.09982682 -0.18016979 0.10396344 0.24133183
0.14239486 -0.07363632 -0.18570673 0.051695224 -0.03620123 0.14825559 -0.03747678 -0.20335335
-0.07979133 -0.059095647 -0.08087911 -0.03862662 -0.103001535 -0.0658328 -0.016762003 -0.17835747
-0.050765455 -0.045061253 -0.14744692 0.014381756 -0.04180745 -0.17252344 -0.08169332 -0.26188412
0.005582043 -0.042912863 0.01633391 -0.17285506 -0.15141456 -0.15255268 -0.015935218 0.12519987
0.048986074 -0.16548124 -0.066220716 -0.07129414 0.037260525 0.14875363 -0.01241405 -0.123441406
0.060785547 -0.1880588 0.16242251 -0.04970996 -0.2352254 -0.03187055 -0.07454978 -0.0655339
0.026899528 -0.16204625 -0.107850365 0.04120544 0.19222578 0.052341186 0.065969825 0.016347313
0.0193502 -0.5186295 0.24365675 -0.07716546 0.11372253 0.101886585 0.25611317 -0.0842083
-0.061709233 0.051381607 0.017337756 0.062004954 0.21241477 -0.00039720128 -0.04303479 0.055920478
0.014548033 0.13385211 0.05483919 -0.07576692 -0.09882562 -0.23779976 -0.022913693 -0.057910647
-0.32276392 -0.06520481 -0.16696043 -0.120170444 0.123746 -0.16074511 0.05814404 0.052554604
-0.0512269 0.3159127 -0.11471354 0.1777448 0.14275013 -0.0020191118 -0.28105444 -0.16924657
-0.046930257 -0.16638148 -0.03159458 -0.09833916 0.05767637 -0.013643402 0.14121221 0.0792121
0.05065581 -0.09828284 0.01579281 0.030515814 -0.033428688 0.1619267 0.061286632 -0.21509784
0.07543096 0.07108502 -0.10453296 0.15951878 0.031220654 0.0030897923 0.11633346 -0.037869435
0.29967648 -0.034002397 -0.16411068 -0.30394593 0.21160161 -0.015530144 0.13727392 -0.0023126986
-0.03552848 -0.32121676 0.004538492 0.00083425635 0.029086886 -0.03853075 -0.118773215 -0.0637688
0.11638819 -0.005937211 0.16744024 0.055123027 0.14762592 -0.09468467 -0.26634863 -0.2757917
-0.09558403 -0.12339007 -0.04258454 0.19616757 -0.18924013 -0.21042171 -0.013919612 -0.09002055
0.011077313 -0.15412197 0.05099955 0.20865928 0.0012192451 -0.032627612 -0.29682297 0.018281812

model.5.bias f4 [64]
00000000: 1934 17bf 7f54 0cbf 1c62 9bbe 045c aebe
00000010: 601e c8be cbb2 37bf f10b 0cbf 86e7 eabe
00000020: 7f59 59be c12e 0ebf 11bb 5abe d853 b6be
00000030: e34f 47be 4375 acbe 1f31 c9be d05f b0be
00000040: 5cfe 54be d1b5 b7be 89b7 e7be 1dee 81bc
00000050: 1bb8 28bf 8d01 08bf 674a 2dbd 851f e4be
00000060: 03a7 07bf 23a4 29bf 2d4c c6be 1ba3 98be
00000070: e8a5 aabe 98a9 69bb 5f55 f8be d22f 0cbf
00000080: 600e f7be 3588 20bf 7670 f43d 2000 08bf
00000090: a2d3 ca3d 2090 1cbf e463 99bd a5ec fcbe
000000a0: a8c8 08bf 870b 23be 4eed 30bf 6c53 bdbd
000000b0: b673 62be 729d 943c d467 53be 3d22 eebe
000000c0: e036 27bf 38c6 a3be 0a94 833d 0180 e8be
000000d0: 6aa8 66be 9227 debe dbe1 c53d 1805 65bf
000000e0: 6895 b4be 6377 e9be f655 d9be 2720 1e3c
000000f0: d821 63bf 1245 7cbf 6692 7a3e b776 a5be
-0.5906387 -0.5481643 -0.3034829 -0.34054577 -0.39085674 -0.7175719 -0.5470572 -0.45879763
-0.21225546 -0.5554009 -0.21360423 -0.35610843 -0.19464068 -0.33683214 -0.3929529 -0.344481
-0.20800155 -0.35880902 -0.45257214 -0.015860612 -0.6590592 -0.53127366 -0.042307284 -0.44555297
-0.52989215 -0.6626608 -0.38729993 -0.2981194 -0.333297 -0.0035654064 -0.48502633 -0.5476047
-0.48253155 -0.62707835 0.11935513 -0.5312519 0.09903647 -0.6115742 -0.07489756 -0.49399295
-0.5343118 -0.15922366 -0.691121 -0.09244427 -0.22114453 0.018141482 -0.20645076 -0.46510497
-0.6531811 -0.31987166 0.064247206 -0.4541016 -0.22525182 -0.43389565 0.09662219 -0.894609
-0.35270238 -0.45598897 -0.42448395 0.00965122 -0.88723516 -0.9854289 0.24469909 -0.32317135

model.7.scaling_factor f4 [64]
00000000: 2ec4 613f bdd2 6a3f 220e 4b3f 0699 4d3f
00000010: a612 423f 3e1b 7e3f 0385 7c3f befc 793f
00000020: 50bd 473f e575 7a3f 62b6 4f3f 4d14 773f
00000030: 038f 033f ec59 2e3f 7ed5 6e3f ca6a 7c3f
00000040: 913b 5b3f e492 3e3f b1b2 673f b3ac 7e3f
00000050: 266b 763f c892 443f fd21 1c3f e759 783f
00000060: 5a45 4c3f 58bf 673f 633a 2e3f 635d 5b3f
00000070: 9821 4d3f a479 7f3f 50b4 153f 8c96 713f
00000080: 2cc0 4c3f 6fac 3f3f 8534 7f3f 6ebc 713f
00000090: ea29 7f3f 9760 793f a3e1 6f3f 2de1 633f
000000a0: 11e0 643f 6cd9 653f 6747 283f 56bc 5b3f
000000b0: fb5c 5d3f 48c8 753f 8594 663f 2246 533f
000000c0: a910 423f fd0b 653f 2637 7f3f 07fa 453f
000000d0: b579 5c3f 49cc 433f c513 7f3f c16b 473f
000000e0: ef47 743f 962d 523f b734 563f 715f 7f3f
000000f0: 8186 733f 4677 723f b819 c23e d63d 453f
0.8818997 0.9172781 0.7931844 0.8031162 0.75809705 0.9926032 0.9864046 0.9765128
0.7802324 0.9783614 0.8113767 0.9651535 0.51390094 0.6810596 0.93294513 0.9860045
0.85637766 0.7444289 0.90507036 0.9948227 0.96257246 0.7678647 0.6098936 0.9701218
0.7979332 0.9052634 0.6805784 0.8568937 0.80129385 0.99794984 0.5847826 0.9437034
0.7998073 0.7487249 0.99689513 0.94428146 0.9967333 0.9741301 0.9370367 0.89015466
0.894044 0.89784884 0.6573395 0.8583425 0.8647 0.9600873 0.9007037 0.8252889
0.7580667 0.8947142 0.99693525 0.77334636 0.8612321 0.7648359 0.9963954 0.77898794
0.9542226 0.8210081 0.83674186 0.9975501 0.9512711 0.94713247 0.37910247 0.7704748

model.7.bias f4 [64]
00000000: 30bf 8ebc 24d6 abbe 4bf2 1a3f ca61 c9bd
00000010: 8e2e 42bf 1ba5 193f eed5 e43e 9c83 72be
00000020: 3d26 38bf f524 89be b9b0 20bf 1311 5ebe
00000030: 23bf b8be 5aa9 9ebe 3ab8 a63d d16f 0dbf
00000040: ee1f 963d 20ee 323e 3523 99be dee8 20bf
00000050: 9316 4a3e 7649 96be feb5 cc3d 6dd2 063e
00000060: df50 97be e0da a93d 5dde 28bf eb69 a43e
00000070: 190b c93e 93ec 15bf fa02 a7be 05c0 0c3f
00000080: 06d6 a5be 79c1 01bf 6022 aebe c87b 84bc
00000090: e3f1 03bf bfd3 5d3e fd5a ca3e 14b3 a93e
000000a0: 438a 063e 8036 073f 73a4 cabe 36ee 58be
000000b0: 0cdb d43e 3e76 0cbf 5d1e 06be e7db 6f3f
000000c0: fd22 0dbe 10fe 2abe ce9d d9be 412a 523f
000000d0: c34e b4bc 3441 45be 48c6 6abe 75b2 e33c
000000e0: 203a 12bf fb53 87be f7be 933e 82f9 f73e
000000f0: 77ad 083f 2dad 893e 8b7a 9bbe c661 c0be
-0.01742515 -0.33561814 0.6052596 -0.09833105 -0.75852287 0.60017556 0.44694465 -0.23683017
-0.71933347 -0.26786008 -0.6276966 -0.21686201 -0.36083326 -0.3098858 0.08140607 -0.55248743
0.07330309 0.1747365 -0.29909673 -0.6285533 0.19735174 -0.2935292 0.0999565 0.13166209
-0.29553887 0.082937 -0.659643 0.3211206 0.3926628 -0.5856411 -0.32619458 0.549805
-0.3238985 -0.5068584 -0.340106 -0.016172305 -0.51540965 0.21662806 0.39522544 0.33144438
0.1313868 0.52817535 -0.3957859 -0.2118462 0.4157337 -0.54867923 -0.1309752 0.9369492
-0.13782878 -0.1669848 -0.42503208 0.82095724 -0.022010213 -0.19263154 -0.22927201 0.027795056
-0.5711994 -0.2643126 0.28856632 0.48432547 0.53389686 0.26889935 -0.3036693 -0.37574595

model.8.weight f4 [128, 64, 3, 3]
00000000: 6c15 40be 5cac 2c3c 3456 93bd c703 08be
00000010: 2a0e 213e d3da 0bbe fd83 aabe f654 80bd
00000020: d766 0dbe 02f1 3f3e 20dd 64bc b914 523d
00000030: c19c a7be 100a c4bd 48bf 63be 0613 a2be
00000040: 6c25 82bd d36f f5bd 1064 9cbc 43a9 e8bc
00000050: 74f7 25bd 471a 233e 0613 813d b471 5a3e
00000060: 2eae 5fbc 8964 aa3d bfdf f43b 910e 163e
00000070: 3485 923d 8d90 0e3d 953c eebd 38c0 233d
00000080: 8628 e5bd 333c 76be a481 ca3d 1740 0ebe
00000090: c675 e4bd 78cf 33be 1ffe 923a 8811 56be
000000a0: 6f0f 08bd 2505 cdbd d46c 573e 83ba 423e
000000b0: 0fd0 fe3d 3899 a9be e80e 9b3c 892b 70be
000000c0: 1b1c f63b ac7c 543e e71a 543d 8586 043d
000000d0: eb93 0b3d c10c dc3c 8541 2fbe ff06 35bd
000000e0: 0f1a debd 04de 983e 956b 4fbd 9338 343e
000000f0: b04c b43d ecfc 24be f2bc aabc 638f a8bd
00000100: 35c8 18be bbbe 13be fdaa aebd a98c 283d
00000110: a03b cfbd 173c 0abe 47a8 eebc be61 d6bd
00000120: 25d2 f3bd 4777 17bc 5317 19be ccb8 2a3d
00000130: dfc3 ba3d dc12 3ebd bc4c c3be 60ce 8c3c
00000140: a822 7cbe afd2 77be ce71 cabd e2af 0bbe
00000150: 1bac c43d 8622 8fbc e9e7 b23d b99e fabd
00000160: 1815 823d 3c9c 07be 47eb eebd a55a d6bd
00000170: 1db9 61bd 3480 eabe 7d5d 03bd 2500 54be
00000180: 2a85 9b3e 0277 53bd d16b f43d e523 26be
00000190: f3ef 68bc 62d9 33be ec90 ba3b 2bd8 5c3c
000001a0: 3e07 113d c998 9dbd e1a3 c2bd b852 97bd
000001b0: cadd 21be bdba 93bd 3c3f 17be a567 693c
000001c0: b518 f7bd b49c 9f3d 9ddb da3e 6521 273a
000001d0: 0143 ae3e e4a7 633e 3102 bbbc 75cd 0f3e
000001e0: b4a9 57be cb54 543c 61d2 43be 191b be3c
000001f0: 7c8b fabd 9502 433c 3b2f 013e 0526 923d
00000200: 847e 82bd 2b5e c6bc 374e 613d 67ed 3abd
00000210: 853c a1be 153b 39bd 4993 6cbe e0d1 f8b9
00000220: c06d f2bb cdab e0bd f4a7 5abe 1ff2 033e
00000230: cc49 cbbd 8785 a73d ca27 d6bd 0759 803d
00000240: d866 483e 0c68 edbc 4a1e 53bc d269 82be
00000250: 5825 3fbd 3185 8fbe 4d64 aebe c6cc d1bd
00000260: 4ad1 e3bd b0f0 973d 6f85 913d 06e7 89bb
00000270: f0dc 993e cfd5 093c 4e7f 3d3e d592 ca3c
00000280: 43b6 05ba 919e 6b3d 5592 81bd 1fbf a73d
00000290: 9bba 983d 837f 66be d480 3b3d e133 2ebd
000002a0: fafc 07bf 37d0 d6bc a3d1 95be 20dc fa3d
000002b0: ec97 8dbc 26a6 9cbd 294d b3bd eb12 46bc
000002c0: c0a8 263d eb50 a0bd 3a31 3abe 7aae 873c
000002d0: 63c5 0e3d 4777 80bd 7bc8 983b 60e8 df3d
000002e0: 6063 2bbe 5115 8ebd c5b2 86bd 5edb 04be
000002f0: db7a adbc cf0d 5dbe 3c86 57bd 1780 cebd
00000300: bba0 50be 42ce 9e3c 31df 11be 035f 77be
00000310: fa7c afbd 592d 5fbd d5d1 8b3e e6e6 273e
00000320: ed7c 573e c42f 0a3d 3256 ce3d 8d65 d23d
00000330: 5c20 283e 2e08 be3d 4cdd 173e fff5 8bbe
00000340: f28a 4cbd aeb5 4dbe e24a 11bd 7ae4 993c
00000350: c321 1bbd 7319 333d eacf 2cbe 1a5b 453c
00000360: 971c 39be 2b3d 4cbd 0b28 05be d609 aabe
00000370: 88b4 15be c152 5ebe 9650 a73e 3bc7 a43d
00000380: d386 393e 0a3b 95be 7d96 02bc de43 07be
00000390: c42c 553e 6368 9b3d 4df6 3d3e 92f2 183d
000003a0: 7adc 09be 0eaa ef3c 8b1e 8c3d 1857 eb3c
000003b0: a0bd 0ebd 94a0 a7bd 674d 44be c051 2dbe
000003c0: 2282 adbe 4fa2 babd b070 4dbe 2d14 84bd
000003d0: 323e ebbd a6b7 113d 9704 193e a776 3dbe
000003e0: b9c4 803c 2a02 943e 7e0c 4dbd 9c07 243e
000003f0: e5ee e23e ab1c 483d 7c5c 5f3e 36e5 3c3e
-0.18758172 0.010539141 -0.07194176 -0.13282691 0.1572806 -0.13657694 -0.33303824 -0.06266205
-0.13808762 0.18744281 -0.013968736 0.051289294 -0.3273678 -0.09572232 -0.22240937 -0.3165514
-0.06354794 -0.119842194 -0.019090682 -0.028401023 -0.040519193 0.15927993 0.063024566 0.21332437
-0.0136523675 0.08319957 0.0074729617 0.14653994 0.07154313 0.034805823 -0.11632649 0.039978236
-0.1118937 -0.24046402 0.09888008 -0.13891636 -0.11155276 -0.17559612 0.001121465 -0.20905125
-0.033217844 -0.10010747 0.21037608 0.19016461 0.12442028 -0.3312471 0.018928006 -0.23454107
0.0075106747 0.20750684 0.05178347 0.03235485 0.034076612 0.02686155 -0.17114837 -0.044196125
-0.10844814 0.29856884 -0.050639708 0.17599706 0.088036895 -0.16112107 -0.02084205 -0.08230474
-0.14920123 -0.14428227 -0.08528707 0.04114977 -0.101187944 -0.13499485 -0.029132975 -0.104678616
-0.11905316 -0.0092447465 -0.14950304 0.041680142 0.09119391 -0.046404704 -0.3814448 0.017188251
-0.24622595 -0.24201463 -0.09884988 -0.13641313 0.09603139 -0.017472517 0.087356396 -0.12237305
0.063516796 -0.13243192 -0.11665969 -0.10466508 -0.05510818 -0.45800936 -0.03207158 -0.2070318
0.30375034 -0.051627167 0.11934627 -0.1622463 -0.014217365 -0.17563394 0.0056935456 0.013479273
0.035407297 -0.07695157 -0.09503914 -0.07388824 -0.15807262 -0.07213352 -0.14770216 0.014245902
-0.12065259 0.077935606 0.42745677 0.00063755206 0.34035495 0.22232014 -0.022828193 0.1404322
-0.2106083 0.012959669 -0.19123222 0.02320628 -0.12233636 0.011902471 0.12615673 0.07136158
-0.06371787 -0.024214825 0.055006232 -0.04563656 -0.31491485 -0.04522236 -0.2310306 -0.00047458615
-0.007398337 -0.109702684 -0.21353132 0.1288533 -0.09926185 0.08179765 -0.10456808 0.062669806
0.19570482 -0.028980277 -0.012885639 -0.2547136 -0.046666473 -0.28031304 -0.34060898 -0.102441356
-0.11123903 0.07418954 0.071055286 -0.0042084483 0.30051374 0.008412792 0.18505594 0.024728218
-0.00051007065 0.057524268 -0.06326739 0.0819075 0.07457467 -0.2250958 0.045777157 -0.042529944
-0.53120387 -0.026222331 -0.29261503 0.12249017 -0.017284356 -0.07648878 -0.087549515 -0.012089471
0.040688276 -0.07827934 -0.18182841 0.01656269 0.03485621 -0.0627275 0.004662571 0.10932994
-0.16737127 -0.069376595 -0.06577066 -0.12974307 -0.021176746 -0.21587299 -0.05261825 -0.10083025
-0.20373814 0.01938546 -0.14245297 -0.24157338 -0.08568759 -0.054486606 0.27308527 0.16396675
0.21043749 0.03373696 0.10075034 0.102732755 0.16418594 0.09278904 0.14830512 -0.27336118
-0.049937196 -0.20088837 -0.035471804 0.018785704 -0.037873995 0.043725442 -0.16876188 0.012045646
-0.18077312 -0.04986302 -0.13003556 -0.3321063 -0.14619648 -0.21711256 0.3267867 0.08045813
0.18117838 -0.29146606 -0.0079704495 -0.13209483 0.20817858 0.075882696 0.18550988 0.037340708
-0.13463011 0.029255893 0.06841763 0.028728053 -0.03484881 -0.08184925 -0.19170152 -0.16925716
-0.33888346 -0.09112989 -0.20062518 -0.06449161 -0.11486472 0.03557553 0.14943157 -0.18502294
0.015718805 0.289079 -0.05006074 0.16018528 0.44322887 0.048855465 0.21812624 0.18446812

model.8.bias f4 [128]
00000000: 3b92 bdbe 3f5a 81be c9c4 893d 94ce d8bd
00000010: d4fc 05bd cbad 7c3d 223b 563d 6b87 433e
00000020: 11c0 23be 0729 7abf 2b8f 9b3d 0413 aebe
00000030: 9a4f 13bf 489a a6be c5c9 f4bd 96fc 1abe
00000040: 5616 89be a1d2 03bf 226f ea3d 08fd 3d3e
00000050: 0804 063e 5a1f ff3d e9c0 f9bd eaa5 69bd
00000060: 1058 2cbf 8020 fe3d d2c8 37bf a4b0 6a3d
00000070: f8a5 873e 4132 b3be 0579 393e becd b53e
00000080: 6937 08bf 4019 03be 12a5 43be d8c8 fbbd
00000090: b1e4 cb3d d263 56be e983 c0bc 4560 933d
000000a0: b42a 7f3c 5a1b 31be d605 f4be 5a1d d7be
000000b0: a858 5fbe d772 cebd dc10 8bbe 1354 893e
000000c0: 78df 383e 9853 1dbe 7603 ebbe c216 c1be
000000d0: 74eb 993b 74b6 93bd 6b99 ad3e d586 7dbe
000000e0: 741e cd3c 7130 dabe 7bbf 9fbd 8c46 58be
000000f0: 1253 99bd fd09 70bf 8aa5 d9be 042f 8ebe
00000100: 4260 e83d 53fa d23d d4ae d0be 8fb6 cc3d
00000110: feb2 14be 0510 ba3c d1c4 f33e 8575 a83e
00000120: 1bfd 78be 7bd4 cf3e 8436 a6be 6ae8 e3be
00000130: a4e0 00be 016d 3ebf 312e b7bd 7d25 d43c
00000140: bbb6 0a3e 44fc 103e f776 203e c1d5 46be
00000150: 86f8 6d3e 17ee 29be 5dd8 16be 05b5 2bbd
00000160: be08 27be f8b5 febd 1a01 bf3b 04d5 91be
00000170: 9034 8e3d 2088 a83d b38f db3b fb72 693e
00000180: fd5d d8be 6d7c 5dbf 936e 8e3d 9e6c 0fbf
00000190: 496d 2abe 4fa6 cbbe d18b a1bd f47b b5be
000001a0: 6cd0 29bf fc33 db3e ebee 0b3f eb95 473e
000001b0: 8470 03bf 3b80 8abe 083c b9be ae4e cabe
000001c0: 6bdd 16be 3b1c 08bf c405 8e3e 51e2 48bf
000001d0: c665 86be 5363 16be 2da0 c2be 867a febe
000001e0: bdbd 02be 9aae 61bd 3e68 45bd 6e08 80be
000001f0: d2e0 473d 18a6 11bf 0ccb 7c3d f90d a6be
-0.37025627 -0.25264165 0.06726987 -0.10586277 -0.03271182 0.06168918 0.052302487 0.19094627
-0.15991236 -0.9771885 0.075956665 -0.33998883 -0.5754334 -0.32539582 -0.11952547 -0.15135416
-0.26774853 -0.5149327 0.11446978 0.18553555 0.13087475 0.12457152 -0.12194998 -0.057042994
-0.6732187 0.12408543 -0.717908 0.057297364 0.26493812 -0.34999278 0.18112572 0.3550853
-0.5320955 -0.12802601 -0.19105938 -0.12294167 0.09955729 -0.20936516 -0.0235004 0.07196096
0.015574146 -0.1729559 -0.47660702 -0.4201458 -0.21811163 -0.10080498 -0.271613 0.26821956
0.18053997 -0.1536392 -0.45901078 -0.37712675 0.0046972577 -0.072125345 0.3390611 -0.24758466
0.025038935 -0.42615083 -0.07800194 -0.21120661 -0.074865475 -0.9376524 -0.4250911 -0.27770245
0.11346485 0.10301652 -0.40758383 0.09995758 -0.14521405 0.022712717 0.47611097 0.3290216
-0.24315302 0.40591797 -0.32463467 -0.44513255 -0.12585694 -0.74385077 -0.08944357 0.025896782
0.13546269 0.14158732 0.15670381 -0.19417478 0.23239335 -0.1659473 -0.14730974 -0.04192068
-0.16311929 -0.124370515 0.0058289887 -0.2848283 0.06943619 0.08229089 0.00670048 0.22797768
-0.42259207 -0.86517984 0.06954684 -0.5602511 -0.16643251 -0.3977532 -0.07887996 -0.3544613
-0.6633365 0.42813098 0.54661435 0.19490783 -0.5134356 -0.27050957 -0.36178613 -0.39513153
-0.14732902 -0.53168076 0.27738774 -0.7847033 -0.26249522 -0.14686327 -0.3801283 -0.49702853
-0.12767692 -0.055098154 -0.048195116 -0.2500643 0.04879839 -0.56894064 0.061717078 -0.32432535

model.10.scaling_factor f4 [128]
00000000: 655b 7f3f d1ef 7f3f ff13 5d3f 9a4d 753f
00000010: 577b 7f3f 2679 7d3f 448e 7d3f ca67 7f3f
00000020: ea16 7f3f 40a1 7e3f 269a 7a3f 97e4 7f3f
00000030: d79d 7f3f 0000 803f d4ff 7e3f 2dff 7f3f
00000040: 157f 7e3f 16c5 7f3f e49b 7a3f ef7e 7f3f
00000050: 27a1 7f3f 95da 7f3f 1605 773f 85e5 7f3f
00000060: 82dd 7f3f bc5e 7d3f 4bf7 7f3f 0000 803f
00000070: eee2 733f 9341 7f3f a393 7f3f 537f 6f3f
00000080: b2c7 7f3f adef 7f3f 9a00 6a3f 28fa 7f3f
00000090: 0000 803f 52aa 793f 9de0 7f3f 880b 7e3f
000000a0: 63f1 7d3f 0000 803f 3651 7f3f 9432 7f3f
000000b0: 0000 803f 2ce7 7f3f 0ef8 7f3f 5bd2 7f3f
000000c0: 7192 7c3f 0a36 793f 0000 803f c6a3 7f3f
000000d0: 6d24 7d3f 0000 803f 7ed7 7f3f 69bf 7f3f
000000e0: 587f 7f3f 28d4 7f3f c2f8 7f3f 705a 7e3f
000000f0: f9ac 7f3f 3bd1 7f3f f894 7e3f bc99 773f
00000100: 071f 7e3f 50ab 7e3f 8572 7a3f 7957 7d3f
00000110: 0000 803f a1a6 783f c8f0 7e3f 7072 7f3f
00000120: 2882 7f3f 9f40 6f3f 0000 803f d9fa 7f3f
00000130: 97ea 7f3f b08c 7e3f 0000 803f 0000 803f
00000140: 1fbf 7f3f 1d21 7f3f 1e93 7f3f aba4 783f
00000150: 6c76 7f3f 3a34 7c3f c7e3 7e3f 0000 803f
00000160: e389 7f3f c0dd 7f3f 8397 7f3f 0bd9 7f3f
00000170: ad68 7f3f 0656 7c3f 2ef4 7f3f 0000 803f
00000180: 799d 7e3f 7711 713f 4bff 7f3f 0000 803f
00000190: 0000 803f 75f8 7f3f d074 7f3f decc 7f3f
000001a0: d9bf 7f3f ad63 7f3f 3b38 7f3f 2e92 7f3f
000001b0: 0000 803f 735e 7e3f 0000 803f 06ff 7f3f
000001c0: cc8c 7e3f d890 7e3f 0fc9 7f3f 31c7 7f3f
000001d0: 179d 763f a2c6 7f3f a2f4 7f3f 15b7 7f3f
000001e0: c416 7f3f 9093 7d3f 843b 7f3f 0000 803f
000001f0: 79bc 783f 125d 7b3f 1e49 7f3f 4a91 7e3f
0.9974883 0.99975306 0.86358637 0.95821536 0.99797577 0.9901298 0.99045205 0.99767745
0.9964434 0.994648 0.9789146 0.99958175 0.9985022 1.0 0.9960911 0.9999874
0.9941266 0.99910104 0.9789412 0.9980306 0.99855274 0.99942905 0.96492136 0.99959594
0.9994737 0.9897268 0.99986714 1.0 0.9526814 0.99709433 0.9983465 0.93553656
0.99914086 0.9997509 0.9140717 0.99991083 1.0 0.97525513 0.9995211 0.99236345
0.9919645 1.0 0.99733293 0.9968655 1.0 0.99962115 0.99987876 0.9993035
0.9866095 0.9734808 1.0 0.99859273 0.98883706 1.0 0.9993819 0.99901444
0.99803686 0.999331 0.9998895 0.99356747 0.9987331 0.99928635 0.9944606 0.96718955
0.99266094 0.9948015 0.9783099 0.989616 1.0 0.97129256 0.99586153 0.9978399
0.9980798 0.9345798 1.0 0.9999214 0.9996733 0.9943342 1.0 1.0
0.99901 0.996599 0.9983386 0.97126263 0.9979007 0.9851719 0.9956631 1.0
0.99819773 0.9994774 0.99840564 0.99940556 0.997691 0.9856876 0.99981964 1.0
0.99459034 0.94167274 0.9999892 1.0 1.0 0.9998849 0.99787617 0.9992198
0.9990211 0.9976147 0.99695176 0.9983243 1.0 0.9936287 1.0 0.9999851
0.9943359 0.99439764 0.99916166 0.99913317 0.9633345 0.99912465 0.99982655 0.99888736
0.9964411 0.9905329 0.9970019 1.0 0.97162586 0.9818889 0.9972094 0.99440444

model.10.bias f4 [128]
00000000: c111 773d 1c16 973d 25e3 003e 434b debc
00000010: b19a db3d 5a29 043e 24ae eebc a486 5e3d
00000020: 449c 8c3d 75d2 333e 73c6 86bd 2335 c33d
00000030: e9f8 fd3d 1476 053d 9afa 5d3d 2a51 e83d
00000040: c995 413e 106f cf3d 8667 9dbd fedd d43d
00000050: 93af a43d 58b4 013e 1974 483d 0c5e f73d
00000060: 40bc e73d 8666 c3bd c404 60bc e0dc 063e
00000070: 98d7 093e 8633 a8bd 74bf 4b3e 99a2 593d
00000080: 78e2 1d3d a6df d5bd 919f 213e 20ea 993d
00000090: 30d4 a33d f775 f23d 0778 dc3d 6c28 b83d
000000a0: 02d4 203d 9d95 933d aada a03d 185a db3d
000000b0: c8d5 b63d 8a74 d93d 35b3 eb3d 6c2b 0c3e
000000c0: cf0c b8bd 609b a7bd ae3b 10bd 8c50 fb3d
000000d0: d58f 99bd dba4 abbd b747 cc3d 683c fa3d
000000e0: 3e9a 493e 0287 003e a5ed e73d 7299 97bd
000000f0: 4922 fc3d 7b7b 223e 83a3 243e 45f0 7b3d
00000100: 949b 2d3e 9f0b 163d 4c76 ae3d 69bd 3f3e
00000110: d88a cdbd 7c72 293e ec8e a43d 5e79 6a3d
00000120: 0a7b e63d 2395 cc3d c578 af3d fb50 2f3e
00000130: e2c3 bf3d 800e e03c 6652 cd3d 2bab 1f3e
00000140: a4b7 da3d 3ff1 02be 2333 0c3e 8df3 87bd
00000150: f2cb 063e de85 df3d e044 a23d af58 87bd
00000160: cc43 243e 77fd 273d 9347 053e 3024 d93c
00000170: 23e7 cb3d 415e 62bd 7fc2 d23d 4fae 1ebe
00000180: 9765 e73d 3aae fcbc a9fd 283e 0dca ad3d
00000190: 7673 1a3e 5eae 0b3e 42da e03d ce83 0f3e
000001a0: 3f5d 553e 50d8 f53d 89bb 193e da1c 353e
000001b0: 3bdb c5ba 2f14 dc3d 9206 ccbc c770 8f3d
000001c0: 4b6f 373e 7541 ff3d e5f7 a43d 0bf6 be3d
000001d0: 7a26 d53d 8979 963d 6413 803d 6cf7 9d3d
000001e0: f582 583d 2a1b 29bc ac12 713d 79a3 bd3d
000001f0: 04fd 55bd 7a4c eb3d d151 ec3d a09e baba
0.060319666 0.07377264 0.12586649 -0.027135497 0.107228644 0.129064 -0.029135771 0.054327622
0.06865743 0.17560752 -0.0658082 0.095316194 0.124009915 0.03258331 0.05419407 0.11343606
0.18904795 0.10128605 -0.07685761 0.10393904 0.080413006 0.12666452 0.048938844 0.12078485
0.11315203 -0.09541039 -0.013673011 0.13170195 0.13461149 -0.08212952 0.19897252 0.05313358
0.038546056 -0.10443048 0.15783526 0.07515359 0.07999456 0.11838906 0.10765081 0.08992085
0.039264686 0.07206271 0.07854207 0.107105434 0.08927494 0.10617931 0.115087904 0.13688439
-0.08986818 -0.08183932 -0.035213165 0.122712225 -0.07498137 -0.08381053 0.09974616 0.12218553
0.19687745 0.12551501 0.11324624 -0.07402314 0.12311227 0.15867417 0.16078 0.061508436
0.1695388 0.036632176 0.08518657 0.18724598 -0.10036248 0.16547579 0.08035073 0.05724465
0.112539366 0.09989383 0.08567957 0.17120735 0.093635336 0.027350664 0.10025482 0.15592639
0.10679558 -0.1278734 0.13691382 -0.066382505 0.13163736 0.10914205 0.07923293 -0.06608712
0.16041487 0.041013207 0.13015585 0.026506513 0.09956195 -0.05526567 0.102910034 -0.15496181
0.112986736 -0.030844796 0.16503014 0.08485804 0.15083107 0.13640735 0.109791294 0.14015123
0.20836352 0.12004149 0.15012945 0.17686787 -0.0015095243 0.10746037 -0.024905477 0.070039324
0.17913549 0.12463657 0.08055095 0.09324273 0.104077294 0.073474 0.062536985 0.077132076
0.052859265 -0.010321418 0.058855698 0.092596956 -0.052243248 0.11489196 0.11539043 -0.0014237948

label_embedding.weight f4 [3, 3]
00000000: ef8f 633f e54a 68bf fa28 6d3f c24e 543f
00000010: 2fcf f13d 2274 17bf 77d9 223f 83af c73d
00000020: 634a bebe
0.888915 -0.9073928 0.9264065 0.82932675 0.11807095 -0.5916158 0.63613075 0.09750273
-0.37166128

classification_layer.0.weight f4 [1, 515]
00000000: 520e 4a3e f60a b73e 12fd 7ebf b524 7fbf
00000010: 6332 a23d e0cd 8c3e 7cfb 7fbf 7b4f 7cbf
00000020: cf6e 9abd 5ce6 c93d 6985 ddbd e9e5 543e
00000030: 6b7a 113f a080 9dbe 06ea 2f3e 0d52 023f
00000040: 8e68 35bf e145 f6be 0000 80bf bad7 7fbf
00000050: 0eb6 fa3e e3e4 68be 35f7 843e 7a61 eebe
00000060: 28b1 e1be bc0a 0e3c 7881 2c3f c0d3 913e
00000070: 3e50 0bbf 28f4 0c3f cd83 7fbf ea02 383f
00000080: d311 563e ff26 10be d830 7fbf 90d0 e63e
00000090: 2ea6 e53d 8685 183e 70a9 5bbe 82e2 87be
000000a0: 9001 bb3e 8984 953e 8180 a13e 40e7 113f
000000b0: b8e8 803d 9984 67bf bcad 7d3f 479c 67bf
000000c0: b3b8 18bf c980 c23d 6a27 5e3f 335d 7fbf
000000d0: 24a0 293e 8e33 42be 0000 80bf faf1 1a3f
000000e0: e32f 20bf cd9a 363e 0b3c 7fbf cba6 96be
000000f0: 0d17 0d3e 97fc 17bf 8430 7f3f 0000 80bf
00000100: f660 553c 8bdc 00be 5d2f cf3d 3006 8ebd
00000110: 0d9e 03be f313 a73e 9326 e33e 8bf0 7fbf
00000120: 2c77 d93e 33e9 b9bd e447 c0bd c134 7b3f
00000130: 52ee 2bbf 3b39 13bf 11fa 7fbf ea2a 1d3f
00000140: 0f0f ff3e d2f6 1fbf e24b ea3e 0000 80bf
00000150: 16ad 323e f37a a5be 3964 59bc a1c1 483e
00000160: cd6a 783f 068d 16bf b799 0d3f f25d 71bf
00000170: 13ef 43bf 00ac b73e 03cd 183f 6928 7fbf
00000180: dc61 9e3e 5de3 933e f7a8 f13c c511 33bf
00000190: 1803 b73d 62be b43d 700f 783f 8441 393f
000001a0: a382 7e3d bc99 7fbf 6012 cebe f035 743f
000001b0: 56df 7f3f d0e7 7fbf 0000 80bf bb63 af3e
000001c0: e67c 5b3f 5487 0c3f b00b 71bf 6e0d 7abf
000001d0: 0d63 e2bd aa65 b93e fb7a 733f ee96 7fbf
000001e0: 5885 323f 2b22 7cbf 9196 78bf 7020 4cbf
000001f0: ff52 aebe c6f7 fcbe 7761 4d3f 00ba 2a3f
00000200: 5d06 69bf 1aa8 463f 056a b93e 19ac 14bf
00000210: bb26 063d 283d 993e d6f9 7fbf 323a 3a3f
00000220: 5774 24bd c744 4c3e 8751 40be 7440 a33d
00000230: 508e 98be c8aa 9d3e 8bf2 7fbf 4df8 7fbf
00000240: 5548 c6be 0ab9 163f 0000 80bf ddf9 183f
00000250: 7102 7fbf 682c 083f 8e25 c73e e75e 72bf
00000260: 6895 7d3e 085a 91be 244e 25be d00c 5c3e
00000270: e5dc 053f 5063 fcbe 7d2e f9be de84 dd3d
00000280: 7f50 bbbe 2b8c 18bf 657d dd3e b660 083f
00000290: c758 0dbf 9815 cfbe 0000 80bf c220 1a3f
000002a0: ec7a db3d 1477 ed3d 4948 7fbf 05e0 0cbf
000002b0: de9c 843d 75b6 613e ac2c 7fbf f46b b23e
000002c0: ee5c 86be 135f f9be 0cfe 7fbf 6569 ce3e
000002d0: 0966 40bf 3059 22bf 84d2 5d3f ccc8 4dbf
000002e0: 2416 abbe 31c5 9fbe 0617 28bf afae 683f
000002f0: 50c2 113e 354e ef3e d4e3 8a3e 0477 68bf
00000300: 36b9 ca3e da8f 043f 8706 3c3f c1f3 a1be
00000310: 13ab 3dbe 67ba d33e 1e53 f23e 4201 ab3e
00000320: a592 003f 17a7 ccbd 15cb bb3e 0000 80bf
00000330: b454 6ebf 1f15 e93e 0000 80bf d968 6abf
00000340: c5e9 133f 2540 60be 6cf2 983e 94b5 22bf
00000350: 59b8 41be 4c8a 70be 0000 803f c50a 1e3f
00000360: cdd8 56bf ff1e 023f 0000 80bf 6685 043f
00000370: d7ac 7ebf 5213 0e3e 5f4c 453f a121 7fbf
00000380: d7ce 84bd 4d43 7fbf 0000 80bf d455 083f
00000390: e014 7bbe 0f5e 443f da87 7ebf 49ff 5c3f
000003a0: 350d 1d3f c725 c1be 92c2 7ebf 978f 37bf
000003b0: 4f31 36bc 9de0 8abe ee28 b23e efa8 4c3f
000003c0: 60dd 003f cadd 57bf 4fba 143f cb8b 7fbf
000003d0: ba10 fbbe f70f 6d3f 487a 403c 57a4 7fbf
000003e0: f2f7 bb3d 126a adbd 9254 a03e a7a1 08bf
000003f0: fd10 b73e 72d5 533e f43a 78bf c1e1 71bf
0.19732025 0.3575055 -0.99604905 -0.99665385 0.07919767 0.2750082 -0.9999311 -0.9855878
-0.07540666 0.09858391 -0.108164616 0.20790829 0.5682742 -0.30762196 0.17179117 0.5090645
-0.7086266 -0.48100188 -1.0 -0.9993855 0.48967022 -0.22743563 0.25969854 -0.46558744
-0.44080472 0.008669551 0.67385054 0.28481865 -0.54419315 0.5506005 -0.9981049 0.71879447
0.20905237 -0.14077376 -0.99683905 0.45080996 0.11213337 0.14894685 -0.21451354 -0.2654
0.3652463 0.2920268 0.31543353 0.56993484 0.062943876 -0.904367 0.9909322 -0.90472835
-0.5965683 0.0949722 0.8677889 -0.99751586 0.16564995 -0.18964979 -1.0 0.60525477
-0.6257307 0.1783249 -0.99700993 -0.29424128 0.13778324 -0.59369797 0.99683404 -1.0
0.013023606 -0.1258413 0.10116456 -0.06934774 -0.1285326 0.32632408 0.44365367 -0.99976414
0.42473733 -0.09077682 -0.09388712 0.9812737 -0.6716052 -0.575092 -0.99990946 0.61393607
0.49816176 -0.6248599 0.4576102 -1.0 0.1744884 -0.32320365 -0.013268524 0.19605114
0.97037965 -0.58808935 0.55312675 -0.94283974 -0.76536673 0.35873413 0.59687823 -0.99671036
0.30934036 0.28884402 0.029499514 -0.6994899 0.08936137 0.08825375 0.96898556 0.72365594
0.062136304 -0.99843955 -0.40248394 0.953948 0.9995016 -0.9996309 -1.0 0.34255776
0.85737455 0.54893994 -0.9415846 -0.9767674 -0.11054049 0.36210376 0.9510953 -0.99839675
0.69734716 -0.98489636 -0.97104746 -0.79736996 -0.34047696 -0.49407786 0.80226845 0.66690063
-0.91025335 0.7760025 0.362137 -0.580751 0.03275178 0.2992947 -0.99990594 0.7274505
-0.040150013 0.19948111 -0.187811 0.07971278 -0.29796076 0.30794358 -0.99979466 -0.9998825
-0.3872706 0.588761 -1.0 0.5975626 -0.996131 0.5319276 0.3889584 -0.9467606
0.24764025 -0.28389 -0.1614309 0.21489263 0.52290183 -0.4929452 -0.4866828 0.10816358
-0.3658485 -0.5958888 0.4325973 0.5327257 -0.5521359 -0.40446162 -1.0 0.60206234
0.10716805 0.11594978 -0.99719673 -0.55029327 0.064752325 0.22042258 -0.9967754 0.34847987
-0.26242775 -0.48705348 -0.9999702 0.40314785 -0.75155693 -0.6341734 0.86649346 -0.80384517
-0.3341533 -0.31205133 -0.6566013 0.90891546 0.1423428 0.46739355 0.27126944 -0.90806603
0.3959443 0.51782 0.7344746 -0.31631282 -0.18522291 0.4135315 0.47329038 0.33399397
0.5022376 -0.09992807 0.36678377 -1.0 -0.93097997 0.45523927 -1.0 -0.91566235
0.5777858 -0.21899469 0.29872453 -0.63558316 -0.1891798 -0.23490256 1.0 0.61735183
-0.8392456 0.50828546 -1.0 0.5176605 -0.9948248 0.13874558 0.7706966 -0.9966069
-0.06484764 -0.9971207 -1.0 0.53255963 -0.24519682 0.7670602 -0.99426043 0.86327034
0.6134828 -0.37724134 -0.9951564 -0.71703476 -0.0111201545 -0.2712449 0.34796852 0.7994527
0.5033779 -0.843228 0.58096784 -0.9982268 -0.490362 0.92602485 0.011747904 -0.9986014
0.09178151 -0.08467497 0.31314522 -0.5337166 0.3575515 0.20686892 -0.96964955 -0.944851
