Lab4/models/gan_models/ls_vbnd_1000e_500b_dis.pth (torch, 398770 bytes, 16 tensors)

model.0.weight f4 [16, 3, 3, 3]
00000000: 140c c43c cff1 e3bc 3f71 08bd 1264 17be
00000010: c796 da3d 7499 b7bc 800b c8bd 9098 f83b
00000020: fc15 143d 538b 093e 8b7b baba 9510 23bc
00000030: 34b1 c03c 62e3 d93d b992 303a a4ec 81bd
00000040: c368 3ebd 2cf4 843d 48d7 613d 1ed8 9fbd
00000050: 5efd 4ebd 53c5 9c3b 088c 89ba 82e7 403d
00000060: a23e 323b 4318 dfbd a710 1c3d 122d 043e
00000070: a024 ee3c 0f20 543d 19f5 213d 267f 06bd
00000080: 5233 55bd bf40 e13c 094c 9fbc bede 87bd
00000090: 5ee3 2dbd afaa a6bd f375 eb3a 92e7 223d
000000a0: 7054 27bd db11 693c 7200 2dbd 6063 32bd
000000b0: a2af 7bbd eb7f 833d def7 ab3c 7d83 123b
000000c0: 369d f23c 02ce 3c3c 1224 703d af9e ab3b
000000d0: d0b6 d63c a5b5 933c d698 443e 5389 98ba
000000e0: dd6c be3c 0f55 2f3e 7f9d 93bd 7242 0c3d
000000f0: 2d4e 843d e2ef 5bbe 08e8 e7bd c9ec 3f3e
00000100: 68e6 383c 29f5 85be a2d2 b63e 2c36 703c
00000110: 6cfe 1bbe d64e 9b3e dbdc 053d 0918 32be
00000120: 24d2 893d 8075 7c3d 300e 19be 01c0 c83d
00000130: 6147 e93c 93bc edbd 4b87 d43d 8cd5 7f3d
00000140: e608 cabd 5e6d dabd 957f d9bd 36a9 c7bd
00000150: 2859 e7bd a192 37be 85f9 1dbe 5620 3fbe
00000160: 74c4 37be 7d44 4ebe 1c8d 4a3d 59a8 4c3d
00000170: d864 ef3d 6621 c23d e7f9 e23d 6507 1f3e
00000180: 84d9 463e d513 103e b41d 2e3e 1826 243c
00000190: c661 083d f2c2 933c 9fa6 9b3b 72ca 1b3d
000001a0: 71d6 243c 1872 b4ba 0f3c 313d 6cf4 8d3d
000001b0: 68b6 abbd a9e1 09be 1207 053c 8910 5bbd
000001c0: 0dfb 4cbe 2b04 2abd 7f4f 94bd 25e3 c1bd
000001d0: 9dde 80bd b1df 013d 3704 903d 5ee3 603e
000001e0: 94be 45bd c376 91bd 7809 403e 3f3f d8bc
000001f0: e459 983d 6eb2 4f3e 9075 34bd f959 193c
00000200: c2e7 d13c dadd 01bd 8e64 3dbd 298f b33c
00000210: 2161 21bc 2b9f 133c a262 d83d 1615 17bd
00000220: 2c63 443e 3ddb a43d 75e5 87bd 4e0e 73bd
00000230: e3e2 2bbe 3482 8d3d 4630 093d 4e22 d73b
00000240: 5377 91bc d368 853a a547 843c 0fab 81bc
00000250: 36e5 85bd 73d1 c5bd 67cd beb8 6ced b6bc
00000260: 5d4b 09bd 5bd0 9f3d 12f0 2e3c 6c9a d53c
00000270: 2864 843d 3e39 613a 9cc2 1abd f0c0 173c
00000280: bf3a fc3b 5687 9c3b 43e6 a0be 63d6 42be
00000290: 5b46 bd3d b512 5cbe a88c 06bd c9ba 773e
000002a0: 3273 bcbd ac73 b93d 6afa bb3e 7b67 933e
000002b0: 14b5 703e 85af 613e 8f60 153e 7758 b2bd
000002c0: 75fe 0bbe 8a99 bfbc f8ea 4abe 2771 8bbe
000002d0: fd52 4e3d 9f14 36bb 590c 203d 135d b53d
000002e0: bfea b5bb 9498 80bd f638 863c 8a08 85bd
000002f0: 6842 9abd ea30 3a3e 1e39 6b3e 577b 1b3d
00000300: 94e8 3d3e 5447 143e a34d 01be 0f3a 023e
00000310: 133a 87bd e74e 7cbe a36c ce3d 21ba 00bd
00000320: 9285 273d 43f3 abbd c487 59bd 333c 74bc
00000330: a73d c0bd 9d46 2bbd f254 4cbc f8b7 75bd
00000340: c2be a5bd 7240 6e3c 1a41 88bc dba0 5bbd
00000350: 2c50 0a3c f148 963b 5320 253d 140b 053d
00000360: b789 3fbd 5f6f 8e3d 5ead 9b3d 0a40 24be
00000370: 5ed6 3a3e cce1 c1bd 23b3 1dbe 37da 0b3e
00000380: 8fb9 04bd 0ef8 31bd 0063 39bd 0cb6 26bd
00000390: c614 09be 8fee a93d c277 3bbe 9e63 c4bc
000003a0: 1761 343e 9380 36bd 216d fe3c 4761 833c
000003b0: 841a 1a3d fd8c d03a 7582 803d 55b4 96bc
000003c0: bd6d 963d 53c1 c23d 0942 523d ab00 4f3c
000003d0: 61dc 43bc f427 323d 4e69 693e 3dd7 0e3c
000003e0: 1594 5dbe e8d2 e23d 67fd 563c d625 31be
000003f0: 6503 403c 1996 6cbc 6316 bb3d bee6 933e
0.02393154 -0.027825264 -0.033311125 -0.14784268 0.1067329 -0.02241204 -0.097678185 0.0075865462
0.03615378 0.13432054 -0.0014227493 -0.009952684 0.023521997 0.10639073 0.00067357306 -0.06343964
-0.046486627 0.064918846 0.05513695 -0.07804893 -0.0505346 0.004784265 -0.0010494003 0.047095783
0.0027197977 -0.108932994 0.03810182 0.12907818 0.029070199 0.051788386 0.039540384 -0.032836102
-0.052050896 0.027496694 -0.019445436 -0.066342816 -0.042453162 -0.08138024 0.0017964229 0.039771624
-0.04085201 0.0142254485 -0.042236753 -0.043551803 -0.061446793 0.06420883 0.020992216 0.0022356205
0.02961598 0.011523725 0.05862815 0.0052374224 0.026210219 0.01803095 0.19198927 -0.0011637605
0.02324527 0.17122291 -0.07207774 0.034243055 0.06460223 -0.21478227 -0.11323553 0.1874267
0.011285402 -0.26163605 0.35707575 0.014661353 -0.15233773 0.30333585 0.032681327 -0.17391981
0.06729534 0.061635494 -0.14946818 0.09802247 0.028476419 -0.11608233 0.103773676 0.062459514
-0.098649785 -0.106653914 -0.106200375 -0.09749071 -0.11296302 -0.17927028 -0.15427215 -0.18664679
-0.17946035 -0.20143314 0.04945098 0.049965236 0.11689156 0.094790265 0.11082821 0.15530165
0.19418913 0.14070065 0.17003518 0.010018848 0.03329637 0.018037293 0.0047500874 0.038034864
0.010060892 -0.0013766913 0.043270167 0.069313854 -0.083844006 -0.13464989 0.0081193615 -0.053482566
-0.20017643 -0.04150788 -0.07241725 -0.094671525 -0.0629246 0.03170747 0.07032054 0.21961734
-0.048277453 -0.0710273 0.18753612 -0.026397346 0.0743902 0.2028291 -0.04405743 0.00935983
0.025623206 -0.031705715 -0.046238475 0.02191885 -0.0098498175 0.009010117 0.10565688 -0.036885343
0.19178456 0.08049629 -0.06635562 -0.059339814 -0.16785769 0.069096 0.033493303 0.0065653687
-0.017757094 0.0010178335 0.016147444 -0.015828637 -0.06537859 -0.0965909 -9.098165e-05 -0.022330008
-0.033519138 0.078034125 0.010677354 0.02607461 0.06464416 0.00085915986 -0.03778325 0.0092623085
0.007697433 0.0047768755 -0.31425676 -0.19027095 0.09241935 -0.21491511 -0.032848984 0.24192347
-0.09201659 0.09055266 0.36714488 0.28789887 0.23506576 0.22039612 0.14587615 -0.087082796
-0.13671286 -0.023388643 -0.19816196 -0.27234766 0.050372113 -0.0027783287 0.039074276 0.08855643
-0.0055516656 -0.06279102 0.016384583 -0.06495769 -0.07532197 0.18182722 0.22971007 0.037959423
0.18545753 0.14480335 -0.12627272 0.1271746 -0.06602874 -0.24639474 0.100793146 -0.031427506
0.040898867 -0.08396008 -0.05310799 -0.014906931 -0.09386759 -0.04181539 -0.012471424 -0.0599899
-0.08093025 0.014541732 -0.016632605 -0.0536202 0.008441966 0.004586332 0.04031403 0.032481268
-0.046762194 0.06954836 0.076014265 -0.16040054 0.18245837 -0.094668955 -0.15400366 0.13657461
-0.032403525 -0.043449454 -0.04526043 -0.040700957 -0.1338683 0.082974546 -0.18307403 -0.023973282
0.17615162 -0.04455621 0.031057896 0.016037596 0.037622944 0.0015911158 0.06274883 -0.018396536
0.0734515 0.0950953 0.051332507 0.012634437 -0.011954398 0.043495134 0.22794077 0.008718309
-0.2163852 0.110753834 0.013121939 -0.1729959 0.011719559 -0.014440083 0.09135129 0.2888698

model.0.bias f4 [16]
00000000: 7c0b dbbd 675c 10bf d7f0 8bbe c947 fabe
00000010: 844d f6be abca 01be 1a33 5fbe bb34 d6be
00000020: 74eb 2f3d 0a9b fabc 54b6 f8be f46e 12bf
00000030: 53aa 54be c817 e8be db76 afbe 8f43 1cbe
-0.1069555 -0.56390995 -0.27332184 -0.48882893 -0.48106015 -0.12674968 -0.21796837 -0.41837105
0.042949155 -0.030591507 -0.48576605 -0.5720055 -0.20768099 -0.45330644 -0.34270367 -0.15260147

model.2.weight f4 [32, 16, 3, 3]
00000000: 25a1 8f3b 91ee a53c b408 6ebd e815 8fbd
00000010: 8255 983d d73e c2bd 10de 43bd eda5 a5bc
00000020: b029 e2bd b8f9 543d c884 143d 696f 703d
00000030: 90c8 033d 57ba b8bb 4463 483d e113 163e
00000040: 1314 74bc 5ba0 843d 69ff 693d ba35 0abd
00000050: 1418 063e 4087 dcbd ee9a 35be 2468 263e
00000060: 7759 f93d c741 0a3e d032 d73d 323a 173e
00000070: 45b1 253e 0fc4 da3d 9224 8cbd 928f 133d
00000080: cc7c 50bd bb93 04be 76b9 47bc f823 00be
00000090: c6b2 7ebc 38e7 c8bc 5419 cabd 7edf 09bd
000000a0: bd30 093e b55b 1fbe 8f06 3cbd f6ad 4b3d
000000b0: c48e 56bd 9d0c 923d 1df9 0cbd cbea 1f3d
000000c0: ec08 433c ed7c 093e 6a40 d43d 4169 bebd
000000d0: 7ab4 31be d672 3bbc bdde eb3d 4f66 52be
000000e0: 0b53 323e 71a0 8e3e d0aa 023f 37fc ca3e
000000f0: 6666 acbc c43d 3ebe d4c9 be3c eeb9 113d
00000100: d8ec 7dbd 562c 84be 529a 03be 8db0 dbbc
00000110: 5979 95bb d244 673e de02 92bc 9f44 06be
00000120: 4387 6e3d a79b d33d 039a aa3d 1a48 f1bd
00000130: aa97 30be 7c6d 523e 6a98 523e f564 e2bd
00000140: eddc 79bd 5e5c 3fbd f3f5 96bd ff00 50be
00000150: f0f5 63be 665d b33b d987 d2bd 277d debc
00000160: 57da 8dbd 8735 cbbc 17d2 133e 0bd7 f23d
00000170: 24ac 5e3e 04f4 c6bc e550 f13c 010d ae3d
00000180: 33f3 c7bd 774e e03c 54c1 0ebd 231e 1c3e
00000190: caec 8c3d 1627 043e 15dc 633e dcb0 363e
000001a0: dbf7 003e f6ae 833e 1c73 1c3e 17e8 1a3d
000001b0: 4152 103e 1b1a 853e 5d2a 82be 9108 3e3d
000001c0: 6615 763d 9b48 90be 47b2 483e 1f8a 80bd
000001d0: 5ea3 b8bd 2e70 cc3d f918 143e 49a0 ee3b
000001e0: de9f 593e c365 363e 5d70 683d 8fe0 0e3e
000001f0: 43d7 ae3d 05d7 12be 4268 1c3e 7342 4b3e
00000200: 7018 11be 9dd6 133e 95bd 8e3d f8b2 f13c
00000210: d9ad d5bd ac60 c63c 5dcf 4bbe 6d94 32be
00000220: cc33 113e 0993 ef3b 77c0 5dbe 8c77 2dbe
00000230: f9ff acbe ffa2 acbd 150f 263e 9ce0 62be
00000240: 26a4 49bd a337 133d 2987 f0bd c703 95bc
00000250: ca2a e83b fb8d d33c d27e debd f95d b13c
00000260: 8355 113e 208f e63d 6b3d 7d3e 2ca2 383e
00000270: cdc0 71bd 37c8 b03c c669 053e 9922 643c
00000280: 9aa2 b63d 4081 9a3d 0e13 80bc f221 413d
00000290: a004 563e 68be c73d 815c f13e 3707 4b3e
000002a0: a637 dfbd 44bb e13e a412 13be be8c 573d
000002b0: 40c1 b3bd 0e0c c9bd fa44 db3c bf1f 803b
000002c0: 8abe 323c 923e 9e3d 333d 053e a52d 8e3b
000002d0: 6113 b53e 8dcb f43d 89b3 eb3d 1d64 313e
000002e0: 18be 003e c149 783e adbf 403d 8664 f73d
000002f0: 1126 9e3d 3313 443e 3891 74bd 83b2 3ebd
00000300: 5bd2 b1bd 37a9 13be 2be6 d83d 3e1e 033e
00000310: e9f9 0a3e 9e24 953d 7205 353e 9765 153e
00000320: 0e0c 0e3e 9c64 29be 1af3 673e 4256 0a3e
00000330: 4c25 39bd 34d9 ecbc bed5 243e 5aed 8c3e
00000340: 0797 6c3e 508e 1dbe 7711 39be 997c 5b3c
00000350: 9e29 78be b0f4 033e 095b 8cbd cb9c 20bd
00000360: c101 2cbd 7f8a 26be db3e c83d 5e16 26be
00000370: aeda 8ebe b4f7 743d 1afa ea3d 9154 2fbd
00000380: dd64 1d3e e68b fabc dc83 023e 170a 06be
00000390: 69d3 62bd 2723 b03e 22a7 943c 66a5 17bd
000003a0: 2c95 373e 5a87 243d 0838 8c3c 7034 31be
000003b0: c193 adbc bff6 e9ba 9811 3ebb 10f7 973d
000003c0: 84af 0f3d 57d1 cb3d d779 0b3e 05e8 cf3c
000003d0: bb60 21bc d71c 823e a604 5c3d 312a 16bd
000003e0: 5c34 f03c 1519 643e 197a eb3d 21d2 7c3d
000003f0: 724a 263e afae eb3c a478 aabe 3060 4a3e
0.0043832236 0.020255359 -0.05811377 -0.069866 0.07438184 -0.09484642 -0.047819197 -0.020220721
-0.110431075 0.051995963 0.036259443 0.0587 0.032173693 -0.005637448 0.048922792 0.1465602
-0.014897364 0.06475898 0.057128344 -0.033742644 0.13095123 -0.107679844 -0.17734882 0.16250664
0.12175267 0.13501655 0.105077386 0.14768293 0.16180904 0.106819265 -0.06842913 0.03602559
-0.050900266 -0.1294698 -0.012190213 -0.12513721 -0.015545553 -0.024524316 -0.09868112 -0.033660404
0.13397498 -0.15562327 -0.045904692 0.04972645 -0.052382246 0.07131312 -0.03441726 0.039042275
0.011903983 0.13426562 0.103638485 -0.09297419 -0.17354003 -0.011440953 0.11517093 -0.2054684
0.17414491 0.27856782 0.5104189 0.3964555 -0.021044921 -0.18578249 0.023289599 0.035577707
-0.06199345 -0.25815076 -0.12851837 -0.026817584 -0.004561585 0.22584847 -0.017823633 -0.13112114
0.058234464 0.10332423 0.08330157 -0.117813304 -0.17245355 0.20549577 0.20565954 -0.11054412
-0.061001707 -0.046718948 -0.0737113 -0.2031288 -0.22261786 0.0054737804 -0.10279817 -0.027159287
-0.06926411 -0.024805797 0.14435612 0.118574224 0.21745354 -0.024286278 0.029457519 0.08498574
-0.097631834 0.027381165 -0.03485234 0.15245871 0.068811014 0.12905535 0.22251923 0.17840904
0.1259455 0.25719422 0.15278286 0.037818994 0.14093877 0.2599648 -0.25422946 0.04639489
0.060079 -0.28180394 0.19599257 -0.062763445 -0.09015535 0.09982334 0.14462651 0.007282291
0.2125239 0.17812257 0.056747783 0.1395285 0.08537152 -0.14339836 0.15274146 0.19849567
-0.14169478 0.14437337 0.06969754 0.029504284 -0.104335494 0.024216019 -0.19903322 -0.17439432
0.14179915 0.007311229 -0.21655451 -0.16940135 -0.33789042 -0.084295265 0.16216691 -0.22155994
-0.04922881 0.03594173 -0.1174453 -0.018190278 0.007085179 0.025824538 -0.10864033 0.021651255
0.14192776 0.11257768 0.2473046 0.18030614 -0.05902176 0.021579845 0.1302863 0.013924264
0.089177325 0.07544184 -0.015634086 0.047151513 0.20900202 0.09753114 0.47140887 0.19826971
-0.10899286 0.44088185 -0.1436258 0.052624457 -0.08777094 -0.098167524 0.026766289 0.0039100344
0.010909686 0.07726778 0.13011627 0.0043389373 0.35366347 0.11952887 0.11508853 0.17323346
0.12572515 0.24246885 0.047057796 0.1207972 0.07722104 0.19147949 -0.059708804 -0.04655696
-0.086827 -0.14420019 0.10590776 0.12804505 0.13571896 0.07282375 0.17677858 0.14589535
0.13871786 -0.16542286 0.2265133 0.13509467 -0.045201585 -0.028912164 0.16097161 0.27524835
0.23104487 -0.15386319 -0.18073069 0.013396406 -0.24234626 0.1288631 -0.06853301 -0.03921203
-0.04199386 -0.1626377 0.09777614 -0.1621947 -0.27901214 0.05980654 0.11473484 -0.04280526
0.15370508 -0.030584287 0.12745613 -0.13089786 -0.055377398 0.3440182 0.018146101 -0.03702297
0.17927998 0.040168144 0.017116562 -0.1730516 -0.021188619 -0.0017850025 -0.0029002186 0.0742017
0.035079494 0.09952038 0.13620697 0.02537919 -0.0098497225 0.25412628 0.05371537 -0.03666133
0.029321842 0.22275193 0.11497898 0.061723832 0.16239336 0.028769819 -0.33295166 0.19763255

model.2.bias f4 [32]
00000000: 145b 2cbe 665f afbd 8741 fc3d 1786 e9bc
00000010: 0f5f 9b3d e073 a4bd 0d3f 0fbe f8f0 2d3d
00000020: c3fa 0bbe f800 413d 4c22 14bc f59f 10be
00000030: c5a2 98bd 2b3b 88bb 5355 67be dc2b 64bd
00000040: 65f4 39be 2eb4 5ebe cd24 29be 4756 823d
00000050: 97df e8bd c636 ba3c ca5f 0ebe a5af 1ebf
00000060: 8a63 3fbe f677 183f 2b65 eebd d676 8c3d
00000070: 3542 11be 8ed7 1bbe 6208 1ebe 2785 f63d
-0.16831619 -0.08563118 0.12317186 -0.028506322 0.0758649 -0.08029914 -0.13988896 0.042466134
-0.13669877 0.047120064 -0.00904138 -0.14123519 -0.07452921 -0.004157444 -0.22591142 -0.05570589
-0.18159635 -0.2174842 -0.16517945 0.06364112 -0.113707714 0.022731196 -0.13903728 -0.6198676
-0.18690315 0.59558046 -0.1164039 0.06858604 -0.14185412 -0.15218946 -0.15432885 0.120371155

model.4.scaling_factor f4 [32]
00000000: fc83 2c3f e597 3d3f 5890 383f 96d9 6e3f
00000010: 0000 803f e5f5 e73e 6022 643f e2e8 103f
00000020: 6377 443f 62b9 163f 7ae8 1d3f 6fc4 193f
00000030: 51a7 273f cebb 073f 0f56 4c3f 4e79 513f
00000040: 8ec1 383f 3d37 533f 3a2c 363f 90fd 573f
00000050: d515 7c3f 4dbc 7c3f 7b76 323f 29a0 153f
00000060: 9ee7 4a3f c7bc e83e 4b44 7e3f 5fb8 7c3f
00000070: 480b 223f 5736 7d3f a149 233f ca8b 613f
0.6738889 0.740599 0.7209525 0.9330076 1.0 0.4530479 0.8911495 0.5660535
0.7674467 0.5887662 0.61682856 0.6006536 0.6548968 0.5302094 0.79818815 0.8182572
0.7217034 0.8250616 0.71161234 0.8437128 0.98470813 0.98724824 0.69712037 0.5844751
0.7925967 0.45456526 0.99322957 0.9871883 0.63298464 0.9891104 0.63784224 0.88103926

model.4.bias f4 [32]
00000000: 3af8 67bf c343 57bd 8d9b 03be 9d3b bebe
00000010: 7cd7 14bf 57d7 3d3f 2238 dc3d d0c1 7fbf
00000020: bd21 253f dff4 7fbf bd87 95be 349d 57be
00000030: 2ca4 55bf 8867 7ebf c00d 263c 372c 7bbe
00000040: b1fb 95bc d5d7 89be bb7b 4b3f 4fd0 7fbf
00000050: 5cdd 1cbf 00fe 7fbf a2f4 7fbf 2cee 1cbf
00000060: cce2 1fbf 1409 283f 24c2 79bf 2e24 febe
00000070: 0f13 483f 6418 063f dda1 62bf 4adf 7fbf
-0.9061314 -0.052554857 -0.12852307 -0.37154856 -0.58141303 0.7415671 0.10752894 -0.9990511
0.64504606 -0.9998302 -0.29205123 -0.21056062 -0.8345363 -0.99376726 0.010135114 -0.24528585
-0.018308492 -0.2692248 0.7948567 -0.9992723 -0.6127527 -0.9999695 -0.99982655 -0.6130092
-0.6245544 0.6563885 -0.9756186 -0.49636978 0.7815408 0.5238097 -0.88528234 -0.9995009

model.5.weight f4 [64, 32, 3, 3]
00000000: 545a 8f3d cc84 4ebe 4bb4 4c3e 5b8e 7dbd
00000010: 6ab9 90bc ba7c 5ebd 3258 713c fa50 c63b
00000020: 26af f43d d5c9 fd3d b5d2 d53b ed77 493e
00000030: f87b d83d 71d3 76bd cee1 393c ad12 7cbd
00000040: 2a7c e93c 9f82 7e3e 72d7 cbbd 87fc 92bc
00000050: 7eb8 84be 1cca 21be 7f28 51be 525b a03d
00000060: a2b1 d33d 13e2 9bbd 2271 3e3e fd38 253d
00000070: 0ede aebe dda7 1fbe 0a67 6bbd 59a2 25be
00000080: 0c66 07be eeab 71bd 05db abbe 6e1d cdbd
00000090: 88ce d23d e19a b13d 6c3c 343e 0af4 e93d
000000a0: 12e4 48bd 0118 c13d f09c 16bd bd40 e83c
000000b0: bbae c73d c946 6f3d 4927 323d cb88 82be
000000c0: 1235 cfbc c177 033e 6cf6 ccbd b5ba 143e
000000d0: a5f0 313c aa39 cf3c a9b6 cdbc 1677 4cbc
000000e0: df9d 0ebe 66b7 43bd 98a6 323e 50d5 b73d
000000f0: 2153 a3bd 3833 1abe 9fc6 e2bd 1950 823d
00000100: 1065 48bd 77a2 793e aade 253d 7cc0 3c3d
00000110: bfef 26be 0056 0e3d 69f2 063e d130 71be
00000120: bd0f f7bd 8a3c 51be 2d2c 6a3d d69a 613d
00000130: 29b8 e0bd 2ee7 17be cce8 63be 2743 1dbe
00000140: b5bd 5abc b65a ce3d 0b91 51bd 6e7f 9b3e
00000150: 5a32 d83d 4888 1dbc f9fa 0f3e c44b 0abd
00000160: 66e1 7bbd a48b 88bc 8a9c e33d 128e 99bd
00000170: b80f 8b3d bf30 0c3d b428 2d3d b4ba 713d
00000180: afe6 0f3e 541e 5dbb 8d53 153e a59b 4c3e
00000190: b498 c5bc 69f0 d2be 357d 3b3e 6d33 61bd
000001a0: a868 293e 3708 cbbc c2e3 103e 2bca bbbc
000001b0: 86e4 4a3e 7a42 323d 6468 9cbc 0609 da3d
000001c0: 1806 51bc 613d 253e 9bca 1fbe c2ae 643a
000001d0: 3c7a a6bd d5cf b03c 54fb b83d bdba 103e
000001e0: 4209 663d e469 f6bb 2c9c 463e dc0c cc3d
000001f0: 9e8a 493a 3d9c c13c db31 89bd 19b3 d1bd
00000200: 9005 efbd c62a 19be d24d 183d f599 42bd
00000210: 618e babc 84ed 56be fefa a0bc 2124 d1bc
00000220: 3ebd 603c 0b6e 6cbd 2ed8 a7ba 4fd8 68bc
00000230: 074f 7b3e 0b83 e33c 57f1 bebc cd5a 48bd
00000240: c77d 123e 1fa5 ba3d d988 65be cd1a 633e
00000250: 9119 a7bd c88d 963e dd80 78bd 1787 5fbd
00000260: f429 1abe 5012 6f3d 234f 0b3e 05f0 1d3d
00000270: e83e 633d cde0 19be 6f73 d93d 73ea 803e
00000280: 17d2 713c 35b5 423d 5d0f c83d 0bf0 c7bd
00000290: 2cc1 0a3d 337f 8abc 365f d23d 153b 8ebd
000002a0: 7668 20bd e478 afbb 6372 abbd 2c66 053d
000002b0: c61e debd 71a7 85bd 3947 133d 277e e43c
000002c0: 70a3 443d 836c 96bd d8c8 ecbd 1bd5 fcbd
000002d0: 0e6a be3d 1953 0fbe 80e8 85be 2031 01be
000002e0: 0fc3 35bd 67bb ffbc 3d02 bdbd 6c3d e9bd
000002f0: 1163 83be 8fe6 643e 9d95 843c c524 8a3d
00000300: 801c 803e 77b0 873d 829a 823e 6786 9c3e
00000310: c438 f33c a6cf 4a3e 3ac5 903d d8fb 8a3d
00000320: bbd5 e1bc 8d49 76bd 45a0 d1b9 060c e0bd
00000330: 0f7b 9e3d 0038 b33d 8117 c6bc b555 763e
00000340: 06c2 9dbc 0d57 a93c 3d9a 943e be4b 0b3d
00000350: 8689 b13e 7b38 19bb 50f5 b4bd 2cdb 64bc
00000360: 5069 37be 683b afbd 6c03 1ebe dcfe a83c
00000370: 6033 983d 38e3 04bd 2159 913d e517 583d
00000380: 239a 82bc 2a89 523c 5a90 2abe 99f3 d9be
00000390: 9562 903d c48a 1f3b 9ee3 893d b1dd f6bd
000003a0: d992 06be 7063 ffbd 2568 943e ba89 5f3e
000003b0: bc71 3d3e d9b1 153e 3801 ecbd d534 22bd
000003c0: 0038 213e 0d79 85bd 8517 2b3d 866c e33c
000003d0: 9e00 fc3c dfa0 003e fb12 39be ccf5 d73c
000003e0: 7db2 7c3d 84f9 f53d ff13 473e be4d 3f3b
000003f0: 6946 7dbc 4312 09be bd05 903d 104f 0f3e
0.069996506 -0.20167845 0.19990651 -0.06190334 -0.017666537 -0.054318167 0.0147305 0.0060521336
0.119474694 0.12392012 0.0065253624 0.19674654 0.1057052 -0.06026024 0.01134534 -0.061541248
0.028501589 0.24854515 -0.09953202 -0.01794268 -0.25922006 -0.15799755 -0.20425604 0.07829918
0.10336615 -0.076114796 0.18597844 0.04033755 -0.3415379 -0.15591379 -0.057471313 -0.16175212
-0.13222522 -0.059001856 -0.33565536 -0.10015379 0.10293299 0.08672119 0.17601174 0.114235
-0.04904563 0.094284065 -0.03677076 0.028351182 0.09750124 0.058417115 0.043494496 -0.2549499
-0.02529386 0.12838651 -0.10007939 0.14524348 0.010860597 0.025296051 -0.025111513 -0.012479564
-0.1392741 -0.047782324 0.17446363 0.08976233 -0.0797484 -0.15058601 -0.1107304 0.06362934
-0.048924506 0.24378382 0.040495552 0.046082005 -0.16302393 0.034749985 0.1317841 -0.23553778
-0.12063549 -0.2043325 0.057171036 0.055079304 -0.10972626 -0.14834282 -0.22256774 -0.15357648
-0.013350894 0.100758955 -0.051163714 0.3037066 0.10556479 -0.0096150115 0.14060582 -0.033763662
-0.061494254 -0.016668148 0.11113842 -0.07497801 0.067901075 0.034226175 0.042275146 0.059015945
0.14052843 -0.003374 0.14582653 0.19981249 -0.024120666 -0.41199043 0.18309481 -0.054980684
0.1654383 -0.02478419 0.14149383 -0.02292355 0.19813737 0.04352043 -0.019092746 0.10646252
-0.0127578005 0.16136695 -0.15604632 0.0008723551 -0.08128783 0.021583477 0.09032312 0.14133735
0.056161173 -0.0075199474 0.19395512 0.0996339 0.0007688197 0.02363407 -0.06698962 -0.10239238
-0.11670983 -0.14957723 0.03718359 -0.047510106 -0.02277297 -0.20989043 -0.019650932 -0.025529923
0.013716994 -0.057722133 -0.0012805515 -0.014211728 0.24541865 0.027772447 -0.02330844 -0.04891472
0.14305793 0.091135256 -0.22415484 0.22178192 -0.08159173 0.29405046 -0.06066977 -0.05457219
-0.15055066 0.058367074 0.13604407 0.03855898 0.055479914 -0.15027161 0.1061772 0.2517887
0.014759562 0.047536094 0.09768555 -0.097625814 0.03387563 -0.016906356 0.10272066 -0.06944863
-0.03916212 -0.0053549875 -0.08371427 0.03256814 -0.10845713 -0.065260775 0.035956595 0.027892185
0.04800743 -0.07344916 -0.115617454 -0.12345334 0.09297572 -0.13996543 -0.26153946 -0.12616396
-0.044375475 -0.03121729 -0.092289425 -0.113886684 -0.2566152 0.22353576 0.016184622 0.067452945
0.25021744 0.06625455 0.25508505 0.3057129 0.029690154 0.19805774 0.07068868 0.06786317
-0.027567735 -0.060128737 -0.00039982997 -0.10939793 0.07738315 0.087509155 -0.02418113 0.24056132
-0.019257557 0.020671392 0.29023924 0.03400778 0.34675235 -0.0023379612 -0.08835852 -0.01396827
-0.17911267 -0.08556253 -0.15430993 0.020629339 0.07431674 -0.032443255 0.07097078 0.052757163
-0.015942639 0.012850085 -0.16656628 -0.42568663 0.07050053 0.0024344185 0.06732868 -0.12054003
-0.13141955 -0.12470138 0.28985706 0.21829882 0.18500417 0.14618625 -0.1152367 -0.039601166
0.15744019 -0.06517229 0.041770477 0.027761709 0.030762013 0.12561367 -0.18073647 0.026362322
0.061693657 0.12010482 0.19441222 0.0029190625 -0.015458682 -0.13385873 0.070323445 0.13995004

model.5.bias f4 [64]
00000000: d166 c3be a5a7 03bf 593f 1bbf 029f 07bf
00000010: e961 90be 787f c3be c2dc 4fbe 8639 05bf
00000020: 08e7 8dbe c407 a4be 4e01 71bf d01c 27bf
00000030: c8af 82be 478a 01bf d0c9 e9be 6d85 7fbf
00000040: 49f1 c6be 9987 01bf 750e ebbe 2233 10be
00000050: b7bf 5cbf 0208 04be 699e b2be 28f0 e0be
00000060: 2ce2 81be 9bb7 36bf 6d70 c3be b84c 6fbf
00000070: 435d 37bf b0a8 26bf 1729 9bbe 0f42 81be
00000080: 3ae1 58bf 75e2 ccbe 4f00 17bf 21d5 0bbf
00000090: 9fe6 29bf 12e6 18bf 1296 3bbe fe4b 15bf
000000a0: cf3d 28bf 26e9 5ebe fa9d b0bc 3052 32be
000000b0: ee32 dbbe 7fc1 7fbf c29d 97be e88e a0be
000000c0: 968e febe 1a5d 17bf 7598 05bf a61f bbbd
000000d0: 5c16 21bf 423a ddbe b421 debe fa18 10bf
000000e0: 73c4 43bf b71c 73bf 7049 c7be 83f2 7fbf
000000f0: 3aaa 3abf 67a8 33bf ef3e 4abf d746 afbe
-0.3816438 -0.5142768 -0.60643536 -0.52977 -0.281997 -0.38183188 -0.20299056 -0.520409
-0.27715325 -0.32037175 -0.94142616 -0.6527834 -0.25524735 -0.5060162 -0.45661783 -0.99812967
-0.3885596 -0.5059753 -0.45909467 -0.14082006 -0.86230034 -0.1289368 -0.34886482 -0.43933225
-0.25367868 -0.7137391 -0.38171712 -0.9347644 -0.7162668 -0.65101147 -0.30304787 -0.2524571
-0.8471867 -0.40016523 -0.58984846 -0.54622084 -0.66367525 -0.5972606 -0.18318966 -0.5831908
-0.6571931 -0.21768627 -0.021559704 -0.17414165 -0.42812294 -0.99904627 -0.29612547 -0.3135903
-0.4971816 -0.59126437 -0.52185756 -0.09136896 -0.6292474 -0.4320851 -0.43385088 -0.5628811
-0.7647163 -0.9496569 -0.38923216 -0.9997942 -0.72915995 -0.70178837 -0.7900228 -0.34233734

model.7.scaling_factor f4 [64]
00000000: fbf1 493f 15a6 203f 1c9b ef3e 3d78 473f
00000010: 1a0d 183f 63c2 7a3f b0bd 6c3f ca4f 353f
00000020: 4bd0 2b3f 9c49 1b3f 1d9d 5b3f 1d71 7b3f
00000030: 9442 7f3f 2370 713f 0237 693f f036 383f
00000040: 76f3 343f 3514 f73e aa77 193f a15c 163f
00000050: 253b 4f3f 5b71 7f3f afad 7e3f ad90 4f3f
00000060: 231b 433f cd57 0e3f 489c 633f 2163 3f3f
00000070: 29e8 6a3f 02a7 2e3f 0a68 763f 26f2 2e3f
00000080: 4ac6 493f 4584 6c3f 1fae 2f3f 8508 713f
00000090: 754a 4a3f ab12 4c3f 955d 563f 69bd 623f
000000a0: ad6f 3d3f 92a0 4e3f 6c11 663f 0981 7f3f
000000b0: df2f 7f3f ea9d 013f 063e 793f ed2b 043f
000000c0: 1565 433f 0eac 7e3f 29c8 113f 6d40 243f
000000d0: c011 4b3f d39b 533f bce8 4b3f 498d e53e
000000e0: 0d59 503f ec67 403f 689f 7b3f 50c9 7e3f
000000f0: f56b 563f 6583 4d3f 9393 433f 09da 443f
0.7888486 0.6275342 0.46798027 0.77917844 0.5939499 0.9795286 0.9247694 0.70824873
0.67114705 0.60659194 0.8578661 0.9821947 0.99710965 0.9431173 0.9109956 0.7195883
0.7068399 0.48257604 0.5994822 0.5873509 0.8094962 0.9978234 0.9948377 0.8108013
0.7621328 0.55602723 0.8891034 0.74760634 0.917605 0.68223584 0.962525 0.6833824
0.7881819 0.9238933 0.6862506 0.94153625 0.7901986 0.79715985 0.83736545 0.88570267
0.7399853 0.8071376 0.89870334 0.9980627 0.9968242 0.5063158 0.97360265 0.51629525
0.76326114 0.99481285 0.56946045 0.64160806 0.7932396 0.82659644 0.79652 0.44834355
0.8138588 0.7515857 0.9829011 0.9952593 0.8375848 0.8027862 0.76397055 0.76895195

model.7.bias f4 [64]
00000000: ecd0 7ebf 734c a4be ae75 7fbf c55f 0ebf
00000010: 058f 2ebf 0fad 78be 7ac9 f73e ab73 65bf
00000020: 3104 1bbe 250b e4be 706c bd3e c3bc a03e
00000030: 6d35 efbe 7535 1cbf 8792 e6be da90 7ebf
00000040: c596 e7bd f47d 7dbf de43 7fbf 463a 10bf
00000050: 9b89 7dbf 939f 92be 6d49 a2bd d44e 6dbf
00000060: 062a 0cbf 693a 4ebf bffc dfbe bd87 5fbf
00000070: 68a2 233f ca6f 14be 6975 f6be cdbc 3cbe
00000080: d318 1bbf 208f 383f 72c7 16bf ebbc bb3d
00000090: 8235 6bbf bbda 66bf 269a 343f a967 1cbe
000000a0: 4a4d 35bf 48e4 00bf ccac 7abf 2208 00be
000000b0: 64e1 42be a27f 7dbf d5c9 78bd a29f 4abf
000000c0: 931d fe3e 9eda 4fbf 81f6 43bf 62a6 30bf
000000d0: 8b32 9fbe 420a 7dbf 765b c3be a337 7fbf
000000e0: 54e4 7fbf 8fe0 38bf 7938 33be 4673 283e
000000f0: 6a3a 78bf 6a12 6bbf 4fe7 7ebf 3817 babe
-0.9953754 -0.32089576 -0.9978894 -0.5561488 -0.6818698 -0.24284767 0.48395902 -0.8962962
-0.15138318 -0.44539753 0.36996794 0.31394014 -0.46720448 -0.6101907 -0.45033666 -0.99439776
-0.11308054 -0.99020314 -0.9971293 -0.5633892 -0.99038094 -0.2863737 -0.07924161 -0.9269841
-0.5475162 -0.80557877 -0.43747517 -0.87316495 0.6391969 -0.14495769 -0.48136452 -0.18431397
-0.60584754 0.7209339 -0.5889808 0.091668926 -0.9187852 -0.90177506 0.7054771 -0.15273918
-0.7082106 -0.5034833 -0.9791992 -0.12503102 -0.19031292 -0.9902288 -0.060739357 -0.7914983
0.49631938 -0.8119296 -0.7654801 -0.6900388 -0.3109325 -0.9884378 -0.38155717 -0.9969427
-0.99957776 -0.7221765 -0.17502011 0.16450223 -0.9696413 -0.9182497 -0.995717 -0.3634584

model.8.weight f4 [128, 64, 3, 3]
00000000: bf18 e5bd 954c 0e3e a4af 313e 263d 0d3e
00000010: 5b84 a93d a452 333e 4ded 573e 18ff 053e
00000020: 1fa5 883d 713e 033c 4d65 4a3b 9208 2dbe
00000030: 08fa a6bd c64b 243e b41f 3d3d d9f6 5ebe
00000040: dba3 9cbd bf03 7abd 0662 c93e 31a5 f03d
00000050: 50a4 7cbe ead2 1fbe 6ff3 fb3b ca6b 3bbe
00000060: 9245 563d dd44 dc3b 85de e6bd 350c a0be
00000070: b7ee 20bd de68 633d ac12 4f3c 9a91 183e
00000080: fc59 4fbc 151a 21bd 8bde fe3d 133a 833d
00000090: 0d11 debd 4eaa e13d b203 c53d 5771 613e
000000a0: 5e50 fb3d d885 633e eb90 563c 4fdf cf3d
000000b0: 5f35 d43d c528 403e 0328 e93c 0fa9 6abe
000000c0: 992f d63d 54d3 3fbd e42a 8cbe 73bd f7bc
000000d0: 5942 edbd 047e 28be d25e adbe 9a82 f63d
000000e0: c23d 8f3e 119d b23d 5ecf 54be cfe4 8ebe
000000f0: ffe6 d8bd 56f1 c93c 86f4 e13d 8cc9 a9bd
00000100: f587 663d ab87 be3d 42bc e7bd 8ca4 c63c
00000110: 5aa8 02bc cd5f 23be 7780 36bd ea73 2a3d
00000120: b970 3dbd 33a4 a33e 78c0 1abe 779e 5a3e
00000130: 000c 683c 2166 85bd 32c5 063e fc4d d03b
00000140: 65e4 09be dd7c 3bbb f646 3c3d d96a a43d
00000150: 6adc 4c3d 64e9 263e b680 5e3e b2f0 b6bc
00000160: d41f 073e 454f 583e 8512 933d 0734 933e
00000170: 0ab1 823e 3850 383e 9c28 213d 018e 523d
00000180: a974 c8bd 096b 693d e2ed f33d c7fb 88bd
00000190: 6c4f d2bd 1223 cebd 3aa5 493c bdb0 e5bd
000001a0: 5fe7 e4bc ca48 8ebd ae29 90be 7a8d 68be
000001b0: 7c9a 36be f7af d53d 7d71 8ebe ed3a 6dbe
000001c0: aa68 77bd 11a5 7dbe 623f cd3d 01e1 6b3d
000001d0: 62ad 03be 5e10 573e b28e 853d 94c6 20be
000001e0: 1bb4 863d cda2 863c aa4a acbd daa3 843c
000001f0: ce33 b23d 9245 c7bd b2da 543d 6f84 703e
00000200: db09 813e 8093 693e 0954 d83d b09a 183e
00000210: 5b90 9e3c 7604 2e3e d860 053e 9a6f d7bc
00000220: 2bc8 c53d ef32 063d 65d1 973d c978 313e
00000230: 3d5b 933e 9422 f73d c102 ef3d 3c6f 113e
00000240: 2d41 34be 7edd 9ebd 4c39 543d d211 763e
00000250: 43de cbbd 2a48 473e d7b3 3bbe 69da 8db9
00000260: 5a34 f23d 5d68 653d f8d1 0d3e 4d28 853e
00000270: 35e7 f13c b9fd fdbc b982 fabc 0325 b2bd
00000280: c44a 913d 277a 203e eb2b 6c3d c36f 77bd
00000290: 51f9 2ebd 4c01 8f3d 7dd4 f2bb 2d1c 80bc
000002a0: 14bb 01be 6838 14bd 7f5d d9bc fe1f 083d
000002b0: a54d 753e f2ab 28bd 9599 2bbc 1dca 5d3e
000002c0: f784 4f3e bcee 91bc b1a4 713e dbc5 793d
000002d0: 73f1 763c 45e9 c7bd caff 03be acce 9a3c
000002e0: 1193 d23d 00e2 c73d 4bfd a5bc 7db1 b1bb
000002f0: f9e6 f23c 393b a53d c092 19bd 7cdb 66be
00000300: 88e9 cc3d 2cbd 39bd e806 0ebd b8a7 843d
00000310: 5ae6 a1bc e239 1fbe 8cb4 033e f5b5 043d
00000320: bac7 74bd cf8a 323e 12c3 803c 4c63 07be
00000330: 199e 4fbe a81d 3abd 977d 0fbe daad cebe
00000340: b05a c6bd 6f89 343e 10f2 0cbe 7d90 293c
00000350: f041 94bd b1f7 5eba d1b8 dc3c b638 403d
00000360: 4898 0d3e 4c62 dc3d a2fd 1d3d ad19 883e
00000370: 2330 423e 9f88 49bd 439a 753d 943a fa3d
00000380: e199 ce3d d151 533e 2eb9 39bd 5e81 40be
00000390: a4be 54be a361 15be 8aab 04be 75ff 43be
000003a0: 56e6 b7bd cae3 d6bd a67b 27be b569 d13d
000003b0: 4524 9f3e 7185 c63d 9bdc 5a3d 4ebf 2a3d
000003c0: e468 433d 588c 29bd d758 1a3e 9ef4 083e
000003d0: d1e0 833e f95e 70be 08a9 bbbe 2aae 8abd
000003e0: a6bc c3bd 7418 a93d 2337 10bc b71d 123d
000003f0: 9ca2 05be ca65 adbd 601d bfbe a8b2 80bb
-0.111863606 0.13896401 0.17352158 0.13792858 0.08277198 0.17511994 0.21086617 0.13085592
0.06672119 0.008010493 0.0030883134 -0.168978 -0.081531584 0.1604453 0.046172813 -0.21773852
-0.076484405 -0.06103873 0.39332598 0.11750258 -0.24672055 -0.15607801 0.0076889317 -0.18302837
0.05231244 0.0067220763 -0.11272911 -0.31259313 -0.039290156 0.05551993 0.012638729 0.14899293
-0.012655731 -0.039331514 0.124447905 0.06407561 -0.10843096 0.11018811 0.096198454 0.22015892
0.12271188 0.22219026 0.013096075 0.101500146 0.10361742 0.18765552 0.028461462 -0.22916053
0.10458297 -0.046832398 -0.27376473 -0.030241704 -0.115849204 -0.16454321 -0.33861405 0.12036629
0.27976805 0.08721364 -0.2078223 -0.27908942 -0.10590934 0.02465121 0.11032967 -0.08290395
0.056282002 0.0930322 -0.11315204 0.024248384 -0.007974708 -0.15954514 -0.044556107 0.04161445
-0.04625008 0.31961212 -0.15112484 0.21349512 0.014163017 -0.0651362 0.13161162 0.0063569527
-0.13466032 -0.002860836 0.04596611 0.08028192 0.05001489 0.16299969 0.21728787 -0.02233157
0.13195735 0.21123989 0.07181267 0.2875063 0.25525695 0.17999351 0.03934537 0.051404957
-0.09787876 0.056986842 0.11910607 -0.06688648 -0.10269055 -0.10065283 0.0123074595 -0.11215351
-0.027942358 -0.06947477 -0.281568 -0.22710219 -0.17832369 0.10433953 -0.2782096 -0.2316701
-0.06040255 -0.24769999 0.10021855 0.057587627 -0.12859109 0.21002337 0.065213576 -0.15700752
0.06577321 0.016435051 -0.084126785 0.016191412 0.08701287 -0.09730066 0.051966377 0.2348802
0.25202832 0.22810173 0.105629034 0.14902759 0.019355943 0.16993889 0.13025224 -0.026298333
0.0965732 0.032763418 0.07412986 0.17331232 0.28780547 0.12067142 0.11670447 0.14202589
-0.17602988 -0.0775709 0.051812455 0.24030235 -0.099545024 0.19461122 -0.18330322 -0.00027056344
0.118263915 0.05600773 0.13849628 0.2600731 0.029529193 -0.031004773 -0.030579912 -0.08698466
0.070943385 0.15671597 0.05765907 -0.06040932 -0.042718235 0.06982669 -0.0074105845 -0.015638435
-0.12669021 -0.036186606 -0.02653384 0.033233635 0.239554 -0.041179605 -0.0104736285 0.21659131
0.20265566 -0.017814033 0.23597981 0.060979705 0.015072214 -0.097612895 -0.12890545 0.018897377
0.10281957 0.09759903 -0.020262381 -0.0054227696 0.029651152 0.080679365 -0.037493467 -0.22544664
0.1000548 -0.045346424 -0.034674555 0.06477302 -0.01976316 -0.15549424 0.12861842 0.03240009
-0.059760787 0.17435764 0.015718017 -0.13221473 -0.20275153 -0.04543844 -0.14012752 -0.40367013
-0.09685266 0.17630552 -0.13764215 0.01034939 -0.07239139 -0.0008505537 0.026943596 0.046929084
0.13827622 0.10760936 0.03857196 0.2658209 0.18963675 -0.049202558 0.05996157 0.12218204
0.10087944 0.20636679 -0.045342617 -0.1879935 -0.20775849 -0.14588027 -0.12956062 -0.19140418
-0.0897948 -0.10492666 -0.16355762 0.1022524 0.3108236 0.09693421 0.053433042 0.04168635
0.047707453 -0.041393608 0.15072952 0.13374564 0.2575746 -0.23473729 -0.36652398 -0.067715004
-0.09557466 0.08256617 -0.008802208 0.03567287 -0.13050312 -0.0846668 -0.373271 -0.0039275475

model.8.bias f4 [128]
00000000: 3737 6ebf 7b55 bb3e 25d5 cfbe 6f57 b8be
00000010: a2e9 80be 7e6f 80be 0826 ddbe 0000 80bf
00000020: 60e9 32bf 01dd 6bbf 4a47 e7be 2952 87be
00000030: 29da e13c d894 fd3e 2fbb 7e3e 7637 a43c
00000040: 7e74 b63e 51c1 06bc dc08 19be 0e96 ae3b
00000050: 0a93 47bd 7f61 57bd 1336 d73c b938 f5bd
00000060: f677 aa3e 301c 8bbe b2ab 7dbe bf9b d33e
00000070: b1c4 3cbf b343 1dbf aae7 03bf 08e1 443f
00000080: eb7e c8be 1053 8dbd 55a7 423e 5532 a63e
00000090: 0046 813d b052 53bc 2ef5 05bf ef93 b03d
000000a0: 6450 19be 368d b7bd d8da bdbd 21ff 4fbe
000000b0: 1519 2d3e fbd1 17be f760 1cbf fc46 0dbf
000000c0: 0dbe 853d 35f4 20bb ca2f 29bf fbf3 46bf
000000d0: b6c1 6f3e a06c 0e3d c6b9 043d 7259 1dbe
000000e0: 9446 2dbf e625 5abe 9a7e 95bd efe9 75bf
000000f0: c8ac 9bbe 5a07 febd 6522 bd3d ff3c 9fbe
00000100: b4ea c13d 4ee2 35bf 3734 91bd 66a2 a9be
00000110: b8b4 6bbe 6283 54bf 068b 6bbe c9f7 0fbf
00000120: 526c 57bf f579 c23e 009b aa3c 4f7d 04bf
00000130: a12c 90be 6cfc 91bd 0df3 dd3e c795 b03d
00000140: adbf 11bf 41da 5e3e 38eb 9fbd 6654 02be
00000150: 83b5 dfbe 9844 0f3e 1f32 5ebe ac91 30be
00000160: de56 873b acc1 13bf 44e1 5dbe 2811 9c3e
00000170: 0607 29bf ad34 b2be 6f52 4fbe 0cb7 23bf
00000180: e707 cbbe c478 26bf 629b 953e 61e4 80bc
00000190: 2077 1cbf 3c12 9dbd 795e de3d 857a e03c
000001a0: ca6b 25be d70c abbe 136e bcbe bec5 b3be
000001b0: ce1f 68bf 1a3e a9bd e6e5 edbe d8f0 9b3e
000001c0: 7886 29be 6422 ccbe d5a8 2abf 4a5d 0ebe
000001d0: 1d12 62be 15f5 4abe 7705 b13e b206 4cbf
000001e0: 5c7e 31bf 3990 943d c699 80bc 4ab8 ccbe
000001f0: 0746 c0bd bbfa 90be 7e83 e0be 15f5 e9be
-0.93053 0.36588654 -0.40592304 -0.36004207 -0.25178248 -0.25085062 -0.43193078 -1.0
-0.6988735 -0.921341 -0.45171577 -0.2642987 0.027569847 0.4952762 0.24876092 0.020045977
0.3563575 -0.008224801 -0.14944786 0.0053279465 -0.04872421 -0.052583214 0.026270902 -0.119737096
0.33294648 -0.27169943 -0.24772528 0.41329762 -0.7373763 -0.61431426 -0.51525366 0.7690587
-0.3915933 -0.069006085 0.19009145 0.32460275 0.063121796 -0.012898132 -0.5232724 0.08621966
-0.14972073 -0.08962481 -0.09270257 -0.20312168 0.169041 -0.14826195 -0.61085457 -0.5518644
0.0653039 -0.0024559621 -0.66088545 -0.77716035 0.23413739 0.03477156 0.03240373 -0.15366152
-0.6768582 -0.2130352 -0.07299538 -0.9606008 -0.3040526 -0.12403746 0.09235076 -0.31101224
0.09468594 -0.7104844 -0.07090037 -0.33131713 -0.23018157 -0.83012974 -0.23002252 -0.56237465
-0.8414966 0.3798367 0.020825863 -0.51753706 -0.2815905 -0.07128224 0.43349496 0.08622318
-0.569331 0.21762945 -0.07808536 -0.12727508 -0.4369317 0.1399101 -0.21698807 -0.1724307
0.0041302284 -0.57717395 -0.21667963 0.3048184 -0.6602634 -0.34805813 -0.2024629 -0.6395118
-0.39654467 -0.65028024 0.2922011 -0.0157339 -0.6111927 -0.076694936 0.10857863 0.027402172
-0.161544 -0.33408234 -0.3680273 -0.35111803 -0.9067353 -0.08263798 -0.4646446 0.30457187
-0.16555202 -0.39869988 -0.6666387 -0.13902774 -0.22077222 -0.19820054 0.34574482 -0.79697716
-0.69333434 0.07254071 -0.015698325 -0.3998435 -0.09388357 -0.28316292 -0.4385032 -0.45694795

model.10.scaling_factor f4 [128]
00000000: 0352 6d3f 23a0 5d3f 2d96 763f 9ce7 6c3f
00000010: 3d6c 773f 580c 7e3f 343d 7e3f b3d9 7c3f
00000020: 095e 6d3f 7059 753f fd31 7f3f e6f4 753f
00000030: 3e6c 743f 3e70 593f a2e8 7f3f 688b 673f
00000040: f623 593f 1e58 663f e11d 7f3f a696 7e3f
00000050: aa81 693f f1a8 7e3f 0531 603f 02f0 7e3f
00000060: 72e0 733f 90ec 7f3f f152 7e3f aaf6 703f
00000070: f3be 783f d6cd 793f 8c23 7f3f 0b94 7e3f
00000080: de7c 7f3f 5948 793f 0726 5e3f 67df 7f3f
00000090: aea0 7d3f 24f5 773f 53d5 7d3f 45d0 7e3f
000000a0: 1309 7c3f 2768 7f3f 7c77 7d3f 30cf 7e3f
000000b0: bcc5 7d3f ab18 7f3f 6be9 7e3f 87a1 7e3f
000000c0: 12e2 6a3f 54e7 783f b225 6f3f 5372 7a3f
000000d0: 665e 713f fdc2 7e3f 09d9 7d3f 7e49 673f
000000e0: 98c3 7c3f 63a1 6f3f 6697 7e3f bef3 723f
000000f0: 8299 7f3f b2ba 763f 79d9 6f3f 8781 7f3f
00000100: 9108 7c3f dfdb 7c3f 2b72 7f3f 41d6 7e3f
00000110: d222 7c3f 5b36 733f e048 7f3f 6264 7d3f
00000120: eeca 793f 102d 783f e9b1 733f 44c6 7b3f
00000130: d6d6 7d3f 989a 7f3f 4d02 673f 7898 6b3f
00000140: f4ea 773f d3c1 773f 52a8 7c3f 902e 7f3f
00000150: a83e 7d3f e47e 7e3f d487 703f 179e 7e3f
00000160: 195f 6c3f b3cf 7e3f ce1b 7d3f fce5 7f3f
00000170: bf82 7d3f fb89 7c3f c6c6 7f3f b04e 7b3f
00000180: 5127 7d3f b95a 763f 350e 623f 1946 7e3f
00000190: ab13 7f3f d9d6 7a3f c558 7c3f fb35 7f3f
000001a0: 77d9 653f 67ae 7e3f 12e5 7e3f c445 793f
000001b0: 4943 773f 7fdc 703f 0c09 7f3f 12a8 5d3f
000001c0: 7cb4 7a3f 6e54 793f 6929 7c3f d405 7e3f
000001d0: 4ec5 783f a953 7c3f 9cfa 5f3f da9b 7d3f
000001e0: a985 753f b74b 7f3f 403b 7f3f 54da 673f
000001f0: a2d5 733f 3739 793f 405b 7e3f 56bb 7f3f
0.92703265 0.86572474 0.963229 0.9254091 0.96649534 0.99237585 0.9931214 0.9876968
0.9272161 0.95839596 0.9968565 0.9607681 0.95477664 0.84936893 0.99964345 0.9044709
0.848205 0.89978206 0.99654967 0.9944862 0.91213477 0.99476534 0.875748 0.9958497
0.9526435 0.9997034 0.9934531 0.9412638 0.97166365 0.97579706 0.99663615 0.99444646
0.9979991 0.9737602 0.86776775 0.9995026 0.990733 0.9685843 0.9915363 0.99536544
0.98451346 0.997683 0.99010444 0.99534893 0.99129844 0.99647015 0.9957492 0.9946522
0.91751206 0.9722798 0.93416893 0.97830695 0.94284666 0.9951628 0.99159294 0.90346515
0.9873595 0.9360563 0.99449766 0.9490317 0.9984361 0.96378624 0.9369121 0.9980702
0.9845057 0.98772997 0.9978358 0.99545676 0.9849063 0.95004815 0.99720573 0.98981297
0.9757527 0.9694376 0.95193344 0.98349404 0.9915594 0.99845266 0.90237886 0.92029524
0.96842885 0.9678013 0.98694336 0.99680424 0.9892373 0.9941237 0.9395726 0.99459976
0.9233261 0.99535674 0.9887055 0.99960303 0.9902763 0.9864804 0.9991268 0.9816694
0.9888812 0.9623218 0.8830293 0.9932571 0.99639386 0.9798408 0.9857295 0.9969174
0.8978495 0.99484867 0.99568284 0.9737208 0.96587044 0.9408645 0.9962318 0.8658458
0.9793165 0.97394454 0.98500687 0.99227643 0.97176063 0.98565155 0.87491775 0.99065936
0.95907074 0.99724907 0.99699783 0.9056752 0.9524785 0.9735293 0.99357986 0.99895227

model.10.bias f4 [128]
00000000: fc38 433d 2548 55bd 6ff8 d4bd f4a5 513e
00000010: 95ee 6f3e 92cd 91bd d792 553e 94df 453c
00000020: 9ca9 933d b502 483e e554 aa3c dd26 603e
00000030: 1a0d 0a3e 5e59 1d3e 334d e93c 8ddb 6c3e
00000040: 1e2d 17bd 26d4 3d3e 48d6 0f3e d4ec 8abd
00000050: 2972 593e 3f63 ae3d 3951 243e a095 0ebd
00000060: 8ba9 d3bc 483e ee3d cd6a 91bd 996d 29bd
00000070: 55e7 583d cb01 85bd aca4 ec3d b7ec 2ebe
00000080: 300c 883d 0330 1a3e 2b0f 003e fe06 953d
00000090: c297 a7bc afd7 15bc 0bbf 713d 4a11 3b3e
000000a0: 1333 883e dae0 b2bd 5148 713e d2ef 77bd
000000b0: be9b 65bd 3141 b7bd ee74 b2bd 093c 08be
000000c0: 3b2e 663e 4de3 463e d2a3 553e 1e0b a63d
000000d0: 8307 da3d 1b5e 11be 3631 9f3e 3c31 653e
000000e0: 7a93 a3bc c774 d73d 0ffd 863a 58d4 903a
000000f0: ba14 0bbe b5a8 1f3e 6a65 4b3d dd2f 2b3d
00000100: 35d0 063e ff39 d43d ce2d aebd b2dc bc3d
00000110: 4ccd 9b3d aae5 a5bd 41a5 00be 67ce b83d
00000120: e727 e73d 3e8f e6bc 5530 0d3e fd93 5c3e
00000130: 1503 7cbd e5b8 1cbe 4804 453d 4ba5 4e3e
00000140: 75df c6bc b703 4bbd 67e8 173e 3cda a2bd
00000150: 11bd 063e 013c babc 22c9 6c3e fb70 133e
00000160: 3ece 3c3e ea1a c6bb 6aa1 1b3e 7acd a73d
00000170: bad0 fd3d 1463 493d 02da f33d 85d9 fabd
00000180: 535e 2a3e b7a1 d43d 601a 023e 5e5f 93bd
00000190: c360 c13d 1e82 7f3e b0a3 9fbd 6600 6a3e
000001a0: 14ca 523e 5bff 393e 0829 e1bc 767e 623e
000001b0: e8b1 da3d d145 90bd 0738 ed3d 18bf 3e3e
000001c0: a565 923c 0741 cb3d 418d 0a3e a0d4 003e
000001d0: a292 1f3e 6877 f6bd fa32 89bc 7d69 a3bd
000001e0: f7a9 0d3e 4680 a03d 89aa c1bd 9151 5d3e
000001f0: 8b54 643e 0597 443e 9926 c3bd c99b 393d
0.047661766 -0.052070756 -0.103989474 0.20473462 0.23430856 -0.071192876 0.20856796 0.012077231
0.07210085 0.19532283 0.020792434 0.21889825 0.1348156 0.15366122 0.028479194 0.23130627
-0.03690826 0.1853796 0.14046586 -0.06783453 0.21234955 0.085150234 0.16046609 -0.034810662
-0.02583768 0.11632973 -0.07100449 -0.041364286 0.05295499 -0.064944826 0.11554846 -0.17082487
0.066429496 0.15057378 0.12505786 0.07276724 -0.020458106 -0.009145661 0.059020083 0.18268314
0.26601467 -0.08734293 0.23562743 -0.060531445 -0.05605673 -0.08947981 -0.08713709 -0.13304152
0.22478573 0.19422646 0.20863274 0.08107589 0.10645964 -0.14196055 0.31092232 0.22382063
-0.019967783 0.105203204 0.0010298806 0.0011049611 -0.13582125 0.155917 0.049657263 0.041793693
0.13165362 0.103626244 -0.0850483 0.09221782 0.07607517 -0.081004456 -0.1256304 0.09023743
0.11286908 -0.028144475 0.13787968 0.21540828 -0.061526377 -0.15304907 0.048099786 0.20180242
-0.024276474 -0.04956409 0.14834748 -0.07951781 0.1315806 -0.02273369 0.23123601 0.14398567
0.1843805 -0.006045689 0.15198293 0.081934884 0.12393327 0.049166754 0.11906816 -0.1224852
0.16637544 0.10382407 0.12705374 -0.07195924 0.09442284 0.2495198 -0.07794893 0.22851714
0.20584899 0.18163817 -0.027485386 0.22118554 0.10678464 -0.070445664 0.11582952 0.18627584
0.017870734 0.09924512 0.13530447 0.1258111 0.1558328 -0.12034494 -0.01674794 -0.07979105
0.13834368 0.07836966 -0.09456355 0.21613146 0.22297876 0.19198234 -0.09528846 0.045314584

label_embedding.weight f4 [3, 3]
00000000: 2ac4 283f 8d48 6ebf c1dc 643f e495 2b3f
00000010: 5f29 9d3e 4f46 60bf 5c36 d53e 3cdd b1bd
00000020: 7ce9 65bf
0.6592432 -0.93079454 0.89399344 0.6702559 0.30695626 -0.8760728 0.41643035 -0.08684775
-0.89809394

classification_layer.0.weight f4 [1, 515]
00000000: fb81 3cbf 80a1 b1bd a23e 6dbf 6886 763f
00000010: c178 743e 0503 c03e a7e9 2f3e 8388 603e
00000020: cfe5 4cbf b061 31be 3d4d 833e e4d3 783f
00000030: 5108 07bf 209d 92be 3683 2dbf a23d 503f
00000040: 588b 323d ecb1 203d 4346 78bf 9204 73bf
00000050: c747 9dbe 2a1e 92be 4853 2cbe e7a6 3f3f
00000060: dda0 7d3e 30b3 fe3e 905c 06bf e33f 6bbf
00000070: 919d 373e 451f cb3e 79e7 723f 6a0a 7abf
00000080: 91bf 433e 53ad 573f c82f 6fbf c948 61bf
00000090: c413 c1be d8c8 b9be f8d2 47bf 0905 b3be
000000a0: 0a72 55bf 255d 7cbf 839e 3e3e cee8 133f
000000b0: 15a9 76bf 7a09 7abf d34f 43bf aaf1 6b3f
000000c0: dfa3 b43b 82f1 47bf 3ab0 4bbf 3e7f 74bf
000000d0: 7ae9 353f 7e9b 78bf 794b 4d3f aca4 7abf
000000e0: b4ce 103e 2d26 0b3f a998 be3e 3c29 6ebf
000000f0: e6df 8e3e e547 79bf cb49 3f3f 8c69 7bbf
00000100: b661 5a3e 90ea ac3e 6914 f43e fcc3 b53d
00000110: 32c8 7abf 4e3f 623f 583d 7dbf fbfd 693f
00000120: 283b 7abf 816a 74bf 016b 7fbf 190b 513e
00000130: 7942 2bbf 1858 a03e 4dde 133f 113d 7fbf
00000140: 52f2 39bf f707 863e b879 313f db5c 76bf
00000150: 3a64 d0be d17f 0d3f c1ef 43bf f1a7 243f
00000160: f210 7dbf 9b4b 323e 00d7 513f bf41 cfbe
00000170: d6e1 0ebf 2d03 1b3f 379a 7dbf a3d0 443f
00000180: 1dbc 433c c58a ff3e 4b62 c63e 664a 2c3e
00000190: c62c 7abe 4597 7dbf 2696 093f f085 523f
000001a0: 3130 523e 9c4d 27bf e0ab 5f3e efff 2d3f
000001b0: 59ea d53e 33c1 9f3e 1ade e9be ef4a b13e
000001c0: 00da 61bf 9e79 6cbf b50d 873e 8cbe 7a3f
000001d0: dbf7 be3e 8d7f c6be f03a 7dbf 9545 773f
000001e0: 7d8e 2bbf 1dd7 6e3f b8bb 5abf 0389 fdbe
000001f0: c9f0 a23e 6bf7 923e 39a9 0e3f dde8 7ebf
00000200: 5249 153f c89f 1c3f 85f7 76bf d123 68bf
00000210: cca1 50bf 91a6 633e 25eb 4cbf 2189 72bf
00000220: 4787 483f 8da2 79bf cb15 0dbf 9737 153f
00000230: 9f75 a43e 0e28 313f 6794 b03d ced9 7fbf
00000240: 7506 873e b25f 77be 1785 a2bd 565b be3e
00000250: c9d5 1ebe 1c9e a73e bd78 893e 90e8 68be
00000260: 9761 153f 264f 7dbf 41d9 25bf eb76 323f
00000270: 5fe6 9a3e e32d 75be 52e1 573f 23d9 7bbf
00000280: 5a8d e0bb 077c 7bbf bcf6 1b3f 518b 7bbf
00000290: 68ca 7b3f bd2d 7fbf bd89 77bf 0ffb 69bf
000002a0: c1da 10bf 451d 9f3e f11e 113f 5830 73bf
000002b0: 8839 24bf 90c3 333f 9245 2cbf 8e6e 283f
000002c0: 7aa7 cc3e 2011 e23d 9ef9 5c3e 9192 123f
000002d0: 86e4 7dbf 1b70 d03e 512c 153f ed1b 423f
000002e0: 68c7 7ebf 3dde 033f 48bc 5fbe b6ef 7b3f
000002f0: 1e31 7ebf 6e22 14bf f314 7e3f 80cb 733f
00000300: d9a8 233e 5318 79bf ad84 4e3f 7117 7dbf
00000310: 7bdf 6ebf 33d6 1cbf e608 0f3f 7483 b63e
00000320: e264 4cbf 6e5f 013f 3880 0cbe c3d4 78bf
00000330: eb73 ad3c b998 483e 12c1 7bbf fc7d fc3e
00000340: 3d1e 85be c3c5 d53c f80e febd 26e0 513e
00000350: 32f7 35bf e84a 2f3f bf35 dcbe 547d 563f
00000360: 1451 41bf 02a3 7bbf b502 cf3e 6a54 24bf
00000370: 91d8 78bf c214 7bbf 2fe2 bf3e 0089 693f
00000380: 7589 85be 1115 a3be 1014 7d3f 56ec 7cbf
00000390: a057 863e f9d1 6cbf e5bd 893e b8f8 cd3e
000003a0: 503b 093f f77e 8dbe 3e5b 28bf 3336 283f
000003b0: 55c5 77bf 443f 373f 2355 6ebf d06b 733f
000003c0: 0ff9 273f 2b2e 7dbf e65d bbbd d677 793f
000003d0: 7781 a83e 0227 3ebf 6e8a 15bf a177 78bf
000003e0: ed0f 4c3e 2c8d 7cbf 88fe 543e 1dae 213f
000003f0: a675 7bbf d7d6 243f 8654 5b3f c308 76bf
-0.73635834 -0.08673382 -0.92673695 0.9629884 0.23874189 0.37502304 0.17178975 0.21927075
-0.8003816 -0.17322421 0.25644866 0.9719832 -0.52747065 -0.28635502 -0.67778337 0.81344044
0.04358992 0.03923218 -0.9698221 -0.9492885 -0.30718824 -0.28538638 -0.16828644 0.7486405
0.24768396 0.49746084 -0.5248499 -0.9189436 0.179312 0.39672294 0.9488445 -0.9767214
0.19116046 0.84248847 -0.93432283 -0.88001686 -0.37710392 -0.36286044 -0.7805629 -0.3496478
-0.83377135 -0.9857963 0.18615155 0.57777107 -0.9635175 -0.9767071 -0.7629368 0.92165625
0.005512699 -0.78102887 -0.79565775 -0.95506656 0.7105938 -0.9711226 0.8019329 -0.9790752
0.14141351 0.54355127 0.37225845 -0.9303167 0.27905196 -0.9737533 0.74721974 -0.98207927
0.21326336 0.33772707 0.47671822 0.08875272 -0.97961724 0.88377845 -0.9892173 0.9140317
-0.97746515 -0.9547501 -0.9977265 0.2041439 -0.66898304 0.3131721 0.5776108 -0.99702555
-0.72635376 0.26177952 0.69326353 -0.96235436 -0.40701467 0.5527316 -0.7653771 0.6431876
-0.9885398 0.17411654 0.8196869 -0.40479848 -0.5581335 0.6055172 -0.9906344 0.76880854
0.011946705 0.4991056 0.38746867 0.16825256 -0.24431142 -0.99058944 0.53744733 0.8223562
0.20526196 -0.653528 0.21842909 0.6796865 0.41780356 0.31202087 -0.45677263 0.34627482
-0.88223267 -0.92373073 0.26377645 0.97947 0.37298474 -0.3876919 -0.98918056 0.9659055
-0.67014295 0.93296987 -0.85442686 -0.49518594 0.3182433 0.2870439 0.55726963 -0.9957407
0.58315 0.61181307 -0.96471435 -0.9067965 -0.8149688 0.22231509 -0.800463 -0.9474049
0.78331417 -0.9751366 -0.5511138 0.5828795 0.32120988 0.69201744 0.086220555 -0.9994172
0.26372114 -0.24157599 -0.07935541 0.3717906 -0.1551124 0.32737815 0.26849928 -0.22744966
0.58352035 -0.98948896 -0.6478463 0.69712704 0.30253884 -0.23943286 0.84328187 -0.983782
-0.006852788 -0.98236126 0.6092336 -0.98259455 0.9835572 -0.99679166 -0.96694547 -0.9139871
-0.5658379 0.31077018 0.5668784 -0.9499564 -0.64150286 0.7022028 -0.67293656 0.65793693
0.39971524 0.110384226 0.21579596 0.5725489 -0.99176824 0.4071053 0.58270746 0.7582386
-0.9952302 0.51510984 -0.21849167 0.98412645 -0.99293697 -0.57865036 0.99250716 0.9523239
0.15982379 -0.9730274 0.806712 -0.98863894 -0.93309754 -0.6126434 0.5587295 0.35647166
-0.79841435 0.5053624 -0.13720787 -0.9719965 0.021173438 0.19589509 -0.98341477 0.49314868
-0.25999632 0.026095277 -0.12405199 0.20495662 -0.71080315 0.6847367 -0.43009755 0.83784986
-0.7551434 -0.98295605 0.40431753 -0.64191306 -0.97205454 -0.9807855 0.37477252 0.9122467
-0.26081434 -0.3185201 0.9885874 -0.9879812 0.26238728 -0.9250789 0.2690269 0.4022882
0.5360613 -0.2763593 -0.65764225 0.657077 -0.9678548 0.7158091 -0.9309866 0.95086384
0.6561441 -0.9889857 -0.09148769 0.9744848 0.32911274 -0.7427827 -0.5841435 -0.9705754
0.1992795 -0.9865291 0.20800221 0.631563 -0.9822639 0.6439032 0.8567585 -0.9610712
