Lab4/models/gan_models/ls_vbng_1000e_500b_dis.pth (torch, 403159 bytes, 22 tensors)

model.0.weight f4 [16, 3, 3, 3]
00000000: e97d 383e 8a0c debc fa02 083d 19de 323a
00000010: 8831 64be fc36 933d 99eb 023e fc81 07bd
00000020: 27d2 9a3e ada6 df3d 897f 72bd 425b 82bc
00000030: 8a94 79bd 9242 a2be 2e13 f6bb f498 043e
00000040: 16f0 c7bd a9a4 0e3e 3fe0 023e 2f41 93bc
00000050: f933 833d f6fa 2c3d 498b 38be c1bf 5e3d
00000060: c84b da3d 4c37 c3bd 90f3 093e a34f 513d
00000070: 4117 3e3e c08d 00bc 0479 fdbc c580 f5bd
00000080: 2cb5 c3bd 7d47 c73d 7935 5d3d 0244 093d
00000090: 8ae8 8dbd a55c 2a3e 78c7 5e3d fefb 29be
000000a0: 44e6 32be 9884 d6bd b79f d6bd fb7f 15be
000000b0: 2636 02be 0258 323e 116c 823e 53f4 323e
000000c0: 2955 3b3d 8bd2 c2bd 9443 3d3b 9cde 943d
000000d0: 6ffa 02be 0cfc 16bd 2434 25be 6eff d7bd
000000e0: 4b96 6c3e eb2b 4ebd 493b e5bd 9d7a 943e
000000f0: 3a9b b6ba 74ac 1bbe 8129 4a3d 18a9 febd
00000100: 4a71 4dbe 5384 0d3e 5bcf 8dbb 2169 6abe
00000110: b761 263e e464 0f3e 9c2f 6dbe b05f d93c
00000120: 760a 283d b3c6 e0bd 6bb3 353e 0e48 4f3d
00000130: 2433 fcbd 7ba9 fc3d 2e61 0f3e dd41 bdbd
00000140: 1a7e 463d afe1 f83d de36 0d3e ff0d 133b
00000150: f19e 623d bc54 053e f556 f53c ef8b be3d
00000160: ff89 053e 46de 773c 9027 82be 9458 9abe
00000170: e81f 92be 3443 7bbe 0112 9dbe 72b5 88be
00000180: 9856 e93d 4046 fcbc 3c38 eebd d743 4a3e
00000190: 450c 853d c559 2c3d 7ef6 943d 11b9 b7bc
000001a0: 2cf7 12bd 49e1 a93e 784a 3b3e ee16 043e
000001b0: bcb0 0d3e 7b74 493e d2d8 4c3e b134 323e
000001c0: 8887 923e 41f0 533e 161c 2dbc 216b 99bc
000001d0: af19 87bd 7ea4 8abe 2237 2fbe cb28 d1bd
000001e0: 7ede d6be 587e a8be 6cc8 8ebe 52cc 8cbe
000001f0: 2211 64be ddbf 4dbe 51cb 553e 7912 823e
00000200: e1f7 883e c462 2b3e fb1c b33d 206a e43d
00000210: 31aa 983d 89c0 363d deb0 a33d e4ec 3fbe
00000220: 87a4 09be 771e b5bd b629 61be d38b 63be
00000230: fbbf 32be 27cb 26be e976 12be 1ea9 cabd
00000240: 53f8 c73e a348 aa3e 4125 9f3e 3c95 c43e
00000250: d47e 8c3e 9453 9d3e d17f a33e f194 373e
00000260: 7c46 443e a87a 25be 93dc 14be f9a8 29be
00000270: 3372 4abe 110a fabd 157e cdbd 8124 1fbe
00000280: 3f42 f3bd 8010 b0bd 5824 18bd fbf9 e4bc
00000290: 1a98 96be 0ce6 08be f633 c63d 8568 ff3c
000002a0: 2d67 cf3e 1db7 38be 033c d03d 9b77 3f3d
000002b0: 8d7d 473e ab21 5fbe d3d3 49be b07b 163e
000002c0: 877a 4c3e 5ac6 3f3e 7805 fcbe 3785 0b3e
000002d0: ef43 25bc 3cc0 333e fe9c cfbd b525 12be
000002e0: a03c 563d b635 8e3d 5f4e e73d 47ae b2be
000002f0: 6588 c23d f3b9 90be 8ea2 a8be cb02 8fbe
00000300: a67d 7bbe e779 86be 82d9 90be f2d8 27bd
00000310: 9f3c 8f3c 8613 02be 0ab9 a63e 4cd0 8b3e
00000320: f547 733e fb72 863e 17ee 733e fd97 f33d
00000330: 1fdf 853e f050 5c3e 6a0f 353e 7e08 b7bd
00000340: 0c36 25bd 073f 9dbd 41bd 1fbd a36b 85bc
00000350: c0f1 0fbe 124e 423d 70d7 d73d 2ac2 ef3c
00000360: a05f 44be 6f17 23be 12ac ddbd ecfc 63bd
00000370: 66a5 2e3d 365f d63b b29c 13be 431f c4bd
00000380: bb3d 11be bf10 3f3d 8901 e93d d9cf 923d
00000390: 9806 6f3d d7df af3e 8917 0e3e 9870 e2bd
000003a0: 6d8e 043d 8cc8 a7bd facd 16bd d7b3 b43c
000003b0: c414 693d cf60 79bd 389a 2b3e 4f56 b43d
000003c0: 434c 5ebe 5f71 9cbd 326f 07be 20bd 1bbe
000003d0: 5e7b b13c 5f56 623e e1e4 523d 71cc 3ebe
000003e0: ab8e 21bd ca4a 153e fffc 883d 50a9 f7bd
000003f0: 87d9 3abe eca3 0d3d bc4f 643e 3f16 ee3d
0.18016781 -0.027105588 0.033205964 0.0006823256 -0.2228452 0.07188222 0.12785186 -0.033082947
0.3023846 0.10920463 -0.05920366 -0.015912656 -0.060932674 -0.31691414 -0.0075096106 0.12948972
-0.0976259 0.1393 0.12780856 -0.017975418 0.06406397 0.042231523 -0.18021883 0.05438209
0.106589854 -0.095320314 0.13471818 0.051101338 0.18563558 -0.007846296 -0.030941494 -0.119874515
-0.0955604 0.09730432 0.054006074 0.033512123 -0.06929119 0.16636904 0.054389447 -0.16600034
-0.17470652 -0.10474509 -0.10479682 -0.14599602 -0.12715968 0.17416385 0.25473073 0.17476015
0.045735512 -0.09512814 0.002887939 0.07269022 -0.12790845 -0.036861464 -0.16133171 -0.10546766
0.23104207 -0.050334852 -0.11192948 0.28999797 -0.0013931759 -0.15202504 0.049355987 -0.12434596
-0.20062748 0.13820009 -0.004327697 -0.22891666 0.16248213 0.1400333 -0.23162693 0.026534885
0.0410256 -0.10975399 0.17744224 0.050605826 -0.12314442 0.12337013 0.14001915 -0.09241078
0.048460104 0.12152421 0.13790461 0.0022438762 0.05532736 0.13020605 0.02994869 0.09304034
0.13040923 0.015128678 -0.2542081 -0.30145705 -0.28539968 -0.24537355 -0.30677798 -0.26700932
0.113934696 -0.030795217 -0.116318196 0.19752441 0.06496481 0.0420778 0.07273577 -0.022427114
-0.035880253 0.3317969 0.18290126 0.12899372 0.1383695 0.1967334 0.20004585 0.17402913
0.28619027 0.20697118 -0.010565778 -0.01872784 -0.06596696 -0.27078623 -0.17110875 -0.10212859
-0.41966623 -0.32908893 -0.27887285 -0.27499634 -0.2227216 -0.20092721 0.2087834 0.2540472
0.26751617 0.16736895 0.08745762 0.11153054 0.074543364 0.04461721 0.07992719 -0.1874271
-0.13441668 -0.08843701 -0.21988568 -0.22221307 -0.17456047 -0.16288434 -0.14303173 -0.09895538
0.39056644 0.33258542 0.3108311 0.38395107 0.27440512 0.30727828 0.31933454 0.1792791
0.19167513 -0.16160071 -0.14537267 -0.16568364 -0.19770126 -0.12208951 -0.10033814 -0.15541269
-0.1187787 -0.08596897 -0.037144035 -0.027951231 -0.2941292 -0.13369006 0.096778795 0.031177768
0.40508404 -0.18038602 0.10167696 0.046744924 0.19481488 -0.21790187 -0.19709711 0.1469562
0.19968615 0.18728009 -0.49222922 0.13625036 -0.010086997 0.175538 -0.10137366 -0.14272197
0.05230391 0.06943838 0.11294245 -0.34898588 0.094986714 -0.28266868 -0.3293652 -0.27931818
-0.2455965 -0.2626488 -0.28290945 -0.04097838 0.017484961 -0.1270276 0.3256305 0.27307355
0.23757918 0.26259598 0.23821293 0.11894224 0.2614679 0.2151525 0.17681661 -0.08937167
-0.040334746 -0.07678037 -0.038998846 -0.016286677 -0.14057064 0.047437735 0.10539138 0.02926739
-0.19177103 -0.15926908 -0.108238354 -0.055661127 0.042638205 0.0065421117 -0.14415243 -0.09576275
-0.14183705 0.04664683 0.11377246 0.0716855 0.058355898 0.34350464 0.13876165 -0.11056632
0.03236239 -0.08192548 -0.03681753 0.02205841 0.05690457 -0.06088334 0.16758049 0.088055246
-0.21708779 -0.07638811 -0.13226011 -0.15208864 0.021665271 0.2210326 0.051487807 -0.18632676
-0.0394427 0.14579311 0.0668888 -0.12092841 -0.18247043 0.034580156 0.22296041 0.11625337

model.0.bias f4 [16]
00000000: 7f08 a7bd 1f9c 81be 0224 e6bd 3eda 26be
00000010: 034b 93bd 116e c43c 195e dfbd 3583 67be
00000020: f01b 6abe d853 9abd 04b4 fbbe bb19 41bb
00000030: 0609 b8bd 2daa 69bc 85ef dabe 0332 90bd
-0.081559174 -0.25314423 -0.11237337 -0.1629419 -0.07192042 0.023978265 -0.109066196 -0.22608645
-0.2286222 -0.07535523 -0.4916078 -0.00294648 -0.08986096 -0.0142617645 -0.42760864 -0.07040789

model.2.weight f4 [32, 16, 3, 3]
00000000: 5918 e5bc 96a6 ea3c 89dc 9fbd c098 803c
00000010: 7c56 33bd ab9e 2c3d 6374 243d 56de 323d
00000020: e891 663c 35b1 91bd 3868 35be eb74 7fbe
00000030: 9567 173e acdb f5bc d2ed eabd f363 843c
00000040: 47ac 28be ab29 1bbe 66f9 743e 7948 c33d
00000050: 252a 63bd 5af9 c3bd 29bf 123c 362f 2dbe
00000060: 81d0 27be 751b e83c e805 a33a 646c 943e
00000070: 1c68 4c3d 4b4e 003e f295 573e 37bd b3bd
00000080: d1f3 8fbd 998f d03d 984b 1fbe 94ae 70be
00000090: 4f6a 013f 2aac d93d f408 ecbd 1f81 af3e
000000a0: 87f4 91bd 475a 9cbe eb35 903e 2a5c 99bd
000000b0: e70c 62be 4d6f 91be 0539 70bd cbe4 aa3d
000000c0: 7af4 63be c60d 1ebd cfe8 813e 1673 20be
000000d0: 05e6 483d 920f 913e 61a0 083e 8dbe 92bd
000000e0: 6baf 84bd 9278 f23d 7976 0bbe 4055 98be
000000f0: 0c0c 053e 4a2b 523b c0ed 623b 78ca 19be
00000100: 72a8 98bc dbd2 d93d 5df4 04be a514 b13b
00000110: c7a3 033e 36e5 30be bd90 0c3d 9329 153e
00000120: ddac e43c 6996 f6bb 0a61 bb3c 4b55 2e3d
00000130: 4d37 e83d 4754 513d e7dd d73d 263b 903d
00000140: dc5c 8b3c 0269 0b3d 00b4 4aba e846 853e
00000150: fa0d 363e 6a8c ee3d 8a26 123e 76af 973d
00000160: bb96 233d 5f60 e33d 6453 8dbd f7a5 963d
00000170: cb6f ba3c b05b d6bd ac85 e6bd 18c9 98bd
00000180: 766e d8bd 2294 d0bd e9ea bcbd 0cc7 1e3e
00000190: 9b39 5abd 7be1 97bc ecdd a33d 12c5 3abe
000001a0: 7087 55be 250d 073e c45f fbbd 5edc 88bd
000001b0: 40d7 98bc 945c 503d 8b88 36be d34d 303e
000001c0: af98 3ebd 2b39 acbc 23f4 023c 3e3a 25bd
000001d0: 35bb c6bd 1d52 fb3d 13f2 363c 1001 c2bd
000001e0: 3829 c73d 50d9 70bd a23d cebd 962d f93b
000001f0: c3de 6abb 406b fdbd c981 b6bd 3a71 d73c
00000200: 888e 943b 94c8 b6bd a1b0 75bd bd80 96bd
00000210: 3485 bfbd cb4a c7bc b033 85bd 525e 31be
00000220: a659 3abd beb7 9fbd 9054 50bd 304a b1bd
00000230: ec5b 41bd 2bc8 eebb cac4 f0bc 7bb5 69bd
00000240: e390 a33d 5dcd 4f3d f407 383e d1f9 203c
00000250: f178 78bc 217c 953d 7b50 ceba 493f 3cbc
00000260: 4ee2 453e 3d93 38bd 00fd 17be ae49 0d3e
00000270: 0fdb fa3c 0b32 e23d db9c 923e d948 e0bc
00000280: 7890 60be 3d58 9dbc 1133 993e ccad 323d
00000290: 340a d33c adb4 3e3b 6351 6d3b b20a 7dbe
000002a0: 62e5 c1bc d4df 68be 7c5f 33bd 79d7 92be
000002b0: bdd7 58bd c670 a3bb c12f 21be 60fa e1bd
000002c0: 1e52 2abd 2af8 afbe 8cea 2939 50a4 893c
000002d0: 2fd2 3abf cf1e d9bd 7140 88bc f41b f6be
000002e0: 13aa e23d 6b0e 173e 9b1b ddbe 1541 393d
000002f0: 7cc8 973d be7b 633e 2d04 1e3e f662 5a3d
00000300: 8aba e03d 65c1 b63c f29c 1fbe bf73 203d
00000310: 14d5 bbbc 4d2d 45be d60f 06bd b4cd 2abe
00000320: 2eff 25be f055 a3bc 95ea e6bd 2e27 efbc
00000330: 81d1 68bd 8381 0a3e 2f67 373c ba60 ae3e
00000340: 67e2 133e 0dc4 b03b f695 703e 17de 14bd
00000350: 61f1 79be fc87 7e3e 3a6f 443c 1d0e 81bd
00000360: 65a0 043d 9595 a63d 4a2c 08be 7333 b63d
00000370: cb2f 633d c3d6 043c 48c2 063e e599 aa3c
00000380: fb94 c6bd 1a6c eabc b239 58bc 3629 0d3e
00000390: 680c 1dbc 7eba 993d 0843 29be 7ef1 16bd
000003a0: 50ac a8bd 5e41 4c3e de07 0fbd bf95 0ebe
000003b0: 2448 c8bd 4b59 83bd 5b79 d4bd 3518 95bb
000003c0: 9ff9 0abe b263 ebbd bbd6 15bc e1bb 01bd
000003d0: 069c 163e 0c79 783e dc7a 2ebe ef7b 893d
000003e0: fec7 653e 0f9c 47be 07ec 173d b9a6 243e
000003f0: 605b c6bc 6ced 0f3d 0897 a1bd 3577 b63d
-0.027965711 0.028643887 -0.078057356 0.015697837 -0.04378365 0.042143505 0.040150058 0.043669067
0.014072873 -0.07113878 -0.17715538 -0.24946944 0.14785607 -0.030011974 -0.11471142 0.01616094
-0.16471969 -0.15152614 0.23923263 0.095353074 -0.055460114 -0.095690444 0.008956709 -0.16912541
-0.16388132 0.028333405 0.0012437673 0.28988945 0.049903974 0.12529866 0.21053293 -0.08776324
-0.07028926 0.10183639 -0.1555618 -0.23504096 0.5055284 0.10628541 -0.11525145 0.342782
-0.07126718 -0.30537626 0.28166136 -0.07488282 -0.22075234 -0.28405228 -0.058648128 0.0834442
-0.22261229 -0.038587354 0.2537293 -0.15668902 0.04904749 0.28332192 0.1334243 -0.07165251
-0.06478771 0.11839403 -0.13619412 -0.2975254 0.12992877 0.003206926 0.0034626573 -0.15018642
-0.018635008 0.106359206 -0.12983842 0.0054040723 0.12855445 -0.17274937 0.03431772 0.1456664
0.027914459 -0.0075252545 0.02287342 0.04256181 0.11338673 0.051105764 0.105403714 0.07042532
0.017012052 0.03403569 -0.00077325106 0.2603066 0.17778769 0.116478756 0.14272514 0.074065134
0.03993867 0.11102366 -0.06900671 0.07355874 0.022758385 -0.10466707 -0.11255965 -0.074602306
-0.10567944 -0.10184504 -0.09224493 0.15505618 -0.053277593 -0.018540135 0.080013126 -0.18239239
-0.20852447 0.13188608 -0.12274125 -0.06682657 -0.018657327 0.05086954 -0.17825525 0.17217188
-0.04653233 -0.021023354 0.007992777 -0.040338747 -0.09703676 0.12271521 0.011166113 -0.09472859
0.09724659 -0.058800995 -0.10070349 0.007604311 -0.0035838343 -0.12373972 -0.08911473 0.026299108
0.0045335926 -0.08924976 -0.0599829 -0.07348774 -0.09351578 -0.024327656 -0.06503999 -0.17321137
-0.04549565 -0.07798718 -0.050861895 -0.08656728 -0.047206804 -0.0072870455 -0.029390711 -0.05705784
0.07986619 0.05073296 0.17971784 0.009825186 -0.015165553 0.07299066 -0.0015740538 -0.011489698
0.1932461 -0.045062292 -0.14842606 0.13797638 0.030622033 0.11044701 0.28635296 -0.027378486
-0.2193011 -0.019207114 0.29921773 0.043622777 0.025761701 0.002909939 0.003621184 -0.24711111
-0.023668949 -0.22741634 -0.043792233 -0.28680018 -0.05294012 -0.004987809 -0.15740873 -0.11034083
-0.04158222 -0.34369022 0.00016204471 0.016801983 -0.72976965 -0.106015794 -0.01663229 -0.48068202
0.11067595 0.14751594 -0.43185124 0.045228083 0.07411286 0.22215173 0.1543128 0.053317033
0.109730795 0.022309015 -0.15587214 0.039172884 -0.022928752 -0.19255562 -0.032729946 -0.16680032
-0.16210625 -0.01993844 -0.11275212 -0.029193487 -0.056840423 0.13525967 0.0111940345 0.34058172
0.14441834 0.005394465 0.23494706 -0.036344614 -0.24408485 0.24856561 0.011989409 -0.0630152
0.032379527 0.08133999 -0.13298145 0.08896532 0.0554655 0.008107844 0.1316005 0.020825336
-0.096963845 -0.028616 -0.013197349 0.13785252 -0.009585477 0.07506274 -0.16529477 -0.0368514
-0.08235991 0.1994681 -0.034919612 -0.13924311 -0.09779385 -0.06413516 -0.10374709 -0.004550005
-0.13571785 -0.11493625 -0.009145434 -0.031673316 0.14707956 0.24264926 -0.17039055 0.067130916
0.22439572 -0.19493125 0.037090328 0.16079225 -0.024213493 0.035138533 -0.07890135 0.08909456

model.2.bias f4 [32]
00000000: 8423 d13e ce9c 973e 0f31 dfbd b6a1 afbe
00000010: a1ad cfbe a603 5d3e 30aa c5be 264e 16be
00000020: d142 ba3e 9dc7 0ebf 2358 293e 2cc2 04be
00000030: 8014 d13e 6fa1 0bbf 09d2 dcbe 08f5 9c3e
00000040: 606c 953e 7279 e53c e595 2ebe 99f0 c93e
00000050: 61a0 ac3c fa8a 3fbe 399c 603d 3bf9 6c3f
00000060: 2368 7f3e 6d38 01bf f902 96bd 6d2a b93d
00000070: d501 133e d95a 01be d316 c0be b3f6 06be
0.4084741 0.2961182 -0.10898029 -0.34303063 -0.40562156 0.21583423 -0.38606405 -0.14678249
0.36379102 -0.55773336 0.16537528 -0.12964696 0.40835953 -0.54543203 -0.43128994 0.30655694
0.29184246 0.028012011 -0.17049368 0.39441374 0.021072568 -0.18705359 0.054836486 0.92567796
0.24942069 -0.50476724 -0.07324786 0.09041295 0.14356168 -0.12632312 -0.37517413 -0.13180046

model.4.weight f4 [32]
00000000: 52c7 723f c2ba 553f 2a9e 673f 44dd 5c3f
00000010: f6fe 7d3f b847 7d3f 93f7 7b3f 3ca3 733f
00000020: e990 593f 8bae 7e3f deea 783f 2c78 593f
00000030: 570c 4e3f 062d 7f3f b0ef 513f 4d1a 723f
00000040: 61a3 643f f1f4 633f 6d9c 763f 37e3 5d3f
00000050: 8db2 433f bb6c 7c3f d97b 673f a3ee 483f
00000060: 0d28 4d3f a9d6 5a3f d6db 603f 2190 6a3f
00000070: 9f84 683f 0ed0 483f 9730 793f 3793 363f
0.9483539 0.83488095 0.90475714 0.86275125 0.99217165 0.9893756 0.98424643 0.9517095
0.8498674 0.9948508 0.9723338 0.8494899 0.8048758 0.99678075 0.8200636 0.9457138
0.89311796 0.89045626 0.96332437 0.8667483 0.7644432 0.9860341 0.9042335 0.7848913
0.8013924 0.85483795 0.87835443 0.91626173 0.90827364 0.78442466 0.9733977 0.7131838

model.4.bias f4 [32]
00000000: 94fa 14be bbf6 383e 4239 9cbc 8393 80bc
00000010: 0206 d83d 3a0f edbd d439 f9be 01a8 afbc
00000020: afc4 aebc 5d90 75bb ab9f f0be ea8b 0ebe
00000030: f9cb 4ebd 27b7 02be 2586 99bd ceca 4d3c
00000040: 4c4f 81bd b59d a83e d313 52be 94e9 dcbc
00000050: 6cb7 823e b778 11be c53b 44bf 07ef fc3c
00000060: cf2a 32be 5359 bdbe 3709 80bd dbd2 4f3e
00000070: 474c 003e 779c 943d 2dff 8cbd 2301 0d3c
-0.14548713 0.1806287 -0.019070271 -0.01569534 0.10548021 -0.1157517 -0.48676932 -0.021442415
-0.02133402 -0.003747008 -0.46996817 -0.1392056 -0.050487492 -0.1276518 -0.07496289 0.012560559
-0.06313953 0.3293282 -0.20515375 -0.026966847 0.25530565 -0.14206205 -0.766537 0.030875696
-0.17399143 -0.3698221 -0.062517576 0.20295279 0.12529097 0.07256406 -0.068846084 0.008606228

model.4.running_mean f4 [32]
00000000: d985 053f df42 e13e bda0 003d 856e 21bd
00000010: 96da 53be f7ec 6e3e 1420 0dbe 91da 513d
00000020: 2d2c c13e 0cb4 51be d523 333e 802f 63bd
00000030: 0905 d33e 972e 89be 6b35 12be d93c 713e
00000040: 5a41 c23e e7e3 60bd 3616 5abd 3027 073f
00000050: 2e45 dd3d cc8a dbbd ddf3 893c f6fb 713f
00000060: 4642 913e 8b53 41be fccc 2d3e 29bf 8c3e
00000070: 9ac1 1d3e 6052 c1bd 030a c1bd 3eb9 8bbd
0.5215736 0.4399633 0.031403292 -0.03941204 -0.20688853 0.23332582 -0.13781768 0.05123383
0.37729016 -0.20478839 0.17494138 -0.05546522 0.4121478 -0.26793358 -0.1427819 0.23558368
0.37940484 -0.054904845 -0.05324384 0.5279417 0.108042106 -0.10719833 0.016839916 0.94525087
0.28370875 -0.18879525 0.16972727 0.27489594 0.15405884 -0.0943954 -0.09425738 -0.068224415

model.4.running_var f4 [32]
00000000: 0683 393d be6d 9b3d 4b8f 943c de8a 643c
00000010: c6fe 0b3c 8946 133d 995a 863b 3559 003e
00000020: d36f b93c 1684 633b 46e1 0f3d 3383 7c3d
00000030: 3050 bd3d be93 e53b fb1e 363b d738 273e
00000040: d9c4 173d 22d6 3c3b 8618 363c 97e7 293e
00000050: 19a3 683d 871a 9c3b e1d4 213c fb22 003d
00000060: b7fe ff3c 270b 1f3c d414 273e ae28 8f3d
00000070: d9e4 733d 7cd4 da3b 0026 8a3b 4d07 6a3d
0.04529097 0.07589291 0.018134734 0.013949124 0.008544629 0.03595594 0.0041001556 0.1253403
0.02263633 0.003471618 0.035126947 0.06164856 0.0924381 0.0070061376 0.0027789462 0.16330276
0.037052963 0.0028814157 0.011114245 0.16592251 0.056796167 0.0047639045 0.009877414 0.03128336
0.031249387 0.009707249 0.16316539 0.06990181 0.059544418 0.006678162 0.0042159557 0.05713587

model.5.weight f4 [64, 32, 3, 3]
00000000: b1cb de3c c46e e1bd 7d13 2f3d 76fc 8bbe
00000010: d6f7 b4bd 8e60 76bd 7359 30be 8a2a 09be
00000020: e7ed 933d e4c4 eebb 3ac1 64be 1e40 0bbc
00000030: bece 423d d148 833e 0c52 dc3d 83f7 a9bd
00000040: ab4c c43d 4c7e b23c c874 e13d 7392 febd
00000050: 283d d8bd 580a 4fbb 13fb abbd a50c 743d
00000060: 40c3 65bd ea83 ed3d 86c8 24bd dfc5 4cbe
00000070: b20c a83e 3c8b 8f3e bce4 a7be 7511 2e3e
00000080: d482 923d 48c0 ee3c e679 acbc e2fe a93c
00000090: 0dc1 aabc d03d b7bc ced7 763d f711 a13d
000000a0: b748 d9be 978f 25be db5f 583e 616f d83b
000000b0: 4671 083e 5b31 6b3e d1db 14be 2584 713d
000000c0: 87e2 5e3e 4279 0bbe d6d8 d1bc ce3d 483e
000000d0: 80a8 9dbd 03fc 2bbe a754 1bbe 1fdc 1e3e
000000e0: 0ae4 aabd dc2e 943d d188 623e bb48 353e
000000f0: bb40 76bd d140 56be 76d6 c63d 566f adbc
00000100: a35c 1dbd 5310 263c 3b93 893d aebc 6b3e
00000110: e97e 5e3d adb2 3fbd 7c0d 4e3e 7ec5 9d3d
00000120: ce74 cc3d be30 ddbd 837c f3bd 2ec1 0bbb
00000130: 1ab9 433c 30e0 a03d 1f7f c8be f8ca 42bc
00000140: 2338 b1bc 04a3 5abc 874d 913e 87ee cabd
00000150: 7a79 123e 1f5c 25bd 24e9 923c 7c0f 053d
00000160: a257 c63d 82ee a03c 33d8 f33d 3797 09be
00000170: df83 1ebd 938f 733e d8bd 253d 09dc 703d
00000180: e8ff 7e3e 18d7 d83d c6f9 35bb a74d 3f3e
00000190: d4fc 8b3e 5023 f93d 865d ba3c 8bb4 89be
000001a0: 1a01 97bd 36e7 c53d ac55 24be 09ae c73d
000001b0: c777 cfbc c785 803b 5c38 413c 6f1a b33c
000001c0: b503 8cbe 96c0 2abe adab 39bd b85e fbbc
000001d0: 688b f9b8 598a 583d 7405 a13e 6788 733e
000001e0: 7454 293d dcd5 0fbe bd0e a1bd 36d9 d3bb
000001f0: a4cf 303d f224 eb3d c2d9 bd39 af92 c23d
00000200: d9f6 d63d 2852 16be 0bca 1cbe 459f a63d
00000210: 5599 08bd 0fa3 9ebc 04d7 a2bc b6ff e63d
00000220: 2d9b 783e cd32 493e 637b 6f3d cc59 bdbe
00000230: d465 f5bd be93 ae3d c433 95be f0c7 c9bd
00000240: 63ce 283e 25af 0ebe 721e 13be 8a91 ae3d
00000250: d3e0 213e 74db e83d 2a12 a5be 31e1 1fbd
00000260: 1b9f 11be ead8 9ebd 0df1 29bd 1c80 423c
00000270: e193 8b3d cfcf 80bd 9dc0 133e 599a fabd
00000280: f7f8 d13c 9643 3d3d a34d 95be 34c9 a3bd
00000290: 483a 39be 0ee4 183d 10c1 a83d 8031 4dbc
000002a0: e3c6 cb3d 5209 f33c 606f 3cbd 9d34 05bc
000002b0: 70f4 11be 9735 c43c 59ee 25bb fe58 bf3e
000002c0: 61c6 ba3e 4c30 c8bd 588e 883e 5497 923d
000002d0: 5112 ec3d d85a 05be 44f0 a33d c8ba 06bc
000002e0: fb27 e73a c644 fb3d b979 9cbd 0453 313d
000002f0: f3eb 2d3c 0f0b 80be 5055 2c3d e4fc 873d
00000300: f868 403d 2ae4 6a3e 74a7 e33c 0519 75be
00000310: 4908 613d 3446 d0bd 1b0e 953c 1725 9e3e
00000320: a64a a33e 96f6 81bd 767a b23d 7104 5c3d
00000330: 77a8 17be 10f9 e1bc 93b7 6abd bf73 0cbf
00000340: 609b 1c3e fbcb 94bd 2bfc 49be df7f 8bbd
00000350: 5ddb 4ebd 1746 a7bd 1a13 cf3d 9039 a4bd
00000360: 3d56 f03d 1c2d 303d 574f 2f3e baf0 cf3d
00000370: a142 813d b5b6 333d 9b66 c53d 8e36 ef3d
00000380: 9a6d 23bd 6416 6ebd 4b7a db3e df7e c03d
00000390: 3b09 29bd 5c49 92bd 40a0 0abd 304f 2dbe
000003a0: 5fa8 10bd 07dc 60bd b2bb babd b591 28bd
000003b0: 0580 e6bd ea02 dfbc 4c2c 9a3e 9079 9a3b
000003c0: f0a1 30be c658 363e 7e44 72bd 791a 24bd
000003d0: c09f 03be 859b 86bc 8831 743c 9e88 cf3d
000003e0: 17bb 8e3b 80a2 67be 4b0e f1bc 2210 17bd
000003f0: 5bf0 c93d f395 983e 4549 553e 8208 c7bd
0.027196737 -0.11007455 0.042743195 -0.2734105 -0.088363335 -0.060150675 -0.17221622 -0.13395134
0.07223111 -0.007286655 -0.22339335 -0.008499173 0.047560446 0.25641492 0.10757837 -0.08299162
0.09584936 0.021788739 0.110086024 -0.12430277 -0.1055854 -0.0031591859 -0.08397498 0.05958237
-0.056094408 0.11597426 -0.040230297 -0.19997357 0.32822186 0.28035915 -0.32791698 0.16998847
0.0715386 0.029144421 -0.02105422 0.02075142 -0.020844007 -0.022368342 0.0602644 0.07864755
-0.4243829 -0.16168056 0.21130316 0.0066050743 0.1332446 0.22968046 -0.14536978 0.058963913
0.21766101 -0.13620475 -0.02561609 0.19554827 -0.076981544 -0.16795354 -0.15169011 0.15513657
-0.08344276 0.072355 0.22122504 0.17703526 -0.060120326 -0.20923163 0.09708874 -0.021171253
-0.038418423 0.010135728 0.06717535 0.23021194 0.05432025 -0.046801258 0.20122331 0.07703684
0.09983216 -0.108003125 -0.11888983 -0.002132486 0.011945987 0.0785526 -0.39159486 -0.011889212
-0.021633213 -0.01334453 0.2837946 -0.09908777 0.14304152 -0.040371057 0.017933436 0.03248547
0.096846834 0.01964498 0.11906471 -0.1343659 -0.03869998 0.23785238 0.040464252 0.058803592
0.24902308 0.10587901 -0.0027767285 0.18681966 0.2734133 0.121649384 0.022749674 -0.26895556
-0.07373257 0.096632406 -0.16048306 0.097499914 -0.025325669 0.0039221975 0.011793222 0.02186319
-0.27346578 -0.16675028 -0.04532974 -0.030684814 -0.00011899212 0.052866314 0.31449473 0.23782502
0.041340306 -0.14046425 -0.07864139 -0.0064651025 0.04316677 0.11481656 0.0003621113 0.09500634
0.10496301 -0.14679778 -0.15311448 0.08135847 -0.033349354 -0.019364862 -0.019877918 0.11279242
0.24277945 0.19648285 0.05846728 -0.36982572 -0.11982313 0.08524273 -0.29141057 -0.09852588
0.1648498 -0.13934 -0.14367083 0.08523853 0.1580842 0.11369982 -0.3224042 -0.03903312
-0.1422085 -0.07756217 -0.04148965 0.011871364 0.06815315 -0.06289636 0.14428945 -0.12236471
0.025631411 0.046207033 -0.29160795 -0.07997361 -0.18088639 0.037326865 0.08239949 -0.012524009
0.09950044 0.02966753 -0.046004653 -0.00813022 -0.14253402 0.023951335 -0.0025319068 0.37372583
0.36479476 -0.09774837 0.266711 0.0715777 0.11526931 -0.13022935 0.080048114 -0.008223243
0.0017635816 0.12268977 -0.07640404 0.04329206 0.010615337 -0.25008437 0.042073548 0.06640032
0.046975106 0.229386 0.027789809 -0.23935325 0.054939542 -0.1016964 0.018195203 0.30887672
0.3189289 -0.06345861 0.08714764 0.053715173 -0.14810358 -0.027584583 -0.057303976 -0.54864115
0.15293646 -0.07265469 -0.197251 -0.06811499 -0.05050217 -0.081676655 0.10111065 -0.08018792
0.11735199 0.04301177 0.1712011 0.10153337 0.063115366 0.043875415 0.09638711 0.11680327
-0.039899446 -0.058126822 0.4286674 0.09399199 -0.04126857 -0.071428984 -0.033844233 -0.16924739
-0.03531682 -0.054897334 -0.09117831 -0.041154582 -0.112548865 -0.02722307 0.3011192 0.0047141984
-0.17249274 0.17807302 -0.05914735 -0.04006431 -0.12853909 -0.01643158 0.014904387 0.101334795
0.004355799 -0.22620583 -0.02942576 -0.03688062 0.09860297 0.29801902 0.20828731 -0.097184196

model.5.bias f4 [64]
00000000: 1604 fcbd e026 f6bd 64a3 1fbf 2508 60bf
00000010: a71d d7bd 66d0 e9bc 6c04 03bf d356 7ebf
00000020: bd4d 77be 73f1 3abf ba19 03bf 0752 97be
00000030: 831b 0cbf afd5 f2be dc6c 33bf f422 61bf
00000040: 6d31 62bd dad6 6dbf eb6e 99bc 75b5 13be
00000050: 6357 44be f307 7fbf b0cd 3cbf 3ac0 7abf
00000060: 3aec 963d 62e4 33bf 15a6 73bd fd4d a4bd
00000070: 1f88 02bf 56db 3fbf d077 65bf 6a8d 7ebf
00000080: f9f9 7fbf 3282 38bf 44b1 b9be f41e 13bf
00000090: 7fe9 1dbe cca3 d2be 63fe 7fbf 9b79 0cbf
000000a0: 82eb 9bbd 67bc 4abf bda8 4ebf b4a9 7ebf
000000b0: 8168 9bbe 080f c0be 581f d1be 090f 35bf
000000c0: 727e e7be f609 7fbf 1be6 b0be f34a e4be
000000d0: c468 6bbe 9408 40bf 45af 7dbf 3868 87be
000000e0: 8262 45bf ba4a abbe 5ff6 63bf f779 c2be
000000f0: 18cc 8bbe c5b0 7cbe 3b0f 7ebf 07da b0bd
-0.12305467 -0.120191336 -0.6235869 -0.8751243 -0.105037026 -0.028541755 -0.5117862 -0.99351233
-0.24150749 -0.7302467 -0.5121113 -0.2955477 -0.5472948 -0.47428653 -0.7008798 -0.8794396
-0.055222917 -0.9290596 -0.018729648 -0.14424689 -0.1917396 -0.99621505 -0.73751354 -0.97949564
0.073692754 -0.7027036 -0.05948456 -0.080226876 -0.50988954 -0.74944055 -0.89635944 -0.9943453
-0.99990803 -0.7207366 -0.36268055 -0.57469106 -0.15421103 -0.41140592 -0.9999754 -0.54873055
-0.07613279 -0.7919373 -0.80726224 -0.99477696 -0.30353168 -0.37511468 -0.40844226 -0.70726067
-0.45213658 -0.99624574 -0.34550557 -0.44588432 -0.22989184 -0.7501309 -0.99095565 -0.264467
-0.77103436 -0.3345545 -0.8904781 -0.37983677 -0.2730415 -0.24676807 -0.9924199 -0.086353354

model.7.weight f4 [64]
00000000: 3d8b 463f 2c20 5c3f c5dd 6b3f ae4e 5d3f
00000010: 6d2f 2e3f edec 753f 3c2b 753f 4ee8 6f3f
00000020: 5ffd 443f cf52 483f 060b 283f e2be 393f
00000030: 4be5 343f d152 f33e eb7e 3f3f f98e 5d3f
00000040: 7c2d 783f d3e4 673f 50d4 693f e736 6f3f
00000050: 74fd 653f e24f 5d3f d999 433f 3e6b 7a3f
00000060: 07eb 773f bb8b 4e3f f2a4 5a3f c610 743f
00000070: 08bc 7b3f 8856 393f 21ce 723f 163a 543f
00000080: 99a0 563f 8fe5 3c3f 2bb6 603f 3810 313f
00000090: ac04 3a3f 3f42 1b3f cef9 7f3f 7359 493f
000000a0: ffe7 6b3f 0aef 503f f180 413f 10b4 513f
000000b0: e07f 7f3f fb66 333f b357 6d3f 8a66 253f
000000c0: 0085 3f3f c66c 373f e991 423f 46a6 463f
000000d0: ea33 563f 071f 313f 1284 6d3f 00c9 5d3f
000000e0: bbe1 6c3f 2cc2 6b3f 01a5 643f 9ba7 4d3f
000000f0: b86f 403f c913 e53e f549 543f 80f7 5d3f
0.7755621 0.8598659 0.9213527 0.8644818 0.68041116 0.96064645 0.95769095 0.93713844
0.76949114 0.78251356 0.6564182 0.7255689 0.70662373 0.4752412 0.74803036 0.86546284
0.96944404 0.90583533 0.9133959 0.9344315 0.89839864 0.86450016 0.7640663 0.9781989
0.96843 0.8068196 0.85407937 0.95338094 0.9833379 0.7239766 0.9484578 0.8290113
0.838388 0.7378778 0.87777966 0.6916537 0.7266338 0.6064796 0.99990547 0.78652114
0.9215087 0.81614745 0.75587374 0.8191538 0.99804497 0.7007901 0.92711943 0.6460959
0.74812317 0.7165035 0.7600389 0.77597463 0.83672965 0.6918797 0.9277965 0.86634827
0.9253194 0.9209316 0.89314276 0.8033387 0.7517047 0.44741657 0.8292535 0.8670578

model.7.bias f4 [64]
00000000: 60da 87be 7c23 b3bd 88a3 5fbc 47f1 c1bc
00000010: 9b8f 2a3f cb67 6fbc 8b89 d73e 0310 fabe
00000020: d4b8 3a3e c9b7 49bf 8543 28bf 5024 2a3d
00000030: fed8 753e 86a9 7f3f 989b 2bbe d5e7 ccbe
00000040: 987c b13e d8ba d7bc e605 88bd 9d39 5b3f
00000050: ed35 ddbe 178c 1e3d aa7f 503f b7b8 2bbe
00000060: bc3b 483d 327e cfbe 8182 a3bd 5cac 773d
00000070: 6ebb b3bd 55bb 8dbe 1a21 8abe 6954 42bd
00000080: c644 40be 79b5 36bf 298f e5be ab0c 3dbf
00000090: 84dd 6cbe 16a6 7f3f eb5c 203e 3f87 1ebd
000000a0: 3c70 53bd 18dc fc3c 43b0 17be a98b 34be
000000b0: 8e2f 15bd eb17 7abe 48df e03d 3855 5bbe
000000c0: 3f77 a8bd 184e f9be 5f2e 08bf 8326 f73e
000000d0: ebc4 273d 4280 a13d a3e6 713e a28c ff3e
000000e0: d70e 623e 511c 363e 6d8e 213e 01a8 623e
000000f0: f8a2 1ebe 137c 413f 59bb 1a3d fc39 74bd
-0.26533794 -0.087470025 -0.013649829 -0.02367462 0.66625375 -0.0146121485 0.42097124 -0.4884034
0.18234569 -0.7879606 -0.65728027 0.041538537 0.24008557 0.9986805 -0.16758573 -0.40020624
0.3466537 -0.026334211 -0.0664175 0.85634786 -0.43205205 0.03870782 0.814448 -0.16769682
0.048885092 -0.40525967 -0.07983876 0.06046711 -0.08775984 -0.27681985 -0.2697838 -0.04744378
-0.18776235 -0.71370655 -0.44835785 -0.73847455 -0.23131377 0.998628 0.15660445 -0.0387032
-0.051620707 0.030866668 -0.14813332 -0.17631401 -0.036422305 -0.24423186 0.109800875 -0.21419227
-0.082258694 -0.48692393 -0.53195757 0.4827157 0.04095928 0.07885791 0.23623137 0.49911982
0.22075973 0.1778424 0.15776987 0.22134401 -0.15491855 0.7557995 0.037776325 -0.05962561

model.7.running_mean f4 [64]
00000000: 8f9b 82bd f530 203f f4b9 bcbe affc 13bf
00000010: 8202 9abe 36cc b93e 0f2f 8ebe 8516 0fbf
00000020: ca5d f03d 746a a73b 2ee7 543e 79da 45be
00000030: 7919 833c c35d 03bf 2b01 e4bd f67c 833d
00000040: ca52 803e eb2c e8be bbc0 453f ae41 c7be
00000050: 4eed 2a3f 404d 23bf 2d43 dcbe d9ca 12bf
00000060: 688b a0bd 05ff c4be 60e8 153e 9605 cfbc
00000070: 8440 b6be 4841 a2be d418 43be fdd8 4dbf
00000080: 3990 12bf b8d9 d3be 56e6 483e 0f67 56be
00000090: 647c 263f 7eb2 e9be 1493 1bbf 499b 3dbe
000000a0: 204e 42be ae01 16bf 6d0b c5be dbc4 24bf
000000b0: 903c f83d bbab 3cbe 2b9d 71be 044f 06bf
000000c0: 41c8 bebe 018e 8bbe 0d6f d23e 1587 ebbe
000000d0: 66ef 22be 4f4d b7be dc69 26bf ff5c e33d
000000e0: 472c 1ebf 2f4a e9be 4f1d ebbe a54c 87be
000000f0: 3b16 0cbe c5cf a9bd 8872 05bf f941 5c3e
-0.06377327 0.625747 -0.3686062 -0.5780744 -0.30080038 0.36288613 -0.27770278 -0.5589374
0.11736639 0.0051091257 0.20791313 -0.19321622 0.016003357 -0.51314944 -0.11133035 0.06420319
0.25063163 -0.4534677 0.7724721 -0.38917297 0.6676835 -0.6378975 -0.4302 -0.5734077
-0.0783909 -0.38475814 0.14639425 -0.025271218 -0.35596097 -0.3169043 -0.1905244 -0.8040922
-0.57251316 -0.41377044 0.19619116 -0.20937751 0.65033555 -0.4564399 -0.607713 -0.18516268
-0.18975115 -0.58596313 -0.3848528 -0.6436288 0.121209264 -0.18424885 -0.23595111 -0.5246432
-0.37262157 -0.27256778 0.4110035 -0.46001497 -0.15911636 -0.3580117 -0.6500528 0.11101722
-0.6178631 -0.4556441 -0.45920798 -0.26425663 -0.13680355 -0.08291582 -0.52127886 0.21509542

model.7.running_var f4 [64]
00000000: 0da5 3b3f b180 ed3f 3f70 563f a302 ee3e
00000010: 5676 803f 91f8 d33f e735 543f 1cd5 b33e
00000020: dee4 ab3f caa6 d93f ae19 1840 a661 293f
00000030: e5a6 b33f 7c04 da3e 919c 1f3f f967 0840
00000040: c606 5c40 36c4 c23e 7cec a13f ccc7 153f
00000050: 92a1 0d40 1964 ab3e 4d21 753f b1bf 113f
00000060: fcba db3e afbe d13e caaa 4d3f a6cd fa3e
00000070: af65 2a3f 348c 0b3f bed6 443f 3be6 9a3e
00000080: 6b08 c03e 30f4 083f 2509 cd3f ca39 983f
00000090: 5310 c73f d120 8c3f a6f1 573e 74ec 683f
000000a0: 1ca9 0d3f 9167 163f 1486 023f 1633 c93e
000000b0: 6a25 4640 c893 8b3f 0c08 583f 59b0 073f
000000c0: 85c9 253f 1d0a 0f3f c29b ae3f cd68 e33e
000000d0: 9f1e 1a3f d5a6 ff3e 0638 683e f9be 623f
000000e0: 33dd 6b3e ea27 063f 0588 bf3e f1fd 4e3f
000000f0: e62d 6f3f 173b 0f40 50f6 b33e dd4c 753f
0.7329872 1.8554899 0.83765024 0.46486387 1.0036113 1.6560231 0.8289475 0.35123527
1.342922 1.7004025 2.3765674 0.66164625 1.4035307 0.42581546 0.62348276 2.131346
3.4379134 0.38040322 1.2650294 0.5850799 2.2129865 0.33474806 0.9575394 0.5693312
0.42916095 0.40965793 0.8033873 0.48985022 0.66561407 0.5451081 0.7689017 0.30253777
0.37506422 0.534976 1.6018416 1.1892636 1.5551857 1.0947515 0.21088275 0.909858
0.55336165 0.5875178 0.50985837 0.39296788 3.0960336 1.0904474 0.8438728 0.5300346
0.6476062 0.55874807 1.3641284 0.44415894 0.60202974 0.4993197 0.22677621 0.8857265
0.230336 0.52404654 0.37408462 0.80856234 0.9342941 2.2379816 0.3514886 0.9582041

model.8.weight f4 [128, 64, 3, 3]
00000000: 3489 b33e 6f7d 1dbe 0932 4d3d bab4 4b3d
00000010: 45ee 4dbe ba4b 6c3d 295b 70bd d0e3 a03c
00000020: 11de da3c afc7 693d 5ac1 0a3e 3162 0f3c
00000030: 4940 003e fca1 863e e996 a23e adf8 6c3e
00000040: 0a7a 2b3e faeb 9ebc 320e a83e 8eff 69be
00000050: b0d6 67be 1469 8d3e b736 1c3e 57a8 c0bd
00000060: cd96 273d 5694 603e 33ad 343d eb1c 2abe
00000070: 5947 97be adc0 9f3d de66 503e 9dfd fcbd
00000080: 72a0 a8bb 5a86 ad3d f075 5bbe f335 17bd
00000090: a0d6 19be 5052 a93d 919f 543e f69a 05be
000000a0: 3d3b 0d3c b883 5c3e 3466 41bd 18cf af3a
000000b0: 4209 cc3c 4e0b 2e3e 075a f03c 9ae2 6c3d
000000c0: 3c4e 143e e937 7c3d 3de8 2b3d 74dd 2bbd
000000d0: bc63 2c3e a44f 92bc f0ce 9ebc dd84 213e
000000e0: 4dd2 e53c cca3 33bd 7aaf d2be 6d52 343d
000000f0: 6e42 10be 84bb 81be fbed e93d bde9 a73e
00000100: 6b0c 0d3e c4d8 a43b 214d 3f3e c26c 933d
00000110: d489 b1bc 2802 873d 7213 82bc 9fde 163d
00000120: 83e6 263e dae7 513d 82c1 c93c 914f 85be
00000130: e224 3dbe 1c98 86be ee98 3abd cd31 5f3d
00000140: c6f6 d43d 764c 20be 482a 10be 9137 253e
00000150: 7f4e 873b 42e5 993b bfad 2d3e e968 283d
00000160: e0c3 da3d e67c fe3d 2c5b e53d 65cc 47be
00000170: 2114 a7bd 3869 063e f53c 62be 5b4c cf3d
00000180: 3e8f 1f3e c498 9d3e 9616 bf3d f3ef 183e
00000190: 070b 48be a128 e53d a456 d53e 958d 19be
000001a0: b7ff 493e 14e8 bb3d b00d bcbd a855 183e
000001b0: 17c2 87be e7dd 1c3e 757e 613e 9c8c edbd
000001c0: ea43 b1bd 2e34 c93d a0a9 f83c cc0d ddbd
000001d0: 0a7f d83d 3d2a 6ebe 1dc7 d73d d1f5 6e3e
000001e0: a7f9 a7be 8bf8 fdbe c1e1 07be 86cc 14be
000001f0: d3e5 6ebe b986 cfbe 2f25 00be 5929 cc3d
00000200: 911d 1f3e 47e2 fabd dc33 fd3c cd7d 353d
00000210: 2496 103e c5e5 013e ec90 933c 0697 983e
00000220: f29d 423d ca4c 09bd 4f07 173e 68f0 7b3d
00000230: bf3f 7a3d 8aed fd3d ba66 c1bd b96c 033b
00000240: 18d3 84bd 5efd c9bd 804d 043d b9f1 b2be
00000250: 8a89 f4bb aee4 f7bd 3c48 45be d555 e4bc
00000260: a30f 20bd ce3c ad3d b5d7 40be 2a3a d2bd
00000270: 13b2 d8be 95ef 49be 621e 30be 6b69 45bd
00000280: d807 30bd 823c bb3c 0a39 0abe 9724 e6bc
00000290: 27e6 143e ed6d 23bd 3e99 6b3d 02da 993d
000002a0: 47b4 3e3e fb40 e03b 6762 973c c7f8 bf3d
000002b0: fff1 d93e 44a3 efbc 6638 98bd 55e2 0b3e
000002c0: cd05 2cbe ceef 15be 7c12 5a3e 234f d8bd
000002d0: d052 e63b 41ba 903c 4ba8 643d d4b2 b03d
000002e0: 477e 8ebb 78e1 033e b385 d03d 31d2 96bc
000002f0: 4d30 993d 9cd3 8c3e 27c0 053e ca0a e9bd
00000300: 44ac 5abe 02ef 5abe 5cd9 d33b 2932 293e
00000310: 4383 a6bd 669d fa3d 0cca bebc 1c0f 3cbd
00000320: 78d5 94bc 0002 20be 0e6f bfbd b482 55be
00000330: 3cc7 68be c53f a7be 635a dcbd f566 303e
00000340: dcaa 693d b4e9 83bd e290 4cbe dcf6 9f3c
00000350: e7e2 153d 70b5 103d 4607 1bbd b275 323d
00000360: 8b66 da3d e92c c43d 82d2 ee3d ae20 41bb
00000370: 1e40 ae3d 57b2 d43c 15c1 413e 0ece b7ba
00000380: b1c0 7f3d 0889 f93d e7c9 aabb 9c69 033d
00000390: b3b4 053e c2ad febd de0a 553c 7f26 c43d
000003a0: 34b2 5abd b5e3 25bc e2b1 ae3d fda9 673d
000003b0: bb61 b93a 0ffd 403e 5243 a43a 8105 723d
000003c0: df5e 533d 20cf 343e a4c5 adbd 3cfe ba3d
000003d0: fc2e 94bd 0c2e 2bbc c9c6 a73d 2688 0bbe
000003e0: dcad 4b3d ab3b 25bd 03e9 b83c 6f12 063d
000003f0: 503b f53d 540e bb3d a98c 3fbc 88ce 353e
0.35065615 -0.1537988 0.050096545 0.0497329 -0.20110424 0.057689406 -0.058680687 0.01963988
0.026717218 0.0570752 0.1355032 0.008751438 0.12524523 0.2629546 0.3175576 0.23141737
0.16745773 -0.019399632 0.3282333 -0.22851393 -0.2264049 0.2761923 0.15255247 -0.09407108
0.0409153 0.21931586 0.04411049 -0.16612594 -0.2954662 0.07800422 0.2035174 -0.123530604
-0.0051460797 0.08472891 -0.21431708 -0.036916684 -0.15023279 0.08267653 0.20763995 -0.13047394
0.008620081 0.21534622 -0.04721661 0.0013413159 0.024906758 0.169965 0.029339803 0.05783329
0.14482969 0.061576758 0.041969527 -0.04195924 0.1683492 -0.017860241 -0.019385785 0.1577334
0.02805438 -0.04385738 -0.41149503 0.04402392 -0.14087841 -0.25338376 0.11422344 0.32795516
0.13774268 0.0050307233 0.18681766 0.07198478 -0.021672167 0.06592208 -0.015878413 0.0368334
0.1629887 0.0512465 0.024628405 -0.26037267 -0.18471101 -0.26287925 -0.045556 0.054490853
0.10398631 -0.15654168 -0.14078629 0.16134478 0.0041292305 0.004696519 0.1696081 0.041115675
0.106818914 0.12426166 0.1119903 -0.19511564 -0.08158136 0.13126075 -0.22093566 0.101219855
0.15581986 0.30780613 0.0933048 0.14935283 -0.19535457 0.1118939 0.41667664 -0.14995416
0.19726454 0.09175125 -0.09182298 0.14876425 -0.26515266 0.15319024 0.22020896 -0.11599085
-0.08655532 0.098244056 0.030354321 -0.10793647 0.10571106 -0.232583 0.10536025 0.23335959
-0.32807657 -0.49603686 -0.13269712 -0.14531144 -0.23329858 -0.40532473 -0.12514184 0.09968824
0.15538622 -0.1225019 0.030908518 0.044309426 0.14119774 0.12685306 0.01801344 0.29802722
0.04751391 -0.033520497 0.14748882 0.061508566 0.06109595 0.123988226 -0.09443422 0.0020053817
-0.064855754 -0.09862779 0.032300472 -0.34950045 -0.007462685 -0.12104164 -0.19265836 -0.02787296
-0.039077412 0.08458863 -0.18832286 -0.10265 -0.4232336 -0.197203 -0.1719909 -0.048196238
-0.04297623 0.022856 -0.13498321 -0.02809362 0.14540921 -0.039899755 0.05751919 0.07512285
0.18623458 0.006843684 0.01847954 0.093736224 0.4256744 -0.029252656 -0.07432632 0.13660558
-0.16799088 -0.1464226 0.21296114 -0.10561969 0.007028915 0.017666938 0.05582456 0.08627859
-0.0043485495 0.12878978 0.10181751 -0.018410774 0.07479916 0.27505195 0.13061582 -0.11379011
-0.21354777 -0.21380237 0.0064651202 0.16523041 -0.08130505 0.122370526 -0.023289703 -0.045912847
-0.018168196 -0.15625763 -0.09347354 -0.2085064 -0.22732252 -0.3266584 -0.107594274 0.17226775
0.05704771 -0.0644106 -0.19977143 0.019526891 0.036593344 0.035329282 -0.037848733 0.043569274
0.1066409 0.095788784 0.11661245 -0.0029468942 0.08508323 0.025963945 0.18921311 -0.0014023201
0.062439624 0.1218434 -0.005212057 0.03208314 0.13057213 -0.124354854 0.013003079 0.09577655
-0.053392604 -0.01012509 0.08530022 0.056558598 0.0014143506 0.18846534 0.001253227 0.05908728
0.051604148 0.17657137 -0.084849626 0.091305226 -0.07235524 -0.01044799 0.08192212 -0.13626155
0.049726352 -0.040340107 0.022572046 0.032732423 0.119742036 0.09133592 -0.011691251 0.17754567

model.8.bias f4 [128]
00000000: 2010 fdbe c2b5 42be a9dc c5be 7135 96bd
00000010: 9ffc a63d a42b 6dbe a087 e6be f71a f2be
00000020: 0f5f ddbe 088b 28bf 4611 bfbe c51d b6bc
00000030: ac70 3dbe 7860 98be 0971 9fbd a601 f4be
00000040: dbfa 25bf 16a6 ebbe c721 67be 29cf 1cbf
00000050: 1062 a2be a1a5 8abe 97b2 643e 4adb a4be
00000060: 3969 e5be 6196 cabe 859b febd da7c e5be
00000070: b145 1dbe c6cd e0be 1284 d6be 2386 5abf
00000080: 5d04 7cbe afce a4be 3a0f 0abf e66a 3abf
00000090: 06a9 b6bd 4859 33bf 510e 89be 40d6 f4be
000000a0: 49ce 22bf bb71 7fbf a145 54be 489f 8fbe
000000b0: a07b f5be af96 c7be a202 b13d 9226 2cbf
000000c0: 4f15 dfbe 714f 87be 53fe 82be a08e 18be
000000d0: 329c bbbe 4b8b b1bd d9a9 abbe be0e 9fbe
000000e0: 3373 cdbe 3d6f 1dbf fd6c 72be d729 3bbf
000000f0: 49c0 f3be 7e62 14bf 17f3 43bf 644e 8abe
00000100: 5cf3 cfbe 0ab4 97be 8b8c 6abf a40e 10be
00000110: bc39 29bf 1afd 2cbf 4e5f 97be c2cf bcbc
00000120: c1f3 d2be 982b f4be 27f2 a1be 8e15 fcbe
00000130: f36f 12bf a73b 0cbf cf27 b0be e00b 41be
00000140: 4605 4fbe 6eba 23bf 25be ebbe 0b20 80bd
00000150: 7d29 16bf 317e 87be 85fd 1fbe f64d 7aba
00000160: d0ec aebe f6d7 9abe 9c32 25bf 8b22 c9be
00000170: 36f5 a5be 8033 39be 1f47 b0be e83c 94be
00000180: e040 75be a9b1 15bf e5e3 a4be 8d08 0dbf
00000190: 5cbe 4e3e c015 00bf 4f54 68be 8201 0ebf
000001a0: 639f 6fbe 569d 9cbd 9cc4 7ebf 5252 31bf
000001b0: 1285 72be 37d2 6c3d 5706 3abf a7a0 41be
000001c0: bfce c53d b56e cdbe 996c 24be 09ff 12bf
000001d0: 3d80 27bf 9054 a4be 0066 e5be e80b edbe
000001e0: eb35 f7be c8b8 4b3e 91ff b13c 01d2 20bf
000001f0: 0b8c 06bf f591 25be 12e3 7dbf 9dcc 41be
-0.49426365 -0.19014648 -0.38644913 -0.07334412 0.081536524 -0.23161179 -0.4502535 -0.47286198
-0.43236586 -0.65837145 -0.37317866 -0.022230992 -0.18500012 -0.297611 -0.077852316 -0.47657508
-0.648359 -0.4602515 -0.22571479 -0.612536 -0.3171544 -0.2707949 0.22333752 -0.32198554
-0.4480684 -0.39567855 -0.12432007 -0.44821817 -0.15358616 -0.43906993 -0.41897637 -0.85360926
-0.2461104 -0.32188937 -0.53929484 -0.72819364 -0.089189574 -0.7005811 -0.26768735 -0.4781971
-0.63596016 -0.99782914 -0.20729686 -0.2805121 -0.4794588 -0.3898215 0.0864308 -0.67246354
-0.43570945 -0.26427796 -0.2558466 -0.14898157 -0.36642605 -0.08669146 -0.3352802 -0.31065935
-0.40126953 -0.6149786 -0.23674388 -0.7311072 -0.4760764 -0.5796279 -0.765428 -0.27012932
-0.40615356 -0.29629546 -0.916207 -0.14068085 -0.6610372 -0.675737 -0.295649 -0.023048285
-0.41201594 -0.4768951 -0.3163006 -0.49235195 -0.5720207 -0.5477852 -0.34405372 -0.18852186
-0.20216855 -0.63956344 -0.46043506 -0.06256112 -0.58657056 -0.26463464 -0.15624054 -0.000954836
-0.3416505 -0.3024289 -0.6453035 -0.39284167 -0.32413644 -0.18086052 -0.3442926 -0.28952718
-0.23950529 -0.5847421 -0.3220512 -0.5509117 0.20189804 -0.5003319 -0.22688411 -0.5547105
-0.23400645 -0.07647197 -0.9951875 -0.69266236 -0.23683575 0.057817664 -0.72665924 -0.1890894
0.09658574 -0.40123525 -0.16057052 -0.574204 -0.6543005 -0.32095766 -0.44804382 -0.46298146
-0.48283324 0.19894707 0.021728309 -0.6282044 -0.5255744 -0.1616896 -0.99174607 -0.1892571

model.10.weight f4 [128]
00000000: 7532 7f3f 8535 7f3f 2778 7e3f 01ad 643f
00000010: 4ad4 7e3f 7126 7f3f 3098 7e3f 2d32 5c3f
00000020: fbd8 7e3f b49b 663f ad45 763f 1fa2 783f
00000030: 8fbe 7d3f effa 7e3f a7ed 703f 62f3 693f
00000040: 6030 7f3f 342b 7f3f 4510 7f3f 6ed1 5c3f
00000050: 008c 7e3f 0db1 7b3f d47e 4a3f 032b 7f3f
00000060: 5756 7e3f b782 573f 8892 6d3f d8fd 7e3f
00000070: f253 7d3f a5b3 7e3f cf06 5a3f fee4 7e3f
00000080: ff4e 6e3f ca79 7e3f cc8a 7e3f 5d5c 7f3f
00000090: 8ccc 653f 6a1e 713f a776 7f3f 2cc4 7d3f
000000a0: c40a 483f dd50 7f3f d899 553f b848 7f3f
000000b0: 4503 7f3f 4e82 7e3f 10bd 7a3f 32d5 7e3f
000000c0: bf65 7e3f 8138 7f3f 9556 723f 3e3a 7f3f
000000d0: 0d87 7e3f e3fa 7c3f 5e47 7a3f f5e5 773f
000000e0: 8473 7e3f b008 7f3f 2332 7f3f cd72 7d3f
000000f0: 00fb 7e3f f8b3 5f3f 4728 7f3f fa5a 3a3f
00000100: 5258 7e3f 0593 7d3f 8dc9 7e3f 522e 6b3f
00000110: 42b8 7e3f dd27 7c3f e162 793f d7b4 6b3f
00000120: fb4d 7f3f e2c1 6e3f 3eae 7e3f 2971 7e3f
00000130: 656e 573f 5469 673f 9a26 7f3f a796 783f
00000140: 1fa0 6e3f 1313 7f3f fd12 7e3f bc9a 7f3f
00000150: f80f 7e3f 3bd4 623f ac59 7c3f 21fd 703f
00000160: 5b72 7f3f dff7 6d3f eb26 7f3f d774 7f3f
00000170: 6ceb 793f 9edf 7c3f 9375 5e3f 1dd6 7e3f
00000180: 48d9 633f 876e 7f3f 150d 7e3f 34c1 7e3f
00000190: a251 7f3f 1ec1 4d3f e741 7f3f abc1 7e3f
000001a0: dabb 7a3f c1b2 773f 6857 7f3f add8 7e3f
000001b0: 65d6 793f 563a 743f 3e0d 7f3f 723b 7c3f
000001c0: 72ef 7d3f 0805 7f3f a0dd 6c3f 4058 7f3f
000001d0: 2797 7e3f dfb3 7f3f 4f33 7f3f f6e1 7e3f
000001e0: 6fbf 7e3f 8779 7b3f bff2 6e3f f7e6 7e3f
000001f0: 18f7 7e3f 8f06 7e3f 2c5e 7f3f 6edb 6a3f
0.99686366 0.9969104 0.9940209 0.89326483 0.9954268 0.9966803 0.9945097 0.8601406
0.99549836 0.90081334 0.96200067 0.9712238 0.99118894 0.99601644 0.9411263 0.91387
0.9968319 0.996753 0.996342 0.86257064 0.99432373 0.98317033 0.79099774 0.99675006
0.99350494 0.8418383 0.92801714 0.99606085 0.98956215 0.99492866 0.8516664 0.99568164
0.9308929 0.99404585 0.9943054 0.9975031 0.8976524 0.94187033 0.99790424 0.9912746
0.7814143 0.9973276 0.8343787 0.99720335 0.99614364 0.9941758 0.97944736 0.9954406
0.99374 0.99695593 0.94663364 0.99698246 0.9942482 0.9882032 0.9776515 0.9683526
0.9939501 0.9962263 0.9968588 0.990033 0.99601746 0.87383986 0.99670833 0.7279507
0.99353516 0.9905246 0.9952629 0.91867554 0.99499905 0.98498327 0.974165 0.92072815
0.99728364 0.9326459 0.9948462 0.9939142 0.84152824 0.9039509 0.99668276 0.9710488
0.93213075 0.9963848 0.99247724 0.9984548 0.99243116 0.8860509 0.9857433 0.94136244
0.9978387 0.92956346 0.9966876 0.9978766 0.9762485 0.9877871 0.86898154 0.9954546
0.8900342 0.99778026 0.9923871 0.99513555 0.99733937 0.803728 0.99709934 0.99514264
0.9794289 0.9675713 0.99742746 0.9954937 0.97592765 0.95401514 0.9962958 0.98528206
0.9919349 0.9961705 0.9252567 0.99744034 0.9944939 0.99883837 0.99687666 0.9956354
0.99510854 0.9823231 0.9333915 0.99571174 0.99595785 0.9922876 0.9975307 0.91741073

model.10.bias f4 [128]
00000000: fe84 a93d f5e9 0b3c 7601 903c dfbd 09bc
00000010: 94c5 91bc 43d2 163c c1fa 28bc f112 f03b
00000020: 717c 913b 1c8c ca3b 6cd7 2e3c 5f52 333c
00000030: 6c53 283c a3d0 0b3d d4a2 983c 2b2b 873d
00000040: 2ef8 29ba 1b61 d9bb 42fb 95bc 0dd5 8b3d
00000050: 808c 2e3c 6d17 43bc f756 313c 093e 1b3c
00000060: 03ac 673d 5d22 813d 0490 e03c 4366 0f3d
00000070: 417a 1d3d 81c9 f53b de7d dd3c 9789 f53b
00000080: 6063 ffbb e60f d33b 1673 8d3c 949c 1d3d
00000090: 27eb 033d 2df7 d53c d40f 483b a994 8cbc
000000a0: 7eda 21bd 602e 743d 6e4a 1c3d bc0d 4e3d
000000b0: 7fa7 573c 48fc fc3c 6b79 5739 2aff ee3d
000000c0: ff7c 343d 5467 193c 39b4 d03c 8f21 b53c
000000d0: f5ad 1fb9 b5ae cb3c 5cbd 353c f691 813d
000000e0: a8db 2c3c 2580 c43b cf2a c33d 9bab 063d
000000f0: 49f0 783b 48ca ca3d 12be ae3c 82a0 093d
00000100: d526 343d eb70 2b3a f21d 643d a4b0 393c
00000110: d432 cabd aee7 8fba 2749 1abd b5d9 733d
00000120: 1656 dbbc f877 d73c 115a 633b 2acd 7a3c
00000130: 3979 9ebc 58d3 053d b487 f5bb 5675 ce3c
00000140: ed76 c5bd 86af 453c 5e90 8b3c 4908 493d
00000150: 8c9a 47bc 77d4 953c 4982 5e3c 4665 fbbb
00000160: 0d93 e33c bc54 1d3c fe3c 373b 3187 9a3a
00000170: 025e 643d 5460 913b 9a18 383d 623f 023c
00000180: 1ef0 573d ed0a 8e3d 0afe f9bc d42d 2c3c
00000190: d0d1 563c 64a8 843d c651 183c a849 c33c
000001a0: 7171 9a3c 95d7 aabc 7b2a 47bb 8e92 d43c
000001b0: 8aaa 163d cd69 ae3c ccd2 a13c d1b6 8c3c
000001c0: 8be0 bc3c 50da f93b f399 223d aced 033d
000001d0: e7de abbc a765 853b ad89 093c 34cd 6e3b
000001e0: a12a 96bd 2c3c abbb e657 883c 2979 ec3b
000001f0: 10bb 743c 44ed 00bd 74ad 113d 0bec 8cbd
0.08277319 0.008539666 0.017578822 -0.008407085 -0.017794408 0.009205404 -0.010313691 0.0073264767
0.0044398834 0.006181253 0.010671478 0.010944932 0.010273796 0.03413452 0.01863233 0.066000305
-0.000648382 -0.0066338903 -0.018308286 0.068277456 0.010653615 -0.011907441 0.010823957 0.00947524
0.056560528 0.063053824 0.027412422 0.035009634 0.03844667 0.007500828 0.027037557 0.0074932086
-0.007793829 0.006441104 0.017266791 0.038479403 0.03220668 0.02611884 0.0030527012 -0.01716073
-0.03951501 0.05961454 0.03815692 0.050306067 0.013162493 0.030882016 0.0002054923 0.116697624
0.044064518 0.009363014 0.025476562 0.022110729 -0.00015228226 0.02486358 0.01109251 0.06326668
0.010550417 0.0059967213 0.095296495 0.0328785 0.0037985018 0.09901863 0.021330867 0.033600338
0.043982346 0.00065399584 0.05569262 0.011333618 -0.09872976 -0.001097908 -0.03766742 0.059533793
-0.026774447 0.026302323 0.0034691135 0.015307704 -0.019344913 0.032672256 -0.0074929837 0.025202435
-0.09641824 0.012065774 0.017036613 0.049080167 -0.012182843 0.018289788 0.013580867 -0.007671985
0.02778008 0.009602722 0.0027959938 0.0011789558 0.055753715 0.004436532 0.044945337 0.007949682
0.052719228 0.06935678 -0.030516643 0.010508973 0.013111547 0.064774305 0.00929684 0.023838833
0.018852921 -0.02085475 -0.003039031 0.025948789 0.036783732 0.021290684 0.019753836 0.017177017
0.02305629 0.007624902 0.0396976 0.032209083 -0.020980312 0.004070956 0.008394641 0.0036438229
-0.073323496 -0.005225679 0.016643476 0.007216592 0.014937177 -0.031476274 0.03556581 -0.06880959

model.10.running_mean f4 [128]
00000000: f751 a6bf 6d72 c2bf 6bd4 9ebf 15e1 0e3f
00000010: 9ca6 8abf 1686 a4bf 7547 e2bf a15a bcbe
00000020: 71b8 9abf 651f b0bf 36b9 12bf d38b 4a3f
00000030: 05b8 19bf d37e 8bbf c492 743e 823d 723e
00000040: 44d7 c4bf 1421 f7bf c542 a3bf f2a1 76bf
00000050: d63a 88bf 4bf0 7abf 400d 6e3f 537d ebbf
00000060: 848e 423f 323a c7be eced 7fbe 4d5b afbf
00000070: 1a81 a33e a9fb 88bf dd5f f6be c4b0 a8bf
00000080: 4be5 8abf 94cb 8fbf 9e6e 97bf 5566 bebf
00000090: b2ba 6abe f820 5dbe 789a 8bbf b4dc 8bbf
000000a0: a7ee 75be 3977 c3bf 8294 a2be 8283 bfbf
000000b0: 3243 b1bf cf88 cfbf 1e0e 0dbf 0dd1 d8bf
000000c0: 7404 a5bf 971a c6bf 05fa 033f 919b 74bf
000000d0: 5f33 9cbf 6d13 75bf feed bdbd edd2 4dbe
000000e0: ab9a 8cbf 34b4 dfbf 09d2 8abf 2ab6 e0bf
000000f0: 91bd 99bf 34d4 52bf 4041 dabf a9a6 76bf
00000100: 1af4 9bbf b257 66bf 3fe2 fabf 2ddb 8ebe
00000110: e430 cfbf 1e28 7fbf 895c 64bf d136 9ebe
00000120: 9b23 afbf 381f cbbe 21ae e9bf ab9b adbf
00000130: f6bc 61bf e102 b5bf e9ce 88bf ea1d ddbd
00000140: a66b bc3f eabc bdbf dc61 dc3f d19a 833f
00000150: 90ff 8fbf 744d 04bf 5efc aebe ba2d a83e
00000160: 66f7 a7bf 3c6a 283d 947f d4bf dcfb 9bbf
00000170: 4114 453e cd27 34be f72d 6bbe 740c 62bf
00000180: 72aa 0fbf b6db a0bf 1faa 96bf dcc2 cebf
00000190: 9b52 3d3f 95e2 26bf 76a8 debf dfed d4bf
000001a0: 4df7 5b3f 8932 81bf df7c e1bf 4217 c2bf
000001b0: 9585 153d 2b20 7d3f 491f 86bf 8095 b6be
000001c0: 62b4 a33f 0a00 95bf b1d8 a0bf a4bd 5dbe
000001d0: dd48 c6bf c490 81bf eb15 95bf dfe4 4cbf
000001e0: cae4 b3bf e9fd 003f b575 153f 8dbf bebf
000001f0: 7e11 c7bf 7a1e db3f aece 08c0 eaf8 b33f
-1.2993764 -1.519117 -1.2408575 0.558122 -1.0832095 -1.285342 -1.7678057 -0.36787894
-1.2087537 -1.3759581 -0.5731386 0.79119605 -0.60046417 -1.0898079 0.23884112 0.23656276
-1.5378194 -1.930697 -1.2754751 -0.9634086 -1.0642955 -0.9802291 0.9298897 -1.8397621
0.7599871 -0.38911587 -0.24993104 -1.3699738 0.31934434 -1.07018 -0.48120013 -1.3178945
-1.0851225 -1.1234002 -1.1830633 -1.4874979 -0.22922781 -0.21594608 -1.0906515 -1.0926728
-0.2401682 -1.5270759 -0.31753927 -1.4962008 -1.3848631 -1.6213626 -0.55099666 -1.6938797
-1.2891984 -1.5476865 0.51553375 -0.95549875 -1.2203177 -0.95732766 -0.09273909 -0.20099993
-1.0984701 -1.7476869 -1.0845348 -1.7555592 -1.2010976 -0.82355046 -1.7051163 -0.96348053
-1.2183869 -0.8997756 -1.9600295 -0.27901593 -1.6186795 -0.9967059 -0.892037 -0.30901197
-1.3682741 -0.39672256 -1.8256265 -1.3563131 -0.88178957 -1.4141504 -1.0688144 -0.10796721
1.4720352 -1.4823277 1.7217364 1.0281621 -1.1249866 -0.51680684 -0.34176916 0.32847387
-1.3122375 0.041116938 -1.6601434 -1.2186236 0.19246008 -0.17593308 -0.22966753 -0.8830025
-0.56119454 -1.256705 -1.1770667 -1.6153216 0.7395417 -0.65189487 -1.739516 -1.6635092
0.85924226 -1.0093547 -1.7616233 -1.5163348 0.036504347 0.9887721 -1.0478297 -0.35660934
1.2789423 -1.1640637 -1.2566129 -0.21654373 -1.5490986 -1.0122304 -1.1647314 -0.8003673
-1.4054196 0.50387436 0.5838273 -1.4902207 -1.5552213 1.7118676 -2.1376147 1.4060338
