Lab4/models/gan_models/ls_vbng_1000e_500b_dis_torchgan.pth (torch, 403159 bytes, 22 tensors)

model.0.weight f4 [16, 3, 3, 3]
0	0xbc20d655	-0.009816726
1	0x3c4c2415	0.0124597745
2	0x3dd0e636	0.10200159
3	0xbe16015c	-0.14648956
4	0xbd50e0fd	-0.050995816
5	0x3d5498c0	0.051903486
6	0xbe053978	-0.13010204
7	0xbce91a92	-0.028455053
8	0x3e060632	0.13088301
9	0x3d0843ff	0.03326797
10	0x3d4281c4	0.047487035
11	0x3dec89e1	0.11549736
12	0xbdef0b37	-0.11672061
13	0xbd4acd6e	-0.04951232
14	0x3d5d2960	0.053994536
15	0xbd502ac4	-0.050822034
16	0x3bad3224	0.0052855182
17	0x3ddee279	0.1088304
18	0x3ce416be	0.027842876
19	0x3cc02ee7	0.023459865
20	0x3df452b9	0.119298406
21	0xbdfc92e4	-0.12332705
22	0xbd72c492	-0.059269495
23	0x3d263c6a	0.04058496
24	0xbc97853f	-0.018496154
25	0x3b43f8a4	0.002990284
26	0x3da79dbd	0.08184383
27	0xbcb2c2f1	-0.02182147
28	0xbb6b21ae	-0.003587823
29	0xbba90d51	-0.005159058
30	0x3caeb4e2	0.021326486
31	0xbb889029	-0.004167576
32	0x3ce93cc9	0.028471367
33	0x3b7016f8	0.0036634784
34	0x3d8248f5	0.06361572
35	0x3d5e4cb5	0.054272372
36	0xbd36b765	-0.044608492
37	0xbd35df69	-0.044402514
38	0xbd7a1f0d	-0.06106477
39	0xbda3764f	-0.0798155
40	0xbd02bd9c	-0.031919107
41	0xbceda741	-0.029010417
42	0xbe23aacd	-0.15983124
43	0xbd9549ad	-0.07289443
44	0xbdd525c3	-0.10407593
45	0x3bc1e205	0.005916836
46	0x3d87bc96	0.06627767
47	0x3d487630	0.048940837
48	0x3cca3808	0.02468492
49	0x3d789b4e	0.060694985
50	0x3c796030	0.015220687
51	0xbd427ec8	-0.04748419
52	0xbd2e0e56	-0.04249414
53	0xbd54665e	-0.051855437
54	0xbd59e81a	-0.053199865
55	0xbd4a9661	-0.04945982
56	0xbdd5bc3c	-0.104362935
57	0xbd8ffa0f	-0.07030117
58	0xbd866514	-0.06562248
59	0xbd724d37	-0.05915567
60	0xbdd3f883	-0.10350134
61	0xbdd1664c	-0.1022459
62	0xbdad3d1e	-0.08458923
63	0x3e144413	0.14479093
64	0x3e078b70	0.13236785
65	0x3e026742	0.12734702
66	0x3e186c63	0.14885096
67	0x3de9d1d8	0.11416978
68	0x3ddab8f4	0.10679808
69	0x3dfeac4b	0.12435206
70	0x3d7eecb9	0.062237475
71	0x3d93c588	0.072154105
72	0xbdfb447f	-0.12268924
73	0xbdd3a43d	-0.1033406
74	0xbd737f63	-0.059447657
75	0xbd5ca917	-0.053872194
76	0xbd169975	-0.03676744
77	0xbd675264	-0.05647506
78	0xbd0ffd13	-0.03515346
79	0xbc953584	-0.018213995
80	0xbc9a8c8e	-0.01886585
81	0xbc940447	-0.018068446
82	0xb9ffc8fa	-0.0004878713
83	0xbcba51cb	-0.02274408
84	0xbd885e0e	-0.066585645
85	0xbd318db5	-0.043348033
86	0xbd11a13c	-0.035554156
87	0x3c94c92b	0.01816233
88	0x3da6187f	0.08110141
89	0x3d14995c	0.036279067
90	0xbda6f5a3	-0.0815232
91	0xbdb1724e	-0.0866438
92	0xbdb65afc	-0.08904073
93	0xbdae845b	-0.085213386
94	0xbd8f8596	-0.07007901
95	0xbd3cf946	-0.046136163
96	0x3de339ef	0.11095034
97	0x3ceade6f	0.028670518
98	0x3c9b20dd	0.018936569
99	0xbc790d43	-0.015200916
100	0xbd6f3ed2	-0.05840952
101	0xbd279ec3	-0.04092289
102	0x3d34924f	0.044084843
103	0xb98968c6	-0.0002620874
104	0x3ca69de0	0.020338953
105	0x3dd79591	0.105265744
106	0x3d1df137	0.03856012
107	0x3d82cfa6	0.06387262
108	0x3daa0528	0.08301765
109	0x3d677372	0.05650658
110	0x3d771bf2	0.060329385
111	0x3d974414	0.07386032
112	0x3d8d1e57	0.068905525
113	0x3d32a1bb	0.04361127
114	0x3d50a2bc	0.050936446
115	0xbc666ae9	-0.014063575
116	0x3bebddeb	0.0071980855
117	0xbe43a3c3	-0.19105439
118	0xbe2408c2	-0.16018966
119	0xbe4cf278	-0.2001437
120	0xbe225343	-0.15852074
121	0xbda5cbef	-0.08095538
122	0xbd7ecb30	-0.062205493
123	0xbceff993	-0.029293811
124	0xbd97b771	-0.074080355
125	0xbd990eba	-0.07473512
126	0xbd92eca1	-0.0717404
127	0xbd7fc43a	-0.062442996
128	0xbda3f928	-0.08006507
129	0x3dfab1f4	0.12240973
130	0x3da3b7aa	0.079940155
131	0x3e04c4db	0.1296572
132	0x3e247ef3	0.16064052
133	0x3d7792fc	0.06044291
134	0x3dd872f6	0.10568802
135	0xbd8d03d6	-0.06885497
136	0xbd06f934	-0.032952502
137	0xbd22b823	-0.039726388
138	0xbdd82265	-0.10553435
139	0xbdec7f40	-0.115477085
140	0xbe09130a	-0.13386169
141	0xbdd0be73	-0.10192575
142	0xbd85fcf0	-0.065423846
143	0xbd44f9b4	-0.048089698
144	0x3c9d5378	0.01920484
145	0xbcd0ffa6	-0.025512528
146	0xbd199aac	-0.037501022
147	0xba90378b	-0.0011002881
148	0xbce1e474	-0.027574755
149	0xbc63d436	-0.0139055755
150	0x3d52e3de	0.051486842
151	0x3ca8bdcf	0.02059832
152	0x3b0a76de	0.002112798
153	0xbc663290	-0.014050141
154	0x3bb29966	0.0054504154
155	0xbd1ca347	-0.03824165
156	0x3cac618e	0.021042611
157	0x3c85358c	0.016260885
158	0x3cfa43b0	0.030549854
159	0x3d411c94	0.047146395
160	0xbc2ce30b	-0.010552178
161	0x3c451543	0.012028995
162	0xbd80c296	-0.06287114
163	0xbd77bc70	-0.060482442
164	0xbda008be	-0.078141674
165	0x3d4396dc	0.047751293
166	0x3cff23d7	0.03114502
167	0x3d668846	0.056282304
168	0x3d85d5d1	0.06534923
169	0x3db4b6a4	0.088238984
170	0x3cb16a60	0.021657169
171	0xbc572caf	-0.013133212
172	0x3ca429d2	0.020039473
173	0xbcb78b93	-0.022405421
174	0xbc5e5c71	-0.013571844
175	0x3d58f9c6	0.052972578
176	0xbc0a583c	-0.008443888
177	0xbd26e714	-0.040747717
178	0xbc929f9d	-0.017898375
179	0xbd4539ac	-0.048150703
180	0x3d1a32b5	0.037646014
181	0x3d8a1545	0.06742338
182	0x3c352ed4	0.011058528
183	0x3cf44b15	0.029820958
184	0x3cdcd43a	0.026956666
185	0xbccaabd1	-0.024740132
186	0xbcf4dbf9	-0.029890047
187	0xbbf0f823	-0.007353799
188	0xbc10b2f8	-0.008831732
189	0xbd59df9e	-0.053191774
190	0xbcc4909f	-0.023994742
191	0x3cc8469f	0.024447737
192	0xbd1f1b14	-0.038844183
193	0xbb2fdea4	-0.0026835585
194	0xbc0a2319	-0.0084312195
195	0xbdcd2e38	-0.10018581
196	0xbc7a8d1d	-0.015292433
197	0xbca01073	-0.019539094
198	0xbd443093	-0.047897886
199	0xbaa37996	-0.0012472149
200	0xbb327626	-0.0027231066
201	0xbb0667f2	-0.0020508734
202	0x3e014f8f	0.12628005
203	0x3cdb2170	0.026749343
204	0x3cbeec82	0.023306135
205	0x3d8b5734	0.06803742
206	0x3d41d3ec	0.047321245
207	0xbd1ff4f5	-0.03905197
208	0x3c9833d3	0.0185794
209	0xbbb7c03a	-0.005607632
210	0x3da19060	0.078888655
211	0x3df20629	0.11817581
212	0x3d725a05	0.05916788
213	0x3d9de80d	0.07710276
214	0x3dd7c02b	0.105347
215	0x3db02a49	0.08601815
216	0xbc23ae77	-0.009990326
217	0xbd79bc5e	-0.060970657
218	0xbd5e71f8	-0.054307908
219	0x3e075cf1	0.13219048
220	0x3dcf90b4	0.10135022
221	0x3e022526	0.12709484
222	0xbcc1bf04	-0.023650654
223	0xbd3c5bd9	-0.04598603
224	0xbd6e5a04	-0.058191314
225	0x3cbb3bfc	0.022855751
226	0xbca9a155	-0.020706812
227	0x3d10595e	0.035241477
228	0x3cb69a0e	0.022290256
229	0x3dc16f24	0.094450265
230	0x3dbb74e2	0.09153153
231	0xbe17fbf7	-0.1484221
232	0xbdd31b26	-0.103079125
233	0xbe0aa374	-0.13538915
234	0xbcea491c	-0.028599314
235	0x3c1c012a	0.009521762
236	0x3cbcdcb5	0.02305446
237	0x3d9d35ce	0.07676278
238	0x3e43ed76	0.19133553
239	0x3e3b0c4e	0.18266413
240	0xbe15f145	-0.14642818
241	0xbd96edde	-0.07369588
242	0xbe073508	-0.13203824
243	0xbcf405a6	-0.02978785
244	0xbd2bef04	-0.04197599
245	0xbcf946cf	-0.030429272
246	0xbca9a79d	-0.020709807
247	0xbc8ddbfd	-0.017316813
248	0x3af3f335	0.001861191
249	0xbc922d9e	-0.017844018
250	0xbca38683	-0.019961601
251	0xb9edf967	-0.00045389982
252	0xbccb0427	-0.024782253
253	0xbcb73307	-0.022363199
254	0xbd70e130	-0.058808506
255	0x3c82756c	0.015925132

model.0.bias f4 [16]
0	0xbd1a7d62	-0.03771723
1	0xbde01243	-0.10940983
2	0xbd876f7c	-0.06613061
3	0xbdb26c46	-0.08712058
4	0xbce9516f	-0.028481213
5	0xbc8c8785	-0.017154464
6	0xbc875758	-0.016521141
7	0xbeb594fa	-0.35465223
8	0x3db6c083	0.089234374
9	0xbddd62e9	-0.10809881
10	0xbe4ec962	-0.20194009
11	0xbd2046f9	-0.039130185
12	0xbd7ac51f	-0.061223146
13	0xbdd708f4	-0.104997545
14	0xbeb9c7fe	-0.36285394
15	0xbe02d25a	-0.12775555

model.2.weight f4 [32, 16, 3, 3]
0	0xbddcf3d7	-0.10788696
1	0x3d30581a	0.04305277
2	0x3c713a5c	0.014723387
3	0xbb3c2847	-0.002871053
4	0x3dd1fbfc	0.1025314
5	0x3e13ea34	0.1444481
6	0xbd0b3856	-0.033989273
7	0x3cb9160e	0.022593524
8	0xbb2172b9	-0.002463503
9	0x3d4097a0	0.0470196
10	0x3c713305	0.014721637
11	0x3d5288bf	0.051399942
12	0x3d3e151b	0.046406846
13	0x3c164d52	0.009173708
14	0x3c6014f8	0.013676874
15	0xbc44d6b0	-0.012014076
16	0xbdad19ed	-0.084522106
17	0xbc182c50	-0.009287909
18	0xbd9d05e5	-0.0766714
19	0xbd567e3a	-0.052366473
20	0x3d2162d5	0.039400894
21	0xbd2b90f9	-0.041886304
22	0xbc623263	-0.013805958
23	0x3d2ce335	0.04220887
24	0x3daeaa84	0.08528617
25	0x3c6490d9	0.01395055
26	0x3d929dc4	0.07158998
27	0x3c827153	0.015923178
28	0x3c81ba3d	0.015835876
29	0xbcd8c795	-0.026462356
30	0x3defd3ad	0.11710296
31	0x3da24ca7	0.079247765
32	0x3d9939e9	0.074817486
33	0x3dd21327	0.10257559
34	0x3de7c595	0.11316983
35	0x3d4ac73c	0.04950641
36	0x3d80626f	0.06268775
37	0x3db8a766	0.09016304
38	0x3a2919b0	0.0006450666
39	0xbc4201c9	-0.011841246
40	0xbd276886	-0.040871166
41	0xbca97cb6	-0.02068935
42	0x3da85c94	0.08220783
43	0x3e24eeb5	0.16106685
44	0x3dfcca8d	0.12343321
45	0xbde32320	-0.11090684
46	0xbdb5a2e6	-0.08868961
47	0xbd834d85	-0.0641127
48	0xbcc28c03	-0.023748403
49	0xbcc2aa1c	-0.023762755
50	0x3d2c35ec	0.04204361
51	0xbd01b18e	-0.03166347
52	0xb99a0799	-0.0002937883
53	0x3c47e6ef	0.012201055
54	0x3db4ee22	0.08834483
55	0xbc5154a5	-0.0127765285
56	0xbd2fe00e	-0.042938285
57	0x3c74f7f9	0.014951699
58	0xbc99d0ce	-0.018776324
59	0xbd9b868d	-0.07594023
60	0x3da5b4fb	0.0809116
61	0xbd8434c1	-0.064553745
62	0xbc2334e8	-0.009961344
63	0x3d836110	0.064149976
64	0x3dec42b3	0.11536159
65	0x3d705ffd	0.05868529
66	0x3c731ee5	0.014838909
67	0xbab21aa9	-0.0013588268
68	0xbc66b4df	-0.014081209
69	0x3e3b52c5	0.18293293
70	0x3e1ef0e6	0.15521583
71	0x3db03bbe	0.08605145
72	0xbd25f88a	-0.04052023
73	0x3d57c5f4	0.052679017
74	0x3c1711e8	0.009220578
75	0xbd7951a9	-0.060868893
76	0xbdd8797a	-0.10570045
77	0xbd8c0c36	-0.068382666
78	0x3d161712	0.036643095
79	0xbd87df16	-0.06634347
80	0xbc166b85	-0.009180908
81	0x3c88c34c	0.016694687
82	0x3a977c0b	0.0011557353
83	0x3caea90a	0.021320838
84	0xbc6602e0	-0.014038771
85	0xbd0163e4	-0.031589404
86	0x3b1bc242	0.002376691
87	0xbc97f25e	-0.018548187
88	0x3ca23f56	0.019805592
89	0x3d9afa2c	0.07567248
90	0x3d79d747	0.06099632
91	0x3e15f671	0.14644791
92	0x3d05be2b	0.03265206
93	0x3d85df2a	0.06536706
94	0x3e28b666	0.1647583
95	0x3dac8c23	0.084251665
96	0xbdcca4df	-0.09992384
97	0x3da0b577	0.07847112
98	0x3dac1964	0.084032804
99	0xbb26df0e	-0.002546254
100	0xbbfb57ea	-0.0076703923
101	0x3d07998c	0.033105418
102	0xbd26f1f3	-0.040758085
103	0xbd81fb59	-0.06346769
104	0xbdf08763	-0.11744573
105	0xbda9a8cf	-0.08284151
106	0xbe0e3e39	-0.13890924
107	0xbd36fc4b	-0.0446742
108	0xbc7f2351	-0.015572385
109	0x3c398b0c	0.011324655
110	0x3d04cc9b	0.03242169
111	0x3e1c294f	0.15250133
112	0x3d6a3520	0.05717957
113	0x3c9c253f	0.01906073
114	0x3e325c96	0.17418131
115	0x3dfd2f98	0.123625934
116	0xbd05d7eb	-0.03267662
117	0xbc71df4c	-0.014762711
118	0xbca77433	-0.02044115
119	0x3c949184	0.018135794
120	0x3cd9df2a	0.02659567
121	0xbdc46153	-0.095888756
122	0xbd2193ad	-0.039447475
123	0xbaef2bc0	-0.0018247291
124	0xbcfc2280	-0.03077817
125	0xbdb4928f	-0.08817016
126	0x3c61c7f3	0.013780582
127	0x3df6105b	0.12014838
128	0x3e080af8	0.13285434
129	0xbd420826	-0.047371052
130	0xbd3084a1	-0.043095235
131	0xbd49559c	-0.04915391
132	0x3de4ede6	0.11178188
133	0x3e1ff087	0.15619098
134	0x3e03c9fe	0.12870023
135	0x3df16093	0.11785998
136	0x3d28e951	0.041238133
137	0xbcad2310	-0.021134883
138	0x3d99ad7b	0.07503792
139	0x3d315357	0.04329237
140	0x3d1eab4c	0.03873758
141	0x3e3f121a	0.18659249
142	0x3da96cae	0.08272682
143	0x3d8b4c7a	0.06801696
144	0x3e186b76	0.14884743
145	0x3d4c3b11	0.049861018
146	0x3dbb9457	0.09159153
147	0x3e583e07	0.21117412
148	0x3d956a81	0.07295705
149	0x3df8c9cf	0.12147867
150	0x3d9f5d6b	0.0778149
151	0x3c4ad46d	0.012379748
152	0xbcbbc300	-0.022920132
153	0xbcabf685	-0.020991573
154	0x3d9e8afe	0.077413544
155	0x3d921d00	0.071344376
156	0xbd9bd4ff	-0.07608985
157	0x3d178f84	0.0370021
158	0x3d863cf8	0.065545976
159	0xbd416397	-0.047214117
160	0x3c9f448d	0.019441867
161	0xbd41ad2d	-0.047284294
162	0xbda63bb3	-0.081168555
163	0xbd391ece	-0.045195393
164	0xbda5f4fa	-0.08103366
165	0xbdaa6e4e	-0.0832182
166	0xbd191cd4	-0.03738101
167	0xbc12acec	-0.008952361
168	0x3d8c74ca	0.06858213
169	0x3d0af4fb	0.033925038
170	0x3d0e200d	0.034698535
171	0xbd2fd2cb	-0.042925637
172	0xbb532907	-0.00322205
173	0xba699d46	-0.000891168
174	0x3e0d289a	0.1378502
175	0x3e23b3a7	0.159865
176	0x3e325afd	0.17417522
177	0xbde75cea	-0.11297019
178	0xbc04b45a	-0.00809964
179	0x3d04de6d	0.032438684
180	0xbd2ea426	-0.042637013
181	0xbd3ae535	-0.045628745
182	0x3d82c212	0.06384672
183	0xbd98d77a	-0.07462974
184	0x3d432e83	0.04765178
185	0x3d527994	0.051385477
186	0xbd9b19de	-0.07573293
187	0x3d135770	0.03597206
188	0x3d005d5b	0.03133903
189	0xbc9561d4	-0.018235125
190	0xbd32be3b	-0.04363845
191	0xbd9d752f	-0.076883666
192	0x3ca46fe5	0.020072887
193	0x3c1ea6a1	0.009683282
194	0x3db8ff96	0.09033124
195	0x3b2d69f3	0.0026460856
196	0x3d3ea4ca	0.046543874
197	0x3d5b81d1	0.0535906
198	0x3cd7c55d	0.026339227
199	0x3d013f16	0.031554304
200	0xbab79197	-0.0014005181
201	0x3d8dd452	0.069252625
202	0x3d80e347	0.0629335
203	0x3d539150	0.051652253
204	0x3dd03eba	0.10168214
205	0x3c825937	0.015911682
206	0xbd9f3c52	-0.07775177
207	0x3d7480e3	0.05969323
208	0x3dbcc345	0.09216932
209	0x3d813ada	0.06310053
210	0xbdec2c91	-0.11531938
211	0xbd4ec925	-0.050484795
212	0xbdb8214a	-0.089907244
213	0xbcdea5ae	-0.027178612
214	0x3cc14b3d	0.023595447
215	0x3d7936ee	0.0608434
216	0xbda4dc55	-0.080498375
217	0x3dfbc858	0.12294072
218	0x3db7c837	0.08973735
219	0xbdfd261c	-0.123607844
220	0xbdd13b29	-0.10216362
221	0xbe223cd5	-0.15843518
222	0x3dcaba7a	0.09898849
223	0x3e026282	0.1273289
224	0x3c5f4088	0.013626225
225	0x3cb7d244	0.02243913
226	0x3c8f161f	0.017466603
227	0xbd0939ed	-0.033502508
228	0xbcd99201	-0.026558878
229	0x3d2848cb	0.041085046
230	0x3d831c14	0.0640184
231	0xbc4620ac	-0.0120927505
232	0x3d4ab871	0.049492303
233	0x3d68406c	0.056702062
234	0xbdc71893	-0.09721484
235	0xbd1bf629	-0.038076553
236	0xbd21c9df	-0.03949916
237	0xbe04f45f	-0.12983845
238	0x3d1a05c8	0.03760317
239	0x3e2bc485	0.16774185
240	0xbe5071ff	-0.20355986
241	0xbd836786	-0.0641623
242	0x3d77fdc7	0.060544755
243	0xbbbf6942	-0.005841405
244	0xbb9c1503	-0.004763247
245	0x3d29f538	0.041493624
246	0x3cee7ddc	0.029112749
247	0x3d7a6f76	0.061141454
248	0x3dd25bca	0.102714136
249	0x3d6e4f48	0.058181077
250	0x3d5e0b3a	0.054209925
251	0xbcc28c30	-0.023748487
252	0x3dcf3d16	0.10119073
253	0xbd1f4424	-0.038883343
254	0xbdc61f51	-0.09673942
255	0x3e302462	0.17201379

model.2.bias f4 [32]
0	0xbe185b49	-0.14878573
1	0xbdfea54b	-0.12433871
2	0x3d18cd26	0.03730502
3	0xbdf49ea8	-0.11944324
4	0xbe0bed57	-0.13664757
5	0xbcf73095	-0.030174533
6	0x3ddb086c	0.10694966
7	0xbddedc9f	-0.10881924
8	0x3d9a22c4	0.07526162
9	0xbc8f861e	-0.017520007
10	0x3d179a36	0.0370123
11	0xbe403fca	-0.18774334
12	0x3c083e69	0.008315661
13	0xbe4c5dca	-0.19957653
14	0xbe243265	-0.16034849
15	0x3d3cc362	0.04608477
16	0x3e42a694	0.19008857
17	0xbe174e38	-0.14775932
18	0xbc6f33dc	-0.014599767
19	0xbb7ac8aa	-0.0038266578
20	0xbd49473f	-0.04914021
21	0xbdfbe793	-0.12300029
22	0xbd5641be	-0.05230879
23	0x3d41e6b6	0.047339164
24	0x3c7e6f22	0.015529426
25	0xbe8f2736	-0.27959603
26	0xbe4dcaf7	-0.20096956
27	0x3d2358c9	0.039879594
28	0xbcdcd80c	-0.026958488
29	0xbde547ff	-0.11195373
30	0xbe6bd9fc	-0.23032373
31	0xbe3ea7ee	-0.18618748

model.4.weight f4 [32]
0	0x3f69247d	0.910713
1	0x3f7d94ee	0.99055374
2	0x3f7ec200	0.9951477
3	0x3f634836	0.8878206
4	0x3f641ed2	0.8910953
5	0x3f5e0900	0.8673248
6	0x3f7cef26	0.9880241
7	0x3f6b83b8	0.9199786
8	0x3f6e7c24	0.93158174
9	0x3f7148fb	0.94251984
10	0x3f789f20	0.97117805
11	0x3f4b833e	0.79497135
12	0x3f59eedf	0.85130113
13	0x3f700fba	0.93773997
14	0x3f77fcd3	0.96870154
15	0x3f6d6907	0.92738384
16	0x3f71eb90	0.94500065
17	0x3f749ac1	0.95548636
18	0x3f7cfff0	0.9882803
19	0x3f6f4275	0.9346078
20	0x3f7a4d9c	0.9777467
21	0x3f73f794	0.9529965
22	0x3f5168f6	0.8180078
23	0x3f7378ea	0.95106375
24	0x3f74ce48	0.9562726
25	0x3f77d62e	0.9681119
26	0x3f752c1d	0.95770437
27	0x3f5c2212	0.8598949
28	0x3f6596ad	0.8968304
29	0x3f79ab27	0.9752678
30	0x3f720cd1	0.94550806
31	0x3f62f04d	0.8864792

model.4.bias f4 [32]
0	0xbe5d971c	-0.21639675
1	0x3d0d3530	0.03447455
2	0x3be26944	0.0069095213
3	0xbe51cc9f	-0.20488213
4	0xbd6744b9	-0.056462023
5	0xbc458fe1	-0.012058229
6	0xbe242358	-0.16029108
7	0xbdf91b03	-0.12163355
8	0xbe3dfa7a	-0.1855258
9	0xbe234b18	-0.15946615
10	0xbc9d333f	-0.019189475
11	0xbdf3dd96	-0.119074985
12	0xbd86872e	-0.06568752
13	0xbe3fe6eb	-0.18740432
14	0xbe5dc432	-0.21656874
15	0xbbdb6395	-0.0066952207
16	0x3d50d698	0.050985903
17	0xbe5716ca	-0.21004787
18	0xbe17d749	-0.14828219
19	0xbd1880d5	-0.03723224
20	0x3d8edd50	0.06975806
21	0xbe3259b2	-0.17417029
22	0xbbed9b40	-0.0072511733
23	0xbd406f02	-0.046980865
24	0xbea4da16	-0.32197636
25	0xbeb46329	-0.35231903
26	0xbe09a5e7	-0.13442193
27	0xbd8d64df	-0.06904005
28	0x3d853100	0.06503487
29	0xbcd378c1	-0.025814416
30	0xbe300a01	-0.17191316
31	0xbe899586	-0.2687189

model.4.running_mean f4 [32]
0	0x3bbc0fa2	0.0057391683
1	0xbd3d02fd	-0.046145428
2	0x3d84c6bb	0.06483217
3	0xbd53f59d	-0.051747907
4	0xbdace1b7	-0.08441489
5	0x3d6d943c	0.058002695
6	0x3c82d1f6	0.015969258
7	0xbd812513	-0.063058995
8	0x3e282787	0.16421328
9	0x3e56a674	0.20961934
10	0x3cc5bfb2	0.024139259
11	0x3d7ec09e	0.062195413
12	0x3dbf4556	0.09339397
13	0xbd979da4	-0.074031144
14	0x3e083e98	0.13305128
15	0x3e462fa6	0.19354114
16	0x3d24e391	0.040256087
17	0x3da4f473	0.080544375
18	0x3e046108	0.1292764
19	0x3d22ab90	0.039714396
20	0xbccd6704	-0.025073536
21	0x3d3f6020	0.04672253
22	0x3e1dfe55	0.15429051
23	0x3e47b0ad	0.1950099
24	0x3e0e6363	0.139051
25	0x3d814f63	0.0631397
26	0xba6a437c	-0.00089364476
27	0x3d8e1fce	0.0693966
28	0x3dc381d6	0.095462486
29	0x3e936177	0.28785297
30	0xbcf1b699	-0.029506015
31	0x3d04e04f	0.03244048

model.4.running_var f4 [32]
0	0x3c669839	0.014074379
1	0x3bec97ba	0.0072202357
2	0x3c12a3ad	0.008950156
3	0x3b5b201b	0.0033435884
4	0x3b10da65	0.002210283
5	0x3c5a1ea5	0.01331297
6	0x3c7e36b6	0.015515974
7	0x3b97d3d2	0.0046334052
8	0x3c82228f	0.01588562
9	0x3d5e8f1e	0.054335706
10	0x3c1795dd	0.009252039
11	0x3d3ba936	0.04581567
12	0x3c6f7d98	0.014617346
13	0x3b9a6015	0.004711161
14	0x3d3dfd70	0.046384275
15	0x3cb70bf6	0.02234457
16	0x3c6565cf	0.014001324
17	0x3c909cf6	0.01765297
18	0x3d635e06	0.05550959
19	0x3c5f56de	0.013631551
20	0x3c6fd58e	0.014638318
21	0x3ca00d97	0.01953773
22	0x3cef93bc	0.02924525
23	0x3d4b9b21	0.04970849
24	0x3cc4f34b	0.024041792
25	0x3d01623d	0.031587828
26	0x3c0db799	0.00864973
27	0x3cb2a65c	0.021807842
28	0x3cd070d5	0.025444428
29	0x3dcc2060	0.099671125
30	0x3be4bd57	0.006980579
31	0x3d252143	0.040314924

model.5.weight f4 [64, 32, 3, 3]
0	0xbde64465	-0.11243514
1	0x3c26bc15	0.010176678
2	0x3dbaf41a	0.0912859
3	0xbdabbb60	-0.08385348
4	0xbcf42119	-0.029800938
5	0x3d646f13	0.05576999
6	0xbdfea487	-0.12433725
7	0xbdefe994	-0.11714473
8	0x3be20ff2	0.0068988735
9	0xbe5bb0d4	-0.21454173
10	0xbc583da9	-0.013198295
11	0x3d659134	0.05604668
12	0xbe0d0480	-0.13771248
13	0x3de9cbd7	0.114158325
14	0xbc2c7b65	-0.010527466
15	0xbdf4a6f4	-0.11945906
16	0x3d6a440a	0.057193793
17	0x3deda389	0.116034575
18	0x3c37f96c	0.0112289
19	0x3c719ea6	0.014747297
20	0x3cdccd8d	0.026953483
21	0x3d48373c	0.0488808
22	0x3ae02f63	0.0017103966
23	0x3dbcef8b	0.09225377
24	0x3d1c9dfd	0.038236607
25	0x3d70bc5b	0.05877338
26	0x3d6776e5	0.05650987
27	0x3dbcc05f	0.092163794
28	0x3d106c14	0.03525932
29	0xbd9de132	-0.07708968
30	0xbc6b8974	-0.014376033
31	0xbd7fa4cf	-0.062413033
32	0xbdd6d523	-0.10489871
33	0x3d6f3506	0.058400176
34	0xbd3c9422	-0.046039708
35	0x3bdaa466	0.00667243
36	0x3db777e3	0.089584135
37	0x3dc44438	0.09583324
38	0x3ccb5723	0.024821823
39	0xbd738588	-0.059453517
40	0xbda9219f	-0.08258366
41	0xbdd03627	-0.10166579
42	0x3d1631a3	0.03666843
43	0x3d4fa800	0.050697327
44	0xbd817d33	-0.06322708
45	0xbbe4a47d	-0.0069776163
46	0xbd319c8b	-0.04336218
47	0x3bb700ce	0.0055848127
48	0x3db30e8f	0.08743011
49	0xbc80e09c	-0.015732102
50	0x3d80b784	0.06285003
51	0xbd1cd12d	-0.038285423
52	0x3da11932	0.07866134
53	0x3dfc01d5	0.12305037
54	0x3cdceb56	0.026967686
55	0x3c68ef17	0.01421716
56	0xbe0918d1	-0.13388373
57	0x3d11bf60	0.0355829
58	0x3c8317c6	0.016002547
59	0xbdb93873	-0.0904397
60	0x3cf8c5e7	0.030367805
61	0xbcff55c6	-0.03116883
62	0xbdf4e5b8	-0.11957878
63	0x3cdf69c9	0.027272122
64	0x3cbd47c2	0.023105506
65	0xbdc53ac2	-0.09630348
66	0x3d8972ad	0.06711326
67	0x3d926785	0.07148651
68	0xbdce7ba8	-0.10082179
69	0xbd925451	-0.07144988
70	0xbdc7a3db	-0.0974805
71	0xbda4bac9	-0.08043439
72	0x3ca71d3c	0.020399682
73	0xbcd50af7	-0.026006205
74	0xbc5ce21c	-0.013481643
75	0x3bb3ff18	0.005493056
76	0xbd74dbd4	-0.059779957
77	0x3da2dcdc	0.07952282
78	0xbd196ff3	-0.03746028
79	0xbd2b988a	-0.04189352
80	0x3d9850c0	0.07437277
81	0xbcf1d67b	-0.029521218
82	0x3d1e134d	0.038592625
83	0xbb87de0b	-0.0041463426
84	0x3d8099bb	0.06279322
85	0xbc8453f1	-0.016153308
86	0xbdec213c	-0.115297765
87	0x3d7a74d7	0.061146583
88	0x3c4806cf	0.012208655
89	0xbccafcde	-0.02477878
90	0x3cc4b84c	0.02401366
91	0xbdb32940	-0.08748102
92	0x3dbf5e8e	0.09344207
93	0xbd91558e	-0.070963964
94	0xbdb34cbd	-0.08754871
95	0xbcfd9ac8	-0.030957595
96	0x3cccaed3	0.024985706
97	0xbd399a1b	-0.045312982
98	0x3e20012a	0.15625444
99	0x3bd0f8ca	0.006377314
100	0x3d347161	0.04405344
101	0xbdab8939	-0.083757825
102	0xbcd87651	-0.026423605
103	0x3c6c6d25	0.014430319
104	0xbe1bc992	-0.15213612
105	0xbdb4dd80	-0.0883131
106	0xbc204b74	-0.009783614
107	0x3c0ae4b8	0.008477382
108	0xbc72f3e2	-0.014828654
109	0x3b9787d9	0.0046243486
110	0x3afb4fd8	0.0019173576
111	0x3ccb4266	0.024811935
112	0xbde3f979	-0.111315675
113	0xbd267404	-0.040637985
114	0xbdf2c9f6	-0.11854927
115	0xbcfbfc19	-0.030759858
116	0xbd4ed174	-0.05049272
117	0x3e101b91	0.14073016
118	0x3df5fd57	0.12011211
119	0xbdaf6b95	-0.085654415
120	0x3cbcb288	0.02303435
121	0x3d8407fd	0.06446836
122	0xbe0ba392	-0.13636616
123	0xbe3a3dbe	-0.18187615
124	0xbd908964	-0.07057455
125	0x3a4976cb	0.0007685243
126	0x3e16e7ae	0.14736816
127	0x3dd99808	0.10624701
128	0xbe01e940	-0.12686634
129	0x3d91e918	0.07124537
130	0x3d2b9416	0.041889273
131	0xbdd03eb6	-0.10168211
132	0x3cecfacb	0.028928181
133	0xbd58c091	-0.05291802
134	0x3c827271	0.01592371
135	0x3d926b55	0.07149378
136	0x3d91d125	0.07119969
137	0x3dad22a4	0.08453873
138	0x3d7fef69	0.06248418
139	0xbd5bb8a2	-0.053642876
140	0xbdc16e57	-0.09444874
141	0x3d0cbe4c	0.03436117
142	0xbd2e7c4a	-0.042599
143	0x3d86db21	0.06584764
144	0x3d281617	0.04103669
145	0x3d08986d	0.03334849
146	0xbe033774	-0.12814122
147	0x3df43665	0.119244374
148	0x3debe276	0.11517803
149	0xbd5784f5	-0.052617032
150	0xbd9a3ee3	-0.07531526
151	0xbc3d25c9	-0.011544653
152	0xbdfbff15	-0.123045124
153	0x3d9da3a5	0.07697228
154	0x3dc589eb	0.096454464
155	0xbd960c35	-0.07326547
156	0x3dfe71f4	0.124240786
157	0x3e2022e3	0.15638308
158	0xbd20dd64	-0.039273635
159	0x3da53e6a	0.08068545
160	0x3d670d73	0.05640931
161	0xbe080eaa	-0.13286844
162	0x3d9e0835	0.07716409
163	0x3d65ba71	0.056086008
164	0xbe38de6d	-0.18053599
165	0x3dc058e0	0.093919516
166	0x3d9b4dab	0.07583173
167	0xbdf6f8f8	-0.12059206
168	0x3c836035	0.016037086
169	0x3aa37b97	0.0012472746
170	0xbda8b325	-0.08237294
171	0xbd14a8a4	-0.03629364
172	0xbbc272e7	-0.0059341076
173	0x3db1c3b0	0.086799026
174	0xbd6c0e1c	-0.057630643
175	0xbe079469	-0.13240208
176	0xbdc31f58	-0.09527463
177	0x3d8f0de1	0.06985069
178	0x3dd6e5cd	0.1049305
179	0x3d36a8f8	0.044594735
180	0xbdf60a60	-0.120136976
181	0x3b658f3c	0.0035028001
182	0x3d1f5ab8	0.038904876
183	0xbd5bf733	-0.053702544
184	0x3d9452a9	0.07242329
185	0x3e0cdbbc	0.13755697
186	0xbd74891c	-0.05970107
187	0x3e5672b7	0.20942198
188	0x3dff637c	0.12470147
189	0xbe059b7e	-0.13047597
190	0x3bcf6451	0.0063290973
191	0x3e0c7f2b	0.13720386
192	0xbd90824a	-0.07056101
193	0x3e0f583d	0.13998504
194	0x3de4e0b4	0.11175671
195	0xbb5882bd	-0.003303691
196	0x3d6eaf96	0.05827292
197	0xbd831fc9	-0.06402547
198	0xbd40a580	-0.047032833
199	0xbb7b023a	-0.0038300888
200	0xbcaf6f35	-0.021415332
201	0xbdfd8c6e	-0.123803005
202	0xbcff92dd	-0.03119796
203	0xbcaaade9	-0.02083488
204	0xbdb149a7	-0.08656626
205	0x3d2c3d4a	0.042050637
206	0x3dae5106	0.08511548
207	0x3c8db88e	0.017299917
208	0x3ddd37e6	0.108016774
209	0xbd640bad	-0.055675197
210	0x3e0a72d6	0.13520369
211	0xbcf2d979	-0.029644715
212	0xbcebbdac	-0.028776966
213	0xbc8f60a4	-0.017502137
214	0x3d258c0e	0.04041677
215	0xbc4c5bbb	-0.012473042
216	0x3ce09fac	0.027419887
217	0x3d18a676	0.037268125
218	0xbd9abfdd	-0.07556126
219	0xbbbb0ee2	-0.0057085613
220	0x3da4af39	0.080412336
221	0xbe1c511d	-0.15265317
222	0x3cb6b189	0.022301452
223	0xbd9a40c5	-0.07531885
224	0xbce1415f	-0.027496992
225	0x3d454165	0.04815807
226	0x3ddb7c1d	0.10717032
227	0xbdb9530e	-0.090490445
228	0xbc292648	-0.010324068
229	0x3c9aa5c7	0.018877877
230	0xbdad430d	-0.084600545
231	0xbdbb998a	-0.091601446
232	0xbd794809	-0.060859714
233	0x3cb8ea89	0.022572773
234	0x3cacd28f	0.021096496
235	0x3d41bdda	0.047300197
236	0x3a8023da	0.000977631
237	0x3d59f3a4	0.05321087
238	0x3d882d39	0.066492505
239	0xbd17b8f1	-0.03704161
240	0x3de6f8fc	0.11277959
241	0x3d9a089e	0.07521175
242	0xbe123da6	-0.1428133
243	0x3daa6a9f	0.083211176
244	0xbcb4b0e6	-0.022057008
245	0x3ddaf8f8	0.10692018
246	0x3d1df36b	0.03856222
247	0x3d151921	0.036400918
248	0x3cc915c3	0.02454651
249	0x3e3eb780	0.18624687
250	0x3d35e2c8	0.04440573
251	0xbd9f0965	-0.07765464
252	0xbdaa1b41	-0.083059795
253	0x3deae8bb	0.11470171
254	0x3d8db450	0.069191575
255	0xbdc7f4b4	-0.0976347

model.5.bias f4 [64]
0	0xbe970bc2	-0.29501158
1	0xbdf1c5ec	-0.11805329
2	0xbefd5d7d	-0.49485388
3	0xbe6ed7a7	-0.23324452
4	0xbee02f26	-0.4378597
5	0xbea3d6c5	-0.31999794
6	0xbed238e7	-0.41059038
7	0xbe3528ba	-0.17691317
8	0xbe647c44	-0.22313029
9	0xbea4a30c	-0.32155645
10	0xbe973ec5	-0.29540077
11	0xbde9f967	-0.11424523
12	0xbea92974	-0.3303944
13	0xbb414f84	-0.0029496858
14	0x3c801207	0.015633596
15	0xbe34d8ea	-0.17660871
16	0xbe8da0fb	-0.2766188
17	0xbe77fe84	-0.24218184
18	0xbdceec73	-0.10103693
19	0xbe2e7cf3	-0.17039852
20	0xbd8ba444	-0.068184406
21	0xbe3e5870	-0.18588424
22	0xbd17c201	-0.03705025
23	0xbe39a3d7	-0.18128906
24	0xbee34c4e	-0.44394153
25	0xbca7c1c7	-0.020478142
26	0xbdf5afa5	-0.11996392
27	0xbec36795	-0.38164964
28	0xbe0427a2	-0.12905744
29	0xbe9acd31	-0.30234674
30	0xbdab9140	-0.083773136
31	0xbecff6ca	-0.40617973
32	0xbdec463d	-0.115368344
33	0xbe803928	-0.25043607
34	0xbe82a4fa	-0.25516492
35	0xbd334fa0	-0.04377711
36	0xbe2b0046	-0.16699323
37	0xbe657e78	-0.22411525
38	0xbebab6d3	-0.3646761
39	0xbe051586	-0.12996492
40	0xbeadaada	-0.33919412
41	0x3d4ecdcd	0.050489236
42	0xbe8c2756	-0.2737376
43	0xbe68a666	-0.22719726
44	0xbe8b4df2	-0.27207905
45	0xbd0a8762	-0.033820517
46	0xbea711f6	-0.3263089
47	0xbe68f68f	-0.22750305
48	0xbe63121f	-0.22174881
49	0xbeaf450a	-0.3423236
50	0xbe24fd31	-0.1611221
51	0xbeb033ef	-0.34414622
52	0xbe966506	-0.2937395
53	0xbd53deb0	-0.051726043
54	0xbeb07606	-0.34465045
55	0xbea72ed8	-0.32652926
56	0xbec8926f	-0.3917422
57	0xbe6696d1	-0.2251847
58	0xbe0a4b79	-0.13505353
59	0xbec0a009	-0.37622097
60	0xbdd3af21	-0.103361376
61	0xbeb3cc62	-0.3511687
62	0xbe9fb613	-0.311936
63	0xbe0f2113	-0.1397746

model.7.weight f4 [64]
0	0x3f7060df	0.93897814
1	0x3f360213	0.71096915
2	0x3f74080b	0.9532477
3	0x3f6477ea	0.89245474
4	0x3f7dd543	0.99153537
5	0x3f6e6a09	0.93130547
6	0x3f7a0f5d	0.9767969
7	0x3f2e37ce	0.680539
8	0x3f5452f6	0.8293909
9	0x3f6d56bc	0.9271047
10	0x3f50d01d	0.81567556
11	0x3f1cbd85	0.61226684
12	0x3f715e52	0.94284546
13	0x3f70a834	0.9400666
14	0x3f58f4c6	0.84748495
15	0x3f1f0443	0.6211588
16	0x3f7bfdf0	0.9843435
17	0x3f5abe75	0.85446864
18	0x3f7da3a5	0.99077827
19	0x3f3bfb40	0.7343025
20	0x3f7e75c9	0.99398476
21	0x3f6f4cb5	0.9347642
22	0x3f50283b	0.81311387
23	0x3f57e614	0.84335446
24	0x3f729f2e	0.9477414
25	0x3f7dec8a	0.99189055
26	0x3f750747	0.9571423
27	0x3f62901a	0.8850113
28	0x3f7fa75a	0.99864733
29	0x3f61e2af	0.88236517
30	0x3f7f5df5	0.9975274
31	0x3f70ed27	0.94111866
32	0x3f7d62b9	0.98978764
33	0x3f73fd43	0.9530832
34	0x3f6cdb39	0.9252201
35	0x3f72e239	0.9487644
36	0x3f23b7b6	0.63952196
37	0x3f53d07c	0.82739997
38	0x3f592d47	0.8483471
39	0x3f4ce965	0.8004363
40	0x3f593fe3	0.8486311
41	0x3f7e410b	0.99318
42	0x3f601915	0.8753827
43	0x3f4d0fc2	0.8010217
44	0x3f74fe8d	0.95700914
45	0x3f7ec3eb	0.995177
46	0x3f7487c5	0.9551967
47	0x3f70b696	0.94028604
48	0x3f74f475	0.9568551
49	0x3f340c0c	0.7033088
50	0x3f76f0c7	0.9646115
51	0x3f7bee12	0.9841014
52	0x3f72f0e6	0.9489883
53	0x3f7f8243	0.9980814
54	0x3f60d7ee	0.8782948
55	0x3f6ad8cb	0.9173705
56	0x3f5542d3	0.8330509
57	0x3f788f3c	0.9709356
58	0x3f7c5510	0.98567295
59	0x3f48ca76	0.7843393
60	0x3f3e9c9d	0.7445772
61	0x3f56f7c7	0.8397183
62	0x3f7c7882	0.9862138
63	0x3f4fda6e	0.8119267

model.7.bias f4 [64]
0	0xbdb520cb	-0.088441454
1	0x3d922e5c	0.071377486
2	0xbd05a051	-0.032623593
3	0xbe8d84ca	-0.27640373
4	0x3c980c8d	0.018560672
5	0xbe334633	-0.17507248
6	0x3ded2223	0.11578777
7	0x3e29a914	0.16568404
8	0x3d8ce284	0.06879142
9	0x3c9bc396	0.019014161
10	0xbe1c0ff4	-0.1524046
11	0x3d61c6dd	0.05512129
12	0x3d91dc80	0.07122135
13	0x3cae37bd	0.021266812
14	0x3dc386b3	0.09547176
15	0xbe28539c	-0.16438144
16	0xbd135645	-0.035970945
17	0x3da3e4d2	0.080026284
18	0xbdaf907d	-0.08572481
19	0xbe13887a	-0.1440753
20	0x3d4d9406	0.050189994
21	0x3d0e16ef	0.03468984
22	0x3e93ec6b	0.2889131
23	0x3e0aa7a9	0.1354052
24	0x3d2bfeec	0.04199116
25	0xbe0373d3	-0.12837152
26	0xbda6f735	-0.0815262
27	0x3e02898b	0.12747781
28	0x3e080da5	0.13286455
29	0xbdca776c	-0.09886059
30	0xbdc4c811	-0.09608472
31	0x3d277d79	0.040891144
32	0xbd1f3bf2	-0.038875528
33	0xbe152880	-0.14566231
34	0xbe818091	-0.252934
35	0xbe3c73c8	-0.18403542
36	0xbe48352d	-0.19551535
37	0xbd91e3e0	-0.07123542
38	0x3da5ec71	0.08101738
39	0x3df573fb	0.11985012
40	0xbdb3bc96	-0.08776204
41	0xbdedffa9	-0.11621029
42	0x3e2afdbd	0.16698356
43	0xbc35d286	-0.011097556
44	0xbcff1c5d	-0.031141454
45	0xbce49126	-0.027901243
46	0x3d1d0978	0.03833911
47	0xbe121d7f	-0.14269064
48	0x3cb59199	0.022164153
49	0x3e1c0970	0.15237975
50	0xbd12ead1	-0.03586847
51	0x3c67d8bb	0.014150794
52	0x3cec0880	0.028812647
53	0x3d32e61e	0.043676488
54	0xbda96398	-0.08270949
55	0xba9584a4	-0.0011407328
56	0x3d551a6b	0.052027147
57	0x3c671145	0.0141032385
58	0x3c343292	0.010998385
59	0xbe192282	-0.1495457
60	0xbcb342e4	-0.021882482
61	0x3bd40955	0.006470839
62	0xbbf164c6	-0.0073667495
63	0xbcb2a883	-0.021808868

model.7.running_mean f4 [64]
0	0x3ea64822	0.32476908
1	0x3ec427ba	0.3831156
2	0x3dc27ae1	0.094960935
3	0x3e5e5626	0.2171255
4	0x3e227acc	0.15867156
5	0x3eff62cb	0.4988006
6	0x3df06536	0.117380545
7	0x3f0df3ab	0.5544993
8	0x3ddd2fbc	0.1080012
9	0x3eda55aa	0.42643481
10	0x3e082169	0.13293995
11	0x3ec06a8f	0.37581298
12	0x3e615973	0.22006778
13	0x3ef17d6e	0.47166008
14	0x3f27a838	0.65491056
15	0x3e6ba6c4	0.23012835
16	0x3e604772	0.21902254
17	0x3e51ff80	0.20507622
18	0x3f8d1eea	1.1025059
19	0x3e4af7eb	0.19821136
20	0x3ead7cad	0.33884183
21	0x3f25f4d8	0.64826727
22	0x3f400eca	0.75022566
23	0x3e67e49e	0.22645804
24	0x3db0861a	0.08619328
25	0x3f3ec96d	0.745261
26	0x3ef2776d	0.4735674
27	0x3e3ab4fd	0.18233104
28	0x3e991f33	0.29906616
29	0x3ec84128	0.3911221
30	0x3f4ea8ce	0.80726326
31	0x3eb8fbc1	0.36129573
32	0x3f33be3f	0.7021217
33	0x3e8b110f	0.27161452
34	0x3df5901d	0.11990378
35	0x3fc24f09	1.518037
36	0x3f1bba60	0.6083126
37	0x3f12fc58	0.57416296
38	0x3dc5cf9c	0.09658739
39	0x3f1449d7	0.5792517
40	0x3e280860	0.16409445
41	0x3f4a126a	0.7893435
42	0x3e7bedbd	0.24602409
43	0x3e990998	0.29890132
44	0x3eb171b2	0.34657055
45	0x3f5b46b7	0.8565478
46	0x3e659e86	0.22423753
47	0x3ea32340	0.3186283
48	0x3f161f86	0.5864185
49	0x3e7a901b	0.24469034
50	0x3f7cce82	0.98752606
51	0x3e99a891	0.30011418
52	0x3f038199	0.51369625
53	0x3f065b92	0.52483475
54	0x3e13ff2d	0.1445281
55	0x3dfb34d0	0.122659326
56	0x3e45a748	0.19302094
57	0x3e887be8	0.26657033
58	0x3f3e79fa	0.7440487
59	0x3e755599	0.23958434
60	0x3f33c687	0.70224804
61	0x3dc5d5fb	0.09659954
62	0x3e3765ea	0.17909971
63	0x3f2d624e	0.67728126

model.7.running_var f4 [64]
0	0x3f4be800	0.7965088
1	0x3fad4a67	1.3538331
2	0x3f4c0cb1	0.79706866
3	0x3fd6bb00	1.6775818
4	0x3f800f37	1.0004643
5	0x3ffdcc24	1.9827924
6	0x3f77f81e	0.9686297
7	0x3fa77346	1.3082054
8	0x3fa8649a	1.3155701
9	0x3fefedb1	1.8744413
10	0x3fc64207	1.54889
11	0x3f9db6d6	1.2321422
12	0x3f9ceb15	1.2259241
13	0x3f706ca8	0.93915796
14	0x3fa73db7	1.3065709
15	0x3fd9abda	1.700557
16	0x3f41c0d5	0.75684863
17	0x3f961a4e	1.1726778
18	0x40294d5c	2.6453466
19	0x3ffdd6e6	1.9831207
20	0x3f2677e8	0.6502671
21	0x4017bd16	2.370916
22	0x3f842fb6	1.032706
23	0x3fa3b955	1.2790934
24	0x3fa58b26	1.293309
25	0x3f9636f1	1.1735517
26	0x3f8376a4	1.0270581
27	0x3f8a0281	1.0782014
28	0x3f43b3b4	0.7644608
29	0x40368888	2.8520832
30	0x400695a1	2.1028826
31	0x3fda7002	1.7065432
32	0x3fa5c3d4	1.2950387
33	0x3f9a8beb	1.207395
34	0x3f5b72b2	0.85721886
35	0x409bd328	4.869526
36	0x3fd759da	1.6824296
37	0x402a102b	2.6572368
38	0x3f58e667	0.84726566
39	0x3fe75648	1.8073206
40	0x3f84d5f5	1.0377795
41	0x3f75fa8f	0.9608545
42	0x3fa1270f	1.2590045
43	0x3fd66894	1.6750665
44	0x3f960557	1.172038
45	0x3fa81ac9	1.3133174
46	0x3fe585e9	1.7931491
47	0x3f9e96a7	1.2389725
48	0x40cfbf70	6.492119
49	0x4001b964	2.0269403
50	0x405971c4	3.3975687
51	0x3fa2cc0a	1.2718518
52	0x3fc651b4	1.5493684
53	0x3fa4e652	1.2882788
54	0x400d54ac	2.208293
55	0x3f655ccd	0.8959473
56	0x3f5cdb7f	0.86272424
57	0x3f96c6d6	1.177943
58	0x3ff94dd6	1.9476879
59	0x3f8f3430	1.1187801
60	0x40ac8c59	5.3921323
61	0x3f8148c1	1.0100328
62	0x3f6c774f	0.9236955
63	0x403b3c4e	2.9255557

model.8.weight f4 [128, 64, 3, 3]
0	0xbca35a0b	-0.019940397
1	0x3d99c568	0.075083554
2	0xbdc7175a	-0.09721251
3	0xbac52f5b	-0.001504402
4	0x3c5ded7f	0.013545393
5	0x3cc0c0cc	0.023529433
6	0xbd533237	-0.05156156
7	0xbc61fbee	-0.013792975
8	0xbdef07bc	-0.11671397
9	0xbdcd83cb	-0.10034903
10	0xbe2fd7da	-0.17172185
11	0xbd370227	-0.044679787
12	0x3d5a6f9b	0.05332909
13	0xbd880162	-0.06640889
14	0xbd06f74d	-0.03295069
15	0x3ce72f85	0.028220901
16	0xbd33d968	-0.043908507
17	0xbccfd82e	-0.025371637
18	0x3d9dce83	0.077054046
19	0xbcb76221	-0.022385659
20	0xbc41117f	-0.011783957
21	0x3d1586a7	0.036505368
22	0xbd262f82	-0.04057265
23	0xbcccad06	-0.024984848
24	0x3b9fae82	0.004873098
25	0x3d21eebc	0.039534315
26	0x3cee1ee0	0.029067457
27	0x3d18ab70	0.03727287
28	0x3c766c7e	0.015040515
29	0x3cbb1de9	0.02284141
30	0x3d9473f9	0.072486825
31	0x3d20550c	0.039143607
32	0x3b04e81c	0.002027995
33	0xbcfd36bc	-0.030909888
34	0xbd0ad01e	-0.033889882
35	0xbdfe48a4	-0.12416199
36	0x3dddb8aa	0.108262375
37	0x3d2a7dda	0.041623928
38	0x3d17b881	0.03704119
39	0xbbe0ab82	-0.006856383
40	0xbde25f39	-0.110533185
41	0xbcda83c3	-0.026674157
42	0x3d181a89	0.03713468
43	0xbd265c84	-0.040615574
44	0xb959c771	-0.0002076903
45	0xbc31b048	-0.010845251
46	0x3bbfeb93	0.00585694
47	0xbc9fcc31	-0.019506546
48	0x3c0f21e4	0.0087361075
49	0x3df2312e	0.118257865
50	0xbcecaf7c	-0.028892271
51	0x3c1f3e35	0.009719421
52	0x3bad95a6	0.0052973805
53	0xbd8f63ff	-0.070014946
54	0x3cf8eccb	0.03038635
55	0xbd453abf	-0.048151728
56	0x3d8e002d	0.06933627
57	0x3d593254	0.053026512
58	0xbde24e5f	-0.11050104
59	0x3d42a493	0.04752023
60	0x3d2f6aa8	0.042826325
61	0xbb8cacd2	-0.0042930627
62	0xbd3ab6c8	-0.04558447
63	0xbcb560a0	-0.022140801
64	0xbcfb258d	-0.030657554
65	0xbdf301ec	-0.11865601
66	0x3bfb3493	0.0076661794
67	0x3d023bf7	0.03179547
68	0xbc894d42	-0.016760472
69	0xbd920552	-0.07129921
70	0x3c7c8ab7	0.015413932
71	0x3c0a6206	0.008446222
72	0x3c20879e	0.009797959
73	0x3ca95660	0.02067107
74	0xbc8a73ad	-0.016900862
75	0x3c5395fc	0.012914177
76	0x3cccab80	0.024984121
77	0xbe057897	-0.13034283
78	0xbbbacb17	-0.0057004797
79	0xbd833ae8	-0.0640772
80	0xbb1c9fc3	-0.0023898936
81	0xb9329474	-0.00017030706
82	0x3d3186e1	0.04334152
83	0x3d98915a	0.074495986
84	0xbd3e83fa	-0.04651258
85	0xbda9b4f6	-0.08286469
86	0xbe1dcf51	-0.15411116
87	0x3dcacade	0.09901975
88	0xbc9783b8	-0.018495426
89	0x3c8bcb30	0.01706466
90	0xbd50125e	-0.050798766
91	0xbd1604c0	-0.036625624
92	0x3cbac074	0.022796847
93	0x3d00a50c	0.0314074
94	0xbcbcbd30	-0.02303943
95	0x3d1d7b00	0.03844738
96	0xbca124bf	-0.019670842
97	0x3d556cdf	0.05210578
98	0xbd10f2f8	-0.035387963
99	0xbc8a565f	-0.016886888
100	0xbd39fdbe	-0.045408003
101	0xbd390aae	-0.0451762
102	0x3accf4d2	0.0015636927
103	0xbdc0a138	-0.0940575
104	0xbd97f6e7	-0.0742014
105	0xbc563848	-0.013074942
106	0xbc8cfdf4	-0.017210938
107	0xbd722256	-0.059114777
108	0x3d563df1	0.052305166
109	0x3cfd466e	0.030917373
110	0x3cb9d6c5	0.022685418
111	0xbbe3c28c	-0.006950682
112	0xbdac93d4	-0.084266335
113	0xbcaca830	-0.021076292
114	0x3d528081	0.051392082
115	0xbd58a47e	-0.052891247
116	0xbd3db274	-0.046312764
117	0x3c896d23	0.016775673
118	0xbdc3ec35	-0.09566537
119	0x3d8015e2	0.06254174
120	0xbba8a6a5	-0.0051468187
121	0xbe388476	-0.1801928
122	0xbd8d6e5d	-0.06905816
123	0xbcd928b5	-0.026508668
124	0xbe06977a	-0.13143721
125	0xbd3532d0	-0.04423791
126	0x3d7ca806	0.061683677
127	0x3ced57f8	0.02897261
128	0xbda82142	-0.082094684
129	0x3d1b81ca	0.037965573
130	0x3e0fb4fd	0.14033885
131	0xbcf33e53	-0.029692804
132	0xbd54d7be	-0.05196356
133	0xbcf13dc7	-0.029448403
134	0x3d5b875d	0.05359589
135	0xba5d576c	-0.0008443508
136	0x3d2811e6	0.041032694
137	0x3cfef65b	0.03112333
138	0x3d1d4431	0.03839511
139	0x3d0b84fb	0.034062367
140	0xbbb8c6be	-0.0056389263
141	0x3c3df89d	0.011594919
142	0x3d2bf17f	0.041978355
143	0x3d998525	0.074960984
144	0x3daaa2ed	0.08331857
145	0xbdb38048	-0.08764702
146	0xbdf4bc57	-0.119499855
147	0x3b2eca97	0.0026671046
148	0xbdc1005e	-0.09423898
149	0x3d068619	0.03284273
150	0x3da577b3	0.080794714
151	0x3dcd9c85	0.10039619
152	0xbd321975	-0.04348131
153	0xbd89c389	-0.067267485
154	0xbc6f0b06	-0.014590031
155	0xbca3d113	-0.019997155
156	0xbc805600	-0.015666008
157	0xbd8a5150	-0.067537904
158	0xbb19fd0c	-0.0023496775
159	0x3d213e7b	0.039366227
160	0x3c028787	0.007966883
161	0xbb315f53	-0.0027064874
162	0x3d13e4c5	0.036106844
163	0xbd053745	-0.032523412
164	0xbe1d8f3e	-0.15386674
165	0x3c6a81d8	0.014313184
166	0x3d8ef76f	0.06980788
167	0x3d8b2554	0.06794229
168	0x3d934dad	0.0719255
169	0x3dcbe571	0.09955872
170	0x3d3b11ff	0.04567146
171	0xbb6ebb28	-0.0036427472
172	0xbd467661	-0.04845274
173	0xbc782d44	-0.015147511
174	0x3b776d03	0.0037754185
175	0x3c53d654	0.012929518
176	0xba20a0ef	-0.00061274966
177	0xbd799e10	-0.060941756
178	0x3b8a06c3	0.004212232
179	0xbd7053c2	-0.058673628
180	0x3c785a4f	0.01515825
181	0x3c89d829	0.016826706
182	0xbd823d49	-0.063593455
183	0x3d36fa4c	0.044672295
184	0xbd859fc9	-0.06524617
185	0x3caa4f1c	0.020789675
186	0xbc72ffee	-0.014831526
187	0xbd9cf41d	-0.076637484
188	0xbdb3fa82	-0.08788015
189	0x3db38ada	0.08766718
190	0x3e075883	0.13217358
191	0x3d619c04	0.05508043
192	0xbc80dfb8	-0.015731677
193	0x396e195c	0.00022706896
194	0x3d574805	0.052558918
195	0xbc6b2029	-0.014350929
196	0xbb35fa44	-0.0027767578
197	0x3b2db638	0.0026506316
198	0xbd06f857	-0.03295168
199	0xbdf159a7	-0.11784678
200	0x3d7bc124	0.06146349
201	0xbd87c12a	-0.0662864
202	0xbdca5b41	-0.098806866
203	0xbdc81c88	-0.09771067
204	0xbd5309e9	-0.051523123
205	0xbc30f60d	-0.010800851
206	0xbd6a91dc	-0.05726801
207	0xbd114ff6	-0.035476647
208	0xbcf85037	-0.030311687
209	0xbcc5d8b8	-0.024151191
210	0x3c11603c	0.008873042
211	0xbdf75b93	-0.12078013
212	0xbd36f901	-0.044671062
213	0xbcf1ad93	-0.029501712
214	0xbdaa23e3	-0.08307626
215	0xbd9dd887	-0.07707315
216	0xbc3f23f8	-0.01166629
217	0xbc2b9c39	-0.010474258
218	0xbd5745fe	-0.052556984
219	0x3c196b31	0.009363935
220	0xbcc22817	-0.023700757
221	0xbe5655db	-0.20931189
222	0x3d93a240	0.07208681
223	0xbc3195a1	-0.010838897
224	0xbd5349e8	-0.051584154
225	0x3df2912e	0.11844097
226	0x3dd926b6	0.10603087
227	0xbd1f4bcc	-0.038890645
228	0x3cb0c027	0.021576
229	0x3dc8a228	0.09796554
230	0x3c8c92ae	0.017159786
231	0x3ce7e8d1	0.028309258
232	0x3d288c03	0.04114915
233	0x3d609732	0.05483169
234	0x3de8da05	0.11369709
235	0x3dc7a594	0.097483784
236	0x3d9d9839	0.0769505
237	0x3e14c9ed	0.14530154
238	0x3db869ea	0.090045765
239	0xbd4dc681	-0.050238136
240	0x3cff0695	0.031131068
241	0x3df6335f	0.12021517
242	0xbc77e7d8	-0.015130959
243	0xbd4ab1a0	-0.049485803
244	0x3d856391	0.065131314
245	0xbd595c54	-0.053066567
246	0x3daf109a	0.08548088
247	0xbb822202	-0.003971339
248	0x3d1629c8	0.03666094
249	0xbce81022	-0.028328005
250	0x3acdec9c	0.0015710774
251	0x3b95d42f	0.0045724134
252	0xbd8ef5f9	-0.06980509
253	0xbd87b614	-0.066265255
254	0x3cda4f46	0.026649129
255	0xbc95bb90	-0.018277913

model.8.bias f4 [128]
0	0xbc7e9b2d	-0.0155399265
1	0xbe9ff4ca	-0.31241447
2	0x3ce1f4b6	0.027582508
3	0xbd900afb	-0.07033344
4	0x3ddb9dad	0.10723434
5	0xbc2d086d	-0.010561091
6	0xbe04a481	-0.12953378
7	0xbeebe770	-0.4607501
8	0xbe4c3b37	-0.19944464
9	0xbe24c8c1	-0.16092207
10	0xbd0f685a	-0.035011627
11	0xbdc9a40b	-0.09845742
12	0xbde1229d	-0.1099293
13	0xbe159c47	-0.14610396
14	0xbec531f0	-0.38514662
15	0x3cbf466a	0.023349006
16	0xbdf09339	-0.117468305
17	0xbea93d17	-0.3305442
18	0xbd88232d	-0.06647334
19	0xbdf30a67	-0.118672185
20	0xbebe40c0	-0.37158775
21	0xbda81115	-0.08206383
22	0xbece6eec	-0.40319002
23	0x3aa222e0	0.0012370013
24	0xbe7309c9	-0.23734201
25	0x3b62ef20	0.0034627393
26	0xbdff52ac	-0.1246694
27	0xbd8c0636	-0.06837122
28	0xbcb5b59b	-0.022181323
29	0xbe0d6eb3	-0.1381176
30	0xbdeb95c1	-0.11503173
31	0xbdb2bea3	-0.08727767
32	0xbe1897d5	-0.1490167
33	0xbdc1a34a	-0.09454973
34	0x3c971e48	0.018447056
35	0xbe3d472e	-0.18484184
36	0xbe1bc486	-0.15211686
37	0xbeae1d46	-0.3400671
38	0xbdf79f1d	-0.12090895
39	0x3d65e977	0.056130853
40	0xbe4c4725	-0.19949014
41	0xbd1d87ba	-0.038459517
42	0x3d678c70	0.056530416
43	0xbe2247a3	-0.1584764
44	0xbe7f8325	-0.24952371
45	0xbdc668ba	-0.09687944
46	0xbdef903b	-0.11697432
47	0xbe073203	-0.13202672
48	0xbd3d9cc7	-0.046292093
49	0xbd13f6b7	-0.036123957
50	0x3da793e0	0.08182502
51	0xbc2d7c08	-0.010588653
52	0xbe5f26e3	-0.21792178
53	0xbd239d3c	-0.039944872
54	0xbdedce45	-0.116116084
55	0xbb3de537	-0.0028975734
56	0xbe363a63	-0.1779571
57	0xbe7b1aaf	-0.24521898
58	0xbbae75c7	-0.0053240987
59	0x3da34b19	0.07973308
60	0xbe19b1e4	-0.15009266
61	0xbe296dcc	-0.1654579
62	0xbee75b10	-0.45186663
63	0xbc91ad26	-0.017782759
64	0xbdbdcce6	-0.09267597
65	0xbcd100f2	-0.025513146
66	0xbe1e77d1	-0.15475394
67	0xbd96268d	-0.07331572
68	0xbeb81782	-0.35955435
69	0x3b930943	0.004487188
70	0x3c222385	0.009896164
71	0xbdec85a4	-0.115489274
72	0xbd52680a	-0.05136875
73	0xbdcbc9b1	-0.09950579
74	0xbd41e837	-0.047340598
75	0x3d62cdd0	0.05537206
76	0xbdee786f	-0.11644065
77	0xbd8c4159	-0.068484016
78	0xbd78ad46	-0.06071212
79	0xbe08db32	-0.13364866
80	0x3d64a60d	0.05582242
81	0xbe865cba	-0.2624262
82	0xbe17c1a4	-0.14819962
83	0xbd4bf623	-0.04979528
84	0x3d18012d	0.037110496
85	0xbec981c0	-0.39356804
86	0xbe9de26c	-0.3083681
87	0xbce822ba	-0.028336871
88	0xbc75ff66	-0.015014505
89	0xbe1338a4	-0.14377075
90	0xbda10d71	-0.07863892
91	0xbda9cd28	-0.082910836
92	0xbd8be194	-0.06830135
93	0xbd4da4ee	-0.050206117
94	0xbdb90cd5	-0.09035651
95	0x3d67141b	0.05641566
96	0xbd29750e	-0.041371398
97	0xbe06b463	-0.1315475
98	0xbd86255f	-0.06550097
99	0xbe51691b	-0.20450251
100	0xbe5e8836	-0.21731648
101	0xbdbc086f	-0.09181296
102	0xbe8df041	-0.27722362
103	0xbe146a1d	-0.14493604
104	0xbaa485ca	-0.0012552079
105	0xbe107456	-0.14106879
106	0xbc742048	-0.014900275
107	0xbe11d7be	-0.14242455
108	0xbd3082d8	-0.043093532
109	0xbda3577c	-0.07975671
110	0xbd9df661	-0.07713009
111	0x3b884756	0.0041588945
112	0x3d0037a0	0.031303048
113	0xbbf80264	-0.0075686444
114	0xbde8ff90	-0.1137687
115	0xbe1d24e6	-0.15346107
116	0xbda7913f	-0.08182
117	0xbe087971	-0.13327576
118	0xbe958eff	-0.2921066
119	0xbe977a84	-0.2958566
120	0xbc3c1569	-0.011479714
121	0xbea4bb59	-0.32174185
122	0xbe82bff2	-0.25537068
123	0xbd07ed20	-0.033185124
124	0xbeb90efd	-0.36144248
125	0xbe91f538	-0.285074
126	0x3d0e95c2	0.03481079
127	0xbe152314	-0.14564162

model.10.weight f4 [128]
0	0x3f4f5b65	0.8099883
1	0x3f7fff8b	0.999993
2	0x3f70eac3	0.9410822
3	0x3f74e5e1	0.9566327
4	0x3f6e0802	0.9298097
5	0x3f7ae917	0.98011917
6	0x3f5945dd	0.8487223
7	0x3f7df8eb	0.99207944
8	0x3f7ff10e	0.99977195
9	0x3f79ec08	0.9762578
10	0x3f761f84	0.9614184
11	0x3f79135e	0.97295177
12	0x3f76e367	0.9644074
13	0x3f68c2a1	0.9092198
14	0x3f7fff74	0.99999166
15	0x3f78d098	0.9719329
16	0x3f7dbd5f	0.9911708
17	0x3f7f8c5c	0.99823546
18	0x3f7da355	0.9907735
19	0x3f6b6b04	0.9196017
20	0x3f7ffff5	0.99999934
21	0x3f703518	0.93831015
22	0x3f7fffa0	0.9999943
23	0x3f74f40a	0.95684874
24	0x3f7ab63c	0.9793432
25	0x3f61bbe4	0.88177323
26	0x3f7fd0a4	0.99927735
27	0x3f7434c0	0.9539299
28	0x3f778e55	0.96701556
29	0x3f7b1b24	0.9808829
30	0x3f645968	0.89198923
31	0x3f6b5202	0.9192201
32	0x3f5b5e92	0.8569118
33	0x3f67fca6	0.90619886
34	0x3f5646d6	0.8370184
35	0x3f6ff6ac	0.93735766
36	0x3f66062f	0.89853185
37	0x3f7ff4cb	0.999829
38	0x3f7fffde	0.999998
39	0x3f7e13fb	0.9924924
40	0x3f5404f3	0.8282005
41	0x3f6ebc9b	0.9325654
42	0x3f79c541	0.9756661
43	0x3f736764	0.95079637
44	0x3f7ffd63	0.9999601
45	0x3f7cd03d	0.98755246
46	0x3f6ed27c	0.93289924
47	0x3f794486	0.97370183
48	0x3f71d578	0.9446635
49	0x3f455948	0.7708936
50	0x3f6f5c46	0.93500173
51	0x3f6720a8	0.90284204
52	0x3f7b0e6c	0.9806888
53	0x3f67eab2	0.9059249
54	0x3f716a12	0.94302475
55	0x3f798ded	0.97482187
56	0x3f7df10c	0.99195933
57	0x3f7e6150	0.9936724
58	0x3f6deb53	0.929372
59	0x3f78ff42	0.9726449
60	0x3f733b10	0.95012
61	0x3f6c3d80	0.9228134
62	0x3f7ffa70	0.9999151
63	0x3f3b50d2	0.73170197
64	0x3f7e334d	0.9929703
65	0x3f6cdef8	0.92527723
66	0x3f7da970	0.99086666
67	0x3f7e5334	0.9934571
68	0x3f7f8c29	0.9982324
69	0x3f64a355	0.89311725
70	0x3f7c5516	0.9856733
71	0x3f6e460e	0.93075645
72	0x3f6be83d	0.9215124
73	0x3f7fb679	0.99887806
74	0x3f7ee75b	0.9957177
75	0x3f7b6680	0.9820328
76	0x3f6b2351	0.91850764
77	0x3f7fff58	0.99999
78	0x3f728542	0.94734585
79	0x3f7ff9f1	0.99990755
80	0x3f634eba	0.88792
81	0x3f793fc0	0.973629
82	0x3f786753	0.9703266
83	0x3f75d68c	0.960305
84	0x3f69ddd5	0.91354114
85	0x3f7fffa0	0.9999943
86	0x3f78b701	0.9715424
87	0x3f7ff9a7	0.99990314
88	0x3f7d751e	0.9900683
89	0x3f6a943e	0.9163245
90	0x3f66b7aa	0.90124
91	0x3f157fd7	0.58398193
92	0x3f572be6	0.8405136
93	0x3f2b6fde	0.6696757
94	0x3f71df9a	0.94481814
95	0x3f7eee6f	0.9958257
96	0x3f5e88a2	0.86927235
97	0x3f5d3a76	0.8641733
98	0x3f7b3067	0.9812073
99	0x3f7fd963	0.9994108
100	0x3f724204	0.9463198
101	0x3f4dcab4	0.80387425
102	0x3f7d9b18	0.9906478
103	0x3f71a112	0.943864
104	0x3f6b1337	0.91826195
105	0x3f756489	0.9585653
106	0x3f5ddae9	0.86662155
107	0x3f4ae209	0.7925115
108	0x3f76e80f	0.96447843
109	0x3f742d96	0.9538206
110	0x3f75fd90	0.9609003
111	0x3f6fbf47	0.9365124
112	0x3f729ce7	0.94770664
113	0x3f66a33e	0.9009284
114	0x3f7422a3	0.9536535
115	0x3f754c10	0.9581919
116	0x3f6eb8c0	0.93250656
117	0x3f6c6d9d	0.92354757
118	0x3f7fe201	0.9995423
119	0x3f7fe453	0.9995777
120	0x3f4ae1ae	0.7925061
121	0x3f76bfd9	0.96386486
122	0x3f7fc78a	0.9991385
123	0x3f6a010b	0.9140784
124	0x3f7fff79	0.99999195
125	0x3f7fbdc8	0.9989896
126	0x3f5d8b52	0.8654071
127	0x3f791197	0.97292465

model.10.bias f4 [128]
0	0xbc76bb09	-0.015059241
1	0xbda7cf1c	-0.081938
2	0x3db00f93	0.085967205
3	0x3da9c062	0.08288647
4	0xbd8d87cc	-0.06910667
5	0x3dbf82ff	0.093511574
6	0xbd67acb8	-0.0565612
7	0xbd9be491	-0.07611955
8	0x3dbe9d24	0.09307316
9	0xbd7e1182	-0.062028416
10	0x3da06316	0.07831399
11	0x3db8519b	0.0899994
12	0x3db66530	0.08906019
13	0xbd0cc615	-0.034368593
14	0xbda71f58	-0.08160275
15	0xbc3b8aef	-0.011446699
16	0xbdaa84be	-0.083261
17	0xbdb1b295	-0.0867664
18	0x3db1841c	0.08667776
19	0xbda02551	-0.078196175
20	0xbda8939b	-0.082312785
21	0x3df3007e	0.11865328
22	0xbda5107d	-0.080597855
23	0x3daac283	0.083378814
24	0xbd9f4f72	-0.07778825
25	0x3da26499	0.07929344
26	0xbda6040f	-0.08106243
27	0xbda21e1a	-0.07915898
28	0x3db9872e	0.090589866
29	0xbda271ce	-0.07931863
30	0x3b0ee7c5	0.0021805626
31	0xbd9b6817	-0.07588213
32	0x3daf82c7	0.08569866
33	0x3db7b723	0.089704774
34	0xbd21bae7	-0.039484885
35	0xbd963d39	-0.07335896
36	0x3d9c2fce	0.076263055
37	0xbda18dde	-0.07888387
38	0xbda6cb7d	-0.08144281
39	0xbd4b423e	-0.04962372
40	0x3db81e7b	0.08990189
41	0xbd2db6d6	-0.042410694
42	0xbcd0687a	-0.025440443
43	0x3db851d2	0.08999981
44	0xbda8d444	-0.082436115
45	0x3dd94fcb	0.106109224
46	0x3db236f4	0.08701888
47	0x3db28112	0.087160245
48	0xbbcf1c3d	-0.006320505
49	0x3db0419a	0.086062625
50	0x3ba6765e	0.0050800284
51	0xbd91f24f	-0.07126295
52	0xbda651c8	-0.08121067
53	0xbd8d0f68	-0.06887704
54	0x3dba0d2c	0.090845436
55	0x3d92b5c1	0.07163573
56	0x3db80e4c	0.08987102
57	0xbda4a490	-0.080392
58	0x3b9ef8ac	0.0048514213
59	0x3d41df60	0.047332168
60	0x3dbbaedb	0.091642104
61	0x3dbacc7d	0.09121034
62	0xbd9c08be	-0.07618855
63	0xbd024257	-0.031801548
64	0xbdaeaca7	-0.085290246
65	0xbd96b5bb	-0.07358881
66	0x3db925cc	0.09040412
67	0x3daf1c20	0.08550286
68	0xbd996aae	-0.07491051
69	0x3dc5ed7c	0.09664437
70	0xbd9dad31	-0.07699049
71	0x3dc8e446	0.09809165
72	0xbda4c58f	-0.08045494
73	0xbda85fe6	-0.08221416
74	0x3db05970	0.08610809
75	0xbdaec948	-0.08534485
76	0x3db4973f	0.088179104
77	0xbdabdb0b	-0.083913885
78	0x3d26f20c	0.040758178
79	0xbda60e86	-0.08108239
80	0xbd504b8c	-0.050853297
81	0xbda05600	-0.07828903
82	0x3db50a0a	0.088398054
83	0xbd9511fa	-0.072788194
84	0xbd9a26d5	-0.07526938
85	0xbdab7eee	-0.08373819
86	0xbd9e4d0e	-0.07729541
87	0x3db2c90f	0.08729755
88	0xbda999fe	-0.08281325
89	0x3dabcf95	0.083892025
90	0x3db437cb	0.08799704
91	0x3d7c32fd	0.061572064
92	0x3d088b1e	0.033335797
93	0x3dac7873	0.08421411
94	0xbd918d17	-0.07106989
95	0xbda3f470	-0.08005607
96	0x3dac8169	0.084231205
97	0x3dbd3f49	0.09240586
98	0xbda9e57d	-0.082957245
99	0xbda4f7a3	-0.080550455
100	0x3dd75ded	0.10515962
101	0x3db8e778	0.09028524
102	0xbda2fcd1	-0.07958377
103	0x3da5f9e1	0.08104301
104	0xbda33ede	-0.07970975
105	0x3da6a84d	0.081375696
106	0x3ddf5ecd	0.10906754
107	0x3db666a9	0.089062996
108	0x3de397e3	0.111129545
109	0xbda273bc	-0.07932231
110	0xbd9fcd19	-0.07802791
111	0xbd97298f	-0.073809735
112	0x3d427cfb	0.047482472
113	0x3dd2e285	0.102971114
114	0x3db69271	0.0891465
115	0x3db299f8	0.087207735
116	0xbd9f317d	-0.07773111
117	0x3dc79251	0.097447045
118	0xbda5e2b5	-0.080998816
119	0xbda40ea8	-0.08010608
120	0x3dc8dbbc	0.09807536
121	0xbda1cd78	-0.07900518
122	0xbda2f48f	-0.07956802
123	0xbda14b51	-0.078756936
124	0xbda2fb6a	-0.0795811
125	0x3dced147	0.1009851
126	0xbd995a81	-0.074879654
127	0x3db308f5	0.08741943
