Lab4/models/gan_models/vbn_wgan_1000e_250b_dis.pth (torch, 398261 bytes, 15 tensors)

model.0.weight f4 [16, 3, 3, 3]
00000000: 5a5f 013e 9d5e 96bd 3ec0 2c3e 423c 873d
00000010: e19e c33d 8e4a 15bd 02d9 753d e8fa 553d
00000020: 50fd d4bd c5e8 d23d 8f2b f93d 4fda a8bc
00000030: 995d 34bd 9771 20be ec39 2b3e f2df 7abc
00000040: 6064 703c c7e3 933d 218f 21be b76d ddbc
00000050: 06ff b8bd e9b0 0b3e c3b6 a93d bad0 01be
00000060: 2a4f 8c3c 05b9 45be 8a31 b4bd 28d1 10bd
00000070: f598 a8bd d607 e33d e98a 0bbe 2d04 203d
00000080: 20a3 03be 6ac1 9dbd c9bc 11be 83c0 28be
00000090: 95f6 39be ff8c d43d 400b 88bc b1d1 003d
000000a0: 8d78 a63d feca 263d 7ee3 ab3d 5fb7 db3d
000000b0: d1dd 87bd 1c0f 73bd d7f6 ccbd 781a 053e
000000c0: 9d50 8bbd 7e0d 033e f8da b6bd da43 193e
000000d0: ff50 ae3d bc54 753d 9775 e6bd 9077 3e3e
000000e0: 32bf bf3d 710b a53d 7bf5 21be d8bf 303d
000000f0: 3d8f 143e a535 373e d19c cd3d 0271 43be
00000100: a3be 273e a479 fcbc eace e83d 8854 243e
00000110: ed86 62bc c700 c9bc 1a36 08be 12c0 37be
00000120: d5b9 303e 842c 013e 2839 28bd aa2f efbd
00000130: 6227 11be 5f22 e13d 13fa 5dbd ee19 733d
00000140: 1224 33be f009 813d fb63 813d d000 07be
00000150: d9a7 143e 74d2 5c3d 1afd ecbd d0d1 853d
00000160: 029d bcbd f965 11bd e097 a8bc 3574 fabd
00000170: 1bb2 023e 7095 66bd 1a52 0c3e a555 c33d
00000180: d01a 6cbd d166 d8bd dc70 7dbd ad99 2a3e
00000190: 6f6e 193e e4ec 84bc 05cf 2fbe 752c 943d
000001a0: 4f6c 80bd 62c8 183e 0ff3 513d 5b40 883d
000001b0: aeb0 643d cc65 c6bd 4181 243e deb6 21be
000001c0: 6277 e4bd 365a 2d3e 7818 c53d d9a1 35be
000001d0: ff70 3cbe 9a2e 0bbe f7ef bd3d 5c41 bb3d
000001e0: e48b 3bbe c53b 68bc 0ab3 663d 620a b53d
000001f0: 4079 8a3d cc7f efbd 3464 3abe 764d 6e3d
00000200: 6817 b9bd 340b c0bc db61 c2bb 10ef 1fbe
00000210: 8439 a33b 0aed 513d 6d40 04bd 0570 0b3e
00000220: 7009 e93d a3e0 223e 7131 2dbe 9b47 483d
00000230: 4d89 123e ad28 093e 62db 25be 1000 d83d
00000240: ba07 43be 1dd5 81bc 2f37 70bd e245 e43d
00000250: 4614 8bbd 6112 433d 6bf1 293e 9ad4 27bc
00000260: edef b8bd 7af8 4a3d dba3 de3d f04f 0e3d
00000270: 5274 34be 3eab 01be 6b71 143d 796e 11be
00000280: a06e 693d 1a9a 36be f3e8 23be 3253 f33d
00000290: fd38 013e f120 24be d686 32be 1d8a a2bd
000002a0: b783 293e ac7c 18be 31ba d4bd 65e3 3b3e
000002b0: 00eb 863d 02df fa3d b95d 29be 867e 883d
000002c0: ad52 b23d f0df 27be 8a61 ce3d d738 96bd
000002d0: 69ea f4bd 01af e9bc f0c9 213e 5f9a 283c
000002e0: 9702 333e 246d 07bd 70af dc3d 69cc ad3d
000002f0: ecc5 f6bd 1d91 aabd 8ae3 50bd 0a4d 283e
00000300: c406 9bbd aafc bd3d 1956 e6bd dc0b aa3d
00000310: 5d31 243e 581d 6bbd 643c 06bd 480a 08bc
00000320: 6cad e93d fa9e b23c 31ca 44bc 995d 723d
00000330: 35f0 023e dcf6 b8bc fd21 5bbc 798a 283e
00000340: 6b18 9dbd 7eac 29be 6aa5 10be 0551 cebd
00000350: 650f cc3d 0b61 65bd e544 fa3d bb43 403b
00000360: 16f4 693c 064f 913d 9a7b 353e c0e1 04bd
00000370: 016e d43d 1dea e5bd abc1 83bd fb91 213e
00000380: 605e 1c3e 4573 343e 3949 353e 9ec9 1dbe
00000390: 1f50 443e 2c08 653d c2e3 423e f5e2 32be
000003a0: 211b d83d 48f1 953d a7f9 fbbc c9fb 323e
000003b0: fe7a 233e c62d a7bc d293 a33d 09cd 943d
000003c0: b514 1c3e 8edb 2bbe a2ab 7b3a facf 0a3d
000003d0: 38b2 083e e0e5 373b 415f 13be 1a7c 493d
000003e0: 5d45 dc3d 10c7 abbd 9314 0a3e c06b 2c3e
000003f0: aa19 f9bd 42e9 b93d 2573 05be 41eb 17be
0.1263403 -0.07342265 0.1687021 0.0660329 0.09551788 -0.036448054 0.060021408 0.052241236
-0.10399878 0.102983035 0.12166511 -0.02061191 -0.044034574 -0.15668331 0.16721314 -0.015312182
0.014672369 0.072211795 -0.15777256 -0.027029855 -0.09033017 0.13641705 0.08286812 -0.12677279
0.017127592 -0.1930886 -0.08798511 -0.035355717 -0.08232299 0.11085479 -0.13627209 0.039066482
-0.12855196 -0.077029064 -0.14232172 -0.16479687 -0.1816047 0.10378455 -0.016606927 0.031449977
0.08128462 0.040720932 0.08393 0.10728335 -0.06634105 -0.05934058 -0.100080185 0.12998378
-0.06802485 0.12798116 -0.08928484 0.1496729 0.085115425 0.059895262 -0.11252897 0.18600297
0.093626395 0.08058823 -0.158163 0.043151706 0.14507766 0.17891558 0.10039676 -0.19086078
0.16381316 -0.030819722 0.11367591 0.16047871 -0.013826114 -0.024536503 -0.13301888 -0.17944363
0.1725839 0.12614638 -0.041070133 -0.11679013 -0.1417518 0.10992884 -0.054193567 0.0593509
-0.17494228 0.063007236 0.06317898 -0.13183904 0.14517154 0.05391164 -0.11571713 0.06534159
-0.09209634 -0.03549764 -0.020580232 -0.12229196 0.12763254 -0.05629486 0.13703194 0.0953782
-0.057642758 -0.10566486 -0.06187521 0.16660185 0.14983533 -0.01622624 -0.17168815 0.07235042
-0.06270658 0.1492019 0.05125719 0.066529 0.055832557 -0.09687385 0.16064931 -0.15792415
-0.11155583 0.16928944 0.09623808 -0.17737521 -0.1840248 -0.13591996 0.09274285 0.09143326
-0.18315083 -0.014174406 0.05632309 0.08839871 0.06761408 -0.11694297 -0.18202287 0.05817934
-0.090376675 -0.023442842 -0.0059320754 -0.15618539 0.0049812216 0.05125145 -0.032288004 0.13616951
0.11378753 0.15906005 -0.16913392 0.048896413 0.14310189 0.13394423 -0.16196969 0.10546887
-0.19045916 -0.01584869 -0.058646377 0.111461416 -0.06790976 0.04762495 0.16596 -0.010243559
-0.09030137 0.049553372 0.10871097 0.034744203 -0.17622498 -0.1266298 0.036240976 -0.14202298
0.056990266 -0.17832223 -0.16006832 0.118811026 0.12619396 -0.16028191 -0.17434248 -0.07936499
0.16554151 -0.14891309 -0.10387076 0.18348463 0.065877914 0.122495666 -0.16539659 0.066647574
0.087071754 -0.16394019 0.10077198 -0.0733506 -0.11958773 -0.028525831 0.1579969 0.010290711
0.17481457 -0.03306307 0.107756495 0.08486254 -0.12049469 -0.083284594 -0.05099825 0.16435638
-0.0756965 0.092767075 -0.112468906 0.08303043 0.16034456 -0.05740103 -0.032772437 -0.0083032325
0.11410031 0.021804322 -0.012011097 0.059171293 0.12786944 -0.02257865 -0.013374803 0.16459073
-0.07670673 -0.16569707 -0.141256 -0.10074047 0.09963874 -0.05600075 0.12220172 0.0029337246
0.014279386 0.07095151 0.17722932 -0.032441854 0.10372544 -0.11226294 -0.064334236 0.15778343
0.15270376 0.17622097 0.17703713 -0.15408942 0.19171189 0.055915996 0.19032195 -0.1746939
0.105520494 0.07321411 -0.030758692 0.17478861 0.15964887 -0.020407569 0.07987179 0.0726567
0.15242274 -0.16782972 0.00096004654 0.03388975 0.13349235 0.00280606 -0.14391805 0.049190618
0.107554175 -0.083875775 0.13484411 0.16837978 -0.12163098 0.090776935 -0.13032205 -0.14835836

model.0.bias f4 [16]
00000000: 847c abbd 64ef 26be 690a 4bbd 6b65 0fbe
00000010: 963e c53d fbe9 22be 3666 90bc 3949 a2bd
00000020: 35ca 263e 8136 da3c 51da e13b 87e1 493d
00000030: 8390 c03d edfa 403e b8f7 25be 4ed7 2bbe
-0.08373359 -0.16302258 -0.049570475 -0.14003532 0.09631078 -0.15909569 -0.017626863 -0.07924122
0.16288073 0.026637318 0.0068924804 0.049287345 0.094025634 0.1884572 -0.16207778 -0.16781351

model.2.weight f4 [32, 16, 3, 3]
00000000: ed72 763d de35 8bbc 9659 70bb b3cf deba
00000010: 0e33 803d 1967 d63c dbc7 993d 50e3 a53d
00000020: 3957 8d3d da52 7c3c e99a 95bd 1341 f6bc
00000030: 378b fc3c 2bed f23b 6801 6abc 776c 983d
00000040: 5bdf 73bd 0966 593d b94e 0d3d a236 923d
00000050: 642c ca3b 30b7 15bd bbc3 aa3d 3b1c 8fbb
00000060: 3a74 2d3d 885a d1bc de60 9b3d e3df 8cbd
00000070: 3c7a e4ba 9d92 aebc 86c9 79bd 571e aabd
00000080: cf1f 06bc 377f 3a3d 5b08 c2bc e48f 673d
00000090: bda8 f9bb 72d2 953d 84d8 30bd 45b7 37bd
000000a0: 4405 673c 3ea7 10bc 139f 0abd 180b 4f3b
000000b0: c245 39bd b8c2 a1bc bfa4 8a3d 13f8 3d3d
000000c0: a069 4a3c 2b88 9e3b 2cc2 7e3c a232 893d
000000d0: 5d93 393d b3c5 5c3b 7955 58bd dd7b 3ebd
000000e0: 2615 623d 3d73 b8bb 8746 8e3d 9dd1 e0bc
000000f0: 9410 cd3b 68ea f5bc ce02 b6bb 6f43 a33c
00000100: b238 93bd 8fc3 6e3c b3ce 893c 2287 8a3d
00000110: 4f59 903c f13b 9ebd 992c 9e3d 30f7 69bd
00000120: 2ade 74bd 135b 7c3c 7406 a23d d889 12bd
00000130: 87ff 0fbd 2813 633d 59f0 e2bc c785 03bd
00000140: 5b11 4c3d 9839 a7bc e049 013d e640 b7bc
00000150: e08d 843d e8e1 543d 63f7 923d e7f0 763d
00000160: e87e 9c3d d32b ce3c d283 5fbd 2049 893d
00000170: d925 00bb bf50 8fbd 3865 46bd 18e7 a0bc
00000180: 9f13 ebbc 232d 42bd 5e57 67bd f484 dcbc
00000190: 672f 33bb 2678 923d 8e22 8dbd 0c5b 6c3d
000001a0: 6649 103d 1aa8 31bd 2b39 ab3d 0b10 45bd
000001b0: c354 adbb 9d36 96bd 0657 233d 7957 01bd
000001c0: 31cf 80bd 83c7 96bd c6ad 4abd bfad 07bd
000001d0: 6381 5bbd 1a27 37bd d708 713d 67d6 273d
000001e0: 3530 91bd f447 12ba bcf1 97bc 4c74 5b3d
000001f0: 8868 693d 5397 46bd 3790 5ebc 44f1 9a3d
00000200: edb0 8e3c d1d9 c43c a97c 2abc e237 02bd
00000210: c584 85bb 39a9 90bc 3a24 5c3d 7403 4abd
00000220: 6150 45bc d689 9abd 97b3 1fbc 1e52 8cbd
00000230: 3d8d 44bc 642f 08bd 0f3b 8bbd 6697 32bd
00000240: cacb 9ebc 10c9 66bd 257e 6b3d 2cc2 9d3b
00000250: be1e 0ebc 88eb 9fbd 4306 2c3d 54b1 66bd
00000260: 8545 1d3c 1ee6 7fbd 6614 8b3c 5dd0 a7bd
00000270: 7134 93bd ab4d 88bd bb41 6b3b b56f 713d
00000280: 7176 b83c 5e25 8c3d 3cb1 6dbd a9e4 3e3d
00000290: 8246 2fbd f6e6 9dbd c540 0b3c 465f 0f3d
000002a0: aa66 533c ce5b c0bc 1876 10bd 9b76 a7bd
000002b0: ead0 9ebd eeb3 e23c 3fa7 90bc 6b9c 8c3d
000002c0: 7120 0cbd a04c f7bc 8504 643c ec24 823d
000002d0: 7920 71bd 3e09 743d 75da 90bd 1427 16bd
000002e0: fe5b 943d 59a3 97bd 3875 4f3d b22c 293d
000002f0: a77a 9a3d d724 123d 5607 883d 97a7 9b3d
00000300: 3e9a a3bd 99c2 b1bc ea5f 87bd 6f57 ec3c
00000310: 5f41 0abc 6622 0dbd 8911 e23c a878 aabd
00000320: 305c 1a3d ea6b 78bd c2f0 abbd 7ae7 a23a
00000330: cf58 7dbd c953 8bbc 9731 113d d6af 80bc
00000340: 5c79 73bd 584e 54bd 9f8e 82bd 7f7e a63c
00000350: 2d79 25bd 6bf0 6c3d 317a 58bd 06d9 70bb
00000360: 20b0 4d3d c068 a23d c666 c23c fab8 9bbd
00000370: 3ce4 52bd a51a 74bc f734 183c e977 d33b
00000380: 6f8c 95bc ce28 86bc e4b9 a0bd 20fa 543d
00000390: c0a9 20bc 7555 383c 7e5a 043c fe53 1b3d
000003a0: ca9f 7d3d 3261 753d cbb2 5a3d 29c1 29bd
000003b0: 3f80 a43d 0cfc a73d a832 7ebb 1d08 42bd
000003c0: 1579 d03c a136 8ebd dfef 163d 9ea2 1ebd
000003d0: f782 813d e6b4 973c 63c5 78bd 2ce4 95bd
000003e0: 0389 9fbd 81c3 903c 6fe5 4dbc 50c6 cb3c
000003f0: 9c7f b33c 1ecb 5a3d 2736 4e3d fef6 2f3d
0.060168196 -0.01699346 -0.003667449 -0.0016999155 0.06259738 0.026172208 0.075088225 0.08099997
0.06901402 0.015400613 -0.073049374 -0.030060327 0.030828102 0.0074135265 -0.014282562 0.07442563
-0.05953918 0.053075824 0.034498904 0.07139327 0.0061698426 -0.036551654 0.08338114 -0.004367379
0.04234717 -0.025555864 0.07586835 -0.068786405 -0.0017431448 -0.021310145 -0.060983203 -0.08306568
-0.008186295 0.045531478 -0.023685625 0.05653371 -0.007618992 0.0731553 -0.043175235 -0.044852514
0.0141003765 -0.008828936 -0.03384311 0.0031592306 -0.04523254 -0.01974617 0.06769704 0.04637916
0.0123542845 0.00483801 0.015549224 0.066991106 0.045306552 0.0033687174 -0.052815888 -0.046504844
0.05519595 -0.005628972 0.06947046 -0.027443701 0.00625808 -0.030019 -0.0055545336 0.019929616
-0.07188548 0.014572992 0.016822195 0.06764056 0.01762071 -0.07726277 0.0772335 -0.057120502
-0.059782185 0.015402573 0.07911387 -0.03577599 -0.0351558 0.05543819 -0.027702497 -0.032110002
0.04982124 -0.020413205 0.031564593 -0.022369813 0.06472373 0.051973253 0.071760915 0.060288336
0.07641393 0.025167381 -0.054569073 0.067034006 -0.001955381 -0.06997823 -0.048436373 -0.019641444
-0.02869588 -0.047406327 -0.056479804 -0.026918866 -0.0027341486 0.07151823 -0.068913564 0.057704017
0.03522625 -0.043373205 0.08360513 -0.048111003 -0.0052896454 -0.073346354 0.039877914 -0.03157756
-0.062895186 -0.073622726 -0.04948213 -0.03312468 -0.05359019 -0.044715025 0.05884632 0.040975954
-0.07089273 -0.000558018 -0.018547885 0.053577706 0.056984454 -0.048484158 -0.013584188 0.07565549
0.01741835 0.024029644 -0.010405698 -0.031791575 -0.0040746653 -0.017658817 0.053745486 -0.0493197
-0.01204309 -0.07545821 -0.009747407 -0.068516 -0.011996564 -0.03324832 -0.06798374 -0.043601416
-0.019384284 -0.056344092 0.057493348 0.004814407 -0.008674322 -0.07808596 0.04199816 -0.056321457
0.009599094 -0.062475316 0.0169775 -0.08194039 -0.07187737 -0.06655439 0.0035897333 0.058944423
0.022517415 0.06843065 -0.058030352 0.046604786 -0.04279185 -0.07710068 0.008499329 0.03500297
0.012902895 -0.023481276 -0.035268873 -0.08176919 -0.07754691 0.027673688 -0.017657874 0.06865772
-0.034210626 -0.030187905 0.013917093 0.063546985 -0.05886886 0.059579127 -0.07072917 -0.03665836
0.072441086 -0.07404203 0.050648898 0.04130239 0.07542925 0.035679664 0.06642024 0.076003246
-0.07988404 -0.021699237 -0.06610091 0.028850285 -0.008438437 -0.034456633 0.027596252 -0.083237946
0.037685573 -0.06064979 -0.0839553 0.0012428605 -0.061852273 -0.017007725 0.035447683 -0.015708845
-0.05944191 -0.051832527 -0.06374859 0.02032399 -0.040398765 0.057846468 -0.052850906 -0.003675045
0.050216794 0.07930136 0.023730647 -0.07603641 -0.051487193 -0.014898931 0.009289972 0.0064535034
-0.01825544 -0.016376879 -0.07847956 0.05199635 -0.009806097 0.011250843 0.008078216 0.037921898
0.061919965 0.059907146 0.053393167 -0.041443978 0.080322735 0.08202371 -0.0038787518 -0.04737102
0.025448361 -0.069440134 0.036849853 -0.038729303 0.06323808 0.018518876 -0.060735118 -0.07318911
-0.07789805 0.017671349 -0.012566908 0.024874836 0.021911435 0.053416364 0.050344612 0.04296016

model.2.bias f4 [32]
00000000: 701f 3cbd 089f 5c3d 959b 04bd 2b14 063d
00000010: 9425 3d3d bb7d 00bd 56aa 46bd fd73 6e3d
00000020: a291 caba 3b8b a3bc 4c35 2e3b 10fc 403d
00000030: dfac 11bd d59b bc3c 46b0 0c3d 3596 5a3c
00000040: 7f6e 88bd 95c0 d5bc e16f 8f3c 09b4 80ba
00000050: 03ed 8cbd f8d9 503d c586 d5bc 363c 3f3c
00000060: 8871 c53c d83b 04bc c740 a9bd fb23 3fbd
00000070: 4c56 a73d bd0d 55bd 2360 2d3d ba03 473d
-0.04592842 0.0538626 -0.032374937 0.032734077 0.046178415 -0.031369906 -0.04850229 0.058216084
-0.0015454779 -0.019963851 0.002658206 0.047115386 -0.035565253 0.023023525 0.034347795 0.013341476
-0.066617005 -0.026092807 0.017509403 -0.000981928 -0.06881144 0.05098912 -0.02606524 0.01167207
0.024101987 -0.0080709085 -0.082643084 -0.046665173 0.08170757 -0.052015055 0.04232801 0.04858754

model.4.weight f4 [32]
00000000: 1db6 7f3f 0720 803f 70c9 7f3f 15c5 7f3f
00000010: 70bd 7f3f d618 803f b3bf 7f3f 71b8 7f3f
00000020: 3ccc 7f3f 1721 803f e7cb 7f3f 11be 7f3f
00000030: 56ae 7f3f ecb8 7f3f 88a7 7f3f beb4 7f3f
00000040: 82bd 7f3f 31c4 7f3f 9bbc 7f3f ed16 803f
00000050: 9720 803f 63f0 7f3f 1522 803f 73b8 7f3f
00000060: 53c1 7f3f e4c2 7f3f 8f25 803f a9cb 7f3f
00000070: dd22 803f 522c 803f 5dbe 7f3f a89e 7f3f
0.9988726 1.0009774 0.99916744 0.999101 0.99898434 1.0007579 0.99901885 0.9989081
0.9992101 1.0010098 0.99920505 0.99899393 0.9987539 0.99891543 0.9986501 0.99885166
0.9989854 0.9990874 0.99897164 1.0006996 1.0009946 0.99976176 1.0010401 0.9989082
0.99904364 0.99906754 1.0011462 0.99920136 1.001064 1.0013525 0.99899846 0.99851465

model.4.bias f4 [32]
00000000: baac 3a3a ca4f 8e3a 0804 833a 5139 86ba
00000010: 643f a4ba cede 89ba fe52 99ba 9922 b5ba
00000020: 83c0 a8ba 751d a73a 3aa9 903a 91ab 54ba
00000030: f2f7 7fba 5ae1 b3ba 717a 723a 4372 5039
00000040: 575e 853a 0ad3 2f3a f30e 843a b59a 96ba
00000050: 80b7 a6ba 3a28 953a b80c 87ba 5d21 9aba
00000060: 853a 893a 9ff4 a13a 009c 97ba c028 ea38
00000070: b3b2 893a 9183 b4ba 72fa 6b3a 891d 833a
0.0007121075 0.0010857519 0.0009995708 -0.001024047 -0.0012531099 -0.0010518671 -0.0011697707 -0.0013819515
-0.0012874756 0.0012749868 0.0011036762 -0.00081127236 -0.0009764425 -0.0013723776 0.00092498126 0.00019878992
0.001017521 0.00067071675 0.0010075256 -0.0011490198 -0.0012719482 0.0011379786 -0.0010303473 -0.0011759211
0.0010469711 0.0012356228 -0.0011566877 0.0001116558 0.0010505527 -0.001377212 0.0009001858 0.0010003309

model.5.weight f4 [64, 32, 3, 3]
00000000: 9ea3 babb 7796 dd3c 6207 bcbc b98d f4bc
00000010: 2e3f b63b 147f 0f3b 854a a6bc 2560 ccbb
00000020: 269d 633c 7188 403d 98ae 6bbd 6ddc 2a3c
00000030: a88c 0dbc d573 d33a 2c48 df3b a367 013d
00000040: 5402 29bd 57f8 093d ee23 6c3d deaf 663d
00000050: f797 493d 0b9f 14bb cb14 07bd 59a4 ed3c
00000060: ee00 e2bc e974 2fbd c0c9 20bd 5753 3bbd
00000070: a296 61bd 0334 04bd b235 113c e58f 263d
00000080: c894 f6bc 54a8 b139 4860 19bd aa26 46bd
00000090: 6b6a b03c 44a3 373a 8050 483d b06d 3f3c
000000a0: 15fa 393d bc59 0f3d 7037 d43c 2109 47bd
000000b0: 2977 e8bb a782 113d 44ef 98bc 2935 833c
000000c0: c471 3dbd 5014 5c3c 7ff6 5dbd 8d98 c9bc
000000d0: ecdf 083c 439a 4dbd ab8a 413c c451 5f3d
000000e0: 27fd 5d3d 699f 753b acc2 733d ff66 683d
000000f0: e6aa 243d 799b 2abd 33fb 9f3c 951b 733b
00000100: d6d7 68bd d42b fdbc 0a8e 9ebc b490 63bd
00000110: 922c 983c 0edf 97bc 3411 d33c 541c 553d
00000120: 3c2a f3bc 0df2 22bd 499c cebb 1e0f 953c
00000130: baa0 233d 2ba1 b23c 8978 56bd 426f 9b3c
00000140: b189 473c 8882 4bbd 566a 4dbc a498 ea3c
00000150: 57bd f73b c886 9dbb 7502 b7bc dd32 1dbd
00000160: 1cc2 11bc 9f40 39bc 3c3d cdbc c2a8 273d
00000170: 186a 82bc a380 bdbc 0874 4fbc 3d4e 1c3d
00000180: 8267 0c3a c6c9 bd3b 5163 c03c 0564 ed3c
00000190: 768a 0cbb 8cca 68bd a1aa a83c c553 533d
000001a0: f928 0b3d a0f8 c33c c824 d0bc a19a 723c
000001b0: 33f9 0e3d 9511 0cbd 7855 ddbc d7ad 3a3d
000001c0: 1cf1 b23c e72f 81bc 08f8 a2bc 181c 773c
000001d0: a47f f0bc b4a2 cfbb 87ef 043d 5f9f 2abd
000001e0: 7c45 4e3c 7899 3e3d 1086 523d 65d8 cf3c
000001f0: 7401 49bd facb 3b3d a687 e9bc 370f 183c
00000200: cf1a 413d d707 443b 1920 0dbd 39df 5d3c
00000210: 3c79 1b3d 96c9 1fbd 8699 91bc 1be1 8b3c
00000220: 297d 053d 32e1 51bd 7828 ddbc 2f01 1ebc
00000230: 2d3b 583c f56f 1e3d 250a eabc aaa3 0ebb
00000240: c53c 90bc b938 2cbc 8099 57bb c1f3 5fbd
00000250: 6677 cfbc 0d9a af3c 0ba7 51bd 860d 28bd
00000260: 8616 3d3d a2e8 453d 71d5 4e3c c41e 1dbd
00000270: 32c5 08bd 6922 4c3b 3eb0 663d 2ccc 0cbd
00000280: 040e 50bd d8c4 733d bc42 37bc 0d1d 4bbc
00000290: 524a ab3c 4dae c7bc a848 9cba 4239 d0bb
000002a0: 346a da3c 6f06 303d 60f1 97bc ab62 55bd
000002b0: 266f 6c3d 3347 2bbc a22b 043d 8247 4abd
000002c0: 67a2 30bd 0012 1abd 81ab 74bb 7440 143b
000002d0: cf44 c0bc 9ac9 203d 5d86 40bc 786d 4d3d
000002e0: f0e9 5e3d d20c a2bb 5b69 fe3a 44ba 52bd
000002f0: 5538 b63c 7658 2cbd b086 b6ba baaa d9bc
00000300: 353d 163d d163 efbc 58dd 163d 9cea 383c
00000310: a6a8 3a3d 423a c7bc e190 aabb 3bea 4abb
00000320: 9d92 bfbc 8370 f9bc 43a7 ed3c d48c 303d
00000330: 22d8 22bd 1045 95bc 7e4d ffbc 6d18 d1bc
00000340: a40c 493d e8aa 37bd 0f30 82bb 8173 263d
00000350: 2581 4fbd f994 033d 2235 15bd e2a1 e3bc
00000360: ce3a a73c 04f9 64bc 2680 d63b 59f6 bb3c
00000370: 82af ea3c 4106 0d3c d8ab 36bc f5d0 cfbc
00000380: eed4 433d 3024 44bd 4e99 ecbc 95b4 9cba
00000390: 4c18 21bd 8eef 32bd 3655 283d 7bc2 19bd
000003a0: 2ec2 07bd 078b e23b 1054 00bd 1378 69bd
000003b0: a7c4 963c 87c8 4c3c 9530 fa3c b202 71bb
000003c0: 4083 51bd bb01 a33c f513 653d ac05 97ba
000003d0: b671 f7bc 505d 59bd 1e42 083d 53e4 eb3c
000003e0: ceb0 24bd d270 43bd 35fa 1fbd c327 2c3d
000003f0: 73a4 e13c a1c3 96bc 8b35 d13c 13ea 5a3c
-0.005695774 0.027049286 -0.02295274 -0.029852735 0.005561731 0.0021895813 -0.020299206 -0.0062370473
0.013892448 0.04700512 -0.057539552 0.01042853 -0.008639492 0.0016132543 0.0068140235 0.031592976
-0.041261986 0.0336841 0.057651453 0.056320064 0.04921719 -0.0022677805 -0.032978814 0.029009031
-0.027588334 -0.042836104 -0.039254904 -0.045733776 -0.055075295 -0.032276165 0.0088629 0.040664572
-0.030100241 0.00033885485 -0.037445337 -0.048376717 0.021535119 0.00070052245 0.048904896 0.011683866
0.045404512 0.034997687 0.02590534 -0.04859269 -0.007094283 0.03552499 -0.018668778 0.01601656
-0.046251073 0.013432577 -0.054190155 -0.024608875 0.008354168 -0.050195944 0.011812846 0.054521337
0.054196503 0.003747905 0.059511825 0.05673885 0.040202044 -0.041652177 0.01952896 0.0037095298
-0.056846462 -0.030904688 -0.019354839 -0.05555792 0.01857594 -0.018538978 0.025765039 0.05202897
-0.029683225 -0.03978162 -0.0063052517 0.018195685 0.039948203 0.021805367 -0.052361045 0.01897395
0.012178824 -0.04968503 -0.0125375595 0.028637238 0.007560413 -0.004807327 -0.022340039 -0.038378585
-0.008896377 -0.011306911 -0.025053613 0.040932424 -0.01591973 -0.023132628 -0.012661941 0.03816055
0.0005356 0.0057918755 0.023484858 0.028978357 -0.0021444834 -0.05683379 0.020589175 0.05159356
0.03397462 0.023922265 -0.025408164 0.014807374 0.034905624 -0.034196455 -0.027018294 0.045575943
0.021843486 -0.015769912 -0.019893661 0.015082382 -0.029357739 -0.0063365344 0.032454994 -0.041655894
0.012589809 0.046533078 0.051397383 0.02537174 -0.04907365 0.045848824 -0.028507065 0.009280971
0.047144707 0.00299119 -0.03445444 0.01354199 0.037957415 -0.039010607 -0.017773401 0.017075112
0.032590065 -0.051240154 -0.026996836 -0.009643837 0.013197702 0.03868099 -0.02856929 -0.0021765032
-0.017607102 -0.010511571 -0.003289789 -0.05467582 -0.025325488 0.021435762 -0.051184695 -0.041028522
0.04616406 0.04831756 0.012624131 -0.03835942 -0.033391185 0.003114844 0.05632042 -0.0343744
-0.050794616 0.059513897 -0.011185344 -0.012397063 0.020909462 -0.024375105 -0.0011923509 -0.006354482
0.02666197 0.042974886 -0.018547714 -0.05209605 0.057723187 -0.010453987 0.032268174 -0.0493846
-0.04312363 -0.037614822 -0.003733367 0.0022621425 -0.02347031 0.039254762 -0.011750785 0.050153226
0.05442232 -0.004945376 0.001941006 -0.051447168 0.022243658 -0.04207655 -0.0013925638 -0.026570667
0.036679465 -0.0292224 0.036832184 0.011286404 0.045570992 -0.024319772 -0.005205259 -0.0030962366
-0.02338534 -0.030449158 0.02901042 0.043103054 -0.0397569 -0.018221408 -0.03116488 -0.025524342
0.04908432 -0.044840723 -0.003973014 0.040637497 -0.05066027 0.032124493 -0.036427625 -0.027787153
0.020413782 -0.013975386 0.006546038 0.022944616 0.028648142 0.008607448 -0.011149369 -0.025368193
0.047810487 -0.047886074 -0.028881695 -0.0011955673 -0.039329812 -0.04368549 0.04109689 -0.037538987
-0.03314417 0.006913546 -0.03133017 -0.056999277 0.018404318 0.012498981 0.030540744 -0.0036775288
-0.05115056 0.019898286 0.055927236 -0.0011522076 -0.030205589 -0.053067505 0.03326618 0.028795397
-0.040207677 -0.047715016 -0.039056975 0.042030107 0.027544236 -0.01840383 0.025538227 0.013361472

model.5.bias f4 [64]
00000000: b197 59bc f63c 2fbc 7fae 353d 63dc c13c
00000010: 0305 ea3c 5b91 13bd 0f61 0fbd beae 2abd
00000020: 1ec7 2f3c 4b90 383d da02 aabc 3e99 adba
00000030: 5b99 3b3d 8b0a 99bc 0b18 2f3d 3af0 293d
00000040: 9ce7 a3bc e5da 28bd 542d 26bb fc97 633d
00000050: 981e 91bc 4920 e43c c8c5 bcbc 2873 6b3d
00000060: 3a99 09bc fdec d9bb 8912 2d3d 1041 2a3d
00000070: 455a c7bc 45ef d53c f8a1 a0bc cb7d 4f3d
00000080: 4bc9 a73c 510d debc 371a 0ebd 2c21 ce3c
00000090: a86e e5bc d640 25bd 553f 39bd da63 0dbc
000000a0: e32e e23c 823b 553d 951d 3a3d 1141 293d
000000b0: 5936 9b3b 6d14 97bc bbca 6fbc 84a6 cebc
000000c0: f816 b63b fe57 a63c 3633 1fbd 92b8 fcbc
000000d0: dbcd 5ebd a9fd fe3c c9a9 8c3c 2e9a 17bd
000000e0: a138 46bc 1748 a0bc af57 fcbc e92c fbbc
000000f0: 3c8e dabc 43f6 363c 36b1 093d 3332 ca3a
-0.013280795 -0.010695687 0.044355866 0.023664659 0.028566843 -0.036027294 -0.03500467 -0.041670553
0.010728626 0.045059483 -0.020753313 -0.0013244522 0.045800548 -0.018681785 0.04274754 0.041488864
-0.0200079 -0.04122438 -0.0025356608 0.055564865 -0.017714784 0.027847426 -0.023043528 0.05748287
-0.008398348 -0.0066505657 0.042254005 0.041565955 -0.024335036 0.02611507 -0.019608483 0.050657075
0.020481726 -0.02710596 -0.03469297 0.025162302 -0.028006867 -0.040345035 -0.045226414 -0.0086297635
0.027610248 0.052058704 0.045438368 0.041321818 0.0047367034 -0.018442357 -0.014635737 -0.025225885
0.0055569373 0.02030563 -0.038867198 -0.030849729 -0.054395538 0.031126814 0.017170804 -0.03701227
-0.012098462 -0.019565625 -0.03080353 -0.030661063 -0.02667915 0.011167112 0.033616267 0.0015426337

model.7.weight f4 [64]
00000000: 17c5 7f3f 0925 803f 4d9f 7f3f 89b8 7f3f
00000010: 70bf 7f3f b424 803f 5c30 803f 4fc7 7f3f
00000020: e908 803f 5c1b 803f 0d1f 803f f8b2 7f3f
00000030: 48b8 7f3f cab5 7f3f 9e11 803f 0134 803f
00000040: 6e2a 803f babe 7f3f b115 803f 9fb9 7f3f
00000050: 1523 803f 2f21 803f eab7 7f3f da1e 803f
00000060: 1d20 803f dccb 7f3f 4ac1 7f3f f5b6 7f3f
00000070: 5d33 803f 5de0 7f3f 18e6 7f3f a9b9 7f3f
00000080: fbbb 7f3f feba 7f3f dd1e 803f 3dc8 7f3f
00000090: 3b1c 803f 921f 803f 5624 803f 0125 803f
000000a0: 8025 803f 19bc 7f3f ce1f 803f 9f2f 803f
000000b0: d4e4 7f3f 798f 7f3f 8c32 803f 93ba 7f3f
000000c0: 3c1d 803f 2cc4 7f3f f0cc 7f3f c8f6 7f3f
000000d0: 6dd4 7f3f 0f22 803f d7b4 7f3f 24ba 7f3f
000000e0: 56b2 7f3f 9ac9 7f3f 65b7 7f3f a7bc 7f3f
000000f0: 44c7 7f3f 3e29 803f ee36 803f 57c2 7f3f
0.9991011 1.0011302 0.9985245 0.99890953 0.99901485 1.0011201 1.0014758 0.99913496
1.0002719 1.000835 1.0009476 0.9988246 0.99890566 0.99886763 1.0005376 1.001587
1.0012949 0.999004 1.000662 0.9989261 1.0010706 1.0010127 0.99890006 1.0009415
1.00098 0.9992044 0.9990431 0.99888545 1.0015675 0.99951726 0.9996047 0.9989267
0.9989621 0.998947 1.0009419 0.99914914 1.0008615 1.0009634 1.0011089 1.0011293
1.0011444 0.9989639 1.0009706 1.0014533 0.9995854 0.99828297 1.0015426 0.99894065
1.0008922 0.9990871 0.99922085 0.99985933 0.9993351 1.0010394 0.99885315 0.99893403
0.99881494 0.99916995 0.9988921 0.99897236 0.9991343 1.0012586 1.0016763 0.99905914

model.7.bias f4 [64]
00000000: bf20 acba cf97 89ba 35d2 4fba 8c9d 963a
00000010: 9753 a2ba 2d9a 8eba be5e 9dba 82f6 e7b9
00000020: 2d6f 443a 0adb 8f3a 94b4 7bba 3560 9dba
00000030: 17ab 4db9 0281 7fb9 7ca2 533a c1ec a8ba
00000040: eb2b 8aba e1fb efba 0699 7e3a 20c0 b9b9
00000050: c31a 86ba 3023 843a 5780 a4ba e855 8c3a
00000060: 2830 913a b378 913a 6c9a 9f39 dc00 87ba
00000070: 3c52 a4ba a461 b639 a8bb 803a f79b 7a3a
00000080: 07e8 7a3a e4b8 553a a7e7 843a 9a34 693a
00000090: cba6 a9ba 3ba1 923a f267 85ba 2ad8 8bba
000000a0: c692 8cba 54eb 53ba 9c03 823a 89f4 883a
000000b0: 3f87 c3ba 38be 793a b8b6 bcba cf29 2a3a
000000c0: 2bcb 943a 3c79 72ba 6c5a 6039 a271 8a3a
000000d0: f976 3e3a 39cb 86ba fbfa 2fba acdb 55ba
000000e0: 730f 813a bf4d 933a 1864 853a baff eb3a
000000f0: a78d 97ba 1f0a 91ba bf38 b7ba 80ea efb9
-0.0013132318 -0.0010497513 -0.00079277466 0.0011491044 -0.0012384531 -0.0010879688 -0.0012006385 -0.00044243416
0.0007493373 0.0010975313 -0.00096017984 -0.0012006821 -0.0001961406 -0.00024366754 0.0008073223 -0.0012887941
-0.0010541653 -0.0018309319 0.00097121333 -0.00035429094 -0.0010231364 0.0010081287 -0.0012550455 0.0010706754
0.0011076974 0.0011098593 0.00030441897 -0.0010299939 -0.0012536715 0.00034786493 0.0009821551 0.0009559984
0.0009571318 0.0008152856 0.0010139839 0.0008896083 -0.0012943385 0.0011186966 -0.0010178073 -0.001066928
-0.0010724894 -0.0008084078 0.0009919289 0.0010448854 -0.0014917626 0.0009526941 -0.0014397716 0.00064912153
0.0011352053 -0.0009249633 0.0002139599 0.001056243 0.0007265653 -0.0010283954 -0.0006713119 -0.0008158039
0.0009846523 0.001123838 0.0010176925 0.001800529 -0.0011562601 -0.0011065638 -0.0013978704 -0.00045760348

model.8.weight f4 [128, 64, 3, 3]
00000000: 61e5 9c3b a48b c73c d839 afbc f923 1439
00000010: b4dd f43c 22c7 143d 66dd 02bd 8849 e0bb
00000020: b210 ed3c 58d0 16bd b609 1fbd d538 21bb
00000030: 789b 29bc 558d fd3c 77e2 04bd 3a44 5fbc
00000040: 0230 fdbc 4db8 14bc adac f83c 26e0 0c3c
00000050: 3d4f 2bbc 3ac8 23bd 35ab 033c f18b a53a
00000060: 22bc 013d 0882 283d 43bd 83bc d417 04bd
00000070: 066b a3bc ce2a e53c 6d0b c83c 74e6 f23c
00000080: 7670 e73c df81 a43c 78f1 f63c 3cb8 a6bc
00000090: 09ac d239 ad5e 69bc 6454 a13c 1870 72bb
000000a0: b429 ae3b d373 123d 55af ebbb 4dca 17bd
000000b0: 1e43 1dbc 7a0e dbbb b9a3 d33c 9268 14ba
000000c0: e1af 233d 6bc5 17bd f427 013d 9dae 29bc
000000d0: f874 4bbc 4076 09bd fde2 0bbd 234a 023b
000000e0: 313b 20bd a45a 1cbd 4988 c7bb ae88 dc3b
000000f0: 78ee 44bc 8c91 193d 3aac 55bb 41fa efbb
00000100: ea93 07bc 5edd 1c3d 11e4 d03c ac8f e2bc
00000110: f95e ffbc 08ce aebb 2840 12bd 0193 513c
00000120: 2385 d3ba 5f32 1cbc 0cc5 a53b 6df7 0bbd
00000130: 1c19 ef3a bc7c 27bb ee07 0d3d d030 c5bc
00000140: 7e46 0e3d c64f 2b3d 306f 24bd 78d1 f3bc
00000150: 3529 f43c 0b07 0cbd 2af8 b9bc 809c 9a3c
00000160: eff3 163d 73f7 be3c d845 ffbc a8d5 e43c
00000170: e5b4 1a3d 64a9 c53c 1f44 db3a 1327 1ebd
00000180: 8a2b 1a3c b16d 0b3c 73b5 08bd 2314 74bc
00000190: 51ad c03c a691 263c a55c 44bb c20f a2bc
000001a0: 4bea 8a3c 1783 89bc 5dee c6bc e082 2dbd
000001b0: adef f7bc c7ad 703c e0c0 c7bc fb7a fbbb
000001c0: 81ed 0b3d 6a5e 70bb ce0b 0cbd 18f3 14bd
000001d0: 2efa 263d 9353 dd3c f345 00bc 2e50 44bc
000001e0: 689d 1c3d d682 b1bc 9a46 12bc 28e9 1dbd
000001f0: 3474 043c dd0b 03bd f139 d0bc e366 363c
00000200: dfe1 cbbb aeae 01bd abd0 67ba cfc7 253c
00000210: 8363 88bc bb0a bd3c d66d 263d 7512 343b
00000220: 2e33 b6bc 5674 903c af38 aebb c9d5 9dbc
00000230: 90cd 6bbc e16f 1fbc 0034 e4bc 1dae 0c3d
00000240: 7370 20bd 952f 423a 8950 1cbd 9867 bd3c
00000250: 9cbc 9a3b 591d 95bc cc23 693b f9fd efbc
00000260: f928 c2bb f01e 033d 5981 08bc d717 1c3d
00000270: 017d afbc 88d9 1d3d 6595 9abc 990f 9ebc
00000280: 268d 25bd fed5 24bd 4155 783c 3e96 98bc
00000290: 099b fcbc 8513 ecbc fc5f e1ba 45e2 133d
000002a0: 93fe 263d 79db 9ebb bcd4 2e3d bf0f 3abc
000002b0: 5ad5 f93b c6a8 8b3c f234 10bd cb85 cd3c
000002c0: 7424 d3b9 b4d1 983c 6f2c ef3c 5bed d2bc
000002d0: 606c 343c f3ff f2bc ffe9 c8bc f408 febc
000002e0: 26be 353c ca89 8bbb 3743 c1bc 2c11 433c
000002f0: 45a8 523c 9242 d03c 7e08 0f3d b8d3 e83c
00000300: 6618 de3c c98e 24bd 4ac4 633c 381e 0b3d
00000310: 6226 093c dd6e 233d 6946 7b3c 660f 9f3c
00000320: c8b3 17bc e630 83bc 1ebd 043d 6443 05bd
00000330: a38e 3a3c dfeb 58bc 2f99 113d 953f 003c
00000340: c3dd e3bc 45f9 4a3c fa4d 0fbd 4681 a63c
00000350: d311 cd3c 1a06 073d 4865 b3bc 8eab fc3b
00000360: af44 89bb b16c 1cbd 16bf 953b 8d90 113d
00000370: 1366 f63c b246 ca3b b41a 4cbc 683d 103d
00000380: 5830 dc3c 8770 54bc 33a1 b73c 0c23 c7bc
00000390: 0d71 663c 8a01 143c 8552 663c 992f 37bb
000003a0: b162 403c c8c2 143d 871b b33c e40a b9bc
000003b0: 22b1 0a3c e27b efbc c87d 143d 3616 063d
000003c0: 1733 6f3a 5a58 f9bc 2b4e f6bc f17d e1bc
000003d0: 97f1 e7bc a14c 06bd a972 22bd 7f8b 74bc
000003e0: f26b 503c 354b 1e3d a91d 213d ca90 df3b
000003f0: ea95 06bc 691e dc3c bf07 543c e662 8abc
0.0047880863 0.024358578 -0.021389887 0.00014127781 0.029890873 0.03632272 -0.031949423 -0.006844703
0.028938625 -0.036819786 -0.03882762 -0.0024600525 -0.010352008 0.030951181 -0.032442536 -0.013627106
-0.030906681 -0.009077144 0.030355776 0.008598363 -0.010455904 -0.039985873 0.008036424 0.0012630207
0.031673558 0.041139632 -0.016081458 -0.032249287 -0.019948494 0.027974512 0.02441951 0.029650904
0.028251868 0.020081459 0.030144438 -0.020351522 0.00040182497 -0.014243764 0.01969356 -0.0036993083
0.00531503 0.03575499 -0.007192532 -0.037058163 -0.0095985215 -0.0066850754 0.025834905 -0.0005661334
0.039962653 -0.037053507 0.031532243 -0.010356572 -0.012418024 -0.033560038 -0.03415202 0.0019880615
-0.03911895 -0.03817238 -0.0060892445 0.0067301607 -0.012019746 0.03749232 -0.0032603876 -0.0073235338
-0.008275012 0.03829705 0.025499376 -0.027656399 -0.031173216 -0.0053346194 -0.035705715 0.012791396
-0.00161377 -0.009533494 0.00505889 -0.03417151 0.0018241736 -0.0025556525 0.03443139 -0.024071127
0.034735195 0.041824125 -0.0401451 -0.029762968 0.029804805 -0.034186404 -0.022701342 0.018873453
0.036853727 0.023311352 -0.031161234 0.02793391 0.03777017 0.024128623 0.0016728676 -0.038611483
0.009409795 0.008510039 -0.03337617 -0.014897379 0.023520144 0.010166561 -0.0029962447 -0.019782905
0.016957423 -0.016786141 -0.024283582 -0.04236114 -0.030265654 0.014689869 -0.024383962 -0.0076745725
0.03416205 -0.003667737 -0.034190945 -0.036364645 0.040765934 0.02701739 -0.007829177 -0.011982007
0.03823605 -0.021668833 -0.008927966 -0.038552433 0.008084346 -0.031993736 -0.025418254 0.011132929
-0.0062219943 -0.03166073 -0.00088430446 0.010118439 -0.016649013 0.023076406 0.04063209 0.0027476822
-0.022241201 0.017633598 -0.005316816 -0.01926698 -0.014392272 -0.009731264 -0.027856827 0.034345735
-0.03916974 0.0007407603 -0.03816274 0.023120686 0.004722191 -0.01820247 0.0035574315 -0.029295908
-0.0059252945 0.032011926 -0.00833162 0.038108673 -0.021421911 0.038537532 -0.018870065 -0.019294547
-0.040417813 -0.04024314 0.015157045 -0.018626329 -0.030835645 -0.028817901 -0.0017194743 0.03610446
0.040770125 -0.0048479405 0.042683348 -0.011356293 0.0076243104 0.01704825 -0.035206743 0.025088212
-0.00040272216 0.018654682 0.029195992 -0.025747946 0.011012167 -0.029663062 -0.02452564 -0.031010129
0.011092698 -0.004258369 -0.02359162 0.01190595 0.012857501 0.025422368 0.03492021 0.028421268
0.027111243 -0.040175233 0.013901779 0.033964366 0.008370968 0.03990065 0.015336611 0.019416522
-0.009259172 -0.016014528 0.03240692 -0.03253497 0.011386546 -0.01323983 0.035546478 0.007827659
-0.027815705 0.012388532 -0.034986474 0.020325314 0.025032913 0.032964803 -0.02189888 0.0077108806
-0.004189096 -0.038189594 0.0045698984 0.035538245 0.03007797 0.0061729783 -0.012457538 0.03521481
0.02687852 -0.012966282 0.022415733 -0.024308704 0.014065039 0.00903357 0.01405776 -0.0027951954
0.01174228 0.03631857 0.021863712 -0.0225882 0.008465083 -0.029233877 0.036252767 0.032736026
0.00091247394 -0.030437637 -0.03006657 -0.027525874 -0.028313441 -0.032787923 -0.03966013 -0.014925837
0.012721049 0.03864594 0.039334927 0.00682268 -0.008214453 0.02686997 0.0129413 -0.016892862

model.8.bias f4 [128]
00000000: 96ca 09bd 2b9f 17bd d4c6 fabc 23d8 21bd
00000010: 6802 273d 2ba6 87bb 1522 e5bc 5d25 713c
00000020: 0482 7ab9 58cf 87bc 14e1 a83c 675d 5a3c
00000030: d788 183d ce5f 173c 5f46 eb3b 3f77 d13c
00000040: 3f52 123d 8725 5ebc e5db 1dbd 0371 fcbc
00000050: 8254 ec3c 3ef8 fdbc d83e c43c b0b7 d8bc
00000060: 072d ca3c b02d bdbc e213 2bbc 1567 8cbc
00000070: c26f f63c 424e 0f3c ceb4 b53c 49b7 d93c
00000080: 6d18 06bd 4b84 ce3c 89fe aebc 7991 973c
00000090: d638 bd3b bb72 19bd e6d2 d3bb 4100 1c3d
000000a0: c4ab 8cbc 722c 113c 2979 dc3c 2099 113d
000000b0: 2a86 273b 5a1c 8fbc c6b4 53bb 35c1 67bc
000000c0: 121c 0fbd 0d72 e33c 8e3c 513c bd8b f53c
000000d0: 1d0b 733c bfcb 833a 329b adbb 29b3 ec3c
000000e0: 2910 9dbc 854c 903c 0760 f43c c14c a53c
000000f0: 1e8b 2d3d 520e 223d b331 4abb 41d9 9e3c
00000100: 96db 203c 3397 87bc f6f4 11bb 0665 2abb
00000110: 41a7 98bb 3af2 8a3c d12f 033d 157c 4d3c
00000120: 00de 283d b762 a9bc 3c12 a73b 99b9 25bd
00000130: 52de 7a3c 932b f1bc de47 673c 5964 96bc
00000140: 176a 0f3d c65e 8e3c 1e9e 5cbc 74a5 abbc
00000150: f359 8c3c df39 143d 0565 113d b017 9bbc
00000160: 4f67 033d 9ce2 5aba 8d39 4d3c 26aa 1b3d
00000170: e2f6 003d 821d 24bd ca74 0e3d a3b6 3f3c
00000180: 2639 2f3b 37c0 0a3c 92bd c53c 2461 66bc
00000190: 177c bebb c97b 033d bd62 06bc 1768 cb3b
000001a0: a59a 0e3c f1d5 9c3b 5e46 febc 9b23 0cbd
000001b0: 7afe 14bc d1e6 babb cc8f 89bb 8303 25bd
000001c0: e1a7 f93c 2764 cdbc 2147 563c 5377 f3bc
000001d0: 921c f83c 667c a43b b689 c83c 9402 c8ba
000001e0: 4f9f d2bc 4ee7 bebb fafe ae3c 0d00 f6bc
000001f0: b387 58bb abec 483c c292 293d c42d e2bc
-0.033640467 -0.03701703 -0.030612387 -0.039512765 0.04077378 -0.004139682 -0.027970353 0.014718381
-0.00023890293 -0.016578361 0.020615138 0.013327933 0.037239876 0.00923915 0.0071800197 0.025569556
0.035722967 -0.013558752 -0.038539786 -0.030815607 0.02884889 -0.03100216 0.023955747 -0.026454777
0.024679674 -0.023093075 -0.010441752 -0.017138997 0.030082587 0.008746685 0.022180941 0.026576655
-0.032738138 0.025209567 -0.021361606 0.018501984 0.0057745976 -0.03746293 -0.00646435 0.03808618
-0.017171748 0.008860694 0.026913242 0.035546422 0.0025562146 -0.017469574 -0.0032303794 -0.014145185
-0.03493888 0.027764345 0.012770785 0.029973859 0.014834193 0.0010055228 -0.0052980417 0.028894024
-0.019172745 0.017614612 0.029830946 0.0201782 0.042369 0.03956444 -0.0030852377 0.019390704
0.009817978 -0.01655159 -0.0022271252 -0.0026000156 -0.00465861 0.016961206 0.032028023 0.0125417905
0.04122734 -0.020676954 0.0050986093 -0.040460203 0.015311794 -0.029439723 0.014116256 -0.018358396
0.035013285 0.017379176 -0.013465432 -0.020952918 0.017132735 0.036188003 0.03549673 -0.018932194
0.032080945 -0.00083498075 0.012525928 0.038004063 0.031485446 -0.040067203 0.034779347 0.011701259
0.0026736944 0.008468679 0.024138246 -0.014061246 -0.0058131325 0.032100473 -0.008202252 0.006207477
0.008703862 0.004786246 -0.031039413 -0.034213644 -0.009093875 -0.005703785 -0.00419805 -0.040286552
0.030475559 -0.02507217 0.013078482 -0.029719984 0.03028706 0.0050197123 0.024479728 -0.0015259557
-0.02571073 -0.0058259135 0.021361817 -0.030029321 -0.0033039867 0.012263457 0.041399725 -0.027609713

model.10.weight f4 [128]
00000000: 59ff 7f3f d9ba 7f3f 3ecd 7f3f 1bd0 7f3f
00000010: 8402 803f 43cc 7f3f 55ce 7f3f 9ac5 7f3f
00000020: cabc 7f3f 27bb 7f3f 19bb 7f3f f5bf 7f3f
00000030: 31c4 7f3f 5ddf 7f3f 1bc1 7f3f 41c1 7f3f
00000040: f7e1 7f3f 9cd1 7f3f 6fc3 7f3f 92bc 7f3f
00000050: 9bba 7f3f 52bb 7f3f 0abd 7f3f 6cba 7f3f
00000060: 9ab5 7f3f 31bd 7f3f 1abf 7f3f 96c1 7f3f
00000070: 8bc2 7f3f c421 803f e7c1 7f3f 28c0 7f3f
00000080: 17cb 7f3f 92de 7f3f 9ad0 7f3f acc9 7f3f
00000090: f4c5 7f3f 6fb3 7f3f 76bb 7f3f 72c0 7f3f
000000a0: b11c 803f e2ce 7f3f 1ccb 7f3f b3b4 7f3f
000000b0: 65bd 7f3f c9c4 7f3f 77be 7f3f dabd 7f3f
000000c0: 18c7 7f3f 2acb 7f3f 5dba 7f3f ff2e 803f
000000d0: ddc0 7f3f 5ed3 7f3f 9ac6 7f3f 43b2 7f3f
000000e0: 33c0 7f3f febf 7f3f 12fc 7f3f 37c4 7f3f
000000f0: 44c3 7f3f 34e9 7f3f 62c0 7f3f 8fbb 7f3f
00000100: 3abb 7f3f 06c7 7f3f edc9 7f3f 01bf 7f3f
00000110: 67c0 7f3f 9103 803f a9bb 7f3f 20bc 7f3f
00000120: 2fc8 7f3f 96cf 7f3f 32c5 7f3f 00bc 7f3f
00000130: abc9 7f3f 2ed3 7f3f d8ba 7f3f 74d1 7f3f
00000140: 6dc7 7f3f ffc7 7f3f d4c0 7f3f dd1d 803f
00000150: 2cb4 7f3f b8d8 7f3f 5aba 7f3f 5bc7 7f3f
00000160: 49bb 7f3f 3dc3 7f3f 7fcf 7f3f 2fb0 7f3f
00000170: 04d5 7f3f 32d1 7f3f 3bcc 7f3f 69bf 7f3f
00000180: 399f 7f3f 10cb 7f3f f4bc 7f3f d3cf 7f3f
00000190: 29bc 7f3f 90c6 7f3f b8d2 7f3f 48dd 7f3f
000001a0: 11bf 7f3f c325 803f 8dd4 7f3f 28be 7f3f
000001b0: 6528 803f 0cbe 7f3f 76c7 7f3f 60c0 7f3f
000001c0: f8b3 7f3f afc5 7f3f 2808 803f b1c0 7f3f
000001d0: 23c4 7f3f 5abf 7f3f 46ba 7f3f a3c1 7f3f
000001e0: 3fbe 7f3f 33d5 7f3f 47c4 7f3f bec8 7f3f
000001f0: 4dc0 7f3f 21c5 7f3f 83c5 7f3f 33c4 7f3f
0.99999005 0.9989448 0.9992255 0.9992692 1.0000768 0.99921054 0.9992421 0.9991089
0.99897444 0.99894947 0.99894863 0.9990228 0.9990874 0.999502 0.9990403 0.9990426
0.9995417 0.99929214 0.99907583 0.9989711 0.9989411 0.99895203 0.99897826 0.9989383
0.99886477 0.9989806 0.9990097 0.99904764 0.99906224 1.0010304 0.99905246 0.9990258
0.99919266 0.9994899 0.99927676 0.999171 0.9991143 0.9988317 0.9989542 0.99903023
1.0008756 0.99925053 0.99919295 0.998851 0.9989837 0.99909645 0.999 0.99899065
0.9991317 0.9991938 0.9989374 1.0014342 0.9990366 0.99931896 0.99912417 0.9988138
0.9990265 0.9990233 0.99994004 0.99908775 0.99907327 0.99965215 0.9990293 0.99895567
0.9989506 0.9991306 0.9991749 0.99900824 0.9990296 1.0001088 0.9989572 0.9989643
0.9991483 0.99926126 0.9991027 0.9989624 0.99917096 0.9993161 0.99894476 0.99928975
0.99913675 0.99914545 0.9990361 1.0009114 0.99884295 0.9994006 0.99893725 0.9991357
0.9989515 0.99907285 0.9992599 0.9987821 0.9993441 0.9992858 0.99921006 0.99901444
0.9985233 0.99919224 0.99897695 0.9992649 0.99896485 0.9991236 0.99930906 0.99947023
0.9990092 1.0011524 0.999337 0.9989953 1.0012327 0.99899364 0.9991373 0.99902916
0.99883986 0.99911016 1.0002489 0.999034 0.99908656 0.99901354 0.99893606 0.9990484
0.9989967 0.9993469 0.9990887 0.99915683 0.999028 0.9991017 0.99910754 0.9990875

model.10.bias f4 [128]
00000000: 0000 0000 0000 0000 0000 0000 0000 0000
00000010: 0000 0000 0000 0000 0000 0000 0000 0000
00000020: 0000 0000 0000 0000 0000 0000 0000 0000
00000030: 0000 0000 0000 0000 0000 0000 0000 0000
00000040: 0000 0000 0000 0000 0000 0000 0000 0000
00000050: 0000 0000 0000 0000 0000 0000 0000 0000
00000060: 0000 0000 0000 0000 0000 0000 0000 0000
00000070: 0000 0000 0000 0000 0000 0000 0000 0000
00000080: 0000 0000 0000 0000 0000 0000 0000 0000
00000090: 0000 0000 0000 0000 0000 0000 0000 0000
000000a0: 0000 0000 0000 0000 0000 0000 0000 0000
000000b0: 0000 0000 0000 0000 0000 0000 0000 0000
000000c0: 0000 0000 0000 0000 0000 0000 0000 0000
000000d0: 0000 0000 0000 0000 0000 0000 0000 0000
000000e0: 0000 0000 0000 0000 0000 0000 0000 0000
000000f0: 0000 0000 0000 0000 0000 0000 0000 0000
00000100: 0000 0000 0000 0000 0000 0000 0000 0000
00000110: 0000 0000 0000 0000 0000 0000 0000 0000
00000120: 0000 0000 0000 0000 0000 0000 0000 0000
00000130: 0000 0000 0000 0000 0000 0000 0000 0000
00000140: 0000 0000 0000 0000 0000 0000 0000 0000
00000150: 0000 0000 0000 0000 0000 0000 0000 0000
00000160: 0000 0000 0000 0000 0000 0000 0000 0000
00000170: 0000 0000 0000 0000 0000 0000 0000 0000
00000180: 0000 0000 0000 0000 0000 0000 0000 0000
00000190: 0000 0000 0000 0000 0000 0000 0000 0000
000001a0: 0000 0000 0000 0000 0000 0000 0000 0000
000001b0: 0000 0000 0000 0000 0000 0000 0000 0000
000001c0: 0000 0000 0000 0000 0000 0000 0000 0000
000001d0: 0000 0000 0000 0000 0000 0000 0000 0000
000001e0: 0000 0000 0000 0000 0000 0000 0000 0000
000001f0: 0000 0000 0000 0000 0000 0000 0000 0000
0.0 0.0 0.0 0.0 0.0 0.0 0.0 0.0
0.0 0.0 0.0 0.0 0.0 0.0 0.0 0.0
0.0 0.0 0.0 0.0 0.0 0.0 0.0 0.0
0.0 0.0 0.0 0.0 0.0 0.0 0.0 0.0
0.0 0.0 0.0 0.0 0.0 0.0 0.0 0.0
0.0 0.0 0.0 0.0 0.0 0.0 0.0 0.0
0.0 0.0 0.0 0.0 0.0 0.0 0.0 0.0
0.0 0.0 0.0 0.0 0.0 0.0 0.0 0.0
0.0 0.0 0.0 0.0 0.0 0.0 0.0 0.0
0.0 0.0 0.0 0.0 0.0 0.0 0.0 0.0
0.0 0.0 0.0 0.0 0.0 0.0 0.0 0.0
0.0 0.0 0.0 0.0 0.0 0.0 0.0 0.0
0.0 0.0 0.0 0.0 0.0 0.0 0.0 0.0
0.0 0.0 0.0 0.0 0.0 0.0 0.0 0.0
0.0 0.0 0.0 0.0 0.0 0.0 0.0 0.0
0.0 0.0 0.0 0.0 0.0 0.0 0.0 0.0

classification_layer.0.weight f4 [1, 512]
00000000: 9b46 10bd 80ee 40bc b2c0 4a3c 7380 9c3b
00000010: e496 c13c ced9 233d d0ed b33c 36ea 06bd
00000020: 74e2 49bc 9305 033b 5ae7 a93b ffc2 74bb
00000030: 4001 853c 4304 323c d709 273d 7b9c 0abd
00000040: 27fe e23c 219b 0a3c 53df 8b3c 3c7f b43b
00000050: fb53 dc3c a341 c03c dc1e 24bd 0f1d 23bd
00000060: 742e 823a 00dd ad3c fbbb 2abd bf51 d6bc
00000070: da8c 183d f52b 86bb b6fe 23bd b1ef 34bb
00000080: 1266 5abb 03a4 0f3d 75f7 073d 8f45 753c
00000090: 9398 693c 04a9 9abc 027b 193d 733a 243d
000000a0: 590e 6cbc bf8d fc3c ba66 24bd c34a 063c
000000b0: 4b95 18bd 0395 fa3b 0a0e ecbc 7aac 0dbb
000000c0: 9649 08bd 5af0 45bc 9520 f63b 7945 23bd
000000d0: 6330 073c e350 143c c5a1 113d 53c5 123d
000000e0: 4852 e8bc 2133 1abd 468f 153d 20a4 40bc
000000f0: 0556 d63c edf9 b0bc cc14 10bd c2ee ae3b
00000100: 21d3 2a3b 9d28 1abd 7e30 cebc b6a1 dfbb
00000110: 80bc 40bc 63ce f5bb c96c 103d 7038 ffbb
00000120: b0b3 febb 654d 0f3d de1b a63c 0a78 18bc
00000130: bae1 daba 16ea 893c b2b0 a23c d4b7 fdbc
00000140: af8b 8dbc 36d8 e63c 7da1 26bd 190e 19bd
00000150: f63a 3e3c 414b 24bd 49aa 82bc 325a ddbc
00000160: d4b9 393c 93e2 0b3d 95a6 e0bc 0f98 2b3a
00000170: eda4 d4bc a0b8 233d d7e2 af3c edaa f7bc
00000180: 8978 18bd 3fb8 0dbd a8ac c5ba ce95 a3bc
00000190: 89bd babc 39b9 cf3c a396 0dbd b350 e13c
000001a0: fe31 013d 3df7 223d 6125 f8bc 0876 0f3d
000001b0: 5f66 653c e8b4 17bd 079e 76bc c2cd c5bc
000001c0: 7bde 0a3b 8cd1 163d 9924 83bb d942 d938
000001d0: a2ad 613c 344d 073c 9971 183c a707 88bb
000001e0: 5a83 d9b9 a681 21bc 2074 193d 4770 e5bc
000001f0: 2d2b 213d 7a7a dab9 3570 aebc a58d 2abd
00000200: d6de 0abd 9405 dd3c 17c0 d4bc e864 0c3c
00000210: 0957 083d b15d 17bd fc6b d8bc cf79 0b3d
00000220: 0e18 02bd d30c 75bc a16a 9d3c 7460 ecbc
00000230: b9e6 30bd 516e 1ebd e49e eaba 2578 9ebb
00000240: 4938 293d 1da9 22bd e0dd acbc c4e9 f1bc
00000250: 6997 2cbd b902 073d 818e 6c3b 2ef4 ef3c
00000260: 0ec7 dabc c916 20bd bc71 f5bc 6a12 b8bc
00000270: 86a5 883c 3e70 56bc 7ee1 f33c a0d7 8cbc
00000280: 4a0e 9cbc 46b1 a73c f58a dc3c 3bfa c23c
00000290: dd81 263c 4f8c 04bd d29c cb3c b3ba 663c
000002a0: 60a0 663b 392e 18bd 5d43 b73b 72c2 29bd
000002b0: 4009 1fbd 7a6e 413c dd5e 203d 7678 0dbd
000002c0: c742 a93a 8a27 23bd a5b7 22bd db2d 9b3c
000002d0: 2cbd 503c 65c6 27bd 5ed1 13bd 1331 e83c
000002e0: aef9 103d 9428 fd3c 4d87 06bb 9ee5 f93c
000002f0: adf1 ab3c ad07 30bd 33f0 ab3c 9bb6 39bc
00000300: b5a4 99bc ae3b 22bd 5e73 813b 57c3 1bbd
00000310: 80f8 073d e639 7dbc b977 183d 588f d13c
00000320: 0855 ebbc 62b3 4d3c c5a8 cfbc 2bfc d53b
00000330: 6d07 84bc 1512 b8bb bf45 a4bc 07bb f23c
00000340: ff76 1bbd b2f9 27bd 9f04 9e3c 92d1 b9bc
00000350: 3959 233d 2ed1 e13b 3e73 e03c 71c0 803c
00000360: c8b8 853c 0cef 7a3c 6861 a23c 0e03 9f3c
00000370: 54cf 303c f333 e63c ff3b c23c 8ec9 4dba
00000380: 83e2 823b d65b ac3c 1513 11bd 0680 ec3c
00000390: 9c93 6cbc 8a98 db3b 51ae 8fbc c326 ed3c
000003a0: d558 dfbb d9a9 5cbc 156b 8b3b 280e 28bd
000003b0: c838 8abb 6695 ca3b 5002 8cbc a487 2fbd
000003c0: d8e3 83bb a426 173d 3599 9f3c b6d2 be3c
000003d0: 8819 9ebc 3ce5 14bd 115b c93c 656f 5cbc
000003e0: e3ed 023c 39a3 523c 189f f93c 265e 07bd
000003f0: 4d67 f2bc 48f8 1c3d d487 e23c 7ed5 1cbd
-0.035223585 -0.011775613 0.012375044 0.0047760545 0.02363152 0.040002637 0.021963984 -0.032938205
-0.012322057 0.0019992336 0.00518505 -0.0037347672 0.016235948 0.010865274 0.04078087 -0.033840638
0.02770908 0.008459837 0.017074263 0.0055083316 0.026895514 0.023468798 -0.040068492 -0.039822634
0.0009932057 0.021223545 -0.04168318 -0.026162026 0.0372437 -0.0040945956 -0.040037833 -0.0027608688
-0.0033324999 0.035068523 0.033194978 0.014970197 0.014257568 -0.018879421 0.037470825 0.040094804
-0.014407718 0.030829309 -0.04013703 0.0081965355 -0.037251752 0.007647158 -0.028815288 -0.0021617697
-0.033273302 -0.01208123 0.0075112083 -0.039861176 0.008251282 0.009052488 0.035554666 0.035832714
-0.028359547 -0.037646417 0.03651359 -0.01175788 0.026164064 -0.021603549 -0.035176083 0.0053385207
0.0026065784 -0.037636388 -0.025169607 -0.0068246974 -0.011763692 -0.00750141 0.035259996 -0.0077887103
-0.0077728853 0.03498592 0.02027696 -0.009305963 -0.0016699352 0.016835254 0.019859646 -0.030971445
-0.01727852 0.02817927 -0.04068135 -0.03736696 0.011610737 -0.04011083 -0.015950339 -0.027020548
0.011335809 0.034151625 -0.027423183 0.0006545791 -0.025957549 0.039970994 0.02147047 -0.030232871
-0.037224326 -0.03459954 -0.0015081363 -0.019968893 -0.022795456 0.025356876 -0.034567486 0.0275043
0.031541817 0.039786566 -0.030291261 0.035024673 0.014001458 -0.03703776 -0.015052325 -0.024145965
0.0021189738 0.036820933 -0.0040021655 0.00010359818 0.013774307 0.008258153 0.009304428 -0.004151303
-0.0004148733 -0.009857571 0.03746426 -0.02800764 0.039347816 -0.00041671452 -0.021293739 -0.04163899
-0.03390392 0.026980199 -0.025970502 0.00856898 0.03328613 -0.036954585 -0.026418678 0.034051713
-0.03176122 -0.014956671 0.019215884 -0.028854586 -0.043188784 -0.038679425 -0.0017900136 -0.0048360997
0.041313443 -0.03971206 -0.021101892 -0.029530413 -0.042136583 0.03296158 0.003609568 0.029291239
-0.026706245 -0.03908423 -0.02996146 -0.022469718 0.01668049 -0.013088284 0.029770609 -0.017192662
-0.019049782 0.020470273 0.026921729 0.02380096 0.010162798 -0.03236037 0.024855051 0.0140825985
0.0035190806 -0.037153456 0.005592747 -0.041445203 -0.03882718 0.011806125 0.03915297 -0.03453871
0.0012913578 -0.03983263 -0.03972592 0.018942764 0.012740415 -0.04096069 -0.03608834 0.028343713
0.035394363 0.030903138 -0.0020527423 0.030504998 0.020989263 -0.04297607 0.02098856 -0.01133504
-0.018755296 -0.039607696 0.0039505204 -0.038028087 0.033195972 -0.015455699 0.03722355 0.025581047
-0.02872707 0.012554975 -0.02534903 0.006530305 -0.016116822 -0.00561739 -0.020052789 0.029630197
-0.03795528 -0.041009612 0.019289313 -0.022682939 0.03988001 0.0068913912 0.027398702 0.015716763
0.016323462 0.015315782 0.019821838 0.019410636 0.010791618 0.028100943 0.023710249 -0.00078501634
0.0039942875 0.021039885 -0.03541859 0.02886964 -0.01443949 0.0067015337 -0.017539175 0.028949147
-0.0068160095 -0.013468229 0.0042547085 -0.041029125 -0.0042181946 0.0061823605 -0.017090946 -0.042853966
-0.004024964 0.036902085 0.019482234 0.023293834 -0.019299284 -0.036351427 0.024579557 -0.013454293
0.007991287 0.012856298 0.03047137 -0.03304877 -0.029590273 0.038322717 0.027652659 -0.03828954
