Lab4/models/gan_models/vbn_wgan_100e_250b_dis.pth (torch, 398261 bytes, 15 tensors)

model.0.weight f4 [16, 3, 3, 3]
0	0x3e33d371	0.17561127
1	0xbe01b9dd	-0.12668557
2	0xbdc3ee5b	-0.09566947
3	0xbd7d51a2	-0.06184543
4	0xbc8ec55a	-0.017428089
5	0xbdb7f90b	-0.08983048
6	0xbe3b60dc	-0.18298668
7	0xbe331d7e	-0.17491719
8	0x3e0e132b	0.138745
9	0xbda48b45	-0.08034376
10	0xbe050099	-0.12988509
11	0xbda219b4	-0.07915059
12	0x3dd667e7	0.104690365
13	0xbd8cae59	-0.06869192
14	0x3d62a9cf	0.055337723
15	0xbe31c1ff	-0.1735916
16	0xbd466539	-0.048436377
17	0xbc8c9380	-0.017160177
18	0x3e21cff6	0.15801987
19	0xbdb1009a	-0.08642693
20	0x3e10b079	0.14129819
21	0x3e2a09df	0.16605328
22	0xbe41760f	-0.18892692
23	0xbc7976ca	-0.015226075
24	0x3d92621e	0.071476206
25	0x3df061d1	0.11737407
26	0x3d8abc30	0.06774175
27	0xbe456987	-0.19278537
28	0xbdae7e48	-0.0852018
29	0xbd3ff57c	-0.04686497
30	0xbcfd445b	-0.030916383
31	0x3d844c5b	0.06459876
32	0xbc51c6c4	-0.012803737
33	0xbcb52333	-0.02211151
34	0x3df9b784	0.12193206
35	0x3c086f22	0.008327277
36	0xbe283104	-0.16424948
37	0x3d8db844	0.069199115
38	0xbd17f4bf	-0.037098642
39	0x3e095d60	0.13414526
40	0x3e3d916a	0.18512502
41	0xbd1b6eed	-0.037947584
42	0x3dbf0c53	0.093285225
43	0x3ced08aa	0.028934795
44	0xbdaf2fbd	-0.08554027
45	0xbe392c47	-0.18083297
46	0x3aa83979	0.0012834511
47	0xbc0c693a	-0.00857001
48	0x3d9c9c2a	0.076469734
49	0x3e340976	0.17581734
50	0xbd92d84e	-0.07170163
51	0x3dd10d97	0.1020767
52	0xbcd4ed2d	-0.025992
53	0xbd201669	-0.039083872
54	0x3e3cc5ad	0.18434782
55	0x3d8f7628	0.070049584
56	0x3dca1806	0.09867863
57	0x3d814c22	0.06313349
58	0x3d6d8c84	0.057995334
59	0xbcfb6579	-0.030688034
60	0x3e302e62	0.17205194
61	0x3dc1a0a0	0.09454465
62	0x3e295959	0.1653799
63	0x3db4d211	0.088291295
64	0x3e0b6e9a	0.1361641
65	0x3d4df044	0.050277963
66	0x3e0e24c4	0.13881212
67	0x3cb14a93	0.021642005
68	0x3c42f832	0.011899995
69	0xbd328e82	-0.043592937
70	0x3ddc3abd	0.10753391
71	0x3d6b06dc	0.05737959
72	0xbe1b3d63	-0.15160136
73	0x3daa4333	0.083135985
74	0x3c7139f4	0.01472329
75	0x3e126053	0.14294557
76	0xbcaca345	-0.021073947
77	0x3da3c256	0.07996051
78	0x3d91942d	0.071083404
79	0x3d5eac99	0.05436382
80	0x3c52f120	0.0128748715
81	0xbe0de5e0	-0.13857222
82	0x3de7a04b	0.1130987
83	0x3c22eb00	0.009943724
84	0x3e420dfb	0.18950646
85	0x3e17f951	0.148412
86	0x3d553304	0.052050605
87	0xbe2af3c1	-0.16694547
88	0xbd0b4568	-0.034001738
89	0xbd7d3087	-0.061813857
90	0xbe223037	-0.15838705
91	0xbcdc93c7	-0.026925934
92	0xbdf701c4	-0.12060884
93	0x3d7b6b23	0.06138147
94	0x3e57d935	0.21078952
95	0x3d51ce1f	0.051221963
96	0xbcb42291	-0.021989139
97	0xbc4bd5c8	-0.012441106
98	0xbc9a65d0	-0.018847376
99	0x3d495050	0.049148858
100	0xbd390767	-0.045173075
101	0x3d58cfad	0.05293243
102	0x3d033b7f	0.03203916
103	0x3e4d3b9c	0.2004227
104	0xbe2904c3	-0.16505723
105	0xbdbbc177	-0.0916776
106	0xbdd1da71	-0.102467425
107	0xbdf0acd8	-0.11751717
108	0x3de2c032	0.110718146
109	0x3e3bd072	0.18341234
110	0xbcb2709b	-0.02178221
111	0x3ddea2ea	0.10870917
112	0x3e51f656	0.20504126
113	0x3e4019cf	0.18759845
114	0x3d269659	0.040670726
115	0x3c46105c	0.012088861
116	0xbcc8bad6	-0.024503153
117	0xbe5935f0	-0.21211982
118	0x3cdeb76d	0.027187074
119	0xbe4bf715	-0.19918473
120	0x3c010a86	0.007876044
121	0xbdd55652	-0.10416855
122	0xbdc29ae7	-0.095022015
123	0xbde57df0	-0.11205661
124	0x3d6cf39e	0.05784952
125	0x3e1b4690	0.15163636
126	0xbde036f5	-0.10947982
127	0x3dc12483	0.09430792
128	0xbcfdad52	-0.030966435
129	0x3dfc8585	0.12330154
130	0xbd097ad2	-0.033564396
131	0xbe38dd59	-0.18053187
132	0x3c4dfa1b	0.012571837
133	0xbe550a05	-0.20804603
134	0xbdda0ad9	-0.106466
135	0xbe463963	-0.19357829
136	0x3c8e001d	0.017334038
137	0xbd73c75d	-0.0595163
138	0x3defd703	0.11710932
139	0xbc98cfe9	-0.018653827
140	0xbc634627	-0.013871706
141	0x3dc666e4	0.096875936
142	0x3d9338ad	0.071885444
143	0xbe149e50	-0.14513516
144	0xbe4d8dd6	-0.20073637
145	0x3d7cb018	0.061691374
146	0xbdf103e8	-0.11768323
147	0x3d115e8e	0.035490565
148	0x3d742946	0.059609674
149	0xbd838633	-0.06422081
150	0x3de076bd	0.109601475
151	0x3df351c7	0.11880832
152	0xbcea436e	-0.028596606
153	0xbe278f3a	-0.1636323
154	0xbe000372	-0.12501314
155	0x3e122487	0.14271747
156	0x3d1e61d4	0.038667515
157	0xbd100464	-0.035160437
158	0xbda46d6d	-0.08028684
159	0x3dd9d415	0.106361546
160	0x3b853587	0.004065219
161	0xbd2b2955	-0.041787464
162	0xbe339db6	-0.1754063
163	0xbc547ec5	-0.012969677
164	0x3d9fff5a	0.07812376
165	0xbe215a78	-0.15757167
166	0x3e0d6ae8	0.13810313
167	0x3d9045ab	0.07044538
168	0xbe147286	-0.14496812
169	0xbdb2eb5f	-0.087363
170	0xbe341bef	-0.17588781
171	0x3d715f3d	0.058928717
172	0xbdd495ee	-0.10380159
173	0x3e1b1178	0.15143383
174	0x3cd6c019	0.026214646
175	0xbd7d0f60	-0.06178224
176	0x3e4ccc59	0.19999827
177	0x3da17bd2	0.07884945
178	0x3d97fd28	0.074213326
179	0xbd956f29	-0.07296593
180	0x3e2b6401	0.16737367
181	0x3e17dfea	0.1483151
182	0xbd469825	-0.04848494
183	0xbdc1cd81	-0.09463025
184	0x3e2db70c	0.16964358
185	0xbd86ec1c	-0.06588003
186	0x3e3ae9b8	0.18253219
187	0x3e1f0ecc	0.15532988
188	0x3e1513f4	0.14558393
189	0xbd8c9fe4	-0.06866434
190	0x3d89c866	0.06727676
191	0xbdef9ead	-0.11700187
192	0xbd9c54f1	-0.07633389
193	0xbb4c5f72	-0.003118482
194	0x3cf7032d	0.030152882
195	0xbe2b14eb	-0.16707198
196	0xbd6a3a61	-0.05718458
197	0xbdc12a97	-0.094319515
198	0x3bf68387	0.0075230035
199	0xbd879d77	-0.06621831
200	0x3d709c56	0.058742844
201	0xbd7e2fc3	-0.062057268
202	0xbe1dc1cc	-0.15405959
203	0x3df0afa1	0.117522486
204	0xbdf6a304	-0.120428115
205	0xbdf11b51	-0.11772788
206	0x3e1c3f40	0.15258503
207	0xbe3baa66	-0.1832672
208	0x3c94a0b7	0.018143041
209	0xbc9db6af	-0.01925215
210	0xbd963832	-0.07334937
211	0xbdd1122a	-0.10208543
212	0xbc075635	-0.008260299
213	0xbe02ec9d	-0.12785573
214	0xbe04c68e	-0.12966368
215	0xbe0c704a	-0.1371471
216	0xbd741c66	-0.059597395
217	0x3e164f99	0.14678802
218	0xbc1f6af9	-0.009730094
219	0x3d8ce091	0.0687877
220	0xbe151d79	-0.14562024
221	0xbd9e22d6	-0.07721488
222	0xbde96182	-0.11395551
223	0xbd93d915	-0.072191395
224	0xbe241626	-0.16024074
225	0x3de75f24	0.112974435
226	0xbdcc2cb8	-0.09969467
227	0x3dc06477	0.09394162
228	0x3e2130e2	0.15741304
229	0x3e37d869	0.17953648
230	0x3e12049e	0.14259574
231	0x3d84a553	0.064768456
232	0x3e5be8de	0.2147555
233	0x3c8cfc87	0.017210258
234	0xbd96bccc	-0.07360229
235	0xbd492286	-0.04910519
236	0xbd1006e6	-0.03516283
237	0xbd931e19	-0.07183475
238	0xbdc46faa	-0.09591611
239	0xbd6eb531	-0.058278266
240	0xbdb041f9	-0.08606333
241	0xbd42ad91	-0.047528807
242	0x3cfcb55f	0.030848203
243	0xbde9ec6e	-0.114220485
244	0x3e167bee	0.14695713
245	0x3e018917	0.12649952
246	0xbdb2f7eb	-0.08738693
247	0x3d9a8b3b	0.07546087
248	0xbdcbc07a	-0.09948821
249	0xbe001931	-0.1250961
250	0xbe357b09	-0.17722715
251	0x3e426a0e	0.18985769
252	0xbdc8b42b	-0.09799989
253	0x3e14dceb	0.14537399
254	0x3e102785	0.14077576
255	0xbe27adef	-0.16374944

model.0.bias f4 [16]
0	0x3d467749	0.048453603
1	0x3e432d11	0.1906016
2	0xbdcb8608	-0.09937674
3	0xbd2be82d	-0.041969467
4	0xbde3564e	-0.11100446
5	0x3dcb492c	0.09926066
6	0xbb6e43bf	-0.0036356298
7	0xbe06ad8f	-0.13152145
8	0xbd2f90ab	-0.042862576
9	0x3e2a5376	0.166334
10	0x3e0b4e8d	0.13604183
11	0x3dbe46bc	0.09290835
12	0x3e10eff4	0.14154035
13	0x3d96a585	0.07355789
14	0xbe4acefd	-0.19805522
15	0x3dbcddae	0.092219695

model.2.weight f4 [32, 16, 3, 3]
0	0xbd425d03	-0.047451984
1	0x3d049b0d	0.03237443
2	0x3d3dcdae	0.04633873
3	0xbd673300	-0.05644512
4	0x3d1b11ed	0.037858892
5	0xbd2a6d0a	-0.041607894
6	0x3ca074bd	0.019586915
7	0x3c81f539	0.015864002
8	0xbc6f09a9	-0.0145897055
9	0x3b28a3e8	0.0025732461
10	0x3ce4175f	0.027843175
11	0xbd5ec1cc	-0.054384038
12	0x3d4821d1	0.048860375
13	0xbd3e6278	-0.046480626
14	0xba99756f	-0.0011707972
15	0x3d85407c	0.0650644
16	0x3d9ad2f5	0.07559768
17	0xbd3f1043	-0.046646368
18	0x3d4f1eba	0.050566413
19	0x3caf2e92	0.021384511
20	0x3d2da164	0.042390242
21	0x3d92c0c4	0.071656734
22	0xbce917a4	-0.028453656
23	0xbdd2f39e	-0.103003725
24	0x3cf06813	0.029346501
25	0xbce9cdec	-0.028540574
26	0xbd954e09	-0.07290275
27	0xbd323f2d	-0.04351728
28	0x3d439639	0.047750685
29	0x3c78dc2b	0.015189211
30	0x3d159aaf	0.03652447
31	0x3cb14b96	0.021642487
32	0x3cae17fa	0.021251667
33	0x3d88260f	0.06647884
34	0xbcc99555	-0.02460734
35	0x3d7d50d8	0.061844677
36	0x3d710913	0.058846544
37	0xbc7a34f2	-0.015271412
38	0x3d97e355	0.07416407
39	0xbd7c3276	-0.06157156
40	0xbcb8d430	-0.022562116
41	0x3d1e015d	0.03857552
42	0xbd2f2561	-0.042760257
43	0xbd3812c6	-0.04493978
44	0x3c854500	0.016268253
45	0xbce630a9	-0.028099375
46	0x3c7efd5d	0.015563336
47	0x3ca68e2b	0.020331463
48	0xbd4c5edc	-0.049895152
49	0x3b5a60a1	0.0033321755
50	0x3d558a3f	0.052133795
51	0x3d162625	0.03665747
52	0x3d87d6d8	0.06632775
53	0x3c1fcddb	0.00975367
54	0x3c095b8f	0.008383646
55	0x3d3cbbb5	0.04607745
56	0xbd00f64a	-0.03148488
57	0xbbb9208c	-0.005649632
58	0xbd970509	-0.07374007
59	0x3cad642b	0.021165928
60	0x3cbb2da1	0.022848906
61	0x3cb3e6fb	0.021960726
62	0x3d2f2cf3	0.042767476
63	0xbc4ddc99	-0.012564802
64	0xbce0ca59	-0.027440237
65	0x3d4289f1	0.047494832
66	0xbb56d74f	-0.0032782143
67	0xbd76f2a3	-0.06028999
68	0x3c3a255a	0.011361444
69	0x3ce53b74	0.027982451
70	0xbd26b4aa	-0.04069964
71	0x3db04719	0.08607311
72	0xbd3815e2	-0.044942744
73	0xbced3b10	-0.028958827
74	0xbc4c4d71	-0.012469635
75	0xbd542ff2	-0.051803537
76	0xbcf25975	-0.029583672
77	0x3c978c5a	0.018499542
78	0x3d411efb	0.047148686
79	0x3d8e7f02	0.069578186
80	0xbbbd10a7	-0.0057698074
81	0xbca78321	-0.02044827
82	0x3aa561f3	0.0012617692
83	0x3d9042da	0.07044001
84	0xbc1f165d	-0.009709922
85	0x3c81a97b	0.015827885
86	0x3d8755eb	0.066081844
87	0x3bf5e052	0.0075035477
88	0xbcb699f0	-0.0222902
89	0x3d3b7e91	0.045775
90	0x3d241663	0.040060412
91	0x3d387777	0.045035806
92	0x3d84f65f	0.06492304
93	0x3d0b1669	0.03395692
94	0x3dafe766	0.085890576
95	0x3c88c507	0.016695512
96	0xbc84cac6	-0.016209971
97	0x3d22789f	0.039665814
98	0xbc8eb86a	-0.01742192
99	0xbd28fcc3	-0.041256677
100	0x3d370151	0.04467899
101	0xbd6f8581	-0.05847693
102	0x3c47ff6b	0.0122068925
103	0xbd334bd2	-0.04377348
104	0xbd3c557d	-0.045979965
105	0x3d40ba5a	0.04705272
106	0x3d4b5b1b	0.04964743
107	0xbb0e8608	-0.002174737
108	0xb8fbf1e2	-0.00012013667
109	0xbc24b1cf	-0.0100521585
110	0x3d57ff58	0.05273375
111	0x3d4a8a5a	0.04944835
112	0x3dc47444	0.095924884
113	0x3de7dd3d	0.11321495
114	0xbb18718e	-0.0023261043
115	0x3cbb97f4	0.022899605
116	0x3ce4c38a	0.027925272
117	0xba25ee27	-0.0006329738
118	0x3d92ce5b	0.071682654
119	0x3d5e9780	0.0543437
120	0x3dabe09c	0.0839245
121	0x3ce0b2aa	0.027428944
122	0xbd822752	-0.06355156
123	0x3daffb9e	0.08592914
124	0x3d75df4c	0.060027406
125	0xbcfa0cdb	-0.030523708
126	0x3d2cbdee	0.04217332
127	0x3da275fa	0.079326585
128	0x3d407aa5	0.046991963
129	0xbc9ea894	-0.019367494
130	0xbd41eb19	-0.047343347
131	0xbd1efeee	-0.03881734
132	0xbd54f399	-0.051990125
133	0xbcc8d324	-0.024514742
134	0xbd3fd6d5	-0.04683574
135	0x3ce25546	0.027628552
136	0x3d2059a2	0.03914798
137	0x3c338d69	0.010959008
138	0x3d3e0c99	0.046398733
139	0xbc46f00d	-0.0121421935
140	0x3db3d3fc	0.08780667
141	0xbd2c09d1	-0.04200155
142	0x3d95f201	0.07321549
143	0x3d2a9eac	0.041655228
144	0x3d4d8a83	0.050180923
145	0xbd43a401	-0.04776383
146	0xbd0afbf5	-0.03393169
147	0xbd785232	-0.060625263
148	0xbd18fb5f	-0.0373491
149	0x3d1fbe78	0.039000005
150	0x3ba1b20d	0.0049345554
151	0x3d8e1cff	0.06939124
152	0x3dc1c938	0.094622076
153	0xbd19a8d6	-0.03751453
154	0xbd55f0e9	-0.052231703
155	0x3d997161	0.074923284
156	0xbaf33843	-0.0018556196
157	0x3d93b59c	0.072123736
158	0x3d51df48	0.05123833
159	0x38f1a2ec	0.00011522122
160	0xbbe26bcf	-0.0069098244
161	0x3beaa23f	0.0071604545
162	0xbda13c08	-0.07872778
163	0x3d6e33eb	0.05815498
164	0xbd3e1f76	-0.046416722
165	0x3da076d2	0.07835163
166	0x3d8f9743	0.07011273
167	0x3d9a2cf3	0.07528105
168	0xbd2372d5	-0.039904434
169	0x3d80d50f	0.06290638
170	0x3c750406	0.014954573
171	0x3d02d125	0.031937737
172	0xbca79e83	-0.020461326
173	0x3d147884	0.036247745
174	0xbbb7c629	-0.0056083393
175	0x3bdf265b	0.0068099923
176	0x3ca4aac2	0.020100955
177	0xbcf782dc	-0.030213766
178	0x3d2420ee	0.040070467
179	0xbcb43459	-0.021997618
180	0x3d45e950	0.048318207
181	0xbd396001	-0.045257572
182	0x3d8a50aa	0.06753667
183	0x3beb1f72	0.0071753794
184	0x3d655b57	0.05599531
185	0x3dd5f37f	0.10446834
186	0xbc871d47	-0.016493453
187	0x3a42bad4	0.0007428352
188	0x3cc045fb	0.02347087
189	0x3d5e2dbd	0.05424284
190	0xbdaf6007	-0.08563238
191	0x3db7abcd	0.08968315
192	0xbd576dd2	-0.052594967
193	0x3d9e212a	0.07721169
194	0x3cfd2801	0.030902864
195	0x3d8c4d60	0.068506956
196	0xbd2d9a09	-0.042383227
197	0x3da52a1d	0.08064673
198	0xbd6e2e61	-0.0581497
199	0xbd8a0220	-0.067386866
200	0x3d339c36	0.043850146
201	0x3d7a2252	0.061067887
202	0x3d9446ba	0.072400525
203	0xbcfccb59	-0.030858682
204	0x3ac7fb87	0.0015257456
205	0xbd2f2c6d	-0.042766977
206	0xbc6aa765	-0.0143221365
207	0xbd6f85b5	-0.058477122
208	0xbd59447f	-0.05304384
209	0x3d723165	0.059129138
210	0xbd9bc510	-0.07605946
211	0x3d2597ee	0.040428095
212	0xbd3c1464	-0.045917884
213	0xbd8a0aab	-0.06740316
214	0xbd51b613	-0.05119903
215	0xb9011ada	-0.00012312402
216	0x3cb91b25	0.022595951
217	0xbd1eff9d	-0.03881799
218	0xbd7d342a	-0.061817326
219	0xbd968f07	-0.07351499
220	0x3d026a99	0.03183994
221	0x3d3d3296	0.04619082
222	0x3d8ffea8	0.07030994
223	0xbc8e6243	-0.01738084
224	0x3d97f2e2	0.07419373
225	0x3bdbe598	0.0067107193
226	0x3cdc3cfb	0.026884547
227	0x3d809d81	0.062800415
228	0xbc919248	-0.017769948
229	0xbd1be810	-0.03806311
230	0x3d999edc	0.07501003
231	0x3d1487f0	0.036262453
232	0xbd037978	-0.032098264
233	0xbd2a2dea	-0.041547693
234	0x3d5f9cbe	0.05459284
235	0x3d9f68a9	0.07783634
236	0x3cc8a40e	0.02449229
237	0x3dab4e17	0.08364504
238	0x3db2c41f	0.087288134
239	0x3c9883f6	0.018617611
240	0x3d95af9d	0.07308886
241	0x3cad9926	0.02119119
242	0x3d80d1b3	0.06289997
243	0x3d1f860a	0.03894619
244	0x3d758cee	0.059948854
245	0x3d0fa8f3	0.035073232
246	0x3b2c8081	0.0026321711
247	0x3c3da134	0.011574078
248	0xbb2974f7	-0.002585707
249	0x3cedbf39	0.029021846
250	0x3d17a6ae	0.037024193
251	0x3db44707	0.0880261
252	0x3d9ed4e2	0.07755448
253	0x3c95e5e8	0.018298104
254	0x3dc0f2fd	0.09421346
255	0x3c97da58	0.018536732

model.2.bias f4 [32]
0	0x3be172a2	0.0068801204
1	0xbd344ade	-0.04401671
2	0xbc80364e	-0.015650894
3	0xbd9e1b38	-0.07720035
4	0x3d919309	0.07108123
5	0xbd32e692	-0.04367692
6	0x3ce9aed8	0.028525755
7	0xbd8c43e9	-0.0684889
8	0xbc21e9f4	-0.009882439
9	0x3c83c5c6	0.016085517
10	0xbd14c7d4	-0.036323383
11	0xbdbfcaf2	-0.093648806
12	0x3d90bfd1	0.07067836
13	0xbd60e602	-0.054906853
14	0xbd64d37c	-0.05586575
15	0xbc977604	-0.018488891
16	0xbcf48e42	-0.02985299
17	0xbd520abe	-0.051279776
18	0xbd6ff7d2	-0.05858595
19	0x3c6f499d	0.014604953
20	0x3d472919	0.04862318
21	0x3db69696	0.08915441
22	0x3d11877f	0.03552961
23	0x3cd51ea5	0.026015589
24	0x3d99e00c	0.07513437
25	0xbd99efba	-0.07516427
26	0xbd03c60d	-0.032171298
27	0xbcca2d7e	-0.024679895
28	0x3d7b8677	0.061407533
29	0x3d100bd5	0.035167534
30	0xbca6efa2	-0.020377938
31	0xbc95a4eb	-0.018267116

model.4.weight f4 [32]
0	0x3f7ee883	0.99573535
1	0x3f77e3aa	0.9683176
2	0x3f7f5606	0.99740636
3	0x3f80a001	1.0048829
4	0x3f7f127b	0.99637574
5	0x3f8130fd	1.0093075
6	0x3f7cbdb6	0.98726976
7	0x3f7f00e1	0.99610716
8	0x3f80403e	1.0019605
9	0x3f807c4e	1.0037935
10	0x3f80b002	1.0053713
11	0x3f809749	1.0046169
12	0x3f7dad5a	0.9909264
13	0x3f7ec151	0.9951373
14	0x3f819e86	1.0126503
15	0x3f800a3e	1.0003126
16	0x3f80fb84	1.0076756
17	0x3f81440a	1.0098889
18	0x3f7e18d5	0.9925664
19	0x3f81a898	1.0129576
20	0x3f8103d9	1.0079299
21	0x3f7fedb9	0.9997211
22	0x3f7fc21f	0.9990558
23	0x3f8064fe	1.003082
24	0x3f8068d5	1.0031992
25	0x3f7bcab4	0.98356175
26	0x3f804aca	1.0022824
27	0x3f7f6699	0.99765927
28	0x3f81d1e4	1.0142179
29	0x3f80f66d	1.0075203
30	0x3f7fb76f	0.9988927
31	0x3f808108	1.0039377

model.4.bias f4 [32]
0	0x3d227665	0.03966369
1	0xbc34d831	-0.011037872
2	0x3d21603a	0.03939841
3	0xbc052623	-0.008126768
4	0xba87c819	-0.0010359316
5	0xbd5067bb	-0.050880175
6	0xbd189a30	-0.03725642
7	0xbcde0da2	-0.02710611
8	0x3c5d09d7	0.0134911155
9	0xbc96247e	-0.018327948
10	0xbd4dd8d4	-0.05025561
11	0x3d13f64c	0.03612356
12	0xbc05dade	-0.008169858
13	0xbc75d668	-0.015004732
14	0xbd528a1d	-0.051401246
15	0xbd5b1a66	-0.053491972
16	0x3d183018	0.03715524
17	0xbd1524bd	-0.03641199
18	0x3d2e9081	0.04261828
19	0x3ce60694	0.028079309
20	0xbc2d0900	-0.010561228
21	0xbbb32ca6	-0.005467969
22	0xbd0333c9	-0.032031808
23	0x3c94b041	0.01815045
24	0x3c83392a	0.016018469
25	0x3ac7e6b2	0.0015251248
26	0x3d35cfc8	0.04438761
27	0xbcfa3290	-0.030541688
28	0xbc50bbad	-0.012740058
29	0xbc81ab9c	-0.0158289
30	0x3cf657b9	0.030071126
31	0xbc8d171c	-0.017222933

model.5.weight f4 [64, 32, 3, 3]
0	0xbd2b8766	-0.041877173
1	0xbc85175c	-0.01624649
2	0x3d0f6d4c	0.035016343
3	0x3d18f9e9	0.037347708
4	0x3cc18b44	0.023625977
5	0x3d7d97b0	0.06191224
6	0x3d366a6a	0.044535078
7	0xbc0f5adf	-0.008749693
8	0x3cb5fdef	0.022215812
9	0x3c70bdca	0.014693687
10	0xbcf29fa1	-0.029617133
11	0x3cc7abdc	0.024373941
12	0xbc8f8ed5	-0.017524162
13	0xbc30da5d	-0.010794249
14	0xbc95f797	-0.018306537
15	0x3c1d1511	0.009587542
16	0xbc6cdd41	-0.014457048
17	0x3d5ad370	0.0534243
18	0xbb47417a	-0.0030404017
19	0x3ca610cd	0.020271683
20	0x3d39932c	0.04530637
21	0xbd0b8aa8	-0.03406778
22	0xbd522657	-0.051306095
23	0x3b673be0	0.003528349
24	0x3c1272dd	0.008938518
25	0xbca4f0e6	-0.0201344
26	0x3beb27fb	0.007176397
27	0x3d39db18	0.04537496
28	0xbcd46d3e	-0.025930997
29	0x3d63c2fd	0.055605877
30	0xbcd13c9b	-0.025541594
31	0xbd469084	-0.048477665
32	0x3c2b1116	0.010441085
33	0xba237ac2	-0.0006236249
34	0x3d1187d6	0.035529934
35	0xbd165106	-0.036698364
36	0x3cb5c3f8	0.022188172
37	0x3ac0a92f	0.0014698858
38	0xbcacd201	-0.021096231
39	0xbd305f9b	-0.043059926
40	0x3ceabd61	0.028654756
41	0x3cffe254	0.031235851
42	0xbc4ca93e	-0.012491522
43	0x3d772234	0.060335353
44	0xbd146b0b	-0.036234897
45	0x3ba3a075	0.004993493
46	0x3a4c01f8	0.0007782276
47	0x3cfe276d	0.031024659
48	0xbd2a51f1	-0.04158205
49	0x3cbb8714	0.022891559
50	0x3c8c328b	0.017113945
51	0xbd747353	-0.059680294
52	0x3cd65ce3	0.026167339
53	0xbd938c0b	-0.072044455
54	0x3d1b7254	0.03795083
55	0xbcfba339	-0.030717479
56	0xbcfa5908	-0.030560032
57	0xbd6b60d8	-0.057465404
58	0x3d5d90c2	0.05409313
59	0xbd0f69e6	-0.035013102
60	0xbc4ae35f	-0.012383311
61	0x3a837366	0.0010028898
62	0xbc0f89bc	-0.008760866
63	0xbd2cec25	-0.042217392
64	0x3cc3ab8b	0.023885509
65	0xbd483df0	-0.048887193
66	0x3c9da64b	0.019244334
67	0xbb9b12c3	-0.004732461
68	0x3c20d779	0.009816998
69	0x3ac849d1	0.0015280788
70	0x3cd87378	0.026422247
71	0x3d1f4ac7	0.038889673
72	0xbd965b50	-0.07341635
73	0xbd34a0ae	-0.04409855
74	0x3cfbeaeb	0.030751666
75	0xbd74c408	-0.059757262
76	0xbbac00fc	-0.005249141
77	0x3d3a485c	0.045479164
78	0xbd2e98f1	-0.042626325
79	0x3d2dd02e	0.042434864
80	0xbb8b5a7f	-0.0042527313
81	0x3cdf7808	0.027278915
82	0x3d80c900	0.06288338
83	0x3d0abd95	0.033872206
84	0xbd22fb5c	-0.039790496
85	0x3d9ac775	0.07557575
86	0x3cc04c21	0.023473801
87	0x3d0033e8	0.0312995
88	0x3d2760fc	0.040863976
89	0x3c56c6ce	0.013108922
90	0x3d40fdc9	0.04711703
91	0xbd26ae2e	-0.040693454
92	0x3cacdc77	0.02110122
93	0xbc8d4c30	-0.017248243
94	0xbc61eddd	-0.013789621
95	0x3d0a3d93	0.033750128
96	0x3cbd1623	0.023081845
97	0xbd64fdc2	-0.055906065
98	0x3d358c49	0.04432324
99	0x3d386e35	0.045026977
100	0xbd53b292	-0.05168397
101	0x3c06977e	0.0082148295
102	0xbb80919f	-0.0039236094
103	0xbd302060	-0.042999625
104	0x3d37fc8c	0.04491858
105	0xbbe92cbd	-0.007115929
106	0xbd8384f0	-0.0642184
107	0x3c8e3ad5	0.017362038
108	0xbb0f316e	-0.002184953
109	0xbc58971b	-0.01321962
110	0x3d1cbaf2	0.038264222
111	0xbd517bf6	-0.05114361
112	0xbd189a33	-0.03725643
113	0x3b5f8d90	0.0034111477
114	0x3c08f7c2	0.008359851
115	0xbcf3dbaa	-0.02976783
116	0x3a9501e5	0.0011368362
117	0xbc24ac5a	-0.010050857
118	0x3cb95769	0.022624688
119	0x3d6805e5	0.056646246
120	0x3cf39a4d	0.029736662
121	0x3d50bcb1	0.0509612
122	0x3d2cc7e3	0.042182814
123	0x3c1e3ee3	0.009658548
124	0x3d7d6182	0.06186057
125	0xbd6e8079	-0.05822799
126	0xbd2f4d0e	-0.042798094
127	0x3c150b7a	0.0090969745
128	0xbcf49aa3	-0.029858893
129	0x3bb632b6	0.0055602444
130	0x3b417f27	0.0029525252
131	0xbd552f68	-0.052047163
132	0x3d1f308e	0.038864665
133	0x3d092651	0.033483807
134	0x3d4b7828	0.049675137
135	0xbd6cb7b5	-0.057792384
136	0x3d3666a4	0.04453148
137	0x3cfa8014	0.03057865
138	0xbd0093b1	-0.03139085
139	0xbbe701d0	-0.0070497766
140	0x3d13f1cd	0.03611927
141	0xbc554a1a	-0.0130181555
142	0xbd0a3af6	-0.033747636
143	0x3ca593fa	0.020212162
144	0xbbec25a3	-0.007206635
145	0xbb99a396	-0.0046886904
146	0xbd56f688	-0.052481204
147	0xbbacc5a8	-0.005272586
148	0x3cc65d0d	0.024214292
149	0xbcc31650	-0.02381435
150	0xbcbcfcbe	-0.023069736
151	0xbc942228	-0.018082693
152	0xbd0ec787	-0.034858253
153	0xbd80fc8e	-0.06298171
154	0xbd1b4036	-0.037903033
155	0xbc0fa0e3	-0.008766386
156	0xbd73ae1b	-0.05949221
157	0x3cb4aaf6	0.022054177
158	0xbb7016fe	-0.0036634798
159	0x3b699f77	0.0035648027
160	0xbd89710b	-0.06711014
161	0xbd9d94b8	-0.076943815
162	0xbc0a31ed	-0.008434755
163	0x3d0c5324	0.034258977
164	0x3d409fd1	0.047027413
165	0xbd0b17c9	-0.03395823
166	0xbd321bad	-0.043483425
167	0xbd4de784	-0.05026962
168	0x3d109212	0.035295554
169	0x3d3e2e7e	0.046431057
170	0xbbbf6462	-0.005840824
171	0xbc81f092	-0.015861783
172	0x3abad002	0.0014252665
173	0x3cc845e3	0.024447387
174	0x3cf84d26	0.030310225
175	0xbd784892	-0.060616083
176	0xbd57df08	-0.052702934
177	0x3c0da2d9	0.008644783
178	0xbcbacced	-0.022802794
179	0xbd2f8ff4	-0.042861894
180	0x3c638e26	0.013888871
181	0x3d0a1ead	0.03372066
182	0xbc388ebd	-0.0112645
183	0x3d055c2c	0.032558605
184	0x3d33f2a2	0.043932565
185	0xbc26858d	-0.010163677
186	0x3bc669b3	0.006055081
187	0xbcfb449c	-0.030672364
188	0x3ca3b7d6	0.01998512
189	0x3d3352a6	0.04377999
190	0xbd549b34	-0.051905826
191	0xbc644f2e	-0.0139348935
192	0x3c5a4516	0.013322135
193	0xbd0c1ce1	-0.03420723
194	0xbc16f61e	-0.009213952
195	0x3d108f69	0.035293017
196	0x3d21519e	0.039384477
197	0xbd094bba	-0.033519484
198	0xbd4b1a05	-0.04958536
199	0x3d04b018	0.0323945
200	0x3c8d441b	0.01724439
201	0x3cc68a3e	0.02423584
202	0xbd087b64	-0.0333208
203	0x3d444b28	0.047923237
204	0xbb311a12	-0.0027023596
205	0xbc0f0a56	-0.008730492
206	0x3c8491c4	0.016182788
207	0x3c4978f2	0.012296902
208	0xbd7e145e	-0.062031142
209	0xbd10c933	-0.03534813
210	0x3c2e9410	0.010655418
211	0xbd332827	-0.043739464
212	0xbd13fa10	-0.03612715
213	0xbc5066a7	-0.012719787
214	0x3c9229ca	0.017842192
215	0x3cb5c773	0.022189831
216	0xbd59785d	-0.053093303
217	0x3ca78e5a	0.02045362
218	0xbcc2e95f	-0.02379292
219	0x3cc71dc9	0.024306195
220	0xbce03beb	-0.027372321
221	0x3d3c9c31	0.046047393
222	0x3cbd00dc	0.023071699
223	0xbc6878ba	-0.01418894
224	0xbc074de9	-0.008258321
225	0x3bf0835a	0.007339877
226	0xbd80b940	-0.06285334
227	0xbd43db27	-0.04781642
228	0xbbc6aebb	-0.00606331
229	0xbcc8f1bc	-0.02452933
230	0xbbcff657	-0.0063465047
231	0x3c9705cd	0.018435383
232	0xbc845b27	-0.016156746
233	0xbcecd6cf	-0.028911022
234	0xbce7a681	-0.028277637
235	0xbd524495	-0.051334936
236	0xbd04ac4e	-0.032390885
237	0xbcb7381e	-0.022365626
238	0x3cea6982	0.028614763
239	0x3d06ac63	0.032879245
240	0x3d2b9b70	0.041896284
241	0x3cf5ea7e	0.030019041
242	0x3cbb3695	0.022853175
243	0xba82303a	-0.0009932586
244	0x3cbb4c6e	0.022863593
245	0x3d650d27	0.055920746
246	0x3d6aa017	0.05728158
247	0x3d09123b	0.03346465
248	0x3d0a5616	0.033773504
249	0x3d00b511	0.03142268
250	0xbc4d09dd	-0.012514559
251	0x3d2d04c9	0.04224089
252	0xbd20fc3c	-0.03930305
253	0x3d3bad43	0.045819532
254	0x3b84ccd6	0.0040527387
255	0xbce2a011	-0.027664216

model.5.bias f4 [64]
0	0xbae1a941	-0.0017216579
1	0xbcf3c74a	-0.029758114
2	0xbbfb3f79	-0.0076674786
3	0x3cc7b4f2	0.024378274
4	0x3d4add29	0.04952732
5	0xbce2de73	-0.027693963
6	0x3d7c62fc	0.061617836
7	0x3d1d049b	0.03833447
8	0x3d69fa7b	0.057123642
9	0x3dab4980	0.083636284
10	0xbd2c1d49	-0.042020116
11	0x3d6bdc0d	0.057582904
12	0xbccfb8f2	-0.025356743
13	0x3cf5408c	0.029938005
14	0x3c886e4a	0.016654152
15	0xbcf12bd5	-0.029439846
16	0x3af07a3b	0.0018346974
17	0xbcfef726	-0.031123709
18	0x3de4cc32	0.1117176
19	0xba563ca0	-0.0008172486
20	0xbb2a4c29	-0.0025985336
21	0x3b66b7f8	0.0035204869
22	0x3c372aff	0.011179685
23	0xbd283ac8	-0.041071683
24	0x3d41d3bf	0.047321077
25	0x3ddfcb1c	0.10927412
26	0x39a9ae3a	0.00032364
27	0x3d8faffa	0.07015987
28	0x3d4fb451	0.050709073
29	0x3c365f39	0.011131101
30	0x3c7d3b0c	0.015455972
31	0xbcd96b52	-0.026540432
32	0xbd52c883	-0.051460754
33	0xbb827670	-0.003981404
34	0x3bb06ee4	0.005384313
35	0x3d4802c1	0.04883075
36	0x3ca16b24	0.019704409
37	0xbb8863ae	-0.0041622734
38	0xbc8bae41	-0.017050864
39	0x3d7a76a4	0.0611483
40	0xbd78c80a	-0.060737647
41	0xbc5213d1	-0.012822107
42	0xbcc6e0d0	-0.02427712
43	0x3d11e2d2	0.035616703
44	0xbc677cb2	-0.014128851
45	0x3d9aa5cf	0.07551157
46	0xbd67050c	-0.056401297
47	0xbce5be12	-0.028044734
48	0x3d341975	0.04396959
49	0xbb9f4322	-0.004860298
50	0x3d9274be	0.07151173
51	0xbd86605a	-0.06561346
52	0x39a1f254	0.00030888862
53	0x3d1bb06d	0.03801005
54	0x3d04232d	0.03226011
55	0xbc8f6434	-0.017503835
56	0xbc6d657a	-0.014489526
57	0xbcf28595	-0.029604713
58	0x3d556cf4	0.05210586
59	0xbca3d113	-0.019997155
60	0x3c9e8fbd	0.01935565
61	0x3bace2af	0.005276046
62	0x3ca1c8ea	0.019749124
63	0xbc11fe61	-0.008910746

model.7.weight f4 [64]
0	0x3f805f08	1.0029001
1	0x3f7d6358	0.9897971
2	0x3f80a993	1.005175
3	0x3f806934	1.0032105
4	0x3f814e0a	1.0101941
5	0x3f806c2a	1.0033009
6	0x3f812044	1.0087972
7	0x3f7def88	0.9919362
8	0x3f8124bf	1.0089339
9	0x3f7e244e	0.99274147
10	0x3f81093d	1.0080944
11	0x3f813e3e	1.009712
12	0x3f80abf1	1.0052472
13	0x3f7dadde	0.99093425
14	0x3f8135cd	1.0094544
15	0x3f814b7a	1.0101159
16	0x3f7ea581	0.9947129
17	0x3f80dd9a	1.0067627
18	0x3f7f1186	0.99636114
19	0x3f7fda5e	0.99942577
20	0x3f7fd90a	0.9994055
21	0x3f7f9052	0.9982959
22	0x3f82880b	1.0197767
23	0x3f8064fc	1.0030818
24	0x3f813a1c	1.0095859
25	0x3f80086a	1.0002568
26	0x3f8297f2	1.020262
27	0x3f81267a	1.0089867
28	0x3f80f349	1.0074245
29	0x3f80d5e6	1.0065277
30	0x3f814e69	1.0102054
31	0x3f819cbb	1.0125955
32	0x3f81b158	1.0132246
33	0x3f7f4a2a	0.9972254
34	0x3f7c41a6	0.9853767
35	0x3f8094b2	1.0045378
36	0x3f806db6	1.0033481
37	0x3f8017de	1.0007284
38	0x3f808939	1.0041877
39	0x3f7f2377	0.9966349
40	0x3f807f24	1.00388
41	0x3f81773b	1.0114511
42	0x3f7ed270	0.9953985
43	0x3f7ec1c5	0.9951442
44	0x3f7c8900	0.98646545
45	0x3f823e88	1.0175333
46	0x3f7feeeb	0.99973935
47	0x3f800bbd	1.0003582
48	0x3f80ba28	1.005681
49	0x3f809a63	1.0047115
50	0x3f808536	1.0040653
51	0x3f7f1baf	0.99651617
52	0x3f7dcfc1	0.9914513
53	0x3f821245	1.0161825
54	0x3f813026	1.0092819
55	0x3f80b7a2	1.005604
56	0x3f7fa54a	0.99861586
57	0x3f8140de	1.0097921
58	0x3f809cbf	1.0047835
59	0x3f8095f4	1.0045762
60	0x3f803dcf	1.0018862
61	0x3f80c07d	1.0058743
62	0x3f807d66	1.0038269
63	0x3f8111e5	1.0083586

model.7.bias f4 [64]
0	0xbc3bb052	-0.011455612
1	0xbba3c2bc	-0.0049975794
2	0x3cb05f1d	0.021529729
3	0x3d0bd123	0.034134995
4	0x3bb95ebc	0.005657045
5	0x3c005967	0.007833815
6	0xba4109d6	-0.00073638314
7	0xbb2374c9	-0.0024941436
8	0x3ca9cb9d	0.020726973
9	0x3cabbd08	0.02096416
10	0xbc585eac	-0.013206165
11	0xbb87bb14	-0.0041421745
12	0xbc83ac9e	-0.016073521
13	0x3b0b0f05	0.002121867
14	0x3c683921	0.014173777
15	0xbc4734ae	-0.012158556
16	0xbc64fd99	-0.013976478
17	0xbc69916f	-0.0142558655
18	0x3d0a3546	0.03374221
19	0xbcb0a8cb	-0.021564862
20	0x3c5ca793	0.013467687
21	0x3cbf08f0	0.023319691
22	0x3be9c7ac	0.0071343984
23	0xbce56462	-0.028001968
24	0x3c7c43f6	0.0153970625
25	0x3cf8b50d	0.03035977
26	0x3c01bf71	0.007919178
27	0x3bffea58	0.0078099184
28	0x3c44811a	0.011993671
29	0xbc7b959c	-0.015355494
30	0x3bd31972	0.0064422423
31	0xbc42a81f	-0.0118809035
32	0xbd19922c	-0.037492916
33	0x3c93a1b0	0.018021435
34	0xbc5e902d	-0.013584179
35	0xbba29111	-0.004961141
36	0xbc986a8f	-0.018605499
37	0x3cbc103b	0.022956958
38	0xbbda054e	-0.0066534644
39	0x3c2bd031	0.010486648
40	0xbca5c477	-0.020235283
41	0xbb96ef91	-0.0046061953
42	0xbc772b34	-0.015085984
43	0xbc62c72d	-0.0138414325
44	0xbc2df175	-0.01061665
45	0x3b7992eb	0.0038081955
46	0xbbc4a500	-0.006001115
47	0xbcb3297e	-0.021870371
48	0x3ad57b4b	0.0016287355
49	0xbd1db486	-0.03850224
50	0x3b934ef8	0.004495498
51	0xbc3b12dc	-0.011418071
52	0xbb388b94	-0.0028159367
53	0x3c4d0e1f	0.012515574
54	0x3c8b0d14	0.01697401
55	0xbc870e76	-0.016486388
56	0xbccb7ff7	-0.024841292
57	0x3be37331	0.006941222
58	0xbcdcdc62	-0.026960555
59	0xbd2868ef	-0.041115697
60	0xbc64c096	-0.013961932
61	0xbbeb8aae	-0.0071881628
62	0xbc90242b	-0.017595371
63	0xbb7927cb	-0.0038018103

model.8.weight f4 [128, 64, 3, 3]
0	0xbd1bea19	-0.03806505
1	0xb9df2c2d	-0.00042566788
2	0xbd0938c8	-0.033501416
3	0xbd3df251	-0.04637367
4	0xbc9d805e	-0.01922625
5	0x3c33af23	0.010967049
6	0x3b9ad4f5	0.0047250935
7	0xbb1cab07	-0.0023905651
8	0xbc50aab3	-0.01273601
9	0x3cc26c2b	0.02373322
10	0xbd08d696	-0.03340777
11	0x3b8d29a4	0.0043079425
12	0xba6aff80	-0.0008964464
13	0xbd522711	-0.051306788
14	0x3d05cf1a	0.03266821
15	0x3c5a4e02	0.013324263
16	0xbcf97b0d	-0.030454183
17	0x3c48e539	0.012261682
18	0xbb0e3bdc	-0.002170316
19	0x3c480f5f	0.012210696
20	0xbb43560d	-0.002980593
21	0xbcd46916	-0.025929015
22	0x3b839026	0.0040149866
23	0xbcaec558	-0.021334335
24	0x3aed90de	0.0018124839
25	0xbc154eba	-0.009113008
26	0xbd801803	-0.0625458
27	0x3cdfd5d7	0.027323646
28	0xbcaed90b	-0.021343729
29	0x3cb4a8a1	0.022053065
30	0xbbe068c0	-0.0068484247
31	0x3c83727d	0.016045803
32	0xbb41b94c	-0.0029559908
33	0x3cc23535	0.023707012
34	0x3c516012	0.012779253
35	0x3cb61a2b	0.022229275
36	0xbcd75714	-0.02628664
37	0x3cff9969	0.031201081
38	0x3b90bc47	0.0044169757
39	0xbc943dfb	-0.01809596
40	0x3d10e98b	0.035378974
41	0xbbda5679	-0.0066631404
42	0xbbb2c73a	-0.0054558786
43	0x3c6904a8	0.014222302
44	0xbd4733c7	-0.048633363
45	0xbcb05b85	-0.021528015
46	0x3c5dfc32	0.013548898
47	0x3d1347fe	0.03595733
48	0x3ce50e10	0.027960807
49	0xbcb26c4c	-0.021780156
50	0xbd1181b8	-0.0355241
51	0x3ce6d645	0.028178344
52	0x3aff3514	0.0019470775
53	0xbd188632	-0.037237354
54	0xbcc80023	-0.024414128
55	0x3d19513e	0.037430994
56	0xbce2836a	-0.027650554
57	0x3c5b5500	0.013386965
58	0x3c840dd5	0.016119877
59	0xbbcc34e7	-0.0062318924
60	0x3d1e3449	0.03862408
61	0x3ceb2058	0.028701946
62	0xbd1d4742	-0.038398035
63	0xbccda4df	-0.02510303
64	0x3cce5a57	0.025189562
65	0x3d16865c	0.03674923
66	0xbd179ef0	-0.03701681
67	0xbcab85f9	-0.020937907
68	0x3c9c3f99	0.019073294
69	0xbcead541	-0.02866614
70	0x3ca58c54	0.020208515
71	0xbaca7bd4	-0.0015448281
72	0xbc76fa26	-0.0150742885
73	0x3d02d3bd	0.03194021
74	0xbcabd498	-0.020975396
75	0xbc386e2f	-0.011256739
76	0x3c0cf510	0.008603349
77	0xbc248f86	-0.010043984
78	0x3b95d18b	0.0045720986
79	0xbcc6e915	-0.024281064
80	0xbca358b0	-0.01993975
81	0xbc06c2e5	-0.008225177
82	0xbcb65ced	-0.022261107
83	0x3c1607cf	0.009157135
84	0x3c5c87eb	0.01346014
85	0xbc7a4649	-0.015275546
86	0x3cb1f614	0.021723785
87	0xbd0319ba	-0.032006957
88	0xbcf9d654	-0.030497707
89	0xbcb234af	-0.021753637
90	0xbd2f9c70	-0.0428738
91	0xbd1e635c	-0.038668975
92	0xbce96452	-0.02849022
93	0xbadbb1e7	-0.0016761393
94	0xbc739ad3	-0.014868456
95	0xbc9d4412	-0.019197498
96	0xbb48d11f	-0.0030642224
97	0x3cdf7895	0.027279178
98	0xbcfb8b87	-0.03070618
99	0xbcee396e	-0.029080119
100	0xbd033f5f	-0.032042857
101	0x3adccafa	0.001684516
102	0xbc1208b6	-0.00891321
103	0xbcfd6ebf	-0.030936597
104	0x3bdd3092	0.006750175
105	0x3d888e56	0.066677734
106	0xbcaad4fb	-0.02085351
107	0x3c96f620	0.018427908
108	0x3c5cfb00	0.013487577
109	0xb9a708ec	-0.0003185937
110	0x3c0dbcd9	0.008650982
111	0x3ccca3ea	0.024980504
112	0xbc6ac10a	-0.014328251
113	0xbcd28024	-0.025695868
114	0xbc2e40d5	-0.010635574
115	0xbc7aeace	-0.015314771
116	0xbbae3fa5	-0.0053176456
117	0xbb8a4b12	-0.004220375
118	0x3d074a84	0.033030048
119	0xbcb073e1	-0.02153963
120	0x3bc4d085	0.006006303
121	0xbcb2994b	-0.021801611
122	0x3b575e00	0.0032862425
123	0x3d3cb8a2	0.046074517
124	0x3cd80eec	0.026374303
125	0x3b84ec36	0.004056479
126	0xbd2c61d6	-0.04208549
127	0xbced2c0c	-0.028951667
128	0x3c658628	0.014009036
129	0xbc6378ec	-0.0138838105
130	0x3bd8a874	0.006611878
131	0x39cbf636	0.0003890262
132	0xbd32e68f	-0.04367691
133	0x3c98fc54	0.018675007
134	0xba58d1e2	-0.0008271021
135	0x3b1c5a5e	0.0023857574
136	0x3b7cc660	0.003857039
137	0xbc1b790f	-0.009489312
138	0x3d1164af	0.03549641
139	0xbc824996	-0.01590423
140	0x3ca1bf3a	0.019744504
141	0x3c782344	0.015145127
142	0xbbab92d0	-0.0052360073
143	0xbca8564e	-0.020548966
144	0xbb54b024	-0.003245362
145	0x3cf52d6c	0.029928885
146	0x3c734d3b	0.014849956
147	0xbccc9102	-0.024971489
148	0x3b7ecc23	0.0038879
149	0xbc91da03	-0.017804151
150	0xbcb986bf	-0.02264726
151	0x3be417e2	0.006960855
152	0x3c42d52a	0.011891643
153	0x3d014562	0.03156031
154	0xbc8d1776	-0.017223101
155	0xbacbf792	-0.0015561453
156	0x3cfdcf12	0.030982528
157	0xbc4d8131	-0.012543009
158	0xbc8fbaee	-0.01754519
159	0xbbec08f2	-0.007203215
160	0x3c9fbbbf	0.019498704
161	0x3d29c3ce	0.0414465
162	0xbbc1d9d2	-0.005915859
163	0xbc6ad114	-0.014332075
164	0x3cdebfca	0.027191062
165	0x3c9bc3aa	0.019014198
166	0xbd363499	-0.044483755
167	0x3d39ee56	0.04539331
168	0x3b95ea6e	0.0045750653
169	0x3d470324	0.04858698
170	0xbc91482f	-0.017734615
171	0xbd1f5860	-0.03890264
172	0xbb7f79ab	-0.0038982432
173	0x3ca03e51	0.019560965
174	0x3c71fc36	0.014769604
175	0x3d35dd1b	0.044400316
176	0xbb53ef2b	-0.00323386
177	0xbc9a777a	-0.018855799
178	0xbd09a680	-0.033606052
179	0xbbcee026	-0.0063133417
180	0x3c922357	0.017839117
181	0x3c15d2fa	0.009144539
182	0x3c7ce2b0	0.015434906
183	0x3cc43182	0.023949388
184	0xbc800640	-0.01562798
185	0x38ff5b6a	0.00012176375
186	0x3cdf26b2	0.027240131
187	0x3b444ffe	0.0029954906
188	0x3bd75ed9	0.006572586
189	0x3d0859b4	0.033288673
190	0x3d1a74c0	0.037708998
191	0x3bbe35a0	0.0058047324
192	0x3d718577	0.058965173
193	0x3c9a13b5	0.018808225
194	0xbb2ca387	-0.0026342587
195	0x3c481243	0.012211385
196	0xbcaab2d5	-0.020837227
197	0x3ca9bf4e	0.020721104
198	0x3d3789e7	0.04480925
199	0xbcd8d1b2	-0.026467178
200	0xb8d282a0	-0.00010037911
201	0x3c51a6a7	0.012796081
202	0x3ce2fdcd	0.027708912
203	0x3d3e92bc	0.046526656
204	0x3d26c6c3	0.040716898
205	0x3c89a8a5	0.016804049
206	0xbc9874e1	-0.01861042
207	0x3bc2c668	0.005944062
208	0x3cc5c1b3	0.024140215
209	0xbd387581	-0.045033935
210	0x3c2f0610	0.010682598
211	0xbd13286a	-0.035927214
212	0xbd22b94d	-0.039727498
213	0xbc170d57	-0.009219489
214	0x3ca2f81a	0.019893695
215	0xbce2dd0c	-0.027693294
216	0x3cde5104	0.02713824
217	0x3d301474	0.042988256
218	0xbba9d7b6	-0.0051831855
219	0x3cd9f678	0.026606783
220	0x3bad00b3	0.0052796244
221	0xbc9d096e	-0.019169535
222	0xb97da7c2	-0.00024190455
223	0xbcd57b37	-0.02605973
224	0xbaddb700	-0.00169155
225	0x3c0bf157	0.008541427
226	0xbbb9a8f5	-0.005665893
227	0x3c20b95b	0.009809817
228	0xbc848886	-0.01617838
229	0x3c9bd905	0.019024381
230	0x3c383a4a	0.011244366
231	0xbcfc8a31	-0.030827614
232	0x3cc612bd	0.024178857
233	0xbc95b6b8	-0.018275604
234	0xbd028166	-0.031861685
235	0x3c05c2d0	0.008164123
236	0x3ca8e27d	0.02061581
237	0xbc68d102	-0.014209988
238	0x3c06c43b	0.008225496
239	0xbce0f696	-0.027461331
240	0x3ca7baae	0.020474758
241	0xbd988709	-0.07447631
242	0xbce28423	-0.027650898
243	0xbc1ddce5	-0.009635185
244	0xbcf65242	-0.03006852
245	0x3c8007ff	0.015628813
246	0x3d101085	0.035172004
247	0xbb23d991	-0.0025001506
248	0xbc139b40	-0.009009182
249	0xbd4141c3	-0.047181856
250	0xbbe51def	-0.0069920938
251	0x3c816e7d	0.015799755
252	0x3c815e02	0.015791897
253	0xbc48476e	-0.012224061
254	0xbc146b12	-0.009058731
255	0x3b9edf4a	0.0048483955

model.8.bias f4 [128]
0	0xbcd9e756	-0.026599567
1	0x3c45ae28	0.012065448
2	0xbcc59445	-0.024118552
3	0xbd19a192	-0.0375076
4	0x3abb73eb	0.0014301514
5	0x3c762f08	0.015025862
6	0x3c63a5ae	0.013894482
7	0xbc9b5850	-0.01896301
8	0x3d44816e	0.047974996
9	0x3d44b681	0.04802561
10	0x3c9c2618	0.019061133
11	0x3cbfa45b	0.0233938
12	0x3c2701bb	0.010193284
13	0xbd03b6c8	-0.032156736
14	0xbc7ff849	-0.015623161
15	0x3d0bdf33	0.034148406
16	0xbc805559	-0.015665697
17	0xbcd1e6a8	-0.02562268
18	0x3cb7908c	0.022407793
19	0x3cff5ae2	0.031171266
20	0xbacef53e	-0.0015789641
21	0x3d11b164	0.035569564
22	0xbd1d6435	-0.038425643
23	0xbc477d45	-0.012175863
24	0xbbd02aed	-0.0063527734
25	0xbd4c14c2	-0.049824484
26	0x3ce50123	0.027954644
27	0x3c76b102	0.01505685
28	0xbc04c2dd	-0.0081031
29	0x3a615295	0.00085953745
30	0x3d1ac33a	0.03778384
31	0x3d091163	0.033463847
32	0xbc9571b4	-0.018242694
33	0x3c306cc9	0.010768124
34	0xbd7224f7	-0.059117284
35	0x3d499567	0.049214747
36	0x3cfc32df	0.030785976
37	0xbcf27e8c	-0.029601358
38	0x3d54f6a0	0.051993012
39	0xbc793c62	-0.01521215
40	0xb98d3f9e	-0.00026941014
41	0xba1333c2	-0.00056153175
42	0x3cfe734d	0.03106084
43	0x3d39c594	0.04535444
44	0x3b1c1947	0.0023818777
45	0xbcbe81d2	-0.023255263
46	0x3c5fc95a	0.013658846
47	0xbcd179ba	-0.025570739
48	0x3b802375	0.003910477
49	0xbd6693e8	-0.0562934
50	0xbc7984fc	-0.01522946
51	0xbc80ebed	-0.015737498
52	0xbd01d4d1	-0.0316971
53	0x3ca67c8a	0.020323057
54	0xbd1be7a9	-0.038062725
55	0x3d620edc	0.055189952
56	0x3cb3508f	0.021889
57	0x3c990bfa	0.018682469
58	0x3cbc3d99	0.02297859
59	0xbbe8763a	-0.007094172
60	0x3cb3f894	0.021969117
61	0xbada0b51	-0.0016635453
62	0xbccc2d1c	-0.024923854
63	0x3c8a7630	0.01690206
64	0x3ce8908e	0.028389242
65	0x3ae0abb7	0.0017141019
66	0xbd5855d7	-0.05281624
67	0x3d03e7f8	0.032203645
68	0x3d18e1b6	0.03732463
69	0x39fddc1c	0.00048419915
70	0x3b24ec6b	0.002516533
71	0xbc49d129	-0.012317934
72	0x3d278b60	0.040904403
73	0x3b539d67	0.0032289864
74	0x3d5db190	0.054124415
75	0xbd3b28ca	-0.045693196
76	0xbd390347	-0.04516914
77	0xbce84062	-0.028351013
78	0xbcec7379	-0.028863655
79	0x3ccd1254	0.025033154
80	0x3c1fa8e0	0.009744853
81	0x3c682e07	0.01417113
82	0xbc374f44	-0.011188332
83	0xbce139a7	-0.027493311
84	0xbcb4ee31	-0.022086235
85	0xbc759ca8	-0.014990963
86	0xbc5c5931	-0.013448999
87	0xbc05e9c9	-0.0081734145
88	0x3c54e427	0.012993849
89	0x3d099c7c	0.0335965
90	0xbb505d70	-0.0031793974
91	0xbd36f93c	-0.044671282
92	0x3c9f07e1	0.019412937
93	0x3cdd11c8	0.026986018
94	0xba1d2b4d	-0.0005995527
95	0x3be8a738	0.007100012
96	0xbb90bd2a	-0.0044170814
97	0x3bc432ab	0.0059874854
98	0x3cbe7060	0.023246944
99	0x3d098c34	0.033580974
100	0xbc8b80c1	-0.017029168
101	0x3a8b88ef	0.0010645668
102	0xbc0a9846	-0.008459156
103	0xbce827d3	-0.028339302
104	0xbcfcf740	-0.030879617
105	0x3d17c8fe	0.037056915
106	0xbc0d3443	-0.008618417
107	0x3b838c2d	0.004014513
108	0x3d0b35b4	0.033986762
109	0x3d7e5fd2	0.0621031
110	0xbba1cc4f	-0.0049376856
111	0xbb88daa3	-0.004176454
112	0xbb2d4cff	-0.0026443598
113	0xbc8855be	-0.016642448
114	0x3cc9c7d9	0.024631428
115	0x3d1808a7	0.037117627
116	0x3cd4f937	0.025997741
117	0x3c44bfa3	0.01200858
118	0x3cd09ffb	0.02546691
119	0xbc00c918	-0.0078604445
120	0xbcbddb0a	-0.023175735
121	0xbcf83722	-0.030299727
122	0xbd1d7c0d	-0.038448382
123	0xbcc3bfff	-0.023895262
124	0xbace82f7	-0.0015755583
125	0x3c56451b	0.013077999
126	0x3ca162ff	0.019700525
127	0x3c4564d1	0.012047962

model.10.weight f4 [128]
0	0x3f8604e1	1.0470239
1	0x3f8428db	1.0324968
2	0x3f813387	1.009385
3	0x3f8197ca	1.0124447
4	0x3f804b34	1.002295
5	0x3f826825	1.0188032
6	0x3f83ebed	1.0306374
7	0x3f80c364	1.0059628
8	0x3f82acf5	1.0209032
9	0x3f8459e8	1.0339937
10	0x3f823db5	1.0175081
11	0x3f81db02	1.0144961
12	0x3f810e0e	1.0082414
13	0x3f8059f3	1.002745
14	0x3f851678	1.0397482
15	0x3f824cab	1.0179647
16	0x3f80a5d7	1.005061
17	0x3f813a1c	1.0095859
18	0x3f838aac	1.0276694
19	0x3f82fa64	1.0232663
20	0x3f834d9d	1.0258061
21	0x3f8660ab	1.0498251
22	0x3f81a12a	1.0127308
23	0x3f8117b2	1.0085356
24	0x3f80b034	1.0053773
25	0x3f809c5c	1.0047717
26	0x3f823b5e	1.0174367
27	0x3f82f60f	1.0231341
28	0x3f858da2	1.0433848
29	0x3f852540	1.0401993
30	0x3f857e0d	1.0429093
31	0x3f82aa76	1.020827
32	0x3f8579ff	1.0427855
33	0x3f814adb	1.0100969
34	0x3f819d09	1.0126048
35	0x3f82aec7	1.0209588
36	0x3f819cf1	1.012602
37	0x3f80a309	1.0049754
38	0x3f81b9eb	1.0134863
39	0x3f8157a8	1.0104876
40	0x3f83952d	1.02799
41	0x3f829b50	1.0203648
42	0x3f8079be	1.0037153
43	0x3f82ee63	1.0229
44	0x3f82264c	1.0167937
45	0x3f8368a0	1.0266304
46	0x3f8127ff	1.0090331
47	0x3f81298a	1.0090802
48	0x3f81ce87	1.0141152
49	0x3f826f80	1.0190277
50	0x3f81db35	1.0145022
51	0x3f851dd6	1.039973
52	0x3f80d0b7	1.0063695
53	0x3f8297dc	1.0202594
54	0x3f81c231	1.0137388
55	0x3f819a53	1.0125221
56	0x3f83531c	1.0259738
57	0x3f82c39d	1.0215946
58	0x3f8329a7	1.0247086
59	0x3f80bc26	1.0057418
60	0x3f80e4ff	1.0069884
61	0x3f8300ea	1.0234654
62	0x3f8244bd	1.0177227
63	0x3f8209ad	1.0159203
64	0x3f83a298	1.0283995
65	0x3f83de75	1.0302263
66	0x3f816e65	1.0111815
67	0x3f81b5f9	1.0133659
68	0x3f818caa	1.0121052
69	0x3f812be6	1.0091522
70	0x3f825709	1.0182811
71	0x3f863425	1.0484663
72	0x3f8243ca	1.0176938
73	0x3f8296ea	1.0202305
74	0x3f821bdd	1.0164753
75	0x3f817d64	1.0116391
76	0x3f8153d8	1.0103712
77	0x3f80bfc1	1.0058519
78	0x3f802b95	1.00133
79	0x3f814a34	1.010077
80	0x3f81a716	1.0129116
81	0x3f82e088	1.0224771
82	0x3f822c5a	1.0169785
83	0x3f815127	1.0102891
84	0x3f840d9e	1.0316656
85	0x3f8140aa	1.0097859
86	0x3f805df2	1.002867
87	0x3f828421	1.0196573
88	0x3f84901b	1.0356477
89	0x3f84d26d	1.0376717
90	0x3f84c5ad	1.0372826
91	0x3f81b168	1.0132265
92	0x3f805023	1.0024456
93	0x3f830b0a	1.0237744
94	0x3f81566b	1.0104498
95	0x3f842f0f	1.0326861
96	0x3f824447	1.0177087
97	0x3f825aaf	1.0183924
98	0x3f83ba1d	1.0291172
99	0x3f813139	1.0093147
100	0x3f808868	1.0041628
101	0x3f82e47b	1.0225977
102	0x3f827e1a	1.0194733
103	0x3f81764d	1.0114228
104	0x3f80eb40	1.0071793
105	0x3f823d48	1.0174952
106	0x3f82df41	1.0224382
107	0x3f82e7bf	1.0226973
108	0x3f82ccbf	1.0218734
109	0x3f840061	1.0312616
110	0x3f8298c3	1.0202869
111	0x3f830c04	1.0238042
112	0x3f81b2c1	1.0132676
113	0x3f80d9c1	1.0066453
114	0x3f8393e4	1.0279508
115	0x3f823868	1.0173464
116	0x3f827f75	1.0195147
117	0x3f80c64a	1.0060513
118	0x3f80e448	1.0069666
119	0x3f808c45	1.0042807
120	0x3f816bc7	1.0111016
121	0x3f813e90	1.0097218
122	0x3f82edaa	1.0228779
123	0x3f828c2a	1.0199025
124	0x3f8145e1	1.009945
125	0x3f821cef	1.016508
126	0x3f829c21	1.0203897
127	0x3f838839	1.0275947

model.10.bias f4 [128]
0	0x00000000	0.0
1	0x00000000	0.0
2	0x00000000	0.0
3	0x00000000	0.0
4	0x00000000	0.0
5	0x00000000	0.0
6	0x00000000	0.0
7	0x00000000	0.0
8	0x00000000	0.0
9	0x00000000	0.0
10	0x00000000	0.0
11	0x00000000	0.0
12	0x00000000	0.0
13	0x00000000	0.0
14	0x00000000	0.0
15	0x00000000	0.0
16	0x00000000	0.0
17	0x00000000	0.0
18	0x00000000	0.0
19	0x00000000	0.0
20	0x00000000	0.0
21	0x00000000	0.0
22	0x00000000	0.0
23	0x00000000	0.0
24	0x00000000	0.0
25	0x00000000	0.0
26	0x00000000	0.0
27	0x00000000	0.0
28	0x00000000	0.0
29	0x00000000	0.0
30	0x00000000	0.0
31	0x00000000	0.0
32	0x00000000	0.0
33	0x00000000	0.0
34	0x00000000	0.0
35	0x00000000	0.0
36	0x00000000	0.0
37	0x00000000	0.0
38	0x00000000	0.0
39	0x00000000	0.0
40	0x00000000	0.0
41	0x00000000	0.0
42	0x00000000	0.0
43	0x00000000	0.0
44	0x00000000	0.0
45	0x00000000	0.0
46	0x00000000	0.0
47	0x00000000	0.0
48	0x00000000	0.0
49	0x00000000	0.0
50	0x00000000	0.0
51	0x00000000	0.0
52	0x00000000	0.0
53	0x00000000	0.0
54	0x00000000	0.0
55	0x00000000	0.0
56	0x00000000	0.0
57	0x00000000	0.0
58	0x00000000	0.0
59	0x00000000	0.0
60	0x00000000	0.0
61	0x00000000	0.0
62	0x00000000	0.0
63	0x00000000	0.0
64	0x00000000	0.0
65	0x00000000	0.0
66	0x00000000	0.0
67	0x00000000	0.0
68	0x00000000	0.0
69	0x00000000	0.0
70	0x00000000	0.0
71	0x00000000	0.0
72	0x00000000	0.0
73	0x00000000	0.0
74	0x00000000	0.0
75	0x00000000	0.0
76	0x00000000	0.0
77	0x00000000	0.0
78	0x00000000	0.0
79	0x00000000	0.0
80	0x00000000	0.0
81	0x00000000	0.0
82	0x00000000	0.0
83	0x00000000	0.0
84	0x00000000	0.0
85	0x00000000	0.0
86	0x00000000	0.0
87	0x00000000	0.0
88	0x00000000	0.0
89	0x00000000	0.0
90	0x00000000	0.0
91	0x00000000	0.0
92	0x00000000	0.0
93	0x00000000	0.0
94	0x00000000	0.0
95	0x00000000	0.0
96	0x00000000	0.0
97	0x00000000	0.0
98	0x00000000	0.0
99	0x00000000	0.0
100	0x00000000	0.0
101	0x00000000	0.0
102	0x00000000	0.0
103	0x00000000	0.0
104	0x00000000	0.0
105	0x00000000	0.0
106	0x00000000	0.0
107	0x00000000	0.0
108	0x00000000	0.0
109	0x00000000	0.0
110	0x00000000	0.0
111	0x00000000	0.0
112	0x00000000	0.0
113	0x00000000	0.0
114	0x00000000	0.0
115	0x00000000	0.0
116	0x00000000	0.0
117	0x00000000	0.0
118	0x00000000	0.0
119	0x00000000	0.0
120	0x00000000	0.0
121	0x00000000	0.0
122	0x00000000	0.0
123	0x00000000	0.0
124	0x00000000	0.0
125	0x00000000	0.0
126	0x00000000	0.0
127	0x00000000	0.0
