Lab4/models/gan_models/vbn_wgan_1000e_250b_dis.pth (torch, 398261 bytes, 15 tensors)

model.0.weight f4 [16, 3, 3, 3]
0	0x3e06fa51	0.13181426
1	0x3e7272be	0.23676583
2	0x3ddf2eaa	0.10897572
3	0x3de0bc90	0.109734654
4	0x3e691e5f	0.22765492
5	0x3e749f10	0.23888803
6	0xbd662657	-0.056188907
7	0x3d5e1655	0.054220516
8	0x3e2b3fab	0.16723506
9	0x3b710f3a	0.0036782757
10	0x3e1ec037	0.15503012
11	0x3e273777	0.16329752
12	0x3cce6661	0.025195302
13	0x3e2f05bf	0.17092036
14	0x3e2e82f5	0.17042144
15	0xbbe18db7	-0.006883349
16	0x3d81b1be	0.0633273
17	0x3de3a409	0.111152716
18	0x3e249a75	0.16074546
19	0x3e283f20	0.1643033
20	0x3d1b75e1	0.037954215
21	0x3e1a7f11	0.15087534
22	0x3e967165	0.29383388
23	0x3e39caa6	0.1814371
24	0xbdce60ea	-0.10077079
25	0x3de94847	0.11390739
26	0x3d98ceaf	0.07461297
27	0x3c9e21e1	0.019303264
28	0xbcabf26b	-0.020989617
29	0xbdc71320	-0.09720445
30	0xbdc7e9c7	-0.09761386
31	0xbe01b175	-0.1266535
32	0x3ca4f424	0.020135947
33	0xbd9ace4a	-0.07558878
34	0xbdf7232d	-0.12067256
35	0x3c8c78ca	0.01714744
36	0xbca39fab	-0.019973597
37	0x3d62da91	0.055384222
38	0x3e286802	0.16445926
39	0x3d3efe97	0.046629515
40	0x3e1859c7	0.14877997
41	0x3db48206	0.088138625
42	0x3dd694c2	0.10477592
43	0x3dcf9783	0.101363204
44	0xbbe2f25b	-0.0069258637
45	0x3cbd627b	0.023118248
46	0xbd4f59ec	-0.050622866
47	0xbdea15f1	-0.11429966
48	0x3d6f1f24	0.058379307
49	0x3bdc395a	0.006720704
50	0xbdeba3d5	-0.11505858
51	0xbdacb7d3	-0.08433499
52	0x3d6db2cd	0.058031846
53	0xbd1d1af6	-0.03835579
54	0xbdac5a69	-0.08415682
55	0xbe1a2892	-0.15054539
56	0xbd01071b	-0.031500917
57	0xbe29e043	-0.16589455
58	0xbe4e1675	-0.20125754
59	0xbdb26b1f	-0.08711838
60	0x3d5403af	0.051761325
61	0x3d7138ed	0.05889218
62	0x3c7c8bea	0.0154142175
63	0xbb9eb06f	-0.00484281
64	0xbe28db3f	-0.16489886
65	0x3c1a7331	0.009426878
66	0xbdef69ca	-0.116900995
67	0xbdff7508	-0.12473494
68	0xbde31448	-0.11087853
69	0x3dc54850	0.09632933
70	0x3dadae39	0.08480496
71	0x3d3e585c	0.046470985
72	0x3c49cd8f	0.012317075
73	0xbe3662b3	-0.17811088
74	0xbbe943c1	-0.0071186726
75	0xbe07d12e	-0.1326339
76	0xbe290495	-0.16505654
77	0xbdca42b8	-0.09876007
78	0x3cbd277c	0.023090117
79	0x3d7d721b	0.061876398
80	0x3d3bc10c	0.0458384
81	0x3cdb56b0	0.026774734
82	0x3bdcd169	0.006738831
83	0x3c6c920a	0.014439115
84	0xbda56e8b	-0.08077725
85	0xbd631306	-0.055438064
86	0xbb9194a2	-0.0044427672
87	0xbce4bfcb	-0.027923485
88	0xbbf00c0c	-0.007325655
89	0xbda88ee3	-0.082303785
90	0x3d96ad68	0.07357293
91	0xbd57fa09	-0.052728686
92	0xbc8ff512	-0.017572913
93	0xbe0fe022	-0.14050344
94	0xbe0680d9	-0.13135089
95	0xbddb5bf2	-0.107108966
96	0xbdb915ac	-0.09037337
97	0xbddc3ed7	-0.10754173
98	0xbde90a4b	-0.11378916
99	0xbcada81f	-0.02119833
100	0x3dc8f60c	0.09812555
101	0xbddaf189	-0.106906004
102	0xbde4ecf8	-0.11178011
103	0xbc8c0997	-0.017094417
104	0xbce22955	-0.0276076
105	0xbdf39aab	-0.11894735
106	0xbd2cbf21	-0.042174462
107	0xbe05b5fa	-0.130577
108	0xbd55b390	-0.052173197
109	0xbd8cc84b	-0.0687414
110	0xbd87f163	-0.06637838
111	0x3dd9f249	0.10641915
112	0x3d2e57c0	0.042564154
113	0xbd836b4a	-0.06416948
114	0x3e09f210	0.13471246
115	0x3e0e98e0	0.13925505
116	0xbd15076b	-0.036384027
117	0xbd3641cc	-0.044496343
118	0xbd39b67c	-0.045340046
119	0xbd543125	-0.05180468
120	0x3dbd0963	0.09230306
121	0x3d71256d	0.058873583
122	0xbdd6246d	-0.104561664
123	0x3e3b25d1	0.18276145
124	0x3e294cdf	0.1653323
125	0xbd83f7d8	-0.06443757
126	0xbd11906c	-0.035538122
127	0xbdb7dac0	-0.0897727
128	0xbe24391e	-0.16037413
129	0x3d2ea4dd	0.042637695
130	0x3d43c93d	0.047799338
131	0xbe1e98dc	-0.15487999
132	0x3d2adddb	0.041715484
133	0x3dc1ddc6	0.09466128
134	0xbd818fc3	-0.063262485
135	0xbc46a0d8	-0.012123309
136	0x3d59c972	0.05317063
137	0x3e174a8c	0.14774531
138	0x3dbf00ba	0.093263105
139	0xbd93d7e5	-0.07218913
140	0x3e2d1d50	0.16905713
141	0xbdb2f71f	-0.08738541
142	0xbe12f773	-0.14352207
143	0x3b745f7a	0.0037288354
144	0x3e0ad336	0.13557133
145	0x3dc6c0b4	0.09704724
146	0x3df9c516	0.12195794
147	0xbc675551	-0.014119462
148	0xbe14431e	-0.14478728
149	0x3da83fe1	0.08215309
150	0xbe207d78	-0.15672863
151	0xbe4f51aa	-0.20245996
152	0xbd75588c	-0.059898898
153	0x3c4ba7e7	0.012430168
154	0x3e185dee	0.14879581
155	0xbd832d41	-0.06405116
156	0x3cb6b359	0.022302317
157	0xbd8efaf5	-0.0698146
158	0xbd4825d9	-0.04886422
159	0xbe12fd2c	-0.1435439
160	0xbe02af15	-0.12762101
161	0x3d0b108a	0.03395132
162	0xbdc37d0b	-0.095453344
163	0xbdb57aa8	-0.088612854
164	0xbe06eb72	-0.13175753
165	0xbd8a45ee	-0.06751619
166	0xbe1badd4	-0.15203029
167	0xbe2365c8	-0.15956795
168	0xbd489828	-0.048973233
169	0xbe10b361	-0.14130928
170	0xbe1a1b1b	-0.15049402
171	0xbd58d896	-0.052940927
172	0xbc825d07	-0.0159135
173	0xbdc0fb3b	-0.094229184
174	0xbd1e6f66	-0.038680457
175	0xbe0ff1e1	-0.14057113
176	0xbdd92c6b	-0.10604175
177	0xbd1c47f7	-0.03815457
178	0xbde2c695	-0.11073033
179	0xbdb5a161	-0.08868671
180	0xbdc6b659	-0.09702749
181	0xbd2e71ba	-0.042588927
182	0xbe0c247b	-0.13685791
183	0xbddae298	-0.106877506
184	0xbe17c3ad	-0.14820738
185	0xbe23d58b	-0.15999429
186	0xbd3c14e1	-0.04591835
187	0xbe21cced	-0.15800829
188	0xbe127cdc	-0.14305443
189	0xbd6c0892	-0.05762536
190	0x3cc6e497	0.024278922
191	0xb9bed204	-0.00036396098
192	0x3d73cdc9	0.059522424
193	0xbc8ccf77	-0.01718877
194	0xbde02602	-0.109447494
195	0xbd5f073f	-0.05445027
196	0xbe04647a	-0.12928954
197	0xbe15179a	-0.14559785
198	0xbd809906	-0.06279187
199	0x3d9aacd4	0.075524956
200	0xbc80792a	-0.015682776
201	0xbcc0397a	-0.023464907
202	0xbd9217c6	-0.07133441
203	0xbda197a0	-0.07890248
204	0xbd100326	-0.035159253
205	0xbdca1ec1	-0.09869147
206	0xbde2ce26	-0.11074476
207	0x3cd781af	0.026306955
208	0x3d3d63cf	0.046237763
209	0x3d5d11f2	0.053972192
210	0x3d2d4f2e	0.04231184
211	0xbd422c42	-0.04740549
212	0xbdfaabe9	-0.122398205
213	0x3cdd5a51	0.027020605
214	0xbe2d45a9	-0.16921104
215	0xbe102f37	-0.14080511
216	0xbd244b43	-0.040110838
217	0x3d0c44d7	0.03424534
218	0x3cf83d9d	0.030302817
219	0x3d164fab	0.03669707
220	0x3d60c932	0.054879375
221	0x3d20e207	0.039278056
222	0xbceac237	-0.028657062
223	0xbd0728fe	-0.032998078
224	0x3c3f45a3	0.0116743175
225	0xbde9d803	-0.11418154
226	0xbd78e153	-0.06076176
227	0x3cc5b611	0.024134668
228	0xbb862d24	-0.0040947367
229	0xbcc16411	-0.023607286
230	0xbc542d7b	-0.0129502965
231	0xbd7d4358	-0.061831802
232	0xbd343558	-0.043996185
233	0xbd81be20	-0.063350916
234	0xbde44078	-0.11145109
235	0xbe05297e	-0.1300411
236	0x3ced9d2b	0.029005608
237	0xbd6c434a	-0.05768136
238	0xbe221a81	-0.15830423
239	0xbd843afb	-0.06456562
240	0x3c69d2d6	0.014271459
241	0xbe3deca0	-0.18547297
242	0xbe1125aa	-0.14174524
243	0xbd98760e	-0.07444392
244	0xbd88100b	-0.06643685
245	0xbd81eaf1	-0.0634364
246	0x3e1ca6f1	0.15298058
247	0x3e5d3fd8	0.21606386
248	0xbdd78607	-0.105236106
249	0x3d89e216	0.067325756
250	0x3df502f1	0.11963452
251	0x3d865dc1	0.06560851
252	0x3dd6b2ab	0.10483297
253	0x3def1658	0.116741836
254	0xbd89783d	-0.06712387
255	0x3db64423	0.08899715

model.0.bias f4 [16]
0	0xbe2b30e5	-0.1671787
1	0x3d6cc47d	0.057804573
2	0x3de49ad1	0.111623414
3	0x3e122b11	0.14274241
4	0x3e1763b6	0.1478413
5	0xbd09ad76	-0.03361269
6	0x3e1a75c0	0.1508398
7	0x3e0b960d	0.13631459
8	0x3e4820b4	0.19543725
9	0xbdf9e6ae	-0.12202202
10	0x3ea87311	0.3290029
11	0xbd3ad5ef	-0.04561418
12	0x3e876edc	0.26451766
13	0x3c1fd67e	0.009755729
14	0x3ac5974c	0.0015074997
15	0x3e9dd857	0.30829117

model.2.weight f4 [32, 16, 3, 3]
0	0x3da2df18	0.07952708
1	0x3cc3c732	0.023898695
2	0x3b1f5fcb	0.0024318572
3	0x3c9340d0	0.017975241
4	0x3d6ea5c9	0.058263574
5	0x3d30fe41	0.043211225
6	0xbc2c7aac	-0.010527294
7	0x3dc4e414	0.09613815
8	0x3d5b4a41	0.05353761
9	0x3c4edf2b	0.01262645
10	0x3d2ceb09	0.042216334
11	0x3caab192	0.020836625
12	0xbcea248a	-0.028581876
13	0x3c5f8740	0.013643086
14	0x3d34ee2f	0.044172462
15	0xbd01ceef	-0.031691488
16	0xbc1d4b19	-0.009600424
17	0x3c10a15c	0.008827534
18	0x3d2e3f53	0.04254086
19	0x3dbbed9d	0.091761805
20	0xbc83aaa5	-0.01607258
21	0x3d095b90	0.033534586
22	0x3d865164	0.06558493
23	0xbd399667	-0.04530945
24	0x3d60e36c	0.054904386
25	0x3d533918	0.05156812
26	0x3c87e6bc	0.016589515
27	0x3d8907b6	0.06690924
28	0x3c1f47ef	0.00972174
29	0xbd32b901	-0.043633465
30	0xbcf71c9f	-0.030165015
31	0xbb857e78	-0.004073914
32	0xbcdf1525	-0.027231762
33	0x3d167a54	0.036737755
34	0xbb7e1070	-0.0038767122
35	0xbd832b26	-0.06404714
36	0xbbef175f	-0.007296487
37	0xbba58cc9	-0.0050521833
38	0x3d1d9a5b	0.038477283
39	0x3cc5f9c9	0.024166958
40	0xbccec11f	-0.025238572
41	0x3d44c2ae	0.048037224
42	0x3dc091f6	0.0940284
43	0x3d295177	0.041337457
44	0x3cf08f84	0.029365309
45	0x3cab3251	0.020898016
46	0xbcf0a33b	-0.02937471
47	0x3c2d5c8c	0.010581147
48	0x3cfb7bcd	0.030698681
49	0x3c951a54	0.01820103
50	0x3d50df95	0.050994474
51	0xbd2b3912	-0.041802473
52	0x3d0020bd	0.03128122
53	0x3d0c2c6e	0.03422206
54	0x3b6d9e76	0.003625778
55	0x3dd17716	0.10227792
56	0x3c83ce7a	0.016089667
57	0x3db16e76	0.08663647
58	0xbd128b39	-0.035777304
59	0x3b5c8d58	0.0033653583
60	0xbb880c69	-0.00415187
61	0x3d08feb3	0.033446025
62	0xbcdc132b	-0.026864609
63	0xbc9b690a	-0.018970985
64	0x3dabb6e4	0.08384493
65	0xbd7a5e5c	-0.061125144
66	0xbc8b3ab5	-0.016995767
67	0xbc5df284	-0.01354659
68	0xbd3d5742	-0.046225794
69	0x3d334efa	0.04377649
70	0xbd13f409	-0.036121402
71	0x3cd8a0bf	0.026443837
72	0x3d759473	0.059956025
73	0xbd14c900	-0.0363245
74	0x3da205e2	0.07911278
75	0xbd177853	-0.036979984
76	0xbb223714	-0.0024752067
77	0x3d2505fa	0.040288903
78	0x3d1089e8	0.035287768
79	0x3ceb6fa9	0.028739767
80	0xbd0945f5	-0.03351398
81	0xbbb33191	-0.0054685553
82	0x3cde0e4a	0.027106423
83	0xbbfee5c4	-0.007778855
84	0x3cfd92aa	0.030953724
85	0x3d9406ee	0.07227884
86	0x3d293702	0.041312225
87	0x3be2b063	0.0069179996
88	0x3d4da4f9	0.05020616
89	0x3ce5e195	0.028061667
90	0xb9a83437	-0.0003208236
91	0xbd64cc57	-0.055858936
92	0x3c24f8e8	0.0100691095
93	0xbd2c0f6d	-0.0420069
94	0x3cae4454	0.021272816
95	0xbd9eab5a	-0.077475265
96	0x3ca9497f	0.020664928
97	0x3cedb15d	0.029015237
98	0x3cd5817b	0.026062718
99	0x3d91535e	0.07095979
100	0x3d44e1cd	0.048066903
101	0x3d3006d2	0.042975254
102	0x3dc413f0	0.09574115
103	0x3d4e5366	0.050372504
104	0xbc42d0c1	-0.011890591
105	0xbd0c23da	-0.03421388
106	0x3d85bdcb	0.06530341
107	0xbd5aeef9	-0.05345056
108	0x3daaa025	0.083313264
109	0x3dad9e72	0.08477487
110	0x3d7afc45	0.06127574
111	0x3d9aff81	0.07568265
112	0x3dbc36f7	0.09190171
113	0x3cbbb4c2	0.02291334
114	0x3db3e429	0.087837525
115	0x3e010fad	0.12603636
116	0x3d9e2506	0.077219054
117	0xbd5eabcd	-0.05436306
118	0xbd6c7dcc	-0.057737157
119	0xba5c18c1	-0.00083960226
120	0xbd4468d9	-0.047951553
121	0x3ad17859	0.0015981301
122	0x3d761861	0.060081843
123	0x3c424103	0.01185632
124	0x3d2d004f	0.042236622
125	0x3dc48dd9	0.09597368
126	0x3cd185fa	0.02557658
127	0x3cc790fc	0.024361126
128	0x3c8f71ed	0.017510379
129	0x3d1e6dc4	0.0386789
130	0x3ca89e3b	0.020583263
131	0x3b9e5e30	0.0048330054
132	0x3c3cc55a	0.011521662
133	0x3cb29b6e	0.02180263
134	0x3c5384b4	0.012910057
135	0xbc162996	-0.009165188
136	0xbd178330	-0.036990345
137	0xbceeee4a	-0.02916636
138	0xbda025e9	-0.07819731
139	0xbc97c8da	-0.01852839
140	0x3cb080d3	0.021545803
141	0xbcc3b9f7	-0.023892386
142	0x3d96cde3	0.073634885
143	0xbc7eb18f	-0.015545263
144	0x3e0d6a07	0.13809977
145	0x3e26362c	0.16231602
146	0x3cb87173	0.022515034
147	0x3d00ce5f	0.03144681
148	0x3e166d9f	0.14690255
149	0x3e153279	0.14570035
150	0x3cf03194	0.029320516
151	0x3d7edfe2	0.06222523
152	0x3c3d81df	0.011566608
153	0x3aa0b275	0.0012260216
154	0xbca67b34	-0.02032242
155	0x3c1c94e3	0.009556982
156	0x3cee8700	0.029117107
157	0x3ce35984	0.027752645
158	0x3b2dc758	0.0026516523
159	0xbc8910bd	-0.016731614
160	0xbcf9ec4a	-0.03050818
161	0x3b886b4f	0.004163183
162	0x3d717d20	0.05895722
163	0x3cd72a43	0.02626527
164	0xbd521922	-0.0512935
165	0x3de1af2f	0.11019742
166	0xbcd3b99d	-0.025845343
167	0xbd47dd57	-0.04879507
168	0x3c4143af	0.011795922
169	0x3dd33aad	0.10313926
170	0xbd8f1320	-0.0698607
171	0xbcd19cd4	-0.025587477
172	0xbcb126e8	-0.021624997
173	0x3d87d7b3	0.06632938
174	0x3d87587f	0.06608676
175	0x3d2a8388	0.041629344
176	0xbd407540	-0.04698682
177	0xbc8086c6	-0.015689265
178	0xbd03062f	-0.03198832
179	0x3cadaf18	0.021201655
180	0xbd0051e1	-0.031328086
181	0xbd5f4e53	-0.054518055
182	0xbd780367	-0.06055012
183	0xbda55139	-0.080721326
184	0xbd39baec	-0.04534428
185	0x3cbcfc37	0.023069484
186	0xbd0f9978	-0.03505847
187	0xbd504577	-0.050847497
188	0x3be5c155	0.0070115724
189	0x3d484ef2	0.048903413
190	0x3d483102	0.048874862
191	0xbd8126be	-0.063062176
192	0xbca0dd3a	-0.019636739
193	0x3d7a71d5	0.061143715
194	0xbcbfb9b5	-0.023403982
195	0x3d77b031	0.060470764
196	0x3d25da9c	0.040491685
197	0x3d08d394	0.0334049
198	0x3cdb23ba	0.026750434
199	0xbcba12a7	-0.022713972
200	0xbd6e69e4	-0.058206454
201	0xbce9e348	-0.028550759
202	0x3a5225b7	0.0008016484
203	0xbd218dd1	-0.039441887
204	0x3dae3174	0.08505526
205	0x3d79308a	0.060837306
206	0xbd1c19e9	-0.038110647
207	0x3d9e321d	0.07724402
208	0xbd1e1ce0	-0.038601756
209	0xbd15d8e2	-0.03658379
210	0x3b1730d2	0.002306987
211	0xbc922b97	-0.01784305
212	0xbd8385f6	-0.064220354
213	0xbbb73a72	-0.005591684
214	0xbc6da8b7	-0.014505557
215	0xbcfb2534	-0.030657388
216	0x3d2cd913	0.042199206
217	0x3d73d287	0.059526946
218	0x3c0c4318	0.008560918
219	0x3cd476ff	0.025935648
220	0x3cd11b27	0.025525643
221	0x3c4b2d60	0.012400955
222	0x3d432a2d	0.047647644
223	0x3dba3f8d	0.090941526
224	0x3d880a88	0.06642634
225	0x3cd72d76	0.026266795
226	0x3c90ef35	0.017692188
227	0x3d636eaf	0.055525478
228	0xbc003b7c	-0.007826682
229	0x3b2a38cc	0.0025973795
230	0x3d82841d	0.06372855
231	0xbc2a3327	-0.010388172
232	0xbc29aeeb	-0.010356645
233	0x3cdf79f3	0.02727983
234	0xbd3d91f0	-0.046281755
235	0x3db59abe	0.08867405
236	0x3d0211e7	0.031755354
237	0x3c9d419d	0.019196326
238	0x3b5d39e9	0.003375644
239	0x3cd86e1b	0.02641969
240	0xbd8b820c	-0.06811914
241	0xbdcca219	-0.09991855
242	0xbd5eb478	-0.054371327
243	0x3dbad389	0.091223784
244	0xbd80104f	-0.062531106
245	0x3bd6912b	0.006548067
246	0x3be97bd6	0.007125358
247	0x3d686e2a	0.056745686
248	0xbd9cdfd8	-0.07659882
249	0x3d80a3a3	0.06281211
250	0xbbf528e8	-0.007481683
251	0x3cc4e3c4	0.024034388
252	0x3d998372	0.07495774
253	0x3df3a2f9	0.11896319
254	0x3df93942	0.12169124
255	0xbbdba445	-0.006702932

model.2.bias f4 [32]
0	0xbdebc498	-0.11512107
1	0xbe1d66f3	-0.15371303
2	0x3e05401c	0.13012737
3	0x3e0df16c	0.13861626
4	0x3cfa3fe9	0.030548053
5	0xbdd0b395	-0.101905026
6	0x3d715672	0.05892033
7	0xbda9af6b	-0.082854114
8	0xbdd1a903	-0.102373146
9	0x3dcf861a	0.10133
10	0xb969c43d	-0.00022293716
11	0x3e1d16cd	0.15340729
12	0xbe07ed86	-0.13274202
13	0xbda44376	-0.0802068
14	0xbd91ff33	-0.071287535
15	0x3e1d19e2	0.15341905
16	0x3e0db122	0.13837102
17	0xbdca9d54	-0.09893289
18	0xbbaf3777	-0.005347188
19	0x3d95194e	0.07280217
20	0x3df3781c	0.118881434
21	0x3dd8ec35	0.10591928
22	0x3d581683	0.052755844
23	0x3cd69df7	0.02619837
24	0xbd7ef864	-0.062248603
25	0x3c50cf20	0.012744695
26	0x3e05a8f6	0.13052735
27	0x3da24e51	0.07925094
28	0x3c8b5e89	0.017012851
29	0xbd4e2a65	-0.0503334
30	0x3e04378c	0.12911814
31	0xbc8bb0c3	-0.01705206

model.4.weight f4 [32]
0	0x3f8658fb	1.0495905
1	0x3f84ac0d	1.0365006
2	0x3f811bd2	1.0086615
3	0x3f82a740	1.0207291
4	0x3f808096	1.0039241
5	0x3f7628dd	0.961561
6	0x3f81110b	1.0083326
7	0x3f7e2c23	0.992861
8	0x3f7df4ef	0.99201864
9	0x3f804230	1.0020199
10	0x3f7e3688	0.9930196
11	0x3f81c85c	1.013927
12	0x3f810e48	1.0082483
13	0x3f893520	1.0719337
14	0x3f84a621	1.0363199
15	0x3f819dc4	1.0126271
16	0x3f8699e5	1.0515715
17	0x3f834176	1.0254352
18	0x3f79ec02	0.97625744
19	0x3f828863	1.0197872
20	0x3f7d3ee0	0.98924065
21	0x3f82e70d	1.0226761
22	0x3f80f0b1	1.0073453
23	0x3f777c98	0.9667449
24	0x3f80daf2	1.0066817
25	0x3f83f62b	1.03095
26	0x3f817d82	1.0116427
27	0x3f77c552	0.9678546
28	0x3f880952	1.0627844
29	0x3f7b67ab	0.9820506
30	0x3f7d01cd	0.9883087
31	0x3f7f8bbd	0.998226

model.4.bias f4 [32]
0	0xbb04139c	-0.002015329
1	0xbcd4ac02	-0.025960926
2	0xbd44a15a	-0.04800544
3	0xbd4a549b	-0.049397092
4	0x3d14ff53	0.03637631
5	0xbd848427	-0.064705186
6	0x3d45e221	0.048311356
7	0x3da5d336	0.08096926
8	0x3ccf1585	0.025278816
9	0xbce336cb	-0.027736088
10	0xbe013fd2	-0.12622002
11	0x3d43edb3	0.04783411
12	0xbe019383	-0.12653928
13	0x3d20c5e6	0.03925123
14	0x3d28ab93	0.04117925
15	0x3d8a21d8	0.067447364
16	0xbb690aa2	-0.0035559316
17	0xbd5d0f1e	-0.053969495
18	0xbdad596c	-0.084643215
19	0xbdc0e3de	-0.09418462
20	0xbc679e8a	-0.01413692
21	0xbcaa47d2	-0.0207862
22	0x3da43155	0.08017222
23	0x3dc3087f	0.09523105
24	0x3c6bdbe8	0.014395691
25	0x3db4fdfa	0.08837505
26	0xbc857cc0	-0.016294837
27	0xbd9a3b8d	-0.0753089
28	0x3d2323aa	0.039828934
29	0xbe1d3dac	-0.15355557
30	0xbd26af14	-0.04069431
31	0xbcba063f	-0.022708056

model.5.weight f4 [64, 32, 3, 3]
0	0xbc5610ff	-0.013065576
1	0x3cb1694b	0.021656653
2	0xbd3a865e	-0.0455383
3	0xbd03f800	-0.032218933
4	0x3c96213f	0.0183264
5	0x3c37a16d	0.0112079205
6	0xba2e068f	-0.00066385505
7	0xbbea1c87	-0.007144514
8	0x37e659d6	2.745997e-05
9	0xbd5cbbae	-0.053889923
10	0x3d10c4b8	0.035343856
11	0x3cebec96	0.028799336
12	0xbc621964	-0.013799999
13	0x3caf38d4	0.021389402
14	0x3c085223	0.008320364
15	0x3ab4bb8c	0.0013788803
16	0xbd421eb1	-0.04739255
17	0x3b7ddc32	0.0038735983
18	0xbcaa88f6	-0.020817261
19	0x3cfee6ed	0.031115973
20	0xbd6664fb	-0.056248646
21	0xbc53412a	-0.012893954
22	0xbd14f666	-0.036367796
23	0x3d1474d6	0.036244236
24	0x3c8f4b7b	0.017492047
25	0x3c927463	0.017877763
26	0x3c46e5cd	0.01213975
27	0x3c203c90	0.009780064
28	0xbd9fc5b4	-0.07801381
29	0xbd371a63	-0.0447029
30	0xbce65fd7	-0.028121872
31	0xbd0ad936	-0.033898555
32	0xbc2a6558	-0.010400139
33	0xbca9fc23	-0.020750111
34	0xbcb3b850	-0.021938473
35	0xbd9d8755	-0.07691828
36	0xbd0c3430	-0.034229457
37	0xbcea6cb7	-0.028616292
38	0xb9e8b3de	-0.000443845
39	0xbc1bc4a2	-0.00950733
40	0xbbd948e3	-0.006631003
41	0xbb2c8f41	-0.0026330503
42	0xbc9db917	-0.019253297
43	0x3d12e2f3	0.035860967
44	0x3cf1ef6d	0.029533112
45	0xbd6c3901	-0.05767155
46	0xbd926d25	-0.07149724
47	0xbd0d02de	-0.034426562
48	0xbc880de4	-0.016608186
49	0xbd9c9789	-0.076460905
50	0x3b681a94	0.0035416232
51	0x3ca200b8	0.019775733
52	0xbda94d47	-0.082666926
53	0x3cd1c33c	0.02560579
54	0xbd5cc210	-0.05389601
55	0xbcbf9da3	-0.023390597
56	0xbb94a7a1	-0.0045365845
57	0x3cdcbc95	0.026945392
58	0xbcb9b47f	-0.022669075
59	0x3cd0be64	0.02548141
60	0x3d180025	0.037109513
61	0x3d13aab2	0.03605146
62	0x3d3a64a8	0.04550615
63	0xbcacc1f2	-0.021088574
64	0x3d64ab3b	0.05582736
65	0xba9717b6	-0.0011527452
66	0xbcf5f346	-0.030023228
67	0xbbd53933	-0.006507063
68	0x3c9b8288	0.01898314
69	0xbd08e3a1	-0.03342021
70	0xbd87ebac	-0.06636748
71	0xbcceb19d	-0.025231177
72	0x39d08d7c	0.00039778266
73	0x3cb35125	0.021889279
74	0xbc18790d	-0.0093062045
75	0x3dbe7f80	0.093016624
76	0x3c2ec1b7	0.010666302
77	0xbcaecfc5	-0.021339307
78	0x3cfae799	0.030628012
79	0xbd08e5e3	-0.033422362
80	0x3d02b652	0.031912155
81	0xbd04ac23	-0.032390725
82	0x3c39514d	0.0113108875
83	0xbca9b000	-0.020713806
84	0x3c617f9b	0.013763334
85	0x3cfe8d03	0.031073099
86	0x3d895720	0.06706071
87	0x3d0d53f9	0.03450391
88	0x3c980446	0.018556725
89	0x3d58574d	0.05281763
90	0xba2b739f	-0.0006540361
91	0xbd42db68	-0.047572523
92	0xbc29fc05	-0.010375028
93	0xbb429b78	-0.0029694717
94	0xbd29220d	-0.04129224
95	0xbd342fc7	-0.043990877
96	0x3dbdbf5e	0.09265016
97	0x3ca343da	0.019929815
98	0x3c8530b9	0.016258584
99	0x3cfb7e33	0.030699825
100	0xbb58652d	-0.003301929
101	0xbd78988b	-0.06069235
102	0x3b97d161	0.004633114
103	0xbd00e1d1	-0.031465355
104	0xbd4685c5	-0.048467416
105	0xbc575828	-0.013143577
106	0xbd24f017	-0.04026803
107	0xbda016bc	-0.07816836
108	0xbd255400	-0.04036331
109	0xbd364e6c	-0.044508383
110	0xbcdef66e	-0.027217116
111	0xba253d76	-0.0006303409
112	0xbd104b6a	-0.03522817
113	0x3c1bdde5	0.009513353
114	0x3ccf3173	0.025292134
115	0xbcc12e3a	-0.023581613
116	0xbcdef54b	-0.027216574
117	0x3cd47d44	0.025938638
118	0xbb2dbca4	-0.0026510144
119	0x3cbd8a85	0.02313734
120	0x3da1b9a1	0.07896734
121	0x3d18136c	0.037127897
122	0x3d2684bc	0.04065393
123	0x3d5b3323	0.053515565
124	0xbd2d35e2	-0.042287715
125	0x3c58b257	0.013226113
126	0x3d2f9c6c	0.042873785
127	0xbd527609	-0.0513821
128	0xb990a7fe	-0.00027590984
129	0x3b9a7588	0.004713718
130	0x3beceb2d	0.0072301836
131	0xbc741279	-0.014896982
132	0x3d123d0e	0.035702758
133	0x3c202fd6	0.00977703
134	0x3ce20fcf	0.027595429
135	0x3c33f88b	0.01098455
136	0xbd22d4b1	-0.03975362
137	0xbb062107	-0.0020466463
138	0x3c97bb3a	0.018521894
139	0x3c45ee17	0.012080691
140	0x3c5ebf6c	0.013595443
141	0x3d5a8ad4	0.053355053
142	0xbd1ecb30	-0.038767993
143	0x3cc195cf	0.023631005
144	0xbdd6e48b	-0.1049281
145	0xbd0b3647	-0.03398731
146	0xbd2f6bfa	-0.042827584
147	0x3b4b9f72	0.0031070379
148	0x3ca67c3d	0.020322913
149	0xbc7edb35	-0.015555193
150	0x3d615bfe	0.05501937
151	0xbd06d00b	-0.03291325
152	0xbb389c64	-0.0028169388
153	0x3d24cddc	0.040235385
154	0x3beb5557	0.007181804
155	0xbd250b5f	-0.040294047
156	0xbaa669ab	-0.0012696286
157	0xbd510cb5	-0.05103751
158	0xbd965f89	-0.07342441
159	0x3d1e70e4	0.03868188
160	0xbc5471df	-0.012966602
161	0x3cc407af	0.023929445
162	0x3aff9c43	0.0019501526
163	0x3c8803d4	0.016603388
164	0xbc637cd4	-0.013884742
165	0x3cc3c908	0.02389957
166	0xbcc20584	-0.02368427
167	0xbd6d6728	-0.057959706
168	0x3cd395c7	0.025828255
169	0xbc8e32d9	-0.01735823
170	0x3c398a9e	0.011324553
171	0x3cf4be92	0.029876027
172	0x3b95ada1	0.0045678173
173	0xba1183e0	-0.0005550962
174	0xbd4b7c8e	-0.04967933
175	0xbd6b449a	-0.05743847
176	0xbd88d82e	-0.06681858
177	0x3c263a45	0.0101457285
178	0x3d5a94ff	0.05336475
179	0x3d0f46e9	0.034979735
180	0x3d63d821	0.05562604
181	0xbc7850dc	-0.015155997
182	0x3d966192	0.07342829
183	0x3daeb413	0.0853044
184	0x3d7a9b03	0.061182987
185	0xbd44948a	-0.04799322
186	0x3cd9e9cf	0.026600746
187	0xbab116ee	-0.0013510862
188	0xbc100878	-0.008791082
189	0xbc602505	-0.013680701
190	0x3b9eea57	0.004849713
191	0x3b07c1d0	0.0020714886
192	0xbcb34e6c	-0.02188798
193	0xbd334251	-0.043764416
194	0xbd65cb28	-0.056101948
195	0x3d491052	0.04908783
196	0x3a777dfe	0.00094410765
197	0x3cd5c95e	0.026096996
198	0xbd83780c	-0.064193815
199	0x3d2e3e61	0.042539958
200	0x3d2dafce	0.04240399
201	0xbc89bb59	-0.016812967
202	0xbc26c8dd	-0.0101797255
203	0xbb718e02	-0.0036858325
204	0x3cf5edf7	0.030020697
205	0x3c480a1b	0.012209441
206	0x3d0e5eeb	0.03475849
207	0xbbfd9e17	-0.007739793
208	0x3d11f5a4	0.03563465
209	0x3c85d222	0.01633555
210	0xbcc09085	-0.023506412
211	0xbc731daa	-0.014838615
212	0xbc7e66b4	-0.015527416
213	0x3cf8f9fd	0.030392641
214	0xbb3c3eee	-0.0028724032
215	0xbd0a5690	-0.03377396
216	0xbcb6c034	-0.022308446
217	0xbdd7d23a	-0.105381444
218	0xbc5b585f	-0.0133877685
219	0x3ba27462	0.0049577216
220	0x3d2aef1b	0.041731935
221	0xbc934541	-0.017977359
222	0xbb82fe01	-0.003997565
223	0x3c137fe4	0.0090026595
224	0x380953e8	3.274149e-05
225	0xbcf26330	-0.029588312
226	0xbce7647c	-0.028246157
227	0x3cd93941	0.026516559
228	0x3d07109f	0.032974835
229	0xbd11a2f5	-0.0355558
230	0xbd21702c	-0.039413616
231	0xbd1450fa	-0.036210038
232	0xbd2524b2	-0.0403182
233	0xbcf15653	-0.029460108
234	0x3b824bb8	0.0039763115
235	0x3d751e02	0.05984307
236	0x3cc2bf1f	0.023772774
237	0xbc46d6af	-0.0121361455
238	0x3adff29e	0.0017085855
239	0x3d28d644	0.041219965
240	0xbbbbbf31	-0.005729579
241	0xb8e4b9e4	-0.00010906512
242	0x3cc3e412	0.023912463
243	0x3cecedcc	0.028921984
244	0x3d205191	0.039140288
245	0xbc89f3aa	-0.01683982
246	0x3d5f7b83	0.05456115
247	0xbc7bbc0c	-0.015364658
248	0x3da79137	0.081819944
249	0x3d839a4b	0.064259134
250	0xbc8349cf	-0.016026406
251	0x3d04151a	0.032246687
252	0xbd1c74b6	-0.03819724
253	0xbc546046	-0.0129624065
254	0xbb0fcb75	-0.0021941338
255	0x3c3093a0	0.010777384

model.5.bias f4 [64]
0	0x3de480ac	0.11157355
1	0xbdc36132	-0.09540023
2	0xbd622218	-0.055208296
3	0x3c89e73e	0.016833898
4	0xbdcfc07d	-0.10144136
5	0xbdeb1bbd	-0.114799
6	0xbd480d53	-0.048840832
7	0xbd971a2c	-0.07378039
8	0x3e117f0b	0.1420862
9	0x3da5f7f2	0.081039324
10	0x3d4b8e5e	0.04969632
11	0xbce7fe6b	-0.028319558
12	0xbdc10359	-0.09424467
13	0xbca9d311	-0.020730527
14	0x3d5ba2e2	0.053622134
15	0x3df0c791	0.11756814
16	0x3da5e858	0.08100957
17	0xbd10040d	-0.035160113
18	0xbbbabdce	-0.005698896
19	0xbc89ee33	-0.016837215
20	0x3e0ef831	0.13961865
21	0xbcf23618	-0.02956681
22	0x3ce60c0d	0.028081918
23	0xbd00a7fb	-0.0314102
24	0x3d153080	0.036423206
25	0x3e06602a	0.13122621
26	0xbbb4ebbb	-0.0055212653
27	0x3dde0743	0.10841229
28	0xbd8f9bd9	-0.070121475
29	0xbce53f5a	-0.02798431
30	0x3d7dc7d6	0.061958157
31	0x3d6037b3	0.05474062
32	0xbcddfc0a	-0.02709772
33	0xbca3b5c9	-0.019984143
34	0xbd91d6d0	-0.0712105
35	0x3a9a8b8c	0.0011790856
36	0xbbdd8b9f	-0.006761029
37	0x3d809972	0.06279267
38	0xbbdeb710	-0.006796725
39	0x3d31e00b	0.043426555
40	0x3d461c9a	0.04836712
41	0xbae36278	-0.0017348072
42	0x3d14637f	0.0362277
43	0x3c6bcbac	0.014391821
44	0x3d33e005	0.043914814
45	0xbd96bad8	-0.07359856
46	0x3dd8c08c	0.105836004
47	0x3e07fdad	0.13280363
48	0x3c161fd1	0.009162859
49	0x3ccac228	0.024750784
50	0xbd923346	-0.07138686
51	0xbd8b1f8e	-0.06793128
52	0x3d2cca1f	0.042184945
53	0x3de3ef71	0.11129654
54	0xbd215e38	-0.039396495
55	0x3cc052f1	0.02347705
56	0xbd8b6ef6	-0.068082735
57	0xbdc7973c	-0.097456425
58	0x3e0ca928	0.13736403
59	0x3d4d4f57	0.050124492
60	0x3be5b790	0.0070104077
61	0x3d9122fb	0.0708675
62	0x3ca3df8e	0.02000406
63	0x3d2b7bf6	0.041866265

model.7.weight f4 [64]
0	0x3f81fbda	1.0154984
1	0x3f887a11	1.0662252
2	0x3f7b5c60	0.9818783
3	0x3f81a5e9	1.0128757
4	0x3f8301b9	1.0234901
5	0x3f808ef4	1.0043626
6	0x3f8464de	1.0343282
7	0x3f806f83	1.0034031
8	0x3f8075c5	1.003594
9	0x3f816cb9	1.0111305
10	0x3f828de7	1.0199555
11	0x3f85e7bb	1.0461344
12	0x3f82baa0	1.0213203
13	0x3f823289	1.0171672
14	0x3f7f0588	0.99617815
15	0x3f7d3353	0.9890644
16	0x3f7f6473	0.9976265
17	0x3f82c4b4	1.0216279
18	0x3f8373cf	1.0269717
19	0x3f7b25b4	0.98104405
20	0x3f7ee956	0.9957479
21	0x3f81ab19	1.013034
22	0x3f842fab	1.0327047
23	0x3f7e1dfb	0.99264497
24	0x3f7c033b	0.9844243
25	0x3f801c19	1.0008575
26	0x3f7fdd14	0.99946713
27	0x3f832eb0	1.0248623
28	0x3f8515c5	1.0397269
29	0x3f81bc5c	1.0135608
30	0x3f7b57c1	0.98180777
31	0x3f80a2ab	1.0049642
32	0x3f817809	1.0114757
33	0x3f7ffd17	0.9999556
34	0x3f84fa9a	1.0388978
35	0x3f834605	1.0255743
36	0x3f8087fd	1.00415
37	0x3f82c310	1.0215778
38	0x3f80f775	1.0075518
39	0x3f788f27	0.97093433
40	0x3f821f58	1.0165815
41	0x3f80dd69	1.0067569
42	0x3f80c22f	1.005926
43	0x3f81d21b	1.0142244
44	0x3f812374	1.0088944
45	0x3f8551a3	1.0415539
46	0x3f7d2b20	0.9889393
47	0x3f77105a	0.96509326
48	0x3f84262c	1.0324149
49	0x3f7fa3a7	0.9985909
50	0x3f85dc03	1.0457767
51	0x3f844359	1.0333053
52	0x3f83928f	1.0279101
53	0x3f806943	1.0032123
54	0x3f859235	1.0435244
55	0x3f846491	1.034319
56	0x3f833d35	1.0253054
57	0x3f807c54	1.0037942
58	0x3f79ba29	0.9754968
59	0x3f86515c	1.0493579
60	0x3f80d88a	1.0066082
61	0x3f819acb	1.0125364
62	0x3f7d935d	0.99052984
63	0x3f82d159	1.0220138

model.7.bias f4 [64]
0	0x3ca7ec19	0.020498322
1	0xbe28df27	-0.16491376
2	0xbd31c6c7	-0.04340246
3	0x3d3e1172	0.046403356
4	0xbe08c919	-0.13357963
5	0xbe066c6c	-0.13127297
6	0xbe184d09	-0.14873137
7	0xbdb6ca36	-0.089252874
8	0x3e10eb49	0.14152254
9	0x3da800a1	0.08203245
10	0x3ad8f62a	0.0016552855
11	0xbd3de2bf	-0.04635882
12	0xbe35cb76	-0.17753395
13	0xbd0098de	-0.031395786
14	0x3d069044	0.032852426
15	0x3df37964	0.11888388
16	0x3cb6484c	0.02225127
17	0xbc7a538e	-0.01527871
18	0x3d826510	0.063669324
19	0xbd7f60a2	-0.062348016
20	0x3e0b9c47	0.13633834
21	0x3b815621	0.003947035
22	0xbb8fbec2	-0.004386754
23	0x3cc1e19f	0.023667155
24	0x3d921bbe	0.07134198
25	0x3de9f509	0.1142369
26	0xbcd02025	-0.025405953
27	0x3dc1df84	0.0946646
28	0xbde2ae89	-0.11068446
29	0xbc3a73c2	-0.011380138
30	0x3deb4544	0.11487821
31	0xbca927e4	-0.020648904
32	0xbdaef1c1	-0.08542205
33	0x3a9cc03c	0.0011959146
34	0xbe04c578	-0.12965953
35	0xbad457bc	-0.0016200463
36	0xbb8da909	-0.004323129
37	0x3d1dc28b	0.03851561
38	0xbd894af9	-0.06703753
39	0x3da06274	0.078312784
40	0x3db4c1c3	0.088260196
41	0x3dbf75d6	0.09348647
42	0x3cec99bf	0.028881906
43	0xbdb13c05	-0.08654026
44	0x3c857181	0.016289474
45	0xbe3bfb13	-0.18357496
46	0x3e3f1f08	0.18664181
47	0x3e0dec4d	0.13859673
48	0x3da4b1aa	0.08041699
49	0x3decb026	0.11557035
50	0xbe1c6b78	-0.15275371
51	0xbdd0bef7	-0.10192674
52	0x3da3f9e4	0.08006647
53	0x3e4069f0	0.18790412
54	0xbd86d3c1	-0.065833576
55	0xbd5973e0	-0.053089023
56	0xbd471d17	-0.048611727
57	0xbda40fd8	-0.080108345
58	0x3e22f1aa	0.159125
59	0x3de34a5e	0.11098169
60	0x3e160255	0.14649327
61	0x3d8100c6	0.06298976
62	0xbcef79d4	-0.029232897
63	0x3db222c6	0.08698039

model.8.weight f4 [128, 64, 3, 3]
0	0xbcf6b452	-0.03011528
1	0xbb589ba2	-0.0033051749
2	0x3c9e49b8	0.019322261
3	0xbc93c9d4	-0.018040575
4	0xbcd92c8c	-0.0265105
5	0x3ce89690	0.028392106
6	0x3c39cffd	0.011341092
7	0xbcb5dfeb	-0.022201499
8	0xbd0d2255	-0.03445657
9	0x3caed14f	0.02134004
10	0xb9b0714c	-0.0003365375
11	0xbc91aa1b	-0.017781308
12	0xbd63ea4f	-0.055643376
13	0xbc704c3f	-0.014666616
14	0xbca3ed94	-0.020010747
15	0xbad2f587	-0.0016094901
16	0xbb303330	-0.002688598
17	0xbc8f3177	-0.017479641
18	0xbb4552b7	-0.0030109116
19	0x3b2587dc	0.002525798
20	0xbc3358dc	-0.010946479
21	0xbd005647	-0.03133228
22	0x3c1ded8a	0.009639153
23	0x3be3a88e	0.0069475835
24	0xbc836af2	-0.016042206
25	0x3caa64b8	0.02079998
26	0x3bb4878e	0.0055093234
27	0xbc777fc3	-0.015106144
28	0x3c52e5d2	0.012872176
29	0x3ce81bd9	0.028333591
30	0xbc81e12b	-0.015854439
31	0x3cc8870d	0.02447846
32	0xbc21adaf	-0.00986807
33	0xbca68034	-0.020324804
34	0xbcdb6317	-0.026780648
35	0x3d4fe8f5	0.050759275
36	0xbc9273be	-0.017877456
37	0x3b5c1b33	0.0033585548
38	0x3c42dcb2	0.011893438
39	0x3d647f99	0.05578575
40	0xbc44cf84	-0.012012366
41	0xbd430a28	-0.047617108
42	0x3ceefdee	0.029173817
43	0x3c7d695c	0.015467014
44	0xbce6b165	-0.02816076
45	0x3c8461c9	0.016159909
46	0xbccd73f3	-0.025079703
47	0xbc1c7c49	-0.009551116
48	0x3b02874a	0.0019917064
49	0xbc241aae	-0.010016127
50	0x3c7266ab	0.014794986
51	0x3c6bb7bb	0.0143870665
52	0x3cb1377a	0.021632899
53	0x3d1492e0	0.036272883
54	0x3b55ec7a	0.0032642172
55	0xbd2cc403	-0.04217912
56	0x3d27eb3e	0.04099583
57	0xbc6a9768	-0.014318325
58	0xbc4ea090	-0.012611523
59	0xb951b688	-0.00019999791
60	0xbc675743	-0.014119926
61	0x3d8a01ef	0.0673865
62	0xbcd5a33b	-0.02607881
63	0xbc62d08c	-0.013843667
64	0xbb22dd11	-0.0024851004
65	0xbbbb17cf	-0.0057096253
66	0xbd8c3f0b	-0.06847962
67	0x3c31a586	0.0108426865
68	0x3cd35996	0.025799554
69	0x3cbed6aa	0.02329572
70	0x3c0b2612	0.008492963
71	0xbced9b2a	-0.029004652
72	0xbce79a58	-0.028271839
73	0x3da050c6	0.07827906
74	0xba45314a	-0.0007522298
75	0x3aa350c4	0.0012459983
76	0x3d7f27ac	0.062293693
77	0x3c09dd32	0.0084145535
78	0xbd89cdbe	-0.06728695
79	0x3cbbf903	0.022945886
80	0xbbb8dc8f	-0.005641527
81	0xbce37b9b	-0.0277689
82	0xbd02e6ae	-0.031958275
83	0xbd32dada	-0.043665744
84	0xbba3d993	-0.005000302
85	0x3c926a3e	0.017872926
86	0x3cd7d47c	0.026346438
87	0x3cb95608	0.02262403
88	0xbc5c482c	-0.0134449415
89	0xbbfd63bd	-0.007732837
90	0xbc2afe6a	-0.010436634
91	0x3c01fb28	0.0079334155
92	0x3c32359f	0.010877042
93	0xbbbbd302	-0.005731941
94	0xbc6c4c25	-0.014422451
95	0xbcc8ad33	-0.02449665
96	0x3b701bf8	0.0036637764
97	0x3d3cf0e1	0.046128158
98	0xbd14952a	-0.036275066
99	0xbca2beb1	-0.01986632
100	0x3d026a24	0.031839505
101	0xbc8986d8	-0.016787931
102	0x3c0e405b	0.008682336
103	0x3c2ceee5	0.010555004
104	0x3d5430e2	0.05180443
105	0xbca10624	-0.019656248
106	0x3d805746	0.06266646
107	0x3d38426c	0.04498522
108	0x3bc2535a	0.0059303464
109	0xbd117e7a	-0.035521008
110	0xbd872b6e	-0.066000804
111	0x3ca885fb	0.0205717
112	0x3adfbba8	0.0017069476
113	0x3c8a830f	0.016908197
114	0x3d0ed8c6	0.0348747
115	0x3c05c391	0.008164302
116	0x3d23f86c	0.040031835
117	0xbcef49e1	-0.029210033
118	0xbcd4170f	-0.025889901
119	0x3c7df09b	0.015499259
120	0x3d5927ba	0.0530164
121	0xbd69d754	-0.05709012
122	0x3d16eec5	0.036848802
123	0x3b827894	0.003981659
124	0x3cfdfd0b	0.03100445
125	0x3cd692eb	0.026193103
126	0x3cf27d2e	0.029600706
127	0x3d42c0f5	0.0475473
128	0xbb5c9ffd	-0.0033664696
129	0xbcdaa53b	-0.026690116
130	0x3ca2615d	0.019821817
131	0x3d1e164f	0.038595494
132	0x3c8e04f4	0.017336346
133	0xbce8c5a3	-0.028414553
134	0x3cc757be	0.02433383
135	0xbc5613bc	-0.0130662285
136	0x3d3174af	0.04332417
137	0xbd2f7736	-0.042838298
138	0xbc318c8e	-0.0108367335
139	0x3bf277e0	0.007399544
140	0x3b82837c	0.0039829593
141	0x3bf70c99	0.0075393436
142	0x3d6cd051	0.057815854
143	0xbca8f40f	-0.020624189
144	0x3c9bc1da	0.019013334
145	0xbcd61d06	-0.026136886
146	0x3cc5f694	0.02416543
147	0x3d085dc1	0.033292536
148	0x3d0a6262	0.03378523
149	0x3bf70e60	0.0075395554
150	0x395fe80f	0.00021353386
151	0xbc494e4a	-0.012286732
152	0xbc86b21e	-0.016442355
153	0xbb98db70	-0.004664831
154	0xbd658eaa	-0.05604426
155	0xbc0dce61	-0.008655162
156	0xbd417a3b	-0.04723571
157	0x3cf9fade	0.03051513
158	0x3d211aea	0.039332308
159	0x3c7e43be	0.015519081
160	0xbc4c9ca6	-0.01248852
161	0x3d1f85b7	0.03894588
162	0xbd0c637d	-0.034274567
163	0xbd22438a	-0.03961519
164	0x3c258b55	0.01010402
165	0xbbeca397	-0.00722165
166	0x3b0b6639	0.0021270646
167	0x3bb60b7f	0.0055555697
168	0xbc25bc40	-0.010115683
169	0xbc961e6d	-0.018325055
170	0x3c879e5c	0.016555004
171	0x3ca41a55	0.020032087
172	0xbc992118	-0.018692538
173	0x3c4fe4f4	0.012688864
174	0xbc760139	-0.01501494
175	0x3d104787	0.035224464
176	0x3a9bec32	0.0011895953
177	0xbce6dd33	-0.028181648
178	0x3d38b9b1	0.045098964
179	0x3cccb219	0.024987267
180	0xbd488125	-0.048951287
181	0xbae96b9a	-0.0017808557
182	0x3c42ee12	0.011897581
183	0x3a149236	0.0005667539
184	0x3d403310	0.046923697
185	0xbd0b8444	-0.034061685
186	0xbcacff55	-0.021117846
187	0x3b65e017	0.0035076195
188	0xbd377583	-0.044789802
189	0xbba248b3	-0.004952514
190	0xbc655f78	-0.013999812
191	0x3b86683e	0.004101782
192	0xbd1de0ad	-0.038544346
193	0xbc9c6c0e	-0.019094493
194	0x3d0780b4	0.033081725
195	0x3d4d8758	0.050177902
196	0x3cbc9848	0.023021832
197	0x3be800ed	0.0070801885
198	0x3cf8f1bc	0.030388705
199	0x3cb73ee7	0.022368861
200	0x3d358225	0.04431357
201	0x3d8d94cc	0.069131464
202	0xbd1b3328	-0.037890583
203	0x3d02f90a	0.031975783
204	0x3bb566ff	0.0055359597
205	0x3ca0aeb6	0.019614559
206	0x3c7c7059	0.015407645
207	0x3b48d79f	0.0030646098
208	0x3d4e3f40	0.05035329
209	0x398987ff	0.00026232
210	0xbbf6c834	-0.0075311903
211	0x3d28af21	0.04118264
212	0xbc513bd5	-0.012770613
213	0xbcda1a78	-0.02662395
214	0x3c0ee367	0.008721209
215	0x3cea6160	0.028610885
216	0x3af67248	0.0018802369
217	0xbd0580d3	-0.03259356
218	0xbca39851	-0.019970091
219	0xbd06a0eb	-0.032868307
220	0x3cf91d5e	0.030409511
221	0xbb636f7d	-0.0034703903
222	0xbd15d96c	-0.036584303
223	0xbce643a8	-0.028108433
224	0x3cede507	0.029039873
225	0xbd9a06fc	-0.075208634
226	0x3cdcfed1	0.026976975
227	0xbd1983ff	-0.037479397
228	0x3c288749	0.010286161
229	0x3ca2b9b9	0.01986395
230	0xbbc67118	-0.0060559623
231	0x3b67a47d	0.0035345845
232	0x3c97b1ff	0.018517492
233	0xbce675df	-0.028132377
234	0x3bca1eca	0.006168221
235	0xbd370882	-0.044685848
236	0xbd3efb61	-0.046626452
237	0x3d266d7f	0.040631767
238	0xbd416277	-0.047213044
239	0xbc9cef1e	-0.019156989
240	0x3d47783e	0.048698656
241	0x3bc82c22	0.0061087767
242	0xbc5d4c9c	-0.013507035
243	0xbc8182f3	-0.015809512
244	0xbd69be15	-0.057066042
245	0xbd140226	-0.03613486
246	0x3b517546	0.003196077
247	0x3c8b380b	0.016994497
248	0x3c334c63	0.010943505
249	0xbbd62ca3	-0.006536083
250	0xbcd24e09	-0.025671976
251	0xbd27dbaf	-0.04098099
252	0xbb674748	-0.003529029
253	0xbc630870	-0.013856992
254	0x3d0ad187	0.033891227
255	0xbaec8f3a	-0.0018048056

model.8.bias f4 [128]
0	0x3cce399f	0.02517396
1	0xbc602c77	-0.013682476
2	0x3dbe8e46	0.0930448
3	0x3d96bba9	0.07360012
4	0x3d763bb3	0.060115527
5	0x3d41f669	0.047354136
6	0x3c825961	0.01591176
7	0x3d55cb63	0.052195918
8	0xbcfe02bd	-0.031007165
9	0xbc984d54	-0.01859156
10	0x3d34bc88	0.04412511
11	0x3d64a3f2	0.055820413
12	0x3d049035	0.03236409
13	0xbde57330	-0.11203611
14	0x3db0923a	0.086216405
15	0xbaf65ab8	-0.0018795347
16	0xbb946d55	-0.004529635
17	0x3d3c656c	0.04599516
18	0xbd8c64fa	-0.06855197
19	0x3c588567	0.013215399
20	0xbd6ef7c9	-0.058341775
21	0xbd0e8da8	-0.034803063
22	0xbd987de6	-0.07445888
23	0x3d84185f	0.06449961
24	0x3d871ad6	0.065969154
25	0x3e1864e4	0.14882237
26	0x3db2b7ec	0.087264866
27	0xbd86d240	-0.06583071
28	0xbdfebc2b	-0.12438234
29	0xbc8c6cc5	-0.01714171
30	0x3df95cc5	0.121758975
31	0xbe01975b	-0.12655394
32	0x3d2ee819	0.042701814
33	0x3e05458e	0.13014814
34	0xbdae065e	-0.08497308
35	0xbdfbd1fa	-0.12295909
36	0xbd315b83	-0.043300163
37	0xbd7abbd8	-0.061214298
38	0xbd933082	-0.071869865
39	0xbd142e06	-0.036176704
40	0xbc640fb8	-0.013919763
41	0x3e089671	0.13338639
42	0xbdc0218f	-0.09381401
43	0xbdbe9e84	-0.09307578
44	0x3d29a1aa	0.04141394
45	0xbcae71fc	-0.021294586
46	0x3da74dc2	0.08169128
47	0x3d8abd75	0.06774417
48	0x3dc2ba57	0.09508198
49	0xbce6a3f5	-0.028154353
50	0xbd87cead	-0.06631217
51	0xbd87cb08	-0.06630522
52	0xbdd24d63	-0.102686666
53	0x3caa5e4a	0.020796914
54	0x3e1bb9ca	0.15207592
55	0xbc0f1b44	-0.008734528
56	0xbdbe94b6	-0.09305708
57	0x3d979915	0.07402245
58	0x3983d52c	0.00025145093
59	0x3c8b47fc	0.017002098
60	0xbd3b6b85	-0.045756835
61	0xbd904219	-0.07043857
62	0xbdb0b342	-0.08627941
63	0xbc5fe8a2	-0.013666304
64	0x3d87c076	0.06628506
65	0xbd1597d2	-0.03652174
66	0xbda9e766	-0.08296089
67	0x3c5d6ceb	0.013514738
68	0x3dac2455	0.08405367
69	0xbc6ab884	-0.0143262185
70	0xbd7eee6d	-0.0622391
71	0x3e1bd903	0.15219502
72	0x3d99b167	0.0750454
73	0xbe162393	-0.14662008
74	0x3d89f683	0.067364715
75	0xbd3a723c	-0.0455191
76	0x3cef6592	0.029223237
77	0x3da323e4	0.0796583
78	0x3cca8d9a	0.024725724
79	0x3db4e93d	0.08833549
80	0xbc138ddb	-0.009005989
81	0xbcc64576	-0.024203043
82	0x3d887795	0.066634335
83	0xbcffa086	-0.031204473
84	0xbc1ae890	-0.009454861
85	0xbe1407c2	-0.14456084
86	0x370039d5	7.64286e-06
87	0x3d9f5579	0.077799745
88	0xbe10a8e6	-0.1412693
89	0x3c8e53c1	0.017373921
90	0xbe0c6ea0	-0.13714075
91	0x3c690552	0.01422246
92	0x3dee055a	0.116221145
93	0x3d83030e	0.06397067
94	0x3d0a3240	0.03373933
95	0xbd99fc78	-0.07518858
96	0xbd4b5aaf	-0.04964703
97	0x3c0a5e3b	0.008445318
98	0xbdf9140b	-0.12162026
99	0xbe04a2be	-0.12952706
100	0x3d0e6064	0.034759894
101	0xbd949b72	-0.07256211
102	0x3dd6e652	0.10493149
103	0xbde67701	-0.11253167
104	0x3ded1687	0.115765624
105	0x3dc8153a	0.09769674
106	0x3df9c766	0.12196235
107	0xbd820d12	-0.06350149
108	0xbd9ec349	-0.077520914
109	0xbd8a0525	-0.067392625
110	0x3cf1b672	0.029505942
111	0xbca189f1	-0.019719096
112	0xbd86d2d0	-0.06583178
113	0xbdc68db5	-0.09694997
114	0x3d95a7f2	0.07307424
115	0xbd9fe353	-0.078070305
116	0x3c52a2b2	0.012856172
117	0xbcb49cf8	-0.022047505
118	0xbe35707e	-0.17718694
119	0xbd8b1a71	-0.06792153
120	0xbdf9cb7b	-0.12197014
121	0x3d08190d	0.033227015
122	0xbdb707ad	-0.08937011
123	0x3c7bf183	0.015377405
124	0xbd3396a3	-0.04384483
125	0x3a99a809	0.0011723052
126	0x37dbc422	2.6198166e-05
127	0x3dfbd3c0	0.122962475

model.10.weight f4 [128]
0	0x3f91d1ea	1.1392186
1	0x3f94ef71	1.1635572
2	0x3f88ce98	1.0688047
3	0x3f94943e	1.160774
4	0x3f90be14	1.1308007
5	0x3f92c05f	1.1464957
6	0x3f8d6bf0	1.1048565
7	0x3f94d719	1.1628143
8	0x3f8fa0eb	1.1220983
9	0x3f90aa00	1.130188
10	0x3f904448	1.1270838
11	0x3f91485e	1.135021
12	0x3f947c6e	1.1600473
13	0x3f8de2ba	1.1084816
14	0x3f99d28e	1.2017381
15	0x3f94fff5	1.1640612
16	0x3f8d3135	1.1030642
17	0x3f901674	1.1256852
18	0x3f8f6f85	1.1205908
19	0x3f942ecc	1.1576781
20	0x3f943ef5	1.1581713
21	0x3f909fa9	1.1298724
22	0x3f93693f	1.1516494
23	0x3f8e2adf	1.1106833
24	0x3f98f9a4	1.1951184
25	0x3f92a222	1.1455729
26	0x3f908171	1.1289502
27	0x3f8f3d34	1.1190553
28	0x3f8e70a8	1.112813
29	0x3f901ec8	1.1259394
30	0x3f903080	1.1264801
31	0x3f9117b7	1.1335362
32	0x3f8ad1bc	1.0845256
33	0x3f9131b9	1.1343299
34	0x3f952639	1.165229
35	0x3f8f3814	1.1188989
36	0x3f971e63	1.1806148
37	0x3f900823	1.1252483
38	0x3f90dab5	1.1316744
39	0x3f8f31b8	1.1187048
40	0x3f90564c	1.1276336
41	0x3f8e66e0	1.1125145
42	0x3f920c66	1.1410034
43	0x3f8ea8ef	1.1145304
44	0x3f959960	1.1687431
45	0x3f850e55	1.0394999
46	0x3f96733a	1.1753914
47	0x3f9109d7	1.1331128
48	0x3f94ed20	1.1634865
49	0x3f915563	1.1354183
50	0x3f9a9bf9	1.2078849
51	0x3f8dc5a5	1.1075941
52	0x3f86ec16	1.0540798
53	0x3f9261b5	1.1436068
54	0x3f90eeb0	1.1322842
55	0x3f9b9949	1.2156154
56	0x3f8e91be	1.1138227
57	0x3f924f55	1.143046
58	0x3f97330d	1.1812454
59	0x3f9256d2	1.1432745
60	0x3f91121f	1.1333655
61	0x3f8f777b	1.1208338
62	0x3f8c0bb2	1.0941069
63	0x3f8692c6	1.0513542
64	0x3f937a25	1.152165
65	0x3f9323c0	1.1495285
66	0x3f90b6b5	1.1305758
67	0x3f905149	1.1274806
68	0x3f8924c2	1.0714343
69	0x3f92fee6	1.1484039
70	0x3f8f1f51	1.1181432
71	0x3f909a9e	1.1297185
72	0x3f87a18a	1.0596173
73	0x3f8d9d19	1.1063567
74	0x3f8faa40	1.1223831
75	0x3f930f4e	1.1489046
76	0x3f92cc23	1.1468548
77	0x3f8ce003	1.1005863
78	0x3f9347c8	1.1506281
79	0x3f961356	1.1724651
80	0x3f951452	1.1646826
81	0x3f8f2864	1.1184201
82	0x3f961cdc	1.1727557
83	0x3f948de2	1.1605799
84	0x3f9930f2	1.1968062
85	0x3f90559c	1.1276126
86	0x3f87694b	1.0579008
87	0x3f906fb7	1.1284093
88	0x3f8c12bb	1.0943216
89	0x3f979591	1.1842519
90	0x3f8db718	1.1071501
91	0x3f9111ac	1.1333518
92	0x3f90a810	1.1301289
93	0x3f9500cf	1.1640872
94	0x3f886bd7	1.065791
95	0x3f965a3b	1.1746286
96	0x3f8fafe3	1.1225551
97	0x3f975a68	1.1824465
98	0x3f8d98d9	1.106227
99	0x3f935e02	1.1513064
100	0x3f942d1e	1.1576269
101	0x3f931f6c	1.1493964
102	0x3f92fb87	1.148301
103	0x3f8c7450	1.0972996
104	0x3f904252	1.1270239
105	0x3f95e773	1.1711258
106	0x3f917e20	1.1366615
107	0x3f900940	1.1252823
108	0x3f8ef963	1.1169857
109	0x3f91ade1	1.1381189
110	0x3f9f8f03	1.2465519
111	0x3f954d8e	1.1664293
112	0x3f96a4a8	1.1768999
113	0x3f91f7aa	1.1403706
114	0x3f8c8098	1.0976744
115	0x3f8f0754	1.1174111
116	0x3f93b7f4	1.1540513
117	0x3f8dacf1	1.1068403
118	0x3f8a6f60	1.0815239
119	0x3f8af630	1.085638
120	0x3f8e28b5	1.1106173
121	0x3f941ccd	1.1571289
122	0x3f8d1ef8	1.1025076
123	0x3f9270d1	1.1440679
124	0x3f8580d8	1.0429945
125	0x3f983da7	1.1893815
126	0x3f96744c	1.1754241
127	0x3f8ef326	1.1167953

model.10.bias f4 [128]
0	0x00000000	0.0
1	0x00000000	0.0
2	0x00000000	0.0
3	0x00000000	0.0
4	0x00000000	0.0
5	0x00000000	0.0
6	0x00000000	0.0
7	0x00000000	0.0
8	0x00000000	0.0
9	0x00000000	0.0
10	0x00000000	0.0
11	0x00000000	0.0
12	0x00000000	0.0
13	0x00000000	0.0
14	0x00000000	0.0
15	0x00000000	0.0
16	0x00000000	0.0
17	0x00000000	0.0
18	0x00000000	0.0
19	0x00000000	0.0
20	0x00000000	0.0
21	0x00000000	0.0
22	0x00000000	0.0
23	0x00000000	0.0
24	0x00000000	0.0
25	0x00000000	0.0
26	0x00000000	0.0
27	0x00000000	0.0
28	0x00000000	0.0
29	0x00000000	0.0
30	0x00000000	0.0
31	0x00000000	0.0
32	0x00000000	0.0
33	0x00000000	0.0
34	0x00000000	0.0
35	0x00000000	0.0
36	0x00000000	0.0
37	0x00000000	0.0
38	0x00000000	0.0
39	0x00000000	0.0
40	0x00000000	0.0
41	0x00000000	0.0
42	0x00000000	0.0
43	0x00000000	0.0
44	0x00000000	0.0
45	0x00000000	0.0
46	0x00000000	0.0
47	0x00000000	0.0
48	0x00000000	0.0
49	0x00000000	0.0
50	0x00000000	0.0
51	0x00000000	0.0
52	0x00000000	0.0
53	0x00000000	0.0
54	0x00000000	0.0
55	0x00000000	0.0
56	0x00000000	0.0
57	0x00000000	0.0
58	0x00000000	0.0
59	0x00000000	0.0
60	0x00000000	0.0
61	0x00000000	0.0
62	0x00000000	0.0
63	0x00000000	0.0
64	0x00000000	0.0
65	0x00000000	0.0
66	0x00000000	0.0
67	0x00000000	0.0
68	0x00000000	0.0
69	0x00000000	0.0
70	0x00000000	0.0
71	0x00000000	0.0
72	0x00000000	0.0
73	0x00000000	0.0
74	0x00000000	0.0
75	0x00000000	0.0
76	0x00000000	0.0
77	0x00000000	0.0
78	0x00000000	0.0
79	0x00000000	0.0
80	0x00000000	0.0
81	0x00000000	0.0
82	0x00000000	0.0
83	0x00000000	0.0
84	0x00000000	0.0
85	0x00000000	0.0
86	0x00000000	0.0
87	0x00000000	0.0
88	0x00000000	0.0
89	0x00000000	0.0
90	0x00000000	0.0
91	0x00000000	0.0
92	0x00000000	0.0
93	0x00000000	0.0
94	0x00000000	0.0
95	0x00000000	0.0
96	0x00000000	0.0
97	0x00000000	0.0
98	0x00000000	0.0
99	0x00000000	0.0
100	0x00000000	0.0
101	0x00000000	0.0
102	0x00000000	0.0
103	0x00000000	0.0
104	0x00000000	0.0
105	0x00000000	0.0
106	0x00000000	0.0
107	0x00000000	0.0
108	0x00000000	0.0
109	0x00000000	0.0
110	0x00000000	0.0
111	0x00000000	0.0
112	0x00000000	0.0
113	0x00000000	0.0
114	0x00000000	0.0
115	0x00000000	0.0
116	0x00000000	0.0
117	0x00000000	0.0
118	0x00000000	0.0
119	0x00000000	0.0
120	0x00000000	0.0
121	0x00000000	0.0
122	0x00000000	0.0
123	0x00000000	0.0
124	0x00000000	0.0
125	0x00000000	0.0
126	0x00000000	0.0
127	0x00000000	0.0
