Lab4/models/gan_models/vbn_wgan_30e_250b_dis.pth (torch, 398261 bytes, 15 tensors)

model.0.weight f4 [16, 3, 3, 3]
0	0x3d4aa799	0.04947624
1	0xbd929290	-0.07156861
2	0x3d016ebd	0.03159975
3	0xbe233313	-0.15937452
4	0xbcf047cc	-0.02933111
5	0x3cfe4740	0.031039834
6	0x3cc7a8a3	0.024372404
7	0xbe323723	-0.17403845
8	0xbda3bf59	-0.07995481
9	0x3d0d0518	0.034428686
10	0x3c63812d	0.013885778
11	0xbc8c243e	-0.017107125
12	0xbe39079e	-0.18069312
13	0xbdf72d7b	-0.120692216
14	0x3e0e1772	0.13876131
15	0x3c684c99	0.014178419
16	0xbd85a73d	-0.06526039
17	0x3d53e69a	0.05173359
18	0xbe2046c3	-0.15651993
19	0xbda0ac55	-0.0784537
20	0x3dc07f20	0.09399247
21	0xbe12e0d7	-0.14343582
22	0xbbff97ff	-0.007800102
23	0xbd68cd5b	-0.056836467
24	0xbe2503cc	-0.1611473
25	0x3d0f3604	0.034963623
26	0x3cd900c8	0.02648963
27	0xbe1d6a83	-0.15372662
28	0x3e024d43	0.12724786
29	0x3db5cbe3	0.08876779
30	0x3c8cf8cc	0.01720848
31	0x3e0abd16	0.13548693
32	0x3c750113	0.014953869
33	0xba8841e7	-0.0010395617
34	0x3d853571	0.06504334
35	0x3dddd536	0.108316824
36	0xbc97fb0e	-0.01855233
37	0xbe21f114	-0.1581462
38	0xbd1367ce	-0.035987668
39	0xbe0c9b03	-0.13731007
40	0xbd9d5860	-0.07682872
41	0xbe1dc055	-0.154054
42	0xbad5d31b	-0.0016313525
43	0x3e062e40	0.1310358
44	0xba3dd95a	-0.0007242166
45	0x3d1df439	0.038562987
46	0xbdc3eee8	-0.09567052
47	0x3d5618f0	0.052269876
48	0x3daeedc5	0.08541445
49	0xbddf9f92	-0.109191075
50	0xbd5edba2	-0.054408677
51	0xbd5a9d91	-0.053372923
52	0xbdf95fcd	-0.12176476
53	0xbd7f579b	-0.062339406
54	0xbcd657fe	-0.026165005
55	0xbd7c1ac6	-0.06154897
56	0xbde2cc4a	-0.11074121
57	0xbe0bc6fa	-0.13650122
58	0x3e1f46d1	0.15554358
59	0xbe013904	-0.12619406
60	0x3ceba493	0.028764999
61	0x3d9467b8	0.07246345
62	0x3d35a8e4	0.04435052
63	0x3e444109	0.19165434
64	0x3db25e71	0.087094195
65	0x3db9fb5a	0.09081145
66	0xbd8499f2	-0.06474675
67	0xbc942b39	-0.018087016
68	0x3e566473	0.20936756
69	0x3db7698d	0.08955679
70	0xbdbaefc0	-0.0912776
71	0xbdcfce07	-0.101467185
72	0x3c451993	0.012030023
73	0xbe4797c7	-0.19491492
74	0xbbe85c63	-0.0070910915
75	0xbc6dc539	-0.014512354
76	0x3e112315	0.14173539
77	0xbe3936b2	-0.18087271
78	0x3c49e752	0.0123232175
79	0xbd6ef0ba	-0.058335043
80	0x3decbeb3	0.115598105
81	0x3de0b8bd	0.10972736
82	0x3d93f454	0.07224336
83	0xbdafe216	-0.08588044
84	0x3e245d8b	0.16051309
85	0xbe35e89a	-0.17764512
86	0xbd9c04fc	-0.07618138
87	0x3d466238	0.048433512
88	0xbe28cdfc	-0.16484827
89	0x3d2f13f4	0.04274364
90	0xbd4bac1d	-0.049724687
91	0xbe2359e9	-0.15952267
92	0xbd8512d0	-0.06497729
93	0xbd323003	-0.04350282
94	0xbdd24701	-0.10267449
95	0x3e29e353	0.16590624
96	0xbd9fac2d	-0.07796512
97	0x3cde3851	0.027126463
98	0xbb90ee17	-0.004422914
99	0x3db5f76d	0.08885083
100	0xbe37f4db	-0.17964499
101	0x3daf65bc	0.08564326
102	0x3ddb0a4a	0.10695322
103	0xbdfd8d19	-0.12380428
104	0x3b4d2094	0.0031299936
105	0xbdc29638	-0.09501308
106	0xbe09ab8e	-0.13444349
107	0xbd20d7df	-0.03926837
108	0x3e295eef	0.1654012
109	0x3e221d6f	0.1583154
110	0xbe2af2c0	-0.16694164
111	0xbd1b1c7a	-0.037868954
112	0x3dc5e356	0.096625015
113	0x3db8b7ca	0.0901943
114	0x3ddc86b4	0.1076788
115	0x3d917982	0.07103254
116	0xbc7808c6	-0.0151388105
117	0x3e2c115b	0.16803496
118	0x3dd8255b	0.10554
119	0xbe0c95f5	-0.13729079
120	0x3ddf4c88	0.10903269
121	0xbd21a012	-0.039459296
122	0xbe23814b	-0.1596729
123	0xbe1c7f37	-0.15282904
124	0xbddf3807	-0.10899358
125	0xbda4f201	-0.08053971
126	0xbe08a15e	-0.13342807
127	0x3e2b4577	0.16725717
128	0x3e204e0c	0.15654773
129	0x3e0fdae1	0.1404834
130	0x3e1b13a2	0.15144208
131	0xbdbc4ab1	-0.09193934
132	0xbcd1a122	-0.02558953
133	0xbdc40b3f	-0.095724575
134	0xbe3d6744	-0.18496424
135	0xbe34decb	-0.17663114
136	0xbd399e34	-0.04531689
137	0x3cab2696	0.020892423
138	0x3dbd71e7	0.09250241
139	0x3e1ec3d2	0.15504387
140	0xbc330ff4	-0.0109290965
141	0xbe28141e	-0.16413924
142	0xbe14362c	-0.1447379
143	0xbc183be2	-0.009291621
144	0xbdd96c13	-0.10616317
145	0x3d849b78	0.06474966
146	0x3dbe755c	0.09299728
147	0xbe0c9afd	-0.13730998
148	0x3e103ac5	0.14084919
149	0xbb926a4c	-0.004468238
150	0xbe4d590f	-0.20053504
151	0x3cb16387	0.021653904
152	0x3d8891b3	0.06668415
153	0xbd8c418f	-0.06848442
154	0xbd923f3d	-0.07140968
155	0x3dfac8a9	0.12245304
156	0x3e062691	0.1310065
157	0xbe0c5c0a	-0.13706985
158	0x3dd4fb79	0.10399527
159	0xbd4ea2ce	-0.05044823
160	0xbdd345d3	-0.10316052
161	0x3d2fc7d1	0.04291517
162	0x3dc75748	0.097334445
163	0x3e215f1b	0.15758936
164	0xbe3a3245	-0.18183239
165	0x3de3a394	0.111151844
166	0xbdc63d33	-0.096796416
167	0x3e363268	0.17792666
168	0x3ddbd2e7	0.10733586
169	0xbe382983	-0.17984585
170	0xbdd1946c	-0.10233387
171	0x3c558471	0.013032065
172	0x3e0c69fe	0.13712308
173	0xbe09bd09	-0.13451017
174	0xbe3976e1	-0.18111755
175	0xbe38cc12	-0.18046597
176	0xbe2df464	-0.16987759
177	0xbe0c92c0	-0.13727856
178	0xbda54826	-0.08070402
179	0x3ce1f6b6	0.027583461
180	0x3c8073d5	0.015680233
181	0x3d8b8753	0.068129204
182	0xbabbcdff	-0.0014328359
183	0xbdd10b49	-0.102072306
184	0xbd80c319	-0.06287212
185	0xbd0c6020	-0.03427136
186	0x3e2feffe	0.17181394
187	0x3ddefbaa	0.10887845
188	0xbe34ea82	-0.17667583
189	0x3e267518	0.16255605
190	0x3dda5c6f	0.106621616
191	0xbc4c5199	-0.012470626
192	0xbb54e650	-0.003248591
193	0xbd05a6b0	-0.03262967
194	0xbcb9d343	-0.022683745
195	0xbd843412	-0.06455244
196	0xbe401878	-0.18759334
197	0xbb6a5f44	-0.003576235
198	0x3e398241	0.18116094
199	0x3dc95978	0.09831518
200	0xbd706587	-0.058690574
201	0x3dda1623	0.106487535
202	0xbdce385f	-0.10069346
203	0x3bf58126	0.0074922023
204	0x3e121001	0.14263918
205	0x3dc5f8b6	0.096665785
206	0xbe28637c	-0.164442
207	0x3c7425ea	0.014901618
208	0xbd17fa7c	-0.037104115
209	0x3e3b06d9	0.18264331
210	0x3d786d00	0.060650826
211	0xbd8ce4f8	-0.0687961
212	0x3b525d47	0.0032099055
213	0xbdcc2adc	-0.09969112
214	0x3db12f5d	0.08651612
215	0xbe43abc0	-0.19108486
216	0xbbbebfc5	-0.0058212006
217	0xbe144a34	-0.14481431
218	0xbe3bc557	-0.18336998
219	0xbb11c504	-0.0022242675
220	0xbe1dc2bc	-0.15406317
221	0xbde36e1e	-0.111049876
222	0xbdabe668	-0.08393556
223	0x3dced45d	0.10099099
224	0xbd8ca94d	-0.06868229
225	0xbd960c6c	-0.07326588
226	0x3d587fdc	0.05285631
227	0xbd2f28f2	-0.042763658
228	0x3e064899	0.13113631
229	0x3dfb66d4	0.12275472
230	0xbc3ab9c8	-0.011396833
231	0xbd5fcdac	-0.054639503
232	0x3c9e1a07	0.01929952
233	0xbd9c4d6a	-0.07631953
234	0xbe1475c3	-0.14498048
235	0x3d1954bd	0.03743433
236	0xba1c4fcf	-0.000596282
237	0xbcc55f80	-0.02409339
238	0x3db3c3f3	0.08777609
239	0x3e0a35e6	0.13497123
240	0xbce85389	-0.028360145
241	0xbc6e86b0	-0.014558479
242	0x3de237c9	0.110457964
243	0x3c90c7e4	0.01767344
244	0xbda057ad	-0.07829223
245	0x3e2ff828	0.17184508
246	0x3dc45a62	0.09587552
247	0x3d1d4c35	0.038402755
248	0xbd67bb57	-0.056575146
249	0xbdaedc7b	-0.08538147
250	0xbd3bc0a0	-0.045838
251	0x3c97488e	0.018467214
252	0xbd1f39ae	-0.038873367
253	0xbe3e2b1a	-0.1857113
254	0x3e230dc5	0.15923221
255	0x3db15113	0.08658042

model.0.bias f4 [16]
0	0x3d2e2ae6	0.04252138
1	0xbaddd41d	-0.0016924177
2	0x3d09baef	0.03362554
3	0x3db4b228	0.08823043
4	0xbca77cdb	-0.020445278
5	0xbd56b112	-0.05241496
6	0xbe309622	-0.17244771
7	0xbe3f5117	-0.18683277
8	0x3e49cd9a	0.19707337
9	0x3e2b90c5	0.16754444
10	0xbdcba112	-0.09942831
11	0x3dc54454	0.09632173
12	0xbdf40325	-0.11914662
13	0x3c53100d	0.012882245
14	0x3e481c1e	0.19541976
15	0xbdb8ccf4	-0.09023467

model.2.weight f4 [32, 16, 3, 3]
0	0xbd1f4b8a	-0.0388904
1	0xbd16187c	-0.036644444
2	0xbd1d5efe	-0.03842067
3	0xbc8e66f4	-0.017383076
4	0xbdaada9d	-0.083424784
5	0x3d22cdfb	0.03974722
6	0x3d8b4dbf	0.06801938
7	0xbd64170b	-0.055686038
8	0x3be7ae54	0.007070342
9	0x3b43136f	0.0029766222
10	0xbdad741b	-0.08469411
11	0x3b474d2e	0.0030410993
12	0x3c5cda36	0.01347976
13	0x3cc64cdf	0.024206577
14	0xbcbcb3a4	-0.023034878
15	0x3c56cde8	0.013110615
16	0xbc6df83a	-0.014524514
17	0xbcc729aa	-0.02431186
18	0x3d83b13b	0.064302884
19	0x3cda2226	0.026627611
20	0x3cbf51b1	0.023354383
21	0x3cecf3fe	0.028924938
22	0xbbd29791	-0.0064267595
23	0xbd09fc82	-0.033688076
24	0x3d2938fc	0.04131411
25	0xbd86de01	-0.06585313
26	0x3cdb07ef	0.026737181
27	0xbd9e4ccf	-0.07729494
28	0xbd7c5bf2	-0.061611123
29	0xbd404350	-0.046939194
30	0xbd854c73	-0.06508722
31	0xbd8b1c02	-0.067924514
32	0x3c09ad5b	0.008403148
33	0xbd186595	-0.03720625
34	0x3bf52beb	0.007482042
35	0xbd5db8f5	-0.054131467
36	0xbcc0e909	-0.02354862
37	0xbd877dd6	-0.06615798
38	0x3ce0c08a	0.02743556
39	0xbc3aef34	-0.0114095695
40	0xbdbdfa63	-0.09276273
41	0x3c0a61c9	0.008446165
42	0xbd0daeb6	-0.034590445
43	0x3c1fe928	0.009760179
44	0xbd2cf714	-0.04222782
45	0xbcf0fe06	-0.029418003
46	0x3d520a56	0.05127939
47	0x3d867181	0.06564618
48	0xbcb539a0	-0.022122204
49	0x3d4a3f5b	0.049376827
50	0xbd842301	-0.06451989
51	0x3d697f24	0.057006016
52	0xbd81a080	-0.06329441
53	0x3c8a5db2	0.01689038
54	0xbd653a58	-0.055963844
55	0xbc89936b	-0.016793927
56	0x3d651f39	0.05593798
57	0xbd5e73f2	-0.054309793
58	0x3d743836	0.05962392
59	0x3bfe56dc	0.0077618193
60	0xbccb98f0	-0.0248532
61	0x3d7c1dd0	0.06155187
62	0x3c8a794d	0.016903544
63	0xbd82ea94	-0.063923985
64	0x3cf64beb	0.030065497
65	0x3da7df34	0.081968695
66	0xbb8a7b59	-0.00422613
67	0x3cfdf68d	0.031001354
68	0x3d6e54e7	0.058186438
69	0x3da9dc1f	0.08293938
70	0xbc957ba7	-0.018247439
71	0x3d43f8dd	0.047844756
72	0x3c237632	0.00997691
73	0xbd577050	-0.052597344
74	0xbcf78a64	-0.030217357
75	0x3d176719	0.036963556
76	0x3d803cda	0.062616065
77	0xbdb71cb3	-0.08941021
78	0x3c2b0241	0.010437549
79	0xbd64a570	-0.055821836
80	0xbc992f26	-0.01869924
81	0xbd6ce491	-0.057835165
82	0xba92fbb8	-0.0011213934
83	0xbdba6f15	-0.091032185
84	0xbd7f2515	-0.062291224
85	0x3d5a9dab	0.05337302
86	0xbb023d6f	-0.0019873043
87	0xbd91e19d	-0.071231104
88	0x3d6f19b4	0.05837412
89	0xbd456f56	-0.04820188
90	0x3c8caf83	0.017173534
91	0x3c0a4fec	0.008441906
92	0xbca712e2	-0.020394746
93	0x3d0f44e6	0.034977816
94	0x3bc2e0bd	0.005947201
95	0xbd8ed011	-0.06973279
96	0x3baedf48	0.005336676
97	0xbd0fee6d	-0.03513949
98	0x3ce91570	0.028452605
99	0x3d0b8d0c	0.03407006
100	0xbd9ee572	-0.07758607
101	0xbcec1e98	-0.028823182
102	0x3ca2f453	0.019891893
103	0xbd7ec0cc	-0.062195584
104	0x3d08950f	0.03334528
105	0xbdaa0e24	-0.08303478
106	0xbd22843e	-0.039676897
107	0xbda51055	-0.08059756
108	0xbbd8d782	-0.0066174874
109	0x3c85e1c9	0.016343014
110	0x3d80146c	0.06253895
111	0xbd0d653b	-0.03452037
112	0x3bf7966c	0.0075557735
113	0x3c8b3a8c	0.01699569
114	0x3d71242c	0.058872387
115	0x3b91f1f9	0.004453894
116	0x3c17698e	0.009241475
117	0xbce48bf1	-0.02789876
118	0xbcfe87c3	-0.031070596
119	0xbda42f1e	-0.080167994
120	0x3c70ecb3	0.014704871
121	0x3d959b24	0.07304981
122	0xbcdd8b67	-0.027044011
123	0xbd9e19f0	-0.07719791
124	0x3b972824	0.0046129394
125	0x3d401a52	0.0469001
126	0xbc87f7a5	-0.016597578
127	0xbd1d375d	-0.038382877
128	0xbc9c2d5d	-0.0190646
129	0x3d96e7c9	0.07368428
130	0x3c52b192	0.012859719
131	0xbd45f412	-0.048328467
132	0x3d8c8619	0.068615146
133	0xbd968851	-0.07350219
134	0xbcd43fd8	-0.02590935
135	0xbc26fac0	-0.010191619
136	0x3dab1b66	0.08354835
137	0x3d33f906	0.04393866
138	0x3ca9fbf3	0.020750022
139	0xbd8bf424	-0.068336755
140	0xbc2e34d4	-0.010632712
141	0x3d949887	0.07255655
142	0x3d3b0668	0.045660406
143	0xbd5cfa94	-0.053949907
144	0xbd806f8f	-0.06271278
145	0x3dac865a	0.08424063
146	0x3d119901	0.035546307
147	0x3cc35003	0.023841863
148	0x3d9fadf9	0.077968545
149	0x3d8a6550	0.06757605
150	0xb9309268	-0.00016839209
151	0xbceac7f0	-0.02865979
152	0xbc8aea19	-0.01695733
153	0xbc8f2596	-0.017473977
154	0xbc613934	-0.013746548
155	0x3d08da54	0.03341134
156	0xbd915e27	-0.07098036
157	0xbd166261	-0.036714915
158	0x3d04ca99	0.032419775
159	0x3cdf5570	0.02726242
160	0xbd36faf9	-0.04467294
161	0xbd41b239	-0.047289107
162	0x3c0fa2ee	0.008766873
163	0x3cece16f	0.028916089
164	0xbd6f6ce6	-0.058453463
165	0x3cf53dbc	0.029936664
166	0x3d87cdb2	0.0663103
167	0x3c37de4d	0.011222434
168	0xbd27afef	-0.040939268
169	0x3cbfc6d9	0.023410248
170	0x3c8ebc9d	0.017423922
171	0xbcf4635f	-0.02983254
172	0x3c4fa2fa	0.012673134
173	0xbc8d72d4	-0.017266668
174	0xbd77e44f	-0.060520466
175	0x3d246775	0.040137727
176	0x3d6aa80a	0.05728916
177	0xbd3d5f25	-0.046233315
178	0x3d8b494f	0.06801092
179	0x3cc141f2	0.023591015
180	0xbbe67313	-0.007032761
181	0xbc777aca	-0.015104959
182	0x3a6c424a	0.00090125634
183	0x3b8181be	0.003952234
184	0xbd27cb39	-0.040965293
185	0x3d3c7c68	0.04601708
186	0xbc827fe4	-0.015930124
187	0xbd40890b	-0.047005694
188	0xbc9096cd	-0.017650032
189	0xbd6f2066	-0.058380507
190	0xbd80b646	-0.06284766
191	0x3d9e99d1	0.07744182
192	0xbc9f94f5	-0.019480208
193	0xbd8c5f80	-0.06854153
194	0xbda0ab98	-0.07845229
195	0xbd2e21be	-0.042512648
196	0xbdb2ad76	-0.08724491
197	0xbd1d20eb	-0.03836147
198	0xbd54d0a4	-0.051956788
199	0xbc68e14f	-0.014213874
200	0x3c855fc6	0.01628102
201	0xbd48966f	-0.04897159
202	0x3d439db8	0.047757834
203	0xbbcd6335	-0.00626793
204	0x3d338006	0.043823265
205	0xbd2743ee	-0.040836267
206	0x3d5e2ac1	0.054239992
207	0x3cbf76a0	0.023371994
208	0xbda0c397	-0.07849806
209	0xbd10d84f	-0.035362538
210	0x3d4f9ccc	0.050686643
211	0x3d04963d	0.03236984
212	0x3cc45263	0.023965066
213	0xbbf6ff24	-0.0075377394
214	0xbd2d21ed	-0.042268682
215	0xbda113c7	-0.078651
216	0x3af55844	0.0018718322
217	0x3d364bc0	0.044505835
218	0x3b1cccc6	0.0023925765
219	0x3d47d894	0.04879053
220	0x3c22d4e7	0.009938455
221	0x3d67622b	0.056490105
222	0x3d04ce6d	0.032423425
223	0x3d6abc1e	0.05730831
224	0xbaddcc39	-0.0016921825
225	0x3cf93ce2	0.030424539
226	0x3cd71a50	0.026257664
227	0x3cbc63cb	0.022996804
228	0xbcb65c54	-0.022260822
229	0x3c566400	0.013085365
230	0xbd379458	-0.044819206
231	0xbd336666	-0.043798827
232	0x3c80290d	0.015644575
233	0x3cfefd3d	0.031126613
234	0x3d8422a5	0.064519204
235	0xbcd279f7	-0.025692923
236	0xbcc04d4b	-0.023474356
237	0xbd3ccb0d	-0.04609208
238	0xbd0c6919	-0.034279916
239	0x3dbc98c7	0.092088275
240	0x3d78dcd2	0.060757466
241	0xbd273785	-0.040824432
242	0xbd66e404	-0.056369796
243	0x3c4f42fa	0.012650246
244	0x3cca3e56	0.024687927
245	0xbd965eac	-0.07342276
246	0x3da9a5e4	0.08283594
247	0x3d2d1a6f	0.042261537
248	0x3c1c288b	0.009531151
249	0x3d9fcd07	0.07802778
250	0xbd53b5ae	-0.051686935
251	0x3b987b14	0.004653344
252	0x3bfa6bbf	0.007642239
253	0x3d098126	0.03357043
254	0xbd87f0bf	-0.066377155
255	0xbc0f86f6	-0.008760205

model.2.bias f4 [32]
0	0xbd8f19c7	-0.069873385
1	0x3d4ce7df	0.050025817
2	0xbd97eccb	-0.074182115
3	0xbaba8625	-0.0014230652
4	0xbcd221be	-0.025650855
5	0x3d9fbb10	0.07799351
6	0x3c984148	0.018585816
7	0x3d42f2aa	0.047594704
8	0x3cc58cca	0.024114985
9	0xbd23e419	-0.040012453
10	0xbd7218d0	-0.059105694
11	0x3d0c1b3e	0.034205668
12	0x3db84085	0.08996681
13	0xbc910ff7	-0.017707808
14	0xbd5a5494	-0.053303316
15	0x3c3880d2	0.011261182
16	0x3d9d7525	0.07688359
17	0xbd94659d	-0.07245944
18	0x3d7de65e	0.061987273
19	0xbda9a71d	-0.082838275
20	0x3c37a0ad	0.011207742
21	0xbd03842c	-0.03210847
22	0x3d0ab2fb	0.033862095
23	0x3d78454f	0.060612973
24	0xbd337808	-0.043815643
25	0xbd32ce9e	-0.043654077
26	0xbbab325c	-0.005224509
27	0x3cf732ee	0.030175652
28	0x3c8561cd	0.016281987
29	0x3cff68c8	0.031177893
30	0x3b23b736	0.0024981028
31	0xbcf8161c	-0.03028398

model.4.weight f4 [32]
0	0x3f80cfc3	1.0063404
1	0x3f80b79a	1.0056031
2	0x3f816dd2	1.011164
3	0x3f7ddb38	0.99162626
4	0x3f81f0f3	1.0151657
5	0x3f8028ff	1.0012511
6	0x3f7d706b	0.9899966
7	0x3f806988	1.0032206
8	0x3f7fda92	0.99942887
9	0x3f80046d	1.0001351
10	0x3f7e5b28	0.99357843
11	0x3f7ebf9d	0.9951113
12	0x3f7d4998	0.9894042
13	0x3f8123a1	1.0088998
14	0x3f80ae0f	1.0053118
15	0x3f7f34de	0.99690044
16	0x3f80931b	1.0044893
17	0x3f808f41	1.0043718
18	0x3f7f9bb3	0.99846953
19	0x3f801869	1.0007449
20	0x3f7bdf69	0.9838777
21	0x3f80b1a1	1.0054208
22	0x3f8033a0	1.0015755
23	0x3f807314	1.0035119
24	0x3f80d70e	1.006563
25	0x3f80e885	1.0070959
26	0x3f7c2704	0.98497033
27	0x3f7fbbb0	0.99895763
28	0x3f7eeb65	0.99577934
29	0x3f7da8b8	0.9908557
30	0x3f7ff34a	0.99980605
31	0x3f810264	1.0078855

model.4.bias f4 [32]
0	0xbbd282a3	-0.0064242645
1	0x3ba51c72	0.0050387913
2	0xbb18ecee	-0.002333458
3	0x3a45a3e9	0.0007539378
4	0xbbc7d272	-0.006098085
5	0x3b59cb8f	0.0033232903
6	0x39dfb948	0.0004267192
7	0x3a6d0c7b	0.0009042692
8	0x3b830e39	0.003999498
9	0x3bd3f711	0.0064686616
10	0x3b95f8ac	0.004576763
11	0x3c09bb36	0.008406451
12	0x3bd93485	0.0066285753
13	0xbb996132	-0.004680776
14	0xbb0ebd28	-0.0021780226
15	0xba83f207	-0.0010066637
16	0x3b52fe09	0.0032194874
17	0xba9b0778	-0.0011827787
18	0x3b44d252	0.0030032587
19	0xbb5c5042	-0.0033617173
20	0xbc075854	-0.008260805
21	0xbb0f4b69	-0.0021865016
22	0xbacf79f9	-0.0015829197
23	0xbb9129f5	-0.0044300505
24	0xbb2a6747	-0.00260015
25	0xbb727475	-0.0036995683
26	0x3b98cbdb	0.0046629733
27	0xbb1611eb	-0.0022898864
28	0x3ab339f9	0.0013673893
29	0x3b443492	0.002993856
30	0x3b87e53c	0.0041472
31	0xbb808c25	-0.0039229565

model.5.weight f4 [64, 32, 3, 3]
0	0x3cd7d039	0.026344405
1	0xbaafc886	-0.0013411201
2	0xbd374455	-0.0447429
3	0x3ce85768	0.028361991
4	0x3d3ef0ed	0.046616483
5	0x3d21447d	0.039371956
6	0xbb7856aa	-0.0037893453
7	0xbd1b31d1	-0.037889306
8	0x3d47530e	0.04866319
9	0x3d4ea91e	0.05045425
10	0xbd60f670	-0.05492252
11	0xbca890c7	-0.020576848
12	0xbc943d8c	-0.018095754
13	0x3d3097bb	0.04311345
14	0x3c673bc4	0.01411337
15	0xbc242818	-0.010019325
16	0xbc92eacd	-0.017934227
17	0x3b2cc40e	0.0026361975
18	0xbd65257d	-0.055943955
19	0x3cc85441	0.024454238
20	0xbc847a0a	-0.016171474
21	0xbc92e053	-0.017929232
22	0x3c82031d	0.015870625
23	0xbc8f09fc	-0.017460816
24	0xbd507670	-0.0508942
25	0xbcbde03a	-0.023178209
26	0xbab88a83	-0.0014079366
27	0xbd07a4d8	-0.03311619
28	0x3d7a6324	0.061129704
29	0x3d19aa35	0.037515838
30	0xbd4cbaad	-0.049982715
31	0xbd432695	-0.047644217
32	0xbd6682ed	-0.056277204
33	0x3d38db4d	0.045131017
34	0xbbc7674c	-0.006085312
35	0xbc20a128	-0.009804048
36	0xbd0a18cd	-0.033715058
37	0xbd0d0cac	-0.034435913
38	0x3a816d48	0.0009874487
39	0x3abcc1f1	0.0014401061
40	0x3d2866e3	0.041113745
41	0x3c407a8d	0.011747968
42	0x3cde9efc	0.027175419
43	0xbc987fe6	-0.018615674
44	0xbc2bc4c8	-0.010483928
45	0x3d59b4e5	0.05315103
46	0xbc7661df	-0.015037983
47	0x3b405dce	0.0029352787
48	0x3c8b72a5	0.01702244
49	0xb8ad2fe9	-8.258207e-05
50	0xbc12c224	-0.00895742
51	0xbc27a7c9	-0.010232874
52	0x3d0dc59c	0.034612283
53	0xbcaf9182	-0.021431688
54	0xbd6bd119	-0.057572458
55	0x3d3c630e	0.045992903
56	0xbd1504f5	-0.03638168
57	0x3d77447e	0.060368054
58	0x3c62a7e3	0.013833973
59	0x3c878c6f	0.016546456
60	0x3bec61f8	0.007213827
61	0xbcd31816	-0.025768321
62	0xba0fee7d	-0.00054905546
63	0x3d1084d9	0.035282943
64	0xbc41fa74	-0.011839498
65	0xbc89458f	-0.016756801
66	0xbd4e1477	-0.050312486
67	0x3cf0a00e	0.029373195
68	0x3d56feb5	0.052489
69	0xbc8edbb0	-0.01743874
70	0x3d1c7972	0.038201757
71	0x3d0b1b18	0.033961385
72	0x3c3dd6f2	0.0115868915
73	0x3b3787f3	0.0028004616
74	0x3c915ffe	0.017745968
75	0x3d234cc3	0.039868128
76	0x3a08f462	0.0005224404
77	0xbd13f347	-0.03612068
78	0x3c3b7d99	0.011443519
79	0x3d8a1efb	0.0674419
80	0x3d1f0b80	0.038829327
81	0xbbc50af6	-0.0060132695
82	0x398e3122	0.00027120957
83	0x3c20e496	0.009820124
84	0xbc0ec21e	-0.008713273
85	0xbd327621	-0.043569688
86	0x399ff6ee	0.0003051082
87	0xbc0f762c	-0.008756202
88	0x3d53a99c	0.051675424
89	0x3d59a271	0.05313343
90	0x3d2f07fd	0.042732228
91	0xbd52926f	-0.05140918
92	0xbc8d2105	-0.017227659
93	0x3c17438d	0.009232414
94	0x3cd9565f	0.026530443
95	0x3d350330	0.044192493
96	0x3b702f7c	0.0036649397
97	0x3d7c2389	0.061557326
98	0x3c95c26a	0.01828118
99	0x3d31ca0a	0.04340557
100	0xbd15ee80	-0.036604404
101	0xbd5f6790	-0.054542124
102	0x3d50784f	0.050895985
103	0x3cd9b61a	0.02657609
104	0x3d3e34c4	0.04643704
105	0xbb2fce74	-0.0026825937
106	0x3c56d501	0.0131123075
107	0xbd2d6464	-0.042332068
108	0x3c08ec61	0.008357138
109	0x3d40a5c5	0.04703309
110	0x3b98103e	0.004640608
111	0x3cdc1cec	0.02686926
112	0xbd095acc	-0.033533856
113	0x3c1eace9	0.00968478
114	0xbcdca59f	-0.026934443
115	0xbbd3adb8	-0.006459918
116	0x3ce82b53	0.028340971
117	0xbd47408b	-0.048645537
118	0xbc75bc5c	-0.014998522
119	0x3c288adb	0.010287012
120	0xbb57620b	-0.0032864835
121	0x3d1ff0a6	0.03904786
122	0xbcc32bcc	-0.023824595
123	0x3d368161	0.04455698
124	0x3c271520	0.010197908
125	0xbd3e2e59	-0.04643092
126	0xbce26ed9	-0.027640747
127	0xbb98ab90	-0.0046591237
128	0xbbab5da1	-0.0052296673
129	0xbd728916	-0.059212767
130	0x3946d300	0.00018961355
131	0x3bcc76ab	0.0062397323
132	0xbd6b6516	-0.05746945
133	0xbc65bc4f	-0.014021947
134	0x3d13a4c2	0.036045797
135	0xbd07c44f	-0.0331462
136	0x3d00a329	0.0314056
137	0x3d753551	0.0598653
138	0x3d066ec8	0.032820493
139	0x3d8e8393	0.069586895
140	0x3d0d024f	0.03442603
141	0xbccc00f5	-0.0249028
142	0xbd18a552	-0.037267037
143	0x3c1604b2	0.009156393
144	0xbd24769e	-0.040152185
145	0xbd5aa212	-0.05337722
146	0x3cc23cea	0.023710687
147	0x3d8d7772	0.06907548
148	0x3cdc2363	0.026872342
149	0x3d41e2af	0.047335323
150	0xbd0b8cc3	-0.034069788
151	0x3cd28db0	0.025702327
152	0xbd2c5e67	-0.042082217
153	0xbd1f4c8f	-0.03889137
154	0x3cf512a5	0.029916117
155	0xbd18506d	-0.037186075
156	0x3cf34335	0.029695133
157	0xbb551a8e	-0.0032517049
158	0x3d33c22f	0.04388636
159	0x3c528312	0.012848632
160	0xbd83cedc	-0.0643594
161	0x3d26c4be	0.04071497
162	0x3d59a511	0.053135935
163	0xbd2b1f76	-0.04177805
164	0xbd3657eb	-0.04451744
165	0x3d2f8f83	0.042861473
166	0xbc523cec	-0.012831908
167	0x3d5250c1	0.051346544
168	0x3abe0251	0.001449654
169	0x3ca8d391	0.020608695
170	0xbce0dcca	-0.02744903
171	0xbc852904	-0.01625491
172	0x3d1f6f29	0.03892437
173	0x3d282ccb	0.041058343
174	0x3d26315f	0.040574428
175	0x3bb9a90e	0.005665905
176	0xbd328614	-0.043584898
177	0x3cfb6823	0.030689305
178	0xbc9edcb0	-0.019392341
179	0xbc562448	-0.013070174
180	0x3d57a415	0.052646715
181	0xbcd8d292	-0.026467595
182	0x3ce8041b	0.02832227
183	0x3c44500f	0.011981978
184	0x3d24297f	0.040078636
185	0xbd44fb6f	-0.04809135
186	0xbb89068c	-0.0041816887
187	0xbc5b8b70	-0.013399944
188	0x3c33c284	0.010971669
189	0x3d06dd07	0.03292563
190	0xba87ab30	-0.00103507
191	0xbbc9d59d	-0.006159498
192	0x3d2c7f0c	0.04211335
193	0x3ce0126e	0.027352538
194	0x3d186b54	0.03721173
195	0x3c5958de	0.0132658165
196	0xbc190ad6	-0.009340962
197	0xbb31cf0c	-0.0027131466
198	0x3cfeb64d	0.031092787
199	0xbc6f5861	-0.0146084735
200	0xbd43cbbe	-0.047801726
201	0xbc43fc2d	-0.011961979
202	0x3c43b913	0.011945981
203	0xbd0116ee	-0.031516008
204	0x3cd52507	0.026018633
205	0xbd073b4a	-0.033015527
206	0x3d3f1e38	0.04665968
207	0xbd019d76	-0.031644307
208	0x3c5cc86a	0.013475517
209	0x3d10a5d6	0.035314403
210	0xbce5fe0a	-0.028075237
211	0x3d0d0802	0.034431465
212	0xbd83332d	-0.064062454
213	0x3bab2bb7	0.005223717
214	0xbd3ad286	-0.045610927
215	0xbd5a2a0b	-0.05326275
216	0xbd483dc3	-0.048887026
217	0x3cf01584	0.029307134
218	0xbd26bf54	-0.04070981
219	0xbd30a4e1	-0.04312599
220	0x3d6c2e16	0.05766114
221	0xbd060f67	-0.032729533
222	0xbb2feadc	-0.0026842868
223	0xbc7a3e90	-0.015273705
224	0xbd356288	-0.04428342
225	0xbd176899	-0.036964986
226	0x3d276f28	0.04087749
227	0x3c6ebc9f	0.014571338
228	0xbd11fbc6	-0.0356405
229	0x3cdcf389	0.026971595
230	0xbcdfb55b	-0.027308157
231	0xbd63da8d	-0.05562835
232	0xbb8a84b7	-0.0042272466
233	0x3cb1a933	0.021687126
234	0x3d5f1457	0.054462757
235	0x3cbaf584	0.02282215
236	0xbcd4b935	-0.02596722
237	0xbcbd3ee7	-0.023101283
238	0x3d202dbc	0.039106116
239	0xbcead35a	-0.028665233
240	0xbce60ac9	-0.028081315
241	0x3c26ad45	0.010173147
242	0x3d356e4d	0.044294644
243	0x3c599dfa	0.013282293
244	0xbba98af9	-0.0051740375
245	0xbd60b4b8	-0.054859847
246	0xbccf59b7	-0.025311334
247	0x3d4010d5	0.046891052
248	0x3b06e0ff	0.0020580885
249	0xbc842a84	-0.016133554
250	0x3b7746ae	0.0037731337
251	0xbcc0f6a5	-0.02355511
252	0xbcba2998	-0.022724912
253	0x3d0baae4	0.03409852
254	0xbbc97084	-0.006147446
255	0x3d10e35c	0.035373077

model.5.bias f4 [64]
0	0x3d388869	0.045051966
1	0x3b8582e5	0.0040744417
2	0xbd22dbf4	-0.039760545
3	0x3d33eca7	0.04392686
4	0xbc859c0a	-0.016309757
5	0x3d4b555f	0.049641963
6	0x3cb6cf46	0.022315633
7	0xbc8900db	-0.01672404
8	0xbd300ec7	-0.042982843
9	0xbcacac2f	-0.021078197
10	0x3bdcbc21	0.006736294
11	0xbd320cbc	-0.043469176
12	0x3bbc95a7	0.0057551446
13	0xbc8b6481	-0.017015697
14	0xbd418c71	-0.047253076
15	0x3d3fa2fc	0.046786293
16	0x3d175b13	0.03695209
17	0x3c0770e2	0.008266659
18	0x3d331c39	0.043728087
19	0x3d68739a	0.05675087
20	0x3c9fff28	0.019530848
21	0x3d0083d7	0.031375732
22	0xbd1e3603	-0.03862573
23	0x3d1c1ed7	0.03811535
24	0xbd353ae5	-0.04424562
25	0x3b5f912f	0.0034113636
26	0xbc874cb6	-0.01651607
27	0x3d451281	0.04811335
28	0xbd0a4b4f	-0.033763226
29	0x3cabf2c5	0.020989785
30	0x3c5c5ea8	0.013450302
31	0x3c8e2f59	0.017356561
32	0x3d085856	0.03328737
33	0x3c997d4f	0.01873651
34	0xbc430fe9	-0.011905649
35	0x3c9f8a1d	0.019475037
36	0xbc935235	-0.017983535
37	0x3aa1df45	0.0012349865
38	0x3d7d37fa	0.06182096
39	0x3d3e8cc7	0.046520974
40	0xbcdb0808	-0.026737228
41	0xbd371227	-0.044695046
42	0x3cc61a84	0.024182566
43	0x3bcea3ba	0.006306139
44	0x3d690c55	0.056896526
45	0xbcba5766	-0.022746753
46	0xbcb513a6	-0.022104096
47	0x3cf3fac2	0.029782657
48	0xbc909ad7	-0.017651958
49	0xbc901bd4	-0.017591394
50	0x3b4c710a	0.0031195306
51	0x3be28a71	0.006913476
52	0x3d32a1ec	0.043611452
53	0xbce68e57	-0.028144045
54	0xbca58f19	-0.020209836
55	0xbc885888	-0.016643777
56	0xbd275c79	-0.040859673
57	0xbd50e16e	-0.050996237
58	0x3cbea0ef	0.023270098
59	0xbc741a08	-0.014898784
60	0x3d655bcd	0.05599575
61	0x3d01c064	0.03167762
62	0x3cb1993c	0.021679513
63	0xbbc7e709	-0.0061005396

model.7.weight f4 [64]
0	0x3f806f3f	1.003395
1	0x3f803ce8	1.0018587
2	0x3f8143e9	1.009885
3	0x3f80098d	1.0002915
4	0x3f81e7e0	1.0148888
5	0x3f8005d3	1.0001777
6	0x3f80b321	1.0054666
7	0x3f800eb4	1.0004487
8	0x3f805252	1.0025122
9	0x3f7ecc0d	0.99530107
10	0x3f808bc4	1.0042653
11	0x3f802300	1.0010681
12	0x3f8030a5	1.0014845
13	0x3f7f52a9	0.99735504
14	0x3f809757	1.0046185
15	0x3f80699d	1.0032231
16	0x3f80fef0	1.0077801
17	0x3f7f6c37	0.997745
18	0x3f7f7139	0.9978214
19	0x3f7f0aa0	0.9962559
20	0x3f806a81	1.0032502
21	0x3f80c426	1.005986
22	0x3f8037c2	1.0017016
23	0x3f8085bb	1.0040811
24	0x3f7f9afc	0.9984586
25	0x3f7fd368	0.99931955
26	0x3f807e34	1.0038514
27	0x3f80924b	1.0044645
28	0x3f805974	1.0027299
29	0x3f80dec6	1.0067985
30	0x3f7eca0c	0.9952705
31	0x3f8023eb	1.0010961
32	0x3f80cd28	1.0062609
33	0x3f7f91a3	0.998316
34	0x3f809bde	1.0047567
35	0x3f803be1	1.0018274
36	0x3f80f490	1.0074635
37	0x3f7f9906	0.9984287
38	0x3f801b92	1.0008414
39	0x3f7fbce1	0.9989758
40	0x3f7fe906	0.9996494
41	0x3f7f595b	0.9974572
42	0x3f7f64f4	0.9976342
43	0x3f80147c	1.0006251
44	0x3f7e94fc	0.9944608
45	0x3f805752	1.0026648
46	0x3f7f8c80	0.9982376
47	0x3f7fa65b	0.99863213
48	0x3f7f3354	0.99687696
49	0x3f7fd722	0.9993764
50	0x3f7e1211	0.9924632
51	0x3f8003ae	1.0001123
52	0x3f7ec06a	0.9951235
53	0x3f815d38	1.0106573
54	0x3f7f0999	0.9962402
55	0x3f80bf36	1.0058353
56	0x3f800e58	1.0004377
57	0x3f80d0f0	1.0063763
58	0x3f8069c5	1.0032278
59	0x3f7dbfaa	0.9912058
60	0x3f7f8d6c	0.9982517
61	0x3f805bb4	1.0027986
62	0x3f80701b	1.0034212
63	0x3f7fde4d	0.9994858

model.7.bias f4 [64]
0	0xbaa5e49f	-0.0012656635
1	0xbbf8e0c0	-0.0075951517
2	0xbba43998	-0.0050117485
3	0xbaa9b6e8	-0.0012948187
4	0x3ac6ff17	0.0015182224
5	0xbb36f6f8	-0.00279182
6	0xbb9b6412	-0.004742154
7	0xba8727b7	-0.0010311519
8	0xbb7f7a32	-0.0038982746
9	0xba9dd5ec	-0.0012041903
10	0x3ac14f41	0.0014748351
11	0x3a2f6bcd	0.0006691784
12	0xbb1bd2c5	-0.0023776751
13	0xba432567	-0.0007444233
14	0xbbae7509	-0.0053240103
15	0x3b8beadc	0.004269941
16	0xba83af59	-0.0010046765
17	0x3add9ded	0.0016908027
18	0xbb58b3cf	-0.0033066159
19	0xbb081efa	-0.0020770417
20	0xba906697	-0.0011016902
21	0xba3cde3d	-0.0007204747
22	0xbc0f9483	-0.008763435
23	0xbbace2d9	-0.005276066
24	0x3a24edfd	0.00062915665
25	0xbb06622b	-0.002050529
26	0xbb08e532	-0.0020888564
27	0xbb923249	-0.004461561
28	0xb9a04d1e	-0.00030575035
29	0x3ad5a10a	0.0016298604
30	0x3a3a9f69	0.0007119091
31	0xb98f65f7	-0.00027351055
32	0x3ac8535f	0.0015283636
33	0xbb2be926	-0.0026231497
34	0xba50b058	-0.00079608476
35	0xba65f30f	-0.00087718753
36	0xbba8acb2	-0.00514754
37	0x3b79fa3a	0.0038143531
38	0x3b239933	0.002496314
39	0xbb646802	-0.0034852033
40	0xbbc8b4f7	-0.0061250883
41	0x3b3dd2f1	0.0028964842
42	0xba84ed8e	-0.0010141598
43	0x3aa85e64	0.0012845513
44	0xbab09cac	-0.0013474426
45	0xb96a553d	-0.00022347733
46	0x3b356f4d	0.0027684749
47	0xbaf9e1fd	-0.0019064542
48	0xbb8dd167	-0.004327941
49	0xbab7eb9b	-0.0014032008
50	0xbb918960	-0.004441425
51	0x3aac822e	0.0013161355
52	0xbaaaa1f1	-0.0013018233
53	0xb8e6bede	-0.000110028064
54	0xba1c3259	-0.000595843
55	0xbb02056c	-0.0019839657
56	0x3b14ed51	0.002272446
57	0xbb9297b4	-0.004473651
58	0x3b01a5c1	0.0019782635
59	0xbbcb43f8	-0.006203171
60	0xbb927bfd	-0.004470347
61	0xbb1e6538	-0.0024169218
62	0x3a8849e2	0.0010397995
63	0x3a8b41f2	0.0010624512

model.8.weight f4 [128, 64, 3, 3]
0	0x3bc3c93c	0.0059749167
1	0x3c4f6e69	0.012660601
2	0x3b910d24	0.0044266153
3	0x3ba29183	0.004961194
4	0x3ba56f0c	0.005048638
5	0xbc7e9833	-0.015539217
6	0xbd237971	-0.039910737
7	0xbccc488a	-0.024936933
8	0xbc1bf618	-0.009519123
9	0x3ccf0782	0.025272135
10	0x3cf917c2	0.030406836
11	0x3d1c2afc	0.03812693
12	0x3cce48b3	0.02518115
13	0x3c9515b3	0.018198824
14	0xbbdd3097	-0.006750177
15	0x3cd08308	0.025453106
16	0x3b85f38d	0.0040878714
17	0x3cc9c2b7	0.02462898
18	0xbcede19c	-0.029038243
19	0x3b357a0c	0.0027691154
20	0xbc85b41d	-0.016321236
21	0xbcad0ac2	-0.021123294
22	0xbd281c29	-0.04104248
23	0xbd211cc6	-0.03933408
24	0xbcacfd35	-0.021116832
25	0xbccb8a9f	-0.024846373
26	0xbbb0a324	-0.0053905416
27	0xba19efb6	-0.00058722065
28	0xbc853c88	-0.016264215
29	0xbcbe75be	-0.023249503
30	0xbd1391bb	-0.03602765
31	0x3b9479d8	0.0045311265
32	0x3c93059f	0.017947016
33	0x3d104f28	0.03523174
34	0x3a6b8a9d	0.00089851936
35	0xbcc91e43	-0.024550563
36	0xbd1b9f9b	-0.03799401
37	0x3c8efcab	0.017454466
38	0xbce244f5	-0.027620772
39	0xbce33085	-0.027733097
40	0x3cab5fb3	0.020919656
41	0x3d266e62	0.040632613
42	0x3d12dd08	0.035855323
43	0x3c8ea6dc	0.01741355
44	0x3d11b5d5	0.0355738
45	0x3d1c9cc3	0.038235437
46	0xbba649e2	-0.0050747255
47	0x3c9b0b51	0.018926295
48	0x3b18ffa7	0.002334574
49	0xbd00a58e	-0.031407885
50	0x3be69c87	0.0070377025
51	0xbb988c5a	-0.004655403
52	0x3d0ae749	0.033911977
53	0xbd27d86e	-0.040977888
54	0xbc6f7dab	-0.014617364
55	0xbcac94b2	-0.021066997
56	0xba530212	-0.000804932
57	0xbcffd9b6	-0.031231742
58	0x3cad36b8	0.021144256
59	0x3b3ab6c9	0.0028490296
60	0x3c41f29b	0.011837627
61	0xbca144f8	-0.019686207
62	0xbc7b55f0	-0.015340313
63	0x3c6d0946	0.014467543
64	0xbca00f54	-0.019538559
65	0x3cff0a31	0.03113279
66	0x3d09a453	0.033603977
67	0xbd0710d6	-0.03297504
68	0xbcd82853	-0.026386416
69	0xbbd14b0d	-0.0063871206
70	0x3c9edf45	0.019393573
71	0xbb8657c2	-0.004099817
72	0x3c900bcf	0.017583756
73	0x3cbd2431	0.023088546
74	0x3c21002c	0.009826701
75	0x3d4eec54	0.05051835
76	0xbc671385	-0.014103775
77	0x3cef297f	0.029194592
78	0x3cb4795f	0.02203053
79	0x3ca37582	0.019953493
80	0xbc2f362d	-0.010694069
81	0x3c011dc3	0.007880631
82	0xbc09dab8	-0.008413963
83	0xbc4fec4c	-0.012690615
84	0xbc8834ec	-0.016626798
85	0x3ca2ed22	0.019888464
86	0x3cf0d503	0.029398447
87	0xbc32cfd3	-0.010913807
88	0x3c48bc29	0.012251892
89	0xbaab5910	-0.0013072807
90	0x3ce05d92	0.027388368
91	0x3be475eb	0.0069720647
92	0x3d0b82ff	0.034060474
93	0x3d0de4e6	0.034642123
94	0x3cc23e0d	0.023711229
95	0x3d160e3b	0.036634665
96	0xbb80cc90	-0.0039306358
97	0xbcb62b0a	-0.02223732
98	0xbba7fc4c	-0.0051265117
99	0x3b72acb0	0.00370292
100	0xbbe15204	-0.006876232
101	0xbcce4710	-0.02518037
102	0xbd1f89d6	-0.03894981
103	0xbc190a3a	-0.009340817
104	0x3d153e3f	0.036436316
105	0x3cf1efd7	0.02953331
106	0xbcc99523	-0.024607247
107	0xbaadcaec	-0.0013259328
108	0x3cffc692	0.031222615
109	0xbc9697ea	-0.018382985
110	0xbce3e354	-0.02781836
111	0x3ade9caa	0.0016983945
112	0xbb8fa0a9	-0.004383166
113	0x3d272078	0.04080245
114	0x3c914115	0.017731229
115	0xbcac30f4	-0.021019436
116	0xbc22d077	-0.009937397
117	0xb9527a9e	-0.00020072839
118	0xbd27583e	-0.04085564
119	0x3d1c64c7	0.038182046
120	0xbb7f08fa	-0.0038915263
121	0x3cc59e47	0.024123324
122	0xbcb176cc	-0.021663092
123	0x3d05faf4	0.03271003
124	0x3d141061	0.036148433
125	0x3c8f6abf	0.017506955
126	0xbce13d46	-0.027495038
127	0x3c649d11	0.013953463
128	0x3d0cc8de	0.03437125
129	0x3c9eeecf	0.019400982
130	0xbd145816	-0.036216818
131	0x3b053d3e	0.0020330693
132	0x3c237667	0.00997696
133	0x3ca8d603	0.020609861
134	0xbc87d984	-0.016583212
135	0xbd132226	-0.03592124
136	0x3c8b17aa	0.016979057
137	0xbafedfa4	-0.0019445312
138	0xbca113a1	-0.01966268
139	0x3ca26291	0.01982239
140	0xbcd279e4	-0.025692888
141	0x3c026130	0.007957742
142	0x3c41cb76	0.011828294
143	0xbd37199a	-0.04470215
144	0xbc248137	-0.010040573
145	0xbbe5ee0d	-0.0070169033
146	0x3ce04b99	0.027379798
147	0xbcc12b49	-0.02358021
148	0x3d48f9d2	0.049066372
149	0xbc9378ac	-0.018001877
150	0x396a5846	0.00022348863
151	0xbcbd561a	-0.023112345
152	0xbb509dc7	-0.0031832324
153	0xbccdb129	-0.02510889
154	0x3d178757	0.036994305
155	0xbd05b357	-0.032641735
156	0xbd156b7c	-0.03647946
157	0x3bcda248	0.006275449
158	0x3ce097a1	0.027416052
159	0x3d272fe4	0.040817156
160	0xbcfe2e02	-0.031027798
161	0x3c705e3f	0.0146709075
162	0x3b0a6556	0.002111753
163	0xbd196fa8	-0.03746
164	0xbcfa4b9b	-0.03055363
165	0x3c0140aa	0.007888952
166	0xbc39c3db	-0.0113381995
167	0xbb61aa97	-0.0034433955
168	0x3c96c072	0.018402312
169	0xbc9793dd	-0.018503124
170	0x3cb45833	0.022014713
171	0x3cf82944	0.030293114
172	0x3c883175	0.016625145
173	0xbcd6ebdd	-0.026235515
174	0xbad2c4e7	-0.001608041
175	0xbcd863bb	-0.026414743
176	0xbbf6bdd6	-0.0075299544
177	0x3cfb530f	0.030679254
178	0x3d1ee3ea	0.038791575
179	0xbc108bc8	-0.008822389
180	0xbc26163f	-0.01013714
181	0xbd1b9597	-0.037984457
182	0xbc2387f4	-0.009981144
183	0x3ce688ec	0.028141461
184	0xbb236da5	-0.002493718
185	0x3cfdc06d	0.030975545
186	0x3cb1c186	0.021698724
187	0x3c914b23	0.017736023
188	0x3c3f9807	0.011693961
189	0x3c816517	0.015795274
190	0xbcb1a719	-0.021686124
191	0xbadfc05a	-0.0017070875
192	0xba9bb4f4	-0.001187949
193	0xbc470028	-0.012146033
194	0x3d2ffd7e	0.04296636
195	0xbc6b2e1e	-0.014354257
196	0xbc5de51f	-0.013543396
197	0x3c600e2e	0.013675256
198	0xbc19ea58	-0.009394251
199	0xbcf1c047	-0.02951063
200	0xbbeec815	-0.007287035
201	0x3c826809	0.015918748
202	0xbbd3c815	-0.0064630606
203	0xbc345c38	-0.011008315
204	0x3b9ed364	0.004846977
205	0xbcec2f4f	-0.028831152
206	0xbcb6b601	-0.022303583
207	0xbcf3f4b1	-0.029779764
208	0x3c921ce4	0.017836042
209	0x3cc0ea6a	0.023549277
210	0x3bcbe9e1	0.006222949
211	0x3c8d069e	0.01721507
212	0xbcb13dda	-0.021635938
213	0x3c24b01b	0.010051752
214	0xbd04217b	-0.032258492
215	0xbccb258d	-0.024798179
216	0x3a37bd02	0.00070090604
217	0x3c5456aa	0.012960115
218	0x3ba35bde	0.0049853167
219	0x3c60fd8f	0.013732328
220	0x3cfd5355	0.030923525
221	0xbd41d6f7	-0.047324147
222	0xbca613b9	-0.020273076
223	0xbc1c20e3	-0.009529325
224	0x3c100a28	0.008791484
225	0x3cd3aa70	0.025838107
226	0x3c046a5f	0.0080820015
227	0xbd2993ec	-0.041400835
228	0xbd02171f	-0.03176033
229	0x3cb9370f	0.022609262
230	0x3a9e21e2	0.0012064541
231	0xbc9a35b2	-0.018824432
232	0xbd2c4c86	-0.042065166
233	0x3d380f7e	0.04493665
234	0xbc3918f2	-0.011297451
235	0xbd060dc1	-0.03272796
236	0xbc85514b	-0.016274115
237	0xbd1da318	-0.038485616
238	0x3ce06bcc	0.027395152
239	0xbd3c8792	-0.046027727
240	0xbd375a76	-0.044764005
241	0x3ba6b5bd	0.005087583
242	0xbd029a55	-0.031885464
243	0xbcc8511d	-0.02445274
244	0x3ca0ea67	0.019643022
245	0x3cc1fa4e	0.023678925
246	0xbc5b7c63	-0.013396355
247	0x3d0bbe7c	0.034117207
248	0xbd02a43f	-0.03189492
249	0xbcde85ac	-0.02716335
250	0x3d0d7bde	0.034541957
251	0x3cd0c543	0.025484687
252	0xbb266a10	-0.0025392808
253	0x3cae38ba	0.021267284
254	0x3c8cd62b	0.017191967
255	0xbd0287b5	-0.0318677

model.8.bias f4 [128]
0	0x3d1354b1	0.03596944
1	0x3cb3608f	0.021896629
2	0x3bff6201	0.0077936654
3	0x3d10e8bd	0.035378207
4	0x3d276024	0.04086317
5	0xbc38f172	-0.011288034
6	0x3d3717b3	0.044700336
7	0x3c0533e1	0.008130045
8	0x3a34d31f	0.00068979146
9	0x3cb450c9	0.022011178
10	0x3c70744e	0.014676167
11	0x3bfe165c	0.0077541303
12	0xbcf7330c	-0.030175708
13	0x3c5684af	0.013093158
14	0xbcf50640	-0.029910207
15	0xbc943b35	-0.018094638
16	0x3c433c02	0.011916162
17	0x3cd2c82f	0.02573022
18	0x3cfd95fc	0.030955307
19	0x3b6ef2d9	0.0036460666
20	0x3cbf07ab	0.023319086
21	0x3c909330	0.01764831
22	0x3b70a6e8	0.0036720578
23	0xbc88abdb	-0.01668351
24	0x3d065083	0.032791626
25	0x3d1e06e2	0.038580783
26	0xbc7be18c	-0.015373599
27	0xbaec0a9e	-0.0018008535
28	0xbc421830	-0.011846587
29	0x3ca75599	0.020426558
30	0x3b807927	0.0039206925
31	0xbd1cda5a	-0.038294174
32	0xbbd6e740	-0.006558329
33	0x3d2114ee	0.0393266
34	0x3c7bb2be	0.01536244
35	0x3d2c8d29	0.04212681
36	0x3c43f968	0.011961319
37	0x3c282c12	0.010264413
38	0x3d1cbb6f	0.038264688
39	0x3d4e101b	0.050308328
40	0x3d1e1fbc	0.038604483
41	0xba2b6aaa	-0.00065390265
42	0xbc8f4780	-0.017490149
43	0x3c3fa370	0.011696681
44	0x3c65266e	0.013986213
45	0x3c858aaa	0.016301472
46	0xbcb3f1c8	-0.021965876
47	0xbcf4899b	-0.029850772
48	0x3d004215	0.03131302
49	0xbc4da378	-0.012551181
50	0x3bad03e1	0.0052800034
51	0xbc8b5e71	-0.017012807
52	0xbb8f856e	-0.0043799197
53	0x3cf9416d	0.030426705
54	0x3d165792	0.036704607
55	0xbce8d8f7	-0.02842377
56	0xbc685744	-0.014180962
57	0x3ca86e03	0.02056027
58	0x3ce8ac39	0.028402435
59	0xbc05eed1	-0.008174614
60	0x3c9e82d4	0.019349493
61	0x3b6207f6	0.0034489608
62	0x3ca12798	0.0196722
63	0xbb646f78	-0.003485648
64	0xbd0be600	-0.034154892
65	0xbcda1644	-0.026621945
66	0x3ce8a086	0.028396856
67	0xbb87ef7c	-0.004148422
68	0x3d2022ab	0.039095562
69	0x3cfda8e4	0.030964322
70	0x3d24d84e	0.040245347
71	0x3b42b138	0.0029707681
72	0xbc44be5a	-0.012008274
73	0xbc30a79c	-0.010782149
74	0xbc861836	-0.016368967
75	0x3c8d0a2c	0.017216764
76	0xbb9162d4	-0.00443683
77	0xbbdad1b2	-0.0066778297
78	0x3b83a446	0.0040173857
79	0xbcff1f1b	-0.031142762
80	0xbd0ce780	-0.034400463
81	0x3ceebc30	0.02914247
82	0xbc9a5193	-0.018837726
83	0x3c468a8e	0.012117995
84	0x3d1bf922	0.03807939
85	0x3b40efb8	0.0029439759
86	0xbc11b56a	-0.00889335
87	0xbca669b0	-0.020314068
88	0x3d279394	0.040912226
89	0xbc28b359	-0.010296666
90	0x3d08d79c	0.033408746
91	0x3c490ecf	0.012271597
92	0xbb66b700	-0.0035204291
93	0xbcbaf8c8	-0.022823706
94	0xbd1183be	-0.03552603
95	0x3c05cb71	0.00816618
96	0x3d3b7996	0.04577025
97	0x3d12ff8a	0.035888232
98	0x3d169331	0.036761466
99	0x3d20f26d	0.039293695
100	0xbcc19d5d	-0.023634607
101	0x3cef10f1	0.029182883
102	0xbcdcaa24	-0.026936598
103	0x3d3288d5	0.043587524
104	0x3d11d038	0.035598963
105	0xbcfc64c4	-0.030809768
106	0x3bb25f28	0.0054434724
107	0x3bbf9bef	0.005847446
108	0x3b859eca	0.004077767
109	0x3c19ce70	0.009387597
110	0xb857679a	-5.135648e-05
111	0xbccd4430	-0.025056928
112	0x3ceffc85	0.029295215
113	0x3c67682b	0.014123957
114	0xbce1477a	-0.027499903
115	0x3cda2b1f	0.02663189
116	0x3d050ffd	0.03248595
117	0x3d21c57d	0.03949498
118	0x3c6e8349	0.014557668
119	0x3d02db29	0.03194729
120	0x3cd4ad2c	0.025961481
121	0xbc547233	-0.01296668
122	0x3cfa6b03	0.030568605
123	0xbd1dd4fa	-0.03853319
124	0x3c98ca35	0.018651107
125	0xba0c4d9f	-0.00053521426
126	0xbbd4ed48	-0.0064980127
127	0xbb58ea7b	-0.0033098746

model.10.weight f4 [128]
0	0x3f80faa9	1.0076495
1	0x3f812729	1.0090076
2	0x3f806ba2	1.0032847
3	0x3f80b312	1.0054648
4	0x3f801736	1.0007083
5	0x3f806519	1.0030853
6	0x3f80996b	1.004682
7	0x3f80d339	1.006446
8	0x3f813bb2	1.0096343
9	0x3f810dda	1.0082352
10	0x3f80d851	1.0066015
11	0x3f813dae	1.0096948
12	0x3f8031f1	1.0015241
13	0x3f80dbe6	1.0067108
14	0x3f812b3c	1.0091319
15	0x3f808f02	1.0043643
16	0x3f80f7e4	1.007565
17	0x3f82056b	1.0157903
18	0x3f80ab2e	1.005224
19	0x3f807f7d	1.0038906
20	0x3f800600	1.0001831
21	0x3f80b0b5	1.0053927
22	0x3f800caa	1.0003865
23	0x3f8130aa	1.0092976
24	0x3f80e63a	1.007026
25	0x3f7cf551	0.98811823
26	0x3f80ef3f	1.0073012
27	0x3f813056	1.0092876
28	0x3f812817	1.009036
29	0x3f7f915c	0.99831176
30	0x3f80c8dd	1.0061299
31	0x3f813a7b	1.0095972
32	0x3f812800	1.0090332
33	0x3f80bf39	1.0058357
34	0x3f80eb73	1.0071853
35	0x3f816c1c	1.0111117
36	0x3f80bd28	1.0057726
37	0x3f80c970	1.0061474
38	0x3f82316c	1.0171332
39	0x3f816dd1	1.0111638
40	0x3f812806	1.0090339
41	0x3f818839	1.0119697
42	0x3f80be15	1.0058008
43	0x3f80dd32	1.0067503
44	0x3f80ab39	1.0052253
45	0x3f80b8a7	1.0056351
46	0x3f80bf02	1.0058291
47	0x3f81ba6f	1.013502
48	0x3f810477	1.0079488
49	0x3f808827	1.004155
50	0x3f7fc322	0.99907124
51	0x3f80b3d7	1.0054883
52	0x3f81185a	1.0085557
53	0x3f80301b	1.0014681
54	0x3f8097dd	1.0046345
55	0x3f80e1c8	1.0068903
56	0x3f819116	1.0122402
57	0x3f809917	1.0046719
58	0x3f8026b8	1.0011816
59	0x3f827149	1.0190822
60	0x3f81b2a4	1.0132642
61	0x3f81373d	1.0094982
62	0x3f805aa3	1.002766
63	0x3f803b59	1.0018111
64	0x3f80c2d6	1.0059459
65	0x3f80714f	1.0034579
66	0x3f81ba31	1.0134946
67	0x3f80a46e	1.005018
68	0x3f8132c6	1.009362
69	0x3f818652	1.0119116
70	0x3f80b0c8	1.0053949
71	0x3f8163b3	1.0108551
72	0x3f802f68	1.0014467
73	0x3f808ef9	1.0043632
74	0x3f8094fe	1.0045469
75	0x3f81875a	1.0119431
76	0x3f80de66	1.0067871
77	0x3f80ad27	1.0052842
78	0x3f80bc2c	1.0057425
79	0x3f80bb52	1.0057166
80	0x3f823aec	1.0174232
81	0x3f81da58	1.0144758
82	0x3f823450	1.0172215
83	0x3f809d7d	1.0048062
84	0x3f808914	1.0041833
85	0x3f8027d9	1.001216
86	0x3f80d27f	1.0064238
87	0x3f80c510	1.0060139
88	0x3f8027dd	1.0012165
89	0x3f80637e	1.0030363
90	0x3f812fce	1.0092714
91	0x3f815dc5	1.0106741
92	0x3f818865	1.0119749
93	0x3f81741d	1.011356
94	0x3f80302e	1.0014703
95	0x3f818ae3	1.012051
96	0x3f8069c0	1.0032272
97	0x3f803383	1.001572
98	0x3f80334f	1.0015658
99	0x3f80dc61	1.0067254
100	0x3f8163b8	1.0108557
101	0x3f807b4b	1.0037626
102	0x3f809ca7	1.0047807
103	0x3f80e24a	1.0069058
104	0x3f81733c	1.0113292
105	0x3f816531	1.0109006
106	0x3f80cab9	1.0061866
107	0x3f80fd18	1.0077238
108	0x3f7fad34	0.9987366
109	0x3f819550	1.0123692
110	0x3f80e149	1.0068752
111	0x3f80e0ec	1.0068641
112	0x3f801c46	1.0008628
113	0x3f80b2a3	1.0054516
114	0x3f814499	1.0099059
115	0x3f80b548	1.0055323
116	0x3f810362	1.0079157
117	0x3f811bcd	1.0086609
118	0x3f809ede	1.0048482
119	0x3f814f3e	1.0102308
120	0x3f817735	1.0114504
121	0x3f80ec20	1.007206
122	0x3f80f8cf	1.007593
123	0x3f808da7	1.0043229
124	0x3f80aba1	1.0052377
125	0x3f812a1e	1.0090978
126	0x3f81365b	1.0094713
127	0x3f8231f7	1.0171498

model.10.bias f4 [128]
0	0x00000000	0.0
1	0x00000000	0.0
2	0x00000000	0.0
3	0x00000000	0.0
4	0x00000000	0.0
5	0x00000000	0.0
6	0x00000000	0.0
7	0x00000000	0.0
8	0x00000000	0.0
9	0x00000000	0.0
10	0x00000000	0.0
11	0x00000000	0.0
12	0x00000000	0.0
13	0x00000000	0.0
14	0x00000000	0.0
15	0x00000000	0.0
16	0x00000000	0.0
17	0x00000000	0.0
18	0x00000000	0.0
19	0x00000000	0.0
20	0x00000000	0.0
21	0x00000000	0.0
22	0x00000000	0.0
23	0x00000000	0.0
24	0x00000000	0.0
25	0x00000000	0.0
26	0x00000000	0.0
27	0x00000000	0.0
28	0x00000000	0.0
29	0x00000000	0.0
30	0x00000000	0.0
31	0x00000000	0.0
32	0x00000000	0.0
33	0x00000000	0.0
34	0x00000000	0.0
35	0x00000000	0.0
36	0x00000000	0.0
37	0x00000000	0.0
38	0x00000000	0.0
39	0x00000000	0.0
40	0x00000000	0.0
41	0x00000000	0.0
42	0x00000000	0.0
43	0x00000000	0.0
44	0x00000000	0.0
45	0x00000000	0.0
46	0x00000000	0.0
47	0x00000000	0.0
48	0x00000000	0.0
49	0x00000000	0.0
50	0x00000000	0.0
51	0x00000000	0.0
52	0x00000000	0.0
53	0x00000000	0.0
54	0x00000000	0.0
55	0x00000000	0.0
56	0x00000000	0.0
57	0x00000000	0.0
58	0x00000000	0.0
59	0x00000000	0.0
60	0x00000000	0.0
61	0x00000000	0.0
62	0x00000000	0.0
63	0x00000000	0.0
64	0x00000000	0.0
65	0x00000000	0.0
66	0x00000000	0.0
67	0x00000000	0.0
68	0x00000000	0.0
69	0x00000000	0.0
70	0x00000000	0.0
71	0x00000000	0.0
72	0x00000000	0.0
73	0x00000000	0.0
74	0x00000000	0.0
75	0x00000000	0.0
76	0x00000000	0.0
77	0x00000000	0.0
78	0x00000000	0.0
79	0x00000000	0.0
80	0x00000000	0.0
81	0x00000000	0.0
82	0x00000000	0.0
83	0x00000000	0.0
84	0x00000000	0.0
85	0x00000000	0.0
86	0x00000000	0.0
87	0x00000000	0.0
88	0x00000000	0.0
89	0x00000000	0.0
90	0x00000000	0.0
91	0x00000000	0.0
92	0x00000000	0.0
93	0x00000000	0.0
94	0x00000000	0.0
95	0x00000000	0.0
96	0x00000000	0.0
97	0x00000000	0.0
98	0x00000000	0.0
99	0x00000000	0.0
100	0x00000000	0.0
101	0x00000000	0.0
102	0x00000000	0.0
103	0x00000000	0.0
104	0x00000000	0.0
105	0x00000000	0.0
106	0x00000000	0.0
107	0x00000000	0.0
108	0x00000000	0.0
109	0x00000000	0.0
110	0x00000000	0.0
111	0x00000000	0.0
112	0x00000000	0.0
113	0x00000000	0.0
114	0x00000000	0.0
115	0x00000000	0.0
116	0x00000000	0.0
117	0x00000000	0.0
118	0x00000000	0.0
119	0x00000000	0.0
120	0x00000000	0.0
121	0x00000000	0.0
122	0x00000000	0.0
123	0x00000000	0.0
124	0x00000000	0.0
125	0x00000000	0.0
126	0x00000000	0.0
127	0x00000000	0.0
