Lab4/models/gan_models/vbn_wgan_20e_250b_dis.pth (torch, 398261 bytes, 15 tensors)

model.0.weight f4 [16, 3, 3, 3]
0	0xbda7d533	-0.081949614
1	0xbdc6bcc3	-0.09703972
2	0xbcb9373a	-0.022609342
3	0x3d36aa58	0.044596046
4	0x3d683c42	0.05669809
5	0xbce1a320	-0.027543604
6	0xbe21f87e	-0.15817448
7	0xbe33511c	-0.1751141
8	0xbd98f21a	-0.07468052
9	0x3dab2b61	0.08357883
10	0x3dc0ef5c	0.09420654
11	0x3bac8818	0.005265247
12	0xbe25ea1e	-0.1620259
13	0x3c8a0917	0.016850038
14	0xbd8ec941	-0.0697198
15	0xbdc0be09	-0.09411246
16	0x3e20b819	0.15695228
17	0x3c5cef30	0.013484761
18	0xbd86d2fc	-0.06583211
19	0xbe12f9e1	-0.14353134
20	0xbb86f24d	-0.00411824
21	0xbe186bff	-0.14884947
22	0x3d9db978	0.07701391
23	0xbe4287e8	-0.18997157
24	0xbd8f590c	-0.06999406
25	0x3e1880ed	0.14892931
26	0xbcff4d09	-0.031164663
27	0x3db12eb7	0.08651488
28	0xbdcbc622	-0.099499
29	0x3db97174	0.090548426
30	0x3e3dcdbc	0.18535513
31	0xbbd6be22	-0.0065534273
32	0x3e18759d	0.14888616
33	0x3db5dbae	0.08879791
34	0x3cc8fab4	0.024533607
35	0xbd5b1bbb	-0.053493243
36	0x3db9b791	0.09068216
37	0xbd8ab625	-0.067730226
38	0x3d88cc78	0.06679624
39	0x3d387942	0.045037515
40	0x3d4406cc	0.047858045
41	0xbcb50c93	-0.022100722
42	0x3d86c3c7	0.0658031
43	0xbe167e82	-0.14696696
44	0x3da49786	0.08036713
45	0x3dd8d407	0.10587316
46	0x3c8ee488	0.017442957
47	0xbe02b1c0	-0.12763119
48	0x3de1584d	0.1100317
49	0x3d7049b2	0.05866403
50	0x3d8f0709	0.06983764
51	0x3e48a2eb	0.19593398
52	0x3e000a03	0.12503819
53	0xbcd40bab	-0.02588447
54	0xbd84870e	-0.06471072
55	0xbe2cb4d7	-0.1686586
56	0x3e184e13	0.14873533
57	0xbb97da1f	-0.0046341564
58	0xbd940630	-0.07227743
59	0x3e20e2b4	0.1571148
60	0x3d9c06aa	0.076184586
61	0x3dbc5aa5	0.091969766
62	0x3bfc515c	0.0077001285
63	0xbdd7275c	-0.10505554
64	0x3c4425d0	0.011971906
65	0x3df4dc4d	0.119560815
66	0x3e0a7e16	0.1352466
67	0xbc8ff999	-0.017575072
68	0x3d4de17c	0.050263867
69	0xbe0fb4fa	-0.14033881
70	0x3e366a90	0.17814088
71	0xbdccb42d	-0.09995303
72	0xbd7739ae	-0.060357742
73	0xbc3c389f	-0.011488109
74	0x3cd5a580	0.026079893
75	0x3e1e4cab	0.15458934
76	0xbd48e239	-0.049043868
77	0xbdd898c2	-0.10576011
78	0xbe22d801	-0.15902711
79	0xbe27d135	-0.163884
80	0xbe4117fa	-0.18856803
81	0xbca7d655	-0.020487944
82	0xbe07a22d	-0.13245459
83	0x3c83173f	0.016002296
84	0x3da8ab4b	0.082357965
85	0xbe39219f	-0.18079232
86	0x3d47b613	0.048757624
87	0xbe046546	-0.12929258
88	0x3dd059b2	0.10173358
89	0x3da1a452	0.0789267
90	0x3e49366f	0.19649671
91	0x3e3cf856	0.18454108
92	0xbdfbdd4a	-0.12298067
93	0x3e1b2410	0.15150476
94	0x3e14b8f1	0.14523675
95	0x3df9ba49	0.12193734
96	0x3e28eeb7	0.16497312
97	0xbc82c47b	-0.01596283
98	0x3d50d011	0.050979678
99	0xbd9f1b7d	-0.07768915
100	0x3d307517	0.043080416
101	0x3e0083fc	0.12550348
102	0xbdc99b84	-0.098441154
103	0xbce73013	-0.028221166
104	0xbdce5acd	-0.100759126
105	0xbcf71e9b	-0.030165961
106	0x3e38fd4b	0.18065374
107	0x3d539e37	0.051664557
108	0x3bee2685	0.0072677755
109	0x3dc901e4	0.09814814
110	0xbdd031a5	-0.10165719
111	0x3e1d86e1	0.15383483
112	0x3e1c60e1	0.15271331
113	0xbab48463	-0.0013772364
114	0xbe11e6ba	-0.14248171
115	0xbd6af541	-0.0573628
116	0xbd9380c4	-0.072022945
117	0xbe25a122	-0.16174749
118	0xbca96ef2	-0.020682786
119	0xbde506a4	-0.11182907
120	0xbe13d29f	-0.14435814
121	0x3dea2c91	0.114342816
122	0xbdd5e344	-0.10443738
123	0x3e292ba0	0.16520548
124	0xbd9e28b8	-0.0772261
125	0xbe3752f1	-0.17902733
126	0x3d0ed4dc	0.034870967
127	0xbdd22ddd	-0.10262654
128	0x3df93850	0.12168944
129	0xbd79b176	-0.060960256
130	0xbd86f9df	-0.06590628
131	0x3c311b3a	0.010809714
132	0x3e3f14e9	0.1866032
133	0xbddc883e	-0.10768174
134	0x3e2dde92	0.16979435
135	0x3d833ed3	0.06408467
136	0x3df18a45	0.11793951
137	0x3e29271f	0.1651883
138	0xbe1e7f0e	-0.15478155
139	0xbd486056	-0.048919998
140	0x3d08524a	0.033281602
141	0xbe385177	-0.17999826
142	0xbdd71c96	-0.10503499
143	0x3dbc5fc2	0.09197952
144	0xbe0d1aea	-0.13779798
145	0xbe0ec596	-0.1394256
146	0xbe17140e	-0.14753744
147	0xbe08a3b4	-0.13343698
148	0xbd3bccd4	-0.045849636
149	0x3d1c7b5f	0.038203593
150	0x3dfc598d	0.12321768
151	0x3dfec184	0.12439254
152	0xbc3ed4dc	-0.011647429
153	0xbdc9e070	-0.09857261
154	0x3dd39c22	0.10332514
155	0xbdedd262	-0.11612393
156	0x3c11eb75	0.008906235
157	0xbe3ce100	-0.18445206
158	0xbdc41e62	-0.095761076
159	0xbdbd92e6	-0.09256534
160	0xbe2a9a54	-0.16660434
161	0x3e13633c	0.14393324
162	0xbd8d2267	-0.06891327
163	0x3e20df2e	0.15710136
164	0x3e23e74b	0.160062
165	0x3b54bc03	0.0032460697
166	0x3e342893	0.17593603
167	0xbe2468d5	-0.16055615
168	0x3e21b793	0.15792684
169	0xbd977b53	-0.07396569
170	0x3e2f41ad	0.17114897
171	0xbdc9eb65	-0.09859351
172	0x3e48292d	0.19546957
173	0xbe3ae6fa	-0.18252173
174	0x3e117766	0.14205703
175	0x3c3f2084	0.011665467
176	0x3ce49cc2	0.02790678
177	0x3e4aa8cc	0.19790953
178	0x3d3bbea5	0.04583611
179	0xbe05d59c	-0.13069767
180	0x3e40cb14	0.18827468
181	0x3d3fa134	0.046784595
182	0xbc23a12c	-0.009987157
183	0xbd0b67b0	-0.03403443
184	0x3e439cff	0.19102858
185	0x3df18b6d	0.117941715
186	0x3b309cb0	0.0026948862
187	0xbdefba1c	-0.117054194
188	0x3cbd5f45	0.023116717
189	0xbd56afaf	-0.05241364
190	0x3df844f5	0.121225275
191	0x3c789cef	0.015174135
192	0x3c24f49e	0.010068087
193	0x3b7d1831	0.0038619156
194	0x3de9da08	0.11418539
195	0xbe3b6969	-0.1830193
196	0xbe229ce4	-0.15880162
197	0x3dcdf8d8	0.10057229
198	0xbe297565	-0.16548689
199	0xbd81a48b	-0.06330212
200	0x3dfa014b	0.12207278
201	0xbd8eea59	-0.06978292
202	0xbd79edb1	-0.061017696
203	0xbd826367	-0.06366616
204	0xbdae1194	-0.084994465
205	0xbe3ac5a9	-0.18239464
206	0x3e24addd	0.16081949
207	0x3cd6afc6	0.026206862
208	0xbe319205	-0.17340858
209	0xbd9e563b	-0.07731291
210	0x3d0bd200	0.03413582
211	0x3da3f656	0.08005969
212	0xbbcd8794	-0.0062722657
213	0x3e409bc2	0.18809417
214	0x3de36de5	0.11104945
215	0xbe00ff5f	-0.12597416
216	0x3c96bdfd	0.01840114
217	0xbe3dd6dc	-0.18538994
218	0xbe109c8c	-0.14122218
219	0xbdfabe42	-0.1224332
220	0xbad15675	-0.0015971201
221	0x3e37ab17	0.1793636
222	0x3db4efbe	0.0883479
223	0xbdd9958f	-0.10624229
224	0xbd5a2761	-0.05326021
225	0xbe1aeb70	-0.15128875
226	0x3e414291	0.1887305
227	0x3e0a4bc9	0.13505472
228	0xbe41d860	-0.18930197
229	0xbdfe6bd4	-0.1242291
230	0xbdad605a	-0.08465643
231	0x3e3beeee	0.18352863
232	0xbe2a235d	-0.16615053
233	0xbd2b88d7	-0.041878548
234	0x3e1e493f	0.15457629
235	0x3d25d3bf	0.04048514
236	0xbd3d7c44	-0.046261087
237	0x3d0d368b	0.034475844
238	0x3cdb85a4	0.026797123
239	0x3dd9d090	0.10635483
240	0xbe2b6279	-0.16736783
241	0x3e0c3a3d	0.13694091
242	0xbe167910	-0.14694619
243	0xbd81db02	-0.063406006
244	0x3d756ece	0.059920125
245	0xbe23f3a3	-0.16010909
246	0x3d0934ed	0.03349774
247	0x3e3d00ce	0.18457338
248	0xbdebb165	-0.11508445
249	0x3d0491a8	0.03236547
250	0x3e0bf06e	0.13665935
251	0x3cd282be	0.025697108
252	0x3e251254	0.16120273
253	0x3d8a4754	0.06751886
254	0xbcf768ce	-0.030201342
255	0x3dbf5c4a	0.093437746

model.0.bias f4 [16]
0	0x3e3a7890	0.18210053
1	0x3d8fa959	0.070147224
2	0x3e04a9fd	0.1295547
3	0x3dc2c952	0.09511055
4	0x3db6cf2f	0.08926236
5	0x3dcc5d03	0.09978678
6	0xbdc9278b	-0.09821995
7	0x3e022fa7	0.1271349
8	0xbd9e6fd9	-0.07736177
9	0x3d6b29d5	0.05741294
10	0xbe22adc8	-0.15886605
11	0x3deaefca	0.114715174
12	0x3d2e51a9	0.042558346
13	0xbde0b571	-0.10972107
14	0x3dc7a2ff	0.09747886
15	0xbc8d0d4b	-0.017218253

model.2.weight f4 [32, 16, 3, 3]
0	0xbda98447	-0.08277183
1	0x3b13567e	0.0022481973
2	0x3d03059b	0.031987768
3	0x3d6df06f	0.058090623
4	0x3d1646f5	0.036688764
5	0xbd7b8ca6	-0.06141343
6	0xbcb1ef05	-0.021720419
7	0x3d97a6e3	0.07404878
8	0xbb6b0d37	-0.003586603
9	0x3da6e2cf	0.08148729
10	0x3d9f793f	0.07786798
11	0x3d4a6c66	0.049419783
12	0x3cc1414a	0.023590703
13	0x3c91659d	0.017748648
14	0xbae1de08	-0.0017232308
15	0x3d13d3b0	0.036090553
16	0xbd658615	-0.056036074
17	0x3d57b165	0.05265941
18	0xbc323f52	-0.010879355
19	0xbd2e2f13	-0.042525362
20	0x3d1f5bce	0.03890591
21	0x3d99bb24	0.07506397
22	0x3c935807	0.01798631
23	0x3d405d43	0.04696394
24	0xbd6d115e	-0.05787789
25	0xbd9ca967	-0.076494984
26	0x3d46fbca	0.04857997
27	0xbbe1b527	-0.00688805
28	0x3d71e294	0.059053972
29	0x3d900f36	0.07034151
30	0x3d33e296	0.04391726
31	0x3d116104	0.035492912
32	0xbd326054	-0.043548897
33	0x3ba4399a	0.0050117495
34	0xbcedee35	-0.02904425
35	0xbd45fd46	-0.048337243
36	0x3d9b2e7c	0.075772256
37	0xbc9e2f9c	-0.019309811
38	0x3d0cdf42	0.034392603
39	0x3da5b88c	0.0809184
40	0x3daae396	0.0834419
41	0x3ad31901	0.0016105474
42	0xbd748bcd	-0.059703637
43	0xbd78448a	-0.06061224
44	0x3d7681ce	0.060182385
45	0x3d78ce7a	0.060743786
46	0xbcc3f61d	-0.023921067
47	0xbda6c11e	-0.08142303
48	0xbd446c70	-0.047954977
49	0x3d2346fa	0.03986261
50	0xbd011745	-0.031516332
51	0xbd888827	-0.06666594
52	0x3d915691	0.07096589
53	0x3cbe1b1a	0.023206282
54	0x3d56dd60	0.052457213
55	0x3b069e92	0.0020541293
56	0xbda225bf	-0.07917356
57	0xbc423d5d	-0.01185545
58	0x3b805be3	0.0039172038
59	0x3d47712e	0.04869192
60	0xbd43fecc	-0.047850415
61	0x3d9bb1c6	0.07602267
62	0xbdaa48ce	-0.08314668
63	0xbbe6bf08	-0.0070418157
64	0x3b2b4f94	0.0026139962
65	0x3da38291	0.07983888
66	0x3d95739f	0.072974436
67	0xbd8d4071	-0.06897057
68	0x3c405d3c	0.011740979
69	0xbc8ac1d8	-0.016938135
70	0x3cf4bc9f	0.029875098
71	0x3c4de801	0.012567521
72	0x3c2ca9ad	0.010538501
73	0xbd716a24	-0.058939114
74	0xbd806c0a	-0.06270607
75	0xbd0e4547	-0.034734037
76	0x3d834248	0.064091265
77	0xbbe40a2b	-0.00695922
78	0xbd9ce1a0	-0.07660222
79	0xbd0644f6	-0.03278061
80	0xbd3b23ca	-0.045688428
81	0xbd2d5431	-0.04231662
82	0xbccbd784	-0.02488304
83	0x3cc6ccc5	0.024267564
84	0xbb1cfe8b	-0.002395543
85	0x3d4f4abf	0.050608393
86	0x3d5b7fe6	0.05358877
87	0x3d809574	0.06278506
88	0xbb3d5a9d	-0.002889312
89	0xbd7ec890	-0.06220299
90	0x3cd06b1c	0.025441699
91	0xbda38936	-0.07985155
92	0x3d840980	0.064471245
93	0xbca230f7	-0.019798739
94	0xbd3534b6	-0.044239722
95	0xbcafeead	-0.021476114
96	0xbc3156eb	-0.0108239455
97	0x3d642373	0.05569787
98	0x3c1e411b	0.009659077
99	0xbda0a8ee	-0.07844721
100	0x3d8de589	0.06928546
101	0xbc72647e	-0.014794467
102	0x3d7c461f	0.06159031
103	0x3d70ebde	0.05881869
104	0x3d44a6df	0.048010703
105	0xba5eb266	-0.00084952114
106	0x3d5059b7	0.05086681
107	0x3d05a16a	0.03262464
108	0x3d12f640	0.035879374
109	0xbcd879be	-0.026425239
110	0xbce1afc9	-0.027549641
111	0x3bdcdaaf	0.0067399363
112	0x3d6e481d	0.05817424
113	0xbc10bbbd	-0.008833823
114	0x3bdf2966	0.006810355
115	0x3cea0902	0.028568748
116	0xbb3e9773	-0.002908197
117	0x3d8b27b6	0.06794684
118	0x3d9ea071	0.077454455
119	0x3b044ae6	0.0020186245
120	0x3d5d2ff0	0.054000795
121	0x3d1d6544	0.038426653
122	0x3cb7498d	0.022373939
123	0xbd9ca506	-0.07648663
124	0xbd742dc8	-0.059613973
125	0x3cd37b6d	0.02581569
126	0x3cd2ef2b	0.02574881
127	0xbd747530	-0.05968207
128	0x3d9dbddb	0.07702228
129	0x3d29cdbb	0.041455965
130	0xbc115065	-0.008869265
131	0x3be24cb2	0.0069061154
132	0x3d6cf967	0.057855036
133	0xbcf4682b	-0.029834827
134	0xbd55ef16	-0.052229963
135	0xbd18b000	-0.03727722
136	0x3da5a179	0.08087439
137	0x3cca9eae	0.024733867
138	0xbd97941a	-0.07401295
139	0x3d3dff58	0.046386093
140	0xbceb2a19	-0.028706597
141	0x3ce5cfb4	0.028053142
142	0xbd7dc514	-0.061955526
143	0xbd166441	-0.036716703
144	0x3ca3036c	0.019899093
145	0x3d9520e7	0.07281666
146	0xbd767e32	-0.060178943
147	0x3c5f7517	0.013638756
148	0xbcf40c08	-0.029790893
149	0x3d71f1f8	0.05906865
150	0x3da30c60	0.07961345
151	0x3d80f4a5	0.06296662
152	0xbd5ab7bf	-0.05339789
153	0x3d681cba	0.05666802
154	0x3d4eaf36	0.050460063
155	0x3d68d6ae	0.05684536
156	0x3d338df3	0.043836545
157	0x3cae361d	0.021266038
158	0x3d4c78eb	0.049920004
159	0xbd99682a	-0.07490571
160	0xbd934f38	-0.07192844
161	0x3c37e7ca	0.011224696
162	0xbcd001fb	-0.02539157
163	0x3d9ed38c	0.07755193
164	0x3cce8661	0.025210561
165	0xbbe575ac	-0.007002553
166	0x3d69e695	0.057104666
167	0xbd94dc10	-0.07268536
168	0x3daf10b0	0.08548105
169	0x3c0b6e5a	0.008510197
170	0xbd7a6e42	-0.061140306
171	0xbd7217c8	-0.05910471
172	0x3d52a6c9	0.05142859
173	0x3d709090	0.058731616
174	0xbd00bc34	-0.031429484
175	0xbd07ebf9	-0.033184025
176	0x3d8a3ec4	0.06750253
177	0x3d3663bf	0.04452872
178	0xbd3bf7f2	-0.045890756
179	0x3d842641	0.06452609
180	0x3bc1eef4	0.005918378
181	0xbd39574d	-0.045249272
182	0xbc988864	-0.018619724
183	0xbd23125e	-0.03981244
184	0xbd93cfcc	-0.072173685
185	0xbc6db7d6	-0.014509162
186	0x3d837e8b	0.064206205
187	0x3d07e854	0.03318055
188	0x3d35438c	0.04425387
189	0xbd1f2024	-0.03884901
190	0xbc6af852	-0.014341431
191	0xbd9c6900	-0.07637215
192	0x3da8aa49	0.08235604
193	0xbbbff38d	-0.005857891
194	0x3d729306	0.059222244
195	0x3d4438fc	0.047905907
196	0xbd358693	-0.044317793
197	0xbd978d5c	-0.07400009
198	0xbd644eb3	-0.055739116
199	0x3c435896	0.011922976
200	0xbcba46ff	-0.022738932
201	0x3c99ac14	0.018758811
202	0x3c8e9ae8	0.01740785
203	0x3d16fa64	0.036859885
204	0x3d24eba7	0.040263798
205	0x3aa2b13a	0.0012412437
206	0x3da50a4a	0.08058603
207	0x3ccc1424	0.024911948
208	0x3bb82c11	0.0056204875
209	0xbd15cc0d	-0.03657155
210	0x3b2c4f4b	0.002629238
211	0xbd826cf8	-0.063684404
212	0x3c6ca4e2	0.014443608
213	0x3d97ccb5	0.07412092
214	0xbd41f729	-0.04735485
215	0x3da7da74	0.081959635
216	0xbd182112	-0.037140913
217	0x3d0f0d32	0.034924693
218	0xbd7366c1	-0.059424166
219	0xbd9740c3	-0.07385399
220	0x3d8556e5	0.065107144
221	0xbd99efda	-0.07516451
222	0x3d857298	0.06515998
223	0xbd420b58	-0.0473741
224	0x3b7c8850	0.0038533397
225	0xbc8e5eb8	-0.01737915
226	0x3cdb6805	0.026782999
227	0x3d3e25e6	0.04642286
228	0xbd94f1cb	-0.07272681
229	0x3cd49391	0.025949271
230	0xbd8fb1a8	-0.07016307
231	0xbb599799	-0.0033201932
232	0xbd9c5bb0	-0.076346755
233	0xbdb6ee4e	-0.08932172
234	0x3d26eef7	0.04075524
235	0x3d8dd090	0.06924546
236	0xbda784b6	-0.081796095
237	0xbd81b001	-0.06332398
238	0x3d301c42	0.0429957
239	0xbd9028b1	-0.07039011
240	0xbd31ea70	-0.043436468
241	0xbda47977	-0.0803098
242	0x3c79b762	0.015241476
243	0x3d48c112	0.04901225
244	0x3cc15ad3	0.023602879
245	0xbcd5b987	-0.026089443
246	0xbd60dacc	-0.05489616
247	0xbca8ae08	-0.020590797
248	0xbd7fb1b5	-0.062425334
249	0xbd8225f0	-0.06354892
250	0xbd97bf29	-0.07409508
251	0xbd1cedb0	-0.038312614
252	0xbc023739	-0.007947736
253	0xbce71ee0	-0.028212965
254	0x3b173ce4	0.0023077065
255	0xbd88e816	-0.06684892

model.2.bias f4 [32]
0	0xbc824071	-0.015899869
1	0xba503612	-0.00079426274
2	0x3d313391	0.04326207
3	0xbcd66e56	-0.02617566
4	0x3d82c7f2	0.06385793
5	0xba19f140	-0.0005872436
6	0xbd85341f	-0.06504082
7	0x3d84e8b4	0.06489697
8	0x3d0854e3	0.03328408
9	0x3d9a468e	0.075329885
10	0xbcb034b3	-0.021509504
11	0x3d54a596	0.051915728
12	0x3d9531ea	0.07284911
13	0x3da70770	0.081557155
14	0xbd2f782a	-0.042839207
15	0x3dafab29	0.08577568
16	0x3c81fbf3	0.015867209
17	0xbdaab413	-0.08335128
18	0x3dada654	0.0847899
19	0xbd326eb6	-0.043562613
20	0x3da92dad	0.08260665
21	0x3c150024	0.009094272
22	0xbd519543	-0.051167738
23	0xbd571e60	-0.052519202
24	0x3bf34080	0.0074234605
25	0x3d138dd3	0.036023926
26	0xbd037695	-0.03209551
27	0xbd9b92dd	-0.07596371
28	0xbd9d7846	-0.07688956
29	0xbc871e7d	-0.01649403
30	0x3da23cac	0.079217285
31	0xbd828d94	-0.0637466

model.4.weight f4 [32]
0	0x3f7d9ed5	0.99070483
1	0x3f8033a9	1.0015765
2	0x3f806d93	1.0033439
3	0x3f7e76e4	0.9940016
4	0x3f80ac6a	1.0052617
5	0x3f8096da	1.0046036
6	0x3f80e6e7	1.0070466
7	0x3f802fa5	1.001454
8	0x3f80014b	1.0000395
9	0x3f7f023f	0.996128
10	0x3f805774	1.0026689
11	0x3f7f8944	0.99818826
12	0x3f7fd283	0.9993059
13	0x3f7faab1	0.9986983
14	0x3f80be2f	1.005804
15	0x3f7fe759	0.99962384
16	0x3f812430	1.0089169
17	0x3f8001f4	1.0000596
18	0x3f803666	1.0016601
19	0x3f801ccc	1.0008788
20	0x3f8023b1	1.0010892
21	0x3f805e79	1.0028831
22	0x3f7fd0d1	0.99928004
23	0x3f8025e6	1.0011566
24	0x3f7f236e	0.99663436
25	0x3f7f265b	0.996679
26	0x3f7f669e	0.99765956
27	0x3f806c4c	1.003305
28	0x3f803d68	1.001874
29	0x3f7f3fec	0.9970691
30	0x3f805637	1.0026311
31	0x3f802a10	1.0012836

model.4.bias f4 [32]
0	0xbb867d1f	-0.004104271
1	0x38fcba9c	0.00012051055
2	0xb9d314d4	-0.00040260574
3	0x3966f7d9	0.0002202684
4	0xbac2fd3a	-0.0014876493
5	0xbb9addaf	-0.004726134
6	0xbaa32b88	-0.0012448886
7	0xbb843b0d	-0.0040353597
8	0xb9d6d696	-0.0004097714
9	0xbaf408a8	-0.0018618302
10	0x399b31c2	0.00029600976
11	0x3ab2767d	0.0013615635
12	0xb9643835	-0.00021764713
13	0x3abcd25b	0.0014405953
14	0xbadbfef0	-0.0016784351
15	0x3ac98a8f	0.0015376377
16	0xbbb6c10f	-0.0055772136
17	0x3a68fb10	0.0008887509
18	0xbb02e920	-0.001997538
19	0x3a6a9d98	0.0008949875
20	0x3af33d2c	0.0018557659
21	0xbb31afd9	-0.002711287
22	0x3aa37e23	0.0012473505
23	0x3a718a15	0.0009213996
24	0x38dfc107	0.00010669423
25	0x3b3a9b4f	0.0028473919
26	0x3aab0e3c	0.0013050507
27	0xbb1baaa0	-0.0023752823
28	0xb9e38600	-0.00043396652
29	0xbb37e849	-0.0028062037
30	0x3a3ef4b5	0.0007284389
31	0x3b0c0776	0.0021366752

model.5.weight f4 [64, 32, 3, 3]
0	0x3aa668cf	0.001269603
1	0xbabae999	-0.0014260291
2	0x3ceeb9bf	0.029141305
3	0x3d3f235f	0.046664592
4	0xbc19b041	-0.009380401
5	0xbce8027e	-0.0283215
6	0x3c5da7af	0.013528748
7	0x3c6a1fe3	0.014289829
8	0xbc5c5c2d	-0.013449711
9	0x3d264c12	0.04059989
10	0x3ce9ff3c	0.028564088
11	0xbd064419	-0.032779787
12	0xbb68cb25	-0.0035521474
13	0xbc4080d9	-0.01174947
14	0x3d56ca65	0.052439112
15	0xbb0b2ce3	-0.0021236471
16	0xbc90a807	-0.017658247
17	0x3cc154b5	0.023599962
18	0x3d3dc3af	0.046329197
19	0xbd4e9b7c	-0.05044125
20	0x3d0ff539	0.035145972
21	0xbcf7f419	-0.030267762
22	0xbd42a492	-0.047520228
23	0x3c3863cb	0.011254261
24	0xbc1f016b	-0.009704928
25	0xbd0d43fc	-0.034488663
26	0xbd360536	-0.044438563
27	0xbc93c032	-0.018035982
28	0x3cc3cc7a	0.023901213
29	0xbd37d89c	-0.04488431
30	0x3c69f1ac	0.0142788105
31	0xbd565df9	-0.052335713
32	0x3c40cb48	0.011767216
33	0x3d0610c1	0.03273082
34	0xbc424c6f	-0.0118590435
35	0x3d37aa2d	0.044840027
36	0xbcea5cb9	-0.028608667
37	0x3c8cd124	0.01718957
38	0x3d7d9906	0.061913513
39	0xbcb5d72e	-0.022197332
40	0x3d569220	0.05238545
41	0x3d5bf04e	0.05369597
42	0x3bfa2753	0.0076340823
43	0xbd1969eb	-0.037454527
44	0xbd3608cb	-0.04444198
45	0x3c97bdbb	0.018523088
46	0xbcc9a7b1	-0.024616094
47	0x3d0454f8	0.032307595
48	0x3d2ff975	0.04296251
49	0x3a899158	0.0010495586
50	0xbd29a030	-0.041412532
51	0x3c9f4c87	0.01944567
52	0x3d32dc16	0.04366692
53	0xbd1d3596	-0.03838118
54	0x3ce00e5b	0.027350595
55	0x3d1da341	0.03848577
56	0xbcd82dd6	-0.026389044
57	0x3cba2cdd	0.02272647
58	0x3c04651c	0.008080747
59	0x3d1aefe7	0.037826445
60	0xbd433f9c	-0.047668085
61	0x3c90a2bd	0.017655725
62	0x3d513dec	0.051084444
63	0xbd55c968	-0.05219403
64	0xbd61211b	-0.054963212
65	0xbc3f212f	-0.011665626
66	0xbd55f9ff	-0.052240368
67	0xbd738880	-0.05945635
68	0x3a9cd8dc	0.0011966485
69	0x3c6a0903	0.014284375
70	0x3b228bcb	0.0024802561
71	0xbc2a79c5	-0.010405009
72	0xbbada241	-0.005298883
73	0x3c54056e	0.012940748
74	0xbc4f13db	-0.012639011
75	0x3cd58007	0.026062025
76	0xbcadbf55	-0.021209398
77	0x3d2f58e9	0.0428094
78	0xbd4842ad	-0.048891712
79	0x3d2f4bd1	0.042796914
80	0x3bfb774c	0.0076741334
81	0xbc80b883	-0.015712982
82	0x3d544709	0.051825557
83	0x3d17e00e	0.03707891
84	0x3c56a438	0.013100676
85	0xbd4cc716	-0.04999455
86	0x3d15cf4e	0.036574654
87	0xbd68cf5f	-0.05683839
88	0x3c59f109	0.013302096
89	0x3cb6f13e	0.02233183
90	0xbcbecdb0	-0.023291439
91	0x3d4087de	0.047004573
92	0xbd04e29d	-0.032442678
93	0x3c578b28	0.013155736
94	0x3ca5ab62	0.020223323
95	0x3c327962	0.010893198
96	0xbd193ff0	-0.03741449
97	0x3aa37fb6	0.0012473974
98	0xbd31e491	-0.04343087
99	0x3d438c81	0.047741417
100	0xbd3743ae	-0.04474228
101	0x3c98945a	0.018625427
102	0x3c77edc4	0.015132371
103	0x3ce127fa	0.027484883
104	0xbb7d2c72	-0.0038631228
105	0x3d3e232e	0.04642027
106	0x3d24454e	0.040105157
107	0x3cb3bbbc	0.021940105
108	0xbd2cc32d	-0.04217832
109	0xbd1903ec	-0.037357256
110	0x3d2504ef	0.04028791
111	0x3d09f5aa	0.03368155
112	0xbd5bf236	-0.053697787
113	0xbd059e5f	-0.032621738
114	0x3cadce21	0.021216454
115	0x3cbf4f1c	0.023353152
116	0x3d414e12	0.047193594
117	0x3d03c203	0.032167446
118	0x3d4ae286	0.049532436
119	0x3d7642ee	0.060122423
120	0x3d3f79ea	0.046747126
121	0x3d01e468	0.031711966
122	0x3d6823c6	0.05667474
123	0xbca60795	-0.020267287
124	0x3d199b5e	0.037501685
125	0xbbc84ba7	-0.006112534
126	0xbcfdf177	-0.030998928
127	0xbce33540	-0.027735353
128	0x3d1885da	0.037237026
129	0xbd119607	-0.035543468
130	0xbd2d25f2	-0.042272516
131	0x3c8dbc3b	0.01730167
132	0x3bc8a439	0.0061230925
133	0x3d0b7e1f	0.034055825
134	0xbd039c08	-0.032131225
135	0xbd6f419d	-0.058412183
136	0xbc5aeefd	-0.013362643
137	0x3d383d3e	0.04498028
138	0x3cc7c39c	0.024385266
139	0x3d50b6c7	0.05095556
140	0x3c57658f	0.013146772
141	0x3d2b9e56	0.041899048
142	0x3b856d94	0.0040719006
143	0x3d2db8ee	0.04241269
144	0x3d513c1b	0.05108271
145	0x3cb84bcd	0.022497082
146	0x3d769ded	0.060209204
147	0xbd05d3e2	-0.03267277
148	0xbd492566	-0.04910793
149	0x3b67db02	0.0035378342
150	0x3c93cdab	0.018042406
151	0x3cc96c7d	0.024587864
152	0xbd334bec	-0.043773577
153	0xbb914987	-0.004433814
154	0xbcb545b3	-0.022127962
155	0xbd650591	-0.05591351
156	0x3cb7dc25	0.02244384
157	0x3c74e57d	0.014947292
158	0x3c104d26	0.008807456
159	0xbc8fd03e	-0.017555352
160	0xbd28d380	-0.041217327
161	0x3d5a3d71	0.05328125
162	0xbcee5b89	-0.029096382
163	0x3d46f7d0	0.048576176
164	0xba778619	-0.00094422844
165	0xbd7f14ec	-0.062275812
166	0x3d6c1f5b	0.05764709
167	0xbd4768d7	-0.048683967
168	0xbd5250b6	-0.051346503
169	0x3c5b3f18	0.013381742
170	0xbcf71a32	-0.030163858
171	0xbd3a749f	-0.045521375
172	0xbbd27bb0	-0.006423436
173	0xbd46310d	-0.048386622
174	0xbd44c20d	-0.048036624
175	0x3b1a9ff9	0.0023593886
176	0x3c4e07ea	0.012575129
177	0xbbc920d7	-0.006137948
178	0xbc2dc043	-0.010604921
179	0x3c2a8a4b	0.010408948
180	0xbccbac67	-0.024862481
181	0x3c2e9047	0.010654516
182	0xbd383029	-0.044967804
183	0xbcac622d	-0.021042908
184	0xb9505684	-0.00019868655
185	0x3cf91219	0.030404137
186	0xbc4553c6	-0.012043899
187	0xbcc54869	-0.02408238
188	0xbd1d672e	-0.038428478
189	0x3cc0bd33	0.023527717
190	0x3c29e1ec	0.010368805
191	0xbd1314ad	-0.03590839
192	0x3d5821fb	0.05276678
193	0xbcf125fc	-0.029437058
194	0xbd5dc489	-0.05414251
195	0xbd47a381	-0.048739914
196	0xbd4c2f84	-0.049850002
197	0xbc8ba4d9	-0.017046379
198	0x3d1a217e	0.037629597
199	0xbd0229c8	-0.031778127
200	0xbd07a845	-0.03311946
201	0xbd6df7ed	-0.05809777
202	0xbd0f12bb	-0.034929972
203	0xbc90064f	-0.017581133
204	0xbc61df96	-0.013786217
205	0xbcda6705	-0.026660452
206	0x3c63e229	0.013908901
207	0xbd469013	-0.048477244
208	0x3c181a24	0.009283576
209	0x3d57a143	0.052644026
210	0xbd638655	-0.05554803
211	0xbd104191	-0.03521878
212	0x3c5cacfc	0.013468977
213	0x3d1b1510	0.037861884
214	0x3c9d2afe	0.01918554
215	0x3c8f14b7	0.017465932
216	0x3d504794	0.050849512
217	0x3d2fb67d	0.042898644
218	0x3c0f3512	0.00874068
219	0xbd48092c	-0.048836872
220	0xbd20a4f7	-0.039219823
221	0xbacc75a2	-0.0015599022
222	0x3b715812	0.0036826176
223	0x3d833a79	0.06407637
224	0xbd2dd413	-0.042438578
225	0xbd59525f	-0.05305707
226	0xbc945823	-0.018108433
227	0xbbe21562	-0.0068995217
228	0x3b0cbd4a	0.002147513
229	0xba00c29c	-0.00049118116
230	0x3d30334d	0.043017674
231	0x3d024b52	0.031810112
232	0xbce87086	-0.028373968
233	0xbd708f0a	-0.058730163
234	0x3d6f4510	0.058415473
235	0x3c855b7e	0.016278978
236	0xbd5091fa	-0.050920464
237	0x3b4021f8	0.0029317122
238	0xbccd5a71	-0.02506754
239	0x3c650707	0.013978726
240	0xbc82fc3e	-0.01598942
241	0x3d2fea3b	0.04294799
242	0xbbc0b215	-0.005880604
243	0x3ca6764e	0.020320084
244	0xbc414ada	-0.011797631
245	0x3d70ff3a	0.058837153
246	0xbcaa47d5	-0.020786205
247	0x3ca06a52	0.019581947
248	0x3cafe747	0.021472586
249	0xbcc05e6a	-0.02348252
250	0xbb14df99	-0.0022716282
251	0xba2cb64b	-0.0006588443
252	0x3d48d48b	0.04903082
253	0xbd19b09b	-0.03752194
254	0xbca3cd8a	-0.01999547
255	0x3ceb76eb	0.028743228

model.5.bias f4 [64]
0	0xbc9d55fd	-0.019206041
1	0x3cdb3d27	0.026762558
2	0x3bb7069f	0.005585506
3	0xbd3d8538	-0.046269625
4	0x3a109505	0.00055153697
5	0x3d6d390d	0.057915736
6	0x3ccdd1f7	0.025124533
7	0x3d1dddc5	0.038541574
8	0xbcff88bc	-0.03119313
9	0x3d4fe69c	0.050757036
10	0x3cfd4f25	0.030921528
11	0x3bc81bbf	0.006106823
12	0xbbb3aa45	-0.005482944
13	0xbc613c8d	-0.013747347
14	0x3d4b50a8	0.049637467
15	0x3c62fd32	0.013854312
16	0x3d047830	0.032341182
17	0x3ac8f0df	0.0015330574
18	0xbd53e1a1	-0.05172885
19	0xbceaef18	-0.028678462
20	0x3d1437b5	0.03618594
21	0xbd472b46	-0.048625253
22	0x3d63e517	0.0556384
23	0x3c142720	0.009042531
24	0x3d0fd211	0.035112444
25	0x3d09b4ec	0.033619806
26	0x3d5b3911	0.05352122
27	0xbd5a1962	-0.053246863
28	0x3c568797	0.013093851
29	0x3d114cfb	0.035473805
30	0x3d3e26e9	0.046423826
31	0xbbf729fe	-0.0075428477
32	0x3b50a568	0.003183687
33	0x3c852439	0.016252624
34	0x3d0ed3f1	0.03487009
35	0x3c2a1004	0.010379795
36	0xbccdf5a5	-0.025141547
37	0x3d47c0a3	0.048767697
38	0xbcd5f703	-0.02611876
39	0x3cb8968d	0.022532726
40	0x3c44d1d2	0.012012916
41	0x3b865f68	0.004100729
42	0x3c7fb0e3	0.015606138
43	0x3b4f32c3	0.003161595
44	0xbbcfb859	-0.0063391146
45	0xbcadc388	-0.0212114
46	0x3d4c9af5	0.049952466
47	0x3d46a727	0.048499253
48	0xb944e855	-0.00018778567
49	0x3d277cbe	0.040890448
50	0xbcfbf726	-0.030757498
51	0xbd479ef9	-0.048735593
52	0xbd014f17	-0.031569567
53	0x3b8adfed	0.00423812
54	0xbd230d49	-0.03980759
55	0x3d3b453e	0.04572033
56	0xbcae612a	-0.021286566
57	0xbcdf972e	-0.027293768
58	0xbc01e515	-0.007928153
59	0xbc5056bf	-0.012715994
60	0x3c87a7fd	0.016559595
61	0x3d42b07e	0.047531597
62	0x3d39c47a	0.04535339
63	0xbcad6c32	-0.021169756

model.7.weight f4 [64]
0	0x3f7fda4e	0.9994248
1	0x3f8073c9	1.0035335
2	0x3f80102e	1.0004938
3	0x3f801de6	1.0009124
4	0x3f804b40	1.0022964
5	0x3f804b28	1.0022936
6	0x3f802207	1.0010384
7	0x3f7fb4e0	0.9988537
8	0x3f802d6a	1.0013859
9	0x3f805b41	1.0027848
10	0x3f7e3d59	0.9931236
11	0x3f802b71	1.0013257
12	0x3f800844	1.0002522
13	0x3f7f55cb	0.99740285
14	0x3f801268	1.0005617
15	0x3f800ebd	1.0004498
16	0x3f806f7f	1.0034026
17	0x3f80d7e2	1.0065882
18	0x3f806bac	1.0032859
19	0x3f7f6e5b	0.99777764
20	0x3f80882f	1.004156
21	0x3f80068b	1.0001997
22	0x3f7fa1aa	0.99856055
23	0x3f8021ae	1.0010278
24	0x3f7fc8aa	0.99915564
25	0x3f7f8b9e	0.99822414
26	0x3f80884b	1.0041593
27	0x3f800d53	1.0004066
28	0x3f8097c3	1.0046314
29	0x3f7f766a	0.9979006
30	0x3f808e45	1.0043417
31	0x3f805e8c	1.0028853
32	0x3f7fe3f4	0.99957204
33	0x3f7ffcba	0.99995005
34	0x3f8016af	1.0006922
35	0x3f7f4d6b	0.99727505
36	0x3f7f29be	0.9967307
37	0x3f803709	1.0016795
38	0x3f80079c	1.0002322
39	0x3f7f6d2c	0.9977596
40	0x3f7e7d1f	0.9940967
41	0x3f80f812	1.0075705
42	0x3f7f86d4	0.99815106
43	0x3f806de7	1.003354
44	0x3f8017a7	1.0007218
45	0x3f7ffbec	0.9999378
46	0x3f80170b	1.0007032
47	0x3f806aae	1.0032556
48	0x3f806ca1	1.0033151
49	0x3f80ae87	1.0053262
50	0x3f801a17	1.0007962
51	0x3f8039a5	1.0017592
52	0x3f7fc548	0.999104
53	0x3f7f823a	0.99808085
54	0x3f8036f0	1.0016766
55	0x3f80786b	1.0036749
56	0x3f7e6a44	0.993809
57	0x3f809c3c	1.0047679
58	0x3f7fb957	0.9989218
59	0x3f8060b5	1.0029513
60	0x3f7ee04d	0.99561006
61	0x3f7f6733	0.99766845
62	0x3f809b51	1.0047399
63	0x3f804aab	1.0022787

model.7.bias f4 [64]
0	0x3b7832b9	0.003787203
1	0xba95a9bb	-0.0011418381
2	0x3a47ea61	0.0007626173
3	0xbb542015	-0.0032367755
4	0x3afaf595	0.0019146675
5	0xb91455a6	-0.00014146286
6	0xbb7e28dc	-0.0038781678
7	0x3bb41132	0.005495214
8	0xbaef1538	-0.0018240577
9	0x3b819672	0.003954702
10	0x39968006	0.00028705614
11	0xb9d2ea9b	-0.00040229116
12	0x3a34cc50	0.00068969
13	0xbae7478f	-0.0017645227
14	0xbb9ff3a2	-0.004881338
15	0xbb1dcade	-0.0024077217
16	0xbb03a7e9	-0.0020089096
17	0x3b11763b	0.0022195715
18	0x3b4ce3d4	0.0031263726
19	0x3a2ac6a5	0.00065145857
20	0xbad329ab	-0.001611044
21	0xbb99d17d	-0.0046941624
22	0xbaeeade4	-0.0018209782
23	0x39f30b09	0.00046356794
24	0xbbbc9cda	-0.005756003
25	0x3a33face	0.0006865681
26	0xb90ebef0	-0.00013613305
27	0x3a661972	0.00087775954
28	0x3a5d3f06	0.0008439872
29	0xba82a382	-0.0009966942
30	0xbb0e5c51	-0.0021722505
31	0xb9f6bf33	-0.0004706323
32	0x3b151ac0	0.002275154
33	0xba55641d	-0.0008140223
34	0xb950901e	-0.00019890114
35	0xbb2dbc7d	-0.0026510053
36	0xba8335dc	-0.0010010558
37	0xba1648b2	-0.00057328783
38	0xbb0eb37a	-0.0021774457
39	0x3aa3a450	0.0012484882
40	0x3b1ae552	0.002363522
41	0xbac7b4c4	-0.0015236367
42	0xbbadaad1	-0.005299904
43	0x3915babc	0.00014279311
44	0xba0c98a0	-0.0005363319
45	0x3b928811	0.004471787
46	0x3a7b40cf	0.00095845474
47	0x3b81b16e	0.003957919
48	0x3939ad4f	0.00017707537
49	0x3ac8414e	0.0015278251
50	0xbb04d464	-0.0020268196
51	0xba4bc5b9	-0.00077732984
52	0xbb80706a	-0.003919651
53	0x3b8ef4b6	0.004362668
54	0xbb610b24	-0.0034338916
55	0xbaa4e87c	-0.0012581493
56	0xbad3d48e	-0.0016161369
57	0xbb283c00	-0.0025670528
58	0x3a9f065a	0.001213263
59	0x3a7c3f29	0.00096224487
60	0x3b6eea7f	0.0036455689
61	0xbb6d0368	-0.003616536
62	0xbab927f2	-0.0014126285
63	0xba060237	-0.00051120244

model.8.weight f4 [128, 64, 3, 3]
0	0xbb49aec9	-0.0030774346
1	0xbd06eb68	-0.032939345
2	0x3cee6a38	0.029103383
3	0x3cea1d35	0.02857838
4	0x36aee3a0	5.212103e-06
5	0x3cf5f699	0.030024813
6	0xbc81aa05	-0.015828142
7	0xbbc84950	-0.006112255
8	0x3c60b849	0.013715812
9	0xbbad0c46	-0.005281004
10	0xbc1a64a9	-0.009423413
11	0xbba5c106	-0.0050584106
12	0xbd082385	-0.033237
13	0x3cfbabf0	0.030721635
14	0x3d1f61a6	0.038911484
15	0x3d284804	0.041084304
16	0xbcfc4ae6	-0.030797433
17	0xbd00914e	-0.031388573
18	0xbc87b56a	-0.016565997
19	0x3cdf906e	0.02729055
20	0x3c4711c7	0.012150235
21	0xbcc7d983	-0.02439571
22	0xbd201d5f	-0.03909051
23	0x3b1da719	0.0024055897
24	0xbb969fd0	-0.004596688
25	0xbc3eef5b	-0.0116537465
26	0xbbb8971f	-0.0056332494
27	0xbc6df369	-0.014523366
28	0x3c586b40	0.013209164
29	0xbce0ea6d	-0.027455533
30	0x3cecbc87	0.02889849
31	0xbc8245ae	-0.015902366
32	0x3ca37001	0.019950869
33	0x3d090473	0.03345151
34	0x382bc19d	4.0949893e-05
35	0xbc75f8df	-0.015012949
36	0xbd0380ae	-0.03210514
37	0xbd222bfb	-0.039592724
38	0x3cce651a	0.025194693
39	0x3cff8bef	0.031194655
40	0x3b9fff0e	0.0048827
41	0xbcdf39ce	-0.027249243
42	0x3a1580e2	0.0005703104
43	0xbcd94bac	-0.026525341
44	0x3c84c8fb	0.016209116
45	0x3bac6f35	0.0052622803
46	0xbd325c0b	-0.04354481
47	0xbd02e00e	-0.031951956
48	0x3d03cd18	0.032178015
49	0x3b9940d8	0.0046769194
50	0x3ceea40f	0.029130964
51	0x3ca2a462	0.019853774
52	0x3d1f7af2	0.03893561
53	0x3d22028c	0.03955321
54	0xbd21a246	-0.039461397
55	0xbcc5ae65	-0.02413101
56	0xbc251650	-0.0100761205
57	0xbc1311e0	-0.00897643
58	0x3cabaf19	0.020957517
59	0x3d0c7569	0.03429166
60	0x3cbf94d0	0.023386389
61	0x3c83829d	0.016053492
62	0x3cb0fa0c	0.021603607
63	0xbce738de	-0.028225359
64	0xbca90c6d	-0.020635808
65	0x3cfef474	0.031122424
66	0xbbdc6f62	-0.006727145
67	0x3bc6e1d6	0.006069402
68	0xbd1215ae	-0.035665207
69	0x3c9f0411	0.019411119
70	0xbb85b440	-0.0040803254
71	0x3d3fb679	0.04680488
72	0x3ce8e63a	0.028430093
73	0x3d05e449	0.032688413
74	0x3d2a2e2d	0.041547943
75	0xb8b9ef83	-8.8661e-05
76	0xbc714d04	-0.014727835
77	0xbd0f813d	-0.03503536
78	0xbcd9706f	-0.02654287
79	0xbc85c33d	-0.016328448
80	0xbd0a7595	-0.03380354
81	0xbc43029b	-0.011902477
82	0xbc99857d	-0.01874041
83	0xbc669d37	-0.014075569
84	0xbc4819c4	-0.012213174
85	0x3c9b4223	0.018952435
86	0xbc9a6f4c	-0.018851899
87	0x3b1426b7	0.0022606084
88	0x3c8eaf74	0.017417647
89	0xbd0d2f65	-0.034469027
90	0xbb7d66bf	-0.0038665978
91	0xbbc54a01	-0.006020785
92	0x3c9d2a40	0.019185185
93	0x3c9c0256	0.019044083
94	0x3cb40515	0.02197508
95	0xbcf3b099	-0.029747294
96	0x3d273ce6	0.04082956
97	0xbab1653a	-0.0013534196
98	0x3d332f1f	0.04374611
99	0xbcbdf709	-0.023189085
100	0xbc8614d4	-0.016367353
101	0xbc8c00cb	-0.017090222
102	0x3cf330ad	0.029686296
103	0xbd005bbc	-0.031337485
104	0x3c77f45b	0.0151339425
105	0xbbad49a4	-0.0052883197
106	0x3c91a554	0.01777903
107	0xbd052da0	-0.032514215
108	0xbc52fa4c	-0.012877058
109	0x3af24c0f	0.0018485802
110	0x3cc02786	0.023456346
111	0xbc8f0326	-0.017457556
112	0x39d62410	0.0004084413
113	0x3cb3664e	0.021899369
114	0xbc9f923f	-0.019478915
115	0x3d05064d	0.032476712
116	0x3c66c1e9	0.014084318
117	0xbcca896c	-0.024723731
118	0x3d2224d1	0.039585892
119	0x3c5a3242	0.013317646
120	0xbbc9f254	-0.006162921
121	0xbcb19617	-0.021678014
122	0xbc1afc1e	-0.0094595235
123	0x3cb08338	0.021546945
124	0x3c6a0f13	0.014285821
125	0xbc8fa1a7	-0.017533137
126	0xbd1f7830	-0.03893298
127	0x3cafbbb1	0.021451803
128	0xbcfe2418	-0.03102307
129	0x3bf7b39e	0.007559254
130	0x3c8736ce	0.016505625
131	0x3c69ec8d	0.0142775895
132	0x3c5a5461	0.013325782
133	0x3babe8d2	0.00524626
134	0x3c27a1a9	0.010231414
135	0x3c51ee67	0.012813187
136	0x3b8fe2d4	0.0043910537
137	0x3ca574db	0.020197323
138	0x3c7aee58	0.015315615
139	0xbd00a250	-0.031404793
140	0x3c9f8733	0.019473648
141	0x3cc95e86	0.024581205
142	0xb8c34ac0	-9.312248e-05
143	0xbb30c2e9	-0.0026971644
144	0xbc814f5c	-0.015784912
145	0xbcbbd645	-0.02292932
146	0xbb81b29a	-0.0039580585
147	0x3c160eda	0.009158814
148	0x3d0e21d2	0.034700222
149	0x3d025f2c	0.031829044
150	0x3afa5621	0.0019099155
151	0x3d0e0667	0.034674075
152	0x3cc38efa	0.023871887
153	0xbc8ca3b4	-0.017167903
154	0x3d15d5b4	0.036580756
155	0x3ca3caf4	0.019994237
156	0xbc0627ac	-0.008188169
157	0xbbbc0df4	-0.005738968
158	0xbd16d624	-0.036825314
159	0xbd34c590	-0.044133723
160	0xbc989c8d	-0.018629337
161	0xbcb046b6	-0.021518093
162	0xbc531906	-0.012884384
163	0x3cd360be	0.025802966
164	0x3c14096f	0.009035452
165	0x3cf4832f	0.02984771
166	0x3bf782c2	0.0075534293
167	0xbc769157	-0.0150493
168	0xbc504eaf	-0.012714072
169	0xbcaea973	-0.021321034
170	0x3b09ad9a	0.0021008016
171	0x3c878852	0.016544495
172	0xbcd53d56	-0.026030224
173	0x3d05af68	0.032637984
174	0xbd06a4b4	-0.032871917
175	0x3d0156ae	0.031576805
176	0x3c171d3b	0.009223278
177	0xbb416645	-0.002951042
178	0x3ae7b8e0	0.0017678998
179	0x3c90ebda	0.017690588
180	0xbc1e34d0	-0.009656146
181	0xbc0d3371	-0.008618222
182	0x3c90038f	0.017579822
183	0xbcd415c8	-0.025889292
184	0xbbf24a4f	-0.007394112
185	0xbcb46a36	-0.022023302
186	0xbbe0298f	-0.0068408917
187	0x3d1d36da	0.03838239
188	0xbcd2cf08	-0.025733486
189	0x3cd2d99f	0.025738535
190	0x3bfa414c	0.0076371785
191	0x3c51cdd8	0.012805425
192	0x3c5aa97f	0.013346075
193	0x3d098413	0.03357322
194	0x3cc14ac2	0.023595218
195	0xbc90c984	-0.017674215
196	0x3ce5f712	0.028071914
197	0x3c1cc070	0.009567365
198	0x3d023091	0.031784598
199	0x3d0d2560	0.03445947
200	0x3c907cb9	0.017637597
201	0x3d066e46	0.03282001
202	0x3a40bc84	0.000735231
203	0xbd029c2c	-0.03188722
204	0x3d1b9b7e	0.037990086
205	0x3c7a6d25	0.015284811
206	0xbd1d0cd2	-0.038342305
207	0xbc088748	-0.008333035
208	0x3c80a67e	0.01570439
209	0xbd2a5146	-0.041581415
210	0xbc8172fb	-0.015801897
211	0xbbb47239	-0.0055067805
212	0xbd1d154d	-0.038350392
213	0xbd09b9d8	-0.0336245
214	0xbb1b550a	-0.002370181
215	0x3c989910	0.018627673
216	0xbb081b69	-0.002076829
217	0x3cf4cdec	0.029883347
218	0x3cfb3863	0.030666536
219	0xbcf892ad	-0.030343378
220	0x3ca7a767	0.020465566
221	0xbc0282b6	-0.007965734
222	0x3c86ca25	0.016453812
223	0x3d13fa19	0.036127184
224	0xbcf275f7	-0.029597266
225	0xbb329779	-0.002725093
226	0x3c8fa3e5	0.017534206
227	0xbd0253e2	-0.031818278
228	0x3cbb0746	0.022830617
229	0x3abb301e	0.0014281308
230	0xb9db51b8	-0.0004183182
231	0x3c0bfb90	0.008543864
232	0xbd12f96b	-0.035882395
233	0x3ce89a0c	0.028393768
234	0x3d15964f	0.0365203
235	0x3b56dc97	0.003278529
236	0xbcf8b986	-0.030361902
237	0x3d0aa6f5	0.03385063
238	0x3c0a2067	0.008430577
239	0x3c6b2160	0.014351219
240	0xbcb62058	-0.02223222
241	0xbcc03801	-0.023464205
242	0x3cc003cb	0.023439309
243	0xbd1739a7	-0.036920216
244	0x3cddc4ab	0.027071318
245	0x3bc4fb0c	0.0060113724
246	0xbc7818f4	-0.015142668
247	0xbd29b285	-0.041430015
248	0xbbc0cd83	-0.005883874
249	0xbd1223f5	-0.035678823
250	0x3c8ac81f	0.016941128
251	0xbcdfc1ee	-0.027314153
252	0xbc921432	-0.017831896
253	0x3c72415e	0.014786093
254	0xbb48ebe3	-0.0030658178
255	0xbd190913	-0.03736217

model.8.bias f4 [128]
0	0xbc0e53af	-0.008686944
1	0xbb28080a	-0.0025639557
2	0xbcc0343f	-0.023462413
3	0xbd0e9249	-0.034807477
4	0x3ca497e0	0.02009195
5	0x3b8eff4b	0.0043639294
6	0xbab2bc3d	-0.0013636422
7	0x3cbdee22	0.02318484
8	0x3c71540a	0.014729509
9	0xbc87822b	-0.016541561
10	0xbcacba33	-0.02108488
11	0xbb9a7fb3	-0.00471493
12	0x3d10d0b3	0.03535528
13	0xbc244c3a	-0.010027939
14	0xbb66761b	-0.0035165611
15	0xbc9425be	-0.018084403
16	0xbd12c496	-0.03583201
17	0xbcd3a445	-0.025835166
18	0x3c6b5a1d	0.014364746
19	0x3b7e2a84	0.0038782666
20	0x3c18dcf5	0.009330024
21	0xbc69cfb9	-0.014270716
22	0x3c5495c7	0.012975163
23	0xbcedebbc	-0.029043071
24	0xbcec0a2e	-0.028813448
25	0x3cf118da	0.029430795
26	0xbd137f83	-0.036010277
27	0x3c1bee58	0.009517275
28	0xbb85ccfd	-0.0040832744
29	0x3c0fa1ae	0.008766575
30	0x3d182814	0.037147596
31	0xbd0d8a7b	-0.034555893
32	0x3cf89dfd	0.030348772
33	0x3cb604c4	0.02221907
34	0x3cb4979f	0.022044955
35	0x3cd34807	0.025791181
36	0x3af15a29	0.0018413711
37	0xbd05d981	-0.03267813
38	0xbd2324e4	-0.039830104
39	0x3cfb6ad8	0.030690596
40	0x3c00fe71	0.007873164
41	0x3cefdf2e	0.029281225
42	0xbd17925c	-0.037004814
43	0xbd0a44c1	-0.033756975
44	0xbc5a01f1	-0.013306127
45	0x3cfa9f2e	0.03059348
46	0x3ce48b63	0.027898496
47	0xbd1a4c33	-0.037670325
48	0x3d2bd804	0.041954055
49	0xbcf20f84	-0.029548414
50	0xbc0e70db	-0.008693899
51	0x3bb644f3	0.0055624186
52	0xbc64cbba	-0.013964588
53	0xbcc2d8ff	-0.023785112
54	0xbac3edd8	-0.0014948202
55	0x3cf5078c	0.029910825
56	0xbd1c1dfd	-0.038114537
57	0x3ca0d822	0.01963431
58	0xbc958210	-0.018250495
59	0x3cfe26ad	0.031024301
60	0x3cae9491	0.021311076
61	0x3caf6a16	0.02141289
62	0xbc5a8fd3	-0.013339954
63	0xbc96cba1	-0.018407645
64	0x3cb633ae	0.02224144
65	0xbbcf9048	-0.0063343383
66	0x3cccf7a9	0.025020437
67	0x3ba0c6ef	0.004906527
68	0xbd0d87fa	-0.034553505
69	0x3cef3560	0.029200256
70	0xbb204fa6	-0.0024461537
71	0x3c3a00cb	0.011352728
72	0xbce4cf1c	-0.027930789
73	0xbcb05d7d	-0.021528954
74	0x3d105cd1	0.035244767
75	0xbc808fe2	-0.015693609
76	0xbcfa1848	-0.030529156
77	0x3b2a1e95	0.002595817
78	0xbc732ae2	-0.014841767
79	0xbabd94c5	-0.0014463892
80	0x3c84ef40	0.016227365
81	0xbc9936dc	-0.018702917
82	0xbd1d6d6d	-0.038434435
83	0xbd168f5e	-0.03675782
84	0xbcfb30f5	-0.030662993
85	0xbbf0a3c0	-0.0073437393
86	0x3c339a04	0.010962013
87	0xbc247d44	-0.010039631
88	0xbd08ee82	-0.033430584
89	0x3c1609bf	0.009157597
90	0x3c9229a6	0.017842125
91	0x3cdc9c14	0.026929893
92	0x3d1086c7	0.035284784
93	0xbc06efc9	-0.00823588
94	0xbc48b5eb	-0.012250404
95	0x3c5781f0	0.013153538
96	0xbce37f25	-0.027770588
97	0x3ceaa97a	0.028645266
98	0xbacf9d35	-0.0015839698
99	0x3d22ec24	0.039775982
100	0xbbed68aa	-0.007245143
101	0x3c04739f	0.008084207
102	0xbd3362e6	-0.04379549
103	0xbc126db3	-0.008937287
104	0x3ce22a11	0.02760795
105	0xbd33415f	-0.043763515
106	0x3c2878d9	0.010282719
107	0xbc3fbf97	-0.011703393
108	0xbcd860b0	-0.026413292
109	0xbd1814ea	-0.03712932
110	0x3c798717	0.015229962
111	0x3cba11d1	0.022713574
112	0xbcd42884	-0.025898226
113	0xbd0f3bdb	-0.034969192
114	0x3af651e0	0.0018792711
115	0xbcf202fb	-0.029542437
116	0x3ba1ae7e	0.004934131
117	0xbd0788c0	-0.0330894
118	0x3ce01c51	0.027357252
119	0xbc9df4cd	-0.01928177
120	0x3a59cefe	0.00083087373
121	0x3d0ffc30	0.035152614
122	0x3c8cc762	0.017184917
123	0xbc8b24f3	-0.016985392
124	0x3c281d4d	0.010260892
125	0xbd00c09a	-0.03143368
126	0x3cebe408	0.028795257
127	0xbc01ee31	-0.007930324

model.10.weight f4 [128]
0	0x3f8069c0	1.0032272
1	0x3f804a1f	1.002262
2	0x3f808c79	1.0042869
3	0x3f8147a4	1.0099988
4	0x3f7fe4a0	0.9995823
5	0x3f803640	1.0016556
6	0x3f81e619	1.0148345
7	0x3f7fe5a2	0.99959767
8	0x3f808ab1	1.0042325
9	0x3f8038dc	1.0017352
10	0x3f80da0f	1.0066546
11	0x3f803715	1.001681
12	0x3f80a05e	1.004894
13	0x3f7f1bfd	0.9965208
14	0x3f7ffc97	0.99994797
15	0x3f8107ca	1.0080502
16	0x3f80164a	1.0006802
17	0x3f80ae7a	1.0053246
18	0x3f815f14	1.010714
19	0x3f80b321	1.0054666
20	0x3f80960a	1.0045788
21	0x3f803e44	1.0019002
22	0x3f80a509	1.0050365
23	0x3f809736	1.0046146
24	0x3f814822	1.0100138
25	0x3f802966	1.0012634
26	0x3f814735	1.0099856
27	0x3f800118	1.0000334
28	0x3f8049a2	1.0022471
29	0x3f804b61	1.0023004
30	0x3f807777	1.0036458
31	0x3f811f27	1.0087632
32	0x3f80d923	1.0066265
33	0x3f80be47	1.0058068
34	0x3f809485	1.0045325
35	0x3f80554f	1.0026034
36	0x3f80530a	1.0025342
37	0x3f8150ac	1.0102744
38	0x3f804157	1.001994
39	0x3f7f1ce4	0.9965346
40	0x3f802c27	1.0013474
41	0x3f7f83bf	0.99810404
42	0x3f804217	1.0020169
43	0x3f80099a	1.000293
44	0x3f805b83	1.0027927
45	0x3f8066bf	1.0031356
46	0x3f7ffd9c	0.9999635
47	0x3f812ca4	1.0091748
48	0x3f7fae52	0.99875367
49	0x3f802f78	1.0014486
50	0x3f803673	1.0016617
51	0x3f7fc16a	0.999045
52	0x3f7f7593	0.9978878
53	0x3f8094c2	1.0045397
54	0x3f7f7d40	0.9980049
55	0x3f80e26f	1.0069102
56	0x3f808bf8	1.0042715
57	0x3f80b565	1.0055357
58	0x3f803d17	1.0018643
59	0x3f80fd13	1.0077232
60	0x3f8005c8	1.0001764
61	0x3f80ed62	1.0072443
62	0x3f80d903	1.0066227
63	0x3f80741c	1.0035434
64	0x3f805e74	1.0028825
65	0x3f7f71ff	0.9978332
66	0x3f804f50	1.0024204
67	0x3f7ffd37	0.9999575
68	0x3f800d88	1.000413
69	0x3f80061c	1.0001864
70	0x3f81a9e1	1.0129968
71	0x3f80b8ab	1.0056356
72	0x3f803194	1.001513
73	0x3f80abe3	1.0052456
74	0x3f806837	1.0031804
75	0x3f801697	1.0006894
76	0x3f8120c2	1.0088122
77	0x3f80b2aa	1.0054524
78	0x3f7fb1d6	0.9988073
79	0x3f80dccf	1.0067385
80	0x3f80dd35	1.0067507
81	0x3f800def	1.0004252
82	0x3f800b0a	1.0003369
83	0x3f8059af	1.0027369
84	0x3f800f3e	1.0004652
85	0x3f803fcb	1.0019468
86	0x3f804994	1.0022454
87	0x3f7f25c0	0.99666977
88	0x3f80ba85	1.0056921
89	0x3f80e936	1.007117
90	0x3f8100d2	1.0078375
91	0x3f8122a8	1.0088701
92	0x3f801b9b	1.0008425
93	0x3f814132	1.0098021
94	0x3f803555	1.0016276
95	0x3f8074de	1.0035665
96	0x3f80627a	1.0030053
97	0x3f808d2f	1.0043086
98	0x3f80391c	1.0017428
99	0x3f8139b3	1.0095733
100	0x3f8145b8	1.0099401
101	0x3f805798	1.0026731
102	0x3f816934	1.011023
103	0x3f7f8164	0.9980681
104	0x3f7fe10c	0.9995277
105	0x3f800be1	1.0003625
106	0x3f8083bd	1.0040203
107	0x3f804fbf	1.0024337
108	0x3f80258e	1.0011461
109	0x3f8053c0	1.0025558
110	0x3f80221b	1.0010408
111	0x3f80d19a	1.0063965
112	0x3f80fe29	1.0077564
113	0x3f7f634f	0.9976091
114	0x3f7f5a6d	0.99747354
115	0x3f802615	1.0011622
116	0x3f801d4d	1.0008942
117	0x3f80974f	1.0046176
118	0x3f8086d3	1.0041145
119	0x3f80a4cf	1.0050296
120	0x3f7faa89	0.9986959
121	0x3f800545	1.0001608
122	0x3f810a5f	1.008129
123	0x3f8003fc	1.0001216
124	0x3f807c27	1.0037888
125	0x3f7fd21b	0.9992997
126	0x3f80b8e2	1.0056422
127	0x3f80827c	1.0039821

model.10.bias f4 [128]
0	0x00000000	0.0
1	0x00000000	0.0
2	0x00000000	0.0
3	0x00000000	0.0
4	0x00000000	0.0
5	0x00000000	0.0
6	0x00000000	0.0
7	0x00000000	0.0
8	0x00000000	0.0
9	0x00000000	0.0
10	0x00000000	0.0
11	0x00000000	0.0
12	0x00000000	0.0
13	0x00000000	0.0
14	0x00000000	0.0
15	0x00000000	0.0
16	0x00000000	0.0
17	0x00000000	0.0
18	0x00000000	0.0
19	0x00000000	0.0
20	0x00000000	0.0
21	0x00000000	0.0
22	0x00000000	0.0
23	0x00000000	0.0
24	0x00000000	0.0
25	0x00000000	0.0
26	0x00000000	0.0
27	0x00000000	0.0
28	0x00000000	0.0
29	0x00000000	0.0
30	0x00000000	0.0
31	0x00000000	0.0
32	0x00000000	0.0
33	0x00000000	0.0
34	0x00000000	0.0
35	0x00000000	0.0
36	0x00000000	0.0
37	0x00000000	0.0
38	0x00000000	0.0
39	0x00000000	0.0
40	0x00000000	0.0
41	0x00000000	0.0
42	0x00000000	0.0
43	0x00000000	0.0
44	0x00000000	0.0
45	0x00000000	0.0
46	0x00000000	0.0
47	0x00000000	0.0
48	0x00000000	0.0
49	0x00000000	0.0
50	0x00000000	0.0
51	0x00000000	0.0
52	0x00000000	0.0
53	0x00000000	0.0
54	0x00000000	0.0
55	0x00000000	0.0
56	0x00000000	0.0
57	0x00000000	0.0
58	0x00000000	0.0
59	0x00000000	0.0
60	0x00000000	0.0
61	0x00000000	0.0
62	0x00000000	0.0
63	0x00000000	0.0
64	0x00000000	0.0
65	0x00000000	0.0
66	0x00000000	0.0
67	0x00000000	0.0
68	0x00000000	0.0
69	0x00000000	0.0
70	0x00000000	0.0
71	0x00000000	0.0
72	0x00000000	0.0
73	0x00000000	0.0
74	0x00000000	0.0
75	0x00000000	0.0
76	0x00000000	0.0
77	0x00000000	0.0
78	0x00000000	0.0
79	0x00000000	0.0
80	0x00000000	0.0
81	0x00000000	0.0
82	0x00000000	0.0
83	0x00000000	0.0
84	0x00000000	0.0
85	0x00000000	0.0
86	0x00000000	0.0
87	0x00000000	0.0
88	0x00000000	0.0
89	0x00000000	0.0
90	0x00000000	0.0
91	0x00000000	0.0
92	0x00000000	0.0
93	0x00000000	0.0
94	0x00000000	0.0
95	0x00000000	0.0
96	0x00000000	0.0
97	0x00000000	0.0
98	0x00000000	0.0
99	0x00000000	0.0
100	0x00000000	0.0
101	0x00000000	0.0
102	0x00000000	0.0
103	0x00000000	0.0
104	0x00000000	0.0
105	0x00000000	0.0
106	0x00000000	0.0
107	0x00000000	0.0
108	0x00000000	0.0
109	0x00000000	0.0
110	0x00000000	0.0
111	0x00000000	0.0
112	0x00000000	0.0
113	0x00000000	0.0
114	0x00000000	0.0
115	0x00000000	0.0
116	0x00000000	0.0
117	0x00000000	0.0
118	0x00000000	0.0
119	0x00000000	0.0
120	0x00000000	0.0
121	0x00000000	0.0
122	0x00000000	0.0
123	0x00000000	0.0
124	0x00000000	0.0
125	0x00000000	0.0
126	0x00000000	0.0
127	0x00000000	0.0
