Lab4/models/gan_models/wgan_100e_250b_dis.pth (torch, 398261 bytes, 15 tensors)

model.0.weight f4 [16, 3, 3, 3]
000000 bf c1 bb bc 25 e2 ef 3d 28 c7 8c bd 9b a7 0f be
       -0.022919534 0.117130555 -0.068739235 -0.1402878
000010 af c9 3b be c7 c6 f9 bb ef c2 7f 3d e7 9e 2b be
       -0.18338655 -0.007622573 0.062441763 -0.16759835
000020 04 db cc 3d 90 99 74 3d 0a 71 34 3d 5b 77 ef 3d
       0.100027114 0.05971676 0.044053115 0.11692687
000030 47 a6 ba 3d 9f 44 29 be 61 c9 c8 3c b3 a7 a7 3d
       0.09113746 -0.16530083 0.024510087 0.08186283
000040 d0 3b 5c bd 28 c9 06 bd 56 cb b2 bd 01 f7 f7 bc
       -0.05376798 -0.03290668 -0.087301895 -0.030269148
000050 15 cb b5 3d b4 25 d2 3c d7 80 04 3d 34 73 72 3d
       0.088766254 0.025652744 0.032349434 0.059191898
000060 9a 92 23 3e e3 e7 4c be de 34 8c bc cd 52 e6 3d
       0.15973893 -0.20010333 -0.017115053 0.11246262
000070 e3 d8 02 bb 46 5e f1 bc 64 68 57 3d 5b 66 05 3e
       -0.00199657 -0.029463898 0.05258979 0.13027327
000080 8c 36 a3 3d 4b bf c5 bc fb cd eb bd a3 a7 fd bd
       0.07969388 -0.024139067 -0.11513897 -0.1238549
000090 e8 40 d5 bd 59 8c b3 3d a4 73 b9 3b 95 86 25 3e
       -0.104127705 0.087670036 0.0056595374 0.1616462
0000a0 15 cd 48 3e 32 98 93 3d 73 19 a7 3d 6f b4 9a bd
       0.19609483 0.07206763 0.08159151 -0.07553946
0000b0 8b a4 12 be e1 d1 f7 3d 49 63 14 3d 32 09 02 be
       -0.1432058 0.12100578 0.0362275 -0.1269882
0000c0 54 46 78 3d 6d 20 aa 3d 3f ae 80 bd 61 38 65 bd
       0.060613945 0.08306966 -0.06283235 -0.05596197
0000d0 87 b8 4f 3d 35 79 23 be 05 3d 44 bd ed e9 b0 bd
       0.05071309 -0.15964206 -0.047909755 -0.08638368
0000e0 d0 48 4f 3c 6e 4a 33 bd 06 5e 57 3e 10 09 c1 3d
       0.012651637 -0.043772154 0.21031961 0.09425557
0000f0 36 ce 30 3d d1 6a cf bd bc 45 0c be fb fb b9 bd
       0.043165408 -0.101277955 -0.13698477 -0.090812646
000100 61 65 16 3e 38 f9 4d be 14 31 68 bd 09 b9 60 3e
       0.1468711 -0.201146 -0.05668743 0.21945585
000110 33 db 5c 3a fd 90 9c bc 5d 9f 1a be 27 f5 73 3d
       0.0008424997 -0.019112105 -0.15099855 0.059559967
000120 38 28 08 bd 93 28 b5 3d 35 4d ff bd 09 ee c6 bd
       -0.03324148 0.088456295 -0.12465898 -0.0971337
000130 84 98 26 3e 80 d9 bc bc 2c d3 fb 3d cd dd 06 be
       0.16269118 -0.02305293 0.12296137 -0.13170548
000140 ac 66 90 3c 9e ef 65 3d 34 90 5e 3d 87 b6 e1 3d
       0.017627083 0.05613672 0.05433674 0.110211425
000150 fd 54 13 3d 40 3e b4 bd 88 1f f1 bd 4b ef c7 bd
       0.035969723 -0.08800936 -0.11773592 -0.097624384
000160 59 72 13 3c d5 3c 2b be 17 7e 36 3e 2d a7 0b be
       0.008999431 -0.16722424 0.17821537 -0.13637991
000170 b9 7c 91 bd 50 d8 9a bd be 4a d4 bb c9 72 c4 3a
       -0.07103867 -0.075607896 -0.0064786365 0.0014987822
000180 9c 82 11 3e c2 11 9d 3c a5 9c 81 bd 88 b2 f7 bd
       0.1420998 0.019173507 -0.06328706 -0.12094599
000190 29 55 ce bd e9 27 b5 3d 7b 01 cf 3c 48 19 37 be
       -0.10074837 0.08845503 0.02526926 -0.17880738
0001a0 ec 28 27 bd 01 4d 1b bd 81 f9 d2 3d 69 6d 44 be
       -0.04081051 -0.037915234 0.10301495 -0.19182362
0001b0 09 4d b7 bd b2 0e 30 bd 43 64 02 be 16 a6 63 bd
       -0.0895024 -0.042982765 -0.1273356 -0.055578314
0001c0 ba 76 cd 3d 3d 93 ac 3d 45 8e 34 be ac f5 97 3c
       0.10032411 0.08426521 -0.17632397 0.018549763
0001d0 03 c8 33 3e 1b 31 f9 3d ad a7 8a bd 21 8a 8b 3b
       0.17556767 0.12167569 -0.06770263 0.0042584096
0001e0 73 41 a7 bd 8d 1a f2 3d 29 c2 6e 3d 18 18 19 be
       -0.0816678 0.118214704 0.058290634 -0.14950597
0001f0 c6 95 b1 3d 47 8a 0e 3d 9d 60 76 3d f5 51 22 be
       0.08671145 0.03479984 0.06015073 -0.15851577
000200 99 1f 14 be 13 13 46 3d f6 21 1c be f6 13 94 3d
       -0.14465179 0.048358034 -0.1524733 0.0723037
000210 d4 53 61 be 42 8f 86 3c d6 f6 2c bc 2b 44 31 3e
       -0.22004634 0.016425733 -0.010556897 0.1731116
000220 a1 fa 4b 3e 60 8f 24 3e dd 23 b1 3d b5 99 29 bd
       0.19919826 0.16070318 0.086494185 -0.041406352
000230 6b 6f 8c 3c 34 d4 ea 3d ce b8 e5 3d 7e 7a 2e bd
       0.017142972 0.11466256 0.11216889 -0.042597286
000240 2b 27 17 3e 79 4a 22 3e 49 52 18 3d 0e 33 29 3e
       0.14761035 0.15848722 0.03718785 0.16523382
000250 09 22 07 bc 89 35 47 be a5 ff 09 be d7 da 7c bd
       -0.008247861 -0.19454016 -0.13476427 -0.06173214
000260 22 cb 46 bd 95 f2 58 3d 1c 93 c7 3d 9b ab 95 bd
       -0.048533566 0.05296572 0.09744856 -0.07308122
000270 21 2f d1 bd 79 9b fe 3d df ef 25 be bb 37 0e be
       -0.10214067 0.12431998 -0.16204785 -0.13888447
000280 d5 03 28 3e 9e fe 40 bd 56 5f 82 bd 90 80 31 3d
       0.16407712 -0.047117822 -0.0636584 0.043335497
000290 b7 c5 a7 3d 58 92 7c 3d a9 04 8d bc 34 a1 ae 3c
       0.08192008 0.061663 -0.017214136 0.021317102
0002a0 68 96 38 bc 4d ad a5 bd ba 8c cf 3d 15 af ae bd
       -0.011266328 -0.08089695 0.10134263 -0.08529488
0002b0 e7 c1 d5 3d 97 8f fd 3d 63 30 75 bd 78 86 a5 3d
       0.104373746 0.12380903 -0.0598606 0.080822885
0002c0 45 19 c5 3d fa 74 ca 3d 79 7f c2 3d 6c 6c 21 3e
       0.096239604 0.09885593 0.0949697 0.15764016
0002d0 9c 65 c8 bd 55 81 c7 bd 35 2a 46 be 71 97 1d 3d
       -0.097850055 -0.09741465 -0.19352038 0.038474504
0002e0 67 2f ad 3b 78 e2 60 bd 06 00 aa bd ff b6 53 bd
       0.005285192 -0.054903477 -0.08300786 -0.05168819
0002f0 3c ae 53 be 19 bf 29 bd 94 cb 51 bd 09 30 c2 3d
       -0.20671934 -0.04144201 -0.051219538 0.09481818
000300 88 c7 d0 bc 25 f0 0a be 9a b2 8b 3d 31 72 02 be
       -0.025485769 -0.1356817 0.06821175 -0.12738873
000310 40 39 21 3e e2 d4 94 3d 4e 9a 39 bd 9c a9 a7 bd
       0.15744495 0.07267167 -0.045313172 -0.08186647
000320 52 9e 49 3d de ca 86 3d 27 46 61 be 84 34 80 3d
       0.04922325 0.065816626 -0.21999417 0.062600166
000330 3f c0 4c bd 85 7e 18 3e 85 83 50 3e e7 d3 3c be
       -0.049988028 0.14892013 0.2036267 -0.1844021
000340 8e d4 4e 3d 09 9a dc 3d ad d3 9a bd 3f 16 24 be
       0.050495677 0.107715674 -0.07559905 -0.16024111
000350 7d 3d 2c 3d cb 56 07 be 88 1b 30 3e 2e 88 b0 3d
       0.042050827 -0.13216703 0.17198002 0.08619724
000360 f2 a9 34 3e c0 6a 8d 3d 35 2f 0b 3c 4a 89 a3 3d
       0.17642954 0.069051266 0.008495142 0.0798517
000370 05 1c 06 be 59 06 16 be 56 64 f8 bd e7 d4 2c be
       -0.13096626 -0.14650859 -0.121285126 -0.16878091
000380 47 dd 40 be 9e 73 a7 3d e6 67 b8 3b 53 35 2b be
       -0.1883441 0.08176349 0.00562762 -0.1671956
000390 4e b0 9d bc a0 86 33 be 3f c9 2d 3d 70 c7 11 be
       -0.019249108 -0.17531824 0.04242825 -0.14236236
0003a0 2f c7 84 3c aa b5 1f be b5 10 11 3b 35 e9 ff bd
       0.01620826 -0.15596643 0.0022135202 -0.124956526
0003b0 eb 37 34 3c 3c 6e c6 3c c0 fc e8 3d 96 36 eb bb
       0.01099966 0.024222486 0.11376333 -0.007178138
0003c0 a6 3e 9d bd 39 a0 fb bd b0 f9 9a bd 42 c6 a1 bc
       -0.07677965 -0.122864194 -0.07567155 -0.019747857
0003d0 b5 d1 2a 3d 0b 36 94 bd 85 1e ed 3c 6d d9 54 3d
       0.0417039 -0.072368704 0.028945217 0.051965166
0003e0 2b 4c 53 bd 02 6a e1 3d 74 e3 ce bd 0c a7 f2 3c
       -0.05158631 0.110065475 -0.10101977 0.02962067
0003f0 03 cd 02 3d 25 be a7 bd eb f2 3a 3e 21 28 63 bd
       0.031933796 -0.08190564 0.18256728 -0.05545819

model.0.bias f4 [16]
000000 67 b3 c8 3d 5c 2d e2 3d 71 25 e9 3b 87 5b 10 3d
       0.09799843 0.11043808 0.007115059 0.035243537
000010 db 6e f6 3d f0 7e 97 bd 23 14 2a bc 10 9f 40 bc
       0.12032863 -0.07397258 -0.0103807775 -0.011756673
000020 7b 34 30 be 71 77 50 be 36 56 ef 3d 25 06 cf bd
       -0.1720752 -0.20358063 0.11686365 -0.10108594
000030 bf 3d 12 3e e4 e7 15 be 96 f1 57 3e e4 46 b7 bc
       0.14281367 -0.1463924 0.21088251 -0.02237267

model.2.weight f4 [32, 16, 3, 3]
000000 d4 2c 55 3d e8 ca 1d bc 59 4c 8f 3b e7 2c d4 3c
       0.052044705 -0.009630896 0.004373115 0.025900317
000010 8b 23 70 3c b9 b9 ff 3c 84 df 81 bd 1b a8 9a bd
       0.014656912 0.03121649 -0.0634146 -0.07551595
000020 e7 7c 3c bd 8c ac 56 3d c2 50 e9 bb ad 27 6d bd
       -0.046017554 0.052410647 -0.007120223 -0.057899166
000030 f1 46 4c bd c7 99 4c ba 01 5e 4e bd 67 4a 99 3d
       -0.049872342 -0.0007804897 -0.050382618 0.07484894
000040 dd 1d 58 bd 4e 4f 8b 3d ab 87 b3 3b 27 f0 b3 3c
       -0.052762855 0.068022355 0.0054788194 0.0219651
000050 b6 00 b7 bc a4 79 ce bd ed bd 46 bd 8b 0a eb bd
       -0.022339206 -0.10081795 -0.04852097 -0.1147662
000060 e9 81 17 bd 20 2d 60 bc fa 5e 50 bd 22 ac 9a 3c
       -0.036989126 -0.013682634 -0.050871827 0.018880907
000070 62 3c b2 bd ff 95 86 3d 70 20 0a bd 98 53 39 bd
       -0.08702923 0.06571578 -0.03372234 -0.045245737
000080 c7 5d 91 3c 22 e0 62 3d 39 e0 94 bc 3a d6 9d bc
       0.017744912 0.05538953 -0.018173324 -0.01926719
000090 de 6e 92 3c c2 00 f7 3c 3f 48 31 bc 54 a8 16 bc
       0.017875131 0.030151729 -0.0108204475 -0.009195406
0000a0 20 e0 83 bd e3 2f 4f bd 65 7b 34 3c fc 6e 12 bd
       -0.06439233 -0.050582778 0.011015748 -0.035750374
0000b0 f6 19 5f bd 90 ea b0 3d b2 40 49 bd ad af 0d bc
       -0.054468118 0.08638489 -0.049133964 -0.008647841
0000c0 3f 94 ce bc 49 64 ec ba 27 22 95 bc 0b 0d 55 bb
       -0.025217174 -0.0018035258 -0.018204762 -0.0032508995
0000d0 17 a3 da 3b 53 d1 6f 3c 4f 90 ee 3c 48 8a 9d bc
       0.006672274 0.014637309 0.029121546 -0.019230977
0000e0 58 ce 51 bd cc 81 11 3d 81 56 85 3c 62 0c 0e 3d
       -0.051222175 0.035524175 0.0162766 0.034679778
0000f0 69 3a d8 3c 96 a6 7c 3c 13 6f 22 bb 85 b4 af 3d
       0.02639504 0.015420577 -0.0024785444 0.08579353
000100 40 cf be 3b 7e bf 06 3c 98 00 3c 3d 73 fc 26 3d
       0.005823046 0.008224366 0.045899004 0.040768098
000110 b0 84 36 bd 3f 86 63 3d a9 8b af bc f8 f3 f7 3c
       -0.044560134 0.05554795 -0.0214289 0.0302677
000120 16 aa 89 bd c3 0e 0a bd fc 87 18 3d 15 5f 9b 3c
       -0.067218944 -0.033705484 0.03723906 0.018966237
000130 05 08 70 bd f0 b4 92 3c a0 73 9d bc b8 a4 0f bd
       -0.058601398 0.017908543 -0.019220173 -0.035069197
000140 3d e7 10 3d eb a5 0c bd 28 e9 07 bd 98 0c 37 bd
       0.035376776 -0.03433792 -0.03318134 -0.044689745
000150 23 cd 13 3d 57 67 eb 3c 3d ab 55 3d bd 33 ac 3d
       0.036084305 0.0287358 0.05216526 0.08408306
000160 53 ac 1d bd bc 4f ec 3a 26 09 7e bc 88 16 bd 3d
       -0.03849442 0.0018029134 -0.015505111 0.09232813
000170 44 5f bd 3d 0f b4 c2 3c 6f 06 d4 3d 3a 52 93 3d
       0.09246686 0.0237675 0.103527896 0.07193418
000180 89 6a aa bd 35 fe b9 bc 7b fa 52 bd c0 73 ba bd
       -0.08321101 -0.022704223 -0.051508408 -0.09104109
000190 06 44 37 bd 78 a3 94 bd d3 82 f0 3c ca 02 15 3d
       -0.044742607 -0.07257742 0.029359257 0.036379613
0001a0 4f 52 58 3c 74 35 2b 3c 6c cf 90 3c 37 61 0a 3c
       0.013203218 0.010449756 0.017677031 0.008446029
0001b0 4f 6b 1e 3d 82 52 aa 3d 21 ec 5b 3d 75 13 1a 3d
       0.038676556 0.08316518 0.053691987 0.037616212
0001c0 13 09 3a bd 6a 2c 99 3d 79 d7 b0 3d 98 0a fb 3d
       -0.04541881 0.074791744 0.08634848 0.1225788
0001d0 15 6d a9 3d 0e c2 49 3b 95 be e9 3d f5 8c 8f 3c
       0.08272759 0.0030785832 0.11413304 0.017523268
0001e0 63 73 25 bc 99 ec 70 3d 2b 93 8c bc dc 54 13 3c
       -0.010098311 0.058819387 -0.017160019 0.0089924
0001f0 e1 89 3e bb a7 72 9e 3d 69 34 5d bd 16 a1 38 3d
       -0.0029073881 0.07736712 -0.05400506 0.0450755
000200 33 90 a2 3d 04 60 08 3c 5f 3e 83 3d 6d 7e 4e 3d
       0.0793766 0.008323673 0.06408381 0.050413538
000210 59 20 6f bd 8d a4 08 3c 0f d5 65 bc 6d 20 96 3c
       -0.05838046 0.008340013 -0.014027848 0.018326009
000220 c6 e0 89 bd bf 27 8c 3b 98 a3 e9 3c 2f 21 57 3c
       -0.06732325 0.004277199 0.02852039 0.01313047
000230 d1 46 64 3d ea 31 4b 3d 09 b7 91 3d b4 fd 7a 3d
       0.0557316 0.04960815 0.07114989 0.061277106
000240 51 b9 97 3b 5d f0 a2 bd 80 03 71 3c a6 41 4b bc
       0.0046302457 -0.07956002 0.014710307 -0.0124057885
000250 59 55 ab bc 16 40 09 bd 2a f6 2a 3d fb fe 5f 3d
       -0.02091472 -0.033508383 0.041738667 0.054686528
000260 09 cf d5 3d 29 a5 af 3c c5 d2 1e 3d 7b 49 32 bd
       0.104398794 0.02144106 0.038775224 -0.043527108
000270 e4 b9 a5 3d e9 70 9f 3d 98 bd 32 3c f4 61 38 bd
       0.080920964 0.07785208 0.0109094605 -0.04501529
000280 c0 61 8f 3d eb 2c 14 bd 7e fd 45 bd 6f 5d 95 bd
       0.07001066 -0.03617565 -0.048337452 -0.07293212
000290 e9 45 60 3c a4 cb ad bb 3d 2f 93 bd f6 b5 5d 3b
       0.013688543 -0.005303817 -0.07186744 0.003383038
0002a0 ed b6 47 3d c2 f4 81 3d aa e5 96 3a a6 2a 91 3d
       0.048758436 0.06345512 0.0011512537 0.07088213
0002b0 80 9e a9 bc ba 09 57 bd 37 45 37 bc a4 93 c1 bc
       -0.020705462 -0.05249951 -0.011185936 -0.02362997
0002c0 04 52 08 3a f5 04 0e 3d 13 97 8a 3d c2 d4 61 bd
       0.00052002096 0.034672696 0.06767096 -0.055134542
0002d0 e7 b6 84 3d 67 f3 44 bd ce 91 a7 bc c8 6c 4b 3d
       0.06480198 -0.04808369 -0.020455267 0.04966429
0002e0 75 e6 82 3d 2b 7a 93 bd 0a 58 c6 3c ec e0 6a 3b
       0.063916124 -0.07201036 0.024211902 0.003583963
0002f0 77 ee a8 bd 3f 22 1d bd 07 c6 43 3c c1 73 97 bd
       -0.082486086 -0.038362738 0.011949069 -0.07395125
000300 d2 75 4b bc 9f f8 1a bc 0b d7 d0 bc 9f 70 7f bc
       -0.012418227 -0.00945869 -0.025493165 -0.015590816
000310 4c e8 04 bd 3d 77 d2 3c 91 ca 6e 3c 52 ae 78 3d
       -0.032448098 0.025691623 0.014574663 0.06071312
000320 30 e0 d3 bb 48 1b af 3d 92 bf fe 3c ab 3b 5d 3d
       -0.006465934 0.08550125 0.031097207 0.054011982
000330 87 4b 01 bd 09 ab 0a bd d6 9f 8f 3d eb 47 17 b9
       -0.03156617 -0.033854518 0.07012908 -0.00014427274
000340 59 f3 df bc da 39 35 bd 1c 96 b5 3d d9 97 29 3d
       -0.027337717 -0.044244625 0.08866522 0.04140458
000350 f9 2f 9c bc e3 00 76 bc 06 cb 89 3c 7a ae 22 3c
       -0.019065844 -0.01501486 0.016820442 0.009929294
000360 64 5a e0 bc 10 6d d9 3b 7a 1d f9 ba 86 ea 1a 3d
       -0.027386852 0.0066353157 -0.0019005977 0.037821315
000370 68 e4 26 bd 63 72 ac bd 64 98 9d 3d 1b 3d 25 3c
       -0.04074517 -0.08420255 0.07695082 0.010085369
000380 f1 14 f4 bc 94 17 b0 3c f6 a3 2f bd 5e ea 4e ba
       -0.029795142 0.021495618 -0.042880975 -0.00078932
000390 d3 c0 15 bc 68 f2 ee bc b2 2c f0 bc 3b 06 36 3d
       -0.009140211 -0.029168323 -0.029318187 0.044439536
0003a0 51 6b 24 3c e0 d3 d1 bc 55 81 20 3b d7 62 22 bd
       0.010035352 -0.025613725 0.002449115 -0.039645042
0003b0 14 fa b9 bc e4 22 ae 3d c2 7c 1b 3d 4d 58 be bc
       -0.022702254 0.085027486 0.037960775 -0.023235464
0003c0 5b 02 89 3d 86 c8 53 3d df d1 0a bd 02 79 8a 3c
       0.066899024 0.051704906 -0.033891555 0.016903404
0003d0 b8 aa 23 bd 34 db 86 3d be 80 42 3b 69 51 8c bd
       -0.039957732 0.065847784 0.0029678787 -0.06851465
0003e0 33 e7 d1 bb 03 1a a1 3c 7b 05 f5 bc 0f 51 95 bd
       -0.006405735 0.019665724 -0.02990984 -0.07290851
0003f0 03 ac 2c bd 6a 87 4b 3d d3 37 5c 3c 15 aa de 3c
       -0.04215623 0.049689688 0.013441044 0.02718071

model.2.bias f4 [32]
000000 fd 6e 96 bc 91 08 2c 3d 50 f7 7c 3d 56 cb 98 3d
       -0.01836347 0.042000357 0.061759293 0.07460658
000010 33 ad af 3d ba 9f 46 bd b6 04 1e bd 1f d2 89 bc
       0.08577957 -0.04849217 -0.03857871 -0.016823826
000020 1c 77 ec 3d 22 0b 61 3c e3 13 02 bd 40 3d a2 3d
       0.11546156 0.013735564 -0.031757247 0.07921839
000030 11 40 97 bd f2 7e 9d bd e5 95 f4 bc 2f 6d 49 bd
       -0.073852666 -0.076902285 -0.029856632 -0.04917639
000040 73 8c bb 3d 79 20 c7 bd 21 f6 13 bd 30 35 a7 3d
       0.09157648 -0.097229905 -0.0361234 0.081644416
000050 cb 47 56 bd 35 69 1e 3d 01 7f 34 bd 0d f8 05 bd
       -0.05231456 0.038674552 -0.044066433 -0.032707263
000060 82 5a 91 3d 0c 13 61 3d 1c 99 d3 bd 4a 0b 9d 3d
       0.07097341 0.054949805 -0.10331938 0.07668169
000070 a6 71 02 3d 64 b6 be 3c c7 fd 18 bd 01 11 56 bd
       0.031846665 0.02328033 -0.037351396 -0.05226231

model.4.weight f4 [32]
000000 28 b9 7e 3f 93 34 7f 3f e3 3f 80 3f 6c da 80 3f
       0.99501276 0.99689597 1.0019497 1.0066657
000010 e4 0e 81 3f 54 e9 7e 3f 09 44 80 3f 51 29 7d 3f
       1.0082669 0.9957478 1.0020763 0.9889117
000020 f2 2a 81 3f fa a1 77 3f 1e d9 7e 3f 25 ae 80 3f
       1.0091231 0.9673153 0.99550045 1.0053145
000030 ce 2d 81 3f 35 58 7d 3f 69 d6 7e 3f c3 c8 80 3f
       1.0092103 0.9896272 0.99545914 1.0061268
000040 96 a6 80 3f 08 20 84 3f 65 0d 79 3f 16 70 7b 3f
       1.0050838 1.0322275 0.97286063 0.98217905
000050 e5 ef 80 3f 15 3c 7e 3f dc 39 82 3f b7 8f 7e 3f
       1.007321 0.9931043 1.0173907 0.9943804
000060 05 37 7c 3f 54 ab 7e 3f 83 85 82 3f 3b 72 7d 3f
       0.98521453 0.99480176 1.0196995 0.99002427
000070 e6 3c 7c 3f af 34 80 3f 12 d5 7c 3f 56 8c 80 3f
       0.98530424 1.0016078 0.9876262 1.0042827

model.4.bias f4 [32]
000000 ff 59 52 3d fc 01 42 3c cd 01 99 3a 60 d9 9a 3c
       0.05135536 0.011841293 0.001167351 0.01890248
000010 e2 c5 a9 bc bf 84 f9 3c 03 08 ef ba 30 cf 0d 3d
       -0.02072424 0.030458806 -0.0018236641 0.034621418
000020 e2 62 34 bc 5b 49 1d 3d 9c 7c 10 3d c6 75 28 bc
       -0.011009904 0.038400035 0.035275087 -0.010281986
000030 07 e4 22 bc bb 20 b6 3b ec be cc bc 7a e9 a0 3c
       -0.009942061 0.005558101 -0.024993382 0.01964258
000040 b0 00 58 38 b8 69 c1 3c 47 eb 26 3d 17 78 0b 3b
       5.1499053e-05 0.023609981 0.04075172 0.0021281296
000050 b0 c2 bd bc 6e 5c 4e bd 0b 6d 25 bd 0f d3 f4 bc
       -0.023164123 -0.050381117 -0.040387195 -0.029885797
000060 38 23 a5 3b f4 52 a2 bc b8 8d c5 bc 13 49 3a bc
       0.005039599 -0.019814946 -0.024115428 -0.011369961
000070 af d9 49 bc 18 ad a8 bb 16 a9 ed 3c de 65 f0 bb
       -0.012319966 -0.0051475875 0.02901129 -0.0073363623

model.5.weight f4 [64, 32, 3, 3]
000000 12 2d 75 bc 92 f1 81 bd 70 a5 32 bd 99 d1 9f bc
       -0.014964359 -0.06344904 -0.043614805 -0.019509124
000010 b2 3c fd 38 8e 92 9e bc bc 5d 73 bd 2c 3c 43 bb
       0.000120752855 -0.019356992 -0.059415564 -0.0029790504
000020 31 a3 b8 bb 3d dd 91 bb 29 33 36 bc 56 e2 4e 3d
       -0.0056346883 -0.0044514225 -0.011120596 0.05050882
000030 54 58 13 3d 12 27 f6 3c 51 06 3d 3d 3b 17 22 3d
       0.03597291 0.030047927 0.046148602 0.039572936
000040 21 69 8d 3d 4e ab 84 3b 9d 91 f6 bc 1f 76 65 3c
       0.069048174 0.0040487414 -0.03009873 0.014005213
000050 f6 57 68 3d b0 16 29 3d 85 42 80 bb 2b a9 9f 3c
       0.05672451 0.041281402 -0.0039141797 0.019489845
000060 95 79 ee 3b f8 9b a5 bc 0f 46 2e 3d 38 cc 23 3c
       0.0072776773 -0.020215973 0.04254728 0.00999742
000070 e0 31 e1 3c 08 06 3f 3d 6e 74 44 3d e0 96 07 bd
       0.027489603 0.04663661 0.0479626 -0.03310287
000080 1c 39 84 3d a1 90 5d bc 43 22 5b bd 11 26 3b 3d
       0.06456205 -0.013523252 -0.05349947 0.0456906
000090 fc 35 0e bd 43 b4 66 bc 73 ec 41 3d 27 28 fd bc
       -0.034719452 -0.014081064 0.047344636 -0.030902935
0000a0 1e cf aa bc 92 f7 50 3d 1b 4e 82 3d fd d2 a2 ba
       -0.020850714 0.05101735 0.06362554 -0.0012422499
0000b0 0d 92 91 3d b7 e2 0b bb 52 e7 eb 3b fb 30 a3 bc
       0.07107935 -0.002134485 0.0071992064 -0.019920817
0000c0 db 42 d1 3c c7 7a 88 3d a6 61 49 3d b1 20 ee 3c
       0.025544574 0.06664043 0.04916539 0.029068323
0000d0 af f4 04 bd 8e 0f a7 3c 37 c4 74 3d 4e 09 64 3d
       -0.03245991 0.02039316 0.059757438 0.055672936
0000e0 67 f4 5a bc 84 b2 ef 3c e1 48 38 bd 81 0d e1 bc
       -0.013363934 0.029259928 -0.044991378 -0.02747226
0000f0 c1 c7 73 bc 55 f5 4a 3d 17 b5 1d bd 76 aa 1f bc
       -0.014879168 0.049550373 -0.03850278 -0.009745231
000100 02 f5 4c bd 41 03 98 bc 34 43 5a 3c 04 be 5a 3c
       -0.050038345 -0.01855624 0.013321687 0.013350967
000110 4b af 21 ba 1c f0 f6 3b 9c c4 d0 3b d8 2e 04 bd
       -0.0006167783 0.0075359475 0.006371094 -0.032271236
000120 38 89 60 bd 7b be 14 3d cb 51 33 bd 1d 1d 3e bc
       -0.054818362 0.03631447 -0.043779176 -0.011603621
000130 d0 7b 20 3b bf b1 f5 3b 96 bd a2 bb 4f 00 0f 3d
       0.002448786 0.0074979956 -0.004966448 0.034912404
000140 c4 8e 45 3d 06 c3 3d 3c 07 5d 42 bd 3d 81 97 3c
       0.048231855 0.011582142 -0.047452 0.018494243
000150 9e ba 13 3d d5 45 21 3d 45 e7 20 bd 96 a8 a6 bc
       0.036066644 0.039373238 -0.039283056 -0.02034406
000160 c5 da 65 3d 84 e9 8b bb c3 b7 d5 3c 1c 93 79 bd
       0.056116838 -0.0042697806 0.026088601 -0.06093131
000170 12 d8 cf bc bf f8 ca 3c 1b f6 17 3c 33 9d 71 bd
       -0.025371585 0.024776815 0.009274985 -0.058987807
000180 66 d9 be bc 13 ef ab 3c f8 25 2d bc 7d 04 9a bc
       -0.023297023 0.020988023 -0.0105681345 -0.018800968
000190 cc 6b f8 ba ea 5d 07 3d 94 bf 8e bc 40 d3 a2 3c
       -0.0018953024 0.033048548 -0.017425336 0.019876122
0001a0 12 4d 22 3b 8c 69 17 bd 11 a8 d9 bc de 5a 16 3d
       0.0024765176 -0.03696589 -0.026569398 0.03670775
0001b0 47 21 10 bd 85 36 28 bd 00 a3 84 bc e3 61 1f 3d
       -0.035187986 -0.04106762 -0.016191006 0.03891171
0001c0 0b fa 85 bc b9 e8 ad 3c 22 11 36 3d 86 34 2d 3a
       -0.016354581 0.021229135 0.044449933 0.0006607253
0001d0 1a 3c 21 3d ae f1 2f 3d 9c b5 c5 bc 9a 38 12 3c
       0.039363958 0.042955093 -0.02413445 0.008924628
0001e0 b2 9e 2d bd 54 fb 37 3c c4 d0 53 3d 44 fb 64 bd
       -0.04238767 0.011229355 0.051712766 -0.055903688
0001f0 a9 fd 00 bd e3 f1 7f bc 85 6a b8 bc c6 64 80 3b
       -0.03149191 -0.015621635 -0.02251173 0.003918263
000200 6a 4a a2 bc 6a 15 84 3d f5 70 bc 3b 24 a1 61 3c
       -0.019810874 0.06449397 0.00575077 0.013771329
000210 fb 25 dc bc 08 24 b5 3c 86 4d a1 bd 36 15 75 bc
       -0.02687358 0.022111908 -0.078761145 -0.01495867
000220 20 23 8f 3c 1f b3 07 bd 62 ee 06 3b 07 b8 1b bd
       0.017472804 -0.033129808 0.0020588865 -0.0380173
000230 04 44 ee bc e4 09 9f bc e1 ca 2c bd c5 75 03 bd
       -0.029085167 -0.019413896 -0.042185668 -0.032094736
000240 57 8b 39 bd fd 84 3b 3d c6 28 73 3d dc a1 32 3d
       -0.0452989 0.045781124 0.059365056 0.043611392
000250 73 0c 36 3d 75 3e a2 3b 75 41 1c bd 39 39 1f 3d
       0.044445466 0.004951293 -0.038148362 0.03887293
000260 94 7b e2 3c ed 7e 4c bd e0 01 0e 3d c5 38 43 bd
       0.027646817 -0.049925733 0.034669757 -0.04766156
000270 bd 40 a7 bb 42 da ee bc 9f 0e 42 bd eb e1 dc bc
       -0.005104153 -0.029156808 -0.047377225 -0.026963195
000280 f2 78 8e bd 03 fb 38 bd c1 2a 42 bd 33 1a 2a bd
       -0.06956662 -0.04516126 -0.047404055 -0.04152889
000290 56 4c f4 3c 96 f1 36 bc bf 32 27 bc ff bb 00 3b
       0.029821556 -0.011165997 -0.01020497 0.0019643304
0002a0 17 b2 bc bb 57 cc a2 bd 5e 2b 99 bd c2 9b c9 bc
       -0.0057585347 -0.07949131 -0.07478975 -0.024610404
0002b0 d3 24 27 3d 78 c7 95 bc 04 00 4a bc 4a 31 9d bc
       0.040806603 -0.01828359 -0.012329105 -0.019188542
0002c0 b1 42 0f bd ea c7 8d bc 01 31 9f 3c 3f ea e3 3c
       -0.03497571 -0.01730724 0.019432547 0.027821658
0002d0 a9 25 1d 3d fd 2a ec bb 90 ce ac 3c 2f ca 00 3d
       0.038365994 -0.007207273 0.02109459 0.031442817
0002e0 9e 9b 2b bb 46 92 84 3d 10 cb c7 ba 23 15 31 3d
       -0.0026185284 0.06473212 -0.0015243012 0.04323305
0002f0 1a 8d 2f bd dc 19 84 bd 1e cb 02 3d 94 de 23 bd
       -0.042859174 -0.06450245 0.03193199 -0.04000719
000300 04 64 0e 3d 5d 66 74 3b f4 f9 b7 3c ce 93 04 bc
       0.03476335 0.0037292459 0.022458054 -0.00809188
000310 9d 5f 17 3d 75 e4 b6 bb 1e 89 16 3d 7b 53 1e bd
       0.03695642 -0.0055814334 0.03675186 -0.038653832
000320 fd 07 99 ba eb 17 30 bd d3 6c ff 3c 24 ab 26 bc
       -0.0011675354 -0.04299156 0.031179821 -0.010172639
000330 1f c6 64 bd bd 0f 74 bd 86 6d 9a b9 b2 da 1e 3d
       -0.055853005 -0.05958532 -0.0002945477 0.038782783
000340 33 d2 1a 3d c0 90 5f 3c 1f 22 49 3d 5c f3 0c bc
       0.037798118 0.013645351 0.049104806 -0.008602943
000350 17 9d 26 3d c6 bb c8 bc 49 b2 d7 3c ec 8c 1e 3d
       0.040677156 -0.0245036 0.02633013 0.038708612
000360 f4 9d 80 3c e8 3c 45 ba f0 a2 b7 bc 4a 1b e2 bc
       0.015700318 -0.00075240294 -0.022416562 -0.027600903
000370 f9 41 6d 3c 47 50 e7 bc 87 4b 31 3d 54 b3 94 bc
       0.014481061 -0.028236521 0.04328492 -0.018151917
000380 3a 56 0e 3d b2 b2 f6 3c 49 59 4d 3d 7e ad 95 3c
       0.0347502 0.030114505 0.050133977 0.018271204
000390 ac af 7d 3d e5 cf 77 bc f4 a3 45 3c 53 be 1c 3d
       0.061935112 -0.0151252495 0.012063015 0.038267445
0003a0 19 ee b2 bc 78 bc 91 bc 30 14 fc bc 2f 5c 10 3d
       -0.02184205 -0.017790064 -0.030771345 0.035244163
0003b0 6f 81 87 3c 56 c8 ad 3c bf 4e 7d bd 3e 75 51 bc
       0.016541211 0.021213692 -0.061842676 -0.0127843
0003c0 bb cd 85 3c a6 2b ac 3c f3 db 0f bd c4 52 17 3c
       0.016333451 0.021016907 -0.03512187 0.009236041
0003d0 47 b6 60 3d 99 24 11 3b b5 5a 96 3c 3e 62 20 3c
       0.054861333 0.0022147058 0.0183538 0.009789048
0003e0 e3 5c f1 3c 25 c7 c2 bc cd 97 78 3d 3f 0b 10 bc
       0.029463237 -0.0237766 0.060691644 -0.008791744
0003f0 39 03 5a 3c f8 4f c3 bc fc 37 59 bd a3 78 bf bc
       0.013306432 -0.023841843 -0.053031906 -0.023372954

model.5.bias f4 [64]
000000 7a 10 a8 3c 03 78 74 3c fd a4 fd bc 11 e2 0e 3d
       0.02051567 0.014921191 -0.030962462 0.034883562
000010 89 ee cb bc 88 bd 84 3c 30 3e 90 bd 59 1e 83 3d
       -0.024894016 0.016203657 -0.07043111 0.06402273
000020 14 65 a0 3c 9e 36 da bc c6 b2 e0 bb 2f 11 e5 bb
       0.019579448 -0.026637372 -0.006857249 -0.006990574
000030 b1 61 07 bd 8f 40 2d 3d ad 3f 01 3d 12 7a 23 3c
       -0.03305215 0.042297896 0.031554867 0.009977834
000040 f6 79 30 b8 8f 7e 1e 3d 93 3f 96 bc 03 6c 70 3d
       -4.2075255e-05 0.038694914 -0.018340861 0.058696758
000050 16 53 48 3c 25 4a 8b 3d cc c3 3b bd 70 fa dc 3c
       0.0122268405 0.06801251 -0.045841023 0.026974887
000060 45 fa bb bd ee 24 6e 3d 82 07 0f 3d db a6 b3 bb
       -0.091785945 0.058140688 0.03491927 -0.005482537
000070 cc 88 36 3d 34 90 ac 3d 94 62 2c bb f3 35 af 3d
       0.044564053 0.08425942 -0.0026303874 0.08555212
000080 7e e6 98 3d ea 46 29 bd f4 e8 e0 3c 31 b4 b4 bc
       0.07465838 -0.041327395 0.02745483 -0.022058578
000090 b4 4a eb bc 51 e4 72 3d 70 21 92 39 d2 f0 e4 ba
       -0.028722145 0.05929977 0.00027872203 -0.001746679
0000a0 71 20 15 3d 52 41 15 bd 90 fb 4a 3d 90 bf 8f 3b
       0.03640789 -0.036439247 0.049556315 0.0043868497
0000b0 67 53 b3 3d 5c 8c 5e 3d 5b 2a 85 bc c0 d1 fa 3c
       0.08756142 0.054333076 -0.016255548 0.030617595
0000c0 a1 d2 26 bc 78 a7 c6 bb bb 4a c4 3c ea 58 97 3d
       -0.010182054 -0.0060624443 0.023961416 0.07390006
0000d0 a0 90 c3 bc 55 87 2f bb 81 1d bd bc 81 fa b9 bc
       -0.023872674 -0.0026783545 -0.023085358 -0.022702457
0000e0 21 c9 5f 3d 7f d6 a2 bc b6 6e 01 3d e0 cb fc bb
       0.05463517 -0.01987767 0.031599723 -0.0077147335
0000f0 0a 5f 28 bd 24 21 0d 3d 41 17 48 bd 3a 8d 9e bc
       -0.04110626 0.034455433 -0.0488503 -0.019354451

model.7.weight f4 [64]
000000 06 67 80 3f 0b 06 81 3f 2c bd 7f 3f 3d af 7c 3f
       1.003144 1.0079969 0.9989803 0.9870489
000010 69 1c 82 3f 4c c7 7f 3f 73 1b 81 3f da 6c 81 3f
       1.016492 0.9991348 1.0086502 1.0111344
000020 2c 33 80 3f c0 9b 7f 3f 31 6a 7d 3f 64 b6 80 3f
       1.0015616 0.9984703 0.9899016 1.0055661
000030 0b 89 80 3f f3 c9 7e 3f 66 1a 7f 3f 05 04 81 3f
       1.0041822 0.995269 0.99649656 1.0079352
000040 00 c4 80 3f 82 5a 80 3f 13 15 80 3f 41 20 82 3f
       1.0059814 1.0027621 1.0006431 1.0166093
000050 70 75 7f 3f 43 27 7c 3f fb 62 80 3f 6a e6 80 3f
       0.9978857 0.9849741 1.0030206 1.0070317
000060 21 36 80 3f 98 66 80 3f 20 e7 7f 3f ae 41 7f 3f
       1.0016519 1.0031309 0.99962044 0.99709594
000070 af b8 80 3f b6 41 81 3f ab 2a 81 3f 73 13 7b 3f
       1.0056361 1.0098178 1.0091146 0.9807655
000080 0c e9 7d 3f de bc 7c 3f 4f 5a 81 3f f8 c8 80 3f
       0.99183726 0.9872569 1.0105685 1.0061331
000090 f1 ee 80 3f 14 45 80 3f c9 d9 7f 3f fc af 81 3f
       1.0072919 1.0021081 0.9994169 1.0131831
0000a0 28 87 82 3f 20 96 80 3f 6b 95 7c 3f 70 b3 7f 3f
       1.0197496 1.0045815 0.98665494 0.99883175
0000b0 b7 27 7f 3f e0 bc 7f 3f 3b ab 80 3f 09 dd 7f 3f
       0.99669975 0.99897575 1.0052255 0.9994665
0000c0 23 fc 81 3f 70 3e 7c 3f fb d9 7d 3f 10 51 7f 3f
       1.0155071 0.9853277 0.99160737 0.99733067
0000d0 98 e3 7e 3f 34 11 81 3f 62 1d 80 3f 0c ef 7f 3f
       0.9956603 1.0083375 1.0008967 0.9997413
0000e0 0b 25 83 3f fe 73 80 3f 07 ca 81 3f 32 c0 80 3f
       1.024568 1.0035398 1.0139779 1.0058653
0000f0 72 c1 80 3f 8b f0 82 3f 29 85 7e 3f 2b 10 80 3f
       1.0059035 1.0229658 0.99421936 1.0004934

model.7.bias f4 [64]
000000 0a 04 5d bc 6e 98 71 bc 46 0f bb bb 12 50 e4 3b
       -0.0134897325 -0.014745815 -0.005708608 0.006967553
000010 28 38 86 bc e0 ce 5c bc f2 6c be bc eb ef 83 3c
       -0.0163842 -0.013477057 -0.023245309 0.016105613
000020 9f cc 3f bc f8 06 16 3c 19 72 41 bc e5 26 9f 3b
       -0.0117065 0.009156935 -0.011806988 0.0048569315
000030 c1 a5 b9 bb 3c d5 93 bb 9e 54 2c 3c f4 12 80 bc
       -0.0056655114 -0.0045115035 0.010518221 -0.015634038
000040 dd 60 f0 bc 4e c9 c3 bb d2 91 f7 bb d6 b9 c3 3b
       -0.029343063 -0.005974925 -0.007555225 0.005973081
000050 1a 0b 97 bc f9 e6 56 3c 06 a6 fe bb f1 f7 5c bc
       -0.01843791 0.013116592 -0.0077712564 -0.013486848
000060 1c 84 16 bd 19 c1 92 3c 43 24 30 3c b3 17 ad bb
       -0.036747083 0.017914342 0.010750833 -0.005282366
000070 06 f5 00 3c 27 81 0a 3d ac ba 38 ba f5 dc a4 3c
       0.007870918 0.033814576 -0.0007046859 0.020124892
000080 88 74 ce 3c 04 d6 37 bc 2f 00 c7 bc b4 4b 79 bc
       0.02520205 -0.011220459 -0.02429208 -0.015215803
000090 84 4d c4 bb 7a d1 c5 3b 0e ac b3 3a ef c9 2d bc
       -0.005990686 0.0060369344 0.0013707893 -0.010607227
0000a0 47 35 26 3b 55 01 34 bc d8 5b d3 3b ed 9e 1a bc
       0.0025361346 -0.010986646 0.0064501576 -0.009437305
0000b0 0f 16 e9 3c 0e 79 f5 3b 05 ee b2 bb 42 24 77 3c
       0.028452901 0.0074912375 -0.005460503 0.015084328
0000c0 67 ae 79 b9 02 7b 81 bc 94 aa 2a 3c 1b 49 3f 3d
       -0.0002381146 -0.015805725 0.010416646 0.04670058
0000d0 ec a7 b0 3a ea 4d 3d bc cc 75 9c bc 28 7a c1 bc
       0.0013477779 -0.011554221 -0.019099139 -0.023617819
0000e0 24 61 80 3c ac b8 13 bd b0 7f 49 3b 1d ae af bc
       0.01567132 -0.03606479 0.0030746274 -0.021445328
0000f0 b6 b9 c3 bb b4 34 72 bb a6 09 80 bc 70 14 08 bc
       -0.005973066 -0.0036957683 -0.0156296 -0.008305654

model.8.weight f4 [128, 64, 3, 3]
000000 90 ce 06 3d 84 7f c5 3b ad b4 8d bc ad d3 e4 bc
       0.032911837 0.006027164 -0.017298067 -0.027932966
000010 58 c5 22 3d dc 13 d9 bc 01 dc d2 3c 44 e2 93 b7
       0.039738983 -0.026498728 0.025739672 -1.7629129e-05
000020 10 0f a8 bc 34 67 0d 3d c4 6f 22 3d 59 bb e0 3c
       -0.020514995 0.03452225 0.03965737 0.027433084
000030 a2 d3 68 3d 5b 0a 67 3d a0 df ee bb 40 e6 ab 3a
       0.056842454 0.05640636 -0.007289842 0.0013114884
000040 75 e1 4b 3c 8d 7b 26 3d e6 d2 93 bb 97 1e ac 3c
       0.01244389 0.04064517 -0.004511225 0.02101068
000050 36 40 03 bd 17 84 04 3b 93 56 86 bb 80 a3 0f 3d
       -0.03204366 0.0020220333 -0.004099676 0.035068035
000060 18 93 58 bc e0 a2 1f 3c 79 26 0e bd b8 03 c9 3c
       -0.013218664 0.009743422 -0.03470466 0.024537906
000070 d7 f2 27 3c b6 11 8f bc 4d c7 fd bc 5f 52 52 bb
       0.010250769 -0.0174645 -0.030978823 -0.0032092554
000080 93 39 a7 3c 83 73 17 3c 3c a7 7a 3c 4f 74 8d 3c
       0.020413196 0.009243849 0.015298661 0.017267374
000090 50 94 86 bc 23 cc 6b 3c 07 12 5c bb ca 84 28 3b
       -0.016428143 0.014391932 -0.003358008 0.0025713914
0000a0 de 66 79 bd 5d 3c 83 3c 7a 77 3c 3c 0d f3 6c bc
       -0.060889117 0.016019994 0.011503095 -0.014462245
0000b0 53 0f 15 3d e3 7d a4 bc 06 f9 cd 3c a6 36 5d 3c
       0.036391567 -0.020079559 0.025143158 0.013501799
0000c0 01 69 8d 3c aa d9 17 bd ed d1 a3 3c 9a 4a ee bc
       0.017261984 -0.037072815 0.019997561 -0.029088307
0000d0 0e fe c2 3c e6 78 92 3c 8c 9a 7b bc f7 c5 c6 3c
       0.023802783 0.017879914 -0.015356671 0.024264319
0000e0 b1 56 43 bc 27 df 73 3c 40 66 b6 bb 50 5b 3a 3d
       -0.011922524 0.014884747 -0.0055663884 0.04549724
0000f0 da 5c 64 3c bd 79 9a 3c 2e 93 4e bc 2f 95 38 3c
       0.013938153 0.018856877 -0.012608333 0.011266037
000100 76 6a 6d 3c 02 23 ce 3c 0e 04 f1 bc 50 8c 4f bd
       0.014490714 0.025163177 -0.029420879 -0.05067092
000110 5e 83 eb 3b c4 67 7d 3c 5e b5 12 3c 98 ff ed 3c
       0.007187291 0.015466634 0.008954374 0.02905254
000120 3c d7 5a 3c ea 79 17 3d 4a 57 ef 3c d0 b1 0d bc
       0.01335698 0.0369815 0.029216427 -0.008648351
000130 13 14 b4 3c 2d b2 af 3c d1 2a 21 3d 79 e0 d7 bc
       0.021982228 0.021447266 0.039347474 -0.026352154
000140 e6 4c 37 bc 70 a7 34 3c 8b 33 4f bc 82 ec 42 3c
       -0.011187768 0.011026248 -0.012646566 0.011897208
000150 1f a8 ba bc 7d 63 36 bc a6 ec 0f 3c 3a a5 b2 3b
       -0.022785245 -0.011132118 0.008784449 0.0054518254
000160 12 fe 5d 3c d8 99 a1 bc a0 6d 3d bc 1f d5 db 3a
       0.013549345 -0.019726679 -0.011561781 0.0016771889
000170 27 4a ef 3c ec b8 98 3c c9 b7 dc bc 94 3a f7 3b
       0.029210163 0.018642865 -0.026943104 0.007544825
000180 3e ef b3 bc 67 e2 d5 bc 7c 88 47 bc 37 c9 13 3d
       -0.021964666 -0.026108934 -0.0121785365 0.036080565
000190 76 a5 89 3c 30 48 2f bd dc 49 fa bc 49 30 2c 3c
       0.01680253 -0.042793453 -0.030552797 0.010509559
0001a0 16 23 23 bc 3b a7 10 bb 80 8e d3 3b 83 b5 19 3c
       -0.009957096 -0.0022072333 0.0064561963 0.009381655
0001b0 17 a6 5e 3c 46 14 32 3c 3e d3 55 bc ca 69 12 bd
       0.013589404 0.010869091 -0.013050852 -0.03574542
0001c0 b2 aa 90 3c 62 ab 0a bd c6 f5 df 3c a1 43 cd bc
       0.017659519 -0.03385485 0.027338874 -0.025056662
0001d0 19 d8 0d bd 04 de b2 bb 6a a3 0e 3d 52 d4 f7 b9
       -0.034629915 -0.005458595 0.034823813 -0.00047269702
0001e0 07 37 dc 3c d5 c6 3d bb 2c 0c 13 bb 69 0d 32 3c
       0.026881708 -0.0028957624 -0.0022437675 0.010867455
0001f0 14 25 c6 3c 0b cc 8e 3b e5 fb 53 bc e4 31 26 3b
       0.024187602 0.00435782 -0.012938474 0.0025359327
000200 ac f4 ec bc e8 d5 1d 3b 75 c8 46 bc 48 15 0b 3d
       -0.028925262 0.0024083797 -0.012132754 0.033955842
000210 d3 d0 e5 3c 89 33 c8 3c 7e e0 6e 3c 48 89 59 bc
       0.028053677 0.024438636 0.01457989 -0.013277359
000220 0b 44 f7 bc 12 33 03 bd 50 6a 21 3d 47 ea 08 bd
       -0.030183813 -0.032031126 0.039408028 -0.03342655
000230 38 d4 0b 3c 09 75 08 3d 2b 0f 9d 3c 24 81 55 3c
       0.008534484 0.03331474 0.019172272 0.013031278
000240 ef e9 be bc 8c 60 58 3c 49 3b a1 3c f4 39 aa 3c
       -0.023304908 0.013206612 0.01968159 0.020779587
000250 d7 49 1d 3d e3 f4 97 bb fa af fa 3b df e8 87 bc
       0.038400497 -0.004637347 0.0076503726 -0.016590534
000260 3e b6 15 bc 12 99 03 3a 6c 8b 0b bd 82 13 2b bc
       -0.009137688 0.00050200627 -0.03406851 -0.010441663
000270 17 b0 bb bc ef b8 8d bc be c9 21 bd ef df 58 bc
       -0.022911115 -0.017300097 -0.039499037 -0.013236984
000280 6c 53 31 bd 26 4e 07 bd de b8 3e 3c 3e aa 21 bc
       -0.043292448 -0.033033513 0.011640755 -0.009867249
000290 94 6c bd 3c dc 53 1e 3b 48 fe 80 bc 37 9a 72 bc
       0.023123063 0.002415887 -0.01574625 -0.0148072755
0002a0 75 22 9c bc 6e a9 da bc 0b e3 06 3d 28 23 cb 3c
       -0.0190594 -0.026692118 0.03293137 0.024797037
0002b0 75 b9 c0 3c a3 c4 77 bc f3 8a 62 bb ba 82 ac bc
       0.023525933 -0.015122565 -0.0034567683 -0.021058429
0002c0 f0 48 9b 3c 66 16 a1 3b 88 c2 0d bc 05 3f fe bb
       0.018955678 0.004916 -0.008652337 -0.0077589774
0002d0 6b 26 99 3b d6 2b 1b bd 52 e0 bd 3c 2b d6 e6 3c
       0.004673769 -0.037883602 0.023178253 0.028178295
0002e0 f9 ad 9c 3c 39 92 24 bd 62 7d 12 3c 52 4a 58 bc
       0.019125925 -0.04017851 0.008941026 -0.013201313
0002f0 e2 e9 51 bc 4a a7 fc 3c 1c d4 be 3c d7 7c df bc
       -0.01281211 0.030841488 0.023294501 -0.027281208
000300 12 26 64 3d c8 cc 92 bb fb 66 46 3d 5a 3e f7 bb
       0.05570037 -0.0044799782 0.048438054 -0.0075452747
000310 c5 fd c9 3c 0a b2 c0 3c fe 36 87 bb ee a7 4c bd
       0.02465714 0.023522396 -0.0041264286 -0.049964838
000320 ad d4 e9 3b c7 95 d0 3c df 6a 97 bc be 8c 27 bd
       0.0071359486 0.025462044 -0.018483577 -0.040905707
000330 0f 66 38 3c bf ba 94 bc 48 08 19 bc 82 10 36 ba
       0.011254801 -0.018155454 -0.009340353 -0.0006945209
000340 e4 a7 82 bc a5 1b 2c 3c fd 20 bf 3c 88 62 f6 ba
       -0.015949197 0.010504638 0.02333116 -0.0018797675
000350 a8 06 d6 bc b0 71 91 3c 51 8c c0 bc 73 aa d8 bc
       -0.02612622 0.017754406 -0.023504408 -0.026448464
000360 ee c1 81 bc 49 8a 1e 3c cb 72 b2 bc 75 cf df bc
       -0.015839543 0.009676524 -0.021783253 -0.027320603
000370 72 a8 a8 3c 86 0e e7 3c 13 cf 97 3c 3a a3 98 bc
       0.020588133 0.028205168 0.018531358 -0.01863252
000380 37 46 a1 bc 59 cb 90 bb 25 93 e2 3b 75 6d e1 bc
       -0.019686801 -0.004418772 0.0069145137 -0.027518013
000390 8f 66 46 3d dd 1b d2 3c d1 c9 00 3d 8e 7e 04 3d
       0.04843765 0.025648052 0.031442467 0.032347254
0003a0 9a 09 f8 bc 22 21 ed bc f7 f4 a0 3c fb 0f 29 bd
       -0.030278016 -0.028946463 0.019648058 -0.041275006
0003b0 46 a3 22 3c 33 b1 b8 bb e7 aa 85 bc 6a 76 b5 3c
       0.009926623 -0.005636358 -0.016316844 0.02215119
0003c0 ce 09 12 3b 4c 21 48 3d ae c9 49 3d 5e 32 e3 bc
       0.0022283676 0.04885988 0.049264602 -0.027733978
0003d0 e1 76 f8 bc 9c 7d 77 bc 5a e8 8d bc 57 cf 05 bc
       -0.030330123 -0.015105631 -0.017322708 -0.008167109
0003e0 28 0c 0d 3d cd ef a7 bc c4 bc e7 bc c8 bb a2 bc
       0.03443542 -0.020500088 -0.028288253 -0.019864932
0003f0 dd f8 e3 bb 66 87 8c bc 76 65 65 bc c4 1a 6e bc
       -0.006957157 -0.017154407 -0.014001241 -0.014532749

model.8.bias f4 [128]
000000 72 1b b9 bb 07 e3 6b 3c c7 40 61 3d 02 95 ec 3c
       -0.0056490237 0.014397389 0.054993417 0.028879646
000010 06 5f 24 bd 88 6c df 3a 1f 6e 71 3c 1e 75 9e 3c
       -0.040129684 0.0017045895 0.014735728 0.019342955
000020 79 64 0e 3d e7 b1 b1 bc 22 48 59 3c 8b 09 2d 3d
       0.034763787 -0.021691276 0.013261827 0.04224543
000030 98 0a 22 bc 65 87 88 bc e1 ae 26 3d d8 34 75 3b
       -0.009890221 -0.016666124 0.04069412 0.003741553
000040 42 6b 94 bc fc 47 08 3d fa a1 54 bd 57 73 28 3d
       -0.01811755 0.033271775 -0.051912285 0.04112562
000050 f1 97 c4 bb 65 19 b2 3c df 03 eb bc ae 6d a9 b9
       -0.005999558 0.021740625 -0.02868837 -0.0003231591
000060 a1 49 37 3d c2 3a 14 3d 46 50 37 bd 35 5b eb bc
       0.044747952 0.03618885 -0.04475429 -0.028730014
000070 24 1c 35 3c 52 15 ac 3c 1a 44 53 3d 33 2f 5e bd
       0.0110540725 0.02100626 0.05157862 -0.05424423
000080 4a 23 2f 3c 84 2e eb 3c 6b ee d6 3c 68 52 29 3c
       0.010689566 0.028708704 0.026236733 0.010334589
000090 b6 b7 c1 bb 06 25 4b bb 75 36 81 3c 06 81 0b bd
       -0.0059117926 -0.003099741 0.015773037 -0.034058593
0000a0 6b b7 24 bb 8c 7e 2c 3c 70 9a f5 3b 30 0c 69 bc
       -0.002513374 0.010528218 0.007495217 -0.014224097
0000b0 3a a5 05 3d 11 eb 02 3d 35 5a 85 3c c4 66 03 3d
       0.032628275 0.031962458 0.016278366 0.032080427
0000c0 32 22 08 3c 2a ab 8f bc cd 52 50 bd ee 38 3b 3b
       0.008308934 -0.017537672 -0.050860215 0.0028567868
0000d0 25 83 19 3d 10 60 af bc 91 b2 85 3d dd 06 b3 3c
       0.037478585 -0.02140811 0.065281995 0.021853859
0000e0 c0 dc 33 3d 31 5b 73 3b 57 a5 95 bc bf 7f f5 3b
       0.043911695 0.0037133212 -0.018267317 0.007492035
0000f0 8b 3a cb 3c fa 03 f4 bc b3 a9 57 bd bf 25 69 bd
       0.024808189 -0.029787052 -0.052652072 -0.056920763
000100 b6 e1 88 bc 37 5d c7 3b 8e f2 cf bc 2c eb f2 bc
       -0.01670919 0.00608411 -0.025384214 -0.029653154
000110 d6 79 bc bb db be 2d bd c3 77 ee 3c 5c 49 04 bc
       -0.0057518287 -0.042418342 0.029109841 -0.008074131
000120 59 c2 26 3d 2f 0d 26 3d d7 32 68 bd aa 8f b4 3c
       0.040712688 0.040539917 -0.05668911 0.02204116
000130 77 ed 01 3d 24 8e b8 bc 80 98 1e 3d cf 79 14 3d
       0.031720605 -0.022528715 0.038719654 0.03624898
000140 98 e7 51 bc b4 f9 75 3a 2b 5d ae 3c 20 ea cb bc
       -0.012811564 0.0009383217 0.02128466 -0.024891913
000150 bf b1 6d 3c 03 9f 89 3c 4a 6c cb bc 69 0d 58 3d
       0.01450771 0.016799456 -0.02483191 0.052747164
000160 6f a8 80 3c 1c 98 03 3d ec ae 1e 3c 90 97 dc 3c
       0.015705315 0.032127485 0.009685259 0.02692774
000170 f3 51 1a bd cf 56 41 bb 3f 6d 0e 3d 25 2f 33 3d
       -0.03767581 -0.0029501205 0.034772154 0.043746132
000180 c8 18 0f bd 18 d9 a2 3a 5b ad 13 bd 39 ca 42 bd
       -0.034935743 0.0012424318 -0.036053997 -0.047556136
000190 80 61 12 3d 34 de 1c 3d c3 f4 2b bd d9 d3 27 bd
       0.035737514 0.038297847 -0.04198147 -0.040973518
0001a0 36 d0 34 3a 62 63 41 3d c4 97 05 3d 7e 61 88 3c
       0.0006897481 0.04721392 0.032615438 0.01664805
0001b0 8b 74 8f bb 3d b0 0a 3d f4 31 1a 3c 6b 28 e0 bc
       -0.0043779067 0.03385948 0.009411324 -0.027363023
0001c0 6f 9e 7f 3d 66 44 5b 3c bc d7 e4 3c 46 e8 17 bc
       0.062406953 0.013383007 0.027934901 -0.009271687
0001d0 79 6a 5f bc 4c 9b 56 3c ce 22 11 bd 78 d6 79 3c
       -0.013636225 0.013098549 -0.035433583 0.015248887
0001e0 67 6c c4 bc 81 71 c1 bc 04 45 3e 3c 4f 30 a6 3c
       -0.023977472 -0.023613693 0.011613134 0.020286707
0001f0 60 dd cb 3b 05 c8 23 3c 71 bc 73 3d c0 0b 74 bc
       0.0062214583 0.009996419 0.059505884 -0.01489538

model.10.weight f4 [128]
000000 1b bb 82 3f 6a b6 87 3f a2 39 84 3f aa 9e 83 3f
       1.021335 1.0602543 1.0330088 1.0282795
000010 4a 17 83 3f 3e c5 83 3f b9 7f 82 3f f4 c1 83 3f
       1.0241482 1.0294569 1.0195228 1.0293565
000020 5e 68 83 3f 71 e9 84 3f fc f5 85 3f 8e 48 84 3f
       1.0266225 1.0383741 1.0465693 1.0334642
000030 10 aa 83 3f 77 04 83 3f 08 fb 84 3f c3 3d 81 3f
       1.0286274 1.0235738 1.0389109 1.0096973
000040 ed 52 82 3f fd 23 82 3f fb d1 82 3f 6f a7 82 3f
       1.0181557 1.0167233 1.0220331 1.0207347
000050 a0 35 83 3f 0c 6f 84 3f 7b ea 82 3f af df 83 3f
       1.025074 1.0346389 1.0227808 1.0302638
000060 79 68 85 3f e6 88 84 3f 8e 78 83 3f f0 d9 83 3f
       1.0422508 1.0354278 1.0271165 1.0300884
000070 98 f6 84 3f d5 38 83 3f e7 ab 85 3f 4c 2d 83 3f
       1.0387754 1.0251719 1.0443085 1.0248199
000080 82 ae 82 3f 2c da 81 3f 95 a4 83 3f 2a bf 81 3f
       1.0209506 1.0144706 1.0284601 1.0136464
000090 bf b3 81 3f 50 b0 81 3f c3 ea 83 3f 79 f3 81 3f
       1.0132979 1.0131931 1.0306019 1.0152427
0000a0 00 e9 83 3f f2 5f 82 3f 14 bb 82 3f fb b1 82 3f
       1.0305481 1.018553 1.0213342 1.0210565
0000b0 89 ec 86 3f e5 10 82 3f 6a 78 82 3f f2 93 83 3f
       1.0540935 1.0161406 1.0192997 1.0279524
0000c0 b7 49 84 3f be a5 84 3f 97 d2 83 3f 1c ed 82 3f
       1.0334996 1.036308 1.0298642 1.022861
0000d0 23 c2 83 3f 72 a4 82 3f 6f 69 82 3f ab ac 82 3f
       1.0293621 1.0206435 1.0188426 1.0208944
0000e0 f4 32 83 3f 3d 98 84 3f af 42 84 3f 69 13 83 3f
       1.0249925 1.035896 1.033285 1.0240299
0000f0 ce ed 82 3f a6 60 83 3f 1e cd 81 3f 88 de 81 3f
       1.0228822 1.026387 1.0140722 1.0146036
000100 61 a6 83 3f 83 4d 83 3f 41 36 81 3f 07 84 83 3f
       1.028515 1.025803 1.0094682 1.0274667
000110 18 ca 81 3f dc 4e 83 3f f9 6f 84 3f 86 53 81 3f
       1.0139799 1.0258441 1.0346671 1.0103614
000120 87 89 82 3f e9 2f 83 3f a5 a3 80 3f b5 c0 83 3f
       1.019822 1.0248996 1.004994 1.0293185
000130 e0 10 83 3f c7 e3 82 3f e5 6b 82 3f 8e 11 81 3f
       1.0239525 1.0225762 1.0189177 1.0083482
000140 1d 92 82 3f 9e a6 81 3f fb 41 85 3f b9 d5 82 3f
       1.020084 1.0128973 1.0410761 1.0221473
000150 fe 3d 83 3f 48 e8 84 3f 23 14 85 3f 77 e8 83 3f
       1.0253294 1.0383387 1.039677 1.0305318
000160 4c 15 81 3f ea 85 85 3f 1d 43 83 3f 86 0c 81 3f
       1.0084624 1.0431492 1.0254856 1.0081947
000170 88 c8 81 3f a6 89 83 3f e1 c4 82 3f e7 b3 82 3f
       1.0139322 1.0276382 1.0216333 1.0211152
000180 70 f7 81 3f dc 30 83 3f 51 e0 83 3f 39 23 84 3f
       1.0153637 1.0249286 1.0302831 1.0323249
000190 64 d6 82 3f 37 2f 81 3f d5 e4 82 3f 60 4e 83 3f
       1.0221677 1.0092534 1.0226084 1.0258293
0001a0 73 9c 83 3f ee df 82 3f a5 d1 83 3f ee 36 84 3f
       1.028212 1.0224588 1.0298353 1.0329263
0001b0 12 98 83 3f 8e 2e 81 3f ab 23 85 3f 88 ed 82 3f
       1.0280783 1.0092332 1.040151 1.0228739
0001c0 3e 72 84 3f 3f c3 83 3f 99 9e 82 3f 94 53 83 3f
       1.0347364 1.0293959 1.020465 1.0259881
0001d0 b2 f1 82 3f 9a 43 82 3f 93 3e 83 3f 17 6c 82 3f
       1.023001 1.017688 1.0253471 1.0189236
0001e0 84 de 82 3f a2 d4 81 3f 94 44 84 3f e1 20 83 3f
       1.0224156 1.0143015 1.0333428 1.0244409
0001f0 81 0b 86 3f 37 a8 82 3f 76 be 81 3f 28 87 82 3f
       1.0472261 1.0207585 1.0136249 1.0197496

model.10.bias f4 [128]
000000 00 00 00 00 00 00 00 00 00 00 00 00 00 00 00 00
       0.0 0.0 0.0 0.0
000010 00 00 00 00 00 00 00 00 00 00 00 00 00 00 00 00
       0.0 0.0 0.0 0.0
000020 00 00 00 00 00 00 00 00 00 00 00 00 00 00 00 00
       0.0 0.0 0.0 0.0
000030 00 00 00 00 00 00 00 00 00 00 00 00 00 00 00 00
       0.0 0.0 0.0 0.0
000040 00 00 00 00 00 00 00 00 00 00 00 00 00 00 00 00
       0.0 0.0 0.0 0.0
000050 00 00 00 00 00 00 00 00 00 00 00 00 00 00 00 00
       0.0 0.0 0.0 0.0
000060 00 00 00 00 00 00 00 00 00 00 00 00 00 00 00 00
       0.0 0.0 0.0 0.0
000070 00 00 00 00 00 00 00 00 00 00 00 00 00 00 00 00
       0.0 0.0 0.0 0.0
000080 00 00 00 00 00 00 00 00 00 00 00 00 00 00 00 00
       0.0 0.0 0.0 0.0
000090 00 00 00 00 00 00 00 00 00 00 00 00 00 00 00 00
       0.0 0.0 0.0 0.0
0000a0 00 00 00 00 00 00 00 00 00 00 00 00 00 00 00 00
       0.0 0.0 0.0 0.0
0000b0 00 00 00 00 00 00 00 00 00 00 00 00 00 00 00 00
       0.0 0.0 0.0 0.0
0000c0 00 00 00 00 00 00 00 00 00 00 00 00 00 00 00 00
       0.0 0.0 0.0 0.0
0000d0 00 00 00 00 00 00 00 00 00 00 00 00 00 00 00 00
       0.0 0.0 0.0 0.0
0000e0 00 00 00 00 00 00 00 00 00 00 00 00 00 00 00 00
       0.0 0.0 0.0 0.0
0000f0 00 00 00 00 00 00 00 00 00 00 00 00 00 00 00 00
       0.0 0.0 0.0 0.0
000100 00 00 00 00 00 00 00 00 00 00 00 00 00 00 00 00
       0.0 0.0 0.0 0.0
000110 00 00 00 00 00 00 00 00 00 00 00 00 00 00 00 00
       0.0 0.0 0.0 0.0
000120 00 00 00 00 00 00 00 00 00 00 00 00 00 00 00 00
       0.0 0.0 0.0 0.0
000130 00 00 00 00 00 00 00 00 00 00 00 00 00 00 00 00
       0.0 0.0 0.0 0.0
000140 00 00 00 00 00 00 00 00 00 00 00 00 00 00 00 00
       0.0 0.0 0.0 0.0
000150 00 00 00 00 00 00 00 00 00 00 00 00 00 00 00 00
       0.0 0.0 0.0 0.0
000160 00 00 00 00 00 00 00 00 00 00 00 00 00 00 00 00
       0.0 0.0 0.0 0.0
000170 00 00 00 00 00 00 00 00 00 00 00 00 00 00 00 00
       0.0 0.0 0.0 0.0
000180 00 00 00 00 00 00 00 00 00 00 00 00 00 00 00 00
       0.0 0.0 0.0 0.0
000190 00 00 00 00 00 00 00 00 00 00 00 00 00 00 00 00
       0.0 0.0 0.0 0.0
0001a0 00 00 00 00 00 00 00 00 00 00 00 00 00 00 00 00
       0.0 0.0 0.0 0.0
0001b0 00 00 00 00 00 00 00 00 00 00 00 00 00 00 00 00
       0.0 0.0 0.0 0.0
0001c0 00 00 00 00 00 00 00 00 00 00 00 00 00 00 00 00
       0.0 0.0 0.0 0.0
0001d0 00 00 00 00 00 00 00 00 00 00 00 00 00 00 00 00
       0.0 0.0 0.0 0.0
0001e0 00 00 00 00 00 00 00 00 00 00 00 00 00 00 00 00
       0.0 0.0 0.0 0.0
0001f0 00 00 00 00 00 00 00 00 00 00 00 00 00 00 00 00
       0.0 0.0 0.0 0.0
