Lab4/models/gan_models/wgan_1000e_1250b_dis.pth (torch, 398261 bytes, 15 tensors)

model.0.weight f4 [16, 3, 3, 3]
000000 51 aa 9b 3b f0 70 a6 3d a8 04 88 bd 3a c3 ef 3d
       0.004750528 0.0812701 -0.06641513 0.117071584
000010 83 30 1f 3e ce 0c 71 bc fb 1e 8a 3d 40 5e b0 3d
       0.1554585 -0.0147125255 0.0674419 0.08611727
000020 38 a9 e5 3d 0e 3c d4 bd 00 71 0a bd dd 42 02 bc
       0.112139165 -0.10363017 -0.03379917 -0.007950512
000030 b5 a4 b6 3c c1 e0 1f 3e f4 27 84 3d 33 9c 73 3d
       0.022295335 0.1561308 0.06452933 0.059475135
000040 1d bd 3f 3d e8 25 58 3e 82 92 e2 3c 87 23 2e bd
       0.04681121 0.2110821 0.027657751 -0.04251435
000050 41 20 ef 3d df c1 1a 3e b4 48 da 3c 94 b0 2e 3e
       0.11676074 0.15113018 0.026645996 0.17059547
000060 ba 64 15 3e 9a 30 42 3e 2b b2 78 3e f8 f7 21 bc
       0.14589205 0.18963853 0.24286716 -0.0098857805
000070 b4 b7 98 3b cd 51 f2 3d 5e 59 0f 3d ca 40 c3 3d
       0.004660571 0.118320085 0.034997337 0.09533842
000080 8e f6 19 be fa 09 54 be 81 5f 1f 3e f1 66 53 bb
       -0.1503546 -0.20706931 0.15563776 -0.0032257403
000090 ea c0 a8 bd 35 2d 42 3d 11 20 0e bc 51 e5 08 3e
       -0.082399204 0.047406394 -0.008674637 0.13368727
0000a0 00 49 1a 3e f6 e5 09 be bd b5 5d be 36 96 1a 3e
       0.1506691 -0.1346663 -0.21651359 0.15096363
0000b0 75 db 94 bd d8 01 87 bd 97 13 7f 3b b2 9a 58 3d
       -0.072684206 -0.065921485 0.0038921589 0.052881904
0000c0 b0 dd 8f 3c 39 94 46 3e 46 b8 04 be 08 83 14 be
       0.017561764 0.1939248 -0.1296092 -0.1450311
0000d0 02 3a 0c 3d 44 2c 52 bd 97 b4 f8 bc c3 bb 9e 3c
       0.034235008 -0.051311746 -0.03035955 0.019376641
0000e0 f9 df 5a 3d 6a 22 c3 3d 21 e9 99 3d 70 65 2f 3c
       0.053436253 0.09528048 0.07515169 0.010705337
0000f0 fe 40 56 bc 42 bd 1e bd d7 59 1d be dd 14 52 be
       -0.013077019 -0.03875471 -0.15366302 -0.20515771
000100 e3 52 58 3d 54 27 1a 3e 13 1c ba bd 8a ac 3c bd
       0.052813422 0.15054065 -0.09087386 -0.046062984
000110 3a df a4 3d 4b 18 01 3e cb b3 15 be a8 ad 47 be
       0.080503896 0.12606923 -0.14619367 -0.19499838
000120 43 1c 83 3d a7 aa 04 3e 93 6f d5 bd ad 62 08 be
       0.06401875 0.12955724 -0.10421672 -0.13318892
000130 2a 48 07 bd bd 82 81 3d 0e b6 1f 3d 29 a4 04 3e
       -0.033027805 0.063237645 0.03899198 0.12953247
000140 8a 83 52 bd 36 c3 00 be 7a e9 eb bb 38 5f ae bd
       -0.051394977 -0.12574467 -0.0071994634 -0.08514255
000150 73 01 cb bd 44 a5 d3 3d 06 1e 2c bd f1 e3 fa bd
       -0.09912386 0.10334256 -0.04202082 -0.122505076
000160 28 83 8f 3a ca e4 d0 bd c1 4e 69 3d 4d 78 42 bd
       0.0010949122 -0.10199888 0.05695987 -0.04747801
000170 da 00 3a bd 25 f1 d0 3d 56 94 8d 3d a4 b7 05 3e
       -0.04541097 0.10202245 0.069130585 0.13058335
000180 97 ff f8 3d 60 8b 28 3e e4 1e 38 3e 06 5c a8 bc
       0.12158125 0.16459417 0.17980534 -0.020551693
000190 a2 af c8 bd c4 01 79 3d b9 f0 aa bd d7 e9 2e 3b
       -0.09799124 0.0607927 -0.083466955 0.0026689672
0001a0 2e 49 de bd 65 30 c7 bd 4c ff 5b 3d 87 e6 21 be
       -0.10853802 -0.097260274 0.053710267 -0.15810595
0001b0 4e 86 65 bd 54 1e c0 bd 0b 0b ca 3d 78 53 96 3c
       -0.056036286 -0.09380785 0.098653875 0.018350348
0001c0 86 ea 41 be d9 5b cb bd 7c bf bb 3d e4 47 b2 bd
       -0.1893712 -0.09929628 0.09167382 -0.08705118
0001d0 34 17 05 be 0d 99 2d bc 18 51 5a be a9 1d fb 3d
       -0.12997133 -0.010595572 -0.21319997 0.122615166
0001e0 40 1c db 3d ef a9 5d be 0b f3 14 be 13 bd 43 bd
       0.10698748 -0.21646856 -0.14545839 -0.047787737
0001f0 b4 af ef 3c ce cd 9e bd fa 07 4c 3d d8 94 c5 bd
       0.029258586 -0.07754098 0.049812295 -0.0964753
000200 58 9e 02 3e 64 42 ad 3d 7e cc 73 be 5e 47 17 bd
       0.12755716 0.08459929 -0.23808476 -0.036933295
000210 f6 0e b4 bd 83 b9 e9 bc ec 89 fe bd af f2 cb 3b
       -0.08791916 -0.028530842 -0.1242865 0.0062239985
000220 25 0e 28 3e 76 11 53 be d7 c4 66 3e 4c 71 e7 3d
       0.16411646 -0.2061213 0.22536026 0.113009065
000230 ef 13 20 be 2e 05 02 3e 4c 5d d3 bd 68 ae dc bd
       -0.15632604 0.12697288 -0.10320529 -0.10775453
000240 32 04 ca 3d 4d 0a 41 bd 73 5b af 3d fa 79 91 3d
       0.098640814 -0.047128964 0.085623644 0.07103343
000250 0f c4 96 3d 13 df 96 3b 1c d1 26 3e f3 37 40 be
       0.07361614 0.0046042292 0.16290706 -0.18771343
000260 34 a1 29 be 0e 51 27 bd 35 0f 5e bc 2e 03 06 bd
       -0.165654 -0.040848784 -0.01355343 -0.032717876
000270 3d 79 68 3e d2 f1 57 3d e2 44 b2 3d ee b9 c9 bd
       0.22702499 0.052720852 0.087045446 -0.098499164
000280 48 5a 48 3d be a7 e4 bd f6 fb 6c 3d 8e 93 9e 3d
       0.048914224 -0.11164807 0.057857476 0.077429876
000290 c9 53 9e 3d 7d 60 a2 bd f9 b3 9b bc ba e5 52 bd
       0.077308245 -0.0792856 -0.019006716 -0.051488616
0002a0 6a 38 1b 3e a8 7b 59 3d d7 dc ac bd ab f5 55 3d
       0.15158239 0.053096443 -0.08440559 0.05223624
0002b0 90 42 2b bd 7e b2 4c bc 0d 7b 42 bd 4a 25 87 3d
       -0.041811526 -0.012493728 -0.04748063 0.06598909
0002c0 8f 0c ad bd d8 6f 11 be 3d eb bc 3b 0c f7 77 bd
       -0.08449661 -0.14202821 0.0057653473 -0.060538337
0002d0 7c b9 c4 3d 99 0d 5e bd 0b 4e dc bd 73 2f 83 bd
       0.09605691 -0.054212186 -0.10757073 -0.064055346
0002e0 51 5a c1 bc 55 ec e4 bd ed 81 b3 3d a5 23 58 3c
       -0.023602637 -0.11177889 0.08765016 0.013192092
0002f0 ef b2 ab bd 6b 56 d2 3d e1 6f 28 3e c8 5b 06 be
       -0.08383738 0.10270389 0.16448928 -0.1312095
000300 2c 43 a9 bd 0c 19 c2 3d fc bf 23 3d 53 a4 84 3d
       -0.08264765 0.094774336 0.039978012 0.06476655
000310 ba 34 b5 bc 84 d4 db 3d 86 76 9c 3d 72 ec df 3c
       -0.022119869 0.107338935 0.07639794 0.027334426
000320 ee 98 79 bd c0 a1 e9 3d 55 b8 0f 3e 73 53 6c 3c
       -0.06093686 0.114078045 0.14035161 0.014424193
000330 39 f3 1d 3d 8d b1 c0 bb de ad 1f 3e ac 7e 3e 3d
       0.038562033 -0.0058805407 0.15593669 0.046507522
000340 78 1e ef 3d 49 16 18 3e 05 37 0f bb 00 a7 36 3e
       0.11675733 0.14852251 -0.0021852863 0.17837143
000350 23 8e ac 3d d3 54 09 3e 7d b0 97 3c 88 cf eb 3d
       0.08425548 0.13411264 0.018516773 0.11514193
000360 d0 48 7b bd 0a b5 f4 3d ce da 24 be 61 ba af bd
       -0.061348736 0.11948593 -0.16099092 -0.08580471
000370 f3 0b f6 3b 28 61 38 be 09 30 e7 3d e5 40 05 be
       0.0075087487 -0.18005812 0.11288459 -0.13013037
000380 f1 24 18 be 69 07 18 bd 82 38 ed 3d d9 e5 96 3c
       -0.14857842 -0.037116442 0.11583044 0.018420147
000390 1d 05 08 3c bf d2 eb 3d 4f 31 9e 3d 81 da 31 be
       0.008302 0.11514806 0.077242486 -0.17368509
0003a0 b5 11 c9 3c 05 c3 38 3e 6c 18 ce 3c 4c bc 04 be
       0.024544576 0.18043144 0.02515813 -0.12962455
0003b0 ca 9f 26 bd c6 d5 61 bd 88 06 6b 3d 56 5f b7 3d
       -0.04067973 -0.05513551 0.057379276 0.08953731
0003c0 ab 6c 76 3d 51 c3 4e bd 97 d3 1d be 49 89 c5 bd
       0.060162228 -0.050479237 -0.15412746 -0.09645326
0003d0 1a 1c 22 bd 7d 62 fb bc 9d cb 19 be 0f 67 4c 3d
       -0.03957758 -0.030686611 -0.15019079 0.04990297
0003e0 d8 18 49 bd 9b a1 93 bd 28 90 4e bd 52 7c ee 3d
       -0.04909596 -0.07208558 -0.050430447 0.11644806
0003f0 13 63 04 3e a8 61 0e be 3b d5 30 be 38 84 33 be
       0.12928419 -0.1390444 -0.17268841 -0.17530906

model.0.bias f4 [16]
000000 9a 29 2e 3d df e5 bf bb 8e 34 18 3e 32 63 47 3e
       0.042520143 -0.00585626 0.14863798 0.19471434
000010 ec f7 f9 bc 29 36 0d be 5f d9 21 3e 3d 32 4f be
       -0.030513726 -0.13790192 0.15805577 -0.20234008
000020 32 c1 0b be 99 24 69 3e 5c 6a a4 bd 2a 34 9c bd
       -0.13647917 0.22767867 -0.08028099 -0.07627137
000030 ec de f0 3c ca ff 38 3d f3 99 6f 3e 00 74 c8 bd
       0.029403172 0.045165814 0.2339857 -0.0978775

model.2.weight f4 [32, 16, 3, 3]
000000 ba df aa bc 62 db 0d 3d 44 76 87 3d 51 b9 1b 3c
       -0.020858634 0.034633048 0.06614354 0.009504632
000010 b2 09 12 bd 13 af 62 3d 04 14 0c 3b 1a 17 82 3d
       -0.035653777 0.055342745 0.0021374235 0.063520625
000020 22 46 a8 3d a9 07 8f 3d 31 1f 86 3c 8f 39 ae bd
       0.08216502 0.06983883 0.016372295 -0.08507072
000030 45 8e 15 3c 40 dc e1 3c 3b 33 a2 bd 41 33 02 3c
       0.009128158 0.027570844 -0.07919928 0.00794679
000040 8e 66 e8 3d 7a 16 e1 3a 1b 8c 95 3d e6 a0 33 3c
       0.11347686 0.0017172836 0.073021136 0.010963654
000050 b2 85 71 bd 12 df 6c 3c 8c b0 20 3c ff 77 5a 3c
       -0.058965392 0.014457481 0.009807717 0.013334273
000060 88 77 2b 3d 41 3f c3 3c 80 88 f8 bc f4 cc b8 3d
       0.04186204 0.023833873 -0.030338526 0.09023467
000070 0e c4 bd bc a7 43 26 bd e1 4d 5f bd 47 da b8 bc
       -0.023164775 -0.040591862 -0.05451763 -0.02256502
000080 9c 93 03 3d 7a 55 db 3c 47 6e 7b 3c 69 43 53 3d
       0.032123193 0.026774157 0.015346116 0.05157796
000090 1a 29 7c bd fe c6 aa bb 9c 2a b0 3c 8d e1 b1 bb
       -0.061562635 -0.00521171 0.021504693 -0.005428499
0000a0 39 37 1f bd 50 ff 12 bd 62 8a 8a 3d 12 2c 81 bc
       -0.038871024 -0.035888016 0.06764676 -0.015768085
0000b0 f3 03 c4 bd c3 27 bc 3c 9f 75 c9 3b 9b be ca bc
       -0.09571066 0.022968179 0.0061480547 -0.02474909
0000c0 70 2b 8d 3d 78 0a ed 3d ab 3a 1c 3c ef 07 73 3c
       0.06893051 0.115742624 0.009535472 0.0148334345
0000d0 d4 c5 71 bd fb da e1 bc 91 e1 c4 3c d6 1c 09 3d
       -0.059026554 -0.027570238 0.02403334 0.033474766
0000e0 af 92 89 3d f3 6a 75 bb ce 83 52 3d ec 56 f2 bc
       0.06717431 -0.003744778 0.05139523 -0.029582463
0000f0 05 60 a5 3d e3 79 98 bc 78 5d 35 3c 3c bf e4 3d
       0.08074955 -0.018612808 0.011069648 0.111692876
000100 b6 eb 67 3d 3a df 8e bb 90 97 05 3d 64 38 87 3d
       0.056621276 -0.004360107 0.032615244 0.066025525
000110 6b 59 a1 3d 42 4d 8d bc 2f 14 da 3d 83 04 b9 3b
       0.07878383 -0.017248753 0.10648381 0.00564629
000120 3e fb 37 bd f8 82 03 bd d0 d4 e8 3a 2a f0 e5 bc
       -0.044917338 -0.032107323 0.0017763618 -0.02806862
000130 d3 ac 56 bb 3e 69 4b bd 6c 58 52 3c 8d dd 44 bd
       -0.003275682 -0.049660914 0.012838464 -0.04806285
000140 ad 3c 9e bd 52 c5 17 bc ba a9 dc bc e1 38 dd 3c
       -0.07726417 -0.009263353 -0.0269364 0.027004661
000150 36 64 6c 3d ff a2 12 bd 1b f8 c7 3c 0c c1 aa 3c
       0.057712756 -0.035799976 0.024410298 0.020844005
000160 c6 48 cf 3c db 75 39 bd be 06 31 bd 46 de 08 3e
       0.025303256 -0.04527841 -0.04321932 0.1336604
000170 f3 4f b9 3c 76 a8 be bd 58 11 29 bc 7f a6 89 3d
       0.02262113 -0.09309475 -0.0103190765 0.0672121
000180 ec 50 c9 bb f6 b2 06 bd f0 9e e2 3b 75 23 3a bc
       -0.00614368 -0.032885514 0.0069159195 -0.011360993
000190 21 71 9b 3d 6a 04 66 3d 56 b4 07 3d cd c7 b6 3d
       0.07589937 0.056156553 0.033130966 0.08924828
0001a0 c0 6a d9 3d 2b a6 f1 3c 0d d3 2a bb 5d cd e1 3c
       0.10616064 0.02949818 -0.0026065737 0.027563745
0001b0 99 e4 da bb 51 d6 6e bd ad 74 56 bd 86 17 0f 3d
       -0.006680083 -0.058309857 -0.052357364 0.034934543
0001c0 15 a4 7f bd 25 df 40 bd bc 4f a4 3b f3 43 13 bd
       -0.06241234 -0.047087807 0.005014388 -0.035953473
0001d0 45 f7 ed bc 3c 0f b3 3d f3 fd 0f 3a 61 f1 13 3d
       -0.029048571 0.0874314 0.00054928585 0.03611887
0001e0 fc 31 5f 3c a9 02 99 3d a1 46 39 3d ef ba 0e bd
       0.013622757 0.074712105 0.045233373 -0.034846243
0001f0 ae 1c 88 bc 23 3e f1 bc d3 9f 4c 3c 4f a9 7a 3c
       -0.016615238 -0.029448574 0.012489277 0.015299155
000200 20 c0 bb 3b 4f 17 33 bb 7b 31 44 bd 58 be a9 3b
       0.00572969 -0.0027327125 -0.04789875 0.0051801614
000210 3b 2a 43 bc 86 07 8e bd ff 0f 0d bd fa 78 3b bd
       -0.011911924 -0.06935029 -0.034439083 -0.04576967
000220 c2 12 57 bb ba e5 f7 3c 4c d8 d9 3d cd 4f f0 3d
       -0.0032817577 0.03026091 0.106369585 0.11733971
000230 4b f4 30 3d e6 cd 32 3d a6 a5 9f 3c b7 28 9d 3d
       0.043201726 0.04365339 0.019488167 0.07673781
000240 9f 8e 4e bd 28 51 5f 3d 7b eb 79 3d 30 de 92 bd
       -0.050428983 0.054520756 0.061015587 -0.07171285
000250 4e c5 61 3d d9 23 78 bd 8f c1 1d 3d 46 7c ce bb
       0.055119805 -0.060581062 0.03851467 -0.0063014356
000260 4e 76 96 3d 20 48 9e bc 4f d9 b5 bd 20 b3 a5 bd
       0.073467836 -0.019321501 -0.08879339 -0.08090806
000270 84 03 49 bd 48 e7 d3 3a a0 94 20 3c d6 93 e2 39
       -0.04907562 0.001616695 0.00980106 0.00043216225
000280 e0 50 37 bb 00 63 0c bc 4a 02 a8 ba 72 84 74 3c
       -0.002797179 -0.008568525 -0.0012818065 0.014924156
000290 19 7b 6d 3d 17 46 26 3d e4 1f 31 3b 57 f0 d6 bb
       0.057978723 0.040594187 0.0027027065 -0.0065594125
0002a0 0e db b3 3c df f6 94 3c ec 3e db 3c ca 11 2d 3d
       0.02195504 0.018184124 0.026763402 0.042253293
0002b0 d3 50 dd 3c 7d 8c 74 3d fd a9 ba bc 3b ee 96 3d
       0.027016079 0.059704293 -0.022786135 0.073696576
0002c0 7c ed 71 3d 5b c8 ab 3b 21 1e c8 3c 4b ff 70 bc
       0.059064373 0.00524239 0.02442843 -0.014709304
0002d0 da 2f dc bc c9 aa 52 bd a8 60 ef 3c ee f9 b2 bc
       -0.026878286 -0.051432405 0.029220894 -0.021847691
0002e0 0c db 85 bd 6a ef bd 3d 4d 0e 80 bc cc 3d 31 bd
       -0.065359205 0.0927418 -0.01563182 -0.043271825
0002f0 cb 04 05 3e 7b c0 41 bd 3a a7 c6 bd 8f 10 18 bc
       0.1299011 -0.047302704 -0.09699865 -0.009281292
000300 6f 7f ee bc 41 36 f6 bc 3d b7 fb ba 4e 72 c3 bc
       -0.0291135 -0.030055167 -0.001920439 -0.023858216
000310 f8 ec 4f 3c 3e e0 b6 bc b0 67 83 bc 0e 10 27 3d
       0.012690775 -0.022323724 -0.016040653 0.040786795
000320 88 fe 4e 3d 75 e3 e8 3c da 7c 61 3d b1 c6 ce 3c
       0.05053571 0.028428772 0.05505071 0.025241228
000330 c3 fb 35 3d 41 db 20 3d a8 a3 ca bb 0f 81 ac bd
       0.04442955 0.039271597 -0.00618406 -0.084230535
000340 b6 ad ec bc 8f 5c aa bc d9 b6 36 bc eb 0c d0 3c
       -0.028891426 -0.020796089 -0.011151993 0.025396785
000350 30 f0 28 3c 09 d5 77 bc 36 9c 31 bd 53 17 9b 3c
       0.010311171 -0.015126475 -0.043361865 0.01893202
000360 6c c1 d4 bc ce f6 60 3d a1 e4 9a 3d 04 5c 08 3c
       -0.025971137 0.05492287 0.07563139 0.0083227195
000370 f5 ba cc bc 6c 62 ae 3c 93 bd 27 3c 54 3c 9f 3d
       -0.024991492 0.021287166 0.010238069 0.077751786
000380 dc b1 8f 3a 1a 3f fd 3c 7a 17 72 3d 74 c0 ab 3c
       0.001096304 0.030913878 0.05910442 0.020965792
000390 f6 13 7f bd d4 4d 99 3d d9 ca db 3c 2b 62 f1 bc
       -0.062274896 0.07485548 0.026830124 -0.029465755
0003a0 21 0d 11 3d 0d 0a 82 3d e6 9f cb bb 59 bb 94 3c
       0.03541291 0.06349573 -0.0062141297 0.01815574
0003b0 ee fa 00 bd 1b 5e e6 3b 2b f3 79 bd 33 19 d4 bb
       -0.031489305 0.007030261 -0.06102292 -0.0064727305
0003c0 34 55 07 bd 57 91 13 be db 7b 7f bd cb d4 cd 3b
       -0.03304024 -0.14410912 -0.062373977 0.0062814704
0003d0 0d ae c0 bc cb a9 83 bd 6f a1 07 bc ec 1d 81 bd
       -0.023520494 -0.0642887 -0.008278235 -0.06304535
0003e0 65 60 a4 bc 70 ec 9d bd ec 77 75 bd 3e 8e b1 3c
       -0.020065496 -0.077111125 -0.05992882 0.021674272
0003f0 fe ee ed 3c 8f 44 96 3c b8 9b 10 bc fc f6 45 3d
       0.029044624 0.018343238 -0.008826189 0.048331246

model.2.bias f4 [32]
000000 a1 79 f3 bc 68 97 f0 3c 5f b7 92 3d d3 ec 7e bd
       -0.029721083 0.029369071 0.071638815 -0.062237572
000010 be 8b 76 3c 74 2a 14 be 97 0f f6 3c 10 94 89 3d
       0.015047966 -0.1446932 0.03003673 0.06717694
000020 ab 3e d8 3c ec a6 81 3d c0 11 85 3d c5 ec 84 3d
       0.02639707 0.06330666 0.06497526 0.06490473
000030 20 75 99 bd 68 55 94 bd a0 d4 92 bb fd a1 b9 3d
       -0.07493043 -0.072428524 -0.0044809133 0.090641
000040 27 98 d0 3d 8e 97 c2 3b 1d 88 d3 3d b1 18 53 bd
       0.10185271 0.005938477 0.10328696 -0.05153722
000050 25 48 ba 3d 09 97 31 3d 91 25 4f bd 69 86 91 bd
       0.09095792 0.04335693 -0.050572935 -0.07105715
000060 7c a9 49 bd d7 5d b2 3c a5 1c 8c 3d 25 02 86 bd
       -0.0492339 0.021773262 0.06841401 -0.06543378
000070 21 39 a5 bb db 38 83 3b 29 00 45 3d 22 87 a8 3a
       -0.0050422107 0.0040045804 0.048095856 0.0012857656

model.4.weight f4 [32]
000000 95 7a 80 3f 41 fa 7e 3f 2c 98 80 3f 3f 62 8a 3f
       1.0037409 0.9960061 1.0046439 1.0811232
000010 ba 12 80 3f f5 02 84 3f ed da 7a 3f b8 6a 80 3f
       1.0005715 1.0313402 0.97990304 1.0032568
000020 f7 c2 7d 3f b9 61 81 3f 0a 07 80 3f 27 cd 7d 3f
       0.9912562 1.0107948 1.0002148 0.9914116
000030 14 2c 82 3f 30 0d 84 3f f9 4f 82 3f 29 36 7d 3f
       1.0169702 1.0316525 1.0180656 0.98910767
000040 e8 29 81 3f 8c 76 7d 3f 1e 39 80 3f 0b a3 78 3f
       1.0090914 0.99009013 1.0017431 0.97123784
000050 83 9c 7a 3f da e3 7e 3f ec d4 82 3f 35 45 82 3f
       0.9789507 0.99566424 1.0221229 1.017737
000060 26 5c 7c 3f e3 60 7e 3f 49 21 7b 3f 88 59 81 3f
       0.9857811 0.9936659 0.98097664 1.0105448
000070 9f c1 7d 3f 1f 8b 7e 3f 9a 5e 7e 3f db 8c 81 3f
       0.9912357 0.9943103 0.993631 1.0121111

model.4.bias f4 [32]
000000 be 7c 0a 3c 61 07 29 bc 70 16 9b 3c 6c 6b e5 3c
       0.008452592 -0.010316701 0.018931597 0.028005324
000010 a0 c0 c0 bc d8 7a 02 3d e1 58 df bc 5a b2 07 bd
       -0.02352935 0.031855434 -0.02726406 -0.033129074
000020 19 18 0c bd 94 f7 5d 3b 38 d9 1b 3b e1 dd 74 3c
       -0.03420267 0.0033869492 0.0023780596 0.014945478
000030 bc 6d 0e bc 3a 41 48 bd 3a 98 f7 3b 8b fb c1 bc
       -0.008693155 -0.04889033 0.0075559886 -0.023679515
000040 3c 67 79 bc 72 2a 60 3c 94 4e 41 bd 97 a8 56 3d
       -0.015222367 0.013681995 -0.04719408 0.052406874
000050 71 45 fb bc 1d de cc 3c 91 ae 05 bd 53 59 c6 bb
       -0.03067276 0.025008256 -0.032637183 -0.0060531287
000060 25 39 71 3c 63 82 fb 3c 7e 84 c5 bc ec b2 44 3d
       0.014723097 0.030701822 -0.024111029 0.048022196
000070 6a 99 65 3d cd 1b 99 bc 1d 99 80 bc b9 84 02 bd
       0.05605451 -0.018690014 -0.01569801 -0.031864855

model.5.weight f4 [64, 32, 3, 3]
000000 cf ad 1a 3d ce 70 4d bc 56 b6 10 3d 9e 7f 2a bc
       0.037763413 -0.012539102 0.03533014 -0.010406403
000010 3a 44 8a bc 33 90 46 3b 50 84 ba bc a6 35 f0 3c
       -0.016878236 0.0030298352 -0.02276817 0.029322457
000020 f3 7f 2f bd e6 a9 42 bc 7c ed 93 bb 72 e4 70 bc
       -0.04284663 -0.011881327 -0.0045143943 -0.014702903
000030 31 a2 c0 bb 6a 9e 45 bb a7 43 0f bc fa a4 9d 3c
       -0.0058787097 -0.0030154237 -0.008744157 0.019243706
000040 74 d4 55 3d 62 ee 21 bc 42 7e aa 3c ef 68 8c bc
       0.052204564 -0.009883495 0.020812158 -0.01713988
000050 e6 6b 4d bd 6d 24 e7 bc 52 93 97 bd 01 89 50 3c
       -0.050151728 -0.028215611 -0.07401146 0.012727977
000060 59 35 b3 bc 58 9c 87 bc 11 1a 43 bd d4 ca 14 3d
       -0.021876024 -0.016554043 -0.04763228 0.036326244
000070 92 d6 ab 3c c0 b5 1c 3d 86 55 3b bd 25 b0 9d 3c
       0.020976339 0.038259268 -0.04573586 0.019249031
000080 7e 90 61 bc dd 47 12 bd 53 ac 08 bd 48 cf 32 bd
       -0.01376736 -0.035713065 -0.033367466 -0.04365471
000090 0c f4 13 bc d7 20 af 3c e1 9c 16 bd 15 34 1f 3d
       -0.009030353 0.021377964 -0.036770705 0.03886803
0000a0 34 a1 83 3d 64 35 e9 bb 28 ba 25 3d a7 83 0d bc
       0.064272314 -0.0071169604 0.040460736 -0.008637345
0000b0 cc 1b e6 bc 1c 3b f5 3b cc 50 0e bd d6 9d ac bc
       -0.028089426 0.007483853 -0.034745023 -0.021071356
0000c0 c9 8a 32 3c 56 b5 dd bc c3 9a 12 bd b2 ec 48 bd
       0.010897347 -0.027064007 -0.035792124 -0.049053855
0000d0 ea d4 95 bc 63 de 07 bd 32 62 65 bd 04 b3 2c 3d
       -0.018290002 -0.03317107 -0.05600185 0.04216291
0000e0 74 37 11 bd 62 d6 89 bc 5b e2 4f 3c d1 a9 12 bd
       -0.035453275 -0.016825859 0.012688245 -0.03580648
0000f0 56 f3 8d 3c 80 4f 88 3c db 9a 2b 3d 8a eb 8d 3d
       0.017327946 0.016639471 0.04189573 0.06929691
000100 a7 d6 6c 3c 6d 59 ab 3c 4e 31 89 bc 52 65 f3 3c
       0.014455474 0.020916665 -0.016747143 0.0297114
000110 4d e5 16 3d a1 d2 41 3d 20 7a 2d 3c e0 c2 06 bd
       0.036839772 0.047320012 0.010588199 -0.03290069
000120 ce 38 58 3d d1 fb b7 bb 9c 89 03 bd 4b f9 ff bc
       0.05278855 -0.0056147357 -0.032113656 -0.031246802
000130 91 f7 5a 3d ae 56 ae 3b d0 b9 19 bd 89 83 2b bd
       0.053458754 0.0053203916 -0.03753072 -0.04187349
000140 c4 09 28 3d 16 fb a8 bd 7c 06 05 3d 0c 7b 92 bb
       0.04102494 -0.08251016 0.032476887 -0.0044702347
000150 94 0b 23 bc 99 8a 87 3c 08 59 0d bd 00 5c 52 3d
       -0.009951491 0.01654558 -0.034508735 0.05135727
000160 76 69 19 bc 7c 8a 44 3c ef 2e 2a bc f7 21 32 3d
       -0.009363523 0.011995908 -0.010387166 0.043489423
000170 01 ed 8f bc 2c 01 8a 39 b7 92 50 bc 68 cd b3 ba
       -0.017569067 0.00026322284 -0.012730292 -0.0013717832
000180 97 c0 35 bd 52 f6 3a bd fc a4 4e bd 7d 25 d0 3b
       -0.04437312 -0.045645066 -0.05045031 0.006352125
000190 8d 27 8f 3c b3 52 8f 3c 72 f1 1d bd fe 10 2a bc
       0.017474914 0.017495489 -0.03856034 -0.010380028
0001a0 2c e8 42 3c 82 1a 8c 3c 00 bc ec 3b 6d 2f 13 bc
       0.011896174 0.017102484 0.00722456 -0.008983475
0001b0 ee fd 73 3b 6e 1a 2b 3d 06 b1 9d 3c 1c 4b fe 3c
       0.0037230211 0.041773252 0.01924945 0.031041674
0001c0 9a a7 38 bd 42 69 12 bd bb 04 6a 3c 70 b3 29 bb
       -0.045081712 -0.035744913 0.014283354 -0.0025894307
0001d0 d2 58 57 3b da 12 22 bd 2d 97 be 3c 08 ff b2 3a
       0.0032859338 -0.03956876 0.023265446 0.0013656328
0001e0 25 92 63 bd 4d b3 26 bd 6f 01 ce bc 32 3b c9 3c
       -0.055559296 -0.04069834 -0.025147168 0.02456436
0001f0 50 50 2c bd ca e4 41 3c 4d 0d 30 3d 51 5f 9e 3c
       -0.04206878 0.011834333 0.042981435 0.01933256
000200 8c 92 b0 3c 8a 1d 4d 3d 8e 74 e8 bb ae 7b a7 3a
       0.021554254 0.050077 -0.0070939725 0.0012777948
000210 f0 84 8f bd 80 f2 1d bd ea 9c 65 bd b3 bf 04 3c
       -0.07007778 -0.038561344 -0.056057848 0.008102345
000220 43 4a 83 3d 28 0e 88 bb 89 eb c7 3c 9a 87 ed bc
       0.06410649 -0.004152078 0.024404304 -0.028995324
000230 87 26 5d 3d e1 02 5f bd 6b 0f fe 3c 9a 73 c0 3c
       0.05399182 -0.054446105 0.031013211 0.023492623
000240 fc 8f 1c 3d b1 af 74 bc 9e 59 96 bc 23 25 3c bc
       0.03822325 -0.014934466 -0.01835328 -0.011483463
000250 b9 a9 8b bd 8d 92 10 3d 9f 6f 4d bc f2 40 fd 3b
       -0.068194814 0.03529601 -0.01253882 0.0077286894
000260 79 4f 4a 3c 89 75 cb 3c f8 86 fc bb f6 cf f9 bc
       0.012348049 0.024836319 -0.007706519 -0.030494671
000270 65 19 47 3d 98 e6 00 3c a8 db 3b bd f7 2d 57 3d
       0.048608202 0.007867478 -0.045863777 0.05253407
000280 a6 52 2e 3d 5e 35 02 3d fd 63 80 3d 96 82 99 bb
       0.04255929 0.031789176 0.06269071 -0.0046847565
000290 ea 3a 09 bd 12 2e 31 3d 7c 1f 52 bd a8 bc 8c 3d
       -0.03350345 0.043256827 -0.051299557 0.06871921
0002a0 18 ab 0f bd a7 81 4a 3c f2 e2 6d bc 2c 20 9a 3c
       -0.035075277 0.012360013 -0.01451944 0.018814169
0002b0 92 6b 3c bd 3a 57 35 bd 7d ef b2 bc 2b a9 65 bc
       -0.046001025 -0.04427264 -0.021842713 -0.014017384
0002c0 48 a1 56 bc e6 6c c9 bc fe 73 31 3d 54 02 39 3b
       -0.013099976 -0.02458806 0.04332351 0.0028230147
0002d0 25 2b 88 3c 39 ef da bb ef 6b 2c bd fb cf 42 3d
       0.016622135 -0.0066813496 -0.04209512 0.047561627
0002e0 cb 40 61 bd 35 c9 b7 bc f9 e3 39 3c 9c 8e 9c 3c
       -0.054993432 -0.02243481 0.011345857 0.01911097
0002f0 b8 28 32 bc ec a5 e6 3c 47 29 36 bd f5 f1 79 bc
       -0.010873966 0.02815529 -0.04447296 -0.015255441
000300 ac 26 58 3d 24 16 4c 3c 59 21 ac 3c a6 7e fa 3c
       0.052771255 0.012456451 0.021011995 0.030577969
000310 09 7f 45 3c 02 af 13 3c fe b6 c2 bc df d3 15 3c
       0.012054213 0.009013893 -0.023768898 0.009144752
000320 be 4a e4 3c 1d 91 ce bb 23 9c 29 3d 14 22 97 3a
       0.027867671 -0.00630392 0.04140867 0.0011530542
000330 c6 14 70 bc 44 09 14 3d f8 de 8b 3c 4b 19 83 bd
       -0.01465339 0.03614165 0.017074093 -0.064013086
000340 26 0f 85 bd cc 77 d8 3c 7d d0 8b 3c 9a a6 8f 3c
       -0.0649703 0.026424311 0.017067188 0.017535497
000350 67 44 46 bd 08 ac 64 bd 97 1f 48 bd 42 0d ba bc
       -0.048405077 -0.055828124 -0.04885825 -0.0227114
000360 2d 2a 06 bd 8c 26 c6 3c 4b d8 ed 3a 96 2c ad 3c
       -0.032755066 0.024188302 0.0018146125 0.021139424
000370 6d 6a e7 bc b3 d5 07 bd 61 fd f7 bc a0 44 a7 3b
       -0.02824899 -0.033162784 -0.030272188 0.0051046163
000380 99 9e 56 3d e9 e9 9a 3c 6d b9 07 3c de 3a 0d bc
       0.052397344 0.018910365 0.008283955 -0.008619992
000390 b0 38 54 bc 01 8f de bc 92 9b 43 3d b0 8b 6b 3c
       -0.0129529685 -0.027167799 0.047755785 0.014376566
0003a0 1d 81 e1 bc ac 83 9a 3c 8a 30 cf bc 28 87 58 3c
       -0.027527386 0.018861614 -0.0252917 0.0132158175
0003b0 12 05 53 bb 47 91 29 bd 27 0d 14 3b f4 71 3b 3d
       -0.0032199067 -0.041398313 0.0022590847 0.04576297
0003c0 f7 8e cb 3c ae c6 fb 3b 15 7a 31 3d fd 96 aa 3d
       0.024848444 0.0076835966 0.043329317 0.0832958
0003d0 d7 a9 bd 3c a5 5f 74 bd a1 0e 65 3d c5 c8 29 3d
       0.023152275 -0.059661526 0.055922154 0.041451234
0003e0 8e e4 e1 3c c9 d9 53 bc ad 77 ea bc 9e ab 44 3d
       0.027574804 -0.012930342 -0.028621519 0.04801523
0003f0 ad 38 06 3d 7a 5c cb bc c4 ac 17 bc 91 e0 ae bd
       0.032768894 -0.02482437 -0.009257499 -0.085389264

model.5.bias f4 [64]
000000 97 bf 1a bd 67 82 4e bd a9 fd ba 3d 7c 0a 0c 3d
       -0.03778037 -0.05041733 0.09130413 0.034189686
000010 a8 4e 89 b8 7c 53 80 3d b8 8d a4 3d 07 a0 50 bc
       -6.54732e-05 0.062659234 0.08034843 -0.012733466
000020 97 70 87 3d ad 42 86 3d b4 2d 46 bd 41 e0 1a bc
       0.06613272 0.06555686 -0.04838343 -0.00945288
000030 35 32 2a 3d 2f 48 a5 3d d2 5d 17 3d 3c 05 0e 3d
       0.041551787 0.080704086 0.03695471 0.03467296
000040 05 45 63 bd b8 3f 90 bb 36 0c b1 bb ff 88 ae 3a
       -0.055485744 -0.004402127 -0.005403067 0.0013315975
000050 1a a2 f0 bc 6b 8a 06 bd bf 70 ea bb 27 bf b9 3c
       -0.029374171 -0.03284685 -0.0071545537 0.022674156
000060 07 27 fa bc fa 33 88 3d f0 5f fa 3b 18 66 88 b9
       -0.030536188 0.06650539 0.007640831 -0.00026016007
000070 70 59 7d bd 9d f0 86 3d 9f 2e ff 3c d4 00 1c 3c
       -0.061852872 0.06588862 0.03115016 0.009521682
000080 e6 7f 9a bc 3b 57 e8 bc 6a d6 0f 3d 95 e1 7a 3c
       -0.018859815 -0.028361907 0.03511659 0.015312572
000090 58 27 c4 bc 16 bb 00 3d 1c 04 32 3d 14 f2 ce bc
       -0.023944542 0.03142842 0.04346095 -0.025261916
0000a0 0f 1b b4 3c 6a 6c fe 3c 2c 67 2e bd 6f 12 84 bd
       0.021985559 0.031057555 -0.04257886 -0.064488284
0000b0 8c 93 1a 3a 3b 45 09 3d 8b 40 c5 3c c4 c0 e8 3b
       0.000589662 0.03351329 0.024078628 0.0071030576
0000c0 33 d3 42 3c cc 69 08 3d 94 0c bf 3d b8 f6 9c 3d
       0.011891174 0.03330402 0.09328571 0.07664245
0000d0 1a 71 4e bc 7b 79 98 3b e6 40 19 bd 05 70 77 3d
       -0.012600208 0.0046531535 -0.037415408 0.060409565
0000e0 0d 8f 7c 3d 51 1b f1 bc 2b da c3 3d 6c 9f 42 bd
       0.06165986 -0.02943197 0.095630966 -0.047515318
0000f0 56 34 8b bb 77 83 36 bd 7e a5 c7 3c 48 c8 ae 3c
       -0.0042481823 -0.04455897 0.024370905 0.021335736

model.7.weight f4 [64]
000000 58 be 82 3f 44 37 82 3f 4d 1a 80 3f c9 70 82 3f
       1.0214338 1.0173116 1.0008026 1.0190669
000010 f4 ed 7b 3f 55 a8 7d 3f 1b c0 7f 3f 38 1d 7d 3f
       0.9840996 0.9908498 0.99902505 0.9887271
000020 36 c3 80 3f e0 ee 80 3f 4f c6 82 3f 8f ef 80 3f
       1.0059574 1.0072899 1.0216769 1.0073107
000030 6a 6e 80 3f 5b 04 81 3f ad a4 7c 3f 79 dc 80 3f
       1.0033696 1.0079454 0.98688775 1.0067283
000040 36 ed 7c 3f 4d 50 80 3f f1 a2 81 3f 25 83 7d 3f
       0.98799455 1.0024506 1.0127851 0.99028236
000050 53 e2 83 3f 04 1e 81 3f 76 08 80 3f ea ff 81 3f
       1.0303444 1.0087285 1.0002582 1.0156224
000060 af 1e 81 3f 7c 75 82 3f dc 4b 80 3f ba 8d 7f 3f
       1.0087489 1.0192103 1.002315 0.9982563
000070 f3 d5 80 3f 04 14 81 3f 9e 71 81 3f 3d de 7f 3f
       1.0065292 1.0084233 1.0112798 0.99948484
000080 1b ae 80 3f ba ec 7f 3f d8 6d 82 3f 87 fa 80 3f
       1.0053133 0.9997059 1.0189772 1.0076455
000090 99 65 81 3f d7 d5 7b 3f d4 95 80 3f cd 33 7b 3f
       1.010913 0.9837317 1.0045724 0.98125917
0000a0 d0 33 7f 3f 1e b4 7f 3f cb a7 7f 3f 98 34 81 3f
       0.99688435 0.9988421 0.99865407 1.0094175
0000b0 ba 9e 81 3f 11 bf 7f 3f ab 4a 83 3f a5 20 84 3f
       1.0126565 0.9990092 1.0257162 1.0322462
0000c0 dc 76 7f 3f ef a9 7f 3f db 22 85 3f 94 c9 7b 3f
       0.9979074 0.99868673 1.0401262 0.9835446
0000d0 29 22 81 3f 46 25 7e 3f 5f ac 81 3f 78 40 7e 3f
       1.008855 0.99275625 1.0130728 0.9931712
0000e0 48 30 7d 3f d2 37 80 3f 0a 66 81 3f 20 42 80 3f
       0.98901796 1.0017035 1.0109265 1.002018
0000f0 e7 3d 82 3f 5c 27 83 3f a8 07 82 3f d7 a1 80 3f
       1.0175141 1.0246387 1.0158587 1.004939

model.7.bias f4 [64]
000000 a7 38 82 bd 20 d8 c4 bc c8 f0 8d 3d 35 e9 ac 3b
       -0.06358462 -0.024028838 0.06930691 0.005276824
000010 39 6e ca 3b c6 c3 af 3d 4d eb 40 3d 45 f9 3a 3d
       0.0061776903 0.08582263 0.0470994 0.04564788
000020 88 31 f4 3b 45 45 47 3d 5a de 0c bd 7f 5d ba bc
       0.0074521936 0.048650045 -0.03439174 -0.02274966
000030 23 80 58 bd 4b a2 93 3d bc 2f 6d 3b 57 e2 c4 bb
       -0.052856576 0.07208689 0.0036191782 -0.006008427
000040 fd 08 fd bb fa d9 7d bc d5 a2 5e bd 86 48 f8 3d
       -0.0077220188 -0.015493864 -0.054354507 0.12123208
000050 6c 89 28 bd 86 05 75 bc 29 27 85 39 e9 3f bd bc
       -0.04114668 -0.01495493 0.00025396913 -0.023101764
000060 b3 6d ad bd 0d 79 17 3d a2 70 73 bc 45 f9 b4 3c
       -0.08468189 0.036980677 -0.014858397 0.022091517
000070 52 e0 a4 bc b1 58 51 3d ec a4 01 3d 4c 59 52 bd
       -0.020126496 0.051109973 0.031651422 -0.05135469
000080 f1 52 9f bd de dc 4e 3d bf 1a c2 bc da 52 24 3d
       -0.07779492 0.050503604 -0.023694394 0.040118076
000090 93 37 10 bd b4 62 dc 3a 34 89 d7 bb d9 cf 0c 3d
       -0.03520925 0.0016814084 -0.006577635 0.034377906
0000a0 e1 a6 2e 3d 89 c2 f7 3c 13 64 0f bd c3 ee 9e bd
       0.042639617 0.030244129 -0.035007548 -0.07760384
0000b0 57 76 41 bd ad 36 3a 3c b5 02 0c 3c cd a0 a2 bc
       -0.047232 0.011365575 0.008545567 -0.019852066
0000c0 5d 47 bd 3d b4 0e e1 bc f2 7b 48 3d 92 6e 21 3d
       0.09242127 -0.027472831 0.04894633 0.03941209
0000d0 d8 50 96 bb fd 0c 9e 3d 4a b9 a2 bd bf 6b c5 3b
       -0.004587274 0.07717321 -0.07945497 0.006024807
0000e0 e9 43 5a 3d d6 93 de bc 62 30 0f 3d 5a 8f b0 bd
       0.05328742 -0.027170103 0.03495825 -0.08621092
0000f0 3f 7e f9 bc 05 3f f6 bc 99 9c 13 3b 4a 29 67 3c
       -0.030455707 -0.030059347 0.002252376 0.014108965

model.8.weight f4 [128, 64, 3, 3]
000000 76 18 6f ba fa a0 20 bd 9a ff b1 bc 06 80 dc bc
       -0.00091207714 -0.03921602 -0.021728326 -0.026916515
000010 a9 42 37 bc 19 6b bf 38 8f 5b d1 3b 7b 6a c5 3c
       -0.011185327 9.127538e-05 0.0063890885 0.024098625
000020 d9 a4 f8 bc da 75 a8 3c ae 4b 38 bd 75 54 29 bc
       -0.030352043 0.020564009 -0.04499405 -0.0103350775
000030 47 24 04 bd 3b 18 42 3d ad d7 9d bb b7 b0 18 3c
       -0.03226116 0.04738639 -0.0048169703 0.009319476
000040 cc 83 a2 3c 1e 59 c4 bc 1f d7 01 bd 24 82 d9 3b
       0.019838236 -0.023968276 -0.031699296 0.0066378284
000050 83 33 4f 3c f9 d2 86 bc b3 c5 b5 bc 24 21 b0 3c
       0.012646559 -0.016458021 -0.022188997 0.021500178
000060 e9 af e5 bc 81 05 dc bc 5c f6 ad 3b f1 c3 24 bc
       -0.028037982 -0.026858093 0.0053089093 -0.010056482
000070 ae 8d ab 3c 98 cd 3a 3c 5b 47 16 bd b0 53 d3 38
       0.020941582 0.011401556 -0.036689144 0.00010076852
000080 cd c7 e9 bb 95 6a da 3b 48 f0 9c 3c ec f3 bb 3c
       -0.007134414 0.0066655376 0.019157544 0.02294346
000090 89 4a 15 3d 27 02 33 bc d3 c9 8d bc a7 b3 75 ba
       0.036448035 -0.010925806 -0.017308151 -0.00093727786
0000a0 da 81 be bc a7 e9 43 bd 44 d0 b2 3b f7 2a 14 3c
       -0.023255277 -0.04783025 0.005456956 0.009043447
0000b0 61 6f 0b 3d 60 7c 66 bb 70 8a 8c bc 09 ca 04 bd
       0.034041766 -0.0035169348 -0.017155856 -0.03241924
0000c0 7f ce 39 bd e9 20 02 bd 21 03 0d 3d 8b 12 96 bc
       -0.045362946 -0.031769667 0.034426812 -0.018319389
0000d0 ba 14 60 bc 44 c5 78 3c 3a 2c 92 bc d9 33 81 3c
       -0.013676817 0.015183751 -0.017843354 0.015771793
0000e0 ef 43 ba bb c3 d5 24 bd a6 12 a0 3a de e5 62 bd
       -0.005684368 -0.04024292 0.0012212589 -0.055395
0000f0 4a bd be bb ba 6d 5d 3c a8 cd 9f bc ef 57 98 3b
       -0.005820905 0.01351493 -0.019507244 0.0046491544
000100 8c 6d 93 bc bf e3 05 bd 92 9e c3 bc 12 51 4b 3b
       -0.017996572 -0.0326879 -0.023879323 0.0031023663
000110 7d 7c a6 bb ce 3d 23 bc 7c 68 5d b9 d3 f3 c8 bc
       -0.005080758 -0.009963466 -0.00021115126 -0.024530327
000120 85 a8 02 3b 7a b2 0d 3c 90 4b 15 bd b6 fb e4 bc
       0.0019936871 0.008648509 -0.036449015 -0.027952056
000130 fb 67 fb 3c 97 ba e3 bc e0 cf 24 bd 1e d1 bf bc
       0.03068923 -0.027798934 -0.040237308 -0.023415145
000140 66 97 1d bd d5 4c 45 bd 3c b6 3b 3d 71 d7 d2 bc
       -0.038474463 -0.048168976 0.04582809 -0.025737496
000150 25 5f 88 3c d2 8b aa bb 7f df 14 bd 09 c3 fd bc
       0.016646931 -0.005204656 -0.036345955 -0.03097679
000160 67 19 12 bd a4 9c 3d 3d 49 5c cc 3b 3e 22 f8 bc
       -0.035668757 0.046291962 0.006236587 -0.030289765
000170 37 5f 69 bc fb 0a e3 3b dd 97 8b 3b 83 d6 fe 3b
       -0.014243892 0.006928799 0.004260047 0.0077770366
000180 8a dd a7 3c 3c 43 b3 3c 08 c3 69 bc 59 c8 29 3b
       0.02049138 0.021882646 -0.0142676905 0.002590677
000190 ea 51 bb 3c b4 52 17 bd e3 12 0c bc 84 8e 93 3b
       0.022866208 -0.036944106 -0.008549425 0.004503073
0001a0 34 e8 d9 bb d1 4e 73 3b 3b 2c 77 3c f8 13 da bc
       -0.006649995 0.0037125836 0.015086229 -0.02662085
0001b0 e5 70 06 bd 82 5a 40 3a 8a ba d0 3c e7 95 c7 3c
       -0.03282251 0.00073377055 0.025479574 0.024363471
0001c0 cf 56 a7 3c a9 49 f1 3c 51 12 0a 3d a9 19 ec bc
       0.020427136 0.02945407 0.033708874 -0.02882083
0001d0 2d 44 95 3c 69 e9 38 3c 16 4a fa bc ef c7 cc 3b
       0.018220985 0.011286118 -0.030552905 0.00624942
0001e0 10 78 ba 3c e6 08 9b ba e5 fa c0 bc 30 db eb bb
       0.022762328 -0.0011828213 -0.023557136 -0.00719776
0001f0 da 8a f7 3c 98 4e b4 bb 7c 70 d8 bc 2d 51 dd 3c
       0.030217577 -0.005502533 -0.026420824 0.027016247
000200 b7 d8 30 bd 7f 25 b0 bc 6d a4 87 3c 55 43 35 bd
       -0.043175425 -0.021502255 0.016557897 -0.044253666
000210 18 5b eb bc cb b5 31 bc 36 a0 79 3b 11 85 68 bc
       -0.02872996 -0.0108465655 0.0038089878 -0.014191882
000220 77 71 3f 3d 2c 45 99 3b 1f 74 02 bd 52 18 02 3c
       0.046739068 0.0046774354 -0.031849023 0.007940369
000230 aa 7d 7d bc 10 03 ba bb 9c 5a 08 3d e9 df c7 3c
       -0.015471855 -0.0056766346 0.033289537 0.02439876
000240 15 e7 c8 3c 08 e9 a7 bb de 48 55 3d ef 58 2d 3c
       0.024524251 -0.005124215 0.052071445 0.010580285
000250 cf 91 59 bc 9b 1e a4 bc fa 55 ea bc 0f 54 b7 bc
       -0.013279392 -0.020034125 -0.02860545 -0.02237895
000260 d7 b0 40 3c 38 f1 ab 3b 59 d9 32 3d 2d 32 3b 3c
       0.011760912 0.0052472614 0.04366431 0.011425537
000270 44 20 fa 3c a1 f1 cf bc 88 65 ec 3c e7 08 2b 3c
       0.030532964 -0.025383772 0.028857008 0.010439134
000280 46 5c 0b 3c b1 bf 22 3d 8a 5e 0a 3d ba c9 11 3c
       0.008505886 0.039733592 0.033781566 0.008898193
000290 a3 c7 24 3d bf 4b 4d 3c 4f 50 3e 3d cb fa 20 3c
       0.04022945 0.012530266 0.046463307 0.009825419
0002a0 fa f4 06 bc 4f 99 e4 bc e4 e1 d7 bb 82 99 06 3c
       -0.008237118 -0.027905134 -0.0065882076 0.00821531
0002b0 f5 21 7e 3c bc 0d d9 bb 30 d1 3d 3c 0a 4c 2f 3c
       0.015511026 -0.0066239517 0.011585519 0.0106992815
0002c0 fc 90 32 3c fc 4d 51 bc a3 9e 18 bd 07 ad a1 bc
       0.010898825 -0.012774941 -0.037260663 -0.019735826
0002d0 13 4b 86 3c 7f 8d df 3c 45 66 3f bc 54 45 ff bc
       0.01639322 0.02728915 -0.011682098 -0.031160988
0002e0 a4 7d 5f 3d e7 40 3e bb c3 fa 54 3c 9b 6b f2 bb
       0.05456318 -0.0029030384 0.012999239 -0.0073980815
0002f0 d7 13 0c 3d d5 0c dd 3b 8e b9 52 3c f2 02 84 3c
       0.03419861 0.0067459145 0.0128616225 0.016114686
000300 61 8c 16 3d 65 03 2c bd 96 ff aa 3c 6e 66 53 b9
       0.03675497 -0.041995425 0.020873826 -0.00020160686
000310 52 0c 01 3c f2 3b 79 3d e8 43 98 bc c4 05 1b bc
       0.007876473 0.060848184 -0.018587068 -0.009461824
000320 28 e0 89 3c 66 60 68 3c a5 97 5a bc 9b 1a 05 3c
       0.016830519 0.014183139 -0.013341819 0.008124019
000330 8d bb 48 3d cb d3 f4 bc 55 da e1 3c 3d ab f3 3c
       0.049006987 -0.029886147 0.02756993 0.029744739
000340 8b e7 94 bc d3 1e 90 bc 45 29 18 3d 68 e0 1b bd
       -0.018176815 -0.017592823 0.037148733 -0.038055807
000350 40 d0 9f 3c 90 19 aa 3c c3 2b e1 3c ee 58 d9 3b
       0.019508481 0.020764142 0.027486688 0.0066329157
000360 89 8f c8 bc 4e 36 8f bd d1 91 51 bd 32 d2 c8 bc
       -0.024482505 -0.0699278 -0.051164452 -0.024514291
000370 13 b8 7a 3c 1e 71 b3 3b e0 0e 00 3d ec c4 9c 3c
       0.015302676 0.005476131 0.031264186 0.019136868
000380 bd 6d 9d 3c f8 7e c8 3c c7 c5 8b bc 81 24 31 3c
       0.019217366 0.024474606 -0.017062081 0.010811926
000390 fe 5b 76 bb 26 a8 01 bc a0 98 1b bd f5 dc 91 3c
       -0.0037591453 -0.007913625 -0.03798735 0.017805556
0003a0 71 1d c1 bc f8 b7 f2 bc fd d8 d0 bc 07 a0 26 3d
       -0.02357361 -0.029628739 -0.025494093 0.040679958
0003b0 16 63 29 3d 6e be 42 bd 1e 05 df ba 19 06 a1 bc
       0.04135426 -0.04754489 -0.0017015075 -0.019656228
0003c0 3c 03 7c bc d3 4d 0d bd 4f 1f 5f 3c 06 4e 1e 3c
       -0.0153816305 -0.034498047 0.013618304 0.009662157
0003d0 8c 24 bf 3c 79 f7 3e 3b 38 ed a1 bb 9d e6 39 bd
       0.023332857 0.0029139204 -0.0049416088 -0.045385946
0003e0 0c d3 c2 bc ab 4e 5a bb 05 10 35 bd 19 6f a5 bc
       -0.023782276 -0.003331105 -0.04420473 -0.020194577
0003f0 d0 7e ea 3b 1a 04 86 bb 05 91 2e bd ad 1d 9a 3c
       0.0071562305 -0.0040898444 -0.04261877 0.018812979

model.8.bias f4 [128]
000000 92 a4 3b bc 6b 12 28 bd 89 fa 12 bd a4 67 32 3c
       -0.011452811 -0.04103319 -0.03588346 0.010888968
000010 a7 25 22 3a 40 db 0f bd 43 c1 be 3c 11 9f c7 3c
       0.000618542 -0.035121202 0.023285514 0.024367841
000020 31 90 d0 bb 68 5e 03 bd 5f 6d 59 bd 92 e5 17 3d
       -0.006364845 -0.032072455 -0.05308282 0.03708417
000030 f2 b7 0b 3c af ea 2e bd c2 aa ba bc c7 b2 b3 3c
       0.008527743 -0.04270428 -0.022786502 0.021935834
000040 59 ff d4 3c 53 46 8d bc 0c b1 cb 3c d9 6b 1a 3d
       0.026000666 -0.017245447 0.024864696 0.037700508
000050 6c 5a 06 bc 94 81 a4 3c 3e 81 28 3d 7a 86 bf 3c
       -0.008200269 0.020081319 0.04113888 0.023379553
000060 ec 85 af 3c fc fc c4 3b 6f 94 de 3c 18 53 61 bb
       0.021426164 0.0060116034 0.027170388 -0.0034381803
000070 8e 96 58 3c 26 d3 7f 3d 47 b5 a3 bc 8d c8 47 3d
       0.013219489 0.062457226 -0.0199839 0.048775245
000080 bd 70 fe bc 25 06 83 bd 4e ab 24 3d b4 fc c5 bc
       -0.031059617 -0.06397656 0.04020243 -0.02416835
000090 6b 3e 2b 3d 8b 10 52 bc be 80 03 bd f4 69 db 3b
       0.041807573 -0.012821327 -0.0321052 0.00669598
0000a0 50 57 73 3d 1d 97 b7 3c 57 4f fc bb b4 9c fb 3c
       0.05940944 0.022410924 -0.0076998877 0.03071437
0000b0 40 9a a7 3c 39 87 1d bd 41 25 07 3d 8a 4d 30 bc
       0.020459294 -0.038459036 0.032994512 -0.010760674
0000c0 b7 ea 35 bc e9 80 4a 3c 91 0c 45 bd 38 a4 d0 3c
       -0.011103324 0.012359836 -0.048107687 0.02546893
0000d0 f0 20 0a bd 5e a9 7d bd 3e 87 48 3d 17 66 70 bd
       -0.033722818 -0.0619291 0.048957102 -0.05869111
0000e0 07 ca a3 3c 78 4e 9d 3c 4b 37 6f bd b5 2f 89 3b
       0.019993795 0.019202456 -0.05840234 0.0041865953
0000f0 fd a0 f2 ba 51 ed ac bd 15 a4 91 3b 57 a8 92 bd
       -0.0018511113 -0.08443702 0.004444609 -0.071610145
000100 13 f4 aa bc 3e 6e 9c bc 51 61 59 3d 9d d7 63 3d
       -0.020868337 -0.019095536 0.053071324 0.055625547
000110 0b 0d 2a 3c 4a 9c 06 3d 69 6a 61 b9 26 4a fd 3c
       0.010379086 0.032863893 -0.00021497313 0.030919146
000120 ba 1d 34 3c 8e 40 03 3d 3f d6 e3 3c f8 32 27 bc
       0.0109934155 0.032043986 0.027812121 -0.010205023
000130 d8 81 5c bd b1 ad e7 bc 0c 59 1b 3c 4a c7 c5 bd
       -0.053834766 -0.028281065 0.00948168 -0.09657152
000140 f2 ba 4d 3c 68 4d c1 3c 3b eb f1 ba 8e 98 27 bd
       0.012556778 0.02359648 -0.0018456945 -0.04091697
000150 9c 29 40 3d 0c 23 22 ba 8c 3d aa 3c e1 6d c6 3c
       0.04691468 -0.0006185032 0.020781301 0.024222316
000160 d4 fb ca ba 75 4f 80 3d d7 6e 7f 3d 29 6e 83 3c
       -0.0015486428 0.06265155 0.062361564 0.01604374
000170 dd 5e 18 3d 46 3a 86 3d 11 9e a1 bb 8d 5c 64 3d
       0.037199844 0.065540835 -0.004932173 0.055752326
000180 20 b4 d8 3c 4a 34 1c bc 3b 52 88 3c 8a 3d f3 bc
       0.026453078 -0.009533951 0.016640773 -0.02969243
000190 37 04 92 3c bd 09 08 bd 4c 1d 2c 3d e0 85 ac bc
       0.017824275 -0.033212412 0.042020127 -0.02105993
0001a0 ec 3f 42 bd 3e f8 0d bd 16 56 8b 3b ec d9 12 bb
       -0.047424242 -0.03466057 0.0042522056 -0.0022407724
0001b0 75 b4 d4 3c fe b2 e5 bc 78 be 85 bd 3c 43 5f 3d
       0.025964955 -0.028039452 -0.0653047 0.05450748
0001c0 6a ea b0 bc 5e 68 9d bb 65 1f 8e bc 5c 0b a6 3d
       -0.021596152 -0.0048037013 -0.017348954 0.081076354
0001d0 1f 04 5d 3c e9 f3 bd 3c f3 48 5d 3b f2 44 7b bb
       0.013489752 0.023187594 0.0033765405 -0.0038340655
0001e0 c0 f7 87 bc 55 1c 6c bc 35 68 2f bd fb f1 3f 3d
       -0.016597629 -0.014411052 -0.04282399 0.04686163
0001f0 eb e9 1d 3b 8f 71 59 bd dd cd 39 3b 80 ba 55 bd
       0.0024095725 -0.053086814 0.0028351464 -0.052179813

model.10.weight f4 [128]
000000 16 dd 81 3f f6 85 84 3f b1 e9 86 3f f0 50 83 3f
       1.0145595 1.0353382 1.0540067 1.0259075
000010 3b 0f 87 3f 63 5b 83 3f 1a 84 87 3f e0 30 84 3f
       1.0551523 1.0262264 1.0587189 1.0327415
000020 b3 aa 86 3f c4 ac 85 3f 3d 25 83 3f 85 42 85 3f
       1.0520843 1.0443349 1.0245739 1.0410925
000030 63 65 84 3f 69 9c 85 3f 79 ab 82 3f 06 af 85 3f
       1.0343441 1.0438358 1.0208579 1.0444038
000040 46 a5 83 3f 02 63 86 3f ce 9f 85 3f 73 10 85 3f
       1.0284812 1.0498965 1.0439394 1.0395645
000050 ac 68 81 3f a6 a6 82 3f 35 bf 83 3f 05 06 84 3f
       1.0110068 1.0207107 1.0292727 1.0314337
000060 70 2c 87 3f f3 2b 84 3f 28 ee 85 3f 84 90 8b 3f
       1.0560436 1.0325912 1.0463305 1.0903478
000070 f8 10 84 3f d6 27 87 3f f1 8a 86 3f 8b 84 89 3f
       1.0317678 1.0559032 1.0511152 1.0743574
000080 49 f1 83 3f af 1a 83 3f 09 b9 83 3f 23 0b 83 3f
       1.0308009 1.0242518 1.0290843 1.0237774
000090 53 b2 81 3f fc 14 82 3f 0a 9f 8a 3f e8 ab 81 3f
       1.0132545 1.0162654 1.0829785 1.0130587
0000a0 b9 cc 84 3f 50 34 84 3f 30 d7 85 3f 14 fb 83 3f
       1.0374976 1.0328465 1.0456295 1.0310998
0000b0 3d ea 85 3f 0f 90 82 3f de 93 83 3f bd b1 88 3f
       1.0462109 1.0200213 1.02795 1.0679241
0000c0 58 d2 82 3f 23 43 86 3f 05 78 81 3f c7 f3 82 3f
       1.0220442 1.0489239 1.0114752 1.0230645
0000d0 b3 cb 82 3f f8 f7 83 3f ef db 82 3f 1f 0f 81 3f
       1.0218414 1.0310049 1.0223368 1.008274
0000e0 5b 7c 83 3f 16 11 84 3f 0d b6 84 3f 16 f5 82 3f
       1.0272325 1.0317714 1.0368057 1.0231044
0000f0 74 af 83 3f 22 56 82 3f 3c f8 89 3f b3 44 83 3f
       1.0287919 1.0182536 1.077888 1.025534
000100 da 6a 82 3f 17 e0 83 3f cc ac 88 3f d0 ff 81 3f
       1.0188859 1.0302762 1.0677733 1.0156193
000110 2c 2b 8a 3f 04 7a 85 3f 19 49 84 3f 91 ce 83 3f
       1.0794425 1.0427861 1.0334808 1.0297414
000120 ea 5a 83 3f 84 e2 81 3f 7c 5e 83 3f 04 fe 82 3f
       1.026212 1.0147252 1.0263209 1.023377
000130 10 03 86 3f c4 25 85 3f 68 bb 84 3f 07 d9 83 3f
       1.0469685 1.040215 1.0369692 1.0300606
000140 74 92 87 3f b8 ed 81 3f 58 42 86 3f 98 0b 88 3f
       1.0591569 1.0150671 1.0488997 1.0628538
000150 c3 bf 8f 3f 8f 0b 86 3f ce b1 84 3f fc e7 83 3f
       1.1230396 1.0472277 1.0366762 1.0305171
000160 c7 0c 87 3f d5 15 86 3f 45 89 84 3f 67 bf 82 3f
       1.0550774 1.0475413 1.0354391 1.0214661
000170 6d df 83 3f 30 46 8e 3f c0 e0 82 3f 2c e2 85 3f
       1.0302559 1.111517 1.0224838 1.0459647
000180 8e e5 82 3f a8 52 84 3f 96 02 83 3f 60 03 82 3f
       1.0226305 1.0337725 1.0235164 1.015728
000190 7c 14 88 3f bf 9a 88 3f 77 7c 84 3f 3d 70 83 3f
       1.0631251 1.0672225 1.0350484 1.0268627
0001a0 13 2f 84 3f c3 02 86 3f af 85 86 3f da f8 82 3f
       1.0326866 1.0469593 1.0509547 1.0232193
0001b0 a4 a4 89 3f e7 bc 83 3f cd 04 87 3f 5b e3 87 3f
       1.0753369 1.0292023 1.054834 1.0616258
0001c0 ed 14 86 3f 45 2f 82 3f 76 f9 81 3f 70 fb 86 3f
       1.0475136 1.0170676 1.0154254 1.0545483
0001d0 89 f8 82 3f 6c 6c 84 3f ef de 86 3f 74 4a 89 3f
       1.0232097 1.0345588 1.0536784 1.0725846
0001e0 0e 76 82 3f 81 bb 83 3f b9 7e 87 3f 77 fb 86 3f
       1.0192277 1.0291597 1.0585548 1.0545491
0001f0 51 5e 84 3f 17 65 87 3f 58 40 84 3f 50 82 82 3f
       1.0341283 1.0577725 1.0332136 1.0196018

model.10.bias f4 [128]
000000 00 00 00 00 00 00 00 00 00 00 00 00 00 00 00 00
       0.0 0.0 0.0 0.0
000010 00 00 00 00 00 00 00 00 00 00 00 00 00 00 00 00
       0.0 0.0 0.0 0.0
000020 00 00 00 00 00 00 00 00 00 00 00 00 00 00 00 00
       0.0 0.0 0.0 0.0
000030 00 00 00 00 00 00 00 00 00 00 00 00 00 00 00 00
       0.0 0.0 0.0 0.0
000040 00 00 00 00 00 00 00 00 00 00 00 00 00 00 00 00
       0.0 0.0 0.0 0.0
000050 00 00 00 00 00 00 00 00 00 00 00 00 00 00 00 00
       0.0 0.0 0.0 0.0
000060 00 00 00 00 00 00 00 00 00 00 00 00 00 00 00 00
       0.0 0.0 0.0 0.0
000070 00 00 00 00 00 00 00 00 00 00 00 00 00 00 00 00
       0.0 0.0 0.0 0.0
000080 00 00 00 00 00 00 00 00 00 00 00 00 00 00 00 00
       0.0 0.0 0.0 0.0
000090 00 00 00 00 00 00 00 00 00 00 00 00 00 00 00 00
       0.0 0.0 0.0 0.0
0000a0 00 00 00 00 00 00 00 00 00 00 00 00 00 00 00 00
       0.0 0.0 0.0 0.0
0000b0 00 00 00 00 00 00 00 00 00 00 00 00 00 00 00 00
       0.0 0.0 0.0 0.0
0000c0 00 00 00 00 00 00 00 00 00 00 00 00 00 00 00 00
       0.0 0.0 0.0 0.0
0000d0 00 00 00 00 00 00 00 00 00 00 00 00 00 00 00 00
       0.0 0.0 0.0 0.0
0000e0 00 00 00 00 00 00 00 00 00 00 00 00 00 00 00 00
       0.0 0.0 0.0 0.0
0000f0 00 00 00 00 00 00 00 00 00 00 00 00 00 00 00 00
       0.0 0.0 0.0 0.0
000100 00 00 00 00 00 00 00 00 00 00 00 00 00 00 00 00
       0.0 0.0 0.0 0.0
000110 00 00 00 00 00 00 00 00 00 00 00 00 00 00 00 00
       0.0 0.0 0.0 0.0
000120 00 00 00 00 00 00 00 00 00 00 00 00 00 00 00 00
       0.0 0.0 0.0 0.0
000130 00 00 00 00 00 00 00 00 00 00 00 00 00 00 00 00
       0.0 0.0 0.0 0.0
000140 00 00 00 00 00 00 00 00 00 00 00 00 00 00 00 00
       0.0 0.0 0.0 0.0
000150 00 00 00 00 00 00 00 00 00 00 00 00 00 00 00 00
       0.0 0.0 0.0 0.0
000160 00 00 00 00 00 00 00 00 00 00 00 00 00 00 00 00
       0.0 0.0 0.0 0.0
000170 00 00 00 00 00 00 00 00 00 00 00 00 00 00 00 00
       0.0 0.0 0.0 0.0
000180 00 00 00 00 00 00 00 00 00 00 00 00 00 00 00 00
       0.0 0.0 0.0 0.0
000190 00 00 00 00 00 00 00 00 00 00 00 00 00 00 00 00
       0.0 0.0 0.0 0.0
0001a0 00 00 00 00 00 00 00 00 00 00 00 00 00 00 00 00
       0.0 0.0 0.0 0.0
0001b0 00 00 00 00 00 00 00 00 00 00 00 00 00 00 00 00
       0.0 0.0 0.0 0.0
0001c0 00 00 00 00 00 00 00 00 00 00 00 00 00 00 00 00
       0.0 0.0 0.0 0.0
0001d0 00 00 00 00 00 00 00 00 00 00 00 00 00 00 00 00
       0.0 0.0 0.0 0.0
0001e0 00 00 00 00 00 00 00 00 00 00 00 00 00 00 00 00
       0.0 0.0 0.0 0.0
0001f0 00 00 00 00 00 00 00 00 00 00 00 00 00 00 00 00
       0.0 0.0 0.0 0.0
