Lab4/models/gan_models/wgan_20e_250b_dis.pth (torch, 398261 bytes, 15 tensors)

model.0.weight f4 [16, 3, 3, 3]
000000 39 ef a4 bd 25 d9 ca 3c e6 28 a0 bd 7f b8 a7 bc
       -0.080534406 0.024761746 -0.07820301 -0.020473717
000010 d8 37 24 3e 5f b5 0e 3e 2e db da 3d 5d eb 1a bd
       0.16036928 0.13936375 0.106863365 -0.037822116
000020 ec 62 2c be d6 a8 24 be c9 dd b8 3d 65 83 f6 bc
       -0.1683461 -0.16080031 0.09026677 -0.03009195
000030 ad 82 64 3d 4c 1a 7b bd 51 de 31 3e 76 d6 24 3e
       0.055788685 -0.061304376 0.17369963 0.16097435
000040 de e6 9a bd 45 19 94 3d 95 ea 3a 3d b6 9f 49 3e
       -0.07563566 0.07231382 0.04563387 0.19689831
000050 77 01 1a be 61 a3 ec bd 78 c2 59 3e 47 b2 5d 3d
       -0.15039621 -0.115545996 0.2126559 0.054125097
000060 3a da 8d 3b 53 c3 10 3e 55 9e 0d be 69 dc c5 3d
       0.004328993 0.1413701 -0.1382993 0.096611805
000070 3b d7 c5 bd a2 15 69 3a 58 b0 d8 bd c1 f2 a4 bc
       -0.096601926 0.0008891468 -0.1058051 -0.020135285
000080 e7 60 09 3e 8c 81 34 be 4e c5 be 3d 4b 47 fb 3d
       0.13415872 -0.17627543 0.09314977 0.122694574
000090 aa 9f 34 3e 48 17 9d bc 96 e1 0d bd 27 5e 28 be
       0.17639032 -0.01917614 -0.034638964 -0.16442166
0000a0 48 13 42 be 07 96 f8 3c dd 1e c6 3a cb 15 65 3d
       -0.18952668 0.030344976 0.0015115399 0.055928987
0000b0 65 e1 94 3d b1 32 c4 bc 6f 41 08 3e e5 f7 03 be
       0.07269553 -0.023949953 0.13306211 -0.12887533
0000c0 4e e2 5a bc 77 72 af bc 1a 44 cd bd 67 25 1c 3d
       -0.013359619 -0.021416886 -0.10022755 0.038121607
0000d0 8a 61 06 be 6c 18 e8 3d a2 cc 37 be fa f2 d3 bd
       -0.13123146 0.11332783 -0.17949155 -0.103490785
0000e0 e7 0c 1f 3c a7 41 ba bd 67 f6 0d be 47 6e 1c be
       0.009707666 -0.090945534 -0.13863526 -0.15276442
0000f0 35 89 10 be 08 0c 80 bd 41 eb 9c bd 1a 04 93 bc
       -0.1411484 -0.06252295 -0.076620586 -0.017946292
000100 2a 4c ad bd a4 46 b5 bc aa 70 11 bd 96 89 0c 3b
       -0.08461793 -0.02212841 -0.035507835 0.0021444312
000110 c6 bd 9c bd 13 be 1f 3e 4a 9d 1a 3c 8a 4b ad 3d
       -0.07653384 0.15599851 0.009436915 0.084616736
000120 e7 60 be bd a2 55 97 3d 30 92 1e be 7a 62 53 be
       -0.092958264 0.0738938 -0.15485454 -0.20643035
000130 3c d5 32 be d6 b1 df 3d 6e cd 89 bd 46 24 f8 3d
       -0.17464155 0.109225914 -0.06728636 0.121162936
000140 16 e2 34 bd ed 7d 06 3e 8a e5 07 3e 14 07 f8 bd
       -0.044160925 0.13133974 0.13271156 -0.12110725
000150 e8 56 a6 bd d1 ca 23 be ee 6d 21 be 4d 20 f1 bd
       -0.08122045 -0.15995337 -0.15764591 -0.11773739
000160 b3 2f 29 be 17 94 17 3c 34 04 e8 bd f3 27 64 3d
       -0.16522102 0.009251616 -0.11328927 0.05570216
000170 27 ed 20 be 97 a4 85 bd 1a f3 00 be ab d6 ef 3d
       -0.15715466 -0.06525534 -0.12592736 0.117108665
000180 4d d5 c5 3d f1 f2 b1 bd c3 e0 aa 3d d0 f0 dc bd
       0.096598245 -0.086889155 0.08343651 -0.10788119
000190 28 2b 88 bd ac 5a 22 bd 66 4f ae 3d 6f e8 59 bd
       -0.066488564 -0.039637253 0.08511238 -0.05320018
0001a0 c3 4b 06 3d 24 23 0e 3b f8 5a a6 3d 1f ad 86 bd
       0.032787096 0.0021688426 0.0812282 -0.06575989
0001b0 27 66 bc bd 9e a2 a6 3d 7e 5f 38 be e0 99 f6 bd
       -0.091991715 0.081364855 -0.18005177 -0.12041068
0001c0 32 45 21 be 42 b4 67 3c 01 e6 39 3e 8e fd 0c 3e
       -0.15749052 0.014142098 0.18154146 0.13768598
0001d0 23 89 7e bd 5e b9 a1 3b fd fb 1a 3e be 38 1f bd
       -0.062142503 0.0049354276 0.15135188 -0.038872473
0001e0 cf ac 28 3e 99 6e de bb 73 e9 34 bd 85 87 2d 3d
       0.16472171 -0.0067880866 -0.044167947 0.04236557
0001f0 b2 04 28 3e 60 25 34 3e 74 17 db ba af 55 29 be
       0.16408041 0.17592382 -0.0016715364 -0.16536592
000200 f6 29 c1 bc c3 b4 1a be 43 c8 d3 bd aa 1f 2c be
       -0.023579579 -0.15108018 -0.10340931 -0.16808954
000210 61 dc 8f bd 4b a6 04 bb 9f 53 13 3e 73 71 e1 bd
       -0.07024456 -0.002024072 0.14387368 -0.11007967
000220 1b 62 b3 bd 6c ba 87 3d 90 96 d8 3d 83 3e 40 3e
       -0.087589465 0.06627354 0.105755925 0.18773846
000230 c4 47 ea 3b 88 52 5c bd 4c 4d fd bc de e9 da bd
       0.0071496684 -0.053789645 -0.030920647 -0.10689138
000240 0c 00 94 bc cc 65 35 3e 10 bb 28 3e 1e dc f8 bd
       -0.018066429 0.17714614 0.16477609 -0.12151359
000250 38 6b 0f be 2e 66 2c 3d 25 19 81 bd 9b 34 8e bd
       -0.14005744 0.042089634 -0.06303624 -0.069436274
000260 21 be 74 3d 58 ff 30 3e ef 90 3b 3e 35 22 e4 3d
       0.059751634 0.17284906 0.18317007 0.11139337
000270 db 93 17 bd 64 08 cd bd 76 56 e4 bd 31 59 2c 3d
       -0.03700624 -0.10011366 -0.111493036 0.042077247
000280 cf d8 fa 3d f0 47 d5 3d ee 67 c7 bd 80 d9 19 be
       0.12248384 0.104141116 -0.0973662 -0.15024376
000290 94 8b 29 be a4 82 57 3d 94 d0 30 3e d8 cc 8b bd
       -0.16557151 0.052614823 0.17267066 -0.0682618
0002a0 f4 92 27 3e 6b 4e 42 3e 45 e5 ac 3d b0 b4 24 be
       0.16364652 0.18975227 0.08442167 -0.16084552
0002b0 fa 17 c0 bc e3 d7 ba bd d1 15 0e 3e 43 a6 ed bd
       -0.023448933 -0.091232084 0.1387551 -0.116039775
0002c0 81 50 49 3d 5f 90 13 3e 30 c1 24 3e e7 d4 31 bd
       0.04914904 0.14410542 0.1608932 -0.04341593
0002d0 11 d1 32 be ec f9 9a 3d e5 2c 8d 3c 21 3b d5 bb
       -0.17462565 0.075672 0.017233321 -0.006507293
0002e0 31 30 90 bd 2e be 2c be d0 20 f4 3d 84 75 1d be
       -0.07040442 -0.16869423 0.11920321 -0.1537686
0002f0 3c 73 79 bd 40 34 80 bd e8 2d 67 3c 76 10 94 3c
       -0.06090091 -0.06259966 0.014110066 0.018074255
000300 cd ef 22 3e f7 e1 81 3d 20 86 7f 3d d9 71 34 be
       0.15911789 0.063419275 0.06238377 -0.17621554
000310 9d ba 82 3d 37 57 ac bc c3 97 83 3c 21 2e b5 bd
       0.0638325 -0.021037681 0.016063577 -0.08846689
000320 c9 6d 69 3d 51 86 f1 3d d6 64 34 bd 8e 2d 17 3e
       0.056989465 0.11793197 -0.044041477 0.14763471
000330 d2 79 c7 bd 61 6a 98 bd 9c 82 82 3d 3b e7 38 be
       -0.09740032 -0.07442165 0.06372568 -0.18056957
000340 0a 55 02 3e 49 b9 08 3d b2 34 25 3e a1 3f a7 bd
       0.12727752 0.033379827 0.16133383 -0.08166433
000350 01 55 34 3e 64 8c 2c be 0d ae 20 bd 08 36 28 3d
       0.17610551 -0.1685043 -0.039228488 0.041067153
000360 56 1c 1a 3e 8f e3 c3 bc 99 40 24 be b8 d7 1a be
       0.15049872 -0.02391222 -0.16040267 -0.15121353
000370 b8 23 11 be a3 a0 a2 bd e4 f3 1d be 89 c8 db bd
       -0.14173782 -0.07940795 -0.15425068 -0.107316084
000380 dd c1 78 3d 36 54 1a 3c 56 04 79 3b 9d 7b 20 3e
       0.060731757 0.0094194915 0.003799697 0.15672155
000390 df 81 39 3e a8 bc 0c be 7b 68 2d 3e 1f 44 b9 3d
       0.18115948 -0.13743842 0.16934387 0.09046196
0003a0 39 1d 17 3e ff 94 ad 3c af 9c 20 bc c3 7f f4 3d
       0.14757241 0.021189211 -0.009802981 0.11938431
0003b0 a0 e7 db bd 3f 1e 96 3d e2 9e 17 be ed 63 a8 3d
       -0.10737538 0.07329988 -0.14806703 0.08222184
0003c0 2e 87 8b bd 48 68 04 bd 67 d7 17 3e c9 5b dd 3d
       -0.06812893 -0.032326013 0.14828263 0.10808522
0003d0 f9 14 e5 bd 12 07 ed 3d 90 b6 ca bc 35 b9 2b bd
       -0.11185641 0.11573614 -0.024745256 -0.041924674
0003e0 31 85 41 3e 83 79 0c 3e 47 49 af bd 89 fc db bb
       0.18898465 0.13718228 -0.085588984 -0.006713454
0003f0 35 9a 11 3e 3d 39 78 3d ef 32 3b 3d 6e 0c 79 ba
       0.14218982 0.06060146 0.04570287 -0.00095004484

model.0.bias f4 [16]
000000 bd 4a 4d 3e 96 a6 25 bd 1c d8 b6 bd e4 e0 3b 3d
       0.20048042 -0.04044207 -0.08927938 0.04586877
000010 0e 32 31 be 01 4e 2b be 96 e5 04 be 70 ba ff bd
       -0.1730425 -0.16728975 -0.12978205 -0.12486732
000020 29 d0 09 be 0e cd 58 3c 75 40 02 3e 30 c7 c8 3d
       -0.13458313 0.013232483 0.12719901 0.09803617
000030 72 fb f4 3d b8 b2 31 be 1c 54 1c be 2a 30 9c 3d
       0.11962022 -0.17353332 -0.1526646 0.07626374

model.2.weight f4 [32, 16, 3, 3]
000000 ce 2c 3b 3d e6 52 48 3d fb e4 8a bd 4f d5 16 3c
       0.045697026 0.048907183 -0.06781956 0.00920613
000010 bf 6d 48 3d 85 0c 91 bd 01 ab 80 bd 09 a8 98 3c
       0.048932787 -0.07082466 -0.062826164 0.018634813
000020 b9 4d 8d 3d fe 0f 94 bc cb 58 72 bc 58 f8 8f 3d
       0.0689959 -0.018074032 -0.014791678 0.0702979
000030 07 6b aa bc b7 35 8c 3d 4a fd ee 3c fc 5d 51 3d
       -0.020802988 0.06846183 0.029173512 0.05111502
000040 e3 5e 4d bd 23 bc d7 3c 27 b8 3e 3d b3 e5 44 3b
       -0.05013932 0.026334828 0.04656234 0.0030044138
000050 01 88 7f 3d 25 52 95 3c d6 44 83 bd 8d 7a 84 bc
       0.062385563 0.018227646 -0.06409614 -0.016171718
000060 3a 2b 9a bc 2c e5 da 3c af a0 b2 3c 1d 38 80 bc
       -0.01881944 0.026720606 0.021805136 -0.015651757
000070 46 bf 21 3d 4b b7 d9 bc d0 fe 63 3d 00 40 85 bd
       0.039489053 -0.026576659 0.05566293 -0.06506348
000080 34 08 89 bd 31 5f 37 bd 38 b4 9e 3d 5d 6a 6f 3d
       -0.06691018 -0.044768516 0.07749218 0.058451045
000090 92 07 5f 3c 0e 4f 83 3d 91 b0 6f bd 1a cc be bb
       0.013612645 0.06411563 -0.058517996 -0.0058226706
0000a0 86 74 19 3d c3 e1 80 bd 5f ec 43 bd 0f 09 bd 3d
       0.03746464 -0.06293061 -0.047832843 0.092302434
0000b0 0a 58 b2 3c 69 0d 35 ba 38 39 80 3d c1 e0 7c bd
       0.021770496 -0.00069066003 0.062609136 -0.06173778
0000c0 0d b9 b7 bc 1c 15 0f 3b 69 46 e7 3c 7d 0e 8f bd
       -0.022427106 0.002183265 0.028231816 -0.06985185
0000d0 b9 37 73 bd 0a 26 95 3c 6e 19 2e bd 15 22 af 3d
       -0.059379313 0.018206615 -0.04250472 0.085514225
0000e0 1b fc 7c bd ad 42 8c 3d 9a d8 1a bd f2 e3 66 bd
       -0.061763864 0.06848655 -0.037804224 -0.05636973
0000f0 c5 a0 97 3b 8f 92 45 bd f1 af 58 3c e6 ca 8d 3d
       0.0046273195 -0.048235472 0.013225541 0.069234654
000100 24 54 a2 3d 2a b6 11 bd a5 cf 98 3d b5 cd a5 bc
       0.07926205 -0.035574116 0.0746148 -0.02023969
000110 c2 78 35 bd 4a c9 28 bd 8d ec f8 3b 2a e9 f8 bb
       -0.044304617 -0.04120759 0.0075965584 -0.0075961547
000120 8a cf 49 3d 8a 7a 80 bd ce b0 8e 3b 01 0d 32 3d
       0.04927019 -0.062733725 0.004354573 0.043469433
000130 ed c1 6a 3b d1 4e 45 bd e0 94 d2 bc bd 15 d7 bc
       0.0035821155 -0.04817087 -0.025705755 -0.026255483
000140 98 a7 9d 3c 70 4a 85 3d 9c a7 d1 bc 20 10 7d bd
       0.019244954 0.065083385 -0.025592618 -0.061782956
000150 50 18 af 3d 97 68 96 3d 0a 56 d6 3c cf 42 53 3b
       0.08549559 0.07344168 0.026164073 0.0032235866
000160 2e 80 23 bd f6 7d 8c bd ad 44 3f 3c 8a 01 dd ba
       -0.039917164 -0.06859963 0.011674088 -0.0016861421
000170 ff 8a 7e 3b a6 c9 52 3d ec 64 1f 3d 97 23 f4 bc
       0.0038840172 0.05146184 0.038914606 -0.029802127
000180 e8 31 2d bc a0 4b cc 3c 05 8c 21 3b f5 32 b9 bb
       -0.010570981 0.024938405 0.0024650109 -0.0056518265
000190 af 2b f7 3c ce aa f7 bc c5 19 92 bd 5c 0c 4b 3d
       0.030172197 -0.030232813 -0.071338214 0.049572334
0001a0 65 d1 08 bd 6f 1e c6 bd 30 53 9c bc 7f a5 6d bd
       -0.03340282 -0.096737735 -0.019082636 -0.058019157
0001b0 e9 dc 92 bd 86 84 64 3b fd d8 90 bd 3c 07 b7 bd
       -0.071710415 0.003486903 -0.07072637 -0.08936927
0001c0 03 05 c7 3a 64 ea 72 3d 24 11 9c bd 5c 83 30 bd
       0.0015183989 0.059305564 -0.07620457 -0.043094024
0001d0 f8 4c ed 3c dc f7 8c bd 69 53 ef bc b0 c7 f1 3c
       0.028967366 -0.06883213 -0.029214578 0.029514164
0001e0 61 59 35 bd f6 9e b6 3d ff 8e e3 bc d2 40 b3 bc
       -0.04427469 0.08917038 -0.027778147 -0.021881495
0001f0 8d a2 0d 3d 62 ba d6 3c 24 bb d9 bc 9c 95 34 bd
       0.03457885 0.026211921 -0.026578493 -0.04408799
000200 ca 0c a0 3d 22 9b 1f 3d 60 a2 89 3d 84 cf 47 3d
       0.07814939 0.038966306 0.06720424 0.048781887
000210 39 04 61 3d 0e 46 80 3d fd 22 83 3d 82 f2 78 bc
       0.054935668 0.06263362 0.06403158 -0.015194537
000220 44 0b d4 3c fe 19 39 3d c1 1d a1 3d b9 5e e2 bc
       0.025884278 0.045190804 0.07867003 -0.027633058
000230 99 f3 b1 3c 4c bf ad 3d a2 e1 95 bb c1 43 b4 bc
       0.021722602 0.084837526 -0.0045740167 -0.022004964
000240 20 c4 9c bd a5 39 2d bd 5c cf 22 bd 23 a9 56 bc
       -0.076545954 -0.042291302 -0.039748535 -0.013101849
000250 66 11 60 bd 57 28 50 3d 48 af 9c bc 26 d7 bb bb
       -0.054704092 0.05081972 -0.01912655 -0.005732435
000260 05 e2 eb 3c d8 ff 86 bb d8 a5 3d bd 16 8e 9f bd
       0.028794298 -0.0041198544 -0.04630074 -0.077907726
000270 8a 0d 23 3d 52 58 30 bd ba a2 3e bc d2 9d ed bc
       0.039807834 -0.04305298 -0.011635477 -0.029005919
000280 70 0d 8a bd 9a 68 db 3b 1e ab cd bb 88 20 21 3d
       -0.06740844 0.006695819 -0.0062765023 0.039337665
000290 40 b4 04 bd 96 0b 93 bd c4 37 41 bd 24 e9 9d 3c
       -0.032398462 -0.07179944 -0.047172323 0.01927621
0002a0 4a 1a 62 3d 30 ab 7a 3d c1 2c ee 3c c9 c2 ec 3c
       0.055200852 0.061198413 0.029074075 0.028901475
0002b0 ec dd 7f bd 28 67 27 bc f0 93 53 3d 53 a8 0a 3c
       -0.0624675 -0.010217465 0.051654756 0.008462983
0002c0 3c 60 44 ba 4c a5 c7 bb d6 77 7a bd 76 05 a0 bd
       -0.00074911467 -0.006092703 -0.06114944 -0.078135416
0002d0 2e bb 81 3d 20 1b 3f bd 98 2d 89 3d c3 ac a0 3d
       0.0633453 -0.046656728 0.066981494 0.07845452
0002e0 8c 19 47 3d 88 f6 68 bd 54 e3 83 bd a8 83 44 3d
       0.048608348 -0.056875736 -0.06439844 0.04797712
0002f0 26 43 63 bc ed d7 e6 bc ef 89 2a 3d 9d 45 11 bd
       -0.01387099 -0.028179133 0.04163545 -0.03546678
000300 02 02 bc 3c 55 0a a1 3d 5b 82 6c 3d 4c 79 92 3d
       0.022950176 0.07863299 0.057741504 0.07152042
000310 e5 89 88 3c 55 a1 32 3c 65 c5 e7 3a e7 18 2d bd
       0.016667316 0.010902722 0.001768273 -0.042260077
000320 0a 1a 6e bb 36 5e 0b bd fa 23 a1 3d b0 b2 8f 3c
       -0.0036331438 -0.034025393 0.0786819 0.01754126
000330 5f d2 8d bc 69 af 18 bd 4d cf bc 3b ca b9 8b bd
       -0.017312227 -0.03727666 0.005762017 -0.06822546
000340 f8 fd 62 bd 9e 8d 82 bd 2e d2 3a 3d 31 d9 c4 3c
       -0.055417985 -0.063746676 0.0456106 0.024029346
000350 84 b2 36 3d e8 58 47 3c d8 bc c9 bc 79 41 1c 3d
       0.04460384 0.012167193 -0.02462618 0.038148377
000360 70 38 cd 3c 63 66 8e bd c2 6b 36 bb f6 1e 8b 3d
       0.025051326 -0.069531225 -0.0027835225 0.06793015
000370 15 ed 50 bd c9 6d 90 3d 7e b1 05 3d d8 71 85 3c
       -0.05100735 0.0705219 0.032639973 0.016289636
000380 5b 63 bc 3d 0f 71 8b 3b 64 e5 4f 3c d6 24 73 3d
       0.09198638 0.004255421 0.012688968 0.0593613
000390 04 2d 75 3d c6 66 81 3d 0d d5 af 3c 2e d8 07 bc
       0.059857383 0.063184306 0.021463895 -0.008291287
0003a0 f9 2f 54 bd b0 b6 a0 3d a2 a7 08 bc b1 3d 5b 3d
       -0.051803563 0.07847345 -0.008340748 0.05352563
0003b0 0a f4 de 3c da 3a ce 3c ad ad 1e bd f4 c3 57 bc
       0.027215976 0.025174547 -0.03873985 -0.013169277
0003c0 0d a2 59 3d 9a 90 94 bd 91 e7 49 3c e3 65 46 bd
       0.05313306 -0.07254143 0.012323276 -0.04843701
0003d0 c4 e6 3e 3c 14 a0 df bc 8f 87 72 3d 8d 93 8d bd
       0.0116516985 -0.02729801 0.05921131 -0.06912909
0003e0 30 8d 90 bd f2 e0 63 3d 6d fc 12 3c d3 5c 68 bd
       -0.070581794 0.055634446 0.008971316 -0.05672915
0003f0 68 0d 8c 3d ce af 68 bd da 43 66 bd cc 4a 91 ba
       0.068384945 -0.056808285 -0.056217052 -0.0011084913

model.2.bias f4 [32]
000000 e7 27 a8 bd bc be 0d bd 7e 8b 90 39 72 51 6e bd
       -0.08210736 -0.034605727 0.0002756975 -0.05818314
000010 9f 26 9c 3d 9f 5a 22 3d c2 50 46 bd 4b 15 4b 3d
       0.07624554 0.039637204 -0.04841686 0.049580853
000020 34 75 25 bc 0e ad 2a 3d 39 d7 90 3d ce 20 aa 3c
       -0.010098744 0.041668944 0.070723005 0.020767596
000030 7e 34 2f bd c1 fb 33 3c 68 ce 9d 3d 44 f9 66 bd
       -0.04277467 0.010985316 0.077053845 -0.056390062
000040 3e d9 14 bd 1a 09 5d 3d e5 3e 43 3d 5f c1 1d 3c
       -0.03633999 0.053963758 0.047667403 0.009628623
000050 fc 87 75 bd 73 22 e6 3c 0b aa 54 3d 4b bd 46 3d
       -0.059944138 0.028092599 0.051919978 0.048520368
000060 b2 f9 1b bc 35 5e 96 bd 61 78 7f bd d0 d1 24 3a
       -0.009519981 -0.07342187 -0.06237066 0.0006287368
000070 3a 1d 0a 3d ce c8 a0 3d d8 1d c0 3d c9 dd 51 3d
       0.03371928 0.078508005 0.09380692 0.0512369

model.4.weight f4 [32]
000000 7c b7 81 3f 89 f0 80 3f 63 ae 7d 3f 65 07 82 3f
       1.013412 1.0073406 0.9909422 1.0158507
000010 62 b5 7c 3f ed bd 7c 3f cb 48 81 3f 0b 49 7f 3f
       0.9871427 0.98727304 1.010034 0.9972083
000020 51 31 7d 3f 27 19 80 3f ad 94 7f 3f eb ed 7b 3f
       0.98903376 1.0007676 0.99836236 0.9840991
000030 f4 a6 81 3f df 4a 80 3f b7 f2 7e 3f 44 46 81 3f
       1.0129075 1.0022849 0.99589103 1.0099568
000040 ba a2 81 3f 5b bd 7c 3f 12 01 80 3f a6 ff 7b 3f
       1.0127785 0.98726434 1.0000327 0.98436964
000050 ce 7b 80 3f 41 c6 7f 3f d0 72 7f 3f c4 0c 7c 3f
       1.0037782 0.99911886 0.99784565 0.9845698
000060 cc 24 80 3f 3b 51 7f 3f 57 9a 81 3f 69 bb 7d 3f
       1.001123 0.9973332 1.0125226 0.9911409
000070 d0 82 7f 3f 75 89 80 3f 4f 88 7f 3f 8a 82 7f 3f
       0.9980898 1.0041949 0.99817365 0.9980856

model.4.bias f4 [32]
000000 fa 3e ec ba 1a 9d 2a bb 0c ae ba 3b a4 9a 86 bc
       -0.001802414 -0.0026033581 0.0056970175 -0.01643116
000010 7c 7c cf 3a e4 99 83 bb c8 5f 36 bc c7 cb f0 bb
       0.0015829946 -0.004016148 -0.0111312345 -0.007348511
000020 4f bb 7b bc 2f 0b 92 3c 00 e8 3d 3c 72 33 31 bc
       -0.015364482 0.017827598 0.011590958 -0.010815488
000030 51 2c fb bb a9 5a 2d bc 64 c1 50 3c 58 98 2b bb
       -0.007665195 -0.010580697 0.01274142 -0.0026183333
000040 73 a4 35 bc 60 39 67 3c fd 68 7b bc 9e cb 1a bc
       -0.011086571 0.0141128 -0.015344855 -0.00944796
000050 3b 4a 36 3c 68 1f 8f 3c e2 b7 23 3c 79 0d 07 3c
       0.011126096 0.01747103 0.009992572 0.008242958
000060 f7 55 b7 3b bc 19 0f 3b 48 bc 76 bc 30 91 ae 3b
       0.0055949646 0.0021835407 -0.015059538 0.0053273663
000070 f4 f2 56 3c bc 59 3b bb 38 55 f9 bb 2f f5 6a 3b
       0.013119448 -0.0028587421 -0.007609036 0.0035851707

model.5.weight f4 [64, 32, 3, 3]
000000 62 82 ca 3c 73 c6 3c 3d cd d4 c1 bb d4 85 0c bd
       0.024720374 0.046087693 -0.0059152604 -0.034307316
000010 53 aa 08 3d 8a fc 79 bd d4 7a 85 bc c6 6b 1a bd
       0.03336556 -0.061031856 -0.01629392 -0.037700437
000020 09 cb db bc 16 49 61 3d d1 2f 77 bd 01 5f 71 bd
       -0.026830213 0.05500134 -0.060348336 -0.058928493
000030 de 68 ab 3c 0a 95 42 3c f2 d6 90 3c 6d f7 36 3c
       0.020924028 0.011876354 0.017680619 0.011167389
000040 da fc f0 bc 3a 94 1e 3d 2b 43 13 bd 87 57 49 3c
       -0.029417444 0.03871558 -0.03595273 0.012288935
000050 e2 3f 30 bb 81 49 df 3c 54 3a da bc 6c 83 37 bd
       -0.0026893546 0.02725673 -0.026639141 -0.044803068
000060 87 e0 53 3d 07 f4 b6 bc 6a 81 05 bd a8 be 10 bd
       0.051727798 -0.022333158 -0.032594122 -0.035338074
000070 d1 b2 ed 3c f9 19 87 bd 01 cf 17 bd 8c 5d 00 3d
       0.02901593 -0.06596751 -0.03706265 0.031339213
000080 a3 82 08 bd 90 6a d1 bc 3c c9 2d bc 70 3c f4 bc
       -0.03332771 -0.025563508 -0.01060706 -0.029813975
000090 ca 1e 5e bc fd aa 3b 3d b8 71 a6 3c be 31 46 bd
       -0.013557145 0.045817364 0.020317897 -0.04838728
0000a0 6f 31 fe bc e4 a1 98 3b 51 57 da bc 2a 2f f6 bc
       -0.031029431 0.0046579707 -0.026652964 -0.030051786
0000b0 2a 3d 2f 3c 8c 51 22 bb a0 82 ec bc f2 d0 63 bc
       0.010695735 -0.0024767844 -0.02887088 -0.013904797
0000c0 cc 7f e6 bc 4d fd c6 ba 4e 2a 51 3b 15 a8 2c bd
       -0.02813711 -0.0015181691 0.0031916085 -0.042152483
0000d0 8f a3 ee bc cb 30 ae 3c 93 35 10 bd 66 43 11 bc
       -0.029130725 0.0212635 -0.035207342 -0.008866167
0000e0 9f b2 4f 3d 30 ff df ba 27 be 94 3b 89 b2 50 bb
       0.050707456 -0.0017089602 0.0045392695 -0.0031844696
0000f0 9a 82 f2 3c fe b1 0d bc 0e b0 13 3c 69 a1 25 bc
       0.029603291 -0.008648394 0.009014143 -0.010109284
000100 f0 df d5 3c b7 cf f0 bc 97 73 e7 3c a5 69 76 bc
       0.026107758 -0.029395921 0.02825336 -0.015039836
000110 c8 3c 1d bd 78 7f 52 3d 45 b6 69 3c 24 c0 31 3d
       -0.038388044 0.051391095 0.014264648 0.04339613
000120 e6 15 e6 bb 8e 09 c4 bc 39 9b 37 3d 6f 85 1f 3d
       -0.0070216535 -0.023930337 0.044825766 0.03894561
000130 87 e9 cc 3c 41 18 d5 3c ca da 64 bd 71 ee 27 3d
       0.025013698 0.026012542 -0.055872716 0.04099888
000140 d4 25 c5 3c a5 9d 17 3c b8 7d ce bc ec cc 50 bc
       0.02406589 0.009253894 -0.025206432 -0.01274417
000150 2a 1d 8a bc f8 d2 84 bc 77 ee 69 3c b8 84 1d bd
       -0.01685961 -0.016213879 0.014278046 -0.03845665
000160 e9 2f 8d 3c 16 89 f8 bc a9 90 4e 3d 37 ae c7 3c
       0.01723476 -0.030338805 0.050430927 0.024375064
000170 37 72 b2 3b 98 de 48 3b 52 d5 1a bd 85 38 6a 3d
       0.0054457444 0.0030650254 -0.037801094 0.057182807
000180 89 58 53 3c 9a 98 bd 3c ca 48 19 3c bd b3 5b bd
       0.012899526 0.023144055 0.009355733 -0.05363821
000190 96 ed 38 3c 36 79 4a 3d e6 13 d0 3c 50 59 f4 3c
       0.011287114 0.049432002 0.025400113 0.029827744
0001a0 79 be 13 3d 6b 46 a6 3c ac e4 a1 3c ae 39 ff bb
       0.03607032 0.02029725 0.01976236 -0.0077888584
0001b0 8b 01 1c bd 94 31 2a bd ba 0f 0f 3d bf e6 a1 3c
       -0.03808741 -0.041551188 0.034927107 0.019763349
0001c0 a9 61 6b 3b 48 42 33 3d b0 9b ea bc 38 60 08 bd
       0.0035916364 0.043764383 -0.02863869 -0.033294886
0001d0 71 ac cd 3c 76 a8 55 bd 88 66 0e bd c2 b5 8b bd
       0.02510664 -0.05216261 -0.03476575 -0.06821777
0001e0 29 c0 db 3c 39 1e 29 3d 56 39 37 3d 01 0f cb bb
       0.026825028 0.04128859 0.044732414 -0.006196857
0001f0 5a 3f 0d bc 69 f2 96 3b be cb 39 3d 3e 18 f8 39
       -0.008621061 0.0046065343 0.04536032 0.00047320308
000200 35 0a 5d bd 13 22 0d bd 02 f6 a9 3c f8 33 2d bd
       -0.053964812 -0.034456324 0.020747188 -0.04228589
000210 99 38 1e bd a7 76 31 bd 4e 2f 68 3d 54 c4 11 3d
       -0.038628194 -0.043326046 0.05668574 0.035587624
000220 65 5c 84 bb a3 c0 da 3c ba 95 72 3d 12 d8 10 3c
       -0.0040393346 0.026703184 0.05922482 0.008840578
000230 2d d2 02 bd 45 72 63 3d 21 36 3c bd de bc d3 3c
       -0.03193872 0.055528898 -0.04595006 0.025846895
000240 d5 ff 98 ba b2 81 9f bc 24 17 3c 3c 95 09 98 3c
       -0.0011672924 -0.019471023 0.0114801265 0.018559257
000250 22 e4 55 bd c6 44 41 3d 19 d6 5d 3d 3e c8 4f 3d
       -0.052219518 0.047184728 0.054159258 0.050728075
000260 09 3d e6 3a 4a 74 4a 3d 62 e7 6b bc 19 7f 4c 3c
       0.0017565797 0.04942731 -0.014398428 0.012481474
000270 32 c3 f9 3c ff a3 51 bc 4b b6 98 bc 40 a4 97 3c
       0.030488584 -0.012795447 -0.018641612 0.018510938
000280 0d 83 3f bd e7 cb ac 3c 92 0e 1f 3c 90 4e b6 bc
       -0.04675584 0.021093322 0.009708064 -0.022254258
000290 05 1c 65 3d a7 be 6d bd 4f 13 a5 bc 6f c3 5a 3d
       0.055934925 -0.05804315 -0.020150809 0.053409036
0002a0 2c 17 37 bd 52 23 68 3d 66 d5 b2 3c 1a 9c d5 3b
       -0.044699833 0.05667431 0.021830272 0.006518853
0002b0 39 77 0d 3c ea 33 91 bc 39 f5 e4 3c 20 2f 84 3d
       0.008634382 -0.01772495 0.027948963 0.06454301
0002c0 e5 20 d6 bc 73 ee 19 bd 45 f2 3e 3d ac 9c 06 3c
       -0.026138732 -0.03758092 0.046617765 0.008216064
0002d0 d8 73 26 3d 6f 20 10 bd 5d 7e da 3b c3 75 04 3d
       0.04063782 -0.03518718 0.0066678957 0.03233887
0002e0 f5 b9 d4 3b f7 f8 10 bc e9 86 0b bd 81 14 69 bd
       0.0064918944 -0.00884842 -0.034064207 -0.05690432
0002f0 cc e7 2d bc e7 37 8f bc 5b 3e d1 bc 95 5e 39 bd
       -0.010614347 -0.017482711 -0.025542429 -0.045256216
000300 2e 81 1e 3d 94 ce 1f 3d 45 c3 80 3c c1 fe 31 3d
       0.038697414 0.039015368 0.015718112 0.043455843
000310 40 a7 4a bd 51 11 a0 bc 07 0e 5a 3d 48 b1 84 bb
       -0.04947591 -0.019539507 0.053236034 -0.004049454
000320 cd d8 3a bd fe 7b 1f bc fc c3 88 bc 99 9d 25 3c
       -0.045616914 -0.009734152 -0.016695015 0.010108375
000330 af 89 55 bd c3 f9 05 bd fe c2 84 bc 04 93 9f bc
       -0.05213326 -0.032708894 -0.01620626 -0.019479282
000340 1f c4 68 3d 5c 35 89 3c 12 c0 6d bb 51 4c 11 3c
       0.05682766 0.016749077 -0.0036277813 0.008868293
000350 9e af 3b bc 6f e2 15 bd ef f5 40 3d 46 91 c7 bc
       -0.011455445 -0.036592897 0.04710954 -0.024361264
000360 61 c6 70 3d a7 d5 35 3d 23 d3 d9 3c 91 0f 45 bd
       0.05878294 0.044393208 0.026589936 -0.04811055
000370 c2 20 6a 3d 63 6b 99 bc 17 33 3d 3b a1 24 4b bd
       0.057160147 -0.018727964 0.0028869563 -0.04959548
000380 92 76 55 3d 7a 6e 7f 3c 75 a2 0b 3d e7 80 23 bd
       0.05211503 0.0155903045 0.034090478 -0.039917853
000390 e7 89 9c bc a3 49 9f bb c6 20 9d 3c 80 2d 0e bd
       -0.019108726 -0.004861073 0.019180667 -0.03471136
0003a0 b6 7d 10 3d 27 9c 54 bd e1 8d 37 3d d8 3d 4f 3d
       0.035276137 -0.05190673 0.04481304 0.05059609
0003b0 54 f9 6f bd 6b 33 2c bd 33 86 00 bd 69 06 7b bb
       -0.058587387 -0.042041223 -0.031377982 -0.0038303381
0003c0 02 a0 7c 3b 60 62 f2 3c ac 4e 2c 3d dd 11 a5 bc
       0.003854752 0.029587924 0.042067215 -0.02015012
0003d0 de ba 86 bd ee 60 b3 bc 7a 1c a6 bc a0 b9 80 bd
       -0.06578611 -0.021896806 -0.02027725 -0.06285405
0003e0 db 8b c2 3c 77 d7 bc bb 40 21 a7 3c 75 10 39 bd
       0.023748329 -0.00576299 0.020401597 -0.04518171
0003f0 2d 7c 82 bc 73 c1 45 3d 28 1d ce 3c cd 34 3b ba
       -0.015928352 0.04828019 0.025160387 -0.0007141352

model.5.bias f4 [64]
000000 c5 a0 4d 3d d7 80 5a 3d cc 5d c6 3b 74 e6 f1 3c
       0.05020215 0.053345527 0.006053662 0.029528834
000010 24 03 fd bc 3a ad c3 3b 46 3d cd 3c 88 a0 22 3d
       -0.030885287 0.005971578 0.025053632 0.039703876
000020 ea a7 ec 3c 96 66 3a 3d aa da db bc a4 ed 32 bd
       0.028888661 0.04550799 -0.026837666 -0.043683663
000030 31 5b 77 3d 8e a1 40 3b 34 cb ce 3c ea 9f 10 3d
       0.0603897 0.002939317 0.02524338 0.035308756
000040 8b 3b de 3c fa f8 43 bc ad c6 7f 3d e2 a0 76 bc
       0.027128002 -0.011961216 0.06244533 -0.015053006
000050 d7 21 b3 3b c3 46 2f 3d e0 bc dd bc a5 9e dd 3b
       0.0054666805 0.042792093 -0.027067602 0.0067632967
000060 a6 39 1e bd cf 96 04 bd a3 1c 94 bc 5a 48 2d bd
       -0.038629197 -0.032370385 -0.018080061 -0.042305328
000070 df ab 04 3d 59 4f 51 3c 8d ee 57 3d ce b9 1a 3d
       0.03239047 0.012775266 0.052717734 0.037774853
000080 17 4e 7f 3c 50 7e 3e bc 83 df d8 bb d6 45 6b 3d
       0.015582583 -0.011626795 -0.0066184415 0.057439648
000090 10 cc 41 3c 67 89 4c bc 62 10 a8 3b d9 0f 3c 3d
       0.011828437 -0.012483931 0.005128906 0.04591355
0000a0 1d 94 b4 bb ee 20 62 3d 68 e3 33 bc 84 d8 4e 3d
       -0.0055108205 0.055207185 -0.010979511 0.050499454
0000b0 4e 4f b3 3c 24 a4 84 3d 94 13 0a bc 90 aa 51 3d
       0.021888401 0.0647662 -0.008427519 0.05118805
0000c0 13 7c dc bc 96 52 3f bc 03 5f 3b bc d7 bc 84 3d
       -0.026914632 -0.011677405 -0.011436227 0.06481331
0000d0 5c ed ef bb 93 ee 3f 3c 44 b8 c7 3c e2 aa 33 3d
       -0.0073219966 0.011714595 0.024379857 0.04386414
0000e0 d3 4d 80 3c 42 87 e6 3c dc 26 e3 bc e3 3d 72 bd
       0.01566211 0.028140668 -0.02772849 -0.05914105
0000f0 e4 0f 0d bd 14 25 2b bd 52 da 89 3d 1a 4a b0 3c
       -0.034438983 -0.041783407 0.067310944 0.02151971

model.7.weight f4 [64]
000000 41 3d 81 3f 8c 0e 7d 3f b2 db 7e 3f df 5a 81 3f
       1.0096818 0.9885032 0.9955398 1.0105857
000010 50 76 80 3f 1c 4e 80 3f ac e5 7d 3f 3c d8 7f 3f
       1.0036106 1.0023837 0.99178576 0.9993932
000020 b9 e1 7c 3f 10 70 81 3f 0b 1a 80 3f 46 e1 7f 3f
       0.98781925 1.0112324 1.0007948 0.99953115
000030 d2 1d 81 3f 85 d4 7e 3f e8 60 7f 3f ae bd 7e 3f
       1.0087225 0.9954303 0.9975724 0.9950818
000040 80 3f 81 3f 8f a5 7e 3f 12 93 7f 3f 43 89 7f 3f
       1.0097504 0.9947137 0.99833786 0.9981882
000050 d7 81 80 3f cd 25 7e 3f 96 80 7d 3f 71 18 7f 3f
       1.0039624 0.9927643 0.9902433 0.9964667
000060 13 56 80 3f 44 1f 80 3f bb c4 81 3f bf be 80 3f
       1.0026268 1.0009542 1.0138162 1.0058211
000070 d5 b6 80 3f d2 46 7e 3f 27 64 7f 3f 21 23 80 3f
       1.0055796 0.99326813 0.99762195 1.001072
000080 97 0e 80 3f 51 09 81 3f 40 19 7e 3f 0e f0 7f 3f
       1.0004452 1.0080968 0.9925728 0.9997567
000090 d3 43 80 3f cc c0 80 3f 9c f6 7c 3f 6a 65 81 3f
       1.0020698 1.0058837 0.98813796 1.0109074
0000a0 9f 91 7e 3f d6 ce 7f 3f 00 be 81 3f aa 34 81 3f
       0.9944095 0.9992498 1.0136108 1.0094197
0000b0 87 98 7f 3f 85 23 7e 3f c6 2a 80 3f 49 1f 7e 3f
       0.99842113 0.9927295 1.0013053 0.9926649
0000c0 e2 5f 80 3f 17 51 80 3f 6c a4 7d 3f fd 94 80 3f
       1.0029261 1.0024747 0.9907901 1.0045468
0000d0 54 b2 7e 3f 07 04 7d 3f bb fd 7e 3f 70 58 7f 3f
       0.9949086 0.9883427 0.9960591 0.9974432
0000e0 a3 cc 7f 3f 3c 92 7f 3f 5d 0c 7f 3f a5 0d 7f 3f
       0.99921626 0.9983251 0.9962824 0.99630195
0000f0 85 d9 80 3f ca a2 7c 3f e2 e7 7d 3f 06 ec 81 3f
       1.0066382 0.98685896 0.9918195 1.0150154

model.7.bias f4 [64]
000000 b3 80 31 bc e2 af cf 3b 96 d1 39 bc 86 b0 4e bc
       -0.010833907 0.0063381055 -0.011341473 -0.012615329
000010 09 22 9b bb a9 4f 17 3c 19 61 49 3c 7a 34 31 3c
       -0.004734282 0.009235301 0.012291216 0.010815734
000020 05 76 3d bc ce ea 09 3c d4 60 8b bc 06 0b 24 bc
       -0.011563783 0.008417798 -0.017013945 -0.010012394
000030 5a de 08 3c 42 d0 0f bc 98 25 4d bc 13 4a 76 3b
       0.008353794 -0.00877768 -0.01252117 0.0037580773
000040 ae 57 82 3b 50 c8 bc 3b 08 7f 77 3c e0 66 88 3c
       0.0039777374 0.005761184 0.01510597 0.016650617
000050 91 5a 2a ba bf 68 18 3c 7f b7 94 3b e3 60 72 bc
       -0.0006498481 0.009302317 0.004538476 -0.014793607
000060 b0 d6 87 3b 76 9a 33 bc a1 30 45 bc 0b 57 4a bb
       0.004145466 -0.010962119 -0.01203552 -0.0030874636
000070 9b 96 8f bb a4 65 65 3c 0f 47 4e bc 20 41 66 3c
       -0.0043819672 0.014001284 -0.012590184 0.014053613
000080 5c 57 0c 3c d8 3d 02 3c fd 20 db bb 93 2c 4d 3c
       0.00856575 0.007949315 -0.006687282 0.012522834
000090 24 93 80 bb 04 14 35 bc 71 fe 24 bb 70 9a 57 bc
       -0.0039237905 -0.011052135 -0.0025176073 -0.013159379
0000a0 fd ea a2 bb 28 88 de 3b 9d f6 2d bc 3b 33 94 bb
       -0.0049718604 0.0067911334 -0.010617879 -0.0045227087
0000b0 40 28 b1 b5 7a 1a 88 3b aa 80 23 bc c2 11 15 3c
       -1.3199242e-06 0.004153547 -0.009979406 0.009098472
0000c0 6b 7e 83 3b 58 8f 41 3b e3 20 f8 bb f8 02 db 3b
       0.004012873 0.0029534902 -0.00757228 0.0066837035
0000d0 16 fb cf bb 72 94 22 bc e3 3c 09 3c c8 b1 0b 3b
       -0.0063470704 -0.009923087 0.008376333 0.0021315683
0000e0 7a 05 4b 3c 5c fc aa 3b 33 02 8e 3b 72 93 72 bb
       0.012391442 0.005218072 0.0043337583 -0.0037014154
0000f0 64 7d a7 3b 3b 63 45 bb b7 f1 3c 3c a8 ec 67 bc
       0.0051113833 -0.003011896 0.011532239 -0.014155544

model.8.weight f4 [128, 64, 3, 3]
000000 8f 67 a4 3c a4 55 10 bd 7f 38 14 bc f5 a3 fb bc
       0.020068912 -0.035237923 -0.009046673 -0.03071783
000010 6d d1 aa 3c 59 a4 0d 3d db 56 a5 3c d3 32 34 3d
       0.020851815 0.034580562 0.020183017 0.043993782
000020 ec 38 ff 3c 9b 1b e2 3c 51 84 e9 bc 6f 5b 34 bc
       0.031155072 0.027601054 -0.028505476 -0.011008128
000030 7c b6 b1 bc fe 59 de bc 85 e1 4a bc 2f fe 02 3d
       -0.02169346 -0.027142521 -0.01238287 0.03198069
000040 83 6c 94 3c 66 cf b1 3c 66 06 ee 3c f0 b7 f7 bc
       0.018118149 0.02170534 0.029055785 -0.030239075
000050 04 8c b7 bc d7 8d cf 3c e6 12 d1 bb 9a 39 d0 3b
       -0.022405632 0.02533619 -0.0063804267 0.006354523
000060 dc b6 2d 3d 7e e6 16 bc 84 ae a5 3c 76 83 03 3c
       0.042410716 -0.009210227 0.020224817 0.008026948
000070 99 fa b4 bc 4b 55 b8 bc 96 09 a4 bc 81 57 b2 bc
       -0.02209215 -0.022501608 -0.020024102 -0.02177024
000080 4a 38 ac 3c 20 b2 b5 bb 08 78 12 3d 48 33 ad bc
       0.021022934 -0.005544916 0.035759002 -0.021142617
000090 b2 71 6c ba 59 55 09 3d 17 33 93 3a e2 cd 0d bb
       -0.00090196275 0.03352866 0.0011230436 -0.0021637608
0000a0 fe d5 b7 3c d3 3c e4 3b 56 2a 14 3c 58 12 18 bd
       0.022440907 0.0069652586 0.009043297 -0.03712687
0000b0 4d ed c7 3c e3 cb f5 bc 08 ea 94 3a ff d2 1c 3d
       0.024405146 -0.030004447 0.0011361251 0.03828716
0000c0 b2 d8 f3 bb d1 18 7e 3c 23 07 cf bb 60 cb ea bc
       -0.0074416036 0.015508846 -0.0063179894 -0.02866143
0000d0 bd 7c 1b bc dc a2 02 3c 59 20 96 3c 2b d0 df 3c
       -0.009490189 0.007973399 0.018325971 0.027320942
0000e0 a2 ba fd 3c 7c 4c 53 3c d3 ae 08 3d c1 df 5e 3b
       0.030972783 0.012896653 0.03336985 0.003400788
0000f0 55 a4 fb 3c 41 d7 49 3b 78 e2 42 3b 89 ba b4 3b
       0.030718008 0.0030798467 0.0029737037 0.005515401
000100 73 26 99 3c c0 19 10 3d 3c a6 73 3c 16 fe 17 3c
       0.018695092 0.035180807 0.014871176 0.009276887
000110 ab 43 8a 3c fa e8 9a bc 5e e5 3f bd 5e f3 76 3b
       0.01687797 -0.01890992 -0.0468496 0.003768168
000120 34 01 52 bc 27 2c 77 3b 8d 48 f9 bc 52 46 b4 3b
       -0.01281767 0.0037715526 -0.030430103 0.005501547
000130 29 41 a1 3c f0 e0 24 bd e1 82 08 bd 6e 40 8a 3b
       0.019684391 -0.04025358 -0.03332794 0.0042191064
000140 d8 98 88 ba 8b ae f4 3c b8 31 76 bb 73 ac 42 bc
       -0.0010421528 0.029868385 -0.0037566256 -0.011881935
000150 d8 4c 93 3c b5 38 8c bb f0 fa 8e bc 7e 97 08 3d
       0.017980978 -0.004279221 -0.01745364 0.0333476
000160 7f 3f af bb 13 0a 2d 3c 09 77 12 3d d7 25 fc ba
       -0.0053481455 0.010561484 0.035758052 -0.0019237351
000170 a3 32 05 3d 1c 7a fd bc 16 29 12 bc 11 e5 0e 3d
       0.032518994 -0.030942015 -0.008920928 0.034886423
000180 8c 43 02 3d d7 35 93 bc 2b 16 16 3c 50 0f 90 bc
       0.0318027 -0.017970009 0.009160559 -0.017585427
000190 cb d2 23 3c 1a fe aa 3b b1 84 ec 3c d6 38 9b 3c
       0.009998987 0.0052182795 0.028871866 0.018948
0001a0 d2 91 0f 3d dd 68 61 bc ad 24 32 bc 23 bd fe bc
       0.035051174 -0.0137579115 -0.010873002 -0.031096047
0001b0 43 45 3d 3b bb 73 d1 3c 4f 2f 10 bc 28 8b 51 3c
       0.0028880395 0.02556788 -0.008800342 0.012789525
0001c0 42 a9 0e 3d 7e fc db bc 82 dc 05 bd 41 ff 2d bd
       0.034829386 -0.026853796 -0.032680996 -0.042479757
0001d0 a9 ed aa bc 69 35 1b 3d 46 33 f1 bc 8d 48 2e 3d
       -0.020865278 0.037892733 -0.029443394 0.04254966
0001e0 8c e6 0b 3d af 6b d8 3c cc 52 a2 3a 02 43 8e bc
       0.034155414 0.026418535 0.0012384295 -0.017365936
0001f0 2c 59 d0 3c f5 be 08 bd 81 61 00 bd b5 84 0e bd
       0.025433145 -0.033385236 -0.031342987 -0.034794528
000200 9f 31 ec 3c f8 7f f7 bb ae e2 a7 3b 7f bb 35 3d
       0.028832255 -0.007553097 0.005123458 0.044368263
000210 6a 8e 2e bc 21 4d 16 bd 3e 4a 47 bb 23 37 1c bc
       -0.010654071 -0.03669465 -0.0030409242 -0.00953463
000220 7f 0a cc 3c 3b c0 c3 bc 8a f1 1b 3d b4 a4 e9 bc
       0.024907349 -0.023895374 0.038072146 -0.02852092
000230 33 2b 88 bc 6d 0b 0f bd 6f 70 3e 3c f0 ba 00 bd
       -0.016622161 -0.034923006 0.011623486 -0.031428277
000240 0d 8f 11 3d 76 49 b6 3c cc c0 b8 3c 78 c2 1e bd
       0.035536814 0.022251826 0.02255287 -0.03875968
000250 e9 e8 0f 3b c1 cd bb bc b2 f9 3b 3c 72 69 28 bd
       0.0021958894 -0.02292526 0.011473106 -0.041116185
000260 3c 50 04 3d 16 eb 5a 3c 03 dc 71 bc f0 6c 5f 3c
       0.03230308 0.013361713 -0.014761928 0.013636813
000270 c2 eb 95 3c 86 da ef bc ea f5 88 bc 6c 95 9f 3c
       0.018300895 -0.029279005 -0.016718823 0.01948043
000280 b8 64 1a bd ab 11 ed 3c 96 1d 97 bb d3 9f 09 3d
       -0.03769371 0.028939089 -0.004611681 0.033599686
000290 0e 76 0d bd 97 62 02 3d e5 46 3b bc 6c c2 8f bc
       -0.034536414 0.031832304 -0.011430477 -0.017548762
0002a0 99 30 00 3d 3c 9d e6 bc c8 90 dc bc 99 da f0 bc
       0.031296346 -0.028151147 -0.026924506 -0.02940111
0002b0 ff 89 dc bc 00 c9 b1 3c 4d 52 ee bc 9f 41 80 bc
       -0.02692127 0.02170229 -0.029091978 -0.01565629
0002c0 31 1a 9a 3c 6d 3d 97 3c f3 6c 77 3c 1b bc a4 3c
       0.018811317 0.018461907 0.015101659 0.020109227
0002d0 4c c9 32 3d b9 98 17 3c 4b fe 14 bc a2 b7 83 3c
       0.043649003 0.0092527205 -0.009093831 0.016078774
0002e0 90 7b e9 3c 19 73 99 3c a9 fe 4d bc fc 08 07 bd
       0.028501302 0.01873164 -0.012572923 -0.032967553
0002f0 10 cd 32 39 ab a0 a9 bb 97 ad 50 bb 1f e5 21 3c
       0.00017051795 -0.005176624 -0.003184175 0.009881287
000300 64 74 a1 3b 6d 28 aa bc 1a 20 93 3c db c7 b0 3c
       0.004927205 -0.02077123 0.017959643 0.021579674
000310 84 45 13 bd d8 6c bd 3c 53 34 0b 3d df 27 f6 3b
       -0.035954967 0.02312319 0.033985447 0.007512077
000320 a8 e6 b6 3b de 29 02 bc 05 a6 ea bc 94 2a f8 3c
       0.0055816956 -0.007944552 -0.028643617 0.03029374
000330 fc de 4b 3c 09 24 0d bb f3 8a 18 3c a5 d9 30 3c
       0.0124433 -0.0021536371 0.009310472 0.010794078
000340 af 79 f8 bb 76 60 7c bc ca dd bf bc 2b 61 16 3d
       -0.007582865 -0.015403857 -0.023421187 0.03671376
000350 86 8f 59 bb 86 0b 6d bc dc bd 19 bc a4 ba de 3c
       -0.003319712 -0.014468079 -0.009383645 0.027188607
000360 40 b8 6a 3c d8 ec f8 bc 53 dc 09 bd 3e a0 28 3d
       0.014326155 -0.030386373 -0.033657383 0.041168444
000370 f0 d8 2f 3d 4a ac 0d bd 02 39 24 3c 0d a2 8a bc
       0.042931497 -0.034588136 0.010023357 -0.016922975
000380 78 d3 14 bd 8f a4 60 bc 04 6b f2 bc f6 4b 00 3d
       -0.036334485 -0.013711109 -0.029592045 0.031322442
000390 1d 09 13 3d df ca 03 bd 78 b1 b3 bc ec ce d1 3c
       0.035897363 -0.032175895 -0.02193521 0.025611363
0003a0 e9 1a 15 bd ba d4 ae 3b cd 76 bf 3c 4d 36 f6 bb
       -0.036402617 0.0053354176 0.023372078 -0.0075137974
0003b0 a8 c1 36 bc 05 0e ab 3c 26 d5 ca bb 76 0d c2 bc
       -0.01115457 0.020880708 -0.00618996 -0.02368806
0003c0 50 32 c8 bb c9 e9 c0 bc 0b ae 32 3c 62 d3 29 ba
       -0.0061095133 -0.023548977 0.010905753 -0.0006478337
0003d0 57 f7 3f 3d 36 d4 da 3c ac 12 ff bb 78 dc 0c bd
       0.04686674 0.026712518 -0.0077842083 -0.034389943
0003e0 44 f4 33 3d 7e 13 ab 3b 49 e2 a5 3c 35 c9 ce bc
       0.04393412 0.0052208295 0.020249503 -0.025242427
0003f0 04 e6 1c bd 92 5e cb 3b f5 35 f9 bc 10 6c 29 bd
       -0.038305297 0.006206342 -0.030421237 -0.041362822

model.8.bias f4 [128]
000000 ce 08 ab 3c 37 9e aa bc 8d 5c 2f bd af f5 06 3c
       0.020878222 -0.020827396 -0.042812873 0.0082372865
000010 45 ff 22 3d 39 93 c5 bc 63 28 de 3c 72 ec 97 3c
       0.039794225 -0.024118053 0.027118867 0.018545363
000020 e5 2a 09 bd 46 45 2a bc 8e 01 c4 3c fb 24 e7 3b
       -0.033488173 -0.010392493 0.023926523 0.007053969
000030 46 95 29 bd 83 e7 4a bc 14 d6 bd bc 47 3a f6 bc
       -0.041402124 -0.012384298 -0.02317337 -0.030057086
000040 48 0b fe 3c 46 64 cf bc bb 34 21 3d c8 c9 b4 3c
       0.031011239 -0.025316369 0.03935693 0.022068873
000050 7d 47 cd 3b 7c db 1a 3d 29 53 1d bd 99 47 62 bc
       0.0062646256 0.037806973 -0.038409386 -0.0138110155
000060 9d a6 04 3c fe b3 2e 3c 51 b9 90 3a be a4 6c bc
       0.008096364 0.010663031 0.0011041557 -0.0144435745
000070 3c 28 ec 3c b0 25 86 bc d8 20 e6 3c 6c 8b a4 bb
       0.028827779 -0.016375393 0.028091833 -0.005021503
000080 ad 77 66 bc 1b 3f ea 3c 09 27 a5 bb 4a 50 48 3c
       -0.014066619 0.028594544 -0.0050400537 0.012226174
000090 05 8a cc bc 60 cf 19 bd 2a 44 5f bc 68 88 96 bc
       -0.024968157 -0.037551284 -0.013627091 -0.01837559
0000a0 64 72 66 bc a1 83 04 bd 8b 0e cd 3c c0 2c 58 3b
       -0.014065359 -0.032352094 0.025031349 0.0032985657
0000b0 d1 4b 73 3c df 4e 67 bc f1 1a 32 3d 1d 0f f8 bc
       0.014849619 -0.014117925 0.043482725 -0.030280644
0000c0 a7 57 b2 bb 04 b0 fe 3c 8e ae 11 bc d0 82 42 bd
       -0.005442578 0.03108979 -0.008891715 -0.047488034
0000d0 3a 17 55 bc fa e7 07 bd 10 da d6 3b 91 75 bf bc
       -0.013006026 -0.033180214 0.006556757 -0.02337149
0000e0 8d 57 3f bd 34 ce 2e 3c 8a 3c 41 3d 92 b1 25 bc
       -0.046714354 0.01066928 0.047176875 -0.010113137
0000f0 9e a7 8e 3c 03 8f e9 3b 56 14 cd bb b0 10 69 3b
       0.01741391 0.007127644 -0.0062585277 0.0035562925
000100 4c 97 be bc b8 d0 a6 bc 57 42 06 3c 4b 8c dd 3c
       -0.023265503 -0.020363197 0.008194528 0.027044436
000110 17 4f eb 3b 8b 32 c6 bc 8e cc d7 3b 75 91 1a 3d
       0.007181059 -0.024194023 0.006585664 0.037736375
000120 dd 75 19 bd 2d 6d 87 3c 82 c3 04 3b a6 02 05 3c
       -0.03746592 0.016531551 0.0020258133 0.008118307
000130 a0 bb c9 3c 39 97 a1 3c 52 57 b1 3c 4b 27 f7 3c
       0.0246256 0.019725429 0.021648083 0.030170104
000140 b6 6e 85 3c 3a 26 ca 3c e0 ff ab bb d3 ff 7a bc
       0.016288143 0.024676431 -0.0052490085 -0.015319782
000150 e1 81 03 bd 7e 69 fd bc 94 8d 8f 3c ce dc 14 bd
       -0.032106284 -0.030934092 0.017523564 -0.03634339
000160 ac 94 f9 3b 4c 9a 7b 3c 92 d1 2a 3d b3 7f 9d 3a
       0.0076166 0.015356611 0.041703768 0.0012016207
000170 12 e7 08 3b e3 10 aa 3c 9e c1 4c 3c 91 f2 72 bc
       0.0020889682 0.020760005 0.012497334 -0.01482834
000180 11 cf 02 3d f6 25 36 3d da ac 6e 3c 93 e4 f4 3c
       0.031935755 0.044469796 0.014567578 0.029894149
000190 0a 57 f1 3c b1 f8 a1 bb da a2 d6 b8 2e fa 2a bc
       0.029460449 -0.0049429764 -0.00010234649 -0.010435624
0001a0 10 59 0c 3b 48 48 c3 bb 3b 56 93 3c d7 4a 68 3c
       0.002141539 -0.0059595443 0.017985454 0.014177999
0001b0 ca 0f c1 bc 5e 15 ad bb 25 ea 8b bc 59 2a 28 3d
       -0.0235671 -0.005282088 -0.017079422 0.04105601
0001c0 6a 03 0d 3d 1c e4 14 bb 65 b9 55 3d 66 2e 5b bc
       0.034427084 -0.0022718972 0.05217876 -0.0133777615
0001d0 ab 4b ea 3b 9d 63 d3 3c f8 ec 95 bc 23 8d 99 3c
       0.0071501336 0.025804335 -0.018301472 0.018744057
0001e0 39 7d a2 3b b0 25 e7 3c 72 bc 95 3c 64 ce 2d bc
       0.0049587754 0.028216213 0.018278334 -0.010608289
0001f0 42 09 11 bc 19 b9 a4 3c 02 85 e4 3c 53 81 16 3d
       -0.008852305 0.020107793 0.027895454 0.036744427

model.10.weight f4 [128]
000000 95 59 81 3f 19 ae 81 3f e5 76 82 3f 71 1b 82 3f
       1.0105463 1.0131255 1.0192534 1.0164624
000010 e5 e0 81 3f 4b 30 82 3f be ea 81 3f d6 28 82 3f
       1.0146757 1.0170988 1.0149763 1.0168712
000020 d6 14 82 3f 7e c8 81 3f 27 e6 81 3f 17 f3 81 3f
       1.0162609 1.013931 1.0148362 1.015231
000030 4c e9 81 3f 4c e1 81 3f 67 4f 81 3f 7f f5 81 3f
       1.0149322 1.014688 1.0102357 1.0153044
000040 48 23 82 3f 01 9a 81 3f c7 f8 81 3f e8 14 82 3f
       1.0167017 1.0125123 1.0154046 1.016263
000050 69 20 82 3f f0 52 81 3f f4 da 81 3f ce 80 82 3f
       1.0166141 1.0103436 1.0144944 1.0195558
000060 53 9a 81 3f 61 29 81 3f f9 09 82 3f 77 f3 81 3f
       1.0125221 1.0090753 1.0159293 1.0152425
000070 81 5a 81 3f af 22 81 3f fd 98 81 3f cd 02 82 3f
       1.0105745 1.008871 1.0124813 1.0157105
000080 69 fa 81 3f 9c 20 82 3f 14 de 81 3f 1d d8 81 3f
       1.0154544 1.0166202 1.0145898 1.0144078
000090 03 d7 81 3f de 18 82 3f 38 51 82 3f a7 88 82 3f
       1.0143741 1.0163839 1.0181036 1.0197953
0000a0 8e c9 80 3f fc 6c 81 3f 67 b2 81 3f 33 77 82 3f
       1.006151 1.0111384 1.0132569 1.0192627
0000b0 d6 61 81 3f 26 f1 81 3f 06 ea 81 3f 40 ba 81 3f
       1.0107982 1.0151718 1.0149543 1.0134964
0000c0 26 e5 81 3f b1 90 81 3f 92 3d 82 3f a3 a4 81 3f
       1.0148056 1.0122281 1.017504 1.0128368
0000d0 b9 d8 81 3f 95 3b 82 3f 80 92 81 3f d6 3c 82 3f
       1.0144264 1.0174433 1.0122833 1.0174816
0000e0 fc fd 81 3f 39 e6 81 3f 44 b5 81 3f 63 09 82 3f
       1.0155635 1.0148383 1.0133443 1.0159115
0000f0 8a 7f 81 3f 78 6f 81 3f 09 21 82 3f 63 aa 81 3f
       1.0117047 1.0112143 1.0166332 1.0130123
000100 bd c4 81 3f a9 34 82 3f e1 32 82 3f fc 62 82 3f
       1.0138165 1.0172321 1.0171777 1.0186458
000110 93 2d 81 3f 7c 6a 82 3f 3e 98 81 3f f1 f8 81 3f
       1.0092033 1.0188746 1.0124586 1.0154096
000120 9f 28 82 3f 6d 2d 82 3f c3 d5 81 3f 0d f7 80 3f
       1.0168647 1.0170113 1.014336 1.0075394
000130 53 be 81 3f 7b b8 81 3f 40 69 81 3f 1c 47 82 3f
       1.0136207 1.0134424 1.0110245 1.0177951
000140 09 c3 81 3f 2d 7d 82 3f 6f 20 82 3f e6 00 82 3f
       1.0137645 1.0194451 1.0166148 1.0156524
000150 42 2a 82 3f 0a c5 81 3f 86 ca 81 3f 8a 3a 82 3f
       1.0169146 1.0138257 1.013993 1.0174115
000160 05 b9 81 3f 74 6b 82 3f 88 2a 81 3f 11 b4 81 3f
       1.0134588 1.0189042 1.0091105 1.0133077
000170 55 f0 81 3f 89 28 82 3f 39 e8 81 3f a5 c6 81 3f
       1.0151469 1.016862 1.0148994 1.0138747
000180 b3 65 81 3f ad c1 81 3f 68 f3 81 3f 3d 8b 81 3f
       1.0109161 1.013723 1.0152407 1.0120617
000190 49 db 81 3f b1 87 82 3f da d3 81 3f c8 ef 81 3f
       1.0145046 1.019766 1.0142777 1.01513
0001a0 db 0d 82 3f 45 27 82 3f ad b8 81 3f 54 81 81 3f
       1.0160478 1.0168234 1.0134484 1.0117593
0001b0 9a 0a 81 3f 22 c8 81 3f 2f 77 81 3f 43 6d 81 3f
       1.008136 1.0139201 1.0114497 1.0111469
0001c0 0c f9 81 3f fa be 81 3f ac 13 81 3f 20 e6 81 3f
       1.0154128 1.0136406 1.0084128 1.0148354
0001d0 41 0b 82 3f 1f 61 82 3f de 24 82 3f 2a 83 82 3f
       1.0159684 1.0185889 1.0167501 1.0196278
0001e0 e4 d7 81 3f 61 64 81 3f 2f dc 81 3f 24 4c 82 3f
       1.014401 1.0108758 1.014532 1.0179486
0001f0 87 95 81 3f 22 bd 81 3f fe c1 81 3f 37 2e 82 3f
       1.0123757 1.0135844 1.0137327 1.0170354

model.10.bias f4 [128]
000000 00 00 00 00 00 00 00 00 00 00 00 00 00 00 00 00
       0.0 0.0 0.0 0.0
000010 00 00 00 00 00 00 00 00 00 00 00 00 00 00 00 00
       0.0 0.0 0.0 0.0
000020 00 00 00 00 00 00 00 00 00 00 00 00 00 00 00 00
       0.0 0.0 0.0 0.0
000030 00 00 00 00 00 00 00 00 00 00 00 00 00 00 00 00
       0.0 0.0 0.0 0.0
000040 00 00 00 00 00 00 00 00 00 00 00 00 00 00 00 00
       0.0 0.0 0.0 0.0
000050 00 00 00 00 00 00 00 00 00 00 00 00 00 00 00 00
       0.0 0.0 0.0 0.0
000060 00 00 00 00 00 00 00 00 00 00 00 00 00 00 00 00
       0.0 0.0 0.0 0.0
000070 00 00 00 00 00 00 00 00 00 00 00 00 00 00 00 00
       0.0 0.0 0.0 0.0
000080 00 00 00 00 00 00 00 00 00 00 00 00 00 00 00 00
       0.0 0.0 0.0 0.0
000090 00 00 00 00 00 00 00 00 00 00 00 00 00 00 00 00
       0.0 0.0 0.0 0.0
0000a0 00 00 00 00 00 00 00 00 00 00 00 00 00 00 00 00
       0.0 0.0 0.0 0.0
0000b0 00 00 00 00 00 00 00 00 00 00 00 00 00 00 00 00
       0.0 0.0 0.0 0.0
0000c0 00 00 00 00 00 00 00 00 00 00 00 00 00 00 00 00
       0.0 0.0 0.0 0.0
0000d0 00 00 00 00 00 00 00 00 00 00 00 00 00 00 00 00
       0.0 0.0 0.0 0.0
0000e0 00 00 00 00 00 00 00 00 00 00 00 00 00 00 00 00
       0.0 0.0 0.0 0.0
0000f0 00 00 00 00 00 00 00 00 00 00 00 00 00 00 00 00
       0.0 0.0 0.0 0.0
000100 00 00 00 00 00 00 00 00 00 00 00 00 00 00 00 00
       0.0 0.0 0.0 0.0
000110 00 00 00 00 00 00 00 00 00 00 00 00 00 00 00 00
       0.0 0.0 0.0 0.0
000120 00 00 00 00 00 00 00 00 00 00 00 00 00 00 00 00
       0.0 0.0 0.0 0.0
000130 00 00 00 00 00 00 00 00 00 00 00 00 00 00 00 00
       0.0 0.0 0.0 0.0
000140 00 00 00 00 00 00 00 00 00 00 00 00 00 00 00 00
       0.0 0.0 0.0 0.0
000150 00 00 00 00 00 00 00 00 00 00 00 00 00 00 00 00
       0.0 0.0 0.0 0.0
000160 00 00 00 00 00 00 00 00 00 00 00 00 00 00 00 00
       0.0 0.0 0.0 0.0
000170 00 00 00 00 00 00 00 00 00 00 00 00 00 00 00 00
       0.0 0.0 0.0 0.0
000180 00 00 00 00 00 00 00 00 00 00 00 00 00 00 00 00
       0.0 0.0 0.0 0.0
000190 00 00 00 00 00 00 00 00 00 00 00 00 00 00 00 00
       0.0 0.0 0.0 0.0
0001a0 00 00 00 00 00 00 00 00 00 00 00 00 00 00 00 00
       0.0 0.0 0.0 0.0
0001b0 00 00 00 00 00 00 00 00 00 00 00 00 00 00 00 00
       0.0 0.0 0.0 0.0
0001c0 00 00 00 00 00 00 00 00 00 00 00 00 00 00 00 00
       0.0 0.0 0.0 0.0
0001d0 00 00 00 00 00 00 00 00 00 00 00 00 00 00 00 00
       0.0 0.0 0.0 0.0
0001e0 00 00 00 00 00 00 00 00 00 00 00 00 00 00 00 00
       0.0 0.0 0.0 0.0
0001f0 00 00 00 00 00 00 00 00 00 00 00 00 00 00 00 00
       0.0 0.0 0.0 0.0
