Lab4/models/gan_models/wgan_dis.pth (torch, 402522 bytes, 21 tensors)

model.0.weight f4 [16, 3, 3, 3]
-0.00043631124 0.010856715 0.023162743 0.00042000183 -0.032561358 -0.010982239 -0.0067199804 -0.025994094
0.032463733 -0.027184093 -0.009869683 0.039711766 -0.040286753 -0.013892195 0.0122630205 -0.012924762
-0.032654963 -0.004062875 0.11034861 0.10365135 0.006102354 0.0977965 0.03901643 0.04324989
0.03605763 0.08054584 0.055626877 -0.0062749847 0.051480584 -0.11354467 0.029174905 0.03394957
0.02827383 -0.00083963474 -0.14457078 0.02094017 -0.038300604 0.05403058 -0.13351749 -0.014528233
0.04170198 0.06776012 -0.02626611 -0.08570591 0.0647013 -0.018479023 0.040204473 -0.0835185
0.030983659 0.029616663 0.03179395 -0.0027076476 -0.056945298 0.04498168 0.01943164 -0.018341001
-0.0779269 -0.052065633 0.020805802 -0.016098412 -0.029747669 -0.006972228 0.016874114 0.037192594
-0.027073808 -0.028287953 0.029399997 0.049403727 -0.01923908 -0.008892322 0.035740748 0.010552457
0.025358217 0.037218235 0.014580126 -0.020697095 0.010672532 -0.022862166 -0.03006315 0.0144506395
-0.0039567268 0.055497542 0.09467457 0.06566082 0.09290649 0.10177111 0.071260646 0.023183921
0.04241705 0.08305436 -0.08946252 -0.049487796 -0.054821875 -0.046852425 -0.09169196 -0.057178557
-0.076675944 -0.08169351 -0.06637993 0.043450978 0.030252136 0.0483812 0.019110454 -0.0029567725
0.011351377 0.019838952 -0.008333114 -0.019269489 -0.06534175 -0.020299342 -0.014653047 -0.049714494
-0.035809837 0.008694001 -0.066230886 -0.039678164 -0.013404767 0.098768085 0.03751552 0.053056914
0.08632973 0.028807595 0.03813419 0.067979135 0.050424922 -0.0034203155 -0.011012474 -0.028614895
0.03989786 -0.018801887 -0.005785897 0.014879341 -0.093661204 -0.045042723 -0.03177281 -0.034423582
-0.02231335 -0.033145476 -0.0020832908 0.0004896984 -0.027271103 0.018461786 0.04804307 0.022935007
-0.0017402016 -0.028369458 -0.026569642 6.067365e-05 0.016835894 -0.028350383 0.015815597 0.037393842
0.021495637 -0.06630754 -0.004178997 -0.01424426 0.0019662627 0.046605416 -0.01245399 0.039619334
0.040974904 0.04076172 -0.043506622 0.03731303 0.020497218 -0.029825054 -0.019339433 -0.009098238
-0.06302149 -0.07408317 -0.04418912 0.06848379 0.05915273 0.03233534 0.060996465 0.051919423
0.041593872 0.015435628 -0.03082039 0.024268018 -0.030302443 0.0025480639 -0.0011289333 -0.02010525
-0.007871681 -0.015205532 -0.04288631 -0.026039671 -0.05375799 -0.014205694 -0.059295997 -0.0688828
-0.038785085 -0.07466257 -0.060810942 0.01133298 -0.03309044 -0.02552744 0.0960332 0.013343845
-0.006679075 0.058735423 0.12502238 0.058329467 0.07907177 0.07350298 0.0669227 -0.044134364
-0.052366946 0.0195574 -0.016836606 0.0019430589 -0.03516742 0.0016522912 0.016216438 -0.04438262
0.009917144 -0.024124693 -0.01060698 -0.0015387366 -0.0052515385 -0.020665593 0.07918741 0.047818877
0.016524522 -0.051084705 -0.023519553 -0.005575865 -0.07220337 -0.08934484 -0.05767352 -0.021347262
-0.03688488 0.00896923 0.027699575 0.031135937 0.05143705 0.003827021 -0.0060613877 -0.01686578
0.08111579 0.05741099 0.030725693 -0.033922683 0.033779565 0.03461543 0.0038738651 0.08890311
0.08203949 -0.031382885 -0.027392736 -0.079477176 -0.024647238 -0.004886275 -0.0030290992 -0.038870465
00000000: b4c0 e4b9 5de0 313c cbbf bd3c b133 dc39
00000010: 0f5f 05bd d9ee 33bc 4833 dcbb 91f1 d4bc
00000020: b1f8 043d 2db1 debc 73b4 21bc cea8 223d
00000030: b903 25bd 179c 63bc d6ea 483c 62c2 53bc
00000040: 36c1 05bd de21 85bb 74fe e13d 2947 d43d
00000050: 41f6 c73b 8849 c83d b1cf 1f3d cc26 313d
00000060: 2ab1 133d 38f5 a43d 02d9 633d 639e cdbb
00000070: 4edd 523d 1c8a e8bd 3600 ef3c b40e 0b3d
00000080: 859e e73c ef1a 5cba 5d0a 14be b88a ab3c
00000090: 18e1 1cbd 2b4f 5d3d cfb8 08be d307 6ebc
000000a0: b2cf 2a3d d1c5 8a3d 062c d7bc 9586 afbd
000000b0: 1d82 843d 5261 97bc 72ad 243d bf0b abbd
000000c0: 71d1 fd3c a59e f23c 5f3a 023d ca72 31bb
000000d0: 793f 69bd b63e 383d 1a2f 9f3c de3f 96bc
000000e0: 2398 9fbd c642 55bd ee70 aa3c d1e0 83bc
000000f0: 62b1 f3bc 4a77 e4bb 953b 8a3c 4357 183d
00000100: e4c9 ddbc 23bc e7bc 43d8 f03c 905b 4a3d
00000110: 469b 9dbc 1ab1 11bc e464 123d 36e4 2c3c
00000120: 09bc cf3c 2672 183d 7be1 6e3c f48c a9bc
00000130: d8db 2e3c 7049 bbbc ff46 f6bc 60c2 6c3c
00000140: 6ea7 81bb 6451 633d bee4 c13d 2e79 863d
00000150: c245 be3d 5f6d d03d 1af1 913d 35ec bd3c
00000160: 80bd 2d3d 6718 aa3d 2038 b7bd b7b3 4abd
00000170: e78c 60bd 54e8 3fbd ffc8 bbbd 1034 6abd
00000180: 4708 9dbd ed4e a7bd 33f2 87bd a7f9 313d
00000190: 54d3 f73c 5d2b 463d 878d 9c3c 69c6 41bb
000001a0: 20fb 393c 4c85 a23c 9d87 08bc 0cdb 9dbc
000001b0: e5d1 85bd ce4a a6bc 5513 70bc 6da1 4bbd
000001c0: 56ad 12bd 4871 0e3c 0fa4 87bd 9285 22bd
000001d0: ab9f 5bbc ec46 ca3d e0a9 193d 3552 593d
000001e0: a4cd b03d e8fd eb3c 9932 1c3d a538 8b3d
000001f0: 5d8a 4e3d 5f27 60bb aa6d 34bc c969 eabc
00000200: f06b 233d 6a06 9abc 9f97 bdbb 7bc8 733c
00000210: 72d1 bfbd b87e 38bd 3524 02bd beff 0cbd
00000220: 7dca b6bc 8dc3 07bd d287 08bb 1a5f 003a
00000230: a667 dfbc 2c3d 973c cfc8 443d 32e2 bb3c
00000240: 7a17 e4ba 1167 e8bc 94a8 d9bc d67b 7e38
00000250: 6eeb 893c 103f e8bc b68f 813c 492a 193d
00000260: 9e17 b03c 3fcc 87bd f8ef 88bb c260 69bc
00000270: 6adc 003b 52e5 3e3d d20b 4cbc e247 223d
00000280: 4dd5 273d c3f5 263d 0034 32bd 8cd5 183d
00000290: c8e9 a73c ac53 f4bc bb6d 9ebc c710 15bc
000002a0: 6911 81bd ebb8 97bd a7ff 34bd 3b41 8c3d
000002b0: 224a 723d 1072 043d 6ed7 793d 76a9 543d
000002c0: 565e 2a3d b7e5 7c3c 0b7b fcbc b9cd c63c
000002d0: d43c f8bc 6bfd 263b b7f8 93ba c4b3 a4bc
000002e0: 39f8 00bc a020 79bc 8ea9 2fbd 2651 d5bc
000002f0: 5731 5cbd 00bf 68bc 5ce0 72bd 6d12 8dbd
00000300: 1cdd 1ebd b1e8 98bd e514 79bd f7ad 393c
00000310: d789 07bd ec1e d1bc 0ead c43d 24a0 5a3c
00000320: 24dc dabb 8e94 703d de05 003e e1ea 6e3d
00000330: 61f0 a13d bb88 963d c50e 893d 3cc6 34bd
00000340: b97e 56bd d736 a03c ecec 89bc 3dae fe3a
00000350: b60b 10bd b191 d83a 56d8 843c 8dca 35bd
00000360: 847b 223c 26a1 c5bc e6c8 2dbc 6faf c9ba
00000370: 1915 acbb e44a a9bc 022d a23d badd 433d
00000380: 6f5e 873c 323e 51bd 14ac c0bc bfb5 b6bb
00000390: 5cdf 93bd 6dfa b6bd 123b 6cbd 74e0 aebc
000003a0: 9a14 17bd adf3 123c 38ea e23c cb10 ff3c
000003b0: a8af 523d c2ce 7a3b 9b9e c6bb 1b2a 8abc
000003c0: 0920 a63d c927 6b3d 73b4 fb3c 83f2 0abd
000003d0: 715c 0a3d e9c8 0d3d ace0 7d3b d512 b63d
000003e0: 5204 a83d 578b 00bd bb66 e0bc eec4 a2bd
000003f0: 01e9 c9bc 0c1d a0bb da83 46bb a336 1fbd

model.0.bias f4 [16]
-0.027336428 -0.092762716 0.10250939 -0.16942462 -0.12658446 -0.23398773 -0.14832155 -0.14971083
-0.014745962 -0.10705216 -0.059239127 -0.10244494 -0.01545882 -0.06756274 -0.11884027 -0.039640903
00000000: a5f0 dfbc 61fa bdbd 71f0 d13d a67d 2dbe
00000010: 5b9f 01be 7b9a 6fbe 9be1 17be cc4d 19be
00000020: 0c99 71bc 2a3e dbbd baa4 72bd a7ce d1bd
00000030: fe46 7dbc 555e 8abd 8762 f3bd 805e 22bd

model.2.weight f4 [32, 16, 3, 3]
0.06884534 0.044641025 -0.008058872 0.018176438 0.016093878 -0.011112851 0.035140775 0.0040170695
-0.055025924 0.042277087 0.066588126 -0.035759892 0.028114716 0.03492962 -0.009997756 0.013340519
-0.02709674 -0.07899496 0.017624805 -0.0063040876 0.02560741 0.006020925 0.009126126 0.045777943
0.011274533 0.0548804 0.0065427963 0.08479629 0.051875446 0.0713129 0.060750607 0.07877002
0.009167931 0.024734395 0.025739284 -0.02985285 -0.08842773 -0.08301983 -0.013570428 -0.053515486
-0.08388399 -0.028161518 -0.019200513 -0.0068013016 0.031844374 0.09761562 0.0033794811 -0.048551995
0.0625028 0.037652172 0.012903479 0.02536119 0.02725644 -0.015208293 -0.08885974 -0.10656437
-0.014857881 -0.06128832 -0.04503972 0.044711854 -0.0028917745 0.042056933 0.045545124 -0.08935732
-0.05730339 0.0016179055 -0.054616388 -0.086001575 0.0455145 -0.013076419 0.026458768 0.10146977
0.1025676 0.13195948 -0.018317617 0.04011699 0.055505756 -0.039485913 0.033404 -0.05220189
-0.070616834 0.020841055 0.034366142 -0.0019658601 0.09724849 0.0702223 0.0164789 0.05310431
0.0233136 -0.052632447 -0.01341873 0.011009431 -0.00449665 0.015470882 -0.044526093 -0.021498118
-0.021514036 -0.00397529 -0.06843807 -0.019529298 -0.03749814 0.019531237 0.03767244 0.0031164854
0.020619698 -0.018992363 -0.03125022 -0.0012998935 0.04070186 0.06879505 -0.035563245 0.08643861
-0.013424199 -0.056772277 -0.01883384 -0.09309073 -0.06136607 0.03951652 -0.045744117 -0.014330461
0.06858029 0.009451901 -0.05495729 -0.032500952 -0.012055902 -0.050292064 -0.06900435 -0.024601907
0.039632387 0.021872185 -0.0513603 0.012713339 -0.041821793 -0.0042750966 0.04411257 -0.026163232
-0.0013187923 -0.039571572 0.03188624 -0.0036964947 -0.022488497 0.016564839 0.03568563 0.05702691
0.031260446 0.023178803 0.015863998 -0.0032402456 0.034327053 0.08817326 0.018587688 0.07267451
0.12829077 -0.05232612 -0.057045143 0.0022055286 -0.07688558 -0.055628598 -0.02391178 -0.028564513
0.025176834 0.047069736 0.0062717414 0.05371197 0.08235282 -0.018826079 0.0011836787 0.022090137
-0.00020212517 -0.0052697845 0.021810405 -0.037684087 0.026913503 0.055670857 0.043268558 0.14449844
0.11386974 0.08753968 0.053718686 0.0519627 0.016386928 0.011407076 0.05060907 -0.017303566
-0.09029414 -0.044404533 -0.053196326 -0.07373169 -0.05751789 0.014929318 -0.023667207 0.010626701
0.053615674 0.0015631136 0.03628903 0.054108277 0.03302407 0.09051107 -0.059052 -0.06924291
-0.019027812 -0.019860182 -0.07661116 -0.04320973 -0.05948477 -0.08126128 -0.01378593 0.059451457
0.02665628 0.061724108 -0.027023533 -0.048026837 0.0028786045 -0.024012417 -0.07513048 -0.026724607
-0.07908967 -0.04284096 -0.0039576767 -0.022100314 -0.025009159 0.0072416468 0.0032829682 0.008874116
-0.014897831 -0.014430258 -0.08731941 0.059159208 0.025520734 0.035696644 0.049370814 0.0646459
0.08839781 0.09451862 -0.040034395 -0.021216685 -0.012292541 0.010303742 -0.008243234 -0.013360007
0.013459949 0.04366956 0.03423059 -0.021077087 -0.03199141 0.029917654 -0.067842275 -0.062084727
-0.027664637 0.017085422 -0.020073907 -0.029176077 -0.03935808 -0.04005082 -0.04170892 -0.039722428
00000000: c9fe 8c3d 82d9 363d 5c09 04bc c1e6 943c
00000010: 4fd7 833c ad12 36bc c6ef 0f3d 9fa1 833b
00000020: dd62 61bd bd2a 2d3d 5b5f 883d f778 12bd
00000030: d550 e63c 5c12 0f3d a1cd 23bc 3192 5a3c
00000040: fcf9 ddbc 1cc8 a1bd e561 903c 8592 cebb
00000050: a2c6 d13c 2e4b c53b bf85 153c a781 3b3d
00000060: d2b8 383c 45ca 603d f464 d63b ada9 ad3d
00000070: 597b 543d 7f0c 923d a1d5 783d 2d52 a13d
00000080: 1735 163c c99f ca3c 31db d23c f78d f4bc
00000090: 9919 b5bd 4d06 aabd 8056 5ebc 0e33 5bbd
000000a0: 5fcb abbd fcb2 e6bc 654a 9dbc 74dd debb
000000b0: 3f6f 023d b3ea c73d 497a 5d3b 75de 46bd
000000c0: 7801 803d 2a39 1a3d 1d69 533c 45c2 cf3c
000000d0: e648 df3c 342c 79bc 18fc b5bd 6c3e dabd
000000e0: 786e 73bc 7609 7bbd 927b 38bd c723 373d
000000f0: ed83 3dbb e443 2c3d 868d 3a3d f800 b7bd
00000100: f6b6 6abd e60f d43a 6fb5 5fbd 9821 b0bd
00000110: 6a6d 3a3d 7a3e 56bc 0fc0 d83c 62cf cf3d
00000120: f60e d23d 6320 073e d40e 96bc b751 243d
00000130: 015a 633d fbbb 21bd a2d2 083d a6d1 55bd
00000140: 8f9f 90bd dcba aa3c 83c3 0c3d a9d5 00bb
00000150: 372a c73d b6d0 8f3d c2fe 863c e883 593d
00000160: 2afc be3c 1f95 57bd 3cda 5bbc e760 343c
00000170: a258 93bb 9579 7d3c fe60 36bd d21c b0bc
00000180: 343e b0bc 2643 82bb 4229 8cbd e8fb 9fbc
00000190: a697 19bd f9ff 9f3c 6b4e 1a3d f33d 4c3b
000001a0: a4ea a83c df95 9bbc 3b00 00bd 3061 aaba
000001b0: feb6 263d 6be4 8c3d c4aa 11bd ba06 b13d
000001c0: 2cf1 5bbc 0c8a 68bd 6d49 9abc 5aa6 bebd
000001d0: fd5a 7bbd 13dc 213d 2f5e 3bbd 4fca 6abc
000001e0: d373 8c3d 25dc 1a3c e51a 61bd b81f 05bd
000001f0: 1e86 45bc 0dff 4dbd 2752 8dbd f089 c9bc
00000200: 9255 223d 4c2d b33c 2e5f 52bd 9c4b 503c
00000210: 544d 2bbd 1c16 8cbb 62af 343d 4654 d6bc
00000220: 54db acba cd15 22bd 259b 023d e440 72bb
00000230: cc39 b8bc fcb2 873c 182b 123d 0d95 693d
00000240: f40a 003d 79e1 bd3c 37f5 813c 4d5a 54bb
00000250: 869a 0c3d 2f94 b43d 3545 983c 60d6 943d
00000260: a85e 033e ea53 56bd 2ba8 69bd a18a 103b
00000270: 3076 9dbd d0da 63bd a3e2 c3bc 2000 eabc
00000280: a63f ce3c 32cc 403d 2e83 cd3b 1501 5c3d
00000290: 98a8 a83d 2639 9abc ab25 9b3a 60f6 b43c
000002a0: 90f1 53b9 28ae acbb bcab b23c a15a 1abd
000002b0: b579 dc3c 2007 643d 5f3a 313d 66f7 133e
000002c0: 8a34 e93d 0148 b33d 2008 5c3d d7d6 543d
000002d0: e13d 863c bfe4 3a3c 754b 4f3d 35c0 8dbc
000002e0: 22ec b8bd 87e1 35bd 64e4 59bd a400 97bd
000002f0: e197 6bbd 199a 743c bbe1 c1bc 9d1b 2e3c
00000300: 1c9c 5b3d 64e1 cc3a cea3 143d a4a0 5d3d
00000310: 3f44 073d de5d b93d 83e0 71bd 3acf 8dbd
00000320: 37e0 9bbc d2b1 a2bc 50e6 9cbd b0fc 30bd
00000330: 4da6 73bd 506c a6bd 62de 61bc 5f83 733d
00000340: 455e da3c 6bd2 7c3d 7560 ddbc cab7 44bd
00000350: f8a6 3c3b b0b5 c4bc 02de 99bd 90ed dabc
00000360: c4f9 a1bd 017a 2fbd 66af 81bb b80b b5bc
00000370: 02e0 ccbc 564b ed3b 1127 573b be64 113c
00000380: 0816 74bc e46c 6cbc 85d4 b2bd ed50 723d
00000390: dc10 d13c a536 123d 0d39 4a3d 1265 843d
000003a0: e909 b53d fa92 c13d 1bfb 23bd 9dce adbc
000003b0: a766 49bc 07d1 283c a10e 07bc eee3 5abc
000003c0: 1e87 5c3c dade 323d 6035 0c3d dba9 acbc
000003d0: 6d09 03bd de15 f53c e4f0 8abd 8e4c 7ebd
000003e0: f3a0 e2bc baf6 8b3c 0972 a4bc ab02 efbc
000003f0: f035 21bd 540c 24bd f9d6 2abd fcb3 22bd

model.2.bias f4 [32]
-0.08589602 -0.06371418 -0.08622618 -0.04115086 -0.066028036 -0.05981529 -0.1541299 -0.017650036
-0.07309002 -0.018458806 0.084108405 -0.07341423 0.044503845 -0.04580559 -0.02316949 -0.050813295
0.038529508 -0.08946671 0.14143002 0.09962511 -0.057664413 -0.08927597 -0.04013592 -0.08939181
-0.100785255 -0.0063519 0.12419619 -0.022546822 -0.021592798 0.11413134 -0.048020557 -0.085782856
00000000: 41ea afbd 947c 82bd 5a97 b0bd ce8d 28bd
00000010: b539 87bd e100 75bd 3ad4 1dbe cf96 90bc
00000020: 38b0 95bd ec36 97bc 0741 ac3d 335a 96bd
00000030: aa49 363d a49e 3bbd f1cd bdbc 9a21 50bd
00000040: 1ed1 1d3d 533a b7bd 08d3 103e 4008 cc3d
00000050: 8531 6cbd 52d6 b6bd 9065 24bd 0e13 b7bd
00000060: 8068 cebd 9923 d0bb 925a fe3d 1db4 b8bc
00000070: 61e3 b0bc b1bd e93d 34b1 44bd ecae afbd

model.4.weight f4 [32]
0.92658895 0.9854045 0.9024246 0.9672451 0.9366801 0.9527588 0.9631428 0.96950155
0.9945446 0.8886186 0.9791491 0.940866 0.9940662 0.98755395 0.99327785 0.9084192
1.0424638 0.8032554 0.9234073 0.8922628 0.94170886 0.9398562 0.95177114 0.96385676
1.007964 0.97144955 0.9483094 0.93971616 0.97817755 1.0067822 0.9563815 0.9865435
00000000: ef34 6d3f 7843 7c3f 4c05 673f 609d 773f
00000010: 44ca 6f3f 00e8 733f 8790 763f 4131 783f
00000020: 7a9a 7e3f 827c 633f 84a9 7a3f 98dc 703f
00000030: 1f7b 7e3f 56d0 7c3f 7547 7e3f 298e 683f
00000040: 746f 853f 25a2 4d3f 6c64 6c3f 566b 643f
00000050: d513 713f 6a9a 703f 46a7 733f 51bf 763f
00000060: f704 813f ebb0 783f 68c4 723f 3d91 703f
00000070: d869 7a3f 3dde 803f 6bd5 743f 1d8e 7c3f

model.4.bias f4 [32]
-0.19539757 -0.18963352 0.11560886 -0.17293906 -0.1609872 0.058867168 -0.124620765 -0.043292623
0.10867548 -0.07494547 0.013483111 -0.20393434 -0.17175071 -0.101643294 -0.24614397 -0.010986267
-0.125222 -0.27767515 0.024202473 -0.18386252 -0.04664049 -0.18192983 -0.12499596 -0.12216008
0.048233975 0.010454818 -0.21228372 -0.30309498 -0.23496042 0.15050441 -0.15147303 -0.15244964
00000000: 4d16 48be 4a2f 42be 57c4 ec3d f016 31be
00000010: d4d9 24be b31e 713d 2c39 ffbd 9b53 31bd
00000020: 4091 de3d 037d 99bd 44e8 5c3c 2ad4 50be
00000030: 6bdf 2fbe 5c2a d0bd 2a0d 7cbe beff 33bc
00000040: 323a 00be 702b 8ebe 4444 c63c 7546 3cbe
00000050: 190a 3fbd d04b 3abe e2fd ffbd 102f fabd
00000060: fd90 453d af4a 2b3c e760 59be 442f 9bbe
00000070: 7799 70be d41d 1a3e bf1b 1bbe c21b 1cbe

model.4.running_mean f4 [32]
-0.026107877 -0.021109514 -0.03019784 -0.023381589 -0.024459586 -0.028142054 -0.047997292 0.025461173
-0.026933037 -0.0059128483 0.12861107 -0.02334713 0.03480855 -0.021139072 -0.003145917 -0.022002246
0.06927024 -0.01706921 0.14579067 0.14493133 -0.028364277 -0.041192405 -0.011499832 -0.022149019
-0.04809041 -0.010480548 0.16629988 -0.011975106 0.0027217844 0.08892878 -0.004047048 -0.034731857
00000000: 30e0 d5bc dced acbc 7661 f7bc bf8a bfbc
00000010: 785f c8bc 2a8a e6bc cf98 44bd f393 d03c
00000020: aca2 dcbc 91c0 c1bb 9fb2 033e 7b42 bfbc
00000030: 6993 0e3d d92b adbc bb2b 4ebb 0e3e b4bc
00000040: 8edd 8d3d bad4 8bbc 264a 153e e168 143e
00000050: 335c e8bc 5eb9 28bd cb69 3cbc dc71 b5bc
00000060: 73fa 44bd 9bb6 2bbc 844a 2a3e 3c33 44bc
00000070: f75f 323b 4b20 b63d 199d 84bb fe42 0ebd

model.4.running_var f4 [32]
8.4800035e-05 0.0006816922 6.294962e-05 4.1392475e-05 6.2987325e-05 8.0580045e-05 0.0001538145 0.001557827
0.00019963701 0.0005487944 0.0018716434 0.00061036996 0.00080444315 2.843739e-05 0.0008078945 6.484404e-05
0.00020910581 0.00023306039 0.00064964197 0.0011528105 0.00026858214 4.340523e-05 0.00014664802 8.312614e-05
6.849587e-05 0.0020146724 0.00070722145 0.00050019997 0.00058647036 0.00042868458 0.00019003263 6.1329294e-05
00000000: acd6 b138 97b3 323a d203 8438 d59c 2d38
00000010: 1018 8438 15fd a838 4449 2139 0030 cc3a
00000020: a755 5139 f8dc 0f3a ee51 f53a 3c01 203a
00000030: 44e1 523a d48c ee37 e2c8 533a e1fc 8738
00000040: 6a43 5b39 ac61 7439 bc4c 2a3a e719 973a
00000050: 7cd0 8c39 030e 3638 87c5 1939 0254 ae38
00000060: 71a5 8f38 9808 043b d464 393a da1f 033a
00000070: 5cbd 193a 12c1 e039 7f43 4739 ea9d 8038

model.5.weight f4 [64, 32, 3, 3]
-0.002162854 0.008607782 0.03676796 0.031874303 -0.006816873 0.03697632 -0.08578412 -0.016191905
0.03385663 0.05056201 0.03376388 0.060953803 0.04850026 0.035433065 0.081803314 -0.06411181
-0.00017819107 0.027452156 0.002874026 -0.00255841 -0.020011162 -0.030693011 -0.03148233 -0.024140678
0.013427336 0.004896976 -0.021705247 -0.042969596 0.080101036 0.046824228 -0.023811646 0.053144604
0.04280999 -0.006655274 0.019188764 0.046824086 -0.009271835 0.026881779 0.094183944 0.05899983
0.04576889 0.058735505 0.01587413 0.018627295 0.03747931 0.042611074 0.038107615 0.0066049965
-0.029282654 0.10016894 -0.037715025 -0.005565278 0.0104181105 0.05156902 -0.0042919125 -0.028906412
0.04364929 -0.023240749 0.00562665 0.086317465 0.005358249 -0.071256 0.03256894 0.008252336
0.07944523 -0.03671911 0.026700035 0.0860232 0.015196086 -0.0075423745 0.03790213 -0.046595722
0.011760122 -0.042745 -0.10159334 -0.016045673 -0.04505295 -0.026719097 -0.010425146 0.04232606
-0.011894192 -0.032845657 -0.040799245 -0.02293453 -0.01920627 -0.057561804 -0.0046625147 0.039920963
0.024579884 -0.050491583 -0.030065926 0.03271557 0.010519168 -0.029807713 -0.037768614 0.00018110614
-0.0033118215 0.0025884781 -0.0068353866 0.04506712 0.0056704194 0.083714746 0.049977 -0.054692253
0.015528898 -0.0037992538 -0.036541034 0.03823774 -0.01534858 0.017663997 -0.040920623 -0.047184166
-0.029431965 0.056009155 0.043756664 0.009384139 -0.015745651 -0.032979507 -0.03007152 -0.098548606
0.10126021 0.027873082 -0.0128488345 0.0038491583 -0.0060673705 0.023854507 0.014734834 0.037116934
0.010508992 0.02510609 0.08537482 0.03476506 0.038494363 0.045649435 0.023211561 -0.02907521
0.08107939 0.059459645 -0.035273153 0.04958764 0.0496955 0.00012138817 0.007932142 -0.02465382
-0.051881332 -0.031369686 -0.016553646 -0.0015662102 0.07905179 -0.006458073 -0.03293099 0.030756768
-0.059803486 0.067759976 -0.0068789083 0.07100215 0.026548497 0.05268773 0.10394415 -0.026645979
0.008896187 -0.036716897 0.0032685436 -0.022852143 -0.032185115 -0.03697833 -0.049902663 0.084866405
0.102422364 0.0034007118 -0.026714504 0.046701342 0.012301512 -0.033272233 -0.015207393 0.032303013
-0.009772901 -0.03177571 -0.031832103 -0.008856569 0.033784106 -0.029694362 -0.010877776 -0.005284835
0.032912776 -0.018958574 0.05028857 0.0078027025 0.010669639 0.02014854 -0.004296647 0.078288205
0.019343408 0.037962016 0.052794337 0.027620662 -0.014075095 0.052714538 0.034628678 0.0074610068
0.08936755 -0.013486191 0.016892636 0.052105915 0.021201028 -0.003939386 0.04441732 0.00971284
-0.052904267 -0.0035229053 -0.027496822 -0.06751702 0.026276046 0.009048855 0.021020183 -0.045504212
0.0692965 0.053553816 -0.049009625 -0.07126391 -0.0035623203 -0.016916838 -0.010982859 -0.0045301253
0.021777216 -0.06811405 -0.06583188 -0.040937245 0.010392524 -0.07029114 -0.0656049 0.01535659
-0.08201583 -0.052635018 -0.08575885 -0.037235558 -0.022099268 -0.03632378 -0.04302519 0.0443491
0.013111782 0.025008569 -0.0046881554 -0.021238057 -0.032579705 0.016332457 0.025120199 -0.060982313
0.015301074 -0.036921985 -0.0221086 -0.037125297 0.09557438 0.06315382 0.12927257 -0.08244708
00000000: abbe 0dbb a807 0d3c 009a 163d a18e 023d
00000010: 1360 dfbb 7b74 173d 96af afbd e3a4 84bc
00000020: 40ad 0a3d 1c1a 4f3d ff4b 0a3d b2aa 793d
00000030: 35a8 463d 4322 113d 7f88 a73d 0d4d 83bd
00000040: cdd8 3ab9 58e3 e03c 285a 3c3b ffaa 27bb
00000050: 73ee a3bc e96f fbbc 9ef3 00bd acc2 c5bc
00000060: 54fe 5b3c d076 a03b 34cf b1bc e300 30bd
00000070: 030c a43d c3ca 3f3d a410 c3bc 28ae 593d
00000080: 8759 2f3d 7c14 dabb c131 9d3c 9dca 3f3d
00000090: e5e8 17bc 2d37 dc3c 83e3 c03d cea9 713d
000000a0: 2978 3b3d a494 703d 770a 823c 4598 983c
000000b0: e883 193d f388 2e3d bb16 1c3d ba6e d83b
000000c0: 2de2 efbc 6025 cd3d 127b 1abd f05c b6bb
000000d0: b9b0 2a3c 093a 533d 2ca3 8cbb 24cd ecbc
000000e0: 99c9 323d 6263 bebc c35f b83b 36c7 b03d
000000f0: 4094 af3b aaee 91bd 0267 053d ce34 073c
00000100: 2eb4 a23d c766 16bd 08ba da3c ee2c b03d
00000110: 01f9 783c 0626 f7bb 443f 1b3d 28db 3ebd
00000120: 87ad 403c 6215 2fbd 2b10 d0bd 3772 83bc
00000130: 7189 38bd 02e2 dabc 3bce 2abc 175e 2d3d
00000140: dbdf 42bc 2b89 06bd 1c1d 27bd 32e1 bbbc
00000150: 7856 9dbc edc5 6bbd 02c8 98bb 2a84 233d
00000160: c15b c93c 43d0 4ebd d14c f6bc c300 063d
00000170: 9758 2c3c 4e2f f4bc 43b3 1abd 4fe7 3d39
00000180: 250b 59bb 75a3 293b 61fb dfbb 4d98 383d
00000190: edce b93b a372 ab3d afb4 4c3d fc04 60bd
000001a0: eb6c 7e3c e7fc 78bb 0dac 15bd 2d9f 1c3d
000001b0: 9c78 7bbc 16b4 903c 629c 27bd 2f44 41bd
000001c0: 4e1b f1bc db69 653d 303a 333d efbf 193c
000001d0: 06fd 80bc 8515 07bd 8c58 f6bc dad3 c9bd
000001e0: 8361 cf3d 1756 e43c eb83 52bc 2942 7c3b
000001f0: cbd0 c6bb 876a c33c 606a 713c ed07 183d
00000200: e82d 2c3c 49ab cd3c fed8 ae3d cf65 0e3d
00000210: 44ac 1d3d e7fa 3a3d 2c26 be3c 232f eebc
00000220: f40c a63d f58b 733d 957a 10bd 691c 4b3d
00000230: 828d 4b3d c791 fe38 d1f5 013c cff6 c9bc
00000240: 8581 54bd 807d 00bd 839b 87bc 4b49 cdba
00000250: e8e5 a13d 3e9e d3bb a5e2 06bd 9ef5 fb3c
00000260: 80f4 74bd bec5 8a3d 7768 e1bb 9369 913d
00000270: 3c7c d93c 17cf 573d ace0 d43d ab48 dabc
00000280: 50c1 113c 7564 16bd 1035 563b 6b34 bbbc
00000290: 8ad4 03bd 9776 17bd bc66 4cbd 70ce ad3d
000002a0: d1c2 d13d 7ade 5e3b 60d8 dabc e849 3f3d
000002b0: 488c 493c 7748 08bd 6e28 79bc 2a50 043d
000002c0: 851e 20bc 3f27 02bd 6162 02bd 251b 11bc
000002d0: 3461 0a3d 9741 f3bc b338 32bc 692c adbb
000002e0: 8ccf 063d 034f 9bbc 63fb 4d3d d0ad ff3b
000002f0: b6cf 2e3c 8d0e a53c e3ca 8cbb 9155 a03d
00000300: 1176 9e3c 0f7e 1b3d e03e 583d ba44 e23c
00000310: 3a9b 66bc 33eb 573d cdd6 0d3d 767b f43b
00000320: 5606 b73d 2ff5 5cbc 6d62 8a3c 036d 553d
00000330: c7ad ad3c f715 81bb f0ee 353d 9b22 1f3c
00000340: 25b2 58bd 8be0 66bb 0441 e1bc 5d46 8abd
00000350: dd40 d73c a641 143c 8532 ac3c a062 3abd
00000360: 53eb 8d3d 3f5b 5b3d 51be 48bd d0f2 91bd
00000370: d175 69bb 2e95 8abc 73f1 33bc 7271 94bb
00000380: 2266 b23c 617f 8bbd ddd2 86bd d0ad 27bd
00000390: 6845 2a3c cdf4 8fbd dd5b 86bd 359a 7b3c
000003a0: eaf7 a7bd d197 57bd 56a2 afbd 5084 18bd
000003b0: 8609 b5bc 3ec8 14bd 2e3b 30bd 67a7 353d
000003c0: cdd2 563c c5de cc3c 199f 99bb 6ffb adbc
000003d0: 4c72 05bd a5cb 853c e0c8 cd3c 97c8 79bd
000003e0: 5bb1 7a3c 823b 17bd 181d b5bc b210 18bd
000003f0: 80bc c33d ca56 813d 0760 043e 04da a8bd

model.5.bias f4 [64]
-0.048076663 -0.16893482 -0.14347419 -0.13806546 -0.25229323 -0.097050376 -0.28387794 -0.29172382
-0.37514597 -0.12578551 -0.1689806 -0.0050792815 -0.12042344 -0.11314483 -0.095706195 -0.15159042
-0.14512406 -0.2586545 -0.021430196 -0.25873777 -0.033653762 0.07076534 -0.3746155 -0.11423047
-0.12228429 -0.13483888 -0.33866578 -0.30119944 -0.27086103 -0.14714758 -0.16391094 -0.2315489
-0.17720549 -0.18797834 -0.1770798 0.015805975 -0.19469042 -0.23773918 -0.22415456 0.0016583506
-0.28762272 -0.07784821 -0.24595675 -0.23297088 0.0019131645 -0.2277695 -0.31631497 -0.15133289
-0.16266839 -0.24465469 -0.10026521 -0.23176968 -0.16668354 -0.121876135 -0.2336064 -0.14664632
-0.25845858 -0.1705264 -0.10230763 -0.007477686 -0.25206792 -0.019534878 -0.1087868 0.041002348
00000000: 09ec 44bd 40fd 2cbe e6ea 12be 0861 0dbe
00000010: 942c 81be 59c2 c6bd 7358 91be d35c 95be
00000020: 2213 c0be ebcd 00be 4009 2dbe 1a70 a6bb
00000030: 91a0 f6bd 7ab8 e7bd 9c01 c4bd 853a 1bbe
00000040: 679b 14be 5d6e 84be 618e afbc 4779 84be
00000050: 87d8 09bd 6bed 903d 9acd bfbe aaf1 e9bd
00000060: 3070 fabd 3413 0abe 9a65 adbe d036 9abe
00000070: 4cae 8abe dbad 16be 45d8 27be 281b 6dbe
00000080: 5b75 35be 657d 40be 6854 35be 887b 813c
00000090: ed5c 47be e671 73be c688 65be 035d d93a
000000a0: 4943 93be e26e 9fbd 16dc 7bbe eb8f 6ebe
000000b0: 26c3 fa3a 683c 69be 09f4 a1be 02f7 1abe
000000c0: 8b92 26be c286 7abe d957 cdbd 0855 6dbe
000000d0: 17af 2abe 329a f9bd 8436 6fbe 742a 16be
000000e0: af54 84be 799e 2ebe aa86 d1bd 6007 f5bb
000000f0: 0c0f 81be 9c07 a0bc 9dcb debd 14f2 273d

model.7.weight f4 [64]
0.8955116 0.9695583 0.9375118 0.95777225 0.9788938 0.9170484 0.9629351 0.9706426
0.98580414 0.9559624 0.9070505 0.9674537 0.8911947 0.98305726 0.9345737 0.9050485
0.9781288 0.9556866 0.9240216 0.9383804 0.9760711 0.97121656 0.9918466 0.9477151
0.9485946 0.95837796 0.97016263 0.9869144 0.9739762 0.96555156 0.9494509 0.95668864
1.0103348 0.9312517 0.95007485 0.9624238 0.9482327 0.9989478 0.9603509 0.97539234
0.98601896 0.958551 0.9559996 0.88034457 0.9554459 0.9569757 0.9545446 0.9762357
1.0139562 0.94135994 0.98601663 0.9480882 0.9639858 0.9326271 0.9720292 0.9290537
0.9705741 0.99387574 0.95777553 0.984543 0.9924896 0.97834975 0.9646503 1.0088081
00000000: 4040 653f f934 783f c600 703f 9030 753f
00000010: c998 7a3f afc3 6a3f ea82 763f 097c 783f
00000020: a95d 7c3f f4b9 743f 7634 683f 0cab 773f
00000030: 5625 643f a4a9 7b3f 3940 6f3f 42b1 673f
00000040: a666 7a3f e1a7 743f ae8c 6c3f b339 703f
00000050: ccdf 793f a6a1 783f a9e9 7d3f 759d 723f
00000060: 19d7 723f 4258 753f 945c 783f 6ca6 7c3f
00000070: 8156 793f 632e 773f 370f 733f 8ce9 743f
00000080: a752 813f 8366 6e3f 1b38 733f 6861 763f
00000090: 61bf 723f 0bbb 7f3f 8ed9 753f 50b3 793f
000000a0: bd6b 7c3f 9963 753f 64bc 743f 435e 613f
000000b0: 1a98 743f 5cfc 743f 095d 743f 95ea 793f
000000c0: 51c9 813f f7fc 703f 966b 7c3f e9b5 723f
000000d0: c6c7 763f a6c0 6e3f e8d6 783f 77d6 6d3f
000000e0: 8b77 783f a46e 7e3f c730 753f 030b 7c3f
000000f0: cc13 7e3f 2175 7a3f 52f3 763f a020 813f

model.7.bias f4 [64]
-0.13199706 -0.39772534 0.020948593 0.033339873 -0.20932092 -0.13604815 0.10625028 -0.0027796899
-0.14662735 -0.13959362 0.3195751 -0.29225734 -0.33559942 -0.06606519 0.12810601 0.2962017
-0.035291918 0.029943494 0.014494809 4.12215e-05 -0.044615578 0.26919413 0.035492007 -0.07296244
-0.07818596 0.16551836 0.028877567 0.03180992 -0.122650005 0.19026023 0.053464234 0.26376373
0.08377693 0.21200767 -0.010851729 -0.27364704 0.075012006 0.22163647 0.022186862 -0.037553284
-0.07411144 0.029555174 -0.07588687 -0.13618675 -0.14393134 0.13667403 0.0062229605 -0.028142558
-0.08563811 -0.011490726 0.010773229 0.0069892574 0.08350228 -0.2021894 -0.08254438 0.122581765
0.105062 -0.4094328 -0.09706615 0.37690336 0.1799458 -0.073368624 0.09674605 -0.012734198
00000000: 3d2a 07be a8a2 cbbe 629c ab3c 648f 083d
00000010: 3958 56be 3550 0bbe bf99 d93d 752b 36bb
00000020: 7b25 16be a1f1 0ebe 599f a33e c1a2 95be
00000030: b0d3 abbe 304d 87bd 392e 033e c0a7 973e
00000040: 428e 10bd 0f4c f53c a37b 6d3c 40e5 2c38
00000050: d3be 36bd d0d3 893e 1160 113d 556d 95bd
00000060: f61f a0bd a57d 293e a690 ec3c 1e4b 023d
00000070: ed2f fbbd 94d3 423e 50fd 5a3d 0a0c 873e
00000080: 3d93 ab3d 8a18 593e 73cb 31bc 771b 8cbe
00000090: e59f 993d acf4 623e 39c1 b53c 79d1 19bd
000000a0: bdc7 97bd b11d f23c 936a 9bbd 8a74 0bbe
000000b0: bd62 13be 47f4 0b3e fae9 cb3b 398b e6bc
000000c0: 0963 afbd 9943 3cbc 3382 303c 2406 e53b
000000d0: 3e03 ab3d bd0a 4fbe 070d a9bd 260c fb3d
000000e0: bf2a d73d 2da1 d1be 9eca c6bd 7af9 c03e
000000f0: b643 383e 4a42 96bd cb22 c63d 19a3 50bc

model.7.running_mean f4 [64]
0.0017261037 0.09191909 -0.061807964 -0.041980114 -0.037400987 0.09229452 -0.041661795 -0.05099998
-0.090014495 0.2888366 0.078894235 0.35869884 0.16015525 0.35057616 -0.040188372 0.0127405515
0.11312325 -0.05367517 0.18678266 0.0853218 0.28404242 0.24061981 0.009492627 0.051184814
-0.1008197 0.5795566 -0.13993861 -0.02108261 0.025168512 -0.04603636 0.022235561 -0.13201132
-0.1358854 -0.06183933 0.1750378 0.6373589 -0.05114805 0.021317761 0.029541599 0.529329
-0.09239212 0.068015866 -0.03926331 -0.064378865 0.031678747 -0.12916839 -0.057392135 0.05430774
-0.03771564 0.06936536 0.040759984 0.0058954894 -0.055097185 -0.002207466 -0.05436672 -0.048190914
-0.09520519 0.26253584 0.002243153 -0.01922483 0.21024647 0.19797522 0.06023041 0.79346347
00000000: 6e3e e23a 1340 bc3d 592a 7dbd 57f3 2bbd
00000010: c731 19bd e904 bd3d 8fa5 2abd 5be5 50bd
00000020: 8559 b8bd 64e2 933e 4d93 a13d 60a7 b73e
00000030: bdff 233e b87e b33e 909c 24bd bfbd 503c
00000040: 2aad e73d 7fda 5bbd f443 3f3e 32bd ae3d
00000050: 026e 913e 0a65 763e f786 1b3c 2ba7 513d
00000060: 8f7a cebd d25d 143f 114c 0fbe 70b5 acbc
00000070: 322e ce3c 9f90 3cbd 5a27 b63c fa2d 07be
00000080: 8b25 0bbe 3d4b 7dbd 1c3d 333e f429 233f
00000090: 9e80 51bd 96a2 ae3c 3901 f23c 1b82 073f
000000a0: 1438 bdbd e74b 8b3d 91d2 20bd 11d9 83bd
000000b0: 93c1 013d b844 04be 0414 6bbd cb71 5e3d
000000c0: b77b 1abd 6d0f 8e3d f1f3 263d f32e c13b
000000d0: 96ad 61bd 22ab 10bb a3af 5ebd d663 45bd
000000e0: f0fa c2bd 196b 863e dd01 133b 647d 9dbc
000000f0: da4a 573e 04ba 4a3e 2ab4 763d 6c20 4b3f

model.7.running_var f4 [64]
0.3162618 1.8660022 0.08374521 0.4064544 0.52114147 0.7523999 0.4196343 0.12933397
0.7746215 0.60515434 0.3238931 0.89685977 2.2454271 0.32712197 0.0942705 0.12375814
0.32252476 0.19772969 0.7468319 1.5247884 1.4074526 0.31505558 1.8723967 0.16555636
0.048723314 1.0460577 0.105099194 0.5239461 0.34326735 0.16706274 0.29357633 0.0830528
0.018471394 0.07936103 1.842704 1.0421203 0.19622013 0.81917065 0.9013735 0.36999136
0.44046026 0.14416695 0.2589588 0.09390382 0.25275692 0.024997706 0.24056995 0.20510945
0.08057907 0.33965024 0.16751723 0.13389501 0.116486296 0.16307226 0.03302894 0.11409804
0.15390374 1.9932573 0.11012542 0.10969221 0.4177264 1.1948494 0.3668961 0.5461773
00000000: 11ed a13e 29d9 ee3f 9c82 ab3d cb1a d03e
00000010: 8769 053f 489d 403f 4fda d63e 2070 043e
00000020: 984d 463f 65eb 1a3f 51d5 a53e 9a98 653f
00000030: 14b5 0f40 887c a73e e410 c13d e874 fd3d
00000040: f721 a53e a779 4a3e 6030 3f3f 442c c33f
00000050: 6827 b43f f74e a13e b2aa ef3f 9b87 293e
00000060: 1992 473d 38e5 853f 3f3e d73d 5521 063f
00000070: bdc0 af3e 7f12 2b3e a34f 963e 9617 aa3d
00000080: 5251 973c 0988 a23d badd eb3f 3364 853f
00000090: eeed 483e 2bb5 513f 6ac0 663f 826f bd3e
000000a0: 0284 e13e 80a0 133e 3f96 843e a550 c03d
000000b0: 5b69 813e fdc7 cc3c f857 763e 3608 523e
000000c0: a406 a53d a3e6 ad3e a389 2b3e c61b 093e
000000d0: 5e90 ee3d 6afc 263e 5b49 073d 3cac e93d
000000e0: f198 1d3e 0e23 ff3f 7089 e13d 4fa6 e03d
000000f0: 3ce0 d53e d3f0 983f ced9 bb3e 47d2 0b3f

model.8.weight f4 [128, 64, 3, 3]
-0.06975126 0.0039782147 -0.055387728 -0.026416829 -0.01911191 0.0094175255 -1.994532e-05 0.04315396
-0.04353162 -0.034272064 -0.027495708 0.025800066 -0.020870348 -0.04542062 0.05956823 0.059571605
0.013138024 0.012936649 0.013418356 -0.002209219 0.051678088 -0.041201737 -0.14728965 -0.020280372
-0.07607902 0.0005452609 -0.046199083 0.12391044 0.081332214 -0.008971848 -0.03942439 0.016732635
0.06580162 -0.018863 0.0032008258 -0.0007538805 -0.104551435 -0.01103932 0.025655804 0.09911302
-0.009662752 0.023060095 0.014304255 -0.04992154 0.06433138 -0.016085451 0.02028201 -0.0074991034
-0.026909389 0.059119135 -0.02697478 0.034039635 -0.03132967 -0.0032221847 0.045071673 -0.03507539
-0.077790916 0.09212861 0.033499934 -0.034361396 0.05124601 0.024474446 0.049808834 0.0386044
0.010814468 -0.06197015 0.0091194855 -0.024467368 -0.064079754 0.03484257 0.01824242 0.00330879
0.03451307 -0.050854027 0.03558359 -0.08678608 0.11344405 0.09006193 -0.082958244 -0.070807196
0.026789743 0.051798962 -0.016273346 0.018334739 -0.032003246 0.058853075 0.059168715 0.05448913
0.061462015 0.04336263 0.027186535 0.016349135 -0.013736128 -0.1297078 -0.05550499 -0.046440702
-0.056640353 0.05780963 0.050632942 0.07309131 0.0083462 -0.0123652555 -0.038102508 0.05241801
0.097911246 -0.05757559 -0.075405866 -0.021925507 -0.018250607 0.04104359 0.06745253 -0.024928559
0.008566205 0.08282977 -0.004173401 -0.02800443 0.07883763 0.0718891 0.043556347 0.06703823
0.0642626 -0.003095137 -0.053308867 0.048203122 0.11274985 -0.011025797 -0.056139924 0.048316203
-0.023837633 0.0411183 -0.031056974 0.0052972166 0.024749104 -0.0044676056 0.023030967 0.06637556
0.019052364 -0.0015941372 0.014242492 0.013990253 -0.07239639 -0.058517102 -0.01585287 0.054238226
0.040035274 0.04984596 0.014408263 0.051205505 0.029342167 -0.010481081 0.032800652 -0.0367692
-0.011184074 -0.0074178125 0.010424477 -0.0814456 0.053237848 0.103942014 0.058136746 -0.012208229
0.0060704662 0.018666737 -0.05113042 -0.05811267 -0.001175889 -0.037106413 -0.0021491726 0.037117258
0.036306594 0.056409087 -0.011684686 -0.020081766 0.04366708 0.04215362 0.05859437 -0.03677346
-0.037503976 -0.0026103219 -0.0005206374 0.01395213 0.039388955 0.10285038 0.00033901728 -0.004960457
-0.063717425 -0.08195162 -0.012298718 0.02037735 0.00038230862 -0.09354915 -0.015644953 -0.01659228
-0.11137358 0.07519426 0.042126205 0.023479233 0.011736294 -0.051207013 0.012100228 0.018104307
-0.015544048 -0.03179915 -0.11349131 0.010606088 0.06632499 0.067147166 0.016976733 0.03562177
-0.035365216 -0.019314554 -0.00925483 -0.010456925 -0.012067579 0.0057501476 -0.03434917 0.048417673
-0.02660484 0.06860988 -0.077560425 0.016916057 0.03930236 0.037933588 0.020002592 -0.025815269
-0.06525714 -0.055401377 -0.024674749 -0.0006461655 0.012701738 0.0010911733 -0.03428896 -0.034503043
-0.03599378 -0.068828374 0.041779015 0.039532706 -0.029545724 0.08399296 2.9739924e-05 -0.011095118
0.14872795 -0.035896942 -0.025987148 -0.031736426 0.0349256 -0.014248976 -0.006922854 0.08948695
-0.059390757 0.07334414 0.08714515 -0.06251356 0.11770298 -0.040465906 -0.11990189 -0.04358624
00000000: c0d9 8ebd af5b 823b 3ede 62bd 1b68 d8bc
00000010: 9590 9cbc f74b 1a3c 4050 a7b7 35c2 303d
00000020: 364e 32bd dd60 0cbd ae3e e1bc a95a d33c
00000030: 4bf8 aabc f90a 3abd d1fd 733d 5b01 743d
00000040: de40 573c 3df4 533c aad8 5b3c 8bc8 10bb
00000050: 67ac 533d 27c3 28bd 19d3 16be 0623 a6bc
00000060: 51cf 9bbd d7ef 0e3a 403b 3dbd c2c4 fd3d
00000070: 8191 a63d a8fe 12bc 787b 21bd e112 893c
00000080: 00c3 863d 9486 9abc f2c4 513b 10a0 45ba
00000090: 101f d6bd 44de 34bc 1f2c d23c c4fb ca3d
000000a0: 8550 1ebc 86e8 bc3c 655c 6a3c 877a 4cbd
000000b0: 2cc0 833d a3c5 83bc 7526 a63c 0abb f5bb
000000c0: 1471 dcbc e826 723d 37fa dcbc 256d 0b3d
000000d0: 8a53 00bd 4a2b 53bb 139d 383d 36ab 0fbd
000000e0: d850 9fbd edad bc3d 3a37 093d 89be 0cbd
000000f0: 56e7 513d a27e c83c 5904 4c3d a61f 1e3d
00000100: 2b2f 313c 69d4 7dbd e569 153c ca6f c8bc
00000110: 3f3c 83bd 15b7 0e3d 2171 953c 49d8 583b
00000120: 945d 0d3d 504c 50bd 19c0 113d e6bc b1bd
00000130: 5b55 e83d 6472 b83d 03e6 a9bd 5d03 91bd
00000140: 2a76 db3c 262b 543d ae4f 85bc bc32 963c
00000150: d615 03bd ec0f 713d e55a 723d fe2f 5f3d
00000160: 98bf 7b3d 039d 313d 4cb6 de3c 9fee 853c
00000170: 7f0d 61bc 1fd2 04be 3359 63bd 9b38 3ebd
00000180: b7ff 67bd cac9 6c3d 7d64 4f3d e6b0 953d
00000190: 80be 083c a497 4abc 6011 1cbd 44b4 563d
000001a0: b185 c83d 62d4 6bbd 646e 9abd 1f9d b3bc
000001b0: 4c82 95bc 531d 283d 8d24 8a3d fa36 ccbc
000001c0: 4559 0c3c a8a2 a93d 06c1 88bb 8c69 e5bc
000001d0: a075 a13d 983a 933d 2468 323d 574b 893d
000001e0: 1c9c 833d c8d7 4abb 665a 5abd a370 453d
000001f0: 65e9 e63d 8ba5 34bc faf2 65bd 36e7 453d
00000200: 2447 c3bc aa6b 283d 326b febc 4694 ad3b
00000210: a2be ca3c fe64 92bb 70ab bc3c e9ef 873d
00000220: b413 9c3c 5ef2 d0ba 5759 693c 6037 653c
00000230: 8f44 94bd a1af 6fbd e1dd 81bc e728 5e3d
00000240: 07fc 233d 472b 4c3d a310 6c3c ddbc 513d
00000250: fc5e f03c d7b8 2bbc fa59 063d 4d9b 16bd
00000260: 683d 37bc 1f11 f3bb 6dcb 2a3c f3cc a6bd
00000270: ee0f 5a3d 8ddf d43d cc20 6e3d 0605 48bc
00000280: c3ea c63b fcea 983c 226e 51bd 8d07 6ebd
00000290: 4a20 9aba e5fc 17bd 22d9 0cbb 4408 183d
000002a0: 39b6 143d 370d 673d 2071 3fbc 8482 a4bc
000002b0: 41dc 323d 46a9 2c3d a600 703d c59f 16bd
000002c0: c59d 19bd ef11 2bbb 627b 08ba 7a97 643c
000002d0: 5056 213d 38a3 d23d 21be b139 548b a2bb
000002e0: 487e 82bd 40d6 a7bd 9080 49bc 66ee a63c
000002f0: 9870 c839 b296 bfbd d829 80bc 88ec 87bc
00000300: d517 e4bd 73ff 993d 878c 2c3d 8557 c03c
00000310: 9649 403c 72be 51bd 0940 463c 7c4f 943c
00000320: 76ac 7ebc d33f 02bd 226e e8bd 28c5 2d3c
00000330: 65d5 873d 7484 893d ca12 8b3c 22e8 113d
00000340: 1edb 10bd 8e39 9ebc 92a1 17bc 8653 2bbc
00000350: 18b7 45bc bc6b bc3b b7b1 0cbd 9c51 463d
00000360: 65f2 d9bc 5683 8c3d 00d8 9ebd 8b93 8a3c
00000370: 83fb 203d 4060 1b3d 7adc a33c 8b7a d3bc
00000380: 89a5 85bd 8eec 62bd b322 cabc 6f63 29ba
00000390: f31a 503c b305 8f3a 9572 0cbd 1053 0dbd
000003a0: 376e 13bd e4f5 8cbd 7920 2b3d 0ced 213d
000003b0: e009 f2bc 8004 ac3d 007a f937 4cc8 35bc
000003c0: 244c 183e ac08 13bd 00e3 d4bc 0efe 01bd
000003d0: 250e 0f3d 8974 69bc 1cd9 e2bb ef44 b73d
000003e0: b943 73bd 7435 963d 2879 b23d 1c07 80bd
000003f0: 430e f13d 94bf 25bd 1f8f f5bd 7c87 32bd

model.8.bias f4 [128]
-0.13747126 -0.15010749 -0.06743122 -0.038634412 -0.07487786 -0.09395364 -0.030042855 -0.24029025
-0.18897238 -0.08148111 -0.03623271 -0.11083018 -0.108090304 -0.043869317 -0.08821185 -0.07934941
-0.06924399 -0.074374996 -0.044195987 0.0006725022 -0.09995938 -0.25146824 -0.16323575 -0.091691256
-0.048106566 -0.095126204 -0.09680391 -0.038153596 -0.014230383 -0.03446497 -0.060432095 -0.07211301
-0.19892299 -0.113731824 -0.034161303 -0.13274476 -0.055474464 -0.108758256 -0.12682416 -0.40616012
-0.038039643 -0.06922925 -0.06367886 -0.09966691 -0.034122102 -0.086786024 -0.09563944 -0.11696955
-0.19599496 -0.3154026 -0.1385677 -0.03284186 -0.038787026 -0.20526269 -0.14602369 -0.039561022
-0.051298875 -0.04645003 -0.077359885 -0.22376691 -0.3443118 -0.018280478 -0.015082182 -0.17199735
-0.18095526 -0.08470959 -0.00819359 -0.10366075 -0.15585129 -0.1514749 -0.15147413 -0.0460612
-0.029464243 -0.115102485 -0.104315706 -0.23035927 -0.16318263 -0.026957069 -0.16339533 -0.004022737
-0.12656905 -0.08488774 -0.070120156 -0.13203809 -0.05679782 -0.10728691 -0.27044597 -0.35912833
-0.43401447 -0.115417995 -0.014554385 -0.05653371 -0.0012277125 -0.29394242 0.054036938 -0.089906536
-0.07455471 -0.06499926 -0.08474342 -0.04816571 -0.09229263 -0.06348076 -0.1483105 -0.02362132
-0.11538802 -0.2711405 -0.37510258 -0.084585935 -0.04231868 -0.073886804 -0.104086466 -0.034913953
-0.047161244 -0.009864956 -0.42740178 -0.1159053 -0.06263833 0.017144024 -0.008210486 -0.0916206
-0.27535245 -0.083143815 0.007280451 -0.009408205 -0.026170477 -0.16575854 -0.065278046 -0.14597999
00000000: 44c5 0cbe c7b5 19be 6119 8abd 1e3f 1ebd
00000010: 9059 99bd c46a c0bd 6f1c f6bc a60e 76be
00000020: fa81 41be 91df a6bd c068 14bd effa e2bd
00000030: 735e ddbd 50b0 33bd 6aa8 b4bd f281 a2bd
00000040: cbcf 8dbd eb51 98bd da06 35bd dc4a 303a
00000050: 81b7 ccbd 72c0 80be 4627 27be a0c8 bbbd
00000060: 640b 45bd 87d1 c2bd 2141 c6bd f246 1cbd
00000070: 8d26 69bc 242b 0dbd a587 77bd fcaf 93bd
00000080: 78b2 4bbe 3bec e8bd b9ec 0bbd 3eee 07be
00000090: 3139 63bd a6bc debd 31de 01be 38f4 cfbe
000000a0: 75cf 1bbd 11c8 8dbd 106a 82bd 2a1e ccbd
000000b0: 9ec3 0bbd dfbc b1bd 9cde c3bd bb8d efbd
000000c0: e7b2 48be 737c a1be b1e4 0dbe 3085 06bd
000000d0: 25df 1ebd 6230 52be 3c87 15be bd0a 22bd
000000e0: c51e 52bd 6342 3ebd dc6e 9ebd 2723 65be
000000f0: a349 b0be f1c0 95bc 421b 77bc 1320 30be
00000100: 564c 39be 397c adbd 683e 06bc 164c d4bd
00000110: 7b97 1fbe 3c1c 1bbe 091c 1bbe abaa 3cbd
00000120: ff5e f1bc daba ebbd 79a3 d5bd 4de3 6bbe
00000130: 5919 27be 12d5 dcbc 1b51 27be 2ad1 83bb
00000140: 519b 01be a0d9 adbd 289b 8fbd fe34 07be
00000150: d5a4 68bd 3db9 dbbd e577 8abe abdf b7be
00000160: 2537 debe 4560 ecbd 8475 6ebc e48f 67bd
00000170: 32eb a0ba 9f7f 96be d655 5d3d eb20 b8bd
00000180: 24b0 98bd 551e 85bd f58d adbd 6849 45bd
00000190: eb03 bdbd 3302 82bd b5de 17be 8081 c1bc
000001a0: 8e50 ecbd edd2 8abe 720d c0be 643b adbd
000001b0: 5a56 2dbd f751 97bd 492b d5bd ef01 0fbd
000001c0: 262c 41bd a0a0 21bc 68d4 dabe c25f edbd
000001d0: 8648 80bd a071 8c3c 4685 06bc 95a3 bbbd
000001e0: fffa 8cbe 4e47 aabd d990 ee3b df24 1abc
000001f0: 7863 d6bc 9bbc 29be 7fb0 85bd c77b 15be

model.10.weight f4 [128]
1.0061746 0.9280392 0.99320775 0.9408135 0.92425084 0.9666376 0.8252629 0.991921
1.0042384 0.9006126 0.97395337 0.8901914 1.0048546 0.9921644 1.0000335 0.86624455
0.86712784 0.9326553 0.9922237 0.9549205 0.99302644 1.0053061 0.97807735 0.96611536
0.99104244 0.92195785 0.9821074 0.9536162 0.9056217 1.0044098 0.9774296 0.99218917
1.0061103 0.9205501 0.92000484 0.9845442 0.9742589 0.9918227 0.9482302 1.0071219
0.9529061 0.9942657 0.96451676 0.96848285 0.9923297 0.926559 0.94734997 0.9760972
0.90692073 1.0056005 0.965722 0.9920123 0.9981634 0.987868 1.006406 0.97184026
0.925292 0.94861335 1.0107999 1.001544 1.0061957 0.9721934 0.94015276 1.0049231
0.9773324 1.004572 0.91085386 1.0083352 0.99043167 1.0026718 0.95947385 0.95272493
0.9645521 0.9449771 0.92711866 1.0036263 0.963051 0.95203966 1.006308 0.9535659
0.9334479 0.93652785 0.9872044 0.9702128 0.9076834 0.9946049 0.9969128 1.0061212
1.0077732 0.965398 0.90581155 0.91659504 0.99190974 1.0069344 0.9913105 1.0050083
1.0005523 0.9951133 0.9630035 0.93025905 0.9294981 0.9574426 0.8932188 0.99392575
0.9910349 1.0053018 1.0079169 0.9263875 0.99911255 0.9932363 0.88993776 0.9247398
0.9384 1.0068605 1.0070927 1.006656 0.89453447 0.91370094 0.98822373 0.92094195
0.9403906 0.92955345 0.93716717 0.9586383 0.9281488 0.99044764 0.91744316 0.9857488
00000000: 54ca 803f fa93 6d3f dd42 7e3f 27d9 703f
00000010: b49b 6c3f 9075 773f 6e44 533f 89ee 7d3f
00000020: e28a 803f 8c8e 663f 0255 793f 95e3 633f
00000030: 139f 803f 7cfe 7d3f 1901 803f 34c2 5d3f
00000040: 17fc 5d3f 7fc2 6e3f 5f02 7e3f ab75 743f
00000050: fb36 7e3f dfad 803f 4763 7a3f 5653 773f
00000060: f5b4 7d3f 6e05 6c3f 646b 7b3f 3120 743f
00000070: d3d6 673f 8090 803f d438 7a3f 1c00 7e3f
00000080: 39c8 803f 2ca9 6b3f 7085 6b3f 170b 7c3f
00000090: 0869 793f 18e8 7d3f 37bf 723f 5fe9 803f
000000a0: a7f1 733f 3288 7e3f 92ea 763f 7eee 773f
000000b0: 5209 7e3f f832 6d3f 8785 723f 82e1 793f
000000c0: f52b 683f 84b7 803f 8f39 773f 85f4 7d3f
000000d0: a387 7f3f ebe4 7c3f e9d1 803f 86ca 783f
000000e0: f0df 6c3f 53d8 723f e461 813f 9832 803f
000000f0: 05cb 803f abe1 783f daad 703f 52a1 803f
00000100: 7532 7a3f d195 803f b82d 693f 2111 813f
00000110: ee8c 7d3f 8d57 803f 14a0 753f c8e5 733f
00000120: e3ec 763f 05ea 713f a657 6d3f d476 803f
00000130: 838a 763f dfb8 733f b3ce 803f e51c 743f
00000140: 71f6 6e3f 4ac0 6f3f 6db9 7c3f de5f 783f
00000150: f05d 683f 6d9e 7e3f ad35 7f3f 94c8 803f
00000160: b6fe 803f 5324 773f 44e3 673f f9a5 6a3f
00000170: cced 7d3f 3ae3 803f 86c6 7d3f 1da4 803f
00000180: 1912 803f bfbf 7e3f 6687 763f 7525 6e3f
00000190: 96f3 6d3f f51a 753f fda9 643f eb71 7e3f
000001a0: 77b4 7d3f bbad 803f 6c03 813f bb27 6d3f
000001b0: d7c5 7f3f bc44 7e3f f6d2 633f bfbb 6c3f
000001c0: fb3a 703f cee0 803f 6ae8 803f 1bda 803f
000001d0: 3600 653f 4ee8 693f 3bfc 7c3f dac2 6b3f
000001e0: 70bd 703f 37f7 6d3f 30ea 6f3f 5269 753f
000001f0: 299b 6d3f fa8d 7d3f 8edd 6a3f 095a 7c3f

model.10.bias f4 [128]
-0.0060236463 0.05654397 0.0118899075 0.03607679 0.019445447 0.021928154 0.059269853 0.011706455
0.015182876 0.019896366 0.022715619 0.029990412 0.017771706 -0.005266726 0.012763818 0.014178054
0.0122052645 0.011201989 -0.009085255 0.014992369 -0.0052667335 0.03606134 0.012766459 0.014134469
-0.007239898 -0.0021621848 0.010689979 0.011492752 0.00041471518 0.010663156 0.035459038 0.0054395264
0.010169628 0.03736875 0.00014555942 -0.00407558 -0.007165706 -0.00087033806 0.038767796 0.012927988
0.06185313 -0.004859576 0.0032126005 -0.0075565805 -0.08239201 0.017374191 0.012489022 -0.0039461507
0.016539043 -0.0049283816 0.0376702 0.0033243592 0.023620764 0.0028274765 0.027901534 -0.0019158939
0.0134492265 -0.0073676547 -0.00081543287 0.019410186 0.02666371 0.004097624 -0.0041451766 0.012164354
0.034142137 0.028029108 0.029966934 0.00960927 0.015588932 0.031798396 0.030563012 -0.0032727027
0.04111439 0.012442814 -0.004873743 0.011323372 0.0117990505 -0.0060496726 0.016190037 -0.0041264645
-0.0017747771 0.079715654 0.0148772225 -0.009036608 0.05581272 0.02062638 -0.010839772 0.010051478
0.018175725 0.013751703 -0.004607023 -0.0060636657 -0.005999507 0.0079971505 -0.0074396073 0.015398656
-0.0047183894 -0.008723037 0.012719278 0.04175326 -0.006301427 -0.0039598565 0.022963189 0.00534701
0.013990694 0.0066902624 -0.0064308555 0.020531755 0.019032933 -0.006871571 0.04503218 0.0006973344
0.024863675 -0.018723058 0.010628501 0.040140547 0.05404484 -0.007995337 -0.0078452 0.018086564
0.025982562 0.027922692 0.043889906 -0.008410313 -0.00026052585 -0.030329395 0.017999128 0.027847739
00000000: 0262 c5bb a69a 673d e3cd 423c 42c5 133d
00000010: 0f4c 9f3c aca2 b33c f2c4 723d 6ecc 3f3c
00000020: 99c1 783c b4fd a23c 1b16 ba3c 74ae f53c
00000030: f895 913c 8094 acbb 551f 513c 124b 683c
00000040: 97f8 473c 8c88 373c 52da 14bc 8ea2 753c
00000050: 9094 acbb 0eb5 133d 692a 513c 4394 673c
00000060: ab3c edbb 71b3 0dbb 0625 2f3c 184c 3c3c
00000070: 216e d939 85b4 2e3c 7f3d 113d 0e3e b23b
00000080: 839e 263c f90f 193d 4fa1 1839 718c 85bb
00000090: 4cce eabb 6627 64ba fbca 1e3d e9cf 533c
000000a0: b559 7d3d 143d 9fbb 7e8a 523b 319d f7bb
000000b0: 24bd a8bd 5254 8e3c c19e 4c3c b64e 81bb
000000c0: e37c 873c 437e a1bb 114c 1a3d 7edd 593b
000000d0: 5580 c13c 2f4d 393b c291 e43c bb1e fbba
000000e0: 255a 5c3c 5e6c f1bb c6c2 55ba 1c02 9f3c
000000f0: da6d da3c 5d45 863b 43d4 87bb 004d 473c
00000100: a0d8 0b3d 4d9d e53c 377d f53c 3370 1d3c
00000110: b868 7f3c 093f 023d 485f fa3c d77a 56bb
00000120: 9067 283d f2dc 4b3c ebb3 9fbb aa85 393c
00000130: ce50 413c 553c c6bb f8a0 843c 4b37 87bb
00000140: a39f e8ba f641 a33d 98bf 733c 480e 14bc
00000150: e19b 643d a7f8 a83c 4d99 31bc f4ae 243c
00000160: 42e5 943c d34e 613c 83f6 96bb b7b1 c6bb
00000170: 8397 c4bb 7b06 033c f3c7 f3bb a54a 7c3c
00000180: b89c 9abb 12eb 0ebc 8564 503c 7705 2b3d
00000190: 337c cebb afc1 81bb 4c1d bc3c f935 af3b
000001a0: 3939 653c fd39 db3b edb9 d2bb 3632 a83c
000001b0: f4ea 9b3c ea2a e1bb aa73 383d 52cd 363a
000001c0: e8ae cb3c 1961 99bc 2a23 2e3c 6a6a 243d
000001d0: 1f5e 5d3d e0fe 02bc 2789 00bc 462a 943c
000001e0: 62d9 d43c 21be e43c e7c5 333d 69cb 09bc
000001f0: 3097 88b9 5a75 f8bc e872 933c f120 e43c

model.10.running_mean f4 [128]
0.044199843 0.39041764 0.056961097 -0.07937771 0.15849961 0.3802784 0.38347882 -0.05311555
0.12460269 0.115668185 0.12364 0.1250455 0.030178048 -0.045453016 -0.055972163 0.58475405
0.09485305 -0.050955757 -0.027018096 -0.058023196 -0.005997576 -0.03529332 -0.025796296 0.044808842
0.03662594 -0.1008458 -0.053425804 0.08008761 -0.1322611 -0.09737862 0.07634845 -0.02589232
0.14024352 -0.14885765 0.0651047 -0.045627818 0.3037016 0.004409297 0.215176 -0.07915526
0.30692863 -0.035570297 0.057533037 0.02699094 -0.014404343 0.2574595 -0.04395657 0.12542227
-0.13116424 -0.013037868 0.010298907 0.15213466 0.5487782 -0.09540345 0.17875785 0.33300662
0.4025486 0.40635332 -0.18055138 0.058604915 -0.21910606 0.15014859 0.16136248 0.074730605
-0.12275982 -0.10540456 -0.071182676 0.26094824 -0.1421666 -0.035666667 0.17455626 -0.09159479
-1.942762e-06 0.05736036 0.01600806 -0.2296083 0.036069542 0.22898316 0.04173483 0.0859479
0.47331625 0.46459994 0.2744945 0.21911094 0.39288735 0.03616306 0.046206042 -0.24685661
-0.16280779 -0.10585236 -0.035305213 0.14034376 0.033532403 -0.10321699 0.25213066 0.040666364
-0.06344102 -0.020668203 -0.060053967 -0.060837205 -0.10112214 -0.12328766 0.28155303 -0.08442716
0.12535349 -4.349174e-05 -0.13022882 0.31164548 0.16901344 -0.1768295 0.28552824 0.40387312
0.19414814 0.039262187 -0.08495028 0.023016721 0.13754044 0.050883215 0.34413397 0.38629252
-0.27029213 0.45420417 -0.11935217 0.6942104 -0.026454179 -0.030595234 0.026189635 0.46510038
00000000: e50a 353d d2e4 c73e 0a50 693d c890 a2bd
00000010: b94d 223e dab3 c23e 5657 c43e b18f 59bd
00000020: b22f ff3d 71e3 ec3d f836 fd3d ed0b 003e
00000030: f437 f73c f12c 3abd 1143 65bd 71b2 153f
00000040: 5142 c23d fcb6 50bd 0e55 ddbc bba9 6dbd
00000050: 5087 c4bb ba8f 10bd c152 d3bc 7a89 373d
00000060: 1505 163d 3e88 cebd 04d5 5abd f904 a43d
00000070: 746f 07be 716e c7bd 935c 9c3d 211c d4bc
00000080: ff9b 0f3e 246e 18be 9d55 853d 3ce4 3abd
00000090: c77e 9b3e dd7b 903b 1957 5c3e 271c a2bd
000000a0: c025 9d3e 29b2 11bd c3a7 6b3d 1b1c dd3c
000000b0: 3200 6cbc bbd1 833e ce0b 34bd b26e 003e
000000c0: eb4f 06be c89c 55bc bfbc 283c 30c9 1b3e
000000d0: ba7c 0c3f e262 c3bd 4c0c 373e d87f aa3e
000000e0: da1a ce3e 8b0d d03e 76e2 38be b50b 703d
000000f0: 575d 60be 8dc0 193e 353c 253e 5c0c 993d
00000100: 8069 fbbd 59de d7bd 39c8 91bd 029b 853e
00000110: 1f94 11be 3617 12bd e0be 323e 0d96 bbbd
00000120: 6660 02b6 b2f2 6a3d 5623 833c 701e 6bbe
00000130: a8bd 133d 907a 6a3e 24f2 2a3d 7405 b03d
00000140: 8256 f23e 0be0 ed3e 8b8a 8c3e 9e5e 603e
00000150: 8828 c93e b81f 143d 8c42 3d3d fbc7 7cbe
00000160: 16b7 26be 1fc9 d8bd 339c 10bd 46b6 0f3e
00000170: 4659 093d 6e63 d3bd 4517 813e c691 263d
00000180: 5eed 81bd 5d50 a9bc 26fb 75bd 6f30 79bd
00000190: 2019 cfbd 3e7e fcbd b827 903e 26e8 acbd
000001a0: aa5c 003e e66a 36b8 b45a 05be ff8f 9f3e
000001b0: dc11 2d3e cb12 35be c230 923e 75c8 ce3e
000001c0: c5ce 463e 63d1 203d 6afa adbd 908d bc3c
000001d0: 67d7 0c3e eb6a 503d 5432 b03e 22c8 c53e
000001e0: bb63 8abe 738d e83e e96e f4bd c6b7 313f
000001f0: 6fb6 d8bc dba2 fabc a58b d63c a321 ee3e
